…
I0531 19:37:31.575626 122398 net.cpp:322] The NetState phase (0) differed from the phase (1) specified by a rule in layer loss3/top-5
I0531 19:37:31.576737 122398 net.cpp:49] Initializing net from parameters: 
name: "foodCAT_food101_googlenet"
state {
  phase: TRAIN
}
layer {
  name: "data"
  type: "ImageData"
  top: "data"
  top: "label"
  include {
    phase: TRAIN
  }
  transform_param {
    mirror: true
    crop_size: 224
    mean_value: 104
    mean_value: 117
    mean_value: 123
  }
  image_data_param {
    source: "foodCAT_resized_balanced/train.txt"
    batch_size: 64
    shuffle: true
    new_height: 256
    new_width: 256
  }
}
layer {
  name: "conv1/7x7_s2"
  type: "Convolution"
  bottom: "data"
  top: "conv1/7x7_s2"
  param {
    lr_mult: 1
    decay_mult: 1
  }
  param {
    lr_mult: 2
    decay_mult: 0
  }
  convolution_param {
    num_output: 64
    pad: 3
    kernel_size: 7
    stride: 2
    weight_filler {
      type: "xavier"
      std: 0.1
    }
    bias_filler {
      type: "constant"
      value: 0.2
    }
  }
}
layer {
  name: "conv1/relu_7x7"
  type: "ReLU"
  bottom: "conv1/7x7_s2"
  top: "conv1/7x7_s2"
}
layer {
  name: "pool1/3x3_s2"
  type: "Pooling"
  bottom: "conv1/7x7_s2"
  top: "pool1/3x3_s2"
  pooling_param {
    pool: MAX
    kernel_size: 3
    stride: 2
  }
}
layer {
  name: "pool1/norm1"
  type: "LRN"
  bottom: "pool1/3x3_s2"
  top: "pool1/norm1"
  lrn_param {
    local_size: 5
    alpha: 0.0001
    beta: 0.75
  }
}
layer {
  name: "conv2/3x3_reduce"
  type: "Convolution"
  bottom: "pool1/norm1"
  top: "conv2/3x3_reduce"
  param {
    lr_mult: 1
    decay_mult: 1
  }
  param {
    lr_mult: 2
    decay_mult: 0
  }
  convolution_param {
    num_output: 64
    kernel_size: 1
    weight_filler {
      type: "xavier"
      std: 0.1
    }
    bias_filler {
      type: "constant"
      value: 0.2
    }
  }
}
layer {
  name: "conv2/relu_3x3_reduce"
  type: "ReLU"
  bottom: "conv2/3x3_reduce"
  top: "conv2/3x3_reduce"
}
layer {
  name: "conv2/3x3"
  type: "Convolution"
  bottom: "conv2/3x3_reduce"
  top: "conv2/3x3"
  param {
    lr_mult: 1
    decay_mult: 1
  }
  param {
    lr_mult: 2
    decay_mult: 0
  }
  convolution_param {
    num_output: 192
    pad: 1
    kernel_size: 3
    weight_filler {
      type: "xavier"
      std: 0.03
    }
    bias_filler {
      type: "constant"
      value: 0.2
    }
  }
}
layer {
  name: "conv2/relu_3x3"
  type: "ReLU"
  bottom: "conv2/3x3"
  top: "conv2/3x3"
}
layer {
  name: "conv2/norm2"
  type: "LRN"
  bottom: "conv2/3x3"
  top: "conv2/norm2"
  lrn_param {
    local_size: 5
    alpha: 0.0001
    beta: 0.75
  }
}
layer {
  name: "pool2/3x3_s2"
  type: "Pooling"
  bottom: "conv2/norm2"
  top: "pool2/3x3_s2"
  pooling_param {
    pool: MAX
    kernel_size: 3
    stride: 2
  }
}
layer {
  name: "inception_3a/1x1"
  type: "Convolution"
  bottom: "pool2/3x3_s2"
  top: "inception_3a/1x1"
  param {
    lr_mult: 1
    decay_mult: 1
  }
  param {
    lr_mult: 2
    decay_mult: 0
  }
  convolution_param {
    num_output: 64
    kernel_size: 1
    weight_filler {
      type: "xavier"
      std: 0.03
    }
    bias_filler {
      type: "constant"
      value: 0.2
    }
  }
}
layer {
  name: "inception_3a/relu_1x1"
  type: "ReLU"
  bottom: "inception_3a/1x1"
  top: "inception_3a/1x1"
}
layer {
  name: "inception_3a/3x3_reduce"
  type: "Convolution"
  bottom: "pool2/3x3_s2"
  top: "inception_3a/3x3_reduce"
  param {
    lr_mult: 1
    decay_mult: 1
  }
  param {
    lr_mult: 2
    decay_mult: 0
  }
  convolution_param {
    num_output: 96
    kernel_size: 1
    weight_filler {
      type: "xavier"
      std: 0.09
    }
    bias_filler {
      type: "constant"
      value: 0.2
    }
  }
}
layer {
  name: "inception_3a/relu_3x3_reduce"
  type: "ReLU"
  bottom: "inception_3a/3x3_reduce"
  top: "inception_3a/3x3_reduce"
}
layer {
  name: "inception_3a/3x3"
  type: "Convolution"
  bottom: "inception_3a/3x3_reduce"
  top: "inception_3a/3x3"
  param {
    lr_mult: 1
    decay_mult: 1
  }
  param {
    lr_mult: 2
    decay_mult: 0
  }
  convolution_param {
    num_output: 128
    pad: 1
    kernel_size: 3
    weight_filler {
      type: "xavier"
      std: 0.03
    }
    bias_filler {
      type: "constant"
      value: 0.2
    }
  }
}
layer {
  name: "inception_3a/relu_3x3"
  type: "ReLU"
  bottom: "inception_3a/3x3"
  top: "inception_3a/3x3"
}
layer {
  name: "inception_3a/5x5_reduce"
  type: "Convolution"
  bottom: "pool2/3x3_s2"
  top: "inception_3a/5x5_reduce"
  param {
    lr_mult: 1
    decay_mult: 1
  }
  param {
    lr_mult: 2
    decay_mult: 0
  }
  convolution_param {
    num_output: 16
    kernel_size: 1
    weight_filler {
      type: "xavier"
      std: 0.2
    }
    bias_filler {
      type: "constant"
      value: 0.2
    }
  }
}
layer {
  name: "inception_3a/relu_5x5_reduce"
  type: "ReLU"
  bottom: "inception_3a/5x5_reduce"
  top: "inception_3a/5x5_reduce"
}
layer {
  name: "inception_3a/5x5"
  type: "Convolution"
  bottom: "inception_3a/5x5_reduce"
  top: "inception_3a/5x5"
  param {
    lr_mult: 1
    decay_mult: 1
  }
  param {
    lr_mult: 2
    decay_mult: 0
  }
  convolution_param {
    num_output: 32
    pad: 2
    kernel_size: 5
    weight_filler {
      type: "xavier"
      std: 0.03
    }
    bias_filler {
      type: "constant"
      value: 0.2
    }
  }
}
layer {
  name: "inception_3a/relu_5x5"
  type: "ReLU"
  bottom: "inception_3a/5x5"
  top: "inception_3a/5x5"
}
layer {
  name: "inception_3a/pool"
  type: "Pooling"
  bottom: "pool2/3x3_s2"
  top: "inception_3a/pool"
  pooling_param {
    pool: MAX
    kernel_size: 3
    stride: 1
    pad: 1
  }
}
layer {
  name: "inception_3a/pool_proj"
  type: "Convolution"
  bottom: "inception_3a/pool"
  top: "inception_3a/pool_proj"
  param {
    lr_mult: 1
    decay_mult: 1
  }
  param {
    lr_mult: 2
    decay_mult: 0
  }
  convolution_param {
    num_output: 32
    kernel_size: 1
    weight_filler {
      type: "xavier"
      std: 0.1
    }
    bias_filler {
      type: "constant"
      value: 0.2
    }
  }
}
layer {
  name: "inception_3a/relu_pool_proj"
  type: "ReLU"
  bottom: "inception_3a/pool_proj"
  top: "inception_3a/pool_proj"
}
layer {
  name: "inception_3a/output"
  type: "Concat"
  bottom: "inception_3a/1x1"
  bottom: "inception_3a/3x3"
  bottom: "inception_3a/5x5"
  bottom: "inception_3a/pool_proj"
  top: "inception_3a/output"
}
layer {
  name: "inception_3b/1x1"
  type: "Convolution"
  bottom: "inception_3a/output"
  top: "inception_3b/1x1"
  param {
    lr_mult: 1
    decay_mult: 1
  }
  param {
    lr_mult: 2
    decay_mult: 0
  }
  convolution_param {
    num_output: 128
    kernel_size: 1
    weight_filler {
      type: "xavier"
      std: 0.03
    }
    bias_filler {
      type: "constant"
      value: 0.2
    }
  }
}
layer {
  name: "inception_3b/relu_1x1"
  type: "ReLU"
  bottom: "inception_3b/1x1"
  top: "inception_3b/1x1"
}
layer {
  name: "inception_3b/3x3_reduce"
  type: "Convolution"
  bottom: "inception_3a/output"
  top: "inception_3b/3x3_reduce"
  param {
    lr_mult: 1
    decay_mult: 1
  }
  param {
    lr_mult: 2
    decay_mult: 0
  }
  convolution_param {
    num_output: 128
    kernel_size: 1
    weight_filler {
      type: "xavier"
      std: 0.09
    }
    bias_filler {
      type: "constant"
      value: 0.2
    }
  }
}
layer {
  name: "inception_3b/relu_3x3_reduce"
  type: "ReLU"
  bottom: "inception_3b/3x3_reduce"
  top: "inception_3b/3x3_reduce"
}
layer {
  name: "inception_3b/3x3"
  type: "Convolution"
  bottom: "inception_3b/3x3_reduce"
  top: "inception_3b/3x3"
  param {
    lr_mult: 1
    decay_mult: 1
  }
  param {
    lr_mult: 2
    decay_mult: 0
  }
  convolution_param {
    num_output: 192
    pad: 1
    kernel_size: 3
    weight_filler {
      type: "xavier"
      std: 0.03
    }
    bias_filler {
      type: "constant"
      value: 0.2
    }
  }
}
layer {
  name: "inception_3b/relu_3x3"
  type: "ReLU"
  bottom: "inception_3b/3x3"
  top: "inception_3b/3x3"
}
layer {
  name: "inception_3b/5x5_reduce"
  type: "Convolution"
  bottom: "inception_3a/output"
  top: "inception_3b/5x5_reduce"
  param {
    lr_mult: 1
    decay_mult: 1
  }
  param {
    lr_mult: 2
    decay_mult: 0
  }
  convolution_param {
    num_output: 32
    kernel_size: 1
    weight_filler {
      type: "xavier"
      std: 0.2
    }
    bias_filler {
      type: "constant"
      value: 0.2
    }
  }
}
layer {
  name: "inception_3b/relu_5x5_reduce"
  type: "ReLU"
  bottom: "inception_3b/5x5_reduce"
  top: "inception_3b/5x5_reduce"
}
layer {
  name: "inception_3b/5x5"
  type: "Convolution"
  bottom: "inception_3b/5x5_reduce"
  top: "inception_3b/5x5"
  param {
    lr_mult: 1
    decay_mult: 1
  }
  param {
    lr_mult: 2
    decay_mult: 0
  }
  convolution_param {
    num_output: 96
    pad: 2
    kernel_size: 5
    weight_filler {
      type: "xavier"
      std: 0.03
    }
    bias_filler {
      type: "constant"
      value: 0.2
    }
  }
}
layer {
  name: "inception_3b/relu_5x5"
  type: "ReLU"
  bottom: "inception_3b/5x5"
  top: "inception_3b/5x5"
}
layer {
  name: "inception_3b/pool"
  type: "Pooling"
  bottom: "inception_3a/output"
  top: "inception_3b/pool"
  pooling_param {
    pool: MAX
    kernel_size: 3
    stride: 1
    pad: 1
  }
}
layer {
  name: "inception_3b/pool_proj"
  type: "Convolution"
  bottom: "inception_3b/pool"
  top: "inception_3b/pool_proj"
  param {
    lr_mult: 1
    decay_mult: 1
  }
  param {
    lr_mult: 2
    decay_mult: 0
  }
  convolution_param {
    num_output: 64
    kernel_size: 1
    weight_filler {
      type: "xavier"
      std: 0.1
    }
    bias_filler {
      type: "constant"
      value: 0.2
    }
  }
}
layer {
  name: "inception_3b/relu_pool_proj"
  type: "ReLU"
  bottom: "inception_3b/pool_proj"
  top: "inception_3b/pool_proj"
}
layer {
  name: "inception_3b/output"
  type: "Concat"
  bottom: "inception_3b/1x1"
  bottom: "inception_3b/3x3"
  bottom: "inception_3b/5x5"
  bottom: "inception_3b/pool_proj"
  top: "inception_3b/output"
}
layer {
  name: "pool3/3x3_s2"
  type: "Pooling"
  bottom: "inception_3b/output"
  top: "pool3/3x3_s2"
  pooling_param {
    pool: MAX
    kernel_size: 3
    stride: 2
  }
}
layer {
  name: "inception_4a/1x1"
  type: "Convolution"
  bottom: "pool3/3x3_s2"
  top: "inception_4a/1x1"
  param {
    lr_mult: 1
    decay_mult: 1
  }
  param {
    lr_mult: 2
    decay_mult: 0
  }
  convolution_param {
    num_output: 192
    kernel_size: 1
    weight_filler {
      type: "xavier"
      std: 0.03
    }
    bias_filler {
      type: "constant"
      value: 0.2
    }
  }
}
layer {
  name: "inception_4a/relu_1x1"
  type: "ReLU"
  bottom: "inception_4a/1x1"
  top: "inception_4a/1x1"
}
layer {
  name: "inception_4a/3x3_reduce"
  type: "Convolution"
  bottom: "pool3/3x3_s2"
  top: "inception_4a/3x3_reduce"
  param {
    lr_mult: 1
    decay_mult: 1
  }
  param {
    lr_mult: 2
    decay_mult: 0
  }
  convolution_param {
    num_output: 96
    kernel_size: 1
    weight_filler {
      type: "xavier"
      std: 0.09
    }
    bias_filler {
      type: "constant"
      value: 0.2
    }
  }
}
layer {
  name: "inception_4a/relu_3x3_reduce"
  type: "ReLU"
  bottom: "inception_4a/3x3_reduce"
  top: "inception_4a/3x3_reduce"
}
layer {
  name: "inception_4a/3x3"
  type: "Convolution"
  bottom: "inception_4a/3x3_reduce"
  top: "inception_4a/3x3"
  param {
    lr_mult: 1
    decay_mult: 1
  }
  param {
    lr_mult: 2
    decay_mult: 0
  }
  convolution_param {
    num_output: 208
    pad: 1
    kernel_size: 3
    weight_filler {
      type: "xavier"
      std: 0.03
    }
    bias_filler {
      type: "constant"
      value: 0.2
    }
  }
}
layer {
  name: "inception_4a/relu_3x3"
  type: "ReLU"
  bottom: "inception_4a/3x3"
  top: "inception_4a/3x3"
}
layer {
  name: "inception_4a/5x5_reduce"
  type: "Convolution"
  bottom: "pool3/3x3_s2"
  top: "inception_4a/5x5_reduce"
  param {
    lr_mult: 1
    decay_mult: 1
  }
  param {
    lr_mult: 2
    decay_mult: 0
  }
  convolution_param {
    num_output: 16
    kernel_size: 1
    weight_filler {
      type: "xavier"
      std: 0.2
    }
    bias_filler {
      type: "constant"
      value: 0.2
    }
  }
}
layer {
  name: "inception_4a/relu_5x5_reduce"
  type: "ReLU"
  bottom: "inception_4a/5x5_reduce"
  top: "inception_4a/5x5_reduce"
}
layer {
  name: "inception_4a/5x5"
  type: "Convolution"
  bottom: "inception_4a/5x5_reduce"
  top: "inception_4a/5x5"
  param {
    lr_mult: 1
    decay_mult: 1
  }
  param {
    lr_mult: 2
    decay_mult: 0
  }
  convolution_param {
    num_output: 48
    pad: 2
    kernel_size: 5
    weight_filler {
      type: "xavier"
      std: 0.03
    }
    bias_filler {
      type: "constant"
      value: 0.2
    }
  }
}
layer {
  name: "inception_4a/relu_5x5"
  type: "ReLU"
  bottom: "inception_4a/5x5"
  top: "inception_4a/5x5"
}
layer {
  name: "inception_4a/pool"
  type: "Pooling"
  bottom: "pool3/3x3_s2"
  top: "inception_4a/pool"
  pooling_param {
    pool: MAX
    kernel_size: 3
    stride: 1
    pad: 1
  }
}
layer {
  name: "inception_4a/pool_proj"
  type: "Convolution"
  bottom: "inception_4a/pool"
  top: "inception_4a/pool_proj"
  param {
    lr_mult: 1
    decay_mult: 1
  }
  param {
    lr_mult: 2
    decay_mult: 0
  }
  convolution_param {
    num_output: 64
    kernel_size: 1
    weight_filler {
      type: "xavier"
      std: 0.1
    }
    bias_filler {
      type: "constant"
      value: 0.2
    }
  }
}
layer {
  name: "inception_4a/relu_pool_proj"
  type: "ReLU"
  bottom: "inception_4a/pool_proj"
  top: "inception_4a/pool_proj"
}
layer {
  name: "inception_4a/output"
  type: "Concat"
  bottom: "inception_4a/1x1"
  bottom: "inception_4a/3x3"
  bottom: "inception_4a/5x5"
  bottom: "inception_4a/pool_proj"
  top: "inception_4a/output"
}
layer {
  name: "loss1/ave_pool"
  type: "Pooling"
  bottom: "inception_4a/output"
  top: "loss1/ave_pool"
  pooling_param {
    pool: AVE
    kernel_size: 5
    stride: 3
  }
}
layer {
  name: "loss1/conv"
  type: "Convolution"
  bottom: "loss1/ave_pool"
  top: "loss1/conv"
  param {
    lr_mult: 1
    decay_mult: 1
  }
  param {
    lr_mult: 2
    decay_mult: 0
  }
  convolution_param {
    num_output: 128
    kernel_size: 1
    weight_filler {
      type: "xavier"
      std: 0.08
    }
    bias_filler {
      type: "constant"
      value: 0.2
    }
  }
}
layer {
  name: "loss1/relu_conv"
  type: "ReLU"
  bottom: "loss1/conv"
  top: "loss1/conv"
}
layer {
  name: "loss1/fc"
  type: "InnerProduct"
  bottom: "loss1/conv"
  top: "loss1/fc"
  param {
    lr_mult: 1
    decay_mult: 1
  }
  param {
    lr_mult: 2
    decay_mult: 0
  }
  inner_product_param {
    num_output: 1024
    weight_filler {
      type: "xavier"
      std: 0.02
    }
    bias_filler {
      type: "constant"
      value: 0.2
    }
  }
}
layer {
  name: "loss1/relu_fc"
  type: "ReLU"
  bottom: "loss1/fc"
  top: "loss1/fc"
}
layer {
  name: "loss1/drop_fc"
  type: "Dropout"
  bottom: "loss1/fc"
  top: "loss1/fc"
  dropout_param {
    dropout_ratio: 0.7
  }
}
layer {
  name: "loss1/classifier"
  type: "InnerProduct"
  bottom: "loss1/fc"
  top: "loss1/classifier"
  param {
    lr_mult: 1
    decay_mult: 1
  }
  param {
    lr_mult: 2
    decay_mult: 0
  }
  inner_product_param {
    num_output: 1000
    weight_filler {
      type: "xavier"
      std: 0.0009765625
    }
    bias_filler {
      type: "constant"
      value: 0
    }
  }
}
layer {
  name: "loss1/loss"
  type: "SoftmaxWithLoss"
  bottom: "loss1/classifier"
  bottom: "label"
  top: "loss1/loss1"
  loss_weight: 0.3
}
layer {
  name: "inception_4b/1x1"
  type: "Convolution"
  bottom: "inception_4a/output"
  top: "inception_4b/1x1"
  param {
    lr_mult: 1
    decay_mult: 1
  }
  param {
    lr_mult: 2
    decay_mult: 0
  }
  convolution_param {
    num_output: 160
    kernel_size: 1
    weight_filler {
      type: "xavier"
      std: 0.03
    }
    bias_filler {
      type: "constant"
      value: 0.2
    }
  }
}
layer {
  name: "inception_4b/relu_1x1"
  type: "ReLU"
  bottom: "inception_4b/1x1"
  top: "inception_4b/1x1"
}
layer {
  name: "inception_4b/3x3_reduce"
  type: "Convolution"
  bottom: "inception_4a/output"
  top: "inception_4b/3x3_reduce"
  param {
    lr_mult: 1
    decay_mult: 1
  }
  param {
    lr_mult: 2
    decay_mult: 0
  }
  convolution_param {
    num_output: 112
    kernel_size: 1
    weight_filler {
      type: "xavier"
      std: 0.09
    }
    bias_filler {
      type: "constant"
      value: 0.2
    }
  }
}
layer {
  name: "inception_4b/relu_3x3_reduce"
  type: "ReLU"
  bottom: "inception_4b/3x3_reduce"
  top: "inception_4b/3x3_reduce"
}
layer {
  name: "inception_4b/3x3"
  type: "Convolution"
  bottom: "inception_4b/3x3_reduce"
  top: "inception_4b/3x3"
  param {
    lr_mult: 1
    decay_mult: 1
  }
  param {
    lr_mult: 2
    decay_mult: 0
  }
  convolution_param {
    num_output: 224
    pad: 1
    kernel_size: 3
    weight_filler {
      type: "xavier"
      std: 0.03
    }
    bias_filler {
      type: "constant"
      value: 0.2
    }
  }
}
layer {
  name: "inception_4b/relu_3x3"
  type: "ReLU"
  bottom: "inception_4b/3x3"
  top: "inception_4b/3x3"
}
layer {
  name: "inception_4b/5x5_reduce"
  type: "Convolution"
  bottom: "inception_4a/output"
  top: "inception_4b/5x5_reduce"
  param {
    lr_mult: 1
    decay_mult: 1
  }
  param {
    lr_mult: 2
    decay_mult: 0
  }
  convolution_param {
    num_output: 24
    kernel_size: 1
    weight_filler {
      type: "xavier"
      std: 0.2
    }
    bias_filler {
      type: "constant"
      value: 0.2
    }
  }
}
layer {
  name: "inception_4b/relu_5x5_reduce"
  type: "ReLU"
  bottom: "inception_4b/5x5_reduce"
  top: "inception_4b/5x5_reduce"
}
layer {
  name: "inception_4b/5x5"
  type: "Convolution"
  bottom: "inception_4b/5x5_reduce"
  top: "inception_4b/5x5"
  param {
    lr_mult: 1
    decay_mult: 1
  }
  param {
    lr_mult: 2
    decay_mult: 0
  }
  convolution_param {
    num_output: 64
    pad: 2
    kernel_size: 5
    weight_filler {
      type: "xavier"
      std: 0.03
    }
    bias_filler {
      type: "constant"
      value: 0.2
    }
  }
}
layer {
  name: "inception_4b/relu_5x5"
  type: "ReLU"
  bottom: "inception_4b/5x5"
  top: "inception_4b/5x5"
}
layer {
  name: "inception_4b/pool"
  type: "Pooling"
  bottom: "inception_4a/output"
  top: "inception_4b/pool"
  pooling_param {
    pool: MAX
    kernel_size: 3
    stride: 1
    pad: 1
  }
}
layer {
  name: "inception_4b/pool_proj"
  type: "Convolution"
  bottom: "inception_4b/pool"
  top: "inception_4b/pool_proj"
  param {
    lr_mult: 1
    decay_mult: 1
  }
  param {
    lr_mult: 2
    decay_mult: 0
  }
  convolution_param {
    num_output: 64
    kernel_size: 1
    weight_filler {
      type: "xavier"
      std: 0.1
    }
    bias_filler {
      type: "constant"
      value: 0.2
    }
  }
}
layer {
  name: "inception_4b/relu_pool_proj"
  type: "ReLU"
  bottom: "inception_4b/pool_proj"
  top: "inception_4b/pool_proj"
}
layer {
  name: "inception_4b/output"
  type: "Concat"
  bottom: "inception_4b/1x1"
  bottom: "inception_4b/3x3"
  bottom: "inception_4b/5x5"
  bottom: "inception_4b/pool_proj"
  top: "inception_4b/output"
}
layer {
  name: "inception_4c/1x1"
  type: "Convolution"
  bottom: "inception_4b/output"
  top: "inception_4c/1x1"
  param {
    lr_mult: 1
    decay_mult: 1
  }
  param {
    lr_mult: 2
    decay_mult: 0
  }
  convolution_param {
    num_output: 128
    kernel_size: 1
    weight_filler {
      type: "xavier"
      std: 0.03
    }
    bias_filler {
      type: "constant"
      value: 0.2
    }
  }
}
layer {
  name: "inception_4c/relu_1x1"
  type: "ReLU"
  bottom: "inception_4c/1x1"
  top: "inception_4c/1x1"
}
layer {
  name: "inception_4c/3x3_reduce"
  type: "Convolution"
  bottom: "inception_4b/output"
  top: "inception_4c/3x3_reduce"
  param {
    lr_mult: 1
    decay_mult: 1
  }
  param {
    lr_mult: 2
    decay_mult: 0
  }
  convolution_param {
    num_output: 128
    kernel_size: 1
    weight_filler {
      type: "xavier"
      std: 0.09
    }
    bias_filler {
      type: "constant"
      value: 0.2
    }
  }
}
layer {
  name: "inception_4c/relu_3x3_reduce"
  type: "ReLU"
  bottom: "inception_4c/3x3_reduce"
  top: "inception_4c/3x3_reduce"
}
layer {
  name: "inception_4c/3x3"
  type: "Convolution"
  bottom: "inception_4c/3x3_reduce"
  top: "inception_4c/3x3"
  param {
    lr_mult: 1
    decay_mult: 1
  }
  param {
    lr_mult: 2
    decay_mult: 0
  }
  convolution_param {
    num_output: 256
    pad: 1
    kernel_size: 3
    weight_filler {
      type: "xavier"
      std: 0.03
    }
    bias_filler {
      type: "constant"
      value: 0.2
    }
  }
}
layer {
  name: "inception_4c/relu_3x3"
  type: "ReLU"
  bottom: "inception_4c/3x3"
  top: "inception_4c/3x3"
}
layer {
  name: "inception_4c/5x5_reduce"
  type: "Convolution"
  bottom: "inception_4b/output"
  top: "inception_4c/5x5_reduce"
  param {
    lr_mult: 1
    decay_mult: 1
  }
  param {
    lr_mult: 2
    decay_mult: 0
  }
  convolution_param {
    num_output: 24
    kernel_size: 1
    weight_filler {
      type: "xavier"
      std: 0.2
    }
    bias_filler {
      type: "constant"
      value: 0.2
    }
  }
}
layer {
  name: "inception_4c/relu_5x5_reduce"
  type: "ReLU"
  bottom: "inception_4c/5x5_reduce"
  top: "inception_4c/5x5_reduce"
}
layer {
  name: "inception_4c/5x5"
  type: "Convolution"
  bottom: "inception_4c/5x5_reduce"
  top: "inception_4c/5x5"
  param {
    lr_mult: 1
    decay_mult: 1
  }
  param {
    lr_mult: 2
    decay_mult: 0
  }
  convolution_param {
    num_output: 64
    pad: 2
    kernel_size: 5
    weight_filler {
      type: "xavier"
      std: 0.03
    }
    bias_filler {
      type: "constant"
      value: 0.2
    }
  }
}
layer {
  name: "inception_4c/relu_5x5"
  type: "ReLU"
  bottom: "inception_4c/5x5"
  top: "inception_4c/5x5"
}
layer {
  name: "inception_4c/pool"
  type: "Pooling"
  bottom: "inception_4b/output"
  top: "inception_4c/pool"
  pooling_param {
    pool: MAX
    kernel_size: 3
    stride: 1
    pad: 1
  }
}
layer {
  name: "inception_4c/pool_proj"
  type: "Convolution"
  bottom: "inception_4c/pool"
  top: "inception_4c/pool_proj"
  param {
    lr_mult: 1
    decay_mult: 1
  }
  param {
    lr_mult: 2
    decay_mult: 0
  }
  convolution_param {
    num_output: 64
    kernel_size: 1
    weight_filler {
      type: "xavier"
      std: 0.1
    }
    bias_filler {
      type: "constant"
      value: 0.2
    }
  }
}
layer {
  name: "inception_4c/relu_pool_proj"
  type: "ReLU"
  bottom: "inception_4c/pool_proj"
  top: "inception_4c/pool_proj"
}
layer {
  name: "inception_4c/output"
  type: "Concat"
  bottom: "inception_4c/1x1"
  bottom: "inception_4c/3x3"
  bottom: "inception_4c/5x5"
  bottom: "inception_4c/pool_proj"
  top: "inception_4c/output"
}
layer {
  name: "inception_4d/1x1"
  type: "Convolution"
  bottom: "inception_4c/output"
  top: "inception_4d/1x1"
  param {
    lr_mult: 1
    decay_mult: 1
  }
  param {
    lr_mult: 2
    decay_mult: 0
  }
  convolution_param {
    num_output: 112
    kernel_size: 1
    weight_filler {
      type: "xavier"
      std: 0.03
    }
    bias_filler {
      type: "constant"
      value: 0.2
    }
  }
}
layer {
  name: "inception_4d/relu_1x1"
  type: "ReLU"
  bottom: "inception_4d/1x1"
  top: "inception_4d/1x1"
}
layer {
  name: "inception_4d/3x3_reduce"
  type: "Convolution"
  bottom: "inception_4c/output"
  top: "inception_4d/3x3_reduce"
  param {
    lr_mult: 1
    decay_mult: 1
  }
  param {
    lr_mult: 2
    decay_mult: 0
  }
  convolution_param {
    num_output: 144
    kernel_size: 1
    weight_filler {
      type: "xavier"
      std: 0.09
    }
    bias_filler {
      type: "constant"
      value: 0.2
    }
  }
}
layer {
  name: "inception_4d/relu_3x3_reduce"
  type: "ReLU"
  bottom: "inception_4d/3x3_reduce"
  top: "inception_4d/3x3_reduce"
}
layer {
  name: "inception_4d/3x3"
  type: "Convolution"
  bottom: "inception_4d/3x3_reduce"
  top: "inception_4d/3x3"
  param {
    lr_mult: 1
    decay_mult: 1
  }
  param {
    lr_mult: 2
    decay_mult: 0
  }
  convolution_param {
    num_output: 288
    pad: 1
    kernel_size: 3
    weight_filler {
      type: "xavier"
      std: 0.03
    }
    bias_filler {
      type: "constant"
      value: 0.2
    }
  }
}
layer {
  name: "inception_4d/relu_3x3"
  type: "ReLU"
  bottom: "inception_4d/3x3"
  top: "inception_4d/3x3"
}
layer {
  name: "inception_4d/5x5_reduce"
  type: "Convolution"
  bottom: "inception_4c/output"
  top: "inception_4d/5x5_reduce"
  param {
    lr_mult: 1
    decay_mult: 1
  }
  param {
    lr_mult: 2
    decay_mult: 0
  }
  convolution_param {
    num_output: 32
    kernel_size: 1
    weight_filler {
      type: "xavier"
      std: 0.2
    }
    bias_filler {
      type: "constant"
      value: 0.2
    }
  }
}
layer {
  name: "inception_4d/relu_5x5_reduce"
  type: "ReLU"
  bottom: "inception_4d/5x5_reduce"
  top: "inception_4d/5x5_reduce"
}
layer {
  name: "inception_4d/5x5"
  type: "Convolution"
  bottom: "inception_4d/5x5_reduce"
  top: "inception_4d/5x5"
  param {
    lr_mult: 1
    decay_mult: 1
  }
  param {
    lr_mult: 2
    decay_mult: 0
  }
  convolution_param {
    num_output: 64
    pad: 2
    kernel_size: 5
    weight_filler {
      type: "xavier"
      std: 0.03
    }
    bias_filler {
      type: "constant"
      value: 0.2
    }
  }
}
layer {
  name: "inception_4d/relu_5x5"
  type: "ReLU"
  bottom: "inception_4d/5x5"
  top: "inception_4d/5x5"
}
layer {
  name: "inception_4d/pool"
  type: "Pooling"
  bottom: "inception_4c/output"
  top: "inception_4d/pool"
  pooling_param {
    pool: MAX
    kernel_size: 3
    stride: 1
    pad: 1
  }
}
layer {
  name: "inception_4d/pool_proj"
  type: "Convolution"
  bottom: "inception_4d/pool"
  top: "inception_4d/pool_proj"
  param {
    lr_mult: 1
    decay_mult: 1
  }
  param {
    lr_mult: 2
    decay_mult: 0
  }
  convolution_param {
    num_output: 64
    kernel_size: 1
    weight_filler {
      type: "xavier"
      std: 0.1
    }
    bias_filler {
      type: "constant"
      value: 0.2
    }
  }
}
layer {
  name: "inception_4d/relu_pool_proj"
  type: "ReLU"
  bottom: "inception_4d/pool_proj"
  top: "inception_4d/pool_proj"
}
layer {
  name: "inception_4d/output"
  type: "Concat"
  bottom: "inception_4d/1x1"
  bottom: "inception_4d/3x3"
  bottom: "inception_4d/5x5"
  bottom: "inception_4d/pool_proj"
  top: "inception_4d/output"
}
layer {
  name: "loss2/ave_pool"
  type: "Pooling"
  bottom: "inception_4d/output"
  top: "loss2/ave_pool"
  pooling_param {
    pool: AVE
    kernel_size: 5
    stride: 3
  }
}
layer {
  name: "loss2/conv"
  type: "Convolution"
  bottom: "loss2/ave_pool"
  top: "loss2/conv"
  param {
    lr_mult: 1
    decay_mult: 1
  }
  param {
    lr_mult: 2
    decay_mult: 0
  }
  convolution_param {
    num_output: 128
    kernel_size: 1
    weight_filler {
      type: "xavier"
      std: 0.08
    }
    bias_filler {
      type: "constant"
      value: 0.2
    }
  }
}
layer {
  name: "loss2/relu_conv"
  type: "ReLU"
  bottom: "loss2/conv"
  top: "loss2/conv"
}
layer {
  name: "loss2/fc"
  type: "InnerProduct"
  bottom: "loss2/conv"
  top: "loss2/fc"
  param {
    lr_mult: 1
    decay_mult: 1
  }
  param {
    lr_mult: 2
    decay_mult: 0
  }
  inner_product_param {
    num_output: 1024
    weight_filler {
      type: "xavier"
      std: 0.02
    }
    bias_filler {
      type: "constant"
      value: 0.2
    }
  }
}
layer {
  name: "loss2/relu_fc"
  type: "ReLU"
  bottom: "loss2/fc"
  top: "loss2/fc"
}
layer {
  name: "loss2/drop_fc"
  type: "Dropout"
  bottom: "loss2/fc"
  top: "loss2/fc"
  dropout_param {
    dropout_ratio: 0.7
  }
}
layer {
  name: "loss2/classifier"
  type: "InnerProduct"
  bottom: "loss2/fc"
  top: "loss2/classifier"
  param {
    lr_mult: 1
    decay_mult: 1
  }
  param {
    lr_mult: 2
    decay_mult: 0
  }
  inner_product_param {
    num_output: 1000
    weight_filler {
      type: "xavier"
      std: 0.0009765625
    }
    bias_filler {
      type: "constant"
      value: 0
    }
  }
}
layer {
  name: "loss2/loss"
  type: "SoftmaxWithLoss"
  bottom: "loss2/classifier"
  bottom: "label"
  top: "loss2/loss1"
  loss_weight: 0.3
}
layer {
  name: "inception_4e/1x1"
  type: "Convolution"
  bottom: "inception_4d/output"
  top: "inception_4e/1x1"
  param {
    lr_mult: 1
    decay_mult: 1
  }
  param {
    lr_mult: 2
    decay_mult: 0
  }
  convolution_param {
    num_output: 256
    kernel_size: 1
    weight_filler {
      type: "xavier"
      std: 0.03
    }
    bias_filler {
      type: "constant"
      value: 0.2
    }
  }
}
layer {
  name: "inception_4e/relu_1x1"
  type: "ReLU"
  bottom: "inception_4e/1x1"
  top: "inception_4e/1x1"
}
layer {
  name: "inception_4e/3x3_reduce"
  type: "Convolution"
  bottom: "inception_4d/output"
  top: "inception_4e/3x3_reduce"
  param {
    lr_mult: 1
    decay_mult: 1
  }
  param {
    lr_mult: 2
    decay_mult: 0
  }
  convolution_param {
    num_output: 160
    kernel_size: 1
    weight_filler {
      type: "xavier"
      std: 0.09
    }
    bias_filler {
      type: "constant"
      value: 0.2
    }
  }
}
layer {
  name: "inception_4e/relu_3x3_reduce"
  type: "ReLU"
  bottom: "inception_4e/3x3_reduce"
  top: "inception_4e/3x3_reduce"
}
layer {
  name: "inception_4e/3x3"
  type: "Convolution"
  bottom: "inception_4e/3x3_reduce"
  top: "inception_4e/3x3"
  param {
    lr_mult: 1
    decay_mult: 1
  }
  param {
    lr_mult: 2
    decay_mult: 0
  }
  convolution_param {
    num_output: 320
    pad: 1
    kernel_size: 3
    weight_filler {
      type: "xavier"
      std: 0.03
    }
    bias_filler {
      type: "constant"
      value: 0.2
    }
  }
}
layer {
  name: "inception_4e/relu_3x3"
  type: "ReLU"
  bottom: "inception_4e/3x3"
  top: "inception_4e/3x3"
}
layer {
  name: "inception_4e/5x5_reduce"
  type: "Convolution"
  bottom: "inception_4d/output"
  top: "inception_4e/5x5_reduce"
  param {
    lr_mult: 1
    decay_mult: 1
  }
  param {
    lr_mult: 2
    decay_mult: 0
  }
  convolution_param {
    num_output: 32
    kernel_size: 1
    weight_filler {
      type: "xavier"
      std: 0.2
    }
    bias_filler {
      type: "constant"
     
I0531 19:37:31.577452 122398 layer_factory.hpp:77] Creating layer data
I0531 19:37:31.577538 122398 net.cpp:106] Creating Layer data
I0531 19:37:31.577570 122398 net.cpp:411] data -> data
I0531 19:37:31.577625 122398 net.cpp:411] data -> label
I0531 19:37:31.578084 122398 image_data_layer.cpp:38] Opening file foodCAT_resized_balanced/train.txt
I0531 19:37:31.610600 122398 image_data_layer.cpp:48] Shuffling data
I0531 19:37:31.615344 122398 image_data_layer.cpp:53] A total of 73085 images.
I0531 19:37:31.783862 122398 image_data_layer.cpp:80] output data size: 64,3,224,224
I0531 19:37:31.846400 122398 net.cpp:150] Setting up data
I0531 19:37:31.846607 122398 net.cpp:157] Top shape: 64 3 224 224 (9633792)
I0531 19:37:31.846637 122398 net.cpp:157] Top shape: 64 (64)
I0531 19:37:31.846689 122398 net.cpp:165] Memory required for data: 38535424
I0531 19:37:31.846730 122398 layer_factory.hpp:77] Creating layer label_data_1_split
I0531 19:37:31.846817 122398 net.cpp:106] Creating Layer label_data_1_split
I0531 19:37:31.846866 122398 net.cpp:454] label_data_1_split <- label
I0531 19:37:31.846926 122398 net.cpp:411] label_data_1_split -> label_data_1_split_0
I0531 19:37:31.846961 122398 net.cpp:411] label_data_1_split -> label_data_1_split_1
I0531 19:37:31.847048 122398 net.cpp:411] label_data_1_split -> label_data_1_split_2
I0531 19:37:31.847179 122398 net.cpp:150] Setting up label_data_1_split
I0531 19:37:31.847208 122398 net.cpp:157] Top shape: 64 (64)
I0531 19:37:31.847229 122398 net.cpp:157] Top shape: 64 (64)
I0531 19:37:31.847247 122398 net.cpp:157] Top shape: 64 (64)
I0531 19:37:31.847265 122398 net.cpp:165] Memory required for data: 38536192
I0531 19:37:31.847282 122398 layer_factory.hpp:77] Creating layer conv1/7x7_s2
I0531 19:37:31.847321 122398 net.cpp:106] Creating Layer conv1/7x7_s2
I0531 19:37:31.847344 122398 net.cpp:454] conv1/7x7_s2 <- data
I0531 19:37:31.847368 122398 net.cpp:411] conv1/7x7_s2 -> conv1/7x7_s2
I0531 19:37:32.001652 122398 net.cpp:150] Setting up conv1/7x7_s2
I0531 19:37:32.001724 122398 net.cpp:157] Top shape: 64 64 112 112 (51380224)
I0531 19:37:32.001746 122398 net.cpp:165] Memory required for data: 244057088
I0531 19:37:32.001783 122398 layer_factory.hpp:77] Creating layer conv1/relu_7x7
I0531 19:37:32.001816 122398 net.cpp:106] Creating Layer conv1/relu_7x7
I0531 19:37:32.001838 122398 net.cpp:454] conv1/relu_7x7 <- conv1/7x7_s2
I0531 19:37:32.001859 122398 net.cpp:397] conv1/relu_7x7 -> conv1/7x7_s2 (in-place)
I0531 19:37:32.002094 122398 net.cpp:150] Setting up conv1/relu_7x7
I0531 19:37:32.002126 122398 net.cpp:157] Top shape: 64 64 112 112 (51380224)
I0531 19:37:32.002146 122398 net.cpp:165] Memory required for data: 449577984
I0531 19:37:32.002163 122398 layer_factory.hpp:77] Creating layer pool1/3x3_s2
I0531 19:37:32.002188 122398 net.cpp:106] Creating Layer pool1/3x3_s2
I0531 19:37:32.002209 122398 net.cpp:454] pool1/3x3_s2 <- conv1/7x7_s2
I0531 19:37:32.002230 122398 net.cpp:411] pool1/3x3_s2 -> pool1/3x3_s2
I0531 19:37:32.002307 122398 net.cpp:150] Setting up pool1/3x3_s2
I0531 19:37:32.002336 122398 net.cpp:157] Top shape: 64 64 56 56 (12845056)
I0531 19:37:32.002354 122398 net.cpp:165] Memory required for data: 500958208
I0531 19:37:32.002372 122398 layer_factory.hpp:77] Creating layer pool1/norm1
I0531 19:37:32.002399 122398 net.cpp:106] Creating Layer pool1/norm1
I0531 19:37:32.002420 122398 net.cpp:454] pool1/norm1 <- pool1/3x3_s2
I0531 19:37:32.002440 122398 net.cpp:411] pool1/norm1 -> pool1/norm1
I0531 19:37:32.002770 122398 net.cpp:150] Setting up pool1/norm1
I0531 19:37:32.002826 122398 net.cpp:157] Top shape: 64 64 56 56 (12845056)
I0531 19:37:32.002871 122398 net.cpp:165] Memory required for data: 552338432
I0531 19:37:32.002912 122398 layer_factory.hpp:77] Creating layer conv2/3x3_reduce
I0531 19:37:32.002941 122398 net.cpp:106] Creating Layer conv2/3x3_reduce
I0531 19:37:32.003010 122398 net.cpp:454] conv2/3x3_reduce <- pool1/norm1
I0531 19:37:32.003069 122398 net.cpp:411] conv2/3x3_reduce -> conv2/3x3_reduce
I0531 19:37:32.004627 122398 net.cpp:150] Setting up conv2/3x3_reduce
I0531 19:37:32.004673 122398 net.cpp:157] Top shape: 64 64 56 56 (12845056)
I0531 19:37:32.004694 122398 net.cpp:165] Memory required for data: 603718656
I0531 19:37:32.004719 122398 layer_factory.hpp:77] Creating layer conv2/relu_3x3_reduce
I0531 19:37:32.004745 122398 net.cpp:106] Creating Layer conv2/relu_3x3_reduce
I0531 19:37:32.004765 122398 net.cpp:454] conv2/relu_3x3_reduce <- conv2/3x3_reduce
I0531 19:37:32.004786 122398 net.cpp:397] conv2/relu_3x3_reduce -> conv2/3x3_reduce (in-place)
I0531 19:37:32.004940 122398 net.cpp:150] Setting up conv2/relu_3x3_reduce
I0531 19:37:32.004988 122398 net.cpp:157] Top shape: 64 64 56 56 (12845056)
I0531 19:37:32.005020 122398 net.cpp:165] Memory required for data: 655098880
I0531 19:37:32.005040 122398 layer_factory.hpp:77] Creating layer conv2/3x3
I0531 19:37:32.005090 122398 net.cpp:106] Creating Layer conv2/3x3
I0531 19:37:32.005123 122398 net.cpp:454] conv2/3x3 <- conv2/3x3_reduce
I0531 19:37:32.005146 122398 net.cpp:411] conv2/3x3 -> conv2/3x3
I0531 19:37:32.007618 122398 net.cpp:150] Setting up conv2/3x3
I0531 19:37:32.007674 122398 net.cpp:157] Top shape: 64 192 56 56 (38535168)
I0531 19:37:32.007697 122398 net.cpp:165] Memory required for data: 809239552
I0531 19:37:32.007756 122398 layer_factory.hpp:77] Creating layer conv2/relu_3x3
I0531 19:37:32.007809 122398 net.cpp:106] Creating Layer conv2/relu_3x3
I0531 19:37:32.007830 122398 net.cpp:454] conv2/relu_3x3 <- conv2/3x3
I0531 19:37:32.007851 122398 net.cpp:397] conv2/relu_3x3 -> conv2/3x3 (in-place)
I0531 19:37:32.008167 122398 net.cpp:150] Setting up conv2/relu_3x3
I0531 19:37:32.008205 122398 net.cpp:157] Top shape: 64 192 56 56 (38535168)
I0531 19:37:32.008224 122398 net.cpp:165] Memory required for data: 963380224
I0531 19:37:32.008244 122398 layer_factory.hpp:77] Creating layer conv2/norm2
I0531 19:37:32.008268 122398 net.cpp:106] Creating Layer conv2/norm2
I0531 19:37:32.008288 122398 net.cpp:454] conv2/norm2 <- conv2/3x3
I0531 19:37:32.008309 122398 net.cpp:411] conv2/norm2 -> conv2/norm2
I0531 19:37:32.008535 122398 net.cpp:150] Setting up conv2/norm2
I0531 19:37:32.008571 122398 net.cpp:157] Top shape: 64 192 56 56 (38535168)
I0531 19:37:32.008590 122398 net.cpp:165] Memory required for data: 1117520896
I0531 19:37:32.008610 122398 layer_factory.hpp:77] Creating layer pool2/3x3_s2
I0531 19:37:32.008632 122398 net.cpp:106] Creating Layer pool2/3x3_s2
I0531 19:37:32.008653 122398 net.cpp:454] pool2/3x3_s2 <- conv2/norm2
I0531 19:37:32.008674 122398 net.cpp:411] pool2/3x3_s2 -> pool2/3x3_s2
I0531 19:37:32.008725 122398 net.cpp:150] Setting up pool2/3x3_s2
I0531 19:37:32.008752 122398 net.cpp:157] Top shape: 64 192 28 28 (9633792)
I0531 19:37:32.008771 122398 net.cpp:165] Memory required for data: 1156056064
I0531 19:37:32.008790 122398 layer_factory.hpp:77] Creating layer pool2/3x3_s2_pool2/3x3_s2_0_split
I0531 19:37:32.008811 122398 net.cpp:106] Creating Layer pool2/3x3_s2_pool2/3x3_s2_0_split
I0531 19:37:32.008831 122398 net.cpp:454] pool2/3x3_s2_pool2/3x3_s2_0_split <- pool2/3x3_s2
I0531 19:37:32.008852 122398 net.cpp:411] pool2/3x3_s2_pool2/3x3_s2_0_split -> pool2/3x3_s2_pool2/3x3_s2_0_split_0
I0531 19:37:32.008875 122398 net.cpp:411] pool2/3x3_s2_pool2/3x3_s2_0_split -> pool2/3x3_s2_pool2/3x3_s2_0_split_1
I0531 19:37:32.008899 122398 net.cpp:411] pool2/3x3_s2_pool2/3x3_s2_0_split -> pool2/3x3_s2_pool2/3x3_s2_0_split_2
I0531 19:37:32.008922 122398 net.cpp:411] pool2/3x3_s2_pool2/3x3_s2_0_split -> pool2/3x3_s2_pool2/3x3_s2_0_split_3
I0531 19:37:32.009001 122398 net.cpp:150] Setting up pool2/3x3_s2_pool2/3x3_s2_0_split
I0531 19:37:32.009052 122398 net.cpp:157] Top shape: 64 192 28 28 (9633792)
I0531 19:37:32.009083 122398 net.cpp:157] Top shape: 64 192 28 28 (9633792)
I0531 19:37:32.009102 122398 net.cpp:157] Top shape: 64 192 28 28 (9633792)
I0531 19:37:32.009121 122398 net.cpp:157] Top shape: 64 192 28 28 (9633792)
I0531 19:37:32.009138 122398 net.cpp:165] Memory required for data: 1310196736
I0531 19:37:32.009155 122398 layer_factory.hpp:77] Creating layer inception_3a/1x1
I0531 19:37:32.009179 122398 net.cpp:106] Creating Layer inception_3a/1x1
I0531 19:37:32.009201 122398 net.cpp:454] inception_3a/1x1 <- pool2/3x3_s2_pool2/3x3_s2_0_split_0
I0531 19:37:32.009222 122398 net.cpp:411] inception_3a/1x1 -> inception_3a/1x1
I0531 19:37:32.010924 122398 net.cpp:150] Setting up inception_3a/1x1
I0531 19:37:32.010972 122398 net.cpp:157] Top shape: 64 64 28 28 (3211264)
I0531 19:37:32.011005 122398 net.cpp:165] Memory required for data: 1323041792
I0531 19:37:32.011039 122398 layer_factory.hpp:77] Creating layer inception_3a/relu_1x1
I0531 19:37:32.011086 122398 net.cpp:106] Creating Layer inception_3a/relu_1x1
I0531 19:37:32.011106 122398 net.cpp:454] inception_3a/relu_1x1 <- inception_3a/1x1
I0531 19:37:32.011127 122398 net.cpp:397] inception_3a/relu_1x1 -> inception_3a/1x1 (in-place)
I0531 19:37:32.011441 122398 net.cpp:150] Setting up inception_3a/relu_1x1
I0531 19:37:32.011489 122398 net.cpp:157] Top shape: 64 64 28 28 (3211264)
I0531 19:37:32.011510 122398 net.cpp:165] Memory required for data: 1335886848
I0531 19:37:32.011529 122398 layer_factory.hpp:77] Creating layer inception_3a/3x3_reduce
I0531 19:37:32.011566 122398 net.cpp:106] Creating Layer inception_3a/3x3_reduce
I0531 19:37:32.011590 122398 net.cpp:454] inception_3a/3x3_reduce <- pool2/3x3_s2_pool2/3x3_s2_0_split_1
I0531 19:37:32.011641 122398 net.cpp:411] inception_3a/3x3_reduce -> inception_3a/3x3_reduce
I0531 19:37:32.013407 122398 net.cpp:150] Setting up inception_3a/3x3_reduce
I0531 19:37:32.013449 122398 net.cpp:157] Top shape: 64 96 28 28 (4816896)
I0531 19:37:32.013470 122398 net.cpp:165] Memory required for data: 1355154432
I0531 19:37:32.013497 122398 layer_factory.hpp:77] Creating layer inception_3a/relu_3x3_reduce
I0531 19:37:32.013527 122398 net.cpp:106] Creating Layer inception_3a/relu_3x3_reduce
I0531 19:37:32.013561 122398 net.cpp:454] inception_3a/relu_3x3_reduce <- inception_3a/3x3_reduce
I0531 19:37:32.013586 122398 net.cpp:397] inception_3a/relu_3x3_reduce -> inception_3a/3x3_reduce (in-place)
I0531 19:37:32.014000 122398 net.cpp:150] Setting up inception_3a/relu_3x3_reduce
I0531 19:37:32.014040 122398 net.cpp:157] Top shape: 64 96 28 28 (4816896)
I0531 19:37:32.014075 122398 net.cpp:165] Memory required for data: 1374422016
I0531 19:37:32.014106 122398 layer_factory.hpp:77] Creating layer inception_3a/3x3
I0531 19:37:32.014150 122398 net.cpp:106] Creating Layer inception_3a/3x3
I0531 19:37:32.014178 122398 net.cpp:454] inception_3a/3x3 <- inception_3a/3x3_reduce
I0531 19:37:32.014204 122398 net.cpp:411] inception_3a/3x3 -> inception_3a/3x3
I0531 19:37:32.015818 122398 net.cpp:150] Setting up inception_3a/3x3
I0531 19:37:32.015882 122398 net.cpp:157] Top shape: 64 128 28 28 (6422528)
I0531 19:37:32.015904 122398 net.cpp:165] Memory required for data: 1400112128
I0531 19:37:32.015928 122398 layer_factory.hpp:77] Creating layer inception_3a/relu_3x3
I0531 19:37:32.015980 122398 net.cpp:106] Creating Layer inception_3a/relu_3x3
I0531 19:37:32.016016 122398 net.cpp:454] inception_3a/relu_3x3 <- inception_3a/3x3
I0531 19:37:32.016063 122398 net.cpp:397] inception_3a/relu_3x3 -> inception_3a/3x3 (in-place)
I0531 19:37:32.016266 122398 net.cpp:150] Setting up inception_3a/relu_3x3
I0531 19:37:32.016302 122398 net.cpp:157] Top shape: 64 128 28 28 (6422528)
I0531 19:37:32.016322 122398 net.cpp:165] Memory required for data: 1425802240
I0531 19:37:32.016340 122398 layer_factory.hpp:77] Creating layer inception_3a/5x5_reduce
I0531 19:37:32.016367 122398 net.cpp:106] Creating Layer inception_3a/5x5_reduce
I0531 19:37:32.016389 122398 net.cpp:454] inception_3a/5x5_reduce <- pool2/3x3_s2_pool2/3x3_s2_0_split_2
I0531 19:37:32.016412 122398 net.cpp:411] inception_3a/5x5_reduce -> inception_3a/5x5_reduce
I0531 19:37:32.017452 122398 net.cpp:150] Setting up inception_3a/5x5_reduce
I0531 19:37:32.017493 122398 net.cpp:157] Top shape: 64 16 28 28 (802816)
I0531 19:37:32.017513 122398 net.cpp:165] Memory required for data: 1429013504
I0531 19:37:32.017534 122398 layer_factory.hpp:77] Creating layer inception_3a/relu_5x5_reduce
I0531 19:37:32.017559 122398 net.cpp:106] Creating Layer inception_3a/relu_5x5_reduce
I0531 19:37:32.017578 122398 net.cpp:454] inception_3a/relu_5x5_reduce <- inception_3a/5x5_reduce
I0531 19:37:32.017606 122398 net.cpp:397] inception_3a/relu_5x5_reduce -> inception_3a/5x5_reduce (in-place)
I0531 19:37:32.018018 122398 net.cpp:150] Setting up inception_3a/relu_5x5_reduce
I0531 19:37:32.018069 122398 net.cpp:157] Top shape: 64 16 28 28 (802816)
I0531 19:37:32.018126 122398 net.cpp:165] Memory required for data: 1432224768
I0531 19:37:32.018157 122398 layer_factory.hpp:77] Creating layer inception_3a/5x5
I0531 19:37:32.018195 122398 net.cpp:106] Creating Layer inception_3a/5x5
I0531 19:37:32.018218 122398 net.cpp:454] inception_3a/5x5 <- inception_3a/5x5_reduce
I0531 19:37:32.018242 122398 net.cpp:411] inception_3a/5x5 -> inception_3a/5x5
I0531 19:37:32.019390 122398 net.cpp:150] Setting up inception_3a/5x5
I0531 19:37:32.019431 122398 net.cpp:157] Top shape: 64 32 28 28 (1605632)
I0531 19:37:32.019453 122398 net.cpp:165] Memory required for data: 1438647296
I0531 19:37:32.019474 122398 layer_factory.hpp:77] Creating layer inception_3a/relu_5x5
I0531 19:37:32.019500 122398 net.cpp:106] Creating Layer inception_3a/relu_5x5
I0531 19:37:32.019536 122398 net.cpp:454] inception_3a/relu_5x5 <- inception_3a/5x5
I0531 19:37:32.019573 122398 net.cpp:397] inception_3a/relu_5x5 -> inception_3a/5x5 (in-place)
I0531 19:37:32.019883 122398 net.cpp:150] Setting up inception_3a/relu_5x5
I0531 19:37:32.019933 122398 net.cpp:157] Top shape: 64 32 28 28 (1605632)
I0531 19:37:32.019994 122398 net.cpp:165] Memory required for data: 1445069824
I0531 19:37:32.020015 122398 layer_factory.hpp:77] Creating layer inception_3a/pool
I0531 19:37:32.020041 122398 net.cpp:106] Creating Layer inception_3a/pool
I0531 19:37:32.020078 122398 net.cpp:454] inception_3a/pool <- pool2/3x3_s2_pool2/3x3_s2_0_split_3
I0531 19:37:32.020112 122398 net.cpp:411] inception_3a/pool -> inception_3a/pool
I0531 19:37:32.020207 122398 net.cpp:150] Setting up inception_3a/pool
I0531 19:37:32.020239 122398 net.cpp:157] Top shape: 64 192 28 28 (9633792)
I0531 19:37:32.020269 122398 net.cpp:165] Memory required for data: 1483604992
I0531 19:37:32.020303 122398 layer_factory.hpp:77] Creating layer inception_3a/pool_proj
I0531 19:37:32.020330 122398 net.cpp:106] Creating Layer inception_3a/pool_proj
I0531 19:37:32.020364 122398 net.cpp:454] inception_3a/pool_proj <- inception_3a/pool
I0531 19:37:32.020388 122398 net.cpp:411] inception_3a/pool_proj -> inception_3a/pool_proj
I0531 19:37:32.021476 122398 net.cpp:150] Setting up inception_3a/pool_proj
I0531 19:37:32.021515 122398 net.cpp:157] Top shape: 64 32 28 28 (1605632)
I0531 19:37:32.021536 122398 net.cpp:165] Memory required for data: 1490027520
I0531 19:37:32.021564 122398 layer_factory.hpp:77] Creating layer inception_3a/relu_pool_proj
I0531 19:37:32.021590 122398 net.cpp:106] Creating Layer inception_3a/relu_pool_proj
I0531 19:37:32.021611 122398 net.cpp:454] inception_3a/relu_pool_proj <- inception_3a/pool_proj
I0531 19:37:32.021632 122398 net.cpp:397] inception_3a/relu_pool_proj -> inception_3a/pool_proj (in-place)
I0531 19:37:32.021834 122398 net.cpp:150] Setting up inception_3a/relu_pool_proj
I0531 19:37:32.021880 122398 net.cpp:157] Top shape: 64 32 28 28 (1605632)
I0531 19:37:32.021922 122398 net.cpp:165] Memory required for data: 1496450048
I0531 19:37:32.021942 122398 layer_factory.hpp:77] Creating layer inception_3a/output
I0531 19:37:32.021984 122398 net.cpp:106] Creating Layer inception_3a/output
I0531 19:37:32.022007 122398 net.cpp:454] inception_3a/output <- inception_3a/1x1
I0531 19:37:32.022029 122398 net.cpp:454] inception_3a/output <- inception_3a/3x3
I0531 19:37:32.022050 122398 net.cpp:454] inception_3a/output <- inception_3a/5x5
I0531 19:37:32.022070 122398 net.cpp:454] inception_3a/output <- inception_3a/pool_proj
I0531 19:37:32.022106 122398 net.cpp:411] inception_3a/output -> inception_3a/output
I0531 19:37:32.022166 122398 net.cpp:150] Setting up inception_3a/output
I0531 19:37:32.022208 122398 net.cpp:157] Top shape: 64 256 28 28 (12845056)
I0531 19:37:32.022229 122398 net.cpp:165] Memory required for data: 1547830272
I0531 19:37:32.022249 122398 layer_factory.hpp:77] Creating layer inception_3a/output_inception_3a/output_0_split
I0531 19:37:32.022271 122398 net.cpp:106] Creating Layer inception_3a/output_inception_3a/output_0_split
I0531 19:37:32.022290 122398 net.cpp:454] inception_3a/output_inception_3a/output_0_split <- inception_3a/output
I0531 19:37:32.022312 122398 net.cpp:411] inception_3a/output_inception_3a/output_0_split -> inception_3a/output_inception_3a/output_0_split_0
I0531 19:37:32.022336 122398 net.cpp:411] inception_3a/output_inception_3a/output_0_split -> inception_3a/output_inception_3a/output_0_split_1
I0531 19:37:32.022364 122398 net.cpp:411] inception_3a/output_inception_3a/output_0_split -> inception_3a/output_inception_3a/output_0_split_2
I0531 19:37:32.022389 122398 net.cpp:411] inception_3a/output_inception_3a/output_0_split -> inception_3a/output_inception_3a/output_0_split_3
I0531 19:37:32.022466 122398 net.cpp:150] Setting up inception_3a/output_inception_3a/output_0_split
I0531 19:37:32.022521 122398 net.cpp:157] Top shape: 64 256 28 28 (12845056)
I0531 19:37:32.022541 122398 net.cpp:157] Top shape: 64 256 28 28 (12845056)
I0531 19:37:32.022574 122398 net.cpp:157] Top shape: 64 256 28 28 (12845056)
I0531 19:37:32.022613 122398 net.cpp:157] Top shape: 64 256 28 28 (12845056)
I0531 19:37:32.022631 122398 net.cpp:165] Memory required for data: 1753351168
I0531 19:37:32.022650 122398 layer_factory.hpp:77] Creating layer inception_3b/1x1
I0531 19:37:32.022678 122398 net.cpp:106] Creating Layer inception_3b/1x1
I0531 19:37:32.022701 122398 net.cpp:454] inception_3b/1x1 <- inception_3a/output_inception_3a/output_0_split_0
I0531 19:37:32.022727 122398 net.cpp:411] inception_3b/1x1 -> inception_3b/1x1
I0531 19:37:32.023921 122398 net.cpp:150] Setting up inception_3b/1x1
I0531 19:37:32.023968 122398 net.cpp:157] Top shape: 64 128 28 28 (6422528)
I0531 19:37:32.024001 122398 net.cpp:165] Memory required for data: 1779041280
I0531 19:37:32.024025 122398 layer_factory.hpp:77] Creating layer inception_3b/relu_1x1
I0531 19:37:32.024091 122398 net.cpp:106] Creating Layer inception_3b/relu_1x1
I0531 19:37:32.024113 122398 net.cpp:454] inception_3b/relu_1x1 <- inception_3b/1x1
I0531 19:37:32.024163 122398 net.cpp:397] inception_3b/relu_1x1 -> inception_3b/1x1 (in-place)
I0531 19:37:32.024487 122398 net.cpp:150] Setting up inception_3b/relu_1x1
I0531 19:37:32.024525 122398 net.cpp:157] Top shape: 64 128 28 28 (6422528)
I0531 19:37:32.024545 122398 net.cpp:165] Memory required for data: 1804731392
I0531 19:37:32.024564 122398 layer_factory.hpp:77] Creating layer inception_3b/3x3_reduce
I0531 19:37:32.024590 122398 net.cpp:106] Creating Layer inception_3b/3x3_reduce
I0531 19:37:32.024613 122398 net.cpp:454] inception_3b/3x3_reduce <- inception_3a/output_inception_3a/output_0_split_1
I0531 19:37:32.024637 122398 net.cpp:411] inception_3b/3x3_reduce -> inception_3b/3x3_reduce
I0531 19:37:32.025645 122398 net.cpp:150] Setting up inception_3b/3x3_reduce
I0531 19:37:32.025696 122398 net.cpp:157] Top shape: 64 128 28 28 (6422528)
I0531 19:37:32.025717 122398 net.cpp:165] Memory required for data: 1830421504
I0531 19:37:32.025749 122398 layer_factory.hpp:77] Creating layer inception_3b/relu_3x3_reduce
I0531 19:37:32.025784 122398 net.cpp:106] Creating Layer inception_3b/relu_3x3_reduce
I0531 19:37:32.025806 122398 net.cpp:454] inception_3b/relu_3x3_reduce <- inception_3b/3x3_reduce
I0531 19:37:32.025827 122398 net.cpp:397] inception_3b/relu_3x3_reduce -> inception_3b/3x3_reduce (in-place)
I0531 19:37:32.026250 122398 net.cpp:150] Setting up inception_3b/relu_3x3_reduce
I0531 19:37:32.026305 122398 net.cpp:157] Top shape: 64 128 28 28 (6422528)
I0531 19:37:32.026327 122398 net.cpp:165] Memory required for data: 1856111616
I0531 19:37:32.026372 122398 layer_factory.hpp:77] Creating layer inception_3b/3x3
I0531 19:37:32.026420 122398 net.cpp:106] Creating Layer inception_3b/3x3
I0531 19:37:32.026445 122398 net.cpp:454] inception_3b/3x3 <- inception_3b/3x3_reduce
I0531 19:37:32.026469 122398 net.cpp:411] inception_3b/3x3 -> inception_3b/3x3
I0531 19:37:32.029140 122398 net.cpp:150] Setting up inception_3b/3x3
I0531 19:37:32.029186 122398 net.cpp:157] Top shape: 64 192 28 28 (9633792)
I0531 19:37:32.029207 122398 net.cpp:165] Memory required for data: 1894646784
I0531 19:37:32.029232 122398 layer_factory.hpp:77] Creating layer inception_3b/relu_3x3
I0531 19:37:32.029255 122398 net.cpp:106] Creating Layer inception_3b/relu_3x3
I0531 19:37:32.029278 122398 net.cpp:454] inception_3b/relu_3x3 <- inception_3b/3x3
I0531 19:37:32.029299 122398 net.cpp:397] inception_3b/relu_3x3 -> inception_3b/3x3 (in-place)
I0531 19:37:32.029496 122398 net.cpp:150] Setting up inception_3b/relu_3x3
I0531 19:37:32.029552 122398 net.cpp:157] Top shape: 64 192 28 28 (9633792)
I0531 19:37:32.029573 122398 net.cpp:165] Memory required for data: 1933181952
I0531 19:37:32.029592 122398 layer_factory.hpp:77] Creating layer inception_3b/5x5_reduce
I0531 19:37:32.029623 122398 net.cpp:106] Creating Layer inception_3b/5x5_reduce
I0531 19:37:32.029644 122398 net.cpp:454] inception_3b/5x5_reduce <- inception_3a/output_inception_3a/output_0_split_2
I0531 19:37:32.029670 122398 net.cpp:411] inception_3b/5x5_reduce -> inception_3b/5x5_reduce
I0531 19:37:32.030939 122398 net.cpp:150] Setting up inception_3b/5x5_reduce
I0531 19:37:32.030998 122398 net.cpp:157] Top shape: 64 32 28 28 (1605632)
I0531 19:37:32.031021 122398 net.cpp:165] Memory required for data: 1939604480
I0531 19:37:32.031067 122398 layer_factory.hpp:77] Creating layer inception_3b/relu_5x5_reduce
I0531 19:37:32.031091 122398 net.cpp:106] Creating Layer inception_3b/relu_5x5_reduce
I0531 19:37:32.031112 122398 net.cpp:454] inception_3b/relu_5x5_reduce <- inception_3b/5x5_reduce
I0531 19:37:32.031133 122398 net.cpp:397] inception_3b/relu_5x5_reduce -> inception_3b/5x5_reduce (in-place)
I0531 19:37:32.031436 122398 net.cpp:150] Setting up inception_3b/relu_5x5_reduce
I0531 19:37:32.031500 122398 net.cpp:157] Top shape: 64 32 28 28 (1605632)
I0531 19:37:32.031522 122398 net.cpp:165] Memory required for data: 1946027008
I0531 19:37:32.031539 122398 layer_factory.hpp:77] Creating layer inception_3b/5x5
I0531 19:37:32.031566 122398 net.cpp:106] Creating Layer inception_3b/5x5
I0531 19:37:32.031589 122398 net.cpp:454] inception_3b/5x5 <- inception_3b/5x5_reduce
I0531 19:37:32.031611 122398 net.cpp:411] inception_3b/5x5 -> inception_3b/5x5
I0531 19:37:32.033469 122398 net.cpp:150] Setting up inception_3b/5x5
I0531 19:37:32.033512 122398 net.cpp:157] Top shape: 64 96 28 28 (4816896)
I0531 19:37:32.033534 122398 net.cpp:165] Memory required for data: 1965294592
I0531 19:37:32.033556 122398 layer_factory.hpp:77] Creating layer inception_3b/relu_5x5
I0531 19:37:32.033583 122398 net.cpp:106] Creating Layer inception_3b/relu_5x5
I0531 19:37:32.033606 122398 net.cpp:454] inception_3b/relu_5x5 <- inception_3b/5x5
I0531 19:37:32.033638 122398 net.cpp:397] inception_3b/relu_5x5 -> inception_3b/5x5 (in-place)
I0531 19:37:32.033978 122398 net.cpp:150] Setting up inception_3b/relu_5x5
I0531 19:37:32.034029 122398 net.cpp:157] Top shape: 64 96 28 28 (4816896)
I0531 19:37:32.034049 122398 net.cpp:165] Memory required for data: 1984562176
I0531 19:37:32.034080 122398 layer_factory.hpp:77] Creating layer inception_3b/pool
I0531 19:37:32.034102 122398 net.cpp:106] Creating Layer inception_3b/pool
I0531 19:37:32.034124 122398 net.cpp:454] inception_3b/pool <- inception_3a/output_inception_3a/output_0_split_3
I0531 19:37:32.034147 122398 net.cpp:411] inception_3b/pool -> inception_3b/pool
I0531 19:37:32.034231 122398 net.cpp:150] Setting up inception_3b/pool
I0531 19:37:32.034260 122398 net.cpp:157] Top shape: 64 256 28 28 (12845056)
I0531 19:37:32.034289 122398 net.cpp:165] Memory required for data: 2035942400
I0531 19:37:32.034308 122398 layer_factory.hpp:77] Creating layer inception_3b/pool_proj
I0531 19:37:32.034358 122398 net.cpp:106] Creating Layer inception_3b/pool_proj
I0531 19:37:32.034392 122398 net.cpp:454] inception_3b/pool_proj <- inception_3b/pool
I0531 19:37:32.034442 122398 net.cpp:411] inception_3b/pool_proj -> inception_3b/pool_proj
I0531 19:37:32.035627 122398 net.cpp:150] Setting up inception_3b/pool_proj
I0531 19:37:32.035670 122398 net.cpp:157] Top shape: 64 64 28 28 (3211264)
I0531 19:37:32.035691 122398 net.cpp:165] Memory required for data: 2048787456
I0531 19:37:32.035713 122398 layer_factory.hpp:77] Creating layer inception_3b/relu_pool_proj
I0531 19:37:32.035737 122398 net.cpp:106] Creating Layer inception_3b/relu_pool_proj
I0531 19:37:32.035758 122398 net.cpp:454] inception_3b/relu_pool_proj <- inception_3b/pool_proj
I0531 19:37:32.035780 122398 net.cpp:397] inception_3b/relu_pool_proj -> inception_3b/pool_proj (in-place)
I0531 19:37:32.035956 122398 net.cpp:150] Setting up inception_3b/relu_pool_proj
I0531 19:37:32.036015 122398 net.cpp:157] Top shape: 64 64 28 28 (3211264)
I0531 19:37:32.036046 122398 net.cpp:165] Memory required for data: 2061632512
I0531 19:37:32.036075 122398 layer_factory.hpp:77] Creating layer inception_3b/output
I0531 19:37:32.036098 122398 net.cpp:106] Creating Layer inception_3b/output
I0531 19:37:32.036116 122398 net.cpp:454] inception_3b/output <- inception_3b/1x1
I0531 19:37:32.036139 122398 net.cpp:454] inception_3b/output <- inception_3b/3x3
I0531 19:37:32.036181 122398 net.cpp:454] inception_3b/output <- inception_3b/5x5
I0531 19:37:32.036228 122398 net.cpp:454] inception_3b/output <- inception_3b/pool_proj
I0531 19:37:32.036254 122398 net.cpp:411] inception_3b/output -> inception_3b/output
I0531 19:37:32.036327 122398 net.cpp:150] Setting up inception_3b/output
I0531 19:37:32.036380 122398 net.cpp:157] Top shape: 64 480 28 28 (24084480)
I0531 19:37:32.036401 122398 net.cpp:165] Memory required for data: 2157970432
I0531 19:37:32.036422 122398 layer_factory.hpp:77] Creating layer pool3/3x3_s2
I0531 19:37:32.036471 122398 net.cpp:106] Creating Layer pool3/3x3_s2
I0531 19:37:32.036504 122398 net.cpp:454] pool3/3x3_s2 <- inception_3b/output
I0531 19:37:32.036532 122398 net.cpp:411] pool3/3x3_s2 -> pool3/3x3_s2
I0531 19:37:32.036626 122398 net.cpp:150] Setting up pool3/3x3_s2
I0531 19:37:32.036685 122398 net.cpp:157] Top shape: 64 480 14 14 (6021120)
I0531 19:37:32.036705 122398 net.cpp:165] Memory required for data: 2182054912
I0531 19:37:32.036736 122398 layer_factory.hpp:77] Creating layer pool3/3x3_s2_pool3/3x3_s2_0_split
I0531 19:37:32.036775 122398 net.cpp:106] Creating Layer pool3/3x3_s2_pool3/3x3_s2_0_split
I0531 19:37:32.036797 122398 net.cpp:454] pool3/3x3_s2_pool3/3x3_s2_0_split <- pool3/3x3_s2
I0531 19:37:32.036821 122398 net.cpp:411] pool3/3x3_s2_pool3/3x3_s2_0_split -> pool3/3x3_s2_pool3/3x3_s2_0_split_0
I0531 19:37:32.036859 122398 net.cpp:411] pool3/3x3_s2_pool3/3x3_s2_0_split -> pool3/3x3_s2_pool3/3x3_s2_0_split_1
I0531 19:37:32.036885 122398 net.cpp:411] pool3/3x3_s2_pool3/3x3_s2_0_split -> pool3/3x3_s2_pool3/3x3_s2_0_split_2
I0531 19:37:32.036909 122398 net.cpp:411] pool3/3x3_s2_pool3/3x3_s2_0_split -> pool3/3x3_s2_pool3/3x3_s2_0_split_3
I0531 19:37:32.037009 122398 net.cpp:150] Setting up pool3/3x3_s2_pool3/3x3_s2_0_split
I0531 19:37:32.037045 122398 net.cpp:157] Top shape: 64 480 14 14 (6021120)
I0531 19:37:32.037077 122398 net.cpp:157] Top shape: 64 480 14 14 (6021120)
I0531 19:37:32.037106 122398 net.cpp:157] Top shape: 64 480 14 14 (6021120)
I0531 19:37:32.037125 122398 net.cpp:157] Top shape: 64 480 14 14 (6021120)
I0531 19:37:32.037142 122398 net.cpp:165] Memory required for data: 2278392832
I0531 19:37:32.037160 122398 layer_factory.hpp:77] Creating layer inception_4a/1x1
I0531 19:37:32.037186 122398 net.cpp:106] Creating Layer inception_4a/1x1
I0531 19:37:32.037207 122398 net.cpp:454] inception_4a/1x1 <- pool3/3x3_s2_pool3/3x3_s2_0_split_0
I0531 19:37:32.037230 122398 net.cpp:411] inception_4a/1x1 -> inception_4a/1x1
I0531 19:37:32.039023 122398 net.cpp:150] Setting up inception_4a/1x1
I0531 19:37:32.039070 122398 net.cpp:157] Top shape: 64 192 14 14 (2408448)
I0531 19:37:32.039104 122398 net.cpp:165] Memory required for data: 2288026624
I0531 19:37:32.039137 122398 layer_factory.hpp:77] Creating layer inception_4a/relu_1x1
I0531 19:37:32.039162 122398 net.cpp:106] Creating Layer inception_4a/relu_1x1
I0531 19:37:32.039183 122398 net.cpp:454] inception_4a/relu_1x1 <- inception_4a/1x1
I0531 19:37:32.039204 122398 net.cpp:397] inception_4a/relu_1x1 -> inception_4a/1x1 (in-place)
I0531 19:37:32.039541 122398 net.cpp:150] Setting up inception_4a/relu_1x1
I0531 19:37:32.039582 122398 net.cpp:157] Top shape: 64 192 14 14 (2408448)
I0531 19:37:32.039602 122398 net.cpp:165] Memory required for data: 2297660416
I0531 19:37:32.039620 122398 layer_factory.hpp:77] Creating layer inception_4a/3x3_reduce
I0531 19:37:32.039647 122398 net.cpp:106] Creating Layer inception_4a/3x3_reduce
I0531 19:37:32.039670 122398 net.cpp:454] inception_4a/3x3_reduce <- pool3/3x3_s2_pool3/3x3_s2_0_split_1
I0531 19:37:32.039693 122398 net.cpp:411] inception_4a/3x3_reduce -> inception_4a/3x3_reduce
I0531 19:37:32.041052 122398 net.cpp:150] Setting up inception_4a/3x3_reduce
I0531 19:37:32.041117 122398 net.cpp:157] Top shape: 64 96 14 14 (1204224)
I0531 19:37:32.041141 122398 net.cpp:165] Memory required for data: 2302477312
I0531 19:37:32.041167 122398 layer_factory.hpp:77] Creating layer inception_4a/relu_3x3_reduce
I0531 19:37:32.041203 122398 net.cpp:106] Creating Layer inception_4a/relu_3x3_reduce
I0531 19:37:32.041237 122398 net.cpp:454] inception_4a/relu_3x3_reduce <- inception_4a/3x3_reduce
I0531 19:37:32.041261 122398 net.cpp:397] inception_4a/relu_3x3_reduce -> inception_4a/3x3_reduce (in-place)
I0531 19:37:32.041579 122398 net.cpp:150] Setting up inception_4a/relu_3x3_reduce
I0531 19:37:32.041628 122398 net.cpp:157] Top shape: 64 96 14 14 (1204224)
I0531 19:37:32.041659 122398 net.cpp:165] Memory required for data: 2307294208
I0531 19:37:32.041678 122398 layer_factory.hpp:77] Creating layer inception_4a/3x3
I0531 19:37:32.041707 122398 net.cpp:106] Creating Layer inception_4a/3x3
I0531 19:37:32.041729 122398 net.cpp:454] inception_4a/3x3 <- inception_4a/3x3_reduce
I0531 19:37:32.041752 122398 net.cpp:411] inception_4a/3x3 -> inception_4a/3x3
I0531 19:37:32.044296 122398 net.cpp:150] Setting up inception_4a/3x3
I0531 19:37:32.044338 122398 net.cpp:157] Top shape: 64 208 14 14 (2609152)
I0531 19:37:32.044359 122398 net.cpp:165] Memory required for data: 2317730816
I0531 19:37:32.044385 122398 layer_factory.hpp:77] Creating layer inception_4a/relu_3x3
I0531 19:37:32.044412 122398 net.cpp:106] Creating Layer inception_4a/relu_3x3
I0531 19:37:32.044435 122398 net.cpp:454] inception_4a/relu_3x3 <- inception_4a/3x3
I0531 19:37:32.044456 122398 net.cpp:397] inception_4a/relu_3x3 -> inception_4a/3x3 (in-place)
I0531 19:37:32.044641 122398 net.cpp:150] Setting up inception_4a/relu_3x3
I0531 19:37:32.044674 122398 net.cpp:157] Top shape: 64 208 14 14 (2609152)
I0531 19:37:32.044695 122398 net.cpp:165] Memory required for data: 2328167424
I0531 19:37:32.044713 122398 layer_factory.hpp:77] Creating layer inception_4a/5x5_reduce
I0531 19:37:32.044746 122398 net.cpp:106] Creating Layer inception_4a/5x5_reduce
I0531 19:37:32.044770 122398 net.cpp:454] inception_4a/5x5_reduce <- pool3/3x3_s2_pool3/3x3_s2_0_split_2
I0531 19:37:32.044793 122398 net.cpp:411] inception_4a/5x5_reduce -> inception_4a/5x5_reduce
I0531 19:37:32.045913 122398 net.cpp:150] Setting up inception_4a/5x5_reduce
I0531 19:37:32.045969 122398 net.cpp:157] Top shape: 64 16 14 14 (200704)
I0531 19:37:32.046003 122398 net.cpp:165] Memory required for data: 2328970240
I0531 19:37:32.046027 122398 layer_factory.hpp:77] Creating layer inception_4a/relu_5x5_reduce
I0531 19:37:32.046052 122398 net.cpp:106] Creating Layer inception_4a/relu_5x5_reduce
I0531 19:37:32.046074 122398 net.cpp:454] inception_4a/relu_5x5_reduce <- inception_4a/5x5_reduce
I0531 19:37:32.046123 122398 net.cpp:397] inception_4a/relu_5x5_reduce -> inception_4a/5x5_reduce (in-place)
I0531 19:37:32.046439 122398 net.cpp:150] Setting up inception_4a/relu_5x5_reduce
I0531 19:37:32.046484 122398 net.cpp:157] Top shape: 64 16 14 14 (200704)
I0531 19:37:32.046505 122398 net.cpp:165] Memory required for data: 2329773056
I0531 19:37:32.046524 122398 layer_factory.hpp:77] Creating layer inception_4a/5x5
I0531 19:37:32.046561 122398 net.cpp:106] Creating Layer inception_4a/5x5
I0531 19:37:32.046594 122398 net.cpp:454] inception_4a/5x5 <- inception_4a/5x5_reduce
I0531 19:37:32.046618 122398 net.cpp:411] inception_4a/5x5 -> inception_4a/5x5
I0531 19:37:32.047646 122398 net.cpp:150] Setting up inception_4a/5x5
I0531 19:37:32.047698 122398 net.cpp:157] Top shape: 64 48 14 14 (602112)
I0531 19:37:32.047739 122398 net.cpp:165] Memory required for data: 2332181504
I0531 19:37:32.047762 122398 layer_factory.hpp:77] Creating layer inception_4a/relu_5x5
I0531 19:37:32.047790 122398 net.cpp:106] Creating Layer inception_4a/relu_5x5
I0531 19:37:32.047811 122398 net.cpp:454] inception_4a/relu_5x5 <- inception_4a/5x5
I0531 19:37:32.047835 122398 net.cpp:397] inception_4a/relu_5x5 -> inception_4a/5x5 (in-place)
I0531 19:37:32.048177 122398 net.cpp:150] Setting up inception_4a/relu_5x5
I0531 19:37:32.048214 122398 net.cpp:157] Top shape: 64 48 14 14 (602112)
I0531 19:37:32.048235 122398 net.cpp:165] Memory required for data: 2334589952
I0531 19:37:32.048254 122398 layer_factory.hpp:77] Creating layer inception_4a/pool
I0531 19:37:32.048288 122398 net.cpp:106] Creating Layer inception_4a/pool
I0531 19:37:32.048364 122398 net.cpp:454] inception_4a/pool <- pool3/3x3_s2_pool3/3x3_s2_0_split_3
I0531 19:37:32.048394 122398 net.cpp:411] inception_4a/pool -> inception_4a/pool
I0531 19:37:32.048504 122398 net.cpp:150] Setting up inception_4a/pool
I0531 19:37:32.048545 122398 net.cpp:157] Top shape: 64 480 14 14 (6021120)
I0531 19:37:32.048583 122398 net.cpp:165] Memory required for data: 2358674432
I0531 19:37:32.048619 122398 layer_factory.hpp:77] Creating layer inception_4a/pool_proj
I0531 19:37:32.048671 122398 net.cpp:106] Creating Layer inception_4a/pool_proj
I0531 19:37:32.048694 122398 net.cpp:454] inception_4a/pool_proj <- inception_4a/pool
I0531 19:37:32.048717 122398 net.cpp:411] inception_4a/pool_proj -> inception_4a/pool_proj
I0531 19:37:32.049891 122398 net.cpp:150] Setting up inception_4a/pool_proj
I0531 19:37:32.049932 122398 net.cpp:157] Top shape: 64 64 14 14 (802816)
I0531 19:37:32.049957 122398 net.cpp:165] Memory required for data: 2361885696
I0531 19:37:32.049991 122398 layer_factory.hpp:77] Creating layer inception_4a/relu_pool_proj
I0531 19:37:32.050027 122398 net.cpp:106] Creating Layer inception_4a/relu_pool_proj
I0531 19:37:32.050056 122398 net.cpp:454] inception_4a/relu_pool_proj <- inception_4a/pool_proj
I0531 19:37:32.050091 122398 net.cpp:397] inception_4a/relu_pool_proj -> inception_4a/pool_proj (in-place)
I0531 19:37:32.050335 122398 net.cpp:150] Setting up inception_4a/relu_pool_proj
I0531 19:37:32.050384 122398 net.cpp:157] Top shape: 64 64 14 14 (802816)
I0531 19:37:32.050405 122398 net.cpp:165] Memory required for data: 2365096960
I0531 19:37:32.050444 122398 layer_factory.hpp:77] Creating layer inception_4a/output
I0531 19:37:32.050472 122398 net.cpp:106] Creating Layer inception_4a/output
I0531 19:37:32.050503 122398 net.cpp:454] inception_4a/output <- inception_4a/1x1
I0531 19:37:32.050521 122398 net.cpp:454] inception_4a/output <- inception_4a/3x3
I0531 19:37:32.050554 122398 net.cpp:454] inception_4a/output <- inception_4a/5x5
I0531 19:37:32.050587 122398 net.cpp:454] inception_4a/output <- inception_4a/pool_proj
I0531 19:37:32.050609 122398 net.cpp:411] inception_4a/output -> inception_4a/output
I0531 19:37:32.050693 122398 net.cpp:150] Setting up inception_4a/output
I0531 19:37:32.050746 122398 net.cpp:157] Top shape: 64 512 14 14 (6422528)
I0531 19:37:32.050766 122398 net.cpp:165] Memory required for data: 2390787072
I0531 19:37:32.050786 122398 layer_factory.hpp:77] Creating layer inception_4a/output_inception_4a/output_0_split
I0531 19:37:32.050808 122398 net.cpp:106] Creating Layer inception_4a/output_inception_4a/output_0_split
I0531 19:37:32.050832 122398 net.cpp:454] inception_4a/output_inception_4a/output_0_split <- inception_4a/output
I0531 19:37:32.050855 122398 net.cpp:411] inception_4a/output_inception_4a/output_0_split -> inception_4a/output_inception_4a/output_0_split_0
I0531 19:37:32.050881 122398 net.cpp:411] inception_4a/output_inception_4a/output_0_split -> inception_4a/output_inception_4a/output_0_split_1
I0531 19:37:32.050906 122398 net.cpp:411] inception_4a/output_inception_4a/output_0_split -> inception_4a/output_inception_4a/output_0_split_2
I0531 19:37:32.050931 122398 net.cpp:411] inception_4a/output_inception_4a/output_0_split -> inception_4a/output_inception_4a/output_0_split_3
I0531 19:37:32.050958 122398 net.cpp:411] inception_4a/output_inception_4a/output_0_split -> inception_4a/output_inception_4a/output_0_split_4
I0531 19:37:32.051081 122398 net.cpp:150] Setting up inception_4a/output_inception_4a/output_0_split
I0531 19:37:32.051120 122398 net.cpp:157] Top shape: 64 512 14 14 (6422528)
I0531 19:37:32.051141 122398 net.cpp:157] Top shape: 64 512 14 14 (6422528)
I0531 19:37:32.051159 122398 net.cpp:157] Top shape: 64 512 14 14 (6422528)
I0531 19:37:32.051178 122398 net.cpp:157] Top shape: 64 512 14 14 (6422528)
I0531 19:37:32.051197 122398 net.cpp:157] Top shape: 64 512 14 14 (6422528)
I0531 19:37:32.051213 122398 net.cpp:165] Memory required for data: 2519237632
I0531 19:37:32.051231 122398 layer_factory.hpp:77] Creating layer loss1/ave_pool
I0531 19:37:32.051275 122398 net.cpp:106] Creating Layer loss1/ave_pool
I0531 19:37:32.051298 122398 net.cpp:454] loss1/ave_pool <- inception_4a/output_inception_4a/output_0_split_0
I0531 19:37:32.051321 122398 net.cpp:411] loss1/ave_pool -> loss1/ave_pool
I0531 19:37:32.051698 122398 net.cpp:150] Setting up loss1/ave_pool
I0531 19:37:32.051736 122398 net.cpp:157] Top shape: 64 512 4 4 (524288)
I0531 19:37:32.051756 122398 net.cpp:165] Memory required for data: 2521334784
I0531 19:37:32.051775 122398 layer_factory.hpp:77] Creating layer loss1/conv
I0531 19:37:32.051802 122398 net.cpp:106] Creating Layer loss1/conv
I0531 19:37:32.051826 122398 net.cpp:454] loss1/conv <- loss1/ave_pool
I0531 19:37:32.051849 122398 net.cpp:411] loss1/conv -> loss1/conv
I0531 19:37:32.053494 122398 net.cpp:150] Setting up loss1/conv
I0531 19:37:32.053535 122398 net.cpp:157] Top shape: 64 128 4 4 (131072)
I0531 19:37:32.053556 122398 net.cpp:165] Memory required for data: 2521859072
I0531 19:37:32.053580 122398 layer_factory.hpp:77] Creating layer loss1/relu_conv
I0531 19:37:32.053606 122398 net.cpp:106] Creating Layer loss1/relu_conv
I0531 19:37:32.053627 122398 net.cpp:454] loss1/relu_conv <- loss1/conv
I0531 19:37:32.053648 122398 net.cpp:397] loss1/relu_conv -> loss1/conv (in-place)
I0531 19:37:32.053861 122398 net.cpp:150] Setting up loss1/relu_conv
I0531 19:37:32.053915 122398 net.cpp:157] Top shape: 64 128 4 4 (131072)
I0531 19:37:32.053938 122398 net.cpp:165] Memory required for data: 2522383360
I0531 19:37:32.053961 122398 layer_factory.hpp:77] Creating layer loss1/fc
I0531 19:37:32.053999 122398 net.cpp:106] Creating Layer loss1/fc
I0531 19:37:32.054033 122398 net.cpp:454] loss1/fc <- loss1/conv
I0531 19:37:32.054059 122398 net.cpp:411] loss1/fc -> loss1/fc
I0531 19:37:32.069883 122398 net.cpp:150] Setting up loss1/fc
I0531 19:37:32.069924 122398 net.cpp:157] Top shape: 64 1024 (65536)
I0531 19:37:32.069944 122398 net.cpp:165] Memory required for data: 2522645504
I0531 19:37:32.069983 122398 layer_factory.hpp:77] Creating layer loss1/relu_fc
I0531 19:37:32.070032 122398 net.cpp:106] Creating Layer loss1/relu_fc
I0531 19:37:32.070083 122398 net.cpp:454] loss1/relu_fc <- loss1/fc
I0531 19:37:32.070116 122398 net.cpp:397] loss1/relu_fc -> loss1/fc (in-place)
I0531 19:37:32.070466 122398 net.cpp:150] Setting up loss1/relu_fc
I0531 19:37:32.070505 122398 net.cpp:157] Top shape: 64 1024 (65536)
I0531 19:37:32.070526 122398 net.cpp:165] Memory required for data: 2522907648
I0531 19:37:32.070546 122398 layer_factory.hpp:77] Creating layer loss1/drop_fc
I0531 19:37:32.070634 122398 net.cpp:106] Creating Layer loss1/drop_fc
I0531 19:37:32.070658 122398 net.cpp:454] loss1/drop_fc <- loss1/fc
I0531 19:37:32.070682 122398 net.cpp:397] loss1/drop_fc -> loss1/fc (in-place)
I0531 19:37:32.070750 122398 net.cpp:150] Setting up loss1/drop_fc
I0531 19:37:32.070780 122398 net.cpp:157] Top shape: 64 1024 (65536)
I0531 19:37:32.070798 122398 net.cpp:165] Memory required for data: 2523169792
I0531 19:37:32.070816 122398 layer_factory.hpp:77] Creating layer loss1/classifier
I0531 19:37:32.070839 122398 net.cpp:106] Creating Layer loss1/classifier
I0531 19:37:32.070859 122398 net.cpp:454] loss1/classifier <- loss1/fc
I0531 19:37:32.070883 122398 net.cpp:411] loss1/classifier -> loss1/classifier
I0531 19:37:32.078450 122398 net.cpp:150] Setting up loss1/classifier
I0531 19:37:32.078490 122398 net.cpp:157] Top shape: 64 1000 (64000)
I0531 19:37:32.078510 122398 net.cpp:165] Memory required for data: 2523425792
I0531 19:37:32.078543 122398 layer_factory.hpp:77] Creating layer loss1/loss
I0531 19:37:32.078570 122398 net.cpp:106] Creating Layer loss1/loss
I0531 19:37:32.078593 122398 net.cpp:454] loss1/loss <- loss1/classifier
I0531 19:37:32.078613 122398 net.cpp:454] loss1/loss <- label_data_1_split_0
I0531 19:37:32.078640 122398 net.cpp:411] loss1/loss -> loss1/loss1
I0531 19:37:32.078681 122398 layer_factory.hpp:77] Creating layer loss1/loss
I0531 19:37:32.079643 122398 net.cpp:150] Setting up loss1/loss
I0531 19:37:32.079694 122398 net.cpp:157] Top shape: (1)
I0531 19:37:32.079730 122398 net.cpp:160]     with loss weight 0.3
I0531 19:37:32.079818 122398 net.cpp:165] Memory required for data: 2523425796
I0531 19:37:32.079839 122398 layer_factory.hpp:77] Creating layer inception_4b/1x1
I0531 19:37:32.079880 122398 net.cpp:106] Creating Layer inception_4b/1x1
I0531 19:37:32.079937 122398 net.cpp:454] inception_4b/1x1 <- inception_4a/output_inception_4a/output_0_split_1
I0531 19:37:32.079982 122398 net.cpp:411] inception_4b/1x1 -> inception_4b/1x1
I0531 19:37:32.081548 122398 net.cpp:150] Setting up inception_4b/1x1
I0531 19:37:32.081604 122398 net.cpp:157] Top shape: 64 160 14 14 (2007040)
I0531 19:37:32.081639 122398 net.cpp:165] Memory required for data: 2531453956
I0531 19:37:32.081692 122398 layer_factory.hpp:77] Creating layer inception_4b/relu_1x1
I0531 19:37:32.081717 122398 net.cpp:106] Creating Layer inception_4b/relu_1x1
I0531 19:37:32.081737 122398 net.cpp:454] inception_4b/relu_1x1 <- inception_4b/1x1
I0531 19:37:32.081758 122398 net.cpp:397] inception_4b/relu_1x1 -> inception_4b/1x1 (in-place)
I0531 19:37:32.081986 122398 net.cpp:150] Setting up inception_4b/relu_1x1
I0531 19:37:32.082039 122398 net.cpp:157] Top shape: 64 160 14 14 (2007040)
I0531 19:37:32.082073 122398 net.cpp:165] Memory required for data: 2539482116
I0531 19:37:32.082119 122398 layer_factory.hpp:77] Creating layer inception_4b/3x3_reduce
I0531 19:37:32.082149 122398 net.cpp:106] Creating Layer inception_4b/3x3_reduce
I0531 19:37:32.082173 122398 net.cpp:454] inception_4b/3x3_reduce <- inception_4a/output_inception_4a/output_0_split_2
I0531 19:37:32.082200 122398 net.cpp:411] inception_4b/3x3_reduce -> inception_4b/3x3_reduce
I0531 19:37:32.083565 122398 net.cpp:150] Setting up inception_4b/3x3_reduce
I0531 19:37:32.083614 122398 net.cpp:157] Top shape: 64 112 14 14 (1404928)
I0531 19:37:32.083637 122398 net.cpp:165] Memory required for data: 2545101828
I0531 19:37:32.083659 122398 layer_factory.hpp:77] Creating layer inception_4b/relu_3x3_reduce
I0531 19:37:32.083683 122398 net.cpp:106] Creating Layer inception_4b/relu_3x3_reduce
I0531 19:37:32.083704 122398 net.cpp:454] inception_4b/relu_3x3_reduce <- inception_4b/3x3_reduce
I0531 19:37:32.083726 122398 net.cpp:397] inception_4b/relu_3x3_reduce -> inception_4b/3x3_reduce (in-place)
I0531 19:37:32.084095 122398 net.cpp:150] Setting up inception_4b/relu_3x3_reduce
I0531 19:37:32.084132 122398 net.cpp:157] Top shape: 64 112 14 14 (1404928)
I0531 19:37:32.084151 122398 net.cpp:165] Memory required for data: 2550721540
I0531 19:37:32.084170 122398 layer_factory.hpp:77] Creating layer inception_4b/3x3
I0531 19:37:32.084197 122398 net.cpp:106] Creating Layer inception_4b/3x3
I0531 19:37:32.084220 122398 net.cpp:454] inception_4b/3x3 <- inception_4b/3x3_reduce
I0531 19:37:32.084246 122398 net.cpp:411] inception_4b/3x3 -> inception_4b/3x3
I0531 19:37:32.087038 122398 net.cpp:150] Setting up inception_4b/3x3
I0531 19:37:32.087093 122398 net.cpp:157] Top shape: 64 224 14 14 (2809856)
I0531 19:37:32.087116 122398 net.cpp:165] Memory required for data: 2561960964
I0531 19:37:32.087141 122398 layer_factory.hpp:77] Creating layer inception_4b/relu_3x3
I0531 19:37:32.087165 122398 net.cpp:106] Creating Layer inception_4b/relu_3x3
I0531 19:37:32.087203 122398 net.cpp:454] inception_4b/relu_3x3 <- inception_4b/3x3
I0531 19:37:32.087224 122398 net.cpp:397] inception_4b/relu_3x3 -> inception_4b/3x3 (in-place)
I0531 19:37:32.087456 122398 net.cpp:150] Setting up inception_4b/relu_3x3
I0531 19:37:32.087512 122398 net.cpp:157] Top shape: 64 224 14 14 (2809856)
I0531 19:37:32.087530 122398 net.cpp:165] Memory required for data: 2573200388
I0531 19:37:32.087549 122398 layer_factory.hpp:77] Creating layer inception_4b/5x5_reduce
I0531 19:37:32.087580 122398 net.cpp:106] Creating Layer inception_4b/5x5_reduce
I0531 19:37:32.087604 122398 net.cpp:454] inception_4b/5x5_reduce <- inception_4a/output_inception_4a/output_0_split_3
I0531 19:37:32.087627 122398 net.cpp:411] inception_4b/5x5_reduce -> inception_4b/5x5_reduce
I0531 19:37:32.088803 122398 net.cpp:150] Setting up inception_4b/5x5_reduce
I0531 19:37:32.088856 122398 net.cpp:157] Top shape: 64 24 14 14 (301056)
I0531 19:37:32.088878 122398 net.cpp:165] Memory required for data: 2574404612
I0531 19:37:32.088902 122398 layer_factory.hpp:77] Creating layer inception_4b/relu_5x5_reduce
I0531 19:37:32.088927 122398 net.cpp:106] Creating Layer inception_4b/relu_5x5_reduce
I0531 19:37:32.088948 122398 net.cpp:454] inception_4b/relu_5x5_reduce <- inception_4b/5x5_reduce
I0531 19:37:32.088979 122398 net.cpp:397] inception_4b/relu_5x5_reduce -> inception_4b/5x5_reduce (in-place)
I0531 19:37:32.089217 122398 net.cpp:150] Setting up inception_4b/relu_5x5_reduce
I0531 19:37:32.089251 122398 net.cpp:157] Top shape: 64 24 14 14 (301056)
I0531 19:37:32.089269 122398 net.cpp:165] Memory required for data: 2575608836
I0531 19:37:32.089287 122398 layer_factory.hpp:77] Creating layer inception_4b/5x5
I0531 19:37:32.089316 122398 net.cpp:106] Creating Layer inception_4b/5x5
I0531 19:37:32.089339 122398 net.cpp:454] inception_4b/5x5 <- inception_4b/5x5_reduce
I0531 19:37:32.089364 122398 net.cpp:411] inception_4b/5x5 -> inception_4b/5x5
I0531 19:37:32.090723 122398 net.cpp:150] Setting up inception_4b/5x5
I0531 19:37:32.090767 122398 net.cpp:157] Top shape: 64 64 14 14 (802816)
I0531 19:37:32.090790 122398 net.cpp:165] Memory required for data: 2578820100
I0531 19:37:32.090812 122398 layer_factory.hpp:77] Creating layer inception_4b/relu_5x5
I0531 19:37:32.090837 122398 net.cpp:106] Creating Layer inception_4b/relu_5x5
I0531 19:37:32.090858 122398 net.cpp:454] inception_4b/relu_5x5 <- inception_4b/5x5
I0531 19:37:32.090879 122398 net.cpp:397] inception_4b/relu_5x5 -> inception_4b/5x5 (in-place)
I0531 19:37:32.091230 122398 net.cpp:150] Setting up inception_4b/relu_5x5
I0531 19:37:32.091270 122398 net.cpp:157] Top shape: 64 64 14 14 (802816)
I0531 19:37:32.091289 122398 net.cpp:165] Memory required for data: 2582031364
I0531 19:37:32.091308 122398 layer_factory.hpp:77] Creating layer inception_4b/pool
I0531 19:37:32.091331 122398 net.cpp:106] Creating Layer inception_4b/pool
I0531 19:37:32.091352 122398 net.cpp:454] inception_4b/pool <- inception_4a/output_inception_4a/output_0_split_4
I0531 19:37:32.091393 122398 net.cpp:411] inception_4b/pool -> inception_4b/pool
I0531 19:37:32.091511 122398 net.cpp:150] Setting up inception_4b/pool
I0531 19:37:32.091574 122398 net.cpp:157] Top shape: 64 512 14 14 (6422528)
I0531 19:37:32.091594 122398 net.cpp:165] Memory required for data: 2607721476
I0531 19:37:32.091626 122398 layer_factory.hpp:77] Creating layer inception_4b/pool_proj
I0531 19:37:32.091661 122398 net.cpp:106] Creating Layer inception_4b/pool_proj
I0531 19:37:32.091683 122398 net.cpp:454] inception_4b/pool_proj <- inception_4b/pool
I0531 19:37:32.091707 122398 net.cpp:411] inception_4b/pool_proj -> inception_4b/pool_proj
I0531 19:37:32.092977 122398 net.cpp:150] Setting up inception_4b/pool_proj
I0531 19:37:32.093039 122398 net.cpp:157] Top shape: 64 64 14 14 (802816)
I0531 19:37:32.093060 122398 net.cpp:165] Memory required for data: 2610932740
I0531 19:37:32.093097 122398 layer_factory.hpp:77] Creating layer inception_4b/relu_pool_proj
I0531 19:37:32.093122 122398 net.cpp:106] Creating Layer inception_4b/relu_pool_proj
I0531 19:37:32.093142 122398 net.cpp:454] inception_4b/relu_pool_proj <- inception_4b/pool_proj
I0531 19:37:32.093166 122398 net.cpp:397] inception_4b/relu_pool_proj -> inception_4b/pool_proj (in-place)
I0531 19:37:32.093396 122398 net.cpp:150] Setting up inception_4b/relu_pool_proj
I0531 19:37:32.093430 122398 net.cpp:157] Top shape: 64 64 14 14 (802816)
I0531 19:37:32.093451 122398 net.cpp:165] Memory required for data: 2614144004
I0531 19:37:32.093469 122398 layer_factory.hpp:77] Creating layer inception_4b/output
I0531 19:37:32.093492 122398 net.cpp:106] Creating Layer inception_4b/output
I0531 19:37:32.093513 122398 net.cpp:454] inception_4b/output <- inception_4b/1x1
I0531 19:37:32.093533 122398 net.cpp:454] inception_4b/output <- inception_4b/3x3
I0531 19:37:32.093552 122398 net.cpp:454] inception_4b/output <- inception_4b/5x5
I0531 19:37:32.093606 122398 net.cpp:454] inception_4b/output <- inception_4b/pool_proj
I0531 19:37:32.093639 122398 net.cpp:411] inception_4b/output -> inception_4b/output
I0531 19:37:32.093691 122398 net.cpp:150] Setting up inception_4b/output
I0531 19:37:32.093721 122398 net.cpp:157] Top shape: 64 512 14 14 (6422528)
I0531 19:37:32.093739 122398 net.cpp:165] Memory required for data: 2639834116
I0531 19:37:32.093758 122398 layer_factory.hpp:77] Creating layer inception_4b/output_inception_4b/output_0_split
I0531 19:37:32.093780 122398 net.cpp:106] Creating Layer inception_4b/output_inception_4b/output_0_split
I0531 19:37:32.093812 122398 net.cpp:454] inception_4b/output_inception_4b/output_0_split <- inception_4b/output
I0531 19:37:32.093837 122398 net.cpp:411] inception_4b/output_inception_4b/output_0_split -> inception_4b/output_inception_4b/output_0_split_0
I0531 19:37:32.093863 122398 net.cpp:411] inception_4b/output_inception_4b/output_0_split -> inception_4b/output_inception_4b/output_0_split_1
I0531 19:37:32.093888 122398 net.cpp:411] inception_4b/output_inception_4b/output_0_split -> inception_4b/output_inception_4b/output_0_split_2
I0531 19:37:32.093912 122398 net.cpp:411] inception_4b/output_inception_4b/output_0_split -> inception_4b/output_inception_4b/output_0_split_3
I0531 19:37:32.094041 122398 net.cpp:150] Setting up inception_4b/output_inception_4b/output_0_split
I0531 19:37:32.094074 122398 net.cpp:157] Top shape: 64 512 14 14 (6422528)
I0531 19:37:32.094110 122398 net.cpp:157] Top shape: 64 512 14 14 (6422528)
I0531 19:37:32.094130 122398 net.cpp:157] Top shape: 64 512 14 14 (6422528)
I0531 19:37:32.094148 122398 net.cpp:157] Top shape: 64 512 14 14 (6422528)
I0531 19:37:32.094166 122398 net.cpp:165] Memory required for data: 2742594564
I0531 19:37:32.094184 122398 layer_factory.hpp:77] Creating layer inception_4c/1x1
I0531 19:37:32.094209 122398 net.cpp:106] Creating Layer inception_4c/1x1
I0531 19:37:32.094231 122398 net.cpp:454] inception_4c/1x1 <- inception_4b/output_inception_4b/output_0_split_0
I0531 19:37:32.094254 122398 net.cpp:411] inception_4c/1x1 -> inception_4c/1x1
I0531 19:37:32.095679 122398 net.cpp:150] Setting up inception_4c/1x1
I0531 19:37:32.095731 122398 net.cpp:157] Top shape: 64 128 14 14 (1605632)
I0531 19:37:32.095752 122398 net.cpp:165] Memory required for data: 2749017092
I0531 19:37:32.095775 122398 layer_factory.hpp:77] Creating layer inception_4c/relu_1x1
I0531 19:37:32.095801 122398 net.cpp:106] Creating Layer inception_4c/relu_1x1
I0531 19:37:32.095824 122398 net.cpp:454] inception_4c/relu_1x1 <- inception_4c/1x1
I0531 19:37:32.095856 122398 net.cpp:397] inception_4c/relu_1x1 -> inception_4c/1x1 (in-place)
I0531 19:37:32.096132 122398 net.cpp:150] Setting up inception_4c/relu_1x1
I0531 19:37:32.096166 122398 net.cpp:157] Top shape: 64 128 14 14 (1605632)
I0531 19:37:32.096186 122398 net.cpp:165] Memory required for data: 2755439620
I0531 19:37:32.096205 122398 layer_factory.hpp:77] Creating layer inception_4c/3x3_reduce
I0531 19:37:32.096232 122398 net.cpp:106] Creating Layer inception_4c/3x3_reduce
I0531 19:37:32.096256 122398 net.cpp:454] inception_4c/3x3_reduce <- inception_4b/output_inception_4b/output_0_split_1
I0531 19:37:32.096283 122398 net.cpp:411] inception_4c/3x3_reduce -> inception_4c/3x3_reduce
I0531 19:37:32.098306 122398 net.cpp:150] Setting up inception_4c/3x3_reduce
I0531 19:37:32.098367 122398 net.cpp:157] Top shape: 64 128 14 14 (1605632)
I0531 19:37:32.098392 122398 net.cpp:165] Memory required for data: 2761862148
I0531 19:37:32.098414 122398 layer_factory.hpp:77] Creating layer inception_4c/relu_3x3_reduce
I0531 19:37:32.098438 122398 net.cpp:106] Creating Layer inception_4c/relu_3x3_reduce
I0531 19:37:32.098459 122398 net.cpp:454] inception_4c/relu_3x3_reduce <- inception_4c/3x3_reduce
I0531 19:37:32.098480 122398 net.cpp:397] inception_4c/relu_3x3_reduce -> inception_4c/3x3_reduce (in-place)
I0531 19:37:32.098793 122398 net.cpp:150] Setting up inception_4c/relu_3x3_reduce
I0531 19:37:32.098830 122398 net.cpp:157] Top shape: 64 128 14 14 (1605632)
I0531 19:37:32.098875 122398 net.cpp:165] Memory required for data: 2768284676
I0531 19:37:32.098896 122398 layer_factory.hpp:77] Creating layer inception_4c/3x3
I0531 19:37:32.098924 122398 net.cpp:106] Creating Layer inception_4c/3x3
I0531 19:37:32.098953 122398 net.cpp:454] inception_4c/3x3 <- inception_4c/3x3_reduce
I0531 19:37:32.098980 122398 net.cpp:411] inception_4c/3x3 -> inception_4c/3x3
I0531 19:37:32.102459 122398 net.cpp:150] Setting up inception_4c/3x3
I0531 19:37:32.102504 122398 net.cpp:157] Top shape: 64 256 14 14 (3211264)
I0531 19:37:32.102526 122398 net.cpp:165] Memory required for data: 2781129732
I0531 19:37:32.102563 122398 layer_factory.hpp:77] Creating layer inception_4c/relu_3x3
I0531 19:37:32.102591 122398 net.cpp:106] Creating Layer inception_4c/relu_3x3
I0531 19:37:32.102612 122398 net.cpp:454] inception_4c/relu_3x3 <- inception_4c/3x3
I0531 19:37:32.102638 122398 net.cpp:397] inception_4c/relu_3x3 -> inception_4c/3x3 (in-place)
I0531 19:37:32.102828 122398 net.cpp:150] Setting up inception_4c/relu_3x3
I0531 19:37:32.102861 122398 net.cpp:157] Top shape: 64 256 14 14 (3211264)
I0531 19:37:32.102880 122398 net.cpp:165] Memory required for data: 2793974788
I0531 19:37:32.102911 122398 layer_factory.hpp:77] Creating layer inception_4c/5x5_reduce
I0531 19:37:32.102942 122398 net.cpp:106] Creating Layer inception_4c/5x5_reduce
I0531 19:37:32.102970 122398 net.cpp:454] inception_4c/5x5_reduce <- inception_4b/output_inception_4b/output_0_split_2
I0531 19:37:32.102999 122398 net.cpp:411] inception_4c/5x5_reduce -> inception_4c/5x5_reduce
I0531 19:37:32.104280 122398 net.cpp:150] Setting up inception_4c/5x5_reduce
I0531 19:37:32.104321 122398 net.cpp:157] Top shape: 64 24 14 14 (301056)
I0531 19:37:32.104342 122398 net.cpp:165] Memory required for data: 2795179012
I0531 19:37:32.104367 122398 layer_factory.hpp:77] Creating layer inception_4c/relu_5x5_reduce
I0531 19:37:32.104392 122398 net.cpp:106] Creating Layer inception_4c/relu_5x5_reduce
I0531 19:37:32.104413 122398 net.cpp:454] inception_4c/relu_5x5_reduce <- inception_4c/5x5_reduce
I0531 19:37:32.104434 122398 net.cpp:397] inception_4c/relu_5x5_reduce -> inception_4c/5x5_reduce (in-place)
I0531 19:37:32.104632 122398 net.cpp:150] Setting up inception_4c/relu_5x5_reduce
I0531 19:37:32.104666 122398 net.cpp:157] Top shape: 64 24 14 14 (301056)
I0531 19:37:32.104684 122398 net.cpp:165] Memory required for data: 2796383236
I0531 19:37:32.104703 122398 layer_factory.hpp:77] Creating layer inception_4c/5x5
I0531 19:37:32.104733 122398 net.cpp:106] Creating Layer inception_4c/5x5
I0531 19:37:32.104756 122398 net.cpp:454] inception_4c/5x5 <- inception_4c/5x5_reduce
I0531 19:37:32.104780 122398 net.cpp:411] inception_4c/5x5 -> inception_4c/5x5
I0531 19:37:32.106254 122398 net.cpp:150] Setting up inception_4c/5x5
I0531 19:37:32.106305 122398 net.cpp:157] Top shape: 64 64 14 14 (802816)
I0531 19:37:32.106328 122398 net.cpp:165] Memory required for data: 2799594500
I0531 19:37:32.106351 122398 layer_factory.hpp:77] Creating layer inception_4c/relu_5x5
I0531 19:37:32.106375 122398 net.cpp:106] Creating Layer inception_4c/relu_5x5
I0531 19:37:32.106396 122398 net.cpp:454] inception_4c/relu_5x5 <- inception_4c/5x5
I0531 19:37:32.106417 122398 net.cpp:397] inception_4c/relu_5x5 -> inception_4c/5x5 (in-place)
I0531 19:37:32.106725 122398 net.cpp:150] Setting up inception_4c/relu_5x5
I0531 19:37:32.106762 122398 net.cpp:157] Top shape: 64 64 14 14 (802816)
I0531 19:37:32.106782 122398 net.cpp:165] Memory required for data: 2802805764
I0531 19:37:32.106802 122398 layer_factory.hpp:77] Creating layer inception_4c/pool
I0531 19:37:32.106825 122398 net.cpp:106] Creating Layer inception_4c/pool
I0531 19:37:32.106847 122398 net.cpp:454] inception_4c/pool <- inception_4b/output_inception_4b/output_0_split_3
I0531 19:37:32.106869 122398 net.cpp:411] inception_4c/pool -> inception_4c/pool
I0531 19:37:32.106940 122398 net.cpp:150] Setting up inception_4c/pool
I0531 19:37:32.106976 122398 net.cpp:157] Top shape: 64 512 14 14 (6422528)
I0531 19:37:32.107007 122398 net.cpp:165] Memory required for data: 2828495876
I0531 19:37:32.107089 122398 layer_factory.hpp:77] Creating layer inception_4c/pool_proj
I0531 19:37:32.107127 122398 net.cpp:106] Creating Layer inception_4c/pool_proj
I0531 19:37:32.107152 122398 net.cpp:454] inception_4c/pool_proj <- inception_4c/pool
I0531 19:37:32.107178 122398 net.cpp:411] inception_4c/pool_proj -> inception_4c/pool_proj
I0531 19:37:32.108512 122398 net.cpp:150] Setting up inception_4c/pool_proj
I0531 19:37:32.108556 122398 net.cpp:157] Top shape: 64 64 14 14 (802816)
I0531 19:37:32.108577 122398 net.cpp:165] Memory required for data: 2831707140
I0531 19:37:32.108600 122398 layer_factory.hpp:77] Creating layer inception_4c/relu_pool_proj
I0531 19:37:32.108624 122398 net.cpp:106] Creating Layer inception_4c/relu_pool_proj
I0531 19:37:32.108645 122398 net.cpp:454] inception_4c/relu_pool_proj <- inception_4c/pool_proj
I0531 19:37:32.108667 122398 net.cpp:397] inception_4c/relu_pool_proj -> inception_4c/pool_proj (in-place)
I0531 19:37:32.108858 122398 net.cpp:150] Setting up inception_4c/relu_pool_proj
I0531 19:37:32.108893 122398 net.cpp:157] Top shape: 64 64 14 14 (802816)
I0531 19:37:32.108914 122398 net.cpp:165] Memory required for data: 2834918404
I0531 19:37:32.108934 122398 layer_factory.hpp:77] Creating layer inception_4c/output
I0531 19:37:32.108960 122398 net.cpp:106] Creating Layer inception_4c/output
I0531 19:37:32.108983 122398 net.cpp:454] inception_4c/output <- inception_4c/1x1
I0531 19:37:32.109004 122398 net.cpp:454] inception_4c/output <- inception_4c/3x3
I0531 19:37:32.109035 122398 net.cpp:454] inception_4c/output <- inception_4c/5x5
I0531 19:37:32.109068 122398 net.cpp:454] inception_4c/output <- inception_4c/pool_proj
I0531 19:37:32.109092 122398 net.cpp:411] inception_4c/output -> inception_4c/output
I0531 19:37:32.109146 122398 net.cpp:150] Setting up inception_4c/output
I0531 19:37:32.109179 122398 net.cpp:157] Top shape: 64 512 14 14 (6422528)
I0531 19:37:32.109199 122398 net.cpp:165] Memory required for data: 2860608516
I0531 19:37:32.109217 122398 layer_factory.hpp:77] Creating layer inception_4c/output_inception_4c/output_0_split
I0531 19:37:32.109239 122398 net.cpp:106] Creating Layer inception_4c/output_inception_4c/output_0_split
I0531 19:37:32.109259 122398 net.cpp:454] inception_4c/output_inception_4c/output_0_split <- inception_4c/output
I0531 19:37:32.109287 122398 net.cpp:411] inception_4c/output_inception_4c/output_0_split -> inception_4c/output_inception_4c/output_0_split_0
I0531 19:37:32.109311 122398 net.cpp:411] inception_4c/output_inception_4c/output_0_split -> inception_4c/output_inception_4c/output_0_split_1
I0531 19:37:32.109338 122398 net.cpp:411] inception_4c/output_inception_4c/output_0_split -> inception_4c/output_inception_4c/output_0_split_2
I0531 19:37:32.109364 122398 net.cpp:411] inception_4c/output_inception_4c/output_0_split -> inception_4c/output_inception_4c/output_0_split_3
I0531 19:37:32.109452 122398 net.cpp:150] Setting up inception_4c/output_inception_4c/output_0_split
I0531 19:37:32.109483 122398 net.cpp:157] Top shape: 64 512 14 14 (6422528)
I0531 19:37:32.109503 122398 net.cpp:157] Top shape: 64 512 14 14 (6422528)
I0531 19:37:32.109522 122398 net.cpp:157] Top shape: 64 512 14 14 (6422528)
I0531 19:37:32.109541 122398 net.cpp:157] Top shape: 64 512 14 14 (6422528)
I0531 19:37:32.109560 122398 net.cpp:165] Memory required for data: 2963368964
I0531 19:37:32.109577 122398 layer_factory.hpp:77] Creating layer inception_4d/1x1
I0531 19:37:32.109606 122398 net.cpp:106] Creating Layer inception_4d/1x1
I0531 19:37:32.109628 122398 net.cpp:454] inception_4d/1x1 <- inception_4c/output_inception_4c/output_0_split_0
I0531 19:37:32.109654 122398 net.cpp:411] inception_4d/1x1 -> inception_4d/1x1
I0531 19:37:32.111171 122398 net.cpp:150] Setting up inception_4d/1x1
I0531 19:37:32.111213 122398 net.cpp:157] Top shape: 64 112 14 14 (1404928)
I0531 19:37:32.111234 122398 net.cpp:165] Memory required for data: 2968988676
I0531 19:37:32.111258 122398 layer_factory.hpp:77] Creating layer inception_4d/relu_1x1
I0531 19:37:32.111309 122398 net.cpp:106] Creating Layer inception_4d/relu_1x1
I0531 19:37:32.111333 122398 net.cpp:454] inception_4d/relu_1x1 <- inception_4d/1x1
I0531 19:37:32.111356 122398 net.cpp:397] inception_4d/relu_1x1 -> inception_4d/1x1 (in-place)
I0531 19:37:32.111547 122398 net.cpp:150] Setting up inception_4d/relu_1x1
I0531 19:37:32.111582 122398 net.cpp:157] Top shape: 64 112 14 14 (1404928)
I0531 19:37:32.111600 122398 net.cpp:165] Memory required for data: 2974608388
I0531 19:37:32.111619 122398 layer_factory.hpp:77] Creating layer inception_4d/3x3_reduce
I0531 19:37:32.111650 122398 net.cpp:106] Creating Layer inception_4d/3x3_reduce
I0531 19:37:32.111673 122398 net.cpp:454] inception_4d/3x3_reduce <- inception_4c/output_inception_4c/output_0_split_1
I0531 19:37:32.111697 122398 net.cpp:411] inception_4d/3x3_reduce -> inception_4d/3x3_reduce
I0531 19:37:32.113370 122398 net.cpp:150] Setting up inception_4d/3x3_reduce
I0531 19:37:32.113415 122398 net.cpp:157] Top shape: 64 144 14 14 (1806336)
I0531 19:37:32.113436 122398 net.cpp:165] Memory required for data: 2981833732
I0531 19:37:32.113459 122398 layer_factory.hpp:77] Creating layer inception_4d/relu_3x3_reduce
I0531 19:37:32.113483 122398 net.cpp:106] Creating Layer inception_4d/relu_3x3_reduce
I0531 19:37:32.113505 122398 net.cpp:454] inception_4d/relu_3x3_reduce <- inception_4d/3x3_reduce
I0531 19:37:32.113529 122398 net.cpp:397] inception_4d/relu_3x3_reduce -> inception_4d/3x3_reduce (in-place)
I0531 19:37:32.113881 122398 net.cpp:150] Setting up inception_4d/relu_3x3_reduce
I0531 19:37:32.113931 122398 net.cpp:157] Top shape: 64 144 14 14 (1806336)
I0531 19:37:32.113956 122398 net.cpp:165] Memory required for data: 2989059076
I0531 19:37:32.114001 122398 layer_factory.hpp:77] Creating layer inception_4d/3x3
I0531 19:37:32.114048 122398 net.cpp:106] Creating Layer inception_4d/3x3
I0531 19:37:32.114084 122398 net.cpp:454] inception_4d/3x3 <- inception_4d/3x3_reduce
I0531 19:37:32.114110 122398 net.cpp:411] inception_4d/3x3 -> inception_4d/3x3
I0531 19:37:32.118304 122398 net.cpp:150] Setting up inception_4d/3x3
I0531 19:37:32.118347 122398 net.cpp:157] Top shape: 64 288 14 14 (3612672)
I0531 19:37:32.118368 122398 net.cpp:165] Memory required for data: 3003509764
I0531 19:37:32.118391 122398 layer_factory.hpp:77] Creating layer inception_4d/relu_3x3
I0531 19:37:32.118417 122398 net.cpp:106] Creating Layer inception_4d/relu_3x3
I0531 19:37:32.118438 122398 net.cpp:454] inception_4d/relu_3x3 <- inception_4d/3x3
I0531 19:37:32.118458 122398 net.cpp:397] inception_4d/relu_3x3 -> inception_4d/3x3 (in-place)
I0531 19:37:32.118669 122398 net.cpp:150] Setting up inception_4d/relu_3x3
I0531 19:37:32.118705 122398 net.cpp:157] Top shape: 64 288 14 14 (3612672)
I0531 19:37:32.118723 122398 net.cpp:165] Memory required for data: 3017960452
I0531 19:37:32.118742 122398 layer_factory.hpp:77] Creating layer inception_4d/5x5_reduce
I0531 19:37:32.118769 122398 net.cpp:106] Creating Layer inception_4d/5x5_reduce
I0531 19:37:32.118793 122398 net.cpp:454] inception_4d/5x5_reduce <- inception_4c/output_inception_4c/output_0_split_2
I0531 19:37:32.118816 122398 net.cpp:411] inception_4d/5x5_reduce -> inception_4d/5x5_reduce
I0531 19:37:32.120218 122398 net.cpp:150] Setting up inception_4d/5x5_reduce
I0531 19:37:32.120263 122398 net.cpp:157] Top shape: 64 32 14 14 (401408)
I0531 19:37:32.120285 122398 net.cpp:165] Memory required for data: 3019566084
I0531 19:37:32.120308 122398 layer_factory.hpp:77] Creating layer inception_4d/relu_5x5_reduce
I0531 19:37:32.120332 122398 net.cpp:106] Creating Layer inception_4d/relu_5x5_reduce
I0531 19:37:32.120353 122398 net.cpp:454] inception_4d/relu_5x5_reduce <- inception_4d/5x5_reduce
I0531 19:37:32.120375 122398 net.cpp:397] inception_4d/relu_5x5_reduce -> inception_4d/5x5_reduce (in-place)
I0531 19:37:32.120576 122398 net.cpp:150] Setting up inception_4d/relu_5x5_reduce
I0531 19:37:32.120610 122398 net.cpp:157] Top shape: 64 32 14 14 (401408)
I0531 19:37:32.120630 122398 net.cpp:165] Memory required for data: 3021171716
I0531 19:37:32.120661 122398 layer_factory.hpp:77] Creating layer inception_4d/5x5
I0531 19:37:32.120707 122398 net.cpp:106] Creating Layer inception_4d/5x5
I0531 19:37:32.120730 122398 net.cpp:454] inception_4d/5x5 <- inception_4d/5x5_reduce
I0531 19:37:32.120756 122398 net.cpp:411] inception_4d/5x5 -> inception_4d/5x5
I0531 19:37:32.122406 122398 net.cpp:150] Setting up inception_4d/5x5
I0531 19:37:32.122447 122398 net.cpp:157] Top shape: 64 64 14 14 (802816)
I0531 19:37:32.122469 122398 net.cpp:165] Memory required for data: 3024382980
I0531 19:37:32.122491 122398 layer_factory.hpp:77] Creating layer inception_4d/relu_5x5
I0531 19:37:32.122515 122398 net.cpp:106] Creating Layer inception_4d/relu_5x5
I0531 19:37:32.122536 122398 net.cpp:454] inception_4d/relu_5x5 <- inception_4d/5x5
I0531 19:37:32.122560 122398 net.cpp:397] inception_4d/relu_5x5 -> inception_4d/5x5 (in-place)
I0531 19:37:32.122881 122398 net.cpp:150] Setting up inception_4d/relu_5x5
I0531 19:37:32.122918 122398 net.cpp:157] Top shape: 64 64 14 14 (802816)
I0531 19:37:32.122938 122398 net.cpp:165] Memory required for data: 3027594244
I0531 19:37:32.122962 122398 layer_factory.hpp:77] Creating layer inception_4d/pool
I0531 19:37:32.122987 122398 net.cpp:106] Creating Layer inception_4d/pool
I0531 19:37:32.123009 122398 net.cpp:454] inception_4d/pool <- inception_4c/output_inception_4c/output_0_split_3
I0531 19:37:32.123045 122398 net.cpp:411] inception_4d/pool -> inception_4d/pool
I0531 19:37:32.123137 122398 net.cpp:150] Setting up inception_4d/pool
I0531 19:37:32.123168 122398 net.cpp:157] Top shape: 64 512 14 14 (6422528)
I0531 19:37:32.123186 122398 net.cpp:165] Memory required for data: 3053284356
I0531 19:37:32.123204 122398 layer_factory.hpp:77] Creating layer inception_4d/pool_proj
I0531 19:37:32.123234 122398 net.cpp:106] Creating Layer inception_4d/pool_proj
I0531 19:37:32.123256 122398 net.cpp:454] inception_4d/pool_proj <- inception_4d/pool
I0531 19:37:32.123281 122398 net.cpp:411] inception_4d/pool_proj -> inception_4d/pool_proj
I0531 19:37:32.125144 122398 net.cpp:150] Setting up inception_4d/pool_proj
I0531 19:37:32.125187 122398 net.cpp:157] Top shape: 64 64 14 14 (802816)
I0531 19:37:32.125210 122398 net.cpp:165] Memory required for data: 3056495620
I0531 19:37:32.125232 122398 layer_factory.hpp:77] Creating layer inception_4d/relu_pool_proj
I0531 19:37:32.125257 122398 net.cpp:106] Creating Layer inception_4d/relu_pool_proj
I0531 19:37:32.125278 122398 net.cpp:454] inception_4d/relu_pool_proj <- inception_4d/pool_proj
I0531 19:37:32.125301 122398 net.cpp:397] inception_4d/relu_pool_proj -> inception_4d/pool_proj (in-place)
I0531 19:37:32.125504 122398 net.cpp:150] Setting up inception_4d/relu_pool_proj
I0531 19:37:32.125538 122398 net.cpp:157] Top shape: 64 64 14 14 (802816)
I0531 19:37:32.125560 122398 net.cpp:165] Memory required for data: 3059706884
I0531 19:37:32.125582 122398 layer_factory.hpp:77] Creating layer inception_4d/output
I0531 19:37:32.125604 122398 net.cpp:106] Creating Layer inception_4d/output
I0531 19:37:32.125624 122398 net.cpp:454] inception_4d/output <- inception_4d/1x1
I0531 19:37:32.125644 122398 net.cpp:454] inception_4d/output <- inception_4d/3x3
I0531 19:37:32.125665 122398 net.cpp:454] inception_4d/output <- inception_4d/5x5
I0531 19:37:32.125686 122398 net.cpp:454] inception_4d/output <- inception_4d/pool_proj
I0531 19:37:32.125710 122398 net.cpp:411] inception_4d/output -> inception_4d/output
I0531 19:37:32.125766 122398 net.cpp:150] Setting up inception_4d/output
I0531 19:37:32.125797 122398 net.cpp:157] Top shape: 64 528 14 14 (6623232)
I0531 19:37:32.125818 122398 net.cpp:165] Memory required for data: 3086199812
I0531 19:37:32.125835 122398 layer_factory.hpp:77] Creating layer inception_4d/output_inception_4d/output_0_split
I0531 19:37:32.125857 122398 net.cpp:106] Creating Layer inception_4d/output_inception_4d/output_0_split
I0531 19:37:32.125877 122398 net.cpp:454] inception_4d/output_inception_4d/output_0_split <- inception_4d/output
I0531 19:37:32.125900 122398 net.cpp:411] inception_4d/output_inception_4d/output_0_split -> inception_4d/output_inception_4d/output_0_split_0
I0531 19:37:32.125954 122398 net.cpp:411] inception_4d/output_inception_4d/output_0_split -> inception_4d/output_inception_4d/output_0_split_1
I0531 19:37:32.126020 122398 net.cpp:411] inception_4d/output_inception_4d/output_0_split -> inception_4d/output_inception_4d/output_0_split_2
I0531 19:37:32.126066 122398 net.cpp:411] inception_4d/output_inception_4d/output_0_split -> inception_4d/output_inception_4d/output_0_split_3
I0531 19:37:32.126106 122398 net.cpp:411] inception_4d/output_inception_4d/output_0_split -> inception_4d/output_inception_4d/output_0_split_4
I0531 19:37:32.126224 122398 net.cpp:150] Setting up inception_4d/output_inception_4d/output_0_split
I0531 19:37:32.126257 122398 net.cpp:157] Top shape: 64 528 14 14 (6623232)
I0531 19:37:32.126278 122398 net.cpp:157] Top shape: 64 528 14 14 (6623232)
I0531 19:37:32.126297 122398 net.cpp:157] Top shape: 64 528 14 14 (6623232)
I0531 19:37:32.126317 122398 net.cpp:157] Top shape: 64 528 14 14 (6623232)
I0531 19:37:32.126335 122398 net.cpp:157] Top shape: 64 528 14 14 (6623232)
I0531 19:37:32.126353 122398 net.cpp:165] Memory required for data: 3218664452
I0531 19:37:32.126371 122398 layer_factory.hpp:77] Creating layer loss2/ave_pool
I0531 19:37:32.126394 122398 net.cpp:106] Creating Layer loss2/ave_pool
I0531 19:37:32.126415 122398 net.cpp:454] loss2/ave_pool <- inception_4d/output_inception_4d/output_0_split_0
I0531 19:37:32.126437 122398 net.cpp:411] loss2/ave_pool -> loss2/ave_pool
I0531 19:37:32.126772 122398 net.cpp:150] Setting up loss2/ave_pool
I0531 19:37:32.126811 122398 net.cpp:157] Top shape: 64 528 4 4 (540672)
I0531 19:37:32.126830 122398 net.cpp:165] Memory required for data: 3220827140
I0531 19:37:32.126850 122398 layer_factory.hpp:77] Creating layer loss2/conv
I0531 19:37:32.126888 122398 net.cpp:106] Creating Layer loss2/conv
I0531 19:37:32.126912 122398 net.cpp:454] loss2/conv <- loss2/ave_pool
I0531 19:37:32.126937 122398 net.cpp:411] loss2/conv -> loss2/conv
I0531 19:37:32.128887 122398 net.cpp:150] Setting up loss2/conv
I0531 19:37:32.128931 122398 net.cpp:157] Top shape: 64 128 4 4 (131072)
I0531 19:37:32.128955 122398 net.cpp:165] Memory required for data: 3221351428
I0531 19:37:32.128983 122398 layer_factory.hpp:77] Creating layer loss2/relu_conv
I0531 19:37:32.129007 122398 net.cpp:106] Creating Layer loss2/relu_conv
I0531 19:37:32.129029 122398 net.cpp:454] loss2/relu_conv <- loss2/conv
I0531 19:37:32.129052 122398 net.cpp:397] loss2/relu_conv -> loss2/conv (in-place)
I0531 19:37:32.129374 122398 net.cpp:150] Setting up loss2/relu_conv
I0531 19:37:32.129413 122398 net.cpp:157] Top shape: 64 128 4 4 (131072)
I0531 19:37:32.129432 122398 net.cpp:165] Memory required for data: 3221875716
I0531 19:37:32.129451 122398 layer_factory.hpp:77] Creating layer loss2/fc
I0531 19:37:32.129475 122398 net.cpp:106] Creating Layer loss2/fc
I0531 19:37:32.129508 122398 net.cpp:454] loss2/fc <- loss2/conv
I0531 19:37:32.129559 122398 net.cpp:411] loss2/fc -> loss2/fc
I0531 19:37:32.144373 122398 net.cpp:150] Setting up loss2/fc
I0531 19:37:32.144412 122398 net.cpp:157] Top shape: 64 1024 (65536)
I0531 19:37:32.144443 122398 net.cpp:165] Memory required for data: 3222137860
I0531 19:37:32.144475 122398 layer_factory.hpp:77] Creating layer loss2/relu_fc
I0531 19:37:32.144501 122398 net.cpp:106] Creating Layer loss2/relu_fc
I0531 19:37:32.144534 122398 net.cpp:454] loss2/relu_fc <- loss2/fc
I0531 19:37:32.144554 122398 net.cpp:397] loss2/relu_fc -> loss2/fc (in-place)
I0531 19:37:32.148592 122398 net.cpp:150] Setting up loss2/relu_fc
I0531 19:37:32.148634 122398 net.cpp:157] Top shape: 64 1024 (65536)
I0531 19:37:32.148664 122398 net.cpp:165] Memory required for data: 3222400004
I0531 19:37:32.148684 122398 layer_factory.hpp:77] Creating layer loss2/drop_fc
I0531 19:37:32.148720 122398 net.cpp:106] Creating Layer loss2/drop_fc
I0531 19:37:32.148752 122398 net.cpp:454] loss2/drop_fc <- loss2/fc
I0531 19:37:32.148804 122398 net.cpp:397] loss2/drop_fc -> loss2/fc (in-place)
I0531 19:37:32.148946 122398 net.cpp:150] Setting up loss2/drop_fc
I0531 19:37:32.149055 122398 net.cpp:157] Top shape: 64 1024 (65536)
I0531 19:37:32.149085 122398 net.cpp:165] Memory required for data: 3222662148
I0531 19:37:32.149123 122398 layer_factory.hpp:77] Creating layer loss2/classifier
I0531 19:37:32.149161 122398 net.cpp:106] Creating Layer loss2/classifier
I0531 19:37:32.149180 122398 net.cpp:454] loss2/classifier <- loss2/fc
I0531 19:37:32.149204 122398 net.cpp:411] loss2/classifier -> loss2/classifier
I0531 19:37:32.157075 122398 net.cpp:150] Setting up loss2/classifier
I0531 19:37:32.157125 122398 net.cpp:157] Top shape: 64 1000 (64000)
I0531 19:37:32.157145 122398 net.cpp:165] Memory required for data: 3222918148
I0531 19:37:32.157178 122398 layer_factory.hpp:77] Creating layer loss2/loss
I0531 19:37:32.157215 122398 net.cpp:106] Creating Layer loss2/loss
I0531 19:37:32.157238 122398 net.cpp:454] loss2/loss <- loss2/classifier
I0531 19:37:32.157269 122398 net.cpp:454] loss2/loss <- label_data_1_split_1
I0531 19:37:32.157292 122398 net.cpp:411] loss2/loss -> loss2/loss1
I0531 19:37:32.157318 122398 layer_factory.hpp:77] Creating layer loss2/loss
I0531 19:37:32.157632 122398 net.cpp:150] Setting up loss2/loss
I0531 19:37:32.157666 122398 net.cpp:157] Top shape: (1)
I0531 19:37:32.157685 122398 net.cpp:160]     with loss weight 0.3
I0531 19:37:32.157711 122398 net.cpp:165] Memory required for data: 3222918152
I0531 19:37:32.157727 122398 layer_factory.hpp:77] Creating layer inception_4e/1x1
I0531 19:37:32.157753 122398 net.cpp:106] Creating Layer inception_4e/1x1
I0531 19:37:32.157778 122398 net.cpp:454] inception_4e/1x1 <- inception_4d/output_inception_4d/output_0_split_1
I0531 19:37:32.157799 122398 net.cpp:411] inception_4e/1x1 -> inception_4e/1x1
I0531 19:37:32.159869 122398 net.cpp:150] Setting up inception_4e/1x1
I0531 19:37:32.159909 122398 net.cpp:157] Top shape: 64 256 14 14 (3211264)
I0531 19:37:32.159927 122398 net.cpp:165] Memory required for data: 3235763208
I0531 19:37:32.159948 122398 layer_factory.hpp:77] Creating layer inception_4e/relu_1x1
I0531 19:37:32.159987 122398 net.cpp:106] Creating Layer inception_4e/relu_1x1
I0531 19:37:32.160010 122398 net.cpp:454] inception_4e/relu_1x1 <- inception_4e/1x1
I0531 19:37:32.160046 122398 net.cpp:397] inception_4e/relu_1x1 -> inception_4e/1x1 (in-place)
I0531 19:37:32.160290 122398 net.cpp:150] Setting up inception_4e/relu_1x1
I0531 19:37:32.160336 122398 net.cpp:157] Top shape: 64 256 14 14 (3211264)
I0531 19:37:32.160392 122398 net.cpp:165] Memory required for data: 3248608264
I0531 19:37:32.160445 122398 layer_factory.hpp:77] Creating layer inception_4e/3x3_reduce
I0531 19:37:32.160473 122398 net.cpp:106] Creating Layer inception_4e/3x3_reduce
I0531 19:37:32.160506 122398 net.cpp:454] inception_4e/3x3_reduce <- inception_4d/output_inception_4d/output_0_split_2
I0531 19:37:32.160528 122398 net.cpp:411] inception_4e/3x3_reduce -> inception_4e/3x3_reduce
I0531 19:37:32.162729 122398 net.cpp:150] Setting up inception_4e/3x3_reduce
I0531 19:37:32.162781 122398 net.cpp:157] Top shape: 64 160 14 14 (2007040)
I0531 19:37:32.162813 122398 net.cpp:165] Memory required for data: 3256636424
I0531 19:37:32.162849 122398 layer_factory.hpp:77] Creating layer inception_4e/relu_3x3_reduce
I0531 19:37:32.162915 122398 net.cpp:106] Creating Layer inception_4e/relu_3x3_reduce
I0531 19:37:32.162962 122398 net.cpp:454] inception_4e/relu_3x3_reduce <- inception_4e/3x3_reduce
I0531 19:37:32.163007 122398 net.cpp:397] inception_4e/relu_3x3_reduce -> inception_4e/3x3_reduce (in-place)
I0531 19:37:32.163445 122398 net.cpp:150] Setting up inception_4e/relu_3x3_reduce
I0531 19:37:32.163506 122398 net.cpp:157] Top shape: 64 160 14 14 (2007040)
I0531 19:37:32.163537 122398 net.cpp:165] Memory required for data: 3264664584
I0531 19:37:32.163558 122398 layer_factory.hpp:77] Creating layer inception_4e/3x3
I0531 19:37:32.163601 122398 net.cpp:106] Creating Layer inception_4e/3x3
I0531 19:37:32.163624 122398 net.cpp:454] inception_4e/3x3 <- inception_4e/3x3_reduce
I0531 19:37:32.163658 122398 net.cpp:411] inception_4e/3x3 -> inception_4e/3x3
I0531 19:37:32.168689 122398 net.cpp:150] Setting up inception_4e/3x3
I0531 19:37:32.168732 122398 net.cpp:157] Top shape: 64 320 14 14 (4014080)
I0531 19:37:32.168753 122398 net.cpp:165] Memory required for data: 3280720904
I0531 19:37:32.168776 122398 layer_factory.hpp:77] Creating layer inception_4e/relu_3x3
I0531 19:37:32.168798 122398 net.cpp:106] Creating Layer inception_4e/relu_3x3
I0531 19:37:32.168818 122398 net.cpp:454] inception_4e/relu_3x3 <- inception_4e/3x3
I0531 19:37:32.168838 122398 net.cpp:397] inception_4e/relu_3x3 -> inception_4e/3x3 (in-place)
I0531 19:37:32.169134 122398 net.cpp:150] Setting up inception_4e/relu_3x3
I0531 19:37:32.169185 122398 net.cpp:157] Top shape: 64 320 14 14 (4014080)
I0531 19:37:32.169209 122398 net.cpp:165] Memory required for data: 3296777224
I0531 19:37:32.169240 122398 layer_factory.hpp:77] Creating layer inception_4e/5x5_reduce
I0531 19:37:32.169291 122398 net.cpp:106] Creating Layer inception_4e/5x5_reduce
I0531 19:37:32.169324 122398 net.cpp:454] inception_4e/5x5_reduce <- inception_4d/output_inception_4d/output_0_split_3
I0531 19:37:32.169361 122398 net.cpp:411] inception_4e/5x5_reduce -> inception_4e/5x5_reduce
I0531 19:37:32.170747 122398 net.cpp:150] Setting up inception_4e/5x5_reduce
I0531 19:37:32.170786 122398 net.cpp:157] Top shape: 64 32 14 14 (401408)
I0531 19:37:32.170807 122398 net.cpp:165] Memory required for data: 3298382856
I0531 19:37:32.170830 122398 layer_factory.hpp:77] Creating layer inception_4e/relu_5x5_reduce
I0531 19:37:32.170856 122398 net.cpp:106] Creating Layer inception_4e/relu_5x5_reduce
I0531 19:37:32.170877 122398 net.cpp:454] inception_4e/relu_5x5_reduce <- inception_4e/5x5_reduce
I0531 19:37:32.170898 122398 net.cpp:397] inception_4e/relu_5x5_reduce -> inception_4e/5x5_reduce (in-place)
I0531 19:37:32.171174 122398 net.cpp:150] Setting up inception_4e/relu_5x5_reduce
I0531 19:37:32.171221 122398 net.cpp:157] Top shape: 64 32 14 14 (401408)
I0531 19:37:32.171243 122398 net.cpp:165] Memory required for data: 3299988488
I0531 19:37:32.171284 122398 layer_factory.hpp:77] Creating layer inception_4e/5x5
I0531 19:37:32.171334 122398 net.cpp:106] Creating Layer inception_4e/5x5
I0531 19:37:32.171357 122398 net.cpp:454] inception_4e/5x5 <- inception_4e/5x5_reduce
I0531 19:37:32.171396 122398 net.cpp:411] inception_4e/5x5 -> inception_4e/5x5
I0531 19:37:32.173138 122398 net.cpp:150] Setting up inception_4e/5x5
I0531 19:37:32.173182 122398 net.cpp:157] Top shape: 64 128 14 14 (1605632)
I0531 19:37:32.173205 122398 net.cpp:165] Memory required for data: 3306411016
I0531 19:37:32.173230 122398 layer_factory.hpp:77] Creating layer inception_4e/relu_5x5
I0531 19:37:32.173265 122398 net.cpp:106] Creating Layer inception_4e/relu_5x5
I0531 19:37:32.173286 122398 net.cpp:454] inception_4e/relu_5x5 <- inception_4e/5x5
I0531 19:37:32.173307 122398 net.cpp:397] inception_4e/relu_5x5 -> inception_4e/5x5 (in-place)
I0531 19:37:32.173669 122398 net.cpp:150] Setting up inception_4e/relu_5x5
I0531 19:37:32.173714 122398 net.cpp:157] Top shape: 64 128 14 14 (1605632)
I0531 19:37:32.173756 122398 net.cpp:165] Memory required for data: 3312833544
I0531 19:37:32.173775 122398 layer_factory.hpp:77] Creating layer inception_4e/pool
I0531 19:37:32.173797 122398 net.cpp:106] Creating Layer inception_4e/pool
I0531 19:37:32.173817 122398 net.cpp:454] inception_4e/pool <- inception_4d/output_inception_4d/output_0_split_4
I0531 19:37:32.173840 122398 net.cpp:411] inception_4e/pool -> inception_4e/pool
I0531 19:37:32.173956 122398 net.cpp:150] Setting up inception_4e/pool
I0531 19:37:32.174023 122398 net.cpp:157] Top shape: 64 528 14 14 (6623232)
I0531 19:37:32.174065 122398 net.cpp:165] Memory required for data: 3339326472
I0531 19:37:32.174095 122398 layer_factory.hpp:77] Creating layer inception_4e/pool_proj
I0531 19:37:32.174130 122398 net.cpp:106] Creating Layer inception_4e/pool_proj
I0531 19:37:32.174157 122398 net.cpp:454] inception_4e/pool_proj <- inception_4e/pool
I0531 19:37:32.174192 122398 net.cpp:411] inception_4e/pool_proj -> inception_4e/pool_proj
I0531 19:37:32.175726 122398 net.cpp:150] Setting up inception_4e/pool_proj
I0531 19:37:32.175770 122398 net.cpp:157] Top shape: 64 128 14 14 (1605632)
I0531 19:37:32.175791 122398 net.cpp:165] Memory required for data: 3345749000
I0531 19:37:32.175828 122398 layer_factory.hpp:77] Creating layer inception_4e/relu_pool_proj
I0531 19:37:32.175854 122398 net.cpp:106] Creating Layer inception_4e/relu_pool_proj
I0531 19:37:32.175887 122398 net.cpp:454] inception_4e/relu_pool_proj <- inception_4e/pool_proj
I0531 19:37:32.175914 122398 net.cpp:397] inception_4e/relu_pool_proj -> inception_4e/pool_proj (in-place)
I0531 19:37:32.176195 122398 net.cpp:150] Setting up inception_4e/relu_pool_proj
I0531 19:37:32.176229 122398 net.cpp:157] Top shape: 64 128 14 14 (1605632)
I0531 19:37:32.176249 122398 net.cpp:165] Memory required for data: 3352171528
I0531 19:37:32.176268 122398 layer_factory.hpp:77] Creating layer inception_4e/output
I0531 19:37:32.176292 122398 net.cpp:106] Creating Layer inception_4e/output
I0531 19:37:32.176316 122398 net.cpp:454] inception_4e/output <- inception_4e/1x1
I0531 19:37:32.176337 122398 net.cpp:454] inception_4e/output <- inception_4e/3x3
I0531 19:37:32.176357 122398 net.cpp:454] inception_4e/output <- inception_4e/5x5
I0531 19:37:32.176378 122398 net.cpp:454] inception_4e/output <- inception_4e/pool_proj
I0531 19:37:32.176398 122398 net.cpp:411] inception_4e/output -> inception_4e/output
I0531 19:37:32.176457 122398 net.cpp:150] Setting up inception_4e/output
I0531 19:37:32.176487 122398 net.cpp:157] Top shape: 64 832 14 14 (10436608)
I0531 19:37:32.176506 122398 net.cpp:165] Memory required for data: 3393917960
I0531 19:37:32.176525 122398 layer_factory.hpp:77] Creating layer pool4/3x3_s2
I0531 19:37:32.176548 122398 net.cpp:106] Creating Layer pool4/3x3_s2
I0531 19:37:32.176568 122398 net.cpp:454] pool4/3x3_s2 <- inception_4e/output
I0531 19:37:32.176592 122398 net.cpp:411] pool4/3x3_s2 -> pool4/3x3_s2
I0531 19:37:32.176662 122398 net.cpp:150] Setting up pool4/3x3_s2
I0531 19:37:32.176692 122398 net.cpp:157] Top shape: 64 832 7 7 (2609152)
I0531 19:37:32.176710 122398 net.cpp:165] Memory required for data: 3404354568
I0531 19:37:32.176728 122398 layer_factory.hpp:77] Creating layer pool4/3x3_s2_pool4/3x3_s2_0_split
I0531 19:37:32.176753 122398 net.cpp:106] Creating Layer pool4/3x3_s2_pool4/3x3_s2_0_split
I0531 19:37:32.176774 122398 net.cpp:454] pool4/3x3_s2_pool4/3x3_s2_0_split <- pool4/3x3_s2
I0531 19:37:32.176794 122398 net.cpp:411] pool4/3x3_s2_pool4/3x3_s2_0_split -> pool4/3x3_s2_pool4/3x3_s2_0_split_0
I0531 19:37:32.176820 122398 net.cpp:411] pool4/3x3_s2_pool4/3x3_s2_0_split -> pool4/3x3_s2_pool4/3x3_s2_0_split_1
I0531 19:37:32.176846 122398 net.cpp:411] pool4/3x3_s2_pool4/3x3_s2_0_split -> pool4/3x3_s2_pool4/3x3_s2_0_split_2
I0531 19:37:32.176872 122398 net.cpp:411] pool4/3x3_s2_pool4/3x3_s2_0_split -> pool4/3x3_s2_pool4/3x3_s2_0_split_3
I0531 19:37:32.176973 122398 net.cpp:150] Setting up pool4/3x3_s2_pool4/3x3_s2_0_split
I0531 19:37:32.177005 122398 net.cpp:157] Top shape: 64 832 7 7 (2609152)
I0531 19:37:32.177048 122398 net.cpp:157] Top shape: 64 832 7 7 (2609152)
I0531 19:37:32.177081 122398 net.cpp:157] Top shape: 64 832 7 7 (2609152)
I0531 19:37:32.177124 122398 net.cpp:157] Top shape: 64 832 7 7 (2609152)
I0531 19:37:32.177170 122398 net.cpp:165] Memory required for data: 3446101000
I0531 19:37:32.177188 122398 layer_factory.hpp:77] Creating layer inception_5a/1x1
I0531 19:37:32.177214 122398 net.cpp:106] Creating Layer inception_5a/1x1
I0531 19:37:32.177237 122398 net.cpp:454] inception_5a/1x1 <- pool4/3x3_s2_pool4/3x3_s2_0_split_0
I0531 19:37:32.177261 122398 net.cpp:411] inception_5a/1x1 -> inception_5a/1x1
I0531 19:37:32.180156 122398 net.cpp:150] Setting up inception_5a/1x1
I0531 19:37:32.180197 122398 net.cpp:157] Top shape: 64 256 7 7 (802816)
I0531 19:37:32.180218 122398 net.cpp:165] Memory required for data: 3449312264
I0531 19:37:32.180239 122398 layer_factory.hpp:77] Creating layer inception_5a/relu_1x1
I0531 19:37:32.180274 122398 net.cpp:106] Creating Layer inception_5a/relu_1x1
I0531 19:37:32.180308 122398 net.cpp:454] inception_5a/relu_1x1 <- inception_5a/1x1
I0531 19:37:32.180332 122398 net.cpp:397] inception_5a/relu_1x1 -> inception_5a/1x1 (in-place)
I0531 19:37:32.180532 122398 net.cpp:150] Setting up inception_5a/relu_1x1
I0531 19:37:32.180567 122398 net.cpp:157] Top shape: 64 256 7 7 (802816)
I0531 19:37:32.180584 122398 net.cpp:165] Memory required for data: 3452523528
I0531 19:37:32.180605 122398 layer_factory.hpp:77] Creating layer inception_5a/3x3_reduce
I0531 19:37:32.180634 122398 net.cpp:106] Creating Layer inception_5a/3x3_reduce
I0531 19:37:32.180657 122398 net.cpp:454] inception_5a/3x3_reduce <- pool4/3x3_s2_pool4/3x3_s2_0_split_1
I0531 19:37:32.180680 122398 net.cpp:411] inception_5a/3x3_reduce -> inception_5a/3x3_reduce
I0531 19:37:32.183133 122398 net.cpp:150] Setting up inception_5a/3x3_reduce
I0531 19:37:32.183176 122398 net.cpp:157] Top shape: 64 160 7 7 (501760)
I0531 19:37:32.183197 122398 net.cpp:165] Memory required for data: 3454530568
I0531 19:37:32.183229 122398 layer_factory.hpp:77] Creating layer inception_5a/relu_3x3_reduce
I0531 19:37:32.183253 122398 net.cpp:106] Creating Layer inception_5a/relu_3x3_reduce
I0531 19:37:32.183272 122398 net.cpp:454] inception_5a/relu_3x3_reduce <- inception_5a/3x3_reduce
I0531 19:37:32.183305 122398 net.cpp:397] inception_5a/relu_3x3_reduce -> inception_5a/3x3_reduce (in-place)
I0531 19:37:32.183768 122398 net.cpp:150] Setting up inception_5a/relu_3x3_reduce
I0531 19:37:32.183815 122398 net.cpp:157] Top shape: 64 160 7 7 (501760)
I0531 19:37:32.183845 122398 net.cpp:165] Memory required for data: 3456537608
I0531 19:37:32.183877 122398 layer_factory.hpp:77] Creating layer inception_5a/3x3
I0531 19:37:32.183928 122398 net.cpp:106] Creating Layer inception_5a/3x3
I0531 19:37:32.183985 122398 net.cpp:454] inception_5a/3x3 <- inception_5a/3x3_reduce
I0531 19:37:32.184043 122398 net.cpp:411] inception_5a/3x3 -> inception_5a/3x3
I0531 19:37:32.188712 122398 net.cpp:150] Setting up inception_5a/3x3
I0531 19:37:32.188757 122398 net.cpp:157] Top shape: 64 320 7 7 (1003520)
I0531 19:37:32.188779 122398 net.cpp:165] Memory required for data: 3460551688
I0531 19:37:32.188802 122398 layer_factory.hpp:77] Creating layer inception_5a/relu_3x3
I0531 19:37:32.188825 122398 net.cpp:106] Creating Layer inception_5a/relu_3x3
I0531 19:37:32.188846 122398 net.cpp:454] inception_5a/relu_3x3 <- inception_5a/3x3
I0531 19:37:32.188868 122398 net.cpp:397] inception_5a/relu_3x3 -> inception_5a/3x3 (in-place)
I0531 19:37:32.189105 122398 net.cpp:150] Setting up inception_5a/relu_3x3
I0531 19:37:32.189138 122398 net.cpp:157] Top shape: 64 320 7 7 (1003520)
I0531 19:37:32.189157 122398 net.cpp:165] Memory required for data: 3464565768
I0531 19:37:32.189174 122398 layer_factory.hpp:77] Creating layer inception_5a/5x5_reduce
I0531 19:37:32.189201 122398 net.cpp:106] Creating Layer inception_5a/5x5_reduce
I0531 19:37:32.189224 122398 net.cpp:454] inception_5a/5x5_reduce <- pool4/3x3_s2_pool4/3x3_s2_0_split_2
I0531 19:37:32.189247 122398 net.cpp:411] inception_5a/5x5_reduce -> inception_5a/5x5_reduce
I0531 19:37:32.190737 122398 net.cpp:150] Setting up inception_5a/5x5_reduce
I0531 19:37:32.190778 122398 net.cpp:157] Top shape: 64 32 7 7 (100352)
I0531 19:37:32.190798 122398 net.cpp:165] Memory required for data: 3464967176
I0531 19:37:32.190819 122398 layer_factory.hpp:77] Creating layer inception_5a/relu_5x5_reduce
I0531 19:37:32.190843 122398 net.cpp:106] Creating Layer inception_5a/relu_5x5_reduce
I0531 19:37:32.190865 122398 net.cpp:454] inception_5a/relu_5x5_reduce <- inception_5a/5x5_reduce
I0531 19:37:32.190887 122398 net.cpp:397] inception_5a/relu_5x5_reduce -> inception_5a/5x5_reduce (in-place)
I0531 19:37:32.191138 122398 net.cpp:150] Setting up inception_5a/relu_5x5_reduce
I0531 19:37:32.191174 122398 net.cpp:157] Top shape: 64 32 7 7 (100352)
I0531 19:37:32.191192 122398 net.cpp:165] Memory required for data: 3465368584
I0531 19:37:32.191211 122398 layer_factory.hpp:77] Creating layer inception_5a/5x5
I0531 19:37:32.191252 122398 net.cpp:106] Creating Layer inception_5a/5x5
I0531 19:37:32.191288 122398 net.cpp:454] inception_5a/5x5 <- inception_5a/5x5_reduce
I0531 19:37:32.191313 122398 net.cpp:411] inception_5a/5x5 -> inception_5a/5x5
I0531 19:37:32.192975 122398 net.cpp:150] Setting up inception_5a/5x5
I0531 19:37:32.193018 122398 net.cpp:157] Top shape: 64 128 7 7 (401408)
I0531 19:37:32.193056 122398 net.cpp:165] Memory required for data: 3466974216
I0531 19:37:32.193102 122398 layer_factory.hpp:77] Creating layer inception_5a/relu_5x5
I0531 19:37:32.193155 122398 net.cpp:106] Creating Layer inception_5a/relu_5x5
I0531 19:37:32.193176 122398 net.cpp:454] inception_5a/relu_5x5 <- inception_5a/5x5
I0531 19:37:32.193197 122398 net.cpp:397] inception_5a/relu_5x5 -> inception_5a/5x5 (in-place)
I0531 19:37:32.193517 122398 net.cpp:150] Setting up inception_5a/relu_5x5
I0531 19:37:32.193554 122398 net.cpp:157] Top shape: 64 128 7 7 (401408)
I0531 19:37:32.193573 122398 net.cpp:165] Memory required for data: 3468579848
I0531 19:37:32.193593 122398 layer_factory.hpp:77] Creating layer inception_5a/pool
I0531 19:37:32.193617 122398 net.cpp:106] Creating Layer inception_5a/pool
I0531 19:37:32.193639 122398 net.cpp:454] inception_5a/pool <- pool4/3x3_s2_pool4/3x3_s2_0_split_3
I0531 19:37:32.193660 122398 net.cpp:411] inception_5a/pool -> inception_5a/pool
I0531 19:37:32.193737 122398 net.cpp:150] Setting up inception_5a/pool
I0531 19:37:32.193766 122398 net.cpp:157] Top shape: 64 832 7 7 (2609152)
I0531 19:37:32.193784 122398 net.cpp:165] Memory required for data: 3479016456
I0531 19:37:32.193802 122398 layer_factory.hpp:77] Creating layer inception_5a/pool_proj
I0531 19:37:32.193830 122398 net.cpp:106] Creating Layer inception_5a/pool_proj
I0531 19:37:32.193853 122398 net.cpp:454] inception_5a/pool_proj <- inception_5a/pool
I0531 19:37:32.193878 122398 net.cpp:411] inception_5a/pool_proj -> inception_5a/pool_proj
I0531 19:37:32.196204 122398 net.cpp:150] Setting up inception_5a/pool_proj
I0531 19:37:32.196249 122398 net.cpp:157] Top shape: 64 128 7 7 (401408)
I0531 19:37:32.196270 122398 net.cpp:165] Memory required for data: 3480622088
I0531 19:37:32.196295 122398 layer_factory.hpp:77] Creating layer inception_5a/relu_pool_proj
I0531 19:37:32.196341 122398 net.cpp:106] Creating Layer inception_5a/relu_pool_proj
I0531 19:37:32.196387 122398 net.cpp:454] inception_5a/relu_pool_proj <- inception_5a/pool_proj
I0531 19:37:32.196422 122398 net.cpp:397] inception_5a/relu_pool_proj -> inception_5a/pool_proj (in-place)
I0531 19:37:32.196632 122398 net.cpp:150] Setting up inception_5a/relu_pool_proj
I0531 19:37:32.196669 122398 net.cpp:157] Top shape: 64 128 7 7 (401408)
I0531 19:37:32.196688 122398 net.cpp:165] Memory required for data: 3482227720
I0531 19:37:32.196707 122398 layer_factory.hpp:77] Creating layer inception_5a/output
I0531 19:37:32.196727 122398 net.cpp:106] Creating Layer inception_5a/output
I0531 19:37:32.196748 122398 net.cpp:454] inception_5a/output <- inception_5a/1x1
I0531 19:37:32.196768 122398 net.cpp:454] inception_5a/output <- inception_5a/3x3
I0531 19:37:32.196787 122398 net.cpp:454] inception_5a/output <- inception_5a/5x5
I0531 19:37:32.196807 122398 net.cpp:454] inception_5a/output <- inception_5a/pool_proj
I0531 19:37:32.196831 122398 net.cpp:411] inception_5a/output -> inception_5a/output
I0531 19:37:32.196913 122398 net.cpp:150] Setting up inception_5a/output
I0531 19:37:32.196943 122398 net.cpp:157] Top shape: 64 832 7 7 (2609152)
I0531 19:37:32.196971 122398 net.cpp:165] Memory required for data: 3492664328
I0531 19:37:32.196991 122398 layer_factory.hpp:77] Creating layer inception_5a/output_inception_5a/output_0_split
I0531 19:37:32.197046 122398 net.cpp:106] Creating Layer inception_5a/output_inception_5a/output_0_split
I0531 19:37:32.197068 122398 net.cpp:454] inception_5a/output_inception_5a/output_0_split <- inception_5a/output
I0531 19:37:32.197113 122398 net.cpp:411] inception_5a/output_inception_5a/output_0_split -> inception_5a/output_inception_5a/output_0_split_0
I0531 19:37:32.197149 122398 net.cpp:411] inception_5a/output_inception_5a/output_0_split -> inception_5a/output_inception_5a/output_0_split_1
I0531 19:37:32.197191 122398 net.cpp:411] inception_5a/output_inception_5a/output_0_split -> inception_5a/output_inception_5a/output_0_split_2
I0531 19:37:32.197218 122398 net.cpp:411] inception_5a/output_inception_5a/output_0_split -> inception_5a/output_inception_5a/output_0_split_3
I0531 19:37:32.197314 122398 net.cpp:150] Setting up inception_5a/output_inception_5a/output_0_split
I0531 19:37:32.197345 122398 net.cpp:157] Top shape: 64 832 7 7 (2609152)
I0531 19:37:32.197366 122398 net.cpp:157] Top shape: 64 832 7 7 (2609152)
I0531 19:37:32.197386 122398 net.cpp:157] Top shape: 64 832 7 7 (2609152)
I0531 19:37:32.197403 122398 net.cpp:157] Top shape: 64 832 7 7 (2609152)
I0531 19:37:32.197420 122398 net.cpp:165] Memory required for data: 3534410760
I0531 19:37:32.197438 122398 layer_factory.hpp:77] Creating layer inception_5b/1x1
I0531 19:37:32.197464 122398 net.cpp:106] Creating Layer inception_5b/1x1
I0531 19:37:32.197486 122398 net.cpp:454] inception_5b/1x1 <- inception_5a/output_inception_5a/output_0_split_0
I0531 19:37:32.197510 122398 net.cpp:411] inception_5b/1x1 -> inception_5b/1x1
I0531 19:37:32.201112 122398 net.cpp:150] Setting up inception_5b/1x1
I0531 19:37:32.201169 122398 net.cpp:157] Top shape: 64 384 7 7 (1204224)
I0531 19:37:32.201192 122398 net.cpp:165] Memory required for data: 3539227656
I0531 19:37:32.201218 122398 layer_factory.hpp:77] Creating layer inception_5b/relu_1x1
I0531 19:37:32.201242 122398 net.cpp:106] Creating Layer inception_5b/relu_1x1
I0531 19:37:32.201263 122398 net.cpp:454] inception_5b/relu_1x1 <- inception_5b/1x1
I0531 19:37:32.201284 122398 net.cpp:397] inception_5b/relu_1x1 -> inception_5b/1x1 (in-place)
I0531 19:37:32.201481 122398 net.cpp:150] Setting up inception_5b/relu_1x1
I0531 19:37:32.201515 122398 net.cpp:157] Top shape: 64 384 7 7 (1204224)
I0531 19:37:32.201534 122398 net.cpp:165] Memory required for data: 3544044552
I0531 19:37:32.201551 122398 layer_factory.hpp:77] Creating layer inception_5b/3x3_reduce
I0531 19:37:32.201580 122398 net.cpp:106] Creating Layer inception_5b/3x3_reduce
I0531 19:37:32.201604 122398 net.cpp:454] inception_5b/3x3_reduce <- inception_5a/output_inception_5a/output_0_split_1
I0531 19:37:32.201627 122398 net.cpp:411] inception_5b/3x3_reduce -> inception_5b/3x3_reduce
I0531 19:37:32.204186 122398 net.cpp:150] Setting up inception_5b/3x3_reduce
I0531 19:37:32.204231 122398 net.cpp:157] Top shape: 64 192 7 7 (602112)
I0531 19:37:32.204252 122398 net.cpp:165] Memory required for data: 3546453000
I0531 19:37:32.204274 122398 layer_factory.hpp:77] Creating layer inception_5b/relu_3x3_reduce
I0531 19:37:32.204298 122398 net.cpp:106] Creating Layer inception_5b/relu_3x3_reduce
I0531 19:37:32.204319 122398 net.cpp:454] inception_5b/relu_3x3_reduce <- inception_5b/3x3_reduce
I0531 19:37:32.204352 122398 net.cpp:397] inception_5b/relu_3x3_reduce -> inception_5b/3x3_reduce (in-place)
I0531 19:37:32.204798 122398 net.cpp:150] Setting up inception_5b/relu_3x3_reduce
I0531 19:37:32.204849 122398 net.cpp:157] Top shape: 64 192 7 7 (602112)
I0531 19:37:32.204869 122398 net.cpp:165] Memory required for data: 3548861448
I0531 19:37:32.204887 122398 layer_factory.hpp:77] Creating layer inception_5b/3x3
I0531 19:37:32.204916 122398 net.cpp:106] Creating Layer inception_5b/3x3
I0531 19:37:32.204941 122398 net.cpp:454] inception_5b/3x3 <- inception_5b/3x3_reduce
I0531 19:37:32.204968 122398 net.cpp:411] inception_5b/3x3 -> inception_5b/3x3
I0531 19:37:32.211192 122398 net.cpp:150] Setting up inception_5b/3x3
I0531 19:37:32.211236 122398 net.cpp:157] Top shape: 64 384 7 7 (1204224)
I0531 19:37:32.211257 122398 net.cpp:165] Memory required for data: 3553678344
I0531 19:37:32.211280 122398 layer_factory.hpp:77] Creating layer inception_5b/relu_3x3
I0531 19:37:32.211304 122398 net.cpp:106] Creating Layer inception_5b/relu_3x3
I0531 19:37:32.211325 122398 net.cpp:454] inception_5b/relu_3x3 <- inception_5b/3x3
I0531 19:37:32.211359 122398 net.cpp:397] inception_5b/relu_3x3 -> inception_5b/3x3 (in-place)
I0531 19:37:32.211573 122398 net.cpp:150] Setting up inception_5b/relu_3x3
I0531 19:37:32.211611 122398 net.cpp:157] Top shape: 64 384 7 7 (1204224)
I0531 19:37:32.211632 122398 net.cpp:165] Memory required for data: 3558495240
I0531 19:37:32.211649 122398 layer_factory.hpp:77] Creating layer inception_5b/5x5_reduce
I0531 19:37:32.211678 122398 net.cpp:106] Creating Layer inception_5b/5x5_reduce
I0531 19:37:32.211702 122398 net.cpp:454] inception_5b/5x5_reduce <- inception_5a/output_inception_5a/output_0_split_2
I0531 19:37:32.211726 122398 net.cpp:411] inception_5b/5x5_reduce -> inception_5b/5x5_reduce
I0531 19:37:32.213264 122398 net.cpp:150] Setting up inception_5b/5x5_reduce
I0531 19:37:32.213305 122398 net.cpp:157] Top shape: 64 48 7 7 (150528)
I0531 19:37:32.213325 122398 net.cpp:165] Memory required for data: 3559097352
I0531 19:37:32.213348 122398 layer_factory.hpp:77] Creating layer inception_5b/relu_5x5_reduce
I0531 19:37:32.213372 122398 net.cpp:106] Creating Layer inception_5b/relu_5x5_reduce
I0531 19:37:32.213393 122398 net.cpp:454] inception_5b/relu_5x5_reduce <- inception_5b/5x5_reduce
I0531 19:37:32.213414 122398 net.cpp:397] inception_5b/relu_5x5_reduce -> inception_5b/5x5_reduce (in-place)
I0531 19:37:32.213614 122398 net.cpp:150] Setting up inception_5b/relu_5x5_reduce
I0531 19:37:32.213649 122398 net.cpp:157] Top shape: 64 48 7 7 (150528)
I0531 19:37:32.213667 122398 net.cpp:165] Memory required for data: 3559699464
I0531 19:37:32.213685 122398 layer_factory.hpp:77] Creating layer inception_5b/5x5
I0531 19:37:32.213716 122398 net.cpp:106] Creating Layer inception_5b/5x5
I0531 19:37:32.213740 122398 net.cpp:454] inception_5b/5x5 <- inception_5b/5x5_reduce
I0531 19:37:32.213767 122398 net.cpp:411] inception_5b/5x5 -> inception_5b/5x5
I0531 19:37:32.215719 122398 net.cpp:150] Setting up inception_5b/5x5
I0531 19:37:32.215762 122398 net.cpp:157] Top shape: 64 128 7 7 (401408)
I0531 19:37:32.215783 122398 net.cpp:165] Memory required for data: 3561305096
I0531 19:37:32.215806 122398 layer_factory.hpp:77] Creating layer inception_5b/relu_5x5
I0531 19:37:32.215829 122398 net.cpp:106] Creating Layer inception_5b/relu_5x5
I0531 19:37:32.215852 122398 net.cpp:454] inception_5b/relu_5x5 <- inception_5b/5x5
I0531 19:37:32.215886 122398 net.cpp:397] inception_5b/relu_5x5 -> inception_5b/5x5 (in-place)
I0531 19:37:32.216369 122398 net.cpp:150] Setting up inception_5b/relu_5x5
I0531 19:37:32.216408 122398 net.cpp:157] Top shape: 64 128 7 7 (401408)
I0531 19:37:32.216428 122398 net.cpp:165] Memory required for data: 3562910728
I0531 19:37:32.216445 122398 layer_factory.hpp:77] Creating layer inception_5b/pool
I0531 19:37:32.216467 122398 net.cpp:106] Creating Layer inception_5b/pool
I0531 19:37:32.216488 122398 net.cpp:454] inception_5b/pool <- inception_5a/output_inception_5a/output_0_split_3
I0531 19:37:32.216513 122398 net.cpp:411] inception_5b/pool -> inception_5b/pool
I0531 19:37:32.216591 122398 net.cpp:150] Setting up inception_5b/pool
I0531 19:37:32.216621 122398 net.cpp:157] Top shape: 64 832 7 7 (2609152)
I0531 19:37:32.216639 122398 net.cpp:165] Memory required for data: 3573347336
I0531 19:37:32.216657 122398 layer_factory.hpp:77] Creating layer inception_5b/pool_proj
I0531 19:37:32.216683 122398 net.cpp:106] Creating Layer inception_5b/pool_proj
I0531 19:37:32.216706 122398 net.cpp:454] inception_5b/pool_proj <- inception_5b/pool
I0531 19:37:32.216729 122398 net.cpp:411] inception_5b/pool_proj -> inception_5b/pool_proj
I0531 19:37:32.218992 122398 net.cpp:150] Setting up inception_5b/pool_proj
I0531 19:37:32.219046 122398 net.cpp:157] Top shape: 64 128 7 7 (401408)
I0531 19:37:32.219080 122398 net.cpp:165] Memory required for data: 3574952968
I0531 19:37:32.219104 122398 layer_factory.hpp:77] Creating layer inception_5b/relu_pool_proj
I0531 19:37:32.219130 122398 net.cpp:106] Creating Layer inception_5b/relu_pool_proj
I0531 19:37:32.219152 122398 net.cpp:454] inception_5b/relu_pool_proj <- inception_5b/pool_proj
I0531 19:37:32.219185 122398 net.cpp:397] inception_5b/relu_pool_proj -> inception_5b/pool_proj (in-place)
I0531 19:37:32.219414 122398 net.cpp:150] Setting up inception_5b/relu_pool_proj
I0531 19:37:32.219451 122398 net.cpp:157] Top shape: 64 128 7 7 (401408)
I0531 19:37:32.219471 122398 net.cpp:165] Memory required for data: 3576558600
I0531 19:37:32.219491 122398 layer_factory.hpp:77] Creating layer inception_5b/output
I0531 19:37:32.219512 122398 net.cpp:106] Creating Layer inception_5b/output
I0531 19:37:32.219532 122398 net.cpp:454] inception_5b/output <- inception_5b/1x1
I0531 19:37:32.219552 122398 net.cpp:454] inception_5b/output <- inception_5b/3x3
I0531 19:37:32.219573 122398 net.cpp:454] inception_5b/output <- inception_5b/5x5
I0531 19:37:32.219594 122398 net.cpp:454] inception_5b/output <- inception_5b/pool_proj
I0531 19:37:32.219616 122398 net.cpp:411] inception_5b/output -> inception_5b/output
I0531 19:37:32.219727 122398 net.cpp:150] Setting up inception_5b/output
I0531 19:37:32.219756 122398 net.cpp:157] Top shape: 64 1024 7 7 (3211264)
I0531 19:37:32.219774 122398 net.cpp:165] Memory required for data: 3589403656
I0531 19:37:32.219792 122398 layer_factory.hpp:77] Creating layer pool5/7x7_s1
I0531 19:37:32.219817 122398 net.cpp:106] Creating Layer pool5/7x7_s1
I0531 19:37:32.219840 122398 net.cpp:454] pool5/7x7_s1 <- inception_5b/output
I0531 19:37:32.219861 122398 net.cpp:411] pool5/7x7_s1 -> pool5/7x7_s1
I0531 19:37:32.220274 122398 net.cpp:150] Setting up pool5/7x7_s1
I0531 19:37:32.220330 122398 net.cpp:157] Top shape: 64 1024 1 1 (65536)
I0531 19:37:32.220366 122398 net.cpp:165] Memory required for data: 3589665800
I0531 19:37:32.220389 122398 layer_factory.hpp:77] Creating layer pool5/drop_7x7_s1
I0531 19:37:32.220424 122398 net.cpp:106] Creating Layer pool5/drop_7x7_s1
I0531 19:37:32.220448 122398 net.cpp:454] pool5/drop_7x7_s1 <- pool5/7x7_s1
I0531 19:37:32.220473 122398 net.cpp:397] pool5/drop_7x7_s1 -> pool5/7x7_s1 (in-place)
I0531 19:37:32.220538 122398 net.cpp:150] Setting up pool5/drop_7x7_s1
I0531 19:37:32.220567 122398 net.cpp:157] Top shape: 64 1024 1 1 (65536)
I0531 19:37:32.220585 122398 net.cpp:165] Memory required for data: 3589927944
I0531 19:37:32.220603 122398 layer_factory.hpp:77] Creating layer loss3/classifier_resized
I0531 19:37:32.220628 122398 net.cpp:106] Creating Layer loss3/classifier_resized
I0531 19:37:32.220649 122398 net.cpp:454] loss3/classifier_resized <- pool5/7x7_s1
I0531 19:37:32.220670 122398 net.cpp:411] loss3/classifier_resized -> loss3/classifier_resized
I0531 19:37:32.222569 122398 net.cpp:150] Setting up loss3/classifier_resized
I0531 19:37:32.222610 122398 net.cpp:157] Top shape: 64 216 (13824)
I0531 19:37:32.222631 122398 net.cpp:165] Memory required for data: 3589983240
I0531 19:37:32.222654 122398 layer_factory.hpp:77] Creating layer loss3/loss3
I0531 19:37:32.222679 122398 net.cpp:106] Creating Layer loss3/loss3
I0531 19:37:32.222700 122398 net.cpp:454] loss3/loss3 <- loss3/classifier_resized
I0531 19:37:32.222721 122398 net.cpp:454] loss3/loss3 <- label_data_1_split_2
I0531 19:37:32.222746 122398 net.cpp:411] loss3/loss3 -> loss3/loss3
…
I0531 19:37:32.231228 122398 net.cpp:322] The NetState phase (1) differed from the phase (0) specified by a rule in layer data
I0531 19:37:32.232658 122398 net.cpp:49] Initializing net from parameters: 
name: "foodCAT_food101_googlenet"
state {
  phase: TEST
}
layer {
  name: "data"
  type: "ImageData"
  top: "data"
  top: "label"
  include {
    phase: TEST
  }
  transform_param {
    mirror: false
    crop_size: 224
    mean_value: 104
    mean_value: 117
    mean_value: 123
  }
  image_data_param {
    source: "foodCAT_resized_balanced/val.txt"
    batch_size: 16
    shuffle: false
    new_height: 256
    new_width: 256
  }
}
layer {
  name: "conv1/7x7_s2"
  type: "Convolution"
  bottom: "data"
  top: "conv1/7x7_s2"
  param {
    lr_mult: 1
    decay_mult: 1
  }
  param {
    lr_mult: 2
    decay_mult: 0
  }
  convolution_param {
    num_output: 64
    pad: 3
    kernel_size: 7
    stride: 2
    weight_filler {
      type: "xavier"
      std: 0.1
    }
    bias_filler {
      type: "constant"
      value: 0.2
    }
  }
}
layer {
  name: "conv1/relu_7x7"
  type: "ReLU"
  bottom: "conv1/7x7_s2"
  top: "conv1/7x7_s2"
}
layer {
  name: "pool1/3x3_s2"
  type: "Pooling"
  bottom: "conv1/7x7_s2"
  top: "pool1/3x3_s2"
  pooling_param {
    pool: MAX
    kernel_size: 3
    stride: 2
  }
}
layer {
  name: "pool1/norm1"
  type: "LRN"
  bottom: "pool1/3x3_s2"
  top: "pool1/norm1"
  lrn_param {
    local_size: 5
    alpha: 0.0001
    beta: 0.75
  }
}
layer {
  name: "conv2/3x3_reduce"
  type: "Convolution"
  bottom: "pool1/norm1"
  top: "conv2/3x3_reduce"
  param {
    lr_mult: 1
    decay_mult: 1
  }
  param {
    lr_mult: 2
    decay_mult: 0
  }
  convolution_param {
    num_output: 64
    kernel_size: 1
    weight_filler {
      type: "xavier"
      std: 0.1
    }
    bias_filler {
      type: "constant"
      value: 0.2
    }
  }
}
layer {
  name: "conv2/relu_3x3_reduce"
  type: "ReLU"
  bottom: "conv2/3x3_reduce"
  top: "conv2/3x3_reduce"
}
layer {
  name: "conv2/3x3"
  type: "Convolution"
  bottom: "conv2/3x3_reduce"
  top: "conv2/3x3"
  param {
    lr_mult: 1
    decay_mult: 1
  }
  param {
    lr_mult: 2
    decay_mult: 0
  }
  convolution_param {
    num_output: 192
    pad: 1
    kernel_size: 3
    weight_filler {
      type: "xavier"
      std: 0.03
    }
    bias_filler {
      type: "constant"
      value: 0.2
    }
  }
}
layer {
  name: "conv2/relu_3x3"
  type: "ReLU"
  bottom: "conv2/3x3"
  top: "conv2/3x3"
}
layer {
  name: "conv2/norm2"
  type: "LRN"
  bottom: "conv2/3x3"
  top: "conv2/norm2"
  lrn_param {
    local_size: 5
    alpha: 0.0001
    beta: 0.75
  }
}
layer {
  name: "pool2/3x3_s2"
  type: "Pooling"
  bottom: "conv2/norm2"
  top: "pool2/3x3_s2"
  pooling_param {
    pool: MAX
    kernel_size: 3
    stride: 2
  }
}
layer {
  name: "inception_3a/1x1"
  type: "Convolution"
  bottom: "pool2/3x3_s2"
  top: "inception_3a/1x1"
  param {
    lr_mult: 1
    decay_mult: 1
  }
  param {
    lr_mult: 2
    decay_mult: 0
  }
  convolution_param {
    num_output: 64
    kernel_size: 1
    weight_filler {
      type: "xavier"
      std: 0.03
    }
    bias_filler {
      type: "constant"
      value: 0.2
    }
  }
}
layer {
  name: "inception_3a/relu_1x1"
  type: "ReLU"
  bottom: "inception_3a/1x1"
  top: "inception_3a/1x1"
}
layer {
  name: "inception_3a/3x3_reduce"
  type: "Convolution"
  bottom: "pool2/3x3_s2"
  top: "inception_3a/3x3_reduce"
  param {
    lr_mult: 1
    decay_mult: 1
  }
  param {
    lr_mult: 2
    decay_mult: 0
  }
  convolution_param {
    num_output: 96
    kernel_size: 1
    weight_filler {
      type: "xavier"
      std: 0.09
    }
    bias_filler {
      type: "constant"
      value: 0.2
    }
  }
}
layer {
  name: "inception_3a/relu_3x3_reduce"
  type: "ReLU"
  bottom: "inception_3a/3x3_reduce"
  top: "inception_3a/3x3_reduce"
}
layer {
  name: "inception_3a/3x3"
  type: "Convolution"
  bottom: "inception_3a/3x3_reduce"
  top: "inception_3a/3x3"
  param {
    lr_mult: 1
    decay_mult: 1
  }
  param {
    lr_mult: 2
    decay_mult: 0
  }
  convolution_param {
    num_output: 128
    pad: 1
    kernel_size: 3
    weight_filler {
      type: "xavier"
      std: 0.03
    }
    bias_filler {
      type: "constant"
      value: 0.2
    }
  }
}
layer {
  name: "inception_3a/relu_3x3"
  type: "ReLU"
  bottom: "inception_3a/3x3"
  top: "inception_3a/3x3"
}
layer {
  name: "inception_3a/5x5_reduce"
  type: "Convolution"
  bottom: "pool2/3x3_s2"
  top: "inception_3a/5x5_reduce"
  param {
    lr_mult: 1
    decay_mult: 1
  }
  param {
    lr_mult: 2
    decay_mult: 0
  }
  convolution_param {
    num_output: 16
    kernel_size: 1
    weight_filler {
      type: "xavier"
      std: 0.2
    }
    bias_filler {
      type: "constant"
      value: 0.2
    }
  }
}
layer {
  name: "inception_3a/relu_5x5_reduce"
  type: "ReLU"
  bottom: "inception_3a/5x5_reduce"
  top: "inception_3a/5x5_reduce"
}
layer {
  name: "inception_3a/5x5"
  type: "Convolution"
  bottom: "inception_3a/5x5_reduce"
  top: "inception_3a/5x5"
  param {
    lr_mult: 1
    decay_mult: 1
  }
  param {
    lr_mult: 2
    decay_mult: 0
  }
  convolution_param {
    num_output: 32
    pad: 2
    kernel_size: 5
    weight_filler {
      type: "xavier"
      std: 0.03
    }
    bias_filler {
      type: "constant"
      value: 0.2
    }
  }
}
layer {
  name: "inception_3a/relu_5x5"
  type: "ReLU"
  bottom: "inception_3a/5x5"
  top: "inception_3a/5x5"
}
layer {
  name: "inception_3a/pool"
  type: "Pooling"
  bottom: "pool2/3x3_s2"
  top: "inception_3a/pool"
  pooling_param {
    pool: MAX
    kernel_size: 3
    stride: 1
    pad: 1
  }
}
layer {
  name: "inception_3a/pool_proj"
  type: "Convolution"
  bottom: "inception_3a/pool"
  top: "inception_3a/pool_proj"
  param {
    lr_mult: 1
    decay_mult: 1
  }
  param {
    lr_mult: 2
    decay_mult: 0
  }
  convolution_param {
    num_output: 32
    kernel_size: 1
    weight_filler {
      type: "xavier"
      std: 0.1
    }
    bias_filler {
      type: "constant"
      value: 0.2
    }
  }
}
layer {
  name: "inception_3a/relu_pool_proj"
  type: "ReLU"
  bottom: "inception_3a/pool_proj"
  top: "inception_3a/pool_proj"
}
layer {
  name: "inception_3a/output"
  type: "Concat"
  bottom: "inception_3a/1x1"
  bottom: "inception_3a/3x3"
  bottom: "inception_3a/5x5"
  bottom: "inception_3a/pool_proj"
  top: "inception_3a/output"
}
layer {
  name: "inception_3b/1x1"
  type: "Convolution"
  bottom: "inception_3a/output"
  top: "inception_3b/1x1"
  param {
    lr_mult: 1
    decay_mult: 1
  }
  param {
    lr_mult: 2
    decay_mult: 0
  }
  convolution_param {
    num_output: 128
    kernel_size: 1
    weight_filler {
      type: "xavier"
      std: 0.03
    }
    bias_filler {
      type: "constant"
      value: 0.2
    }
  }
}
layer {
  name: "inception_3b/relu_1x1"
  type: "ReLU"
  bottom: "inception_3b/1x1"
  top: "inception_3b/1x1"
}
layer {
  name: "inception_3b/3x3_reduce"
  type: "Convolution"
  bottom: "inception_3a/output"
  top: "inception_3b/3x3_reduce"
  param {
    lr_mult: 1
    decay_mult: 1
  }
  param {
    lr_mult: 2
    decay_mult: 0
  }
  convolution_param {
    num_output: 128
    kernel_size: 1
    weight_filler {
      type: "xavier"
      std: 0.09
    }
    bias_filler {
      type: "constant"
      value: 0.2
    }
  }
}
layer {
  name: "inception_3b/relu_3x3_reduce"
  type: "ReLU"
  bottom: "inception_3b/3x3_reduce"
  top: "inception_3b/3x3_reduce"
}
layer {
  name: "inception_3b/3x3"
  type: "Convolution"
  bottom: "inception_3b/3x3_reduce"
  top: "inception_3b/3x3"
  param {
    lr_mult: 1
    decay_mult: 1
  }
  param {
    lr_mult: 2
    decay_mult: 0
  }
  convolution_param {
    num_output: 192
    pad: 1
    kernel_size: 3
    weight_filler {
      type: "xavier"
      std: 0.03
    }
    bias_filler {
      type: "constant"
      value: 0.2
    }
  }
}
layer {
  name: "inception_3b/relu_3x3"
  type: "ReLU"
  bottom: "inception_3b/3x3"
  top: "inception_3b/3x3"
}
layer {
  name: "inception_3b/5x5_reduce"
  type: "Convolution"
  bottom: "inception_3a/output"
  top: "inception_3b/5x5_reduce"
  param {
    lr_mult: 1
    decay_mult: 1
  }
  param {
    lr_mult: 2
    decay_mult: 0
  }
  convolution_param {
    num_output: 32
    kernel_size: 1
    weight_filler {
      type: "xavier"
      std: 0.2
    }
    bias_filler {
      type: "constant"
      value: 0.2
    }
  }
}
layer {
  name: "inception_3b/relu_5x5_reduce"
  type: "ReLU"
  bottom: "inception_3b/5x5_reduce"
  top: "inception_3b/5x5_reduce"
}
layer {
  name: "inception_3b/5x5"
  type: "Convolution"
  bottom: "inception_3b/5x5_reduce"
  top: "inception_3b/5x5"
  param {
    lr_mult: 1
    decay_mult: 1
  }
  param {
    lr_mult: 2
    decay_mult: 0
  }
  convolution_param {
    num_output: 96
    pad: 2
    kernel_size: 5
    weight_filler {
      type: "xavier"
      std: 0.03
    }
    bias_filler {
      type: "constant"
      value: 0.2
    }
  }
}
layer {
  name: "inception_3b/relu_5x5"
  type: "ReLU"
  bottom: "inception_3b/5x5"
  top: "inception_3b/5x5"
}
layer {
  name: "inception_3b/pool"
  type: "Pooling"
  bottom: "inception_3a/output"
  top: "inception_3b/pool"
  pooling_param {
    pool: MAX
    kernel_size: 3
    stride: 1
    pad: 1
  }
}
layer {
  name: "inception_3b/pool_proj"
  type: "Convolution"
  bottom: "inception_3b/pool"
  top: "inception_3b/pool_proj"
  param {
    lr_mult: 1
    decay_mult: 1
  }
  param {
    lr_mult: 2
    decay_mult: 0
  }
  convolution_param {
    num_output: 64
    kernel_size: 1
    weight_filler {
      type: "xavier"
      std: 0.1
    }
    bias_filler {
      type: "constant"
      value: 0.2
    }
  }
}
layer {
  name: "inception_3b/relu_pool_proj"
  type: "ReLU"
  bottom: "inception_3b/pool_proj"
  top: "inception_3b/pool_proj"
}
layer {
  name: "inception_3b/output"
  type: "Concat"
  bottom: "inception_3b/1x1"
  bottom: "inception_3b/3x3"
  bottom: "inception_3b/5x5"
  bottom: "inception_3b/pool_proj"
  top: "inception_3b/output"
}
layer {
  name: "pool3/3x3_s2"
  type: "Pooling"
  bottom: "inception_3b/output"
  top: "pool3/3x3_s2"
  pooling_param {
    pool: MAX
    kernel_size: 3
    stride: 2
  }
}
layer {
  name: "inception_4a/1x1"
  type: "Convolution"
  bottom: "pool3/3x3_s2"
  top: "inception_4a/1x1"
  param {
    lr_mult: 1
    decay_mult: 1
  }
  param {
    lr_mult: 2
    decay_mult: 0
  }
  convolution_param {
    num_output: 192
    kernel_size: 1
    weight_filler {
      type: "xavier"
      std: 0.03
    }
    bias_filler {
      type: "constant"
      value: 0.2
    }
  }
}
layer {
  name: "inception_4a/relu_1x1"
  type: "ReLU"
  bottom: "inception_4a/1x1"
  top: "inception_4a/1x1"
}
layer {
  name: "inception_4a/3x3_reduce"
  type: "Convolution"
  bottom: "pool3/3x3_s2"
  top: "inception_4a/3x3_reduce"
  param {
    lr_mult: 1
    decay_mult: 1
  }
  param {
    lr_mult: 2
    decay_mult: 0
  }
  convolution_param {
    num_output: 96
    kernel_size: 1
    weight_filler {
      type: "xavier"
      std: 0.09
    }
    bias_filler {
      type: "constant"
      value: 0.2
    }
  }
}
layer {
  name: "inception_4a/relu_3x3_reduce"
  type: "ReLU"
  bottom: "inception_4a/3x3_reduce"
  top: "inception_4a/3x3_reduce"
}
layer {
  name: "inception_4a/3x3"
  type: "Convolution"
  bottom: "inception_4a/3x3_reduce"
  top: "inception_4a/3x3"
  param {
    lr_mult: 1
    decay_mult: 1
  }
  param {
    lr_mult: 2
    decay_mult: 0
  }
  convolution_param {
    num_output: 208
    pad: 1
    kernel_size: 3
    weight_filler {
      type: "xavier"
      std: 0.03
    }
    bias_filler {
      type: "constant"
      value: 0.2
    }
  }
}
layer {
  name: "inception_4a/relu_3x3"
  type: "ReLU"
  bottom: "inception_4a/3x3"
  top: "inception_4a/3x3"
}
layer {
  name: "inception_4a/5x5_reduce"
  type: "Convolution"
  bottom: "pool3/3x3_s2"
  top: "inception_4a/5x5_reduce"
  param {
    lr_mult: 1
    decay_mult: 1
  }
  param {
    lr_mult: 2
    decay_mult: 0
  }
  convolution_param {
    num_output: 16
    kernel_size: 1
    weight_filler {
      type: "xavier"
      std: 0.2
    }
    bias_filler {
      type: "constant"
      value: 0.2
    }
  }
}
layer {
  name: "inception_4a/relu_5x5_reduce"
  type: "ReLU"
  bottom: "inception_4a/5x5_reduce"
  top: "inception_4a/5x5_reduce"
}
layer {
  name: "inception_4a/5x5"
  type: "Convolution"
  bottom: "inception_4a/5x5_reduce"
  top: "inception_4a/5x5"
  param {
    lr_mult: 1
    decay_mult: 1
  }
  param {
    lr_mult: 2
    decay_mult: 0
  }
  convolution_param {
    num_output: 48
    pad: 2
    kernel_size: 5
    weight_filler {
      type: "xavier"
      std: 0.03
    }
    bias_filler {
      type: "constant"
      value: 0.2
    }
  }
}
layer {
  name: "inception_4a/relu_5x5"
  type: "ReLU"
  bottom: "inception_4a/5x5"
  top: "inception_4a/5x5"
}
layer {
  name: "inception_4a/pool"
  type: "Pooling"
  bottom: "pool3/3x3_s2"
  top: "inception_4a/pool"
  pooling_param {
    pool: MAX
    kernel_size: 3
    stride: 1
    pad: 1
  }
}
layer {
  name: "inception_4a/pool_proj"
  type: "Convolution"
…
I0531 19:37:32.379781 122398 net.cpp:106] Creating Layer inception_4c/pool_proj
I0531 19:37:32.379801 122398 net.cpp:454] inception_4c/pool_proj <- inception_4c/pool
I0531 19:37:32.379825 122398 net.cpp:411] inception_4c/pool_proj -> inception_4c/pool_proj
I0531 19:37:32.381718 122398 net.cpp:150] Setting up inception_4c/pool_proj
I0531 19:37:32.381759 122398 net.cpp:157] Top shape: 16 64 14 14 (200704)
I0531 19:37:32.381778 122398 net.cpp:165] Memory required for data: 708119180
I0531 19:37:32.381799 122398 layer_factory.hpp:77] Creating layer inception_4c/relu_pool_proj
I0531 19:37:32.381824 122398 net.cpp:106] Creating Layer inception_4c/relu_pool_proj
I0531 19:37:32.381845 122398 net.cpp:454] inception_4c/relu_pool_proj <- inception_4c/pool_proj
I0531 19:37:32.381866 122398 net.cpp:397] inception_4c/relu_pool_proj -> inception_4c/pool_proj (in-place)
I0531 19:37:32.382122 122398 net.cpp:150] Setting up inception_4c/relu_pool_proj
I0531 19:37:32.382158 122398 net.cpp:157] Top shape: 16 64 14 14 (200704)
I0531 19:37:32.382175 122398 net.cpp:165] Memory required for data: 708921996
I0531 19:37:32.382194 122398 layer_factory.hpp:77] Creating layer inception_4c/output
I0531 19:37:32.382213 122398 net.cpp:106] Creating Layer inception_4c/output
I0531 19:37:32.382232 122398 net.cpp:454] inception_4c/output <- inception_4c/1x1
I0531 19:37:32.382251 122398 net.cpp:454] inception_4c/output <- inception_4c/3x3
I0531 19:37:32.382271 122398 net.cpp:454] inception_4c/output <- inception_4c/5x5
I0531 19:37:32.382288 122398 net.cpp:454] inception_4c/output <- inception_4c/pool_proj
I0531 19:37:32.382308 122398 net.cpp:411] inception_4c/output -> inception_4c/output
I0531 19:37:32.382370 122398 net.cpp:150] Setting up inception_4c/output
I0531 19:37:32.382400 122398 net.cpp:157] Top shape: 16 512 14 14 (1605632)
I0531 19:37:32.382416 122398 net.cpp:165] Memory required for data: 715344524
I0531 19:37:32.382433 122398 layer_factory.hpp:77] Creating layer inception_4c/output_inception_4c/output_0_split
I0531 19:37:32.382453 122398 net.cpp:106] Creating Layer inception_4c/output_inception_4c/output_0_split
I0531 19:37:32.382472 122398 net.cpp:454] inception_4c/output_inception_4c/output_0_split <- inception_4c/output
I0531 19:37:32.382494 122398 net.cpp:411] inception_4c/output_inception_4c/output_0_split -> inception_4c/output_inception_4c/output_0_split_0
I0531 19:37:32.382519 122398 net.cpp:411] inception_4c/output_inception_4c/output_0_split -> inception_4c/output_inception_4c/output_0_split_1
I0531 19:37:32.382541 122398 net.cpp:411] inception_4c/output_inception_4c/output_0_split -> inception_4c/output_inception_4c/output_0_split_2
I0531 19:37:32.382565 122398 net.cpp:411] inception_4c/output_inception_4c/output_0_split -> inception_4c/output_inception_4c/output_0_split_3
I0531 19:37:32.382683 122398 net.cpp:150] Setting up inception_4c/output_inception_4c/output_0_split
I0531 19:37:32.382711 122398 net.cpp:157] Top shape: 16 512 14 14 (1605632)
I0531 19:37:32.382730 122398 net.cpp:157] Top shape: 16 512 14 14 (1605632)
I0531 19:37:32.382748 122398 net.cpp:157] Top shape: 16 512 14 14 (1605632)
I0531 19:37:32.382766 122398 net.cpp:157] Top shape: 16 512 14 14 (1605632)
I0531 19:37:32.382782 122398 net.cpp:165] Memory required for data: 741034636
I0531 19:37:32.382799 122398 layer_factory.hpp:77] Creating layer inception_4d/1x1
I0531 19:37:32.382835 122398 net.cpp:106] Creating Layer inception_4d/1x1
I0531 19:37:32.382869 122398 net.cpp:454] inception_4d/1x1 <- inception_4c/output_inception_4c/output_0_split_0
I0531 19:37:32.382894 122398 net.cpp:411] inception_4d/1x1 -> inception_4d/1x1
I0531 19:37:32.384363 122398 net.cpp:150] Setting up inception_4d/1x1
I0531 19:37:32.384403 122398 net.cpp:157] Top shape: 16 112 14 14 (351232)
I0531 19:37:32.384423 122398 net.cpp:165] Memory required for data: 742439564
I0531 19:37:32.384443 122398 layer_factory.hpp:77] Creating layer inception_4d/relu_1x1
I0531 19:37:32.384469 122398 net.cpp:106] Creating Layer inception_4d/relu_1x1
I0531 19:37:32.384490 122398 net.cpp:454] inception_4d/relu_1x1 <- inception_4d/1x1
I0531 19:37:32.384510 122398 net.cpp:397] inception_4d/relu_1x1 -> inception_4d/1x1 (in-place)
I0531 19:37:32.384835 122398 net.cpp:150] Setting up inception_4d/relu_1x1
I0531 19:37:32.384872 122398 net.cpp:157] Top shape: 16 112 14 14 (351232)
I0531 19:37:32.384893 122398 net.cpp:165] Memory required for data: 743844492
I0531 19:37:32.384912 122398 layer_factory.hpp:77] Creating layer inception_4d/3x3_reduce
I0531 19:37:32.384934 122398 net.cpp:106] Creating Layer inception_4d/3x3_reduce
I0531 19:37:32.384959 122398 net.cpp:454] inception_4d/3x3_reduce <- inception_4c/output_inception_4c/output_0_split_1
I0531 19:37:32.384996 122398 net.cpp:411] inception_4d/3x3_reduce -> inception_4d/3x3_reduce
I0531 19:37:32.386401 122398 net.cpp:150] Setting up inception_4d/3x3_reduce
I0531 19:37:32.386440 122398 net.cpp:157] Top shape: 16 144 14 14 (451584)
I0531 19:37:32.386462 122398 net.cpp:165] Memory required for data: 745650828
I0531 19:37:32.386484 122398 layer_factory.hpp:77] Creating layer inception_4d/relu_3x3_reduce
I0531 19:37:32.386507 122398 net.cpp:106] Creating Layer inception_4d/relu_3x3_reduce
I0531 19:37:32.386528 122398 net.cpp:454] inception_4d/relu_3x3_reduce <- inception_4d/3x3_reduce
I0531 19:37:32.386546 122398 net.cpp:397] inception_4d/relu_3x3_reduce -> inception_4d/3x3_reduce (in-place)
I0531 19:37:32.386880 122398 net.cpp:150] Setting up inception_4d/relu_3x3_reduce
I0531 19:37:32.386919 122398 net.cpp:157] Top shape: 16 144 14 14 (451584)
I0531 19:37:32.386937 122398 net.cpp:165] Memory required for data: 747457164
I0531 19:37:32.386958 122398 layer_factory.hpp:77] Creating layer inception_4d/3x3
I0531 19:37:32.386988 122398 net.cpp:106] Creating Layer inception_4d/3x3
I0531 19:37:32.387011 122398 net.cpp:454] inception_4d/3x3 <- inception_4d/3x3_reduce
I0531 19:37:32.387032 122398 net.cpp:411] inception_4d/3x3 -> inception_4d/3x3
I0531 19:37:32.390593 122398 net.cpp:150] Setting up inception_4d/3x3
I0531 19:37:32.390632 122398 net.cpp:157] Top shape: 16 288 14 14 (903168)
I0531 19:37:32.390652 122398 net.cpp:165] Memory required for data: 751069836
I0531 19:37:32.390673 122398 layer_factory.hpp:77] Creating layer inception_4d/relu_3x3
I0531 19:37:32.390698 122398 net.cpp:106] Creating Layer inception_4d/relu_3x3
I0531 19:37:32.390718 122398 net.cpp:454] inception_4d/relu_3x3 <- inception_4d/3x3
I0531 19:37:32.390738 122398 net.cpp:397] inception_4d/relu_3x3 -> inception_4d/3x3 (in-place)
I0531 19:37:32.390943 122398 net.cpp:150] Setting up inception_4d/relu_3x3
I0531 19:37:32.390980 122398 net.cpp:157] Top shape: 16 288 14 14 (903168)
I0531 19:37:32.391000 122398 net.cpp:165] Memory required for data: 754682508
I0531 19:37:32.391017 122398 layer_factory.hpp:77] Creating layer inception_4d/5x5_reduce
I0531 19:37:32.391043 122398 net.cpp:106] Creating Layer inception_4d/5x5_reduce
I0531 19:37:32.391065 122398 net.cpp:454] inception_4d/5x5_reduce <- inception_4c/output_inception_4c/output_0_split_2
I0531 19:37:32.391088 122398 net.cpp:411] inception_4d/5x5_reduce -> inception_4d/5x5_reduce
I0531 19:37:32.392349 122398 net.cpp:150] Setting up inception_4d/5x5_reduce
I0531 19:37:32.392387 122398 net.cpp:157] Top shape: 16 32 14 14 (100352)
I0531 19:37:32.392406 122398 net.cpp:165] Memory required for data: 755083916
I0531 19:37:32.392427 122398 layer_factory.hpp:77] Creating layer inception_4d/relu_5x5_reduce
I0531 19:37:32.392477 122398 net.cpp:106] Creating Layer inception_4d/relu_5x5_reduce
I0531 19:37:32.392499 122398 net.cpp:454] inception_4d/relu_5x5_reduce <- inception_4d/5x5_reduce
I0531 19:37:32.392519 122398 net.cpp:397] inception_4d/relu_5x5_reduce -> inception_4d/5x5_reduce (in-place)
I0531 19:37:32.392848 122398 net.cpp:150] Setting up inception_4d/relu_5x5_reduce
I0531 19:37:32.392885 122398 net.cpp:157] Top shape: 16 32 14 14 (100352)
I0531 19:37:32.392904 122398 net.cpp:165] Memory required for data: 755485324
I0531 19:37:32.392922 122398 layer_factory.hpp:77] Creating layer inception_4d/5x5
I0531 19:37:32.392948 122398 net.cpp:106] Creating Layer inception_4d/5x5
I0531 19:37:32.392976 122398 net.cpp:454] inception_4d/5x5 <- inception_4d/5x5_reduce
I0531 19:37:32.393000 122398 net.cpp:411] inception_4d/5x5 -> inception_4d/5x5
I0531 19:37:32.394284 122398 net.cpp:150] Setting up inception_4d/5x5
I0531 19:37:32.394323 122398 net.cpp:157] Top shape: 16 64 14 14 (200704)
I0531 19:37:32.394342 122398 net.cpp:165] Memory required for data: 756288140
I0531 19:37:32.394364 122398 layer_factory.hpp:77] Creating layer inception_4d/relu_5x5
I0531 19:37:32.394387 122398 net.cpp:106] Creating Layer inception_4d/relu_5x5
I0531 19:37:32.394407 122398 net.cpp:454] inception_4d/relu_5x5 <- inception_4d/5x5
I0531 19:37:32.394428 122398 net.cpp:397] inception_4d/relu_5x5 -> inception_4d/5x5 (in-place)
I0531 19:37:32.394762 122398 net.cpp:150] Setting up inception_4d/relu_5x5
I0531 19:37:32.394796 122398 net.cpp:157] Top shape: 16 64 14 14 (200704)
I0531 19:37:32.394814 122398 net.cpp:165] Memory required for data: 757090956
I0531 19:37:32.394832 122398 layer_factory.hpp:77] Creating layer inception_4d/pool
I0531 19:37:32.394853 122398 net.cpp:106] Creating Layer inception_4d/pool
I0531 19:37:32.394873 122398 net.cpp:454] inception_4d/pool <- inception_4c/output_inception_4c/output_0_split_3
I0531 19:37:32.394896 122398 net.cpp:411] inception_4d/pool -> inception_4d/pool
I0531 19:37:32.394989 122398 net.cpp:150] Setting up inception_4d/pool
I0531 19:37:32.395020 122398 net.cpp:157] Top shape: 16 512 14 14 (1605632)
I0531 19:37:32.395038 122398 net.cpp:165] Memory required for data: 763513484
I0531 19:37:32.395056 122398 layer_factory.hpp:77] Creating layer inception_4d/pool_proj
I0531 19:37:32.395081 122398 net.cpp:106] Creating Layer inception_4d/pool_proj
I0531 19:37:32.395102 122398 net.cpp:454] inception_4d/pool_proj <- inception_4d/pool
I0531 19:37:32.395134 122398 net.cpp:411] inception_4d/pool_proj -> inception_4d/pool_proj
I0531 19:37:32.396457 122398 net.cpp:150] Setting up inception_4d/pool_proj
I0531 19:37:32.396497 122398 net.cpp:157] Top shape: 16 64 14 14 (200704)
I0531 19:37:32.396514 122398 net.cpp:165] Memory required for data: 764316300
I0531 19:37:32.396535 122398 layer_factory.hpp:77] Creating layer inception_4d/relu_pool_proj
I0531 19:37:32.396560 122398 net.cpp:106] Creating Layer inception_4d/relu_pool_proj
I0531 19:37:32.396581 122398 net.cpp:454] inception_4d/relu_pool_proj <- inception_4d/pool_proj
I0531 19:37:32.396601 122398 net.cpp:397] inception_4d/relu_pool_proj -> inception_4d/pool_proj (in-place)
I0531 19:37:32.396926 122398 net.cpp:150] Setting up inception_4d/relu_pool_proj
I0531 19:37:32.396967 122398 net.cpp:157] Top shape: 16 64 14 14 (200704)
I0531 19:37:32.396987 122398 net.cpp:165] Memory required for data: 765119116
I0531 19:37:32.397006 122398 layer_factory.hpp:77] Creating layer inception_4d/output
I0531 19:37:32.397027 122398 net.cpp:106] Creating Layer inception_4d/output
I0531 19:37:32.397045 122398 net.cpp:454] inception_4d/output <- inception_4d/1x1
I0531 19:37:32.397064 122398 net.cpp:454] inception_4d/output <- inception_4d/3x3
I0531 19:37:32.397083 122398 net.cpp:454] inception_4d/output <- inception_4d/5x5
I0531 19:37:32.397102 122398 net.cpp:454] inception_4d/output <- inception_4d/pool_proj
I0531 19:37:32.397122 122398 net.cpp:411] inception_4d/output -> inception_4d/output
I0531 19:37:32.397186 122398 net.cpp:150] Setting up inception_4d/output
I0531 19:37:32.397227 122398 net.cpp:157] Top shape: 16 528 14 14 (1655808)
I0531 19:37:32.397258 122398 net.cpp:165] Memory required for data: 771742348
I0531 19:37:32.397275 122398 layer_factory.hpp:77] Creating layer inception_4d/output_inception_4d/output_0_split
I0531 19:37:32.397295 122398 net.cpp:106] Creating Layer inception_4d/output_inception_4d/output_0_split
I0531 19:37:32.397315 122398 net.cpp:454] inception_4d/output_inception_4d/output_0_split <- inception_4d/output
I0531 19:37:32.397336 122398 net.cpp:411] inception_4d/output_inception_4d/output_0_split -> inception_4d/output_inception_4d/output_0_split_0
I0531 19:37:32.397361 122398 net.cpp:411] inception_4d/output_inception_4d/output_0_split -> inception_4d/output_inception_4d/output_0_split_1
I0531 19:37:32.397384 122398 net.cpp:411] inception_4d/output_inception_4d/output_0_split -> inception_4d/output_inception_4d/output_0_split_2
I0531 19:37:32.397408 122398 net.cpp:411] inception_4d/output_inception_4d/output_0_split -> inception_4d/output_inception_4d/output_0_split_3
I0531 19:37:32.397430 122398 net.cpp:411] inception_4d/output_inception_4d/output_0_split -> inception_4d/output_inception_4d/output_0_split_4
I0531 19:37:32.397565 122398 net.cpp:150] Setting up inception_4d/output_inception_4d/output_0_split
I0531 19:37:32.397595 122398 net.cpp:157] Top shape: 16 528 14 14 (1655808)
I0531 19:37:32.397614 122398 net.cpp:157] Top shape: 16 528 14 14 (1655808)
I0531 19:37:32.397631 122398 net.cpp:157] Top shape: 16 528 14 14 (1655808)
I0531 19:37:32.397650 122398 net.cpp:157] Top shape: 16 528 14 14 (1655808)
I0531 19:37:32.397666 122398 net.cpp:157] Top shape: 16 528 14 14 (1655808)
I0531 19:37:32.397682 122398 net.cpp:165] Memory required for data: 804858508
I0531 19:37:32.397699 122398 layer_factory.hpp:77] Creating layer loss2/ave_pool
I0531 19:37:32.397719 122398 net.cpp:106] Creating Layer loss2/ave_pool
I0531 19:37:32.397738 122398 net.cpp:454] loss2/ave_pool <- inception_4d/output_inception_4d/output_0_split_0
I0531 19:37:32.397760 122398 net.cpp:411] loss2/ave_pool -> loss2/ave_pool
I0531 19:37:32.398131 122398 net.cpp:150] Setting up loss2/ave_pool
I0531 19:37:32.398169 122398 net.cpp:157] Top shape: 16 528 4 4 (135168)
I0531 19:37:32.398187 122398 net.cpp:165] Memory required for data: 805399180
I0531 19:37:32.398205 122398 layer_factory.hpp:77] Creating layer loss2/conv
I0531 19:37:32.398231 122398 net.cpp:106] Creating Layer loss2/conv
I0531 19:37:32.398252 122398 net.cpp:454] loss2/conv <- loss2/ave_pool
I0531 19:37:32.398275 122398 net.cpp:411] loss2/conv -> loss2/conv
I0531 19:37:32.400255 122398 net.cpp:150] Setting up loss2/conv
I0531 19:37:32.400297 122398 net.cpp:157] Top shape: 16 128 4 4 (32768)
I0531 19:37:32.400318 122398 net.cpp:165] Memory required for data: 805530252
I0531 19:37:32.400339 122398 layer_factory.hpp:77] Creating layer loss2/relu_conv
I0531 19:37:32.400362 122398 net.cpp:106] Creating Layer loss2/relu_conv
I0531 19:37:32.400382 122398 net.cpp:454] loss2/relu_conv <- loss2/conv
I0531 19:37:32.400401 122398 net.cpp:397] loss2/relu_conv -> loss2/conv (in-place)
I0531 19:37:32.400609 122398 net.cpp:150] Setting up loss2/relu_conv
I0531 19:37:32.400642 122398 net.cpp:157] Top shape: 16 128 4 4 (32768)
I0531 19:37:32.400660 122398 net.cpp:165] Memory required for data: 805661324
I0531 19:37:32.400677 122398 layer_factory.hpp:77] Creating layer loss2/fc
I0531 19:37:32.400706 122398 net.cpp:106] Creating Layer loss2/fc
I0531 19:37:32.400725 122398 net.cpp:454] loss2/fc <- loss2/conv
I0531 19:37:32.400745 122398 net.cpp:411] loss2/fc -> loss2/fc
I0531 19:37:32.413384 122398 net.cpp:150] Setting up loss2/fc
I0531 19:37:32.413424 122398 net.cpp:157] Top shape: 16 1024 (16384)
I0531 19:37:32.413442 122398 net.cpp:165] Memory required for data: 805726860
I0531 19:37:32.413463 122398 layer_factory.hpp:77] Creating layer loss2/relu_fc
I0531 19:37:32.413486 122398 net.cpp:106] Creating Layer loss2/relu_fc
I0531 19:37:32.413506 122398 net.cpp:454] loss2/relu_fc <- loss2/fc
I0531 19:37:32.413525 122398 net.cpp:397] loss2/relu_fc -> loss2/fc (in-place)
I0531 19:37:32.413867 122398 net.cpp:150] Setting up loss2/relu_fc
I0531 19:37:32.413915 122398 net.cpp:157] Top shape: 16 1024 (16384)
I0531 19:37:32.413935 122398 net.cpp:165] Memory required for data: 805792396
I0531 19:37:32.413957 122398 layer_factory.hpp:77] Creating layer loss2/drop_fc
I0531 19:37:32.413981 122398 net.cpp:106] Creating Layer loss2/drop_fc
I0531 19:37:32.414000 122398 net.cpp:454] loss2/drop_fc <- loss2/fc
I0531 19:37:32.414022 122398 net.cpp:397] loss2/drop_fc -> loss2/fc (in-place)
I0531 19:37:32.414088 122398 net.cpp:150] Setting up loss2/drop_fc
I0531 19:37:32.414116 122398 net.cpp:157] Top shape: 16 1024 (16384)
I0531 19:37:32.414134 122398 net.cpp:165] Memory required for data: 805857932
I0531 19:37:32.414150 122398 layer_factory.hpp:77] Creating layer loss2/classifier
I0531 19:37:32.414175 122398 net.cpp:106] Creating Layer loss2/classifier
I0531 19:37:32.414196 122398 net.cpp:454] loss2/classifier <- loss2/fc
I0531 19:37:32.414217 122398 net.cpp:411] loss2/classifier -> loss2/classifier
I0531 19:37:32.420560 122398 net.cpp:150] Setting up loss2/classifier
I0531 19:37:32.420603 122398 net.cpp:157] Top shape: 16 1000 (16000)
I0531 19:37:32.420624 122398 net.cpp:165] Memory required for data: 805921932
I0531 19:37:32.420644 122398 layer_factory.hpp:77] Creating layer loss2/classifier_loss2/classifier_0_split
I0531 19:37:32.420666 122398 net.cpp:106] Creating Layer loss2/classifier_loss2/classifier_0_split
I0531 19:37:32.420686 122398 net.cpp:454] loss2/classifier_loss2/classifier_0_split <- loss2/classifier
I0531 19:37:32.420706 122398 net.cpp:411] loss2/classifier_loss2/classifier_0_split -> loss2/classifier_loss2/classifier_0_split_0
I0531 19:37:32.420729 122398 net.cpp:411] loss2/classifier_loss2/classifier_0_split -> loss2/classifier_loss2/classifier_0_split_1
I0531 19:37:32.420753 122398 net.cpp:411] loss2/classifier_loss2/classifier_0_split -> loss2/classifier_loss2/classifier_0_split_2
I0531 19:37:32.420856 122398 net.cpp:150] Setting up loss2/classifier_loss2/classifier_0_split
I0531 19:37:32.420886 122398 net.cpp:157] Top shape: 16 1000 (16000)
I0531 19:37:32.420904 122398 net.cpp:157] Top shape: 16 1000 (16000)
I0531 19:37:32.420922 122398 net.cpp:157] Top shape: 16 1000 (16000)
I0531 19:37:32.420939 122398 net.cpp:165] Memory required for data: 806113932
I0531 19:37:32.420960 122398 layer_factory.hpp:77] Creating layer loss2/loss
I0531 19:37:32.420981 122398 net.cpp:106] Creating Layer loss2/loss
I0531 19:37:32.421000 122398 net.cpp:454] loss2/loss <- loss2/classifier_loss2/classifier_0_split_0
I0531 19:37:32.421020 122398 net.cpp:454] loss2/loss <- label_data_1_split_3
…
I0531 19:37:32.421782 122398 net.cpp:150] Setting up loss2/top-5
I0531 19:37:32.421818 122398 net.cpp:157] Top shape: (1)
I0531 19:37:32.421835 122398 net.cpp:165] Memory required for data: 806113944
I0531 19:37:32.421852 122398 layer_factory.hpp:77] Creating layer inception_4e/1x1
I0531 19:37:32.421877 122398 net.cpp:106] Creating Layer inception_4e/1x1
I0531 19:37:32.421900 122398 net.cpp:454] inception_4e/1x1 <- inception_4d/output_inception_4d/output_0_split_1
I0531 19:37:32.421922 122398 net.cpp:411] inception_4e/1x1 -> inception_4e/1x1
I0531 19:37:32.423717 122398 net.cpp:150] Setting up inception_4e/1x1
I0531 19:37:32.423755 122398 net.cpp:157] Top shape: 16 256 14 14 (802816)
I0531 19:37:32.423774 122398 net.cpp:165] Memory required for data: 809325208
I0531 19:37:32.423795 122398 layer_factory.hpp:77] Creating layer inception_4e/relu_1x1
I0531 19:37:32.423818 122398 net.cpp:106] Creating Layer inception_4e/relu_1x1
I0531 19:37:32.423838 122398 net.cpp:454] inception_4e/relu_1x1 <- inception_4e/1x1
I0531 19:37:32.423861 122398 net.cpp:397] inception_4e/relu_1x1 -> inception_4e/1x1 (in-place)
I0531 19:37:32.424068 122398 net.cpp:150] Setting up inception_4e/relu_1x1
I0531 19:37:32.424101 122398 net.cpp:157] Top shape: 16 256 14 14 (802816)
I0531 19:37:32.424119 122398 net.cpp:165] Memory required for data: 812536472
I0531 19:37:32.424136 122398 layer_factory.hpp:77] Creating layer inception_4e/3x3_reduce
I0531 19:37:32.424175 122398 net.cpp:106] Creating Layer inception_4e/3x3_reduce
I0531 19:37:32.424198 122398 net.cpp:454] inception_4e/3x3_reduce <- inception_4d/output_inception_4d/output_0_split_2
I0531 19:37:32.424221 122398 net.cpp:411] inception_4e/3x3_reduce -> inception_4e/3x3_reduce
I0531 19:37:32.426300 122398 net.cpp:150] Setting up inception_4e/3x3_reduce
I0531 19:37:32.426340 122398 net.cpp:157] Top shape: 16 160 14 14 (501760)
I0531 19:37:32.426359 122398 net.cpp:165] Memory required for data: 814543512
I0531 19:37:32.426381 122398 layer_factory.hpp:77] Creating layer inception_4e/relu_3x3_reduce
I0531 19:37:32.426406 122398 net.cpp:106] Creating Layer inception_4e/relu_3x3_reduce
I0531 19:37:32.426427 122398 net.cpp:454] inception_4e/relu_3x3_reduce <- inception_4e/3x3_reduce
I0531 19:37:32.426447 122398 net.cpp:397] inception_4e/relu_3x3_reduce -> inception_4e/3x3_reduce (in-place)
I0531 19:37:32.426777 122398 net.cpp:150] Setting up inception_4e/relu_3x3_reduce
I0531 19:37:32.426813 122398 net.cpp:157] Top shape: 16 160 14 14 (501760)
I0531 19:37:32.426831 122398 net.cpp:165] Memory required for data: 816550552
I0531 19:37:32.426849 122398 layer_factory.hpp:77] Creating layer inception_4e/3x3
I0531 19:37:32.426875 122398 net.cpp:106] Creating Layer inception_4e/3x3
I0531 19:37:32.426898 122398 net.cpp:454] inception_4e/3x3 <- inception_4e/3x3_reduce
I0531 19:37:32.426921 122398 net.cpp:411] inception_4e/3x3 -> inception_4e/3x3
I0531 19:37:32.431502 122398 net.cpp:150] Setting up inception_4e/3x3
I0531 19:37:32.431545 122398 net.cpp:157] Top shape: 16 320 14 14 (1003520)
I0531 19:37:32.431565 122398 net.cpp:165] Memory required for data: 820564632
I0531 19:37:32.431587 122398 layer_factory.hpp:77] Creating layer inception_4e/relu_3x3
I0531 19:37:32.431610 122398 net.cpp:106] Creating Layer inception_4e/relu_3x3
I0531 19:37:32.431629 122398 net.cpp:454] inception_4e/relu_3x3 <- inception_4e/3x3
I0531 19:37:32.431649 122398 net.cpp:397] inception_4e/relu_3x3 -> inception_4e/3x3 (in-place)
I0531 19:37:32.431869 122398 net.cpp:150] Setting up inception_4e/relu_3x3
I0531 19:37:32.431901 122398 net.cpp:157] Top shape: 16 320 14 14 (1003520)
I0531 19:37:32.431918 122398 net.cpp:165] Memory required for data: 824578712
I0531 19:37:32.431936 122398 layer_factory.hpp:77] Creating layer inception_4e/5x5_reduce
I0531 19:37:32.431967 122398 net.cpp:106] Creating Layer inception_4e/5x5_reduce
I0531 19:37:32.431988 122398 net.cpp:454] inception_4e/5x5_reduce <- inception_4d/output_inception_4d/output_0_split_3
I0531 19:37:32.432013 122398 net.cpp:411] inception_4e/5x5_reduce -> inception_4e/5x5_reduce
I0531 19:37:32.433166 122398 net.cpp:150] Setting up inception_4e/5x5_reduce
I0531 19:37:32.433215 122398 net.cpp:157] Top shape: 16 32 14 14 (100352)
I0531 19:37:32.433235 122398 net.cpp:165] Memory required for data: 824980120
I0531 19:37:32.433256 122398 layer_factory.hpp:77] Creating layer inception_4e/relu_5x5_reduce
I0531 19:37:32.433279 122398 net.cpp:106] Creating Layer inception_4e/relu_5x5_reduce
I0531 19:37:32.433300 122398 net.cpp:454] inception_4e/relu_5x5_reduce <- inception_4e/5x5_reduce
I0531 19:37:32.433321 122398 net.cpp:397] inception_4e/relu_5x5_reduce -> inception_4e/5x5_reduce (in-place)
I0531 19:37:32.433527 122398 net.cpp:150] Setting up inception_4e/relu_5x5_reduce
I0531 19:37:32.433562 122398 net.cpp:157] Top shape: 16 32 14 14 (100352)
I0531 19:37:32.433581 122398 net.cpp:165] Memory required for data: 825381528
I0531 19:37:32.433598 122398 layer_factory.hpp:77] Creating layer inception_4e/5x5
I0531 19:37:32.433624 122398 net.cpp:106] Creating Layer inception_4e/5x5
I0531 19:37:32.433645 122398 net.cpp:454] inception_4e/5x5 <- inception_4e/5x5_reduce
I0531 19:37:32.433667 122398 net.cpp:411] inception_4e/5x5 -> inception_4e/5x5
I0531 19:37:32.435128 122398 net.cpp:150] Setting up inception_4e/5x5
I0531 19:37:32.435166 122398 net.cpp:157] Top shape: 16 128 14 14 (401408)
I0531 19:37:32.435185 122398 net.cpp:165] Memory required for data: 826987160
I0531 19:37:32.435207 122398 layer_factory.hpp:77] Creating layer inception_4e/relu_5x5
I0531 19:37:32.435232 122398 net.cpp:106] Creating Layer inception_4e/relu_5x5
I0531 19:37:32.435252 122398 net.cpp:454] inception_4e/relu_5x5 <- inception_4e/5x5
I0531 19:37:32.435272 122398 net.cpp:397] inception_4e/relu_5x5 -> inception_4e/5x5 (in-place)
I0531 19:37:32.435607 122398 net.cpp:150] Setting up inception_4e/relu_5x5
I0531 19:37:32.435643 122398 net.cpp:157] Top shape: 16 128 14 14 (401408)
I0531 19:37:32.435662 122398 net.cpp:165] Memory required for data: 828592792
I0531 19:37:32.435679 122398 layer_factory.hpp:77] Creating layer inception_4e/pool
I0531 19:37:32.435701 122398 net.cpp:106] Creating Layer inception_4e/pool
I0531 19:37:32.435722 122398 net.cpp:454] inception_4e/pool <- inception_4d/output_inception_4d/output_0_split_4
I0531 19:37:32.435744 122398 net.cpp:411] inception_4e/pool -> inception_4e/pool
I0531 19:37:32.435803 122398 net.cpp:150] Setting up inception_4e/pool
I0531 19:37:32.435830 122398 net.cpp:157] Top shape: 16 528 14 14 (1655808)
I0531 19:37:32.435848 122398 net.cpp:165] Memory required for data: 835216024
I0531 19:37:32.435865 122398 layer_factory.hpp:77] Creating layer inception_4e/pool_proj
I0531 19:37:32.435889 122398 net.cpp:106] Creating Layer inception_4e/pool_proj
I0531 19:37:32.435911 122398 net.cpp:454] inception_4e/pool_proj <- inception_4e/pool
I0531 19:37:32.435935 122398 net.cpp:411] inception_4e/pool_proj -> inception_4e/pool_proj
I0531 19:37:32.437278 122398 net.cpp:150] Setting up inception_4e/pool_proj
I0531 19:37:32.437319 122398 net.cpp:157] Top shape: 16 128 14 14 (401408)
I0531 19:37:32.437340 122398 net.cpp:165] Memory required for data: 836821656
I0531 19:37:32.437361 122398 layer_factory.hpp:77] Creating layer inception_4e/relu_pool_proj
I0531 19:37:32.437383 122398 net.cpp:106] Creating Layer inception_4e/relu_pool_proj
I0531 19:37:32.437403 122398 net.cpp:454] inception_4e/relu_pool_proj <- inception_4e/pool_proj
I0531 19:37:32.437422 122398 net.cpp:397] inception_4e/relu_pool_proj -> inception_4e/pool_proj (in-place)
I0531 19:37:32.437754 122398 net.cpp:150] Setting up inception_4e/relu_pool_proj
I0531 19:37:32.437789 122398 net.cpp:157] Top shape: 16 128 14 14 (401408)
I0531 19:37:32.437808 122398 net.cpp:165] Memory required for data: 838427288
I0531 19:37:32.437826 122398 layer_factory.hpp:77] Creating layer inception_4e/output
I0531 19:37:32.437847 122398 net.cpp:106] Creating Layer inception_4e/output
I0531 19:37:32.437865 122398 net.cpp:454] inception_4e/output <- inception_4e/1x1
I0531 19:37:32.437885 122398 net.cpp:454] inception_4e/output <- inception_4e/3x3
I0531 19:37:32.437903 122398 net.cpp:454] inception_4e/output <- inception_4e/5x5
I0531 19:37:32.437945 122398 net.cpp:454] inception_4e/output <- inception_4e/pool_proj
I0531 19:37:32.437976 122398 net.cpp:411] inception_4e/output -> inception_4e/output
I0531 19:37:32.438021 122398 net.cpp:150] Setting up inception_4e/output
I0531 19:37:32.438050 122398 net.cpp:157] Top shape: 16 832 14 14 (2609152)
I0531 19:37:32.438066 122398 net.cpp:165] Memory required for data: 848863896
I0531 19:37:32.438083 122398 layer_factory.hpp:77] Creating layer pool4/3x3_s2
I0531 19:37:32.438105 122398 net.cpp:106] Creating Layer pool4/3x3_s2
I0531 19:37:32.438125 122398 net.cpp:454] pool4/3x3_s2 <- inception_4e/output
I0531 19:37:32.438144 122398 net.cpp:411] pool4/3x3_s2 -> pool4/3x3_s2
I0531 19:37:32.438199 122398 net.cpp:150] Setting up pool4/3x3_s2
I0531 19:37:32.438225 122398 net.cpp:157] Top shape: 16 832 7 7 (652288)
I0531 19:37:32.438242 122398 net.cpp:165] Memory required for data: 851473048
I0531 19:37:32.438259 122398 layer_factory.hpp:77] Creating layer pool4/3x3_s2_pool4/3x3_s2_0_split
I0531 19:37:32.438279 122398 net.cpp:106] Creating Layer pool4/3x3_s2_pool4/3x3_s2_0_split
I0531 19:37:32.438298 122398 net.cpp:454] pool4/3x3_s2_pool4/3x3_s2_0_split <- pool4/3x3_s2
I0531 19:37:32.438320 122398 net.cpp:411] pool4/3x3_s2_pool4/3x3_s2_0_split -> pool4/3x3_s2_pool4/3x3_s2_0_split_0
I0531 19:37:32.438344 122398 net.cpp:411] pool4/3x3_s2_pool4/3x3_s2_0_split -> pool4/3x3_s2_pool4/3x3_s2_0_split_1
I0531 19:37:32.438367 122398 net.cpp:411] pool4/3x3_s2_pool4/3x3_s2_0_split -> pool4/3x3_s2_pool4/3x3_s2_0_split_2
I0531 19:37:32.438403 122398 net.cpp:411] pool4/3x3_s2_pool4/3x3_s2_0_split -> pool4/3x3_s2_pool4/3x3_s2_0_split_3
I0531 19:37:32.438473 122398 net.cpp:150] Setting up pool4/3x3_s2_pool4/3x3_s2_0_split
I0531 19:37:32.438499 122398 net.cpp:157] Top shape: 16 832 7 7 (652288)
I0531 19:37:32.438518 122398 net.cpp:157] Top shape: 16 832 7 7 (652288)
I0531 19:37:32.438539 122398 net.cpp:157] Top shape: 16 832 7 7 (652288)
I0531 19:37:32.438557 122398 net.cpp:157] Top shape: 16 832 7 7 (652288)
I0531 19:37:32.438573 122398 net.cpp:165] Memory required for data: 861909656
I0531 19:37:32.438591 122398 layer_factory.hpp:77] Creating layer inception_5a/1x1
I0531 19:37:32.438616 122398 net.cpp:106] Creating Layer inception_5a/1x1
I0531 19:37:32.438637 122398 net.cpp:454] inception_5a/1x1 <- pool4/3x3_s2_pool4/3x3_s2_0_split_0
I0531 19:37:32.438657 122398 net.cpp:411] inception_5a/1x1 -> inception_5a/1x1
I0531 19:37:32.441128 122398 net.cpp:150] Setting up inception_5a/1x1
I0531 19:37:32.441171 122398 net.cpp:157] Top shape: 16 256 7 7 (200704)
I0531 19:37:32.441191 122398 net.cpp:165] Memory required for data: 862712472
I0531 19:37:32.441213 122398 layer_factory.hpp:77] Creating layer inception_5a/relu_1x1
I0531 19:37:32.441236 122398 net.cpp:106] Creating Layer inception_5a/relu_1x1
I0531 19:37:32.441256 122398 net.cpp:454] inception_5a/relu_1x1 <- inception_5a/1x1
I0531 19:37:32.441275 122398 net.cpp:397] inception_5a/relu_1x1 -> inception_5a/1x1 (in-place)
I0531 19:37:32.441483 122398 net.cpp:150] Setting up inception_5a/relu_1x1
I0531 19:37:32.441515 122398 net.cpp:157] Top shape: 16 256 7 7 (200704)
I0531 19:37:32.441534 122398 net.cpp:165] Memory required for data: 863515288
I0531 19:37:32.441550 122398 layer_factory.hpp:77] Creating layer inception_5a/3x3_reduce
I0531 19:37:32.441576 122398 net.cpp:106] Creating Layer inception_5a/3x3_reduce
I0531 19:37:32.441597 122398 net.cpp:454] inception_5a/3x3_reduce <- pool4/3x3_s2_pool4/3x3_s2_0_split_1
I0531 19:37:32.441622 122398 net.cpp:411] inception_5a/3x3_reduce -> inception_5a/3x3_reduce
I0531 19:37:32.443814 122398 net.cpp:150] Setting up inception_5a/3x3_reduce
I0531 19:37:32.443855 122398 net.cpp:157] Top shape: 16 160 7 7 (125440)
I0531 19:37:32.443874 122398 net.cpp:165] Memory required for data: 864017048
I0531 19:37:32.443895 122398 layer_factory.hpp:77] Creating layer inception_5a/relu_3x3_reduce
I0531 19:37:32.443917 122398 net.cpp:106] Creating Layer inception_5a/relu_3x3_reduce
I0531 19:37:32.443938 122398 net.cpp:454] inception_5a/relu_3x3_reduce <- inception_5a/3x3_reduce
I0531 19:37:32.443989 122398 net.cpp:397] inception_5a/relu_3x3_reduce -> inception_5a/3x3_reduce (in-place)
I0531 19:37:32.444334 122398 net.cpp:150] Setting up inception_5a/relu_3x3_reduce
I0531 19:37:32.444371 122398 net.cpp:157] Top shape: 16 160 7 7 (125440)
I0531 19:37:32.444389 122398 net.cpp:165] Memory required for data: 864518808
I0531 19:37:32.444407 122398 layer_factory.hpp:77] Creating layer inception_5a/3x3
I0531 19:37:32.444433 122398 net.cpp:106] Creating Layer inception_5a/3x3
I0531 19:37:32.444454 122398 net.cpp:454] inception_5a/3x3 <- inception_5a/3x3_reduce
I0531 19:37:32.444479 122398 net.cpp:411] inception_5a/3x3 -> inception_5a/3x3
I0531 19:37:32.448482 122398 net.cpp:150] Setting up inception_5a/3x3
I0531 19:37:32.448523 122398 net.cpp:157] Top shape: 16 320 7 7 (250880)
I0531 19:37:32.448542 122398 net.cpp:165] Memory required for data: 865522328
I0531 19:37:32.448564 122398 layer_factory.hpp:77] Creating layer inception_5a/relu_3x3
I0531 19:37:32.448586 122398 net.cpp:106] Creating Layer inception_5a/relu_3x3
I0531 19:37:32.448606 122398 net.cpp:454] inception_5a/relu_3x3 <- inception_5a/3x3
I0531 19:37:32.448627 122398 net.cpp:397] inception_5a/relu_3x3 -> inception_5a/3x3 (in-place)
I0531 19:37:32.448837 122398 net.cpp:150] Setting up inception_5a/relu_3x3
I0531 19:37:32.448869 122398 net.cpp:157] Top shape: 16 320 7 7 (250880)
I0531 19:37:32.448889 122398 net.cpp:165] Memory required for data: 866525848
I0531 19:37:32.448907 122398 layer_factory.hpp:77] Creating layer inception_5a/5x5_reduce
I0531 19:37:32.448930 122398 net.cpp:106] Creating Layer inception_5a/5x5_reduce
I0531 19:37:32.448954 122398 net.cpp:454] inception_5a/5x5_reduce <- pool4/3x3_s2_pool4/3x3_s2_0_split_2
I0531 19:37:32.448981 122398 net.cpp:411] inception_5a/5x5_reduce -> inception_5a/5x5_reduce
I0531 19:37:32.450193 122398 net.cpp:150] Setting up inception_5a/5x5_reduce
I0531 19:37:32.450235 122398 net.cpp:157] Top shape: 16 32 7 7 (25088)
I0531 19:37:32.450254 122398 net.cpp:165] Memory required for data: 866626200
I0531 19:37:32.450275 122398 layer_factory.hpp:77] Creating layer inception_5a/relu_5x5_reduce
I0531 19:37:32.450299 122398 net.cpp:106] Creating Layer inception_5a/relu_5x5_reduce
I0531 19:37:32.450319 122398 net.cpp:454] inception_5a/relu_5x5_reduce <- inception_5a/5x5_reduce
I0531 19:37:32.450340 122398 net.cpp:397] inception_5a/relu_5x5_reduce -> inception_5a/5x5_reduce (in-place)
I0531 19:37:32.450548 122398 net.cpp:150] Setting up inception_5a/relu_5x5_reduce
I0531 19:37:32.450582 122398 net.cpp:157] Top shape: 16 32 7 7 (25088)
I0531 19:37:32.450599 122398 net.cpp:165] Memory required for data: 866726552
I0531 19:37:32.450616 122398 layer_factory.hpp:77] Creating layer inception_5a/5x5
I0531 19:37:32.450642 122398 net.cpp:106] Creating Layer inception_5a/5x5
I0531 19:37:32.450664 122398 net.cpp:454] inception_5a/5x5 <- inception_5a/5x5_reduce
I0531 19:37:32.450686 122398 net.cpp:411] inception_5a/5x5 -> inception_5a/5x5
I0531 19:37:32.452165 122398 net.cpp:150] Setting up inception_5a/5x5
I0531 19:37:32.452204 122398 net.cpp:157] Top shape: 16 128 7 7 (100352)
I0531 19:37:32.452224 122398 net.cpp:165] Memory required for data: 867127960
I0531 19:37:32.452245 122398 layer_factory.hpp:77] Creating layer inception_5a/relu_5x5
I0531 19:37:32.452270 122398 net.cpp:106] Creating Layer inception_5a/relu_5x5
I0531 19:37:32.452291 122398 net.cpp:454] inception_5a/relu_5x5 <- inception_5a/5x5
I0531 19:37:32.452311 122398 net.cpp:397] inception_5a/relu_5x5 -> inception_5a/5x5 (in-place)
I0531 19:37:32.452651 122398 net.cpp:150] Setting up inception_5a/relu_5x5
I0531 19:37:32.452688 122398 net.cpp:157] Top shape: 16 128 7 7 (100352)
I0531 19:37:32.452708 122398 net.cpp:165] Memory required for data: 867529368
I0531 19:37:32.452725 122398 layer_factory.hpp:77] Creating layer inception_5a/pool
I0531 19:37:32.452746 122398 net.cpp:106] Creating Layer inception_5a/pool
I0531 19:37:32.452765 122398 net.cpp:454] inception_5a/pool <- pool4/3x3_s2_pool4/3x3_s2_0_split_3
I0531 19:37:32.452797 122398 net.cpp:411] inception_5a/pool -> inception_5a/pool
I0531 19:37:32.452873 122398 net.cpp:150] Setting up inception_5a/pool
I0531 19:37:32.452901 122398 net.cpp:157] Top shape: 16 832 7 7 (652288)
I0531 19:37:32.452919 122398 net.cpp:165] Memory required for data: 870138520
I0531 19:37:32.452935 122398 layer_factory.hpp:77] Creating layer inception_5a/pool_proj
I0531 19:37:32.452965 122398 net.cpp:106] Creating Layer inception_5a/pool_proj
I0531 19:37:32.452987 122398 net.cpp:454] inception_5a/pool_proj <- inception_5a/pool
I0531 19:37:32.453011 122398 net.cpp:411] inception_5a/pool_proj -> inception_5a/pool_proj
I0531 19:37:32.455050 122398 net.cpp:150] Setting up inception_5a/pool_proj
I0531 19:37:32.455091 122398 net.cpp:157] Top shape: 16 128 7 7 (100352)
I0531 19:37:32.455112 122398 net.cpp:165] Memory required for data: 870539928
I0531 19:37:32.455133 122398 layer_factory.hpp:77] Creating layer inception_5a/relu_pool_proj
I0531 19:37:32.455155 122398 net.cpp:106] Creating Layer inception_5a/relu_pool_proj
I0531 19:37:32.455175 122398 net.cpp:454] inception_5a/relu_pool_proj <- inception_5a/pool_proj
I0531 19:37:32.455195 122398 net.cpp:397] inception_5a/relu_pool_proj -> inception_5a/pool_proj (in-place)
I0531 19:37:32.455404 122398 net.cpp:150] Setting up inception_5a/relu_pool_proj
I0531 19:37:32.455437 122398 net.cpp:157] Top shape: 16 128 7 7 (100352)
I0531 19:37:32.455456 122398 net.cpp:165] Memory required for data: 870941336
I0531 19:37:32.455472 122398 layer_factory.hpp:77] Creating layer inception_5a/output
I0531 19:37:32.455492 122398 net.cpp:106] Creating Layer inception_5a/output
I0531 19:37:32.455512 122398 net.cpp:454] inception_5a/output <- inception_5a/1x1
I0531 19:37:32.455530 122398 net.cpp:454] inception_5a/output <- inception_5a/3x3
I0531 19:37:32.455554 122398 net.cpp:454] inception_5a/output <- inception_5a/5x5
I0531 19:37:32.455574 122398 net.cpp:454] inception_5a/output <- inception_5a/pool_proj
I0531 19:37:32.455593 122398 net.cpp:411] inception_5a/output -> inception_5a/output
I0531 19:37:32.455637 122398 net.cpp:150] Setting up inception_5a/output
I0531 19:37:32.455667 122398 net.cpp:157] Top shape: 16 832 7 7 (652288)
I0531 19:37:32.455684 122398 net.cpp:165] Memory required for data: 873550488
I0531 19:37:32.455701 122398 layer_factory.hpp:77] Creating layer inception_5a/output_inception_5a/output_0_split
I0531 19:37:32.455721 122398 net.cpp:106] Creating Layer inception_5a/output_inception_5a/output_0_split
I0531 19:37:32.455739 122398 net.cpp:454] inception_5a/output_inception_5a/output_0_split <- inception_5a/output
I0531 19:37:32.455760 122398 net.cpp:411] inception_5a/output_inception_5a/output_0_split -> inception_5a/output_inception_5a/output_0_split_0
I0531 19:37:32.455785 122398 net.cpp:411] inception_5a/output_inception_5a/output_0_split -> inception_5a/output_inception_5a/output_0_split_1
I0531 19:37:32.455808 122398 net.cpp:411] inception_5a/output_inception_5a/output_0_split -> inception_5a/output_inception_5a/output_0_split_2
I0531 19:37:32.455832 122398 net.cpp:411] inception_5a/output_inception_5a/output_0_split -> inception_5a/output_inception_5a/output_0_split_3
I0531 19:37:32.455904 122398 net.cpp:150] Setting up inception_5a/output_inception_5a/output_0_split
I0531 19:37:32.455930 122398 net.cpp:157] Top shape: 16 832 7 7 (652288)
I0531 19:37:32.455955 122398 net.cpp:157] Top shape: 16 832 7 7 (652288)
I0531 19:37:32.455974 122398 net.cpp:157] Top shape: 16 832 7 7 (652288)
I0531 19:37:32.455992 122398 net.cpp:157] Top shape: 16 832 7 7 (652288)
I0531 19:37:32.456008 122398 net.cpp:165] Memory required for data: 883987096
I0531 19:37:32.456025 122398 layer_factory.hpp:77] Creating layer inception_5b/1x1
I0531 19:37:32.456048 122398 net.cpp:106] Creating Layer inception_5b/1x1
I0531 19:37:32.456068 122398 net.cpp:454] inception_5b/1x1 <- inception_5a/output_inception_5a/output_0_split_0
I0531 19:37:32.456091 122398 net.cpp:411] inception_5b/1x1 -> inception_5b/1x1
I0531 19:37:32.459287 122398 net.cpp:150] Setting up inception_5b/1x1
I0531 19:37:32.459338 122398 net.cpp:157] Top shape: 16 384 7 7 (301056)
I0531 19:37:32.459372 122398 net.cpp:165] Memory required for data: 885191320
I0531 19:37:32.459394 122398 layer_factory.hpp:77] Creating layer inception_5b/relu_1x1
I0531 19:37:32.459417 122398 net.cpp:106] Creating Layer inception_5b/relu_1x1
I0531 19:37:32.459437 122398 net.cpp:454] inception_5b/relu_1x1 <- inception_5b/1x1
I0531 19:37:32.459457 122398 net.cpp:397] inception_5b/relu_1x1 -> inception_5b/1x1 (in-place)
I0531 19:37:32.459655 122398 net.cpp:150] Setting up inception_5b/relu_1x1
I0531 19:37:32.459687 122398 net.cpp:157] Top shape: 16 384 7 7 (301056)
I0531 19:37:32.459707 122398 net.cpp:165] Memory required for data: 886395544
I0531 19:37:32.459723 122398 layer_factory.hpp:77] Creating layer inception_5b/3x3_reduce
I0531 19:37:32.459748 122398 net.cpp:106] Creating Layer inception_5b/3x3_reduce
I0531 19:37:32.459767 122398 net.cpp:454] inception_5b/3x3_reduce <- inception_5a/output_inception_5a/output_0_split_1
I0531 19:37:32.459789 122398 net.cpp:411] inception_5b/3x3_reduce -> inception_5b/3x3_reduce
I0531 19:37:32.462046 122398 net.cpp:150] Setting up inception_5b/3x3_reduce
I0531 19:37:32.462087 122398 net.cpp:157] Top shape: 16 192 7 7 (150528)
I0531 19:37:32.462106 122398 net.cpp:165] Memory required for data: 886997656
I0531 19:37:32.462127 122398 layer_factory.hpp:77] Creating layer inception_5b/relu_3x3_reduce
I0531 19:37:32.462152 122398 net.cpp:106] Creating Layer inception_5b/relu_3x3_reduce
I0531 19:37:32.462172 122398 net.cpp:454] inception_5b/relu_3x3_reduce <- inception_5b/3x3_reduce
I0531 19:37:32.462193 122398 net.cpp:397] inception_5b/relu_3x3_reduce -> inception_5b/3x3_reduce (in-place)
I0531 19:37:32.462666 122398 net.cpp:150] Setting up inception_5b/relu_3x3_reduce
I0531 19:37:32.462705 122398 net.cpp:157] Top shape: 16 192 7 7 (150528)
I0531 19:37:32.462724 122398 net.cpp:165] Memory required for data: 887599768
I0531 19:37:32.462743 122398 layer_factory.hpp:77] Creating layer inception_5b/3x3
I0531 19:37:32.462769 122398 net.cpp:106] Creating Layer inception_5b/3x3
I0531 19:37:32.462790 122398 net.cpp:454] inception_5b/3x3 <- inception_5b/3x3_reduce
I0531 19:37:32.462811 122398 net.cpp:411] inception_5b/3x3 -> inception_5b/3x3
I0531 19:37:32.468009 122398 net.cpp:150] Setting up inception_5b/3x3
I0531 19:37:32.468049 122398 net.cpp:157] Top shape: 16 384 7 7 (301056)
I0531 19:37:32.468068 122398 net.cpp:165] Memory required for data: 888803992
I0531 19:37:32.468089 122398 layer_factory.hpp:77] Creating layer inception_5b/relu_3x3
I0531 19:37:32.468112 122398 net.cpp:106] Creating Layer inception_5b/relu_3x3
I0531 19:37:32.468132 122398 net.cpp:454] inception_5b/relu_3x3 <- inception_5b/3x3
I0531 19:37:32.468153 122398 net.cpp:397] inception_5b/relu_3x3 -> inception_5b/3x3 (in-place)
I0531 19:37:32.468364 122398 net.cpp:150] Setting up inception_5b/relu_3x3
I0531 19:37:32.468396 122398 net.cpp:157] Top shape: 16 384 7 7 (301056)
I0531 19:37:32.468415 122398 net.cpp:165] Memory required for data: 890008216
I0531 19:37:32.468432 122398 layer_factory.hpp:77] Creating layer inception_5b/5x5_reduce
I0531 19:37:32.468457 122398 net.cpp:106] Creating Layer inception_5b/5x5_reduce
I0531 19:37:32.468479 122398 net.cpp:454] inception_5b/5x5_reduce <- inception_5a/output_inception_5a/output_0_split_2
I0531 19:37:32.468503 122398 net.cpp:411] inception_5b/5x5_reduce -> inception_5b/5x5_reduce
I0531 19:37:32.469794 122398 net.cpp:150] Setting up inception_5b/5x5_reduce
I0531 19:37:32.469832 122398 net.cpp:157] Top shape: 16 48 7 7 (37632)
I0531 19:37:32.469852 122398 net.cpp:165] Memory required for data: 890158744
I0531 19:37:32.469873 122398 layer_factory.hpp:77] Creating layer inception_5b/relu_5x5_reduce
I0531 19:37:32.469898 122398 net.cpp:106] Creating Layer inception_5b/relu_5x5_reduce
I0531 19:37:32.469919 122398 net.cpp:454] inception_5b/relu_5x5_reduce <- inception_5b/5x5_reduce
I0531 19:37:32.469939 122398 net.cpp:397] inception_5b/relu_5x5_reduce -> inception_5b/5x5_reduce (in-place)
I0531 19:37:32.470155 122398 net.cpp:150] Setting up inception_5b/relu_5x5_reduce
I0531 19:37:32.470211 122398 net.cpp:157] Top shape: 16 48 7 7 (37632)
I0531 19:37:32.470230 122398 net.cpp:165] Memory required for data: 890309272
I0531 19:37:32.470248 122398 layer_factory.hpp:77] Creating layer inception_5b/5x5
I0531 19:37:32.470274 122398 net.cpp:106] Creating Layer inception_5b/5x5
I0531 19:37:32.470296 122398 net.cpp:454] inception_5b/5x5 <- inception_5b/5x5_reduce
I0531 19:37:32.470319 122398 net.cpp:411] inception_5b/5x5 -> inception_5b/5x5
I0531 19:37:32.472025 122398 net.cpp:150] Setting up inception_5b/5x5
I0531 19:37:32.472067 122398 net.cpp:157] Top shape: 16 128 7 7 (100352)
I0531 19:37:32.472087 122398 net.cpp:165] Memory required for data: 890710680
I0531 19:37:32.472108 122398 layer_factory.hpp:77] Creating layer inception_5b/relu_5x5
I0531 19:37:32.472131 122398 net.cpp:106] Creating Layer inception_5b/relu_5x5
I0531 19:37:32.472151 122398 net.cpp:454] inception_5b/relu_5x5 <- inception_5b/5x5
I0531 19:37:32.472170 122398 net.cpp:397] inception_5b/relu_5x5 -> inception_5b/5x5 (in-place)
I0531 19:37:32.472515 122398 net.cpp:150] Setting up inception_5b/relu_5x5
I0531 19:37:32.472551 122398 net.cpp:157] Top shape: 16 128 7 7 (100352)
I0531 19:37:32.472569 122398 net.cpp:165] Memory required for data: 891112088
I0531 19:37:32.472586 122398 layer_factory.hpp:77] Creating layer inception_5b/pool
I0531 19:37:32.472607 122398 net.cpp:106] Creating Layer inception_5b/pool
I0531 19:37:32.472626 122398 net.cpp:454] inception_5b/pool <- inception_5a/output_inception_5a/output_0_split_3
I0531 19:37:32.472650 122398 net.cpp:411] inception_5b/pool -> inception_5b/pool
I0531 19:37:32.472712 122398 net.cpp:150] Setting up inception_5b/pool
I0531 19:37:32.472738 122398 net.cpp:157] Top shape: 16 832 7 7 (652288)
I0531 19:37:32.472755 122398 net.cpp:165] Memory required for data: 893721240
I0531 19:37:32.472772 122398 layer_factory.hpp:77] Creating layer inception_5b/pool_proj
I0531 19:37:32.472801 122398 net.cpp:106] Creating Layer inception_5b/pool_proj
I0531 19:37:32.472822 122398 net.cpp:454] inception_5b/pool_proj <- inception_5b/pool
I0531 19:37:32.472844 122398 net.cpp:411] inception_5b/pool_proj -> inception_5b/pool_proj
I0531 19:37:32.474898 122398 net.cpp:150] Setting up inception_5b/pool_proj
I0531 19:37:32.474941 122398 net.cpp:157] Top shape: 16 128 7 7 (100352)
I0531 19:37:32.474964 122398 net.cpp:165] Memory required for data: 894122648
I0531 19:37:32.474987 122398 layer_factory.hpp:77] Creating layer inception_5b/relu_pool_proj
I0531 19:37:32.475010 122398 net.cpp:106] Creating Layer inception_5b/relu_pool_proj
I0531 19:37:32.475030 122398 net.cpp:454] inception_5b/relu_pool_proj <- inception_5b/pool_proj
I0531 19:37:32.475050 122398 net.cpp:397] inception_5b/relu_pool_proj -> inception_5b/pool_proj (in-place)
I0531 19:37:32.475261 122398 net.cpp:150] Setting up inception_5b/relu_pool_proj
I0531 19:37:32.475294 122398 net.cpp:157] Top shape: 16 128 7 7 (100352)
I0531 19:37:32.475312 122398 net.cpp:165] Memory required for data: 894524056
I0531 19:37:32.475330 122398 layer_factory.hpp:77] Creating layer inception_5b/output
I0531 19:37:32.475350 122398 net.cpp:106] Creating Layer inception_5b/output
I0531 19:37:32.475369 122398 net.cpp:454] inception_5b/output <- inception_5b/1x1
I0531 19:37:32.475389 122398 net.cpp:454] inception_5b/output <- inception_5b/3x3
I0531 19:37:32.475407 122398 net.cpp:454] inception_5b/output <- inception_5b/5x5
I0531 19:37:32.475426 122398 net.cpp:454] inception_5b/output <- inception_5b/pool_proj
I0531 19:37:32.475448 122398 net.cpp:411] inception_5b/output -> inception_5b/output
I0531 19:37:32.475495 122398 net.cpp:150] Setting up inception_5b/output
I0531 19:37:32.475524 122398 net.cpp:157] Top shape: 16 1024 7 7 (802816)
I0531 19:37:32.475543 122398 net.cpp:165] Memory required for data: 897735320
I0531 19:37:32.475559 122398 layer_factory.hpp:77] Creating layer pool5/7x7_s1
I0531 19:37:32.475579 122398 net.cpp:106] Creating Layer pool5/7x7_s1
I0531 19:37:32.475599 122398 net.cpp:454] pool5/7x7_s1 <- inception_5b/output
I0531 19:37:32.475632 122398 net.cpp:411] pool5/7x7_s1 -> pool5/7x7_s1
I0531 19:37:32.476016 122398 net.cpp:150] Setting up pool5/7x7_s1
I0531 19:37:32.476053 122398 net.cpp:157] Top shape: 16 1024 1 1 (16384)
I0531 19:37:32.476071 122398 net.cpp:165] Memory required for data: 897800856
I0531 19:37:32.476089 122398 layer_factory.hpp:77] Creating layer pool5/drop_7x7_s1
I0531 19:37:32.476110 122398 net.cpp:106] Creating Layer pool5/drop_7x7_s1
I0531 19:37:32.476130 122398 net.cpp:454] pool5/drop_7x7_s1 <- pool5/7x7_s1
I0531 19:37:32.476151 122398 net.cpp:397] pool5/drop_7x7_s1 -> pool5/7x7_s1 (in-place)
I0531 19:37:32.476197 122398 net.cpp:150] Setting up pool5/drop_7x7_s1
I0531 19:37:32.476224 122398 net.cpp:157] Top shape: 16 1024 1 1 (16384)
I0531 19:37:32.476243 122398 net.cpp:165] Memory required for data: 897866392
I0531 19:37:32.476259 122398 layer_factory.hpp:77] Creating layer loss3/classifier_resized
I0531 19:37:32.476280 122398 net.cpp:106] Creating Layer loss3/classifier_resized
I0531 19:37:32.476300 122398 net.cpp:454] loss3/classifier_resized <- pool5/7x7_s1
I0531 19:37:32.476321 122398 net.cpp:411] loss3/classifier_resized -> loss3/classifier_resized
I0531 19:37:32.477885 122398 net.cpp:150] Setting up loss3/classifier_resized
I0531 19:37:32.477923 122398 net.cpp:157] Top shape: 16 216 (3456)
I0531 19:37:32.477942 122398 net.cpp:165] Memory required for data: 897880216
I0531 19:37:32.477967 122398 layer_factory.hpp:77] Creating layer loss3/classifier_resized_loss3/classifier_resized_0_split
I0531 19:37:32.477993 122398 net.cpp:106] Creating Layer loss3/classifier_resized_loss3/classifier_resized_0_split
I0531 19:37:32.478013 122398 net.cpp:454] loss3/classifier_resized_loss3/classifier_resized_0_split <- loss3/classifier_resized
I0531 19:37:32.478034 122398 net.cpp:411] loss3/classifier_resized_loss3/classifier_resized_0_split -> loss3/classifier_resized_loss3/classifier_resized_0_split_0
I0531 19:37:32.478057 122398 net.cpp:411] loss3/classifier_resized_loss3/classifier_resized_0_split -> loss3/classifier_resized_loss3/classifier_resized_0_split_1
I0531 19:37:32.478080 122398 net.cpp:411] loss3/classifier_resized_loss3/classifier_resized_0_split -> loss3/classifier_resized_loss3/classifier_resized_0_split_2
I0531 19:37:32.478150 122398 net.cpp:150] Setting up loss3/classifier_resized_loss3/classifier_resized_0_split
I0531 19:37:32.478178 122398 net.cpp:157] Top shape: 16 216 (3456)
I0531 19:37:32.478196 122398 net.cpp:157] Top shape: 16 216 (3456)
I0531 19:37:32.478214 122398 net.cpp:157] Top shape: 16 216 (3456)
I0531 19:37:32.478230 122398 net.cpp:165] Memory required for data: 897921688
I0531 19:37:32.478247 122398 layer_factory.hpp:77] Creating layer loss3/loss3
I0531 19:37:32.478267 122398 net.cpp:106] Creating Layer loss3/loss3
I0531 19:37:32.478286 122398 net.cpp:454] loss3/loss3 <- loss3/classifier_resized_loss3/classifier_resized_0_split_0
I0531 19:37:32.478304 122398 net.cpp:454] loss3/loss3 <- label_data_1_split_6
…
