…
I0616 19:48:59.113806 42478 net.cpp:322] The NetState phase (0) differed from the phase (1) specified by a rule in layer loss3/top-5
I0616 19:48:59.114884 42478 net.cpp:49] Initializing net from parameters: 
name: "foodCAT_food101_googlenet"
state {
  phase: TRAIN
}
layer {
  name: "data"
  type: "ImageData"
  top: "data"
  top: "label"
  include {
    phase: TRAIN
  }
  transform_param {
    mirror: true
    crop_size: 224
    mean_value: 104
    mean_value: 117
    mean_value: 123
  }
  image_data_param {
    source: "foodCAT_SR_balanced/train.txt"
    batch_size: 64
    shuffle: true
    new_height: 256
    new_width: 256
  }
}
layer {
  name: "conv1/7x7_s2"
  type: "Convolution"
  bottom: "data"
  top: "conv1/7x7_s2"
  param {
    lr_mult: 1
    decay_mult: 1
  }
  param {
    lr_mult: 2
    decay_mult: 0
  }
  convolution_param {
    num_output: 64
    pad: 3
    kernel_size: 7
    stride: 2
    weight_filler {
      type: "xavier"
      std: 0.1
    }
    bias_filler {
      type: "constant"
      value: 0.2
    }
  }
}
layer {
  name: "conv1/relu_7x7"
  type: "ReLU"
  bottom: "conv1/7x7_s2"
  top: "conv1/7x7_s2"
}
layer {
  name: "pool1/3x3_s2"
  type: "Pooling"
  bottom: "conv1/7x7_s2"
  top: "pool1/3x3_s2"
  pooling_param {
    pool: MAX
    kernel_size: 3
    stride: 2
  }
}
layer {
  name: "pool1/norm1"
  type: "LRN"
  bottom: "pool1/3x3_s2"
  top: "pool1/norm1"
  lrn_param {
    local_size: 5
    alpha: 0.0001
    beta: 0.75
  }
}
layer {
  name: "conv2/3x3_reduce"
  type: "Convolution"
  bottom: "pool1/norm1"
  top: "conv2/3x3_reduce"
  param {
    lr_mult: 1
    decay_mult: 1
  }
  param {
    lr_mult: 2
    decay_mult: 0
  }
  convolution_param {
    num_output: 64
    kernel_size: 1
    weight_filler {
      type: "xavier"
      std: 0.1
    }
    bias_filler {
      type: "constant"
      value: 0.2
    }
  }
}
layer {
  name: "conv2/relu_3x3_reduce"
  type: "ReLU"
  bottom: "conv2/3x3_reduce"
  top: "conv2/3x3_reduce"
}
layer {
  name: "conv2/3x3"
  type: "Convolution"
  bottom: "conv2/3x3_reduce"
  top: "conv2/3x3"
  param {
    lr_mult: 1
    decay_mult: 1
  }
  param {
    lr_mult: 2
    decay_mult: 0
  }
  convolution_param {
    num_output: 192
    pad: 1
    kernel_size: 3
    weight_filler {
      type: "xavier"
      std: 0.03
    }
    bias_filler {
      type: "constant"
      value: 0.2
    }
  }
}
layer {
  name: "conv2/relu_3x3"
  type: "ReLU"
  bottom: "conv2/3x3"
  top: "conv2/3x3"
}
layer {
  name: "conv2/norm2"
  type: "LRN"
  bottom: "conv2/3x3"
  top: "conv2/norm2"
  lrn_param {
    local_size: 5
    alpha: 0.0001
    beta: 0.75
  }
}
layer {
  name: "pool2/3x3_s2"
  type: "Pooling"
  bottom: "conv2/norm2"
  top: "pool2/3x3_s2"
  pooling_param {
    pool: MAX
    kernel_size: 3
    stride: 2
  }
}
layer {
  name: "inception_3a/1x1"
  type: "Convolution"
  bottom: "pool2/3x3_s2"
  top: "inception_3a/1x1"
  param {
    lr_mult: 1
    decay_mult: 1
  }
  param {
    lr_mult: 2
    decay_mult: 0
  }
  convolution_param {
    num_output: 64
    kernel_size: 1
    weight_filler {
      type: "xavier"
      std: 0.03
    }
    bias_filler {
      type: "constant"
      value: 0.2
    }
  }
}
layer {
  name: "inception_3a/relu_1x1"
  type: "ReLU"
  bottom: "inception_3a/1x1"
  top: "inception_3a/1x1"
}
layer {
  name: "inception_3a/3x3_reduce"
  type: "Convolution"
  bottom: "pool2/3x3_s2"
  top: "inception_3a/3x3_reduce"
  param {
    lr_mult: 1
    decay_mult: 1
  }
  param {
    lr_mult: 2
    decay_mult: 0
  }
  convolution_param {
    num_output: 96
    kernel_size: 1
    weight_filler {
      type: "xavier"
      std: 0.09
    }
    bias_filler {
      type: "constant"
      value: 0.2
    }
  }
}
layer {
  name: "inception_3a/relu_3x3_reduce"
  type: "ReLU"
  bottom: "inception_3a/3x3_reduce"
  top: "inception_3a/3x3_reduce"
}
layer {
  name: "inception_3a/3x3"
  type: "Convolution"
  bottom: "inception_3a/3x3_reduce"
  top: "inception_3a/3x3"
  param {
    lr_mult: 1
    decay_mult: 1
  }
  param {
    lr_mult: 2
    decay_mult: 0
  }
  convolution_param {
    num_output: 128
    pad: 1
    kernel_size: 3
    weight_filler {
      type: "xavier"
      std: 0.03
    }
    bias_filler {
      type: "constant"
      value: 0.2
    }
  }
}
layer {
  name: "inception_3a/relu_3x3"
  type: "ReLU"
  bottom: "inception_3a/3x3"
  top: "inception_3a/3x3"
}
layer {
  name: "inception_3a/5x5_reduce"
  type: "Convolution"
  bottom: "pool2/3x3_s2"
  top: "inception_3a/5x5_reduce"
  param {
    lr_mult: 1
    decay_mult: 1
  }
  param {
    lr_mult: 2
    decay_mult: 0
  }
  convolution_param {
    num_output: 16
    kernel_size: 1
    weight_filler {
      type: "xavier"
      std: 0.2
    }
    bias_filler {
      type: "constant"
      value: 0.2
    }
  }
}
layer {
  name: "inception_3a/relu_5x5_reduce"
  type: "ReLU"
  bottom: "inception_3a/5x5_reduce"
  top: "inception_3a/5x5_reduce"
}
layer {
  name: "inception_3a/5x5"
  type: "Convolution"
  bottom: "inception_3a/5x5_reduce"
  top: "inception_3a/5x5"
  param {
    lr_mult: 1
    decay_mult: 1
  }
  param {
    lr_mult: 2
    decay_mult: 0
  }
  convolution_param {
    num_output: 32
    pad: 2
    kernel_size: 5
    weight_filler {
      type: "xavier"
      std: 0.03
    }
    bias_filler {
      type: "constant"
      value: 0.2
    }
  }
}
layer {
  name: "inception_3a/relu_5x5"
  type: "ReLU"
  bottom: "inception_3a/5x5"
  top: "inception_3a/5x5"
}
layer {
  name: "inception_3a/pool"
  type: "Pooling"
  bottom: "pool2/3x3_s2"
  top: "inception_3a/pool"
  pooling_param {
    pool: MAX
    kernel_size: 3
    stride: 1
    pad: 1
  }
}
layer {
  name: "inception_3a/pool_proj"
  type: "Convolution"
  bottom: "inception_3a/pool"
  top: "inception_3a/pool_proj"
  param {
    lr_mult: 1
    decay_mult: 1
  }
  param {
    lr_mult: 2
    decay_mult: 0
  }
  convolution_param {
    num_output: 32
    kernel_size: 1
    weight_filler {
      type: "xavier"
      std: 0.1
    }
    bias_filler {
      type: "constant"
      value: 0.2
    }
  }
}
layer {
  name: "inception_3a/relu_pool_proj"
  type: "ReLU"
  bottom: "inception_3a/pool_proj"
  top: "inception_3a/pool_proj"
}
layer {
  name: "inception_3a/output"
  type: "Concat"
  bottom: "inception_3a/1x1"
  bottom: "inception_3a/3x3"
  bottom: "inception_3a/5x5"
  bottom: "inception_3a/pool_proj"
  top: "inception_3a/output"
}
layer {
  name: "inception_3b/1x1"
  type: "Convolution"
  bottom: "inception_3a/output"
  top: "inception_3b/1x1"
  param {
    lr_mult: 1
    decay_mult: 1
  }
  param {
    lr_mult: 2
    decay_mult: 0
  }
  convolution_param {
    num_output: 128
    kernel_size: 1
    weight_filler {
      type: "xavier"
      std: 0.03
    }
    bias_filler {
      type: "constant"
      value: 0.2
    }
  }
}
layer {
  name: "inception_3b/relu_1x1"
  type: "ReLU"
  bottom: "inception_3b/1x1"
  top: "inception_3b/1x1"
}
layer {
  name: "inception_3b/3x3_reduce"
  type: "Convolution"
  bottom: "inception_3a/output"
  top: "inception_3b/3x3_reduce"
  param {
    lr_mult: 1
    decay_mult: 1
  }
  param {
    lr_mult: 2
    decay_mult: 0
  }
  convolution_param {
    num_output: 128
    kernel_size: 1
    weight_filler {
      type: "xavier"
      std: 0.09
    }
    bias_filler {
      type: "constant"
      value: 0.2
    }
  }
}
layer {
  name: "inception_3b/relu_3x3_reduce"
  type: "ReLU"
  bottom: "inception_3b/3x3_reduce"
  top: "inception_3b/3x3_reduce"
}
layer {
  name: "inception_3b/3x3"
  type: "Convolution"
  bottom: "inception_3b/3x3_reduce"
  top: "inception_3b/3x3"
  param {
    lr_mult: 1
    decay_mult: 1
  }
  param {
    lr_mult: 2
    decay_mult: 0
  }
  convolution_param {
    num_output: 192
    pad: 1
    kernel_size: 3
    weight_filler {
      type: "xavier"
      std: 0.03
    }
    bias_filler {
      type: "constant"
      value: 0.2
    }
  }
}
layer {
  name: "inception_3b/relu_3x3"
  type: "ReLU"
  bottom: "inception_3b/3x3"
  top: "inception_3b/3x3"
}
layer {
  name: "inception_3b/5x5_reduce"
  type: "Convolution"
  bottom: "inception_3a/output"
  top: "inception_3b/5x5_reduce"
  param {
    lr_mult: 1
    decay_mult: 1
  }
  param {
    lr_mult: 2
    decay_mult: 0
  }
  convolution_param {
    num_output: 32
    kernel_size: 1
    weight_filler {
      type: "xavier"
      std: 0.2
    }
    bias_filler {
      type: "constant"
      value: 0.2
    }
  }
}
layer {
  name: "inception_3b/relu_5x5_reduce"
  type: "ReLU"
  bottom: "inception_3b/5x5_reduce"
  top: "inception_3b/5x5_reduce"
}
layer {
  name: "inception_3b/5x5"
  type: "Convolution"
  bottom: "inception_3b/5x5_reduce"
  top: "inception_3b/5x5"
  param {
    lr_mult: 1
    decay_mult: 1
  }
  param {
    lr_mult: 2
    decay_mult: 0
  }
  convolution_param {
    num_output: 96
    pad: 2
    kernel_size: 5
    weight_filler {
      type: "xavier"
      std: 0.03
    }
    bias_filler {
      type: "constant"
      value: 0.2
    }
  }
}
layer {
  name: "inception_3b/relu_5x5"
  type: "ReLU"
  bottom: "inception_3b/5x5"
  top: "inception_3b/5x5"
}
layer {
  name: "inception_3b/pool"
  type: "Pooling"
  bottom: "inception_3a/output"
  top: "inception_3b/pool"
  pooling_param {
    pool: MAX
    kernel_size: 3
    stride: 1
    pad: 1
  }
}
layer {
  name: "inception_3b/pool_proj"
  type: "Convolution"
  bottom: "inception_3b/pool"
  top: "inception_3b/pool_proj"
  param {
    lr_mult: 1
    decay_mult: 1
  }
  param {
    lr_mult: 2
    decay_mult: 0
  }
  convolution_param {
    num_output: 64
    kernel_size: 1
    weight_filler {
      type: "xavier"
      std: 0.1
    }
    bias_filler {
      type: "constant"
      value: 0.2
    }
  }
}
layer {
  name: "inception_3b/relu_pool_proj"
  type: "ReLU"
  bottom: "inception_3b/pool_proj"
  top: "inception_3b/pool_proj"
}
layer {
  name: "inception_3b/output"
  type: "Concat"
  bottom: "inception_3b/1x1"
  bottom: "inception_3b/3x3"
  bottom: "inception_3b/5x5"
  bottom: "inception_3b/pool_proj"
  top: "inception_3b/output"
}
layer {
  name: "pool3/3x3_s2"
  type: "Pooling"
  bottom: "inception_3b/output"
  top: "pool3/3x3_s2"
  pooling_param {
    pool: MAX
    kernel_size: 3
    stride: 2
  }
}
layer {
  name: "inception_4a/1x1"
  type: "Convolution"
  bottom: "pool3/3x3_s2"
  top: "inception_4a/1x1"
  param {
    lr_mult: 1
    decay_mult: 1
  }
  param {
    lr_mult: 2
    decay_mult: 0
  }
  convolution_param {
    num_output: 192
    kernel_size: 1
    weight_filler {
      type: "xavier"
      std: 0.03
    }
    bias_filler {
      type: "constant"
      value: 0.2
    }
  }
}
layer {
  name: "inception_4a/relu_1x1"
  type: "ReLU"
  bottom: "inception_4a/1x1"
  top: "inception_4a/1x1"
}
layer {
  name: "inception_4a/3x3_reduce"
  type: "Convolution"
  bottom: "pool3/3x3_s2"
  top: "inception_4a/3x3_reduce"
  param {
    lr_mult: 1
    decay_mult: 1
  }
  param {
    lr_mult: 2
    decay_mult: 0
  }
  convolution_param {
    num_output: 96
    kernel_size: 1
    weight_filler {
      type: "xavier"
      std: 0.09
    }
    bias_filler {
      type: "constant"
      value: 0.2
    }
  }
}
layer {
  name: "inception_4a/relu_3x3_reduce"
  type: "ReLU"
  bottom: "inception_4a/3x3_reduce"
  top: "inception_4a/3x3_reduce"
}
layer {
  name: "inception_4a/3x3"
  type: "Convolution"
  bottom: "inception_4a/3x3_reduce"
  top: "inception_4a/3x3"
  param {
    lr_mult: 1
    decay_mult: 1
  }
  param {
    lr_mult: 2
    decay_mult: 0
  }
  convolution_param {
    num_output: 208
    pad: 1
    kernel_size: 3
    weight_filler {
      type: "xavier"
      std: 0.03
    }
    bias_filler {
      type: "constant"
      value: 0.2
    }
  }
}
layer {
  name: "inception_4a/relu_3x3"
  type: "ReLU"
  bottom: "inception_4a/3x3"
  top: "inception_4a/3x3"
}
layer {
  name: "inception_4a/5x5_reduce"
  type: "Convolution"
  bottom: "pool3/3x3_s2"
  top: "inception_4a/5x5_reduce"
  param {
    lr_mult: 1
    decay_mult: 1
  }
  param {
    lr_mult: 2
    decay_mult: 0
  }
  convolution_param {
    num_output: 16
    kernel_size: 1
    weight_filler {
      type: "xavier"
      std: 0.2
    }
    bias_filler {
      type: "constant"
      value: 0.2
    }
  }
}
layer {
  name: "inception_4a/relu_5x5_reduce"
  type: "ReLU"
  bottom: "inception_4a/5x5_reduce"
  top: "inception_4a/5x5_reduce"
}
layer {
  name: "inception_4a/5x5"
  type: "Convolution"
  bottom: "inception_4a/5x5_reduce"
  top: "inception_4a/5x5"
  param {
    lr_mult: 1
    decay_mult: 1
  }
  param {
    lr_mult: 2
    decay_mult: 0
  }
  convolution_param {
    num_output: 48
    pad: 2
    kernel_size: 5
    weight_filler {
      type: "xavier"
      std: 0.03
    }
    bias_filler {
      type: "constant"
      value: 0.2
    }
  }
}
layer {
  name: "inception_4a/relu_5x5"
  type: "ReLU"
  bottom: "inception_4a/5x5"
  top: "inception_4a/5x5"
}
layer {
  name: "inception_4a/pool"
  type: "Pooling"
  bottom: "pool3/3x3_s2"
  top: "inception_4a/pool"
  pooling_param {
    pool: MAX
    kernel_size: 3
    stride: 1
    pad: 1
  }
}
layer {
  name: "inception_4a/pool_proj"
  type: "Convolution"
  bottom: "inception_4a/pool"
  top: "inception_4a/pool_proj"
  param {
    lr_mult: 1
    decay_mult: 1
  }
  param {
    lr_mult: 2
    decay_mult: 0
  }
  convolution_param {
    num_output: 64
    kernel_size: 1
    weight_filler {
      type: "xavier"
      std: 0.1
    }
    bias_filler {
      type: "constant"
      value: 0.2
    }
  }
}
layer {
  name: "inception_4a/relu_pool_proj"
  type: "ReLU"
  bottom: "inception_4a/pool_proj"
  top: "inception_4a/pool_proj"
}
layer {
  name: "inception_4a/output"
  type: "Concat"
  bottom: "inception_4a/1x1"
  bottom: "inception_4a/3x3"
  bottom: "inception_4a/5x5"
  bottom: "inception_4a/pool_proj"
  top: "inception_4a/output"
}
layer {
  name: "loss1/ave_pool"
  type: "Pooling"
  bottom: "inception_4a/output"
  top: "loss1/ave_pool"
  pooling_param {
    pool: AVE
    kernel_size: 5
    stride: 3
  }
}
layer {
  name: "loss1/conv"
  type: "Convolution"
  bottom: "loss1/ave_pool"
  top: "loss1/conv"
  param {
    lr_mult: 1
    decay_mult: 1
  }
  param {
    lr_mult: 2
    decay_mult: 0
  }
  convolution_param {
    num_output: 128
    kernel_size: 1
    weight_filler {
      type: "xavier"
      std: 0.08
    }
    bias_filler {
      type: "constant"
      value: 0.2
    }
  }
}
layer {
  name: "loss1/relu_conv"
  type: "ReLU"
  bottom: "loss1/conv"
  top: "loss1/conv"
}
layer {
  name: "loss1/fc"
  type: "InnerProduct"
  bottom: "loss1/conv"
  top: "loss1/fc"
  param {
    lr_mult: 1
    decay_mult: 1
  }
  param {
    lr_mult: 2
    decay_mult: 0
  }
  inner_product_param {
    num_output: 1024
    weight_filler {
      type: "xavier"
      std: 0.02
    }
    bias_filler {
      type: "constant"
      value: 0.2
    }
  }
}
layer {
  name: "loss1/relu_fc"
  type: "ReLU"
  bottom: "loss1/fc"
  top: "loss1/fc"
}
layer {
  name: "loss1/drop_fc"
  type: "Dropout"
  bottom: "loss1/fc"
  top: "loss1/fc"
  dropout_param {
    dropout_ratio: 0.7
  }
}
layer {
  name: "loss1/classifier"
  type: "InnerProduct"
  bottom: "loss1/fc"
  top: "loss1/classifier"
  param {
    lr_mult: 1
    decay_mult: 1
  }
  param {
    lr_mult: 2
    decay_mult: 0
  }
  inner_product_param {
    num_output: 1000
    weight_filler {
      type: "xavier"
      std: 0.0009765625
    }
    bias_filler {
      type: "constant"
      value: 0
    }
  }
}
layer {
  name: "loss1/loss"
  type: "SoftmaxWithLoss"
  bottom: "loss1/classifier"
  bottom: "label"
  top: "loss1/loss1"
  loss_weight: 0.3
}
layer {
  name: "inception_4b/1x1"
  type: "Convolution"
  bottom: "inception_4a/output"
  top: "inception_4b/1x1"
  param {
    lr_mult: 1
    decay_mult: 1
  }
  param {
    lr_mult: 2
    decay_mult: 0
  }
  convolution_param {
    num_output: 160
    kernel_size: 1
    weight_filler {
      type: "xavier"
      std: 0.03
    }
    bias_filler {
      type: "constant"
      value: 0.2
    }
  }
}
layer {
  name: "inception_4b/relu_1x1"
  type: "ReLU"
  bottom: "inception_4b/1x1"
  top: "inception_4b/1x1"
}
layer {
  name: "inception_4b/3x3_reduce"
  type: "Convolution"
  bottom: "inception_4a/output"
  top: "inception_4b/3x3_reduce"
  param {
    lr_mult: 1
    decay_mult: 1
  }
  param {
    lr_mult: 2
    decay_mult: 0
  }
  convolution_param {
    num_output: 112
    kernel_size: 1
    weight_filler {
      type: "xavier"
      std: 0.09
    }
    bias_filler {
      type: "constant"
      value: 0.2
    }
  }
}
layer {
  name: "inception_4b/relu_3x3_reduce"
  type: "ReLU"
  bottom: "inception_4b/3x3_reduce"
  top: "inception_4b/3x3_reduce"
}
layer {
  name: "inception_4b/3x3"
  type: "Convolution"
  bottom: "inception_4b/3x3_reduce"
  top: "inception_4b/3x3"
  param {
    lr_mult: 1
    decay_mult: 1
  }
  param {
    lr_mult: 2
    decay_mult: 0
  }
  convolution_param {
    num_output: 224
    pad: 1
    kernel_size: 3
    weight_filler {
      type: "xavier"
      std: 0.03
    }
    bias_filler {
      type: "constant"
      value: 0.2
    }
  }
}
layer {
  name: "inception_4b/relu_3x3"
  type: "ReLU"
  bottom: "inception_4b/3x3"
  top: "inception_4b/3x3"
}
layer {
  name: "inception_4b/5x5_reduce"
  type: "Convolution"
  bottom: "inception_4a/output"
  top: "inception_4b/5x5_reduce"
  param {
    lr_mult: 1
    decay_mult: 1
  }
  param {
    lr_mult: 2
    decay_mult: 0
  }
  convolution_param {
    num_output: 24
    kernel_size: 1
    weight_filler {
      type: "xavier"
      std: 0.2
    }
    bias_filler {
      type: "constant"
      value: 0.2
    }
  }
}
layer {
  name: "inception_4b/relu_5x5_reduce"
  type: "ReLU"
  bottom: "inception_4b/5x5_reduce"
  top: "inception_4b/5x5_reduce"
}
layer {
  name: "inception_4b/5x5"
  type: "Convolution"
  bottom: "inception_4b/5x5_reduce"
  top: "inception_4b/5x5"
  param {
    lr_mult: 1
    decay_mult: 1
  }
  param {
    lr_mult: 2
    decay_mult: 0
  }
  convolution_param {
    num_output: 64
    pad: 2
    kernel_size: 5
    weight_filler {
      type: "xavier"
      std: 0.03
    }
    bias_filler {
      type: "constant"
      value: 0.2
    }
  }
}
layer {
  name: "inception_4b/relu_5x5"
  type: "ReLU"
  bottom: "inception_4b/5x5"
  top: "inception_4b/5x5"
}
layer {
  name: "inception_4b/pool"
  type: "Pooling"
  bottom: "inception_4a/output"
  top: "inception_4b/pool"
  pooling_param {
    pool: MAX
    kernel_size: 3
    stride: 1
    pad: 1
  }
}
layer {
  name: "inception_4b/pool_proj"
  type: "Convolution"
  bottom: "inception_4b/pool"
  top: "inception_4b/pool_proj"
  param {
    lr_mult: 1
    decay_mult: 1
  }
  param {
    lr_mult: 2
    decay_mult: 0
  }
  convolution_param {
    num_output: 64
    kernel_size: 1
    weight_filler {
      type: "xavier"
      std: 0.1
    }
    bias_filler {
      type: "constant"
      value: 0.2
    }
  }
}
layer {
  name: "inception_4b/relu_pool_proj"
  type: "ReLU"
  bottom: "inception_4b/pool_proj"
  top: "inception_4b/pool_proj"
}
layer {
  name: "inception_4b/output"
  type: "Concat"
  bottom: "inception_4b/1x1"
  bottom: "inception_4b/3x3"
  bottom: "inception_4b/5x5"
  bottom: "inception_4b/pool_proj"
  top: "inception_4b/output"
}
layer {
  name: "inception_4c/1x1"
  type: "Convolution"
  bottom: "inception_4b/output"
  top: "inception_4c/1x1"
  param {
    lr_mult: 1
    decay_mult: 1
  }
  param {
    lr_mult: 2
    decay_mult: 0
  }
  convolution_param {
    num_output: 128
    kernel_size: 1
    weight_filler {
      type: "xavier"
      std: 0.03
    }
    bias_filler {
      type: "constant"
      value: 0.2
    }
  }
}
layer {
  name: "inception_4c/relu_1x1"
  type: "ReLU"
  bottom: "inception_4c/1x1"
  top: "inception_4c/1x1"
}
layer {
  name: "inception_4c/3x3_reduce"
  type: "Convolution"
  bottom: "inception_4b/output"
  top: "inception_4c/3x3_reduce"
  param {
    lr_mult: 1
    decay_mult: 1
  }
  param {
    lr_mult: 2
    decay_mult: 0
  }
  convolution_param {
    num_output: 128
    kernel_size: 1
    weight_filler {
      type: "xavier"
      std: 0.09
    }
    bias_filler {
      type: "constant"
      value: 0.2
    }
  }
}
layer {
  name: "inception_4c/relu_3x3_reduce"
  type: "ReLU"
  bottom: "inception_4c/3x3_reduce"
  top: "inception_4c/3x3_reduce"
}
layer {
  name: "inception_4c/3x3"
  type: "Convolution"
  bottom: "inception_4c/3x3_reduce"
  top: "inception_4c/3x3"
  param {
    lr_mult: 1
    decay_mult: 1
  }
  param {
    lr_mult: 2
    decay_mult: 0
  }
  convolution_param {
    num_output: 256
    pad: 1
    kernel_size: 3
    weight_filler {
      type: "xavier"
      std: 0.03
    }
    bias_filler {
      type: "constant"
      value: 0.2
    }
  }
}
layer {
  name: "inception_4c/relu_3x3"
  type: "ReLU"
  bottom: "inception_4c/3x3"
  top: "inception_4c/3x3"
}
layer {
  name: "inception_4c/5x5_reduce"
  type: "Convolution"
  bottom: "inception_4b/output"
  top: "inception_4c/5x5_reduce"
  param {
    lr_mult: 1
    decay_mult: 1
  }
  param {
    lr_mult: 2
    decay_mult: 0
  }
  convolution_param {
    num_output: 24
    kernel_size: 1
    weight_filler {
      type: "xavier"
      std: 0.2
    }
    bias_filler {
      type: "constant"
      value: 0.2
    }
  }
}
layer {
  name: "inception_4c/relu_5x5_reduce"
  type: "ReLU"
  bottom: "inception_4c/5x5_reduce"
  top: "inception_4c/5x5_reduce"
}
layer {
  name: "inception_4c/5x5"
  type: "Convolution"
  bottom: "inception_4c/5x5_reduce"
  top: "inception_4c/5x5"
  param {
    lr_mult: 1
    decay_mult: 1
  }
  param {
    lr_mult: 2
    decay_mult: 0
  }
  convolution_param {
    num_output: 64
    pad: 2
    kernel_size: 5
    weight_filler {
      type: "xavier"
      std: 0.03
    }
    bias_filler {
      type: "constant"
      value: 0.2
    }
  }
}
layer {
  name: "inception_4c/relu_5x5"
  type: "ReLU"
  bottom: "inception_4c/5x5"
  top: "inception_4c/5x5"
}
layer {
  name: "inception_4c/pool"
  type: "Pooling"
  bottom: "inception_4b/output"
  top: "inception_4c/pool"
  pooling_param {
    pool: MAX
    kernel_size: 3
    stride: 1
    pad: 1
  }
}
layer {
  name: "inception_4c/pool_proj"
  type: "Convolution"
  bottom: "inception_4c/pool"
  top: "inception_4c/pool_proj"
  param {
    lr_mult: 1
    decay_mult: 1
  }
  param {
    lr_mult: 2
    decay_mult: 0
  }
  convolution_param {
    num_output: 64
    kernel_size: 1
    weight_filler {
      type: "xavier"
      std: 0.1
    }
    bias_filler {
      type: "constant"
      value: 0.2
    }
  }
}
layer {
  name: "inception_4c/relu_pool_proj"
  type: "ReLU"
  bottom: "inception_4c/pool_proj"
  top: "inception_4c/pool_proj"
}
layer {
  name: "inception_4c/output"
  type: "Concat"
  bottom: "inception_4c/1x1"
  bottom: "inception_4c/3x3"
  bottom: "inception_4c/5x5"
  bottom: "inception_4c/pool_proj"
  top: "inception_4c/output"
}
layer {
  name: "inception_4d/1x1"
  type: "Convolution"
  bottom: "inception_4c/output"
  top: "inception_4d/1x1"
  param {
    lr_mult: 1
    decay_mult: 1
  }
  param {
    lr_mult: 2
    decay_mult: 0
  }
  convolution_param {
    num_output: 112
    kernel_size: 1
    weight_filler {
      type: "xavier"
      std: 0.03
    }
    bias_filler {
      type: "constant"
      value: 0.2
    }
  }
}
layer {
  name: "inception_4d/relu_1x1"
  type: "ReLU"
  bottom: "inception_4d/1x1"
  top: "inception_4d/1x1"
}
layer {
  name: "inception_4d/3x3_reduce"
  type: "Convolution"
  bottom: "inception_4c/output"
  top: "inception_4d/3x3_reduce"
  param {
    lr_mult: 1
    decay_mult: 1
  }
  param {
    lr_mult: 2
    decay_mult: 0
  }
  convolution_param {
    num_output: 144
    kernel_size: 1
    weight_filler {
      type: "xavier"
      std: 0.09
    }
    bias_filler {
      type: "constant"
      value: 0.2
    }
  }
}
layer {
  name: "inception_4d/relu_3x3_reduce"
  type: "ReLU"
  bottom: "inception_4d/3x3_reduce"
  top: "inception_4d/3x3_reduce"
}
layer {
  name: "inception_4d/3x3"
  type: "Convolution"
  bottom: "inception_4d/3x3_reduce"
  top: "inception_4d/3x3"
  param {
    lr_mult: 1
    decay_mult: 1
  }
  param {
    lr_mult: 2
    decay_mult: 0
  }
  convolution_param {
    num_output: 288
    pad: 1
    kernel_size: 3
    weight_filler {
      type: "xavier"
      std: 0.03
    }
    bias_filler {
      type: "constant"
      value: 0.2
    }
  }
}
layer {
  name: "inception_4d/relu_3x3"
  type: "ReLU"
  bottom: "inception_4d/3x3"
  top: "inception_4d/3x3"
}
layer {
  name: "inception_4d/5x5_reduce"
  type: "Convolution"
  bottom: "inception_4c/output"
  top: "inception_4d/5x5_reduce"
  param {
    lr_mult: 1
    decay_mult: 1
  }
  param {
    lr_mult: 2
    decay_mult: 0
  }
  convolution_param {
    num_output: 32
    kernel_size: 1
    weight_filler {
      type: "xavier"
      std: 0.2
    }
    bias_filler {
      type: "constant"
      value: 0.2
    }
  }
}
layer {
  name: "inception_4d/relu_5x5_reduce"
  type: "ReLU"
  bottom: "inception_4d/5x5_reduce"
  top: "inception_4d/5x5_reduce"
}
layer {
  name: "inception_4d/5x5"
  type: "Convolution"
  bottom: "inception_4d/5x5_reduce"
  top: "inception_4d/5x5"
  param {
    lr_mult: 1
    decay_mult: 1
  }
  param {
    lr_mult: 2
    decay_mult: 0
  }
  convolution_param {
    num_output: 64
    pad: 2
    kernel_size: 5
    weight_filler {
      type: "xavier"
      std: 0.03
    }
    bias_filler {
      type: "constant"
      value: 0.2
    }
  }
}
layer {
  name: "inception_4d/relu_5x5"
  type: "ReLU"
  bottom: "inception_4d/5x5"
  top: "inception_4d/5x5"
}
layer {
  name: "inception_4d/pool"
  type: "Pooling"
  bottom: "inception_4c/output"
  top: "inception_4d/pool"
  pooling_param {
    pool: MAX
    kernel_size: 3
    stride: 1
    pad: 1
  }
}
layer {
  name: "inception_4d/pool_proj"
  type: "Convolution"
  bottom: "inception_4d/pool"
  top: "inception_4d/pool_proj"
  param {
    lr_mult: 1
    decay_mult: 1
  }
  param {
    lr_mult: 2
    decay_mult: 0
  }
  convolution_param {
    num_output: 64
    kernel_size: 1
    weight_filler {
      type: "xavier"
      std: 0.1
    }
    bias_filler {
      type: "constant"
      value: 0.2
    }
  }
}
layer {
  name: "inception_4d/relu_pool_proj"
  type: "ReLU"
  bottom: "inception_4d/pool_proj"
  top: "inception_4d/pool_proj"
}
layer {
  name: "inception_4d/output"
  type: "Concat"
  bottom: "inception_4d/1x1"
  bottom: "inception_4d/3x3"
  bottom: "inception_4d/5x5"
  bottom: "inception_4d/pool_proj"
  top: "inception_4d/output"
}
layer {
  name: "loss2/ave_pool"
  type: "Pooling"
  bottom: "inception_4d/output"
  top: "loss2/ave_pool"
  pooling_param {
    pool: AVE
    kernel_size: 5
    stride: 3
  }
}
layer {
  name: "loss2/conv"
  type: "Convolution"
  bottom: "loss2/ave_pool"
  top: "loss2/conv"
  param {
    lr_mult: 1
    decay_mult: 1
  }
  param {
    lr_mult: 2
    decay_mult: 0
  }
  convolution_param {
    num_output: 128
    kernel_size: 1
    weight_filler {
      type: "xavier"
      std: 0.08
    }
    bias_filler {
      type: "constant"
      value: 0.2
    }
  }
}
layer {
  name: "loss2/relu_conv"
  type: "ReLU"
  bottom: "loss2/conv"
  top: "loss2/conv"
}
layer {
  name: "loss2/fc"
  type: "InnerProduct"
  bottom: "loss2/conv"
  top: "loss2/fc"
  param {
    lr_mult: 1
    decay_mult: 1
  }
  param {
    lr_mult: 2
    decay_mult: 0
  }
  inner_product_param {
    num_output: 1024
    weight_filler {
      type: "xavier"
      std: 0.02
    }
    bias_filler {
      type: "constant"
      value: 0.2
    }
  }
}
layer {
  name: "loss2/relu_fc"
  type: "ReLU"
  bottom: "loss2/fc"
  top: "loss2/fc"
}
layer {
  name: "loss2/drop_fc"
  type: "Dropout"
  bottom: "loss2/fc"
  top: "loss2/fc"
  dropout_param {
    dropout_ratio: 0.7
  }
}
layer {
  name: "loss2/classifier"
  type: "InnerProduct"
  bottom: "loss2/fc"
  top: "loss2/classifier"
  param {
    lr_mult: 1
    decay_mult: 1
  }
  param {
    lr_mult: 2
    decay_mult: 0
  }
  inner_product_param {
    num_output: 1000
    weight_filler {
      type: "xavier"
      std: 0.0009765625
    }
    bias_filler {
      type: "constant"
      value: 0
    }
  }
}
layer {
  name: "loss2/loss"
  type: "SoftmaxWithLoss"
  bottom: "loss2/classifier"
  bottom: "label"
  top: "loss2/loss1"
  loss_weight: 0.3
}
layer {
  name: "inception_4e/1x1"
  type: "Convolution"
  bottom: "inception_4d/output"
  top: "inception_4e/1x1"
  param {
    lr_mult: 1
    decay_mult: 1
  }
  param {
    lr_mult: 2
    decay_mult: 0
  }
  convolution_param {
    num_output: 256
    kernel_size: 1
    weight_filler {
      type: "xavier"
      std: 0.03
    }
    bias_filler {
      type: "constant"
      value: 0.2
    }
  }
}
layer {
  name: "inception_4e/relu_1x1"
  type: "ReLU"
  bottom: "inception_4e/1x1"
  top: "inception_4e/1x1"
}
layer {
  name: "inception_4e/3x3_reduce"
  type: "Convolution"
  bottom: "inception_4d/output"
  top: "inception_4e/3x3_reduce"
  param {
    lr_mult: 1
    decay_mult: 1
  }
  param {
    lr_mult: 2
    decay_mult: 0
  }
  convolution_param {
    num_output: 160
    kernel_size: 1
    weight_filler {
      type: "xavier"
      std: 0.09
    }
    bias_filler {
      type: "constant"
      value: 0.2
    }
  }
}
layer {
  name: "inception_4e/relu_3x3_reduce"
  type: "ReLU"
  bottom: "inception_4e/3x3_reduce"
  top: "inception_4e/3x3_reduce"
}
layer {
  name: "inception_4e/3x3"
  type: "Convolution"
  bottom: "inception_4e/3x3_reduce"
  top: "inception_4e/3x3"
  param {
    lr_mult: 1
    decay_mult: 1
  }
  param {
    lr_mult: 2
    decay_mult: 0
  }
  convolution_param {
    num_output: 320
    pad: 1
    kernel_size: 3
    weight_filler {
      type: "xavier"
      std: 0.03
    }
    bias_filler {
      type: "constant"
      value: 0.2
    }
  }
}
layer {
  name: "inception_4e/relu_3x3"
  type: "ReLU"
  bottom: "inception_4e/3x3"
  top: "inception_4e/3x3"
}
layer {
  name: "inception_4e/5x5_reduce"
  type: "Convolution"
  bottom: "inception_4d/output"
  top: "inception_4e/5x5_reduce"
  param {
    lr_mult: 1
    decay_mult: 1
  }
  param {
    lr_mult: 2
    decay_mult: 0
  }
  convolution_param {
    num_output: 32
    kernel_size: 1
    weight_filler {
      type: "xavier"
      std: 0.2
    }
    bias_filler {
      type: "constant"
      value
I0616 19:48:59.115586 42478 layer_factory.hpp:77] Creating layer data
I0616 19:48:59.115661 42478 net.cpp:106] Creating Layer data
I0616 19:48:59.115689 42478 net.cpp:411] data -> data
I0616 19:48:59.115736 42478 net.cpp:411] data -> label
I0616 19:48:59.116216 42478 image_data_layer.cpp:38] Opening file foodCAT_SR_balanced/train.txt
I0616 19:48:59.156510 42478 image_data_layer.cpp:48] Shuffling data
I0616 19:48:59.161223 42478 image_data_layer.cpp:53] A total of 73085 images.
I0616 19:48:59.560044 42478 image_data_layer.cpp:80] output data size: 64,3,224,224
I0616 19:48:59.621701 42478 net.cpp:150] Setting up data
I0616 19:48:59.621812 42478 net.cpp:157] Top shape: 64 3 224 224 (9633792)
I0616 19:48:59.621835 42478 net.cpp:157] Top shape: 64 (64)
I0616 19:48:59.621851 42478 net.cpp:165] Memory required for data: 38535424
I0616 19:48:59.621872 42478 layer_factory.hpp:77] Creating layer label_data_1_split
I0616 19:48:59.621897 42478 net.cpp:106] Creating Layer label_data_1_split
I0616 19:48:59.621917 42478 net.cpp:454] label_data_1_split <- label
I0616 19:48:59.621954 42478 net.cpp:411] label_data_1_split -> label_data_1_split_0
I0616 19:48:59.621980 42478 net.cpp:411] label_data_1_split -> label_data_1_split_1
I0616 19:48:59.622000 42478 net.cpp:411] label_data_1_split -> label_data_1_split_2
I0616 19:48:59.622135 42478 net.cpp:150] Setting up label_data_1_split
I0616 19:48:59.622161 42478 net.cpp:157] Top shape: 64 (64)
I0616 19:48:59.622177 42478 net.cpp:157] Top shape: 64 (64)
I0616 19:48:59.622195 42478 net.cpp:157] Top shape: 64 (64)
I0616 19:48:59.622208 42478 net.cpp:165] Memory required for data: 38536192
I0616 19:48:59.622223 42478 layer_factory.hpp:77] Creating layer conv1/7x7_s2
I0616 19:48:59.622254 42478 net.cpp:106] Creating Layer conv1/7x7_s2
I0616 19:48:59.622273 42478 net.cpp:454] conv1/7x7_s2 <- data
I0616 19:48:59.622292 42478 net.cpp:411] conv1/7x7_s2 -> conv1/7x7_s2
I0616 19:48:59.766898 42478 net.cpp:150] Setting up conv1/7x7_s2
I0616 19:48:59.766984 42478 net.cpp:157] Top shape: 64 64 112 112 (51380224)
I0616 19:48:59.767033 42478 net.cpp:165] Memory required for data: 244057088
I0616 19:48:59.767077 42478 layer_factory.hpp:77] Creating layer conv1/relu_7x7
I0616 19:48:59.767139 42478 net.cpp:106] Creating Layer conv1/relu_7x7
I0616 19:48:59.767161 42478 net.cpp:454] conv1/relu_7x7 <- conv1/7x7_s2
I0616 19:48:59.767191 42478 net.cpp:397] conv1/relu_7x7 -> conv1/7x7_s2 (in-place)
I0616 19:48:59.767432 42478 net.cpp:150] Setting up conv1/relu_7x7
I0616 19:48:59.767483 42478 net.cpp:157] Top shape: 64 64 112 112 (51380224)
I0616 19:48:59.767503 42478 net.cpp:165] Memory required for data: 449577984
I0616 19:48:59.767519 42478 layer_factory.hpp:77] Creating layer pool1/3x3_s2
I0616 19:48:59.767554 42478 net.cpp:106] Creating Layer pool1/3x3_s2
I0616 19:48:59.767583 42478 net.cpp:454] pool1/3x3_s2 <- conv1/7x7_s2
I0616 19:48:59.767616 42478 net.cpp:411] pool1/3x3_s2 -> pool1/3x3_s2
I0616 19:48:59.767711 42478 net.cpp:150] Setting up pool1/3x3_s2
I0616 19:48:59.767740 42478 net.cpp:157] Top shape: 64 64 56 56 (12845056)
I0616 19:48:59.767756 42478 net.cpp:165] Memory required for data: 500958208
I0616 19:48:59.767773 42478 layer_factory.hpp:77] Creating layer pool1/norm1
I0616 19:48:59.767843 42478 net.cpp:106] Creating Layer pool1/norm1
I0616 19:48:59.767864 42478 net.cpp:454] pool1/norm1 <- pool1/3x3_s2
I0616 19:48:59.767884 42478 net.cpp:411] pool1/norm1 -> pool1/norm1
I0616 19:48:59.768245 42478 net.cpp:150] Setting up pool1/norm1
I0616 19:48:59.768286 42478 net.cpp:157] Top shape: 64 64 56 56 (12845056)
I0616 19:48:59.768316 42478 net.cpp:165] Memory required for data: 552338432
I0616 19:48:59.768332 42478 layer_factory.hpp:77] Creating layer conv2/3x3_reduce
I0616 19:48:59.768357 42478 net.cpp:106] Creating Layer conv2/3x3_reduce
I0616 19:48:59.768375 42478 net.cpp:454] conv2/3x3_reduce <- pool1/norm1
I0616 19:48:59.768417 42478 net.cpp:411] conv2/3x3_reduce -> conv2/3x3_reduce
I0616 19:48:59.769835 42478 net.cpp:150] Setting up conv2/3x3_reduce
I0616 19:48:59.769876 42478 net.cpp:157] Top shape: 64 64 56 56 (12845056)
I0616 19:48:59.769897 42478 net.cpp:165] Memory required for data: 603718656
I0616 19:48:59.769922 42478 layer_factory.hpp:77] Creating layer conv2/relu_3x3_reduce
I0616 19:48:59.769943 42478 net.cpp:106] Creating Layer conv2/relu_3x3_reduce
I0616 19:48:59.769963 42478 net.cpp:454] conv2/relu_3x3_reduce <- conv2/3x3_reduce
I0616 19:48:59.769981 42478 net.cpp:397] conv2/relu_3x3_reduce -> conv2/3x3_reduce (in-place)
I0616 19:48:59.770150 42478 net.cpp:150] Setting up conv2/relu_3x3_reduce
I0616 19:48:59.770181 42478 net.cpp:157] Top shape: 64 64 56 56 (12845056)
I0616 19:48:59.770198 42478 net.cpp:165] Memory required for data: 655098880
I0616 19:48:59.770215 42478 layer_factory.hpp:77] Creating layer conv2/3x3
I0616 19:48:59.770238 42478 net.cpp:106] Creating Layer conv2/3x3
I0616 19:48:59.770258 42478 net.cpp:454] conv2/3x3 <- conv2/3x3_reduce
I0616 19:48:59.770277 42478 net.cpp:411] conv2/3x3 -> conv2/3x3
I0616 19:48:59.773347 42478 net.cpp:150] Setting up conv2/3x3
I0616 19:48:59.773401 42478 net.cpp:157] Top shape: 64 192 56 56 (38535168)
I0616 19:48:59.773422 42478 net.cpp:165] Memory required for data: 809239552
I0616 19:48:59.773444 42478 layer_factory.hpp:77] Creating layer conv2/relu_3x3
I0616 19:48:59.773478 42478 net.cpp:106] Creating Layer conv2/relu_3x3
I0616 19:48:59.773546 42478 net.cpp:454] conv2/relu_3x3 <- conv2/3x3
I0616 19:48:59.773567 42478 net.cpp:397] conv2/relu_3x3 -> conv2/3x3 (in-place)
I0616 19:48:59.773893 42478 net.cpp:150] Setting up conv2/relu_3x3
I0616 19:48:59.773931 42478 net.cpp:157] Top shape: 64 192 56 56 (38535168)
I0616 19:48:59.773950 42478 net.cpp:165] Memory required for data: 963380224
I0616 19:48:59.773969 42478 layer_factory.hpp:77] Creating layer conv2/norm2
I0616 19:48:59.773991 42478 net.cpp:106] Creating Layer conv2/norm2
I0616 19:48:59.774015 42478 net.cpp:454] conv2/norm2 <- conv2/3x3
I0616 19:48:59.774039 42478 net.cpp:411] conv2/norm2 -> conv2/norm2
I0616 19:48:59.774233 42478 net.cpp:150] Setting up conv2/norm2
I0616 19:48:59.774266 42478 net.cpp:157] Top shape: 64 192 56 56 (38535168)
I0616 19:48:59.774283 42478 net.cpp:165] Memory required for data: 1117520896
I0616 19:48:59.774301 42478 layer_factory.hpp:77] Creating layer pool2/3x3_s2
I0616 19:48:59.774319 42478 net.cpp:106] Creating Layer pool2/3x3_s2
I0616 19:48:59.774336 42478 net.cpp:454] pool2/3x3_s2 <- conv2/norm2
I0616 19:48:59.774355 42478 net.cpp:411] pool2/3x3_s2 -> pool2/3x3_s2
I0616 19:48:59.774402 42478 net.cpp:150] Setting up pool2/3x3_s2
I0616 19:48:59.774426 42478 net.cpp:157] Top shape: 64 192 28 28 (9633792)
I0616 19:48:59.774443 42478 net.cpp:165] Memory required for data: 1156056064
I0616 19:48:59.774459 42478 layer_factory.hpp:77] Creating layer pool2/3x3_s2_pool2/3x3_s2_0_split
I0616 19:48:59.774478 42478 net.cpp:106] Creating Layer pool2/3x3_s2_pool2/3x3_s2_0_split
I0616 19:48:59.774495 42478 net.cpp:454] pool2/3x3_s2_pool2/3x3_s2_0_split <- pool2/3x3_s2
I0616 19:48:59.774513 42478 net.cpp:411] pool2/3x3_s2_pool2/3x3_s2_0_split -> pool2/3x3_s2_pool2/3x3_s2_0_split_0
I0616 19:48:59.774533 42478 net.cpp:411] pool2/3x3_s2_pool2/3x3_s2_0_split -> pool2/3x3_s2_pool2/3x3_s2_0_split_1
I0616 19:48:59.774554 42478 net.cpp:411] pool2/3x3_s2_pool2/3x3_s2_0_split -> pool2/3x3_s2_pool2/3x3_s2_0_split_2
I0616 19:48:59.774574 42478 net.cpp:411] pool2/3x3_s2_pool2/3x3_s2_0_split -> pool2/3x3_s2_pool2/3x3_s2_0_split_3
I0616 19:48:59.774634 42478 net.cpp:150] Setting up pool2/3x3_s2_pool2/3x3_s2_0_split
I0616 19:48:59.774657 42478 net.cpp:157] Top shape: 64 192 28 28 (9633792)
I0616 19:48:59.774674 42478 net.cpp:157] Top shape: 64 192 28 28 (9633792)
I0616 19:48:59.774691 42478 net.cpp:157] Top shape: 64 192 28 28 (9633792)
I0616 19:48:59.774708 42478 net.cpp:157] Top shape: 64 192 28 28 (9633792)
I0616 19:48:59.774724 42478 net.cpp:165] Memory required for data: 1310196736
I0616 19:48:59.774739 42478 layer_factory.hpp:77] Creating layer inception_3a/1x1
I0616 19:48:59.774760 42478 net.cpp:106] Creating Layer inception_3a/1x1
I0616 19:48:59.774778 42478 net.cpp:454] inception_3a/1x1 <- pool2/3x3_s2_pool2/3x3_s2_0_split_0
I0616 19:48:59.774797 42478 net.cpp:411] inception_3a/1x1 -> inception_3a/1x1
I0616 19:48:59.776342 42478 net.cpp:150] Setting up inception_3a/1x1
I0616 19:48:59.776386 42478 net.cpp:157] Top shape: 64 64 28 28 (3211264)
I0616 19:48:59.776417 42478 net.cpp:165] Memory required for data: 1323041792
I0616 19:48:59.776439 42478 layer_factory.hpp:77] Creating layer inception_3a/relu_1x1
I0616 19:48:59.776460 42478 net.cpp:106] Creating Layer inception_3a/relu_1x1
I0616 19:48:59.776480 42478 net.cpp:454] inception_3a/relu_1x1 <- inception_3a/1x1
I0616 19:48:59.776500 42478 net.cpp:397] inception_3a/relu_1x1 -> inception_3a/1x1 (in-place)
I0616 19:48:59.776860 42478 net.cpp:150] Setting up inception_3a/relu_1x1
I0616 19:48:59.776896 42478 net.cpp:157] Top shape: 64 64 28 28 (3211264)
I0616 19:48:59.776916 42478 net.cpp:165] Memory required for data: 1335886848
I0616 19:48:59.776932 42478 layer_factory.hpp:77] Creating layer inception_3a/3x3_reduce
I0616 19:48:59.776968 42478 net.cpp:106] Creating Layer inception_3a/3x3_reduce
I0616 19:48:59.776988 42478 net.cpp:454] inception_3a/3x3_reduce <- pool2/3x3_s2_pool2/3x3_s2_0_split_1
I0616 19:48:59.777014 42478 net.cpp:411] inception_3a/3x3_reduce -> inception_3a/3x3_reduce
I0616 19:48:59.778600 42478 net.cpp:150] Setting up inception_3a/3x3_reduce
I0616 19:48:59.778655 42478 net.cpp:157] Top shape: 64 96 28 28 (4816896)
I0616 19:48:59.778676 42478 net.cpp:165] Memory required for data: 1355154432
I0616 19:48:59.778698 42478 layer_factory.hpp:77] Creating layer inception_3a/relu_3x3_reduce
I0616 19:48:59.778722 42478 net.cpp:106] Creating Layer inception_3a/relu_3x3_reduce
I0616 19:48:59.778740 42478 net.cpp:454] inception_3a/relu_3x3_reduce <- inception_3a/3x3_reduce
I0616 19:48:59.778761 42478 net.cpp:397] inception_3a/relu_3x3_reduce -> inception_3a/3x3_reduce (in-place)
I0616 19:48:59.779057 42478 net.cpp:150] Setting up inception_3a/relu_3x3_reduce
I0616 19:48:59.779093 42478 net.cpp:157] Top shape: 64 96 28 28 (4816896)
I0616 19:48:59.779110 42478 net.cpp:165] Memory required for data: 1374422016
I0616 19:48:59.779127 42478 layer_factory.hpp:77] Creating layer inception_3a/3x3
I0616 19:48:59.779153 42478 net.cpp:106] Creating Layer inception_3a/3x3
I0616 19:48:59.779173 42478 net.cpp:454] inception_3a/3x3 <- inception_3a/3x3_reduce
I0616 19:48:59.779196 42478 net.cpp:411] inception_3a/3x3 -> inception_3a/3x3
I0616 19:48:59.780772 42478 net.cpp:150] Setting up inception_3a/3x3
I0616 19:48:59.780823 42478 net.cpp:157] Top shape: 64 128 28 28 (6422528)
I0616 19:48:59.780843 42478 net.cpp:165] Memory required for data: 1400112128
I0616 19:48:59.780864 42478 layer_factory.hpp:77] Creating layer inception_3a/relu_3x3
I0616 19:48:59.780889 42478 net.cpp:106] Creating Layer inception_3a/relu_3x3
I0616 19:48:59.780908 42478 net.cpp:454] inception_3a/relu_3x3 <- inception_3a/3x3
I0616 19:48:59.780927 42478 net.cpp:397] inception_3a/relu_3x3 -> inception_3a/3x3 (in-place)
I0616 19:48:59.781116 42478 net.cpp:150] Setting up inception_3a/relu_3x3
I0616 19:48:59.781160 42478 net.cpp:157] Top shape: 64 128 28 28 (6422528)
I0616 19:48:59.781179 42478 net.cpp:165] Memory required for data: 1425802240
I0616 19:48:59.781196 42478 layer_factory.hpp:77] Creating layer inception_3a/5x5_reduce
I0616 19:48:59.781221 42478 net.cpp:106] Creating Layer inception_3a/5x5_reduce
I0616 19:48:59.781241 42478 net.cpp:454] inception_3a/5x5_reduce <- pool2/3x3_s2_pool2/3x3_s2_0_split_2
I0616 19:48:59.781262 42478 net.cpp:411] inception_3a/5x5_reduce -> inception_3a/5x5_reduce
I0616 19:48:59.782256 42478 net.cpp:150] Setting up inception_3a/5x5_reduce
I0616 19:48:59.782296 42478 net.cpp:157] Top shape: 64 16 28 28 (802816)
I0616 19:48:59.782315 42478 net.cpp:165] Memory required for data: 1429013504
I0616 19:48:59.782335 42478 layer_factory.hpp:77] Creating layer inception_3a/relu_5x5_reduce
I0616 19:48:59.782361 42478 net.cpp:106] Creating Layer inception_3a/relu_5x5_reduce
I0616 19:48:59.782380 42478 net.cpp:454] inception_3a/relu_5x5_reduce <- inception_3a/5x5_reduce
I0616 19:48:59.782399 42478 net.cpp:397] inception_3a/relu_5x5_reduce -> inception_3a/5x5_reduce (in-place)
I0616 19:48:59.782681 42478 net.cpp:150] Setting up inception_3a/relu_5x5_reduce
I0616 19:48:59.782716 42478 net.cpp:157] Top shape: 64 16 28 28 (802816)
I0616 19:48:59.782735 42478 net.cpp:165] Memory required for data: 1432224768
I0616 19:48:59.782752 42478 layer_factory.hpp:77] Creating layer inception_3a/5x5
I0616 19:48:59.782778 42478 net.cpp:106] Creating Layer inception_3a/5x5
I0616 19:48:59.782799 42478 net.cpp:454] inception_3a/5x5 <- inception_3a/5x5_reduce
I0616 19:48:59.782820 42478 net.cpp:411] inception_3a/5x5 -> inception_3a/5x5
I0616 19:48:59.783829 42478 net.cpp:150] Setting up inception_3a/5x5
I0616 19:48:59.783870 42478 net.cpp:157] Top shape: 64 32 28 28 (1605632)
I0616 19:48:59.783890 42478 net.cpp:165] Memory required for data: 1438647296
I0616 19:48:59.783910 42478 layer_factory.hpp:77] Creating layer inception_3a/relu_5x5
I0616 19:48:59.783931 42478 net.cpp:106] Creating Layer inception_3a/relu_5x5
I0616 19:48:59.783951 42478 net.cpp:454] inception_3a/relu_5x5 <- inception_3a/5x5
I0616 19:48:59.783969 42478 net.cpp:397] inception_3a/relu_5x5 -> inception_3a/5x5 (in-place)
I0616 19:48:59.784257 42478 net.cpp:150] Setting up inception_3a/relu_5x5
I0616 19:48:59.784303 42478 net.cpp:157] Top shape: 64 32 28 28 (1605632)
I0616 19:48:59.784334 42478 net.cpp:165] Memory required for data: 1445069824
I0616 19:48:59.784354 42478 layer_factory.hpp:77] Creating layer inception_3a/pool
I0616 19:48:59.784375 42478 net.cpp:106] Creating Layer inception_3a/pool
I0616 19:48:59.784394 42478 net.cpp:454] inception_3a/pool <- pool2/3x3_s2_pool2/3x3_s2_0_split_3
I0616 19:48:59.784415 42478 net.cpp:411] inception_3a/pool -> inception_3a/pool
I0616 19:48:59.784487 42478 net.cpp:150] Setting up inception_3a/pool
I0616 19:48:59.784514 42478 net.cpp:157] Top shape: 64 192 28 28 (9633792)
I0616 19:48:59.784531 42478 net.cpp:165] Memory required for data: 1483604992
I0616 19:48:59.784549 42478 layer_factory.hpp:77] Creating layer inception_3a/pool_proj
I0616 19:48:59.784582 42478 net.cpp:106] Creating Layer inception_3a/pool_proj
I0616 19:48:59.784600 42478 net.cpp:454] inception_3a/pool_proj <- inception_3a/pool
I0616 19:48:59.784624 42478 net.cpp:411] inception_3a/pool_proj -> inception_3a/pool_proj
I0616 19:48:59.785698 42478 net.cpp:150] Setting up inception_3a/pool_proj
I0616 19:48:59.785748 42478 net.cpp:157] Top shape: 64 32 28 28 (1605632)
I0616 19:48:59.785768 42478 net.cpp:165] Memory required for data: 1490027520
I0616 19:48:59.785805 42478 layer_factory.hpp:77] Creating layer inception_3a/relu_pool_proj
I0616 19:48:59.785830 42478 net.cpp:106] Creating Layer inception_3a/relu_pool_proj
I0616 19:48:59.785848 42478 net.cpp:454] inception_3a/relu_pool_proj <- inception_3a/pool_proj
I0616 19:48:59.785869 42478 net.cpp:397] inception_3a/relu_pool_proj -> inception_3a/pool_proj (in-place)
I0616 19:48:59.786087 42478 net.cpp:150] Setting up inception_3a/relu_pool_proj
I0616 19:48:59.786118 42478 net.cpp:157] Top shape: 64 32 28 28 (1605632)
I0616 19:48:59.786135 42478 net.cpp:165] Memory required for data: 1496450048
I0616 19:48:59.786152 42478 layer_factory.hpp:77] Creating layer inception_3a/output
I0616 19:48:59.786195 42478 net.cpp:106] Creating Layer inception_3a/output
I0616 19:48:59.786213 42478 net.cpp:454] inception_3a/output <- inception_3a/1x1
I0616 19:48:59.786231 42478 net.cpp:454] inception_3a/output <- inception_3a/3x3
I0616 19:48:59.786249 42478 net.cpp:454] inception_3a/output <- inception_3a/5x5
I0616 19:48:59.786267 42478 net.cpp:454] inception_3a/output <- inception_3a/pool_proj
I0616 19:48:59.786285 42478 net.cpp:411] inception_3a/output -> inception_3a/output
I0616 19:48:59.786340 42478 net.cpp:150] Setting up inception_3a/output
I0616 19:48:59.786380 42478 net.cpp:157] Top shape: 64 256 28 28 (12845056)
I0616 19:48:59.786397 42478 net.cpp:165] Memory required for data: 1547830272
I0616 19:48:59.786413 42478 layer_factory.hpp:77] Creating layer inception_3a/output_inception_3a/output_0_split
I0616 19:48:59.786442 42478 net.cpp:106] Creating Layer inception_3a/output_inception_3a/output_0_split
I0616 19:48:59.786460 42478 net.cpp:454] inception_3a/output_inception_3a/output_0_split <- inception_3a/output
I0616 19:48:59.786481 42478 net.cpp:411] inception_3a/output_inception_3a/output_0_split -> inception_3a/output_inception_3a/output_0_split_0
I0616 19:48:59.786504 42478 net.cpp:411] inception_3a/output_inception_3a/output_0_split -> inception_3a/output_inception_3a/output_0_split_1
I0616 19:48:59.786538 42478 net.cpp:411] inception_3a/output_inception_3a/output_0_split -> inception_3a/output_inception_3a/output_0_split_2
I0616 19:48:59.786569 42478 net.cpp:411] inception_3a/output_inception_3a/output_0_split -> inception_3a/output_inception_3a/output_0_split_3
I0616 19:48:59.786667 42478 net.cpp:150] Setting up inception_3a/output_inception_3a/output_0_split
I0616 19:48:59.786705 42478 net.cpp:157] Top shape: 64 256 28 28 (12845056)
I0616 19:48:59.786725 42478 net.cpp:157] Top shape: 64 256 28 28 (12845056)
I0616 19:48:59.786741 42478 net.cpp:157] Top shape: 64 256 28 28 (12845056)
I0616 19:48:59.786757 42478 net.cpp:157] Top shape: 64 256 28 28 (12845056)
I0616 19:48:59.786772 42478 net.cpp:165] Memory required for data: 1753351168
I0616 19:48:59.786803 42478 layer_factory.hpp:77] Creating layer inception_3b/1x1
I0616 19:48:59.786837 42478 net.cpp:106] Creating Layer inception_3b/1x1
I0616 19:48:59.786859 42478 net.cpp:454] inception_3b/1x1 <- inception_3a/output_inception_3a/output_0_split_0
I0616 19:48:59.786881 42478 net.cpp:411] inception_3b/1x1 -> inception_3b/1x1
I0616 19:48:59.787981 42478 net.cpp:150] Setting up inception_3b/1x1
I0616 19:48:59.788024 42478 net.cpp:157] Top shape: 64 128 28 28 (6422528)
I0616 19:48:59.788044 42478 net.cpp:165] Memory required for data: 1779041280
I0616 19:48:59.788065 42478 layer_factory.hpp:77] Creating layer inception_3b/relu_1x1
I0616 19:48:59.788086 42478 net.cpp:106] Creating Layer inception_3b/relu_1x1
I0616 19:48:59.788105 42478 net.cpp:454] inception_3b/relu_1x1 <- inception_3b/1x1
I0616 19:48:59.788126 42478 net.cpp:397] inception_3b/relu_1x1 -> inception_3b/1x1 (in-place)
I0616 19:48:59.788411 42478 net.cpp:150] Setting up inception_3b/relu_1x1
I0616 19:48:59.788446 42478 net.cpp:157] Top shape: 64 128 28 28 (6422528)
I0616 19:48:59.788465 42478 net.cpp:165] Memory required for data: 1804731392
I0616 19:48:59.788482 42478 layer_factory.hpp:77] Creating layer inception_3b/3x3_reduce
I0616 19:48:59.788508 42478 net.cpp:106] Creating Layer inception_3b/3x3_reduce
I0616 19:48:59.788528 42478 net.cpp:454] inception_3b/3x3_reduce <- inception_3a/output_inception_3a/output_0_split_1
I0616 19:48:59.788552 42478 net.cpp:411] inception_3b/3x3_reduce -> inception_3b/3x3_reduce
I0616 19:48:59.789544 42478 net.cpp:150] Setting up inception_3b/3x3_reduce
I0616 19:48:59.789580 42478 net.cpp:157] Top shape: 64 128 28 28 (6422528)
I0616 19:48:59.789599 42478 net.cpp:165] Memory required for data: 1830421504
I0616 19:48:59.789620 42478 layer_factory.hpp:77] Creating layer inception_3b/relu_3x3_reduce
I0616 19:48:59.789639 42478 net.cpp:106] Creating Layer inception_3b/relu_3x3_reduce
I0616 19:48:59.789657 42478 net.cpp:454] inception_3b/relu_3x3_reduce <- inception_3b/3x3_reduce
I0616 19:48:59.789677 42478 net.cpp:397] inception_3b/relu_3x3_reduce -> inception_3b/3x3_reduce (in-place)
I0616 19:48:59.789963 42478 net.cpp:150] Setting up inception_3b/relu_3x3_reduce
I0616 19:48:59.790022 42478 net.cpp:157] Top shape: 64 128 28 28 (6422528)
I0616 19:48:59.790061 42478 net.cpp:165] Memory required for data: 1856111616
I0616 19:48:59.790088 42478 layer_factory.hpp:77] Creating layer inception_3b/3x3
I0616 19:48:59.790139 42478 net.cpp:106] Creating Layer inception_3b/3x3
I0616 19:48:59.790160 42478 net.cpp:454] inception_3b/3x3 <- inception_3b/3x3_reduce
I0616 19:48:59.790191 42478 net.cpp:411] inception_3b/3x3 -> inception_3b/3x3
I0616 19:48:59.792974 42478 net.cpp:150] Setting up inception_3b/3x3
I0616 19:48:59.793018 42478 net.cpp:157] Top shape: 64 192 28 28 (9633792)
I0616 19:48:59.793038 42478 net.cpp:165] Memory required for data: 1894646784
I0616 19:48:59.793059 42478 layer_factory.hpp:77] Creating layer inception_3b/relu_3x3
I0616 19:48:59.793081 42478 net.cpp:106] Creating Layer inception_3b/relu_3x3
I0616 19:48:59.793099 42478 net.cpp:454] inception_3b/relu_3x3 <- inception_3b/3x3
I0616 19:48:59.793120 42478 net.cpp:397] inception_3b/relu_3x3 -> inception_3b/3x3 (in-place)
I0616 19:48:59.793298 42478 net.cpp:150] Setting up inception_3b/relu_3x3
I0616 19:48:59.793329 42478 net.cpp:157] Top shape: 64 192 28 28 (9633792)
I0616 19:48:59.793352 42478 net.cpp:165] Memory required for data: 1933181952
I0616 19:48:59.793370 42478 layer_factory.hpp:77] Creating layer inception_3b/5x5_reduce
I0616 19:48:59.793392 42478 net.cpp:106] Creating Layer inception_3b/5x5_reduce
I0616 19:48:59.793412 42478 net.cpp:454] inception_3b/5x5_reduce <- inception_3a/output_inception_3a/output_0_split_2
I0616 19:48:59.793438 42478 net.cpp:411] inception_3b/5x5_reduce -> inception_3b/5x5_reduce
I0616 19:48:59.794435 42478 net.cpp:150] Setting up inception_3b/5x5_reduce
I0616 19:48:59.794474 42478 net.cpp:157] Top shape: 64 32 28 28 (1605632)
I0616 19:48:59.794493 42478 net.cpp:165] Memory required for data: 1939604480
I0616 19:48:59.794523 42478 layer_factory.hpp:77] Creating layer inception_3b/relu_5x5_reduce
I0616 19:48:59.794558 42478 net.cpp:106] Creating Layer inception_3b/relu_5x5_reduce
I0616 19:48:59.794576 42478 net.cpp:454] inception_3b/relu_5x5_reduce <- inception_3b/5x5_reduce
I0616 19:48:59.794606 42478 net.cpp:397] inception_3b/relu_5x5_reduce -> inception_3b/5x5_reduce (in-place)
I0616 19:48:59.794950 42478 net.cpp:150] Setting up inception_3b/relu_5x5_reduce
I0616 19:48:59.794986 42478 net.cpp:157] Top shape: 64 32 28 28 (1605632)
I0616 19:48:59.795004 42478 net.cpp:165] Memory required for data: 1946027008
I0616 19:48:59.795028 42478 layer_factory.hpp:77] Creating layer inception_3b/5x5
I0616 19:48:59.795056 42478 net.cpp:106] Creating Layer inception_3b/5x5
I0616 19:48:59.795078 42478 net.cpp:454] inception_3b/5x5 <- inception_3b/5x5_reduce
I0616 19:48:59.795099 42478 net.cpp:411] inception_3b/5x5 -> inception_3b/5x5
I0616 19:48:59.796934 42478 net.cpp:150] Setting up inception_3b/5x5
I0616 19:48:59.796979 42478 net.cpp:157] Top shape: 64 96 28 28 (4816896)
I0616 19:48:59.796999 42478 net.cpp:165] Memory required for data: 1965294592
I0616 19:48:59.797026 42478 layer_factory.hpp:77] Creating layer inception_3b/relu_5x5
I0616 19:48:59.797049 42478 net.cpp:106] Creating Layer inception_3b/relu_5x5
I0616 19:48:59.797067 42478 net.cpp:454] inception_3b/relu_5x5 <- inception_3b/5x5
I0616 19:48:59.797086 42478 net.cpp:397] inception_3b/relu_5x5 -> inception_3b/5x5 (in-place)
I0616 19:48:59.797394 42478 net.cpp:150] Setting up inception_3b/relu_5x5
I0616 19:48:59.797430 42478 net.cpp:157] Top shape: 64 96 28 28 (4816896)
I0616 19:48:59.797448 42478 net.cpp:165] Memory required for data: 1984562176
I0616 19:48:59.797466 42478 layer_factory.hpp:77] Creating layer inception_3b/pool
I0616 19:48:59.797485 42478 net.cpp:106] Creating Layer inception_3b/pool
I0616 19:48:59.797503 42478 net.cpp:454] inception_3b/pool <- inception_3a/output_inception_3a/output_0_split_3
I0616 19:48:59.797523 42478 net.cpp:411] inception_3b/pool -> inception_3b/pool
I0616 19:48:59.797580 42478 net.cpp:150] Setting up inception_3b/pool
I0616 19:48:59.797608 42478 net.cpp:157] Top shape: 64 256 28 28 (12845056)
I0616 19:48:59.797626 42478 net.cpp:165] Memory required for data: 2035942400
I0616 19:48:59.797643 42478 layer_factory.hpp:77] Creating layer inception_3b/pool_proj
I0616 19:48:59.797667 42478 net.cpp:106] Creating Layer inception_3b/pool_proj
I0616 19:48:59.797686 42478 net.cpp:454] inception_3b/pool_proj <- inception_3b/pool
I0616 19:48:59.797708 42478 net.cpp:411] inception_3b/pool_proj -> inception_3b/pool_proj
I0616 19:48:59.798741 42478 net.cpp:150] Setting up inception_3b/pool_proj
I0616 19:48:59.798780 42478 net.cpp:157] Top shape: 64 64 28 28 (3211264)
I0616 19:48:59.798799 42478 net.cpp:165] Memory required for data: 2048787456
I0616 19:48:59.798820 42478 layer_factory.hpp:77] Creating layer inception_3b/relu_pool_proj
I0616 19:48:59.798840 42478 net.cpp:106] Creating Layer inception_3b/relu_pool_proj
I0616 19:48:59.798858 42478 net.cpp:454] inception_3b/relu_pool_proj <- inception_3b/pool_proj
I0616 19:48:59.798878 42478 net.cpp:397] inception_3b/relu_pool_proj -> inception_3b/pool_proj (in-place)
I0616 19:48:59.799070 42478 net.cpp:150] Setting up inception_3b/relu_pool_proj
I0616 19:48:59.799113 42478 net.cpp:157] Top shape: 64 64 28 28 (3211264)
I0616 19:48:59.799129 42478 net.cpp:165] Memory required for data: 2061632512
I0616 19:48:59.799145 42478 layer_factory.hpp:77] Creating layer inception_3b/output
I0616 19:48:59.799165 42478 net.cpp:106] Creating Layer inception_3b/output
I0616 19:48:59.799181 42478 net.cpp:454] inception_3b/output <- inception_3b/1x1
I0616 19:48:59.799198 42478 net.cpp:454] inception_3b/output <- inception_3b/3x3
I0616 19:48:59.799216 42478 net.cpp:454] inception_3b/output <- inception_3b/5x5
I0616 19:48:59.799232 42478 net.cpp:454] inception_3b/output <- inception_3b/pool_proj
I0616 19:48:59.799254 42478 net.cpp:411] inception_3b/output -> inception_3b/output
I0616 19:48:59.799311 42478 net.cpp:150] Setting up inception_3b/output
I0616 19:48:59.799352 42478 net.cpp:157] Top shape: 64 480 28 28 (24084480)
I0616 19:48:59.799383 42478 net.cpp:165] Memory required for data: 2157970432
I0616 19:48:59.799401 42478 layer_factory.hpp:77] Creating layer pool3/3x3_s2
I0616 19:48:59.799420 42478 net.cpp:106] Creating Layer pool3/3x3_s2
I0616 19:48:59.799438 42478 net.cpp:454] pool3/3x3_s2 <- inception_3b/output
I0616 19:48:59.799456 42478 net.cpp:411] pool3/3x3_s2 -> pool3/3x3_s2
I0616 19:48:59.799515 42478 net.cpp:150] Setting up pool3/3x3_s2
I0616 19:48:59.799540 42478 net.cpp:157] Top shape: 64 480 14 14 (6021120)
I0616 19:48:59.799557 42478 net.cpp:165] Memory required for data: 2182054912
I0616 19:48:59.799574 42478 layer_factory.hpp:77] Creating layer pool3/3x3_s2_pool3/3x3_s2_0_split
I0616 19:48:59.799593 42478 net.cpp:106] Creating Layer pool3/3x3_s2_pool3/3x3_s2_0_split
I0616 19:48:59.799613 42478 net.cpp:454] pool3/3x3_s2_pool3/3x3_s2_0_split <- pool3/3x3_s2
I0616 19:48:59.799633 42478 net.cpp:411] pool3/3x3_s2_pool3/3x3_s2_0_split -> pool3/3x3_s2_pool3/3x3_s2_0_split_0
I0616 19:48:59.799654 42478 net.cpp:411] pool3/3x3_s2_pool3/3x3_s2_0_split -> pool3/3x3_s2_pool3/3x3_s2_0_split_1
I0616 19:48:59.799675 42478 net.cpp:411] pool3/3x3_s2_pool3/3x3_s2_0_split -> pool3/3x3_s2_pool3/3x3_s2_0_split_2
I0616 19:48:59.799695 42478 net.cpp:411] pool3/3x3_s2_pool3/3x3_s2_0_split -> pool3/3x3_s2_pool3/3x3_s2_0_split_3
I0616 19:48:59.799770 42478 net.cpp:150] Setting up pool3/3x3_s2_pool3/3x3_s2_0_split
I0616 19:48:59.799795 42478 net.cpp:157] Top shape: 64 480 14 14 (6021120)
I0616 19:48:59.799813 42478 net.cpp:157] Top shape: 64 480 14 14 (6021120)
I0616 19:48:59.799830 42478 net.cpp:157] Top shape: 64 480 14 14 (6021120)
I0616 19:48:59.799846 42478 net.cpp:157] Top shape: 64 480 14 14 (6021120)
I0616 19:48:59.799862 42478 net.cpp:165] Memory required for data: 2278392832
I0616 19:48:59.799878 42478 layer_factory.hpp:77] Creating layer inception_4a/1x1
I0616 19:48:59.799906 42478 net.cpp:106] Creating Layer inception_4a/1x1
I0616 19:48:59.799927 42478 net.cpp:454] inception_4a/1x1 <- pool3/3x3_s2_pool3/3x3_s2_0_split_0
I0616 19:48:59.799952 42478 net.cpp:411] inception_4a/1x1 -> inception_4a/1x1
I0616 19:48:59.801504 42478 net.cpp:150] Setting up inception_4a/1x1
I0616 19:48:59.801548 42478 net.cpp:157] Top shape: 64 192 14 14 (2408448)
I0616 19:48:59.801566 42478 net.cpp:165] Memory required for data: 2288026624
I0616 19:48:59.801587 42478 layer_factory.hpp:77] Creating layer inception_4a/relu_1x1
I0616 19:48:59.801607 42478 net.cpp:106] Creating Layer inception_4a/relu_1x1
I0616 19:48:59.801625 42478 net.cpp:454] inception_4a/relu_1x1 <- inception_4a/1x1
I0616 19:48:59.801643 42478 net.cpp:397] inception_4a/relu_1x1 -> inception_4a/1x1 (in-place)
I0616 19:48:59.801926 42478 net.cpp:150] Setting up inception_4a/relu_1x1
I0616 19:48:59.801961 42478 net.cpp:157] Top shape: 64 192 14 14 (2408448)
I0616 19:48:59.801980 42478 net.cpp:165] Memory required for data: 2297660416
I0616 19:48:59.802018 42478 layer_factory.hpp:77] Creating layer inception_4a/3x3_reduce
I0616 19:48:59.802044 42478 net.cpp:106] Creating Layer inception_4a/3x3_reduce
I0616 19:48:59.802065 42478 net.cpp:454] inception_4a/3x3_reduce <- pool3/3x3_s2_pool3/3x3_s2_0_split_1
I0616 19:48:59.802098 42478 net.cpp:411] inception_4a/3x3_reduce -> inception_4a/3x3_reduce
I0616 19:48:59.803236 42478 net.cpp:150] Setting up inception_4a/3x3_reduce
I0616 19:48:59.803277 42478 net.cpp:157] Top shape: 64 96 14 14 (1204224)
I0616 19:48:59.803306 42478 net.cpp:165] Memory required for data: 2302477312
I0616 19:48:59.803342 42478 layer_factory.hpp:77] Creating layer inception_4a/relu_3x3_reduce
I0616 19:48:59.803378 42478 net.cpp:106] Creating Layer inception_4a/relu_3x3_reduce
I0616 19:48:59.803397 42478 net.cpp:454] inception_4a/relu_3x3_reduce <- inception_4a/3x3_reduce
I0616 19:48:59.803426 42478 net.cpp:397] inception_4a/relu_3x3_reduce -> inception_4a/3x3_reduce (in-place)
I0616 19:48:59.803740 42478 net.cpp:150] Setting up inception_4a/relu_3x3_reduce
I0616 19:48:59.803787 42478 net.cpp:157] Top shape: 64 96 14 14 (1204224)
I0616 19:48:59.803817 42478 net.cpp:165] Memory required for data: 2307294208
I0616 19:48:59.803858 42478 layer_factory.hpp:77] Creating layer inception_4a/3x3
I0616 19:48:59.803884 42478 net.cpp:106] Creating Layer inception_4a/3x3
I0616 19:48:59.803903 42478 net.cpp:454] inception_4a/3x3 <- inception_4a/3x3_reduce
I0616 19:48:59.803923 42478 net.cpp:411] inception_4a/3x3 -> inception_4a/3x3
I0616 19:48:59.806428 42478 net.cpp:150] Setting up inception_4a/3x3
I0616 19:48:59.806468 42478 net.cpp:157] Top shape: 64 208 14 14 (2609152)
I0616 19:48:59.806488 42478 net.cpp:165] Memory required for data: 2317730816
I0616 19:48:59.806507 42478 layer_factory.hpp:77] Creating layer inception_4a/relu_3x3
I0616 19:48:59.806530 42478 net.cpp:106] Creating Layer inception_4a/relu_3x3
I0616 19:48:59.806550 42478 net.cpp:454] inception_4a/relu_3x3 <- inception_4a/3x3
I0616 19:48:59.806567 42478 net.cpp:397] inception_4a/relu_3x3 -> inception_4a/3x3 (in-place)
I0616 19:48:59.806746 42478 net.cpp:150] Setting up inception_4a/relu_3x3
I0616 19:48:59.806776 42478 net.cpp:157] Top shape: 64 208 14 14 (2609152)
I0616 19:48:59.806792 42478 net.cpp:165] Memory required for data: 2328167424
I0616 19:48:59.806808 42478 layer_factory.hpp:77] Creating layer inception_4a/5x5_reduce
I0616 19:48:59.806833 42478 net.cpp:106] Creating Layer inception_4a/5x5_reduce
I0616 19:48:59.806852 42478 net.cpp:454] inception_4a/5x5_reduce <- pool3/3x3_s2_pool3/3x3_s2_0_split_2
I0616 19:48:59.806875 42478 net.cpp:411] inception_4a/5x5_reduce -> inception_4a/5x5_reduce
I0616 19:48:59.807916 42478 net.cpp:150] Setting up inception_4a/5x5_reduce
I0616 19:48:59.807955 42478 net.cpp:157] Top shape: 64 16 14 14 (200704)
I0616 19:48:59.807972 42478 net.cpp:165] Memory required for data: 2328970240
I0616 19:48:59.808018 42478 layer_factory.hpp:77] Creating layer inception_4a/relu_5x5_reduce
I0616 19:48:59.808040 42478 net.cpp:106] Creating Layer inception_4a/relu_5x5_reduce
I0616 19:48:59.808059 42478 net.cpp:454] inception_4a/relu_5x5_reduce <- inception_4a/5x5_reduce
I0616 19:48:59.808080 42478 net.cpp:397] inception_4a/relu_5x5_reduce -> inception_4a/5x5_reduce (in-place)
I0616 19:48:59.808375 42478 net.cpp:150] Setting up inception_4a/relu_5x5_reduce
I0616 19:48:59.808410 42478 net.cpp:157] Top shape: 64 16 14 14 (200704)
I0616 19:48:59.808439 42478 net.cpp:165] Memory required for data: 2329773056
I0616 19:48:59.808456 42478 layer_factory.hpp:77] Creating layer inception_4a/5x5
I0616 19:48:59.808481 42478 net.cpp:106] Creating Layer inception_4a/5x5
I0616 19:48:59.808513 42478 net.cpp:454] inception_4a/5x5 <- inception_4a/5x5_reduce
I0616 19:48:59.808536 42478 net.cpp:411] inception_4a/5x5 -> inception_4a/5x5
I0616 19:48:59.809573 42478 net.cpp:150] Setting up inception_4a/5x5
I0616 19:48:59.809612 42478 net.cpp:157] Top shape: 64 48 14 14 (602112)
I0616 19:48:59.809630 42478 net.cpp:165] Memory required for data: 2332181504
I0616 19:48:59.809650 42478 layer_factory.hpp:77] Creating layer inception_4a/relu_5x5
I0616 19:48:59.809676 42478 net.cpp:106] Creating Layer inception_4a/relu_5x5
I0616 19:48:59.809696 42478 net.cpp:454] inception_4a/relu_5x5 <- inception_4a/5x5
I0616 19:48:59.809716 42478 net.cpp:397] inception_4a/relu_5x5 -> inception_4a/5x5 (in-place)
I0616 19:48:59.810034 42478 net.cpp:150] Setting up inception_4a/relu_5x5
I0616 19:48:59.810070 42478 net.cpp:157] Top shape: 64 48 14 14 (602112)
I0616 19:48:59.810089 42478 net.cpp:165] Memory required for data: 2334589952
I0616 19:48:59.810107 42478 layer_factory.hpp:77] Creating layer inception_4a/pool
I0616 19:48:59.810130 42478 net.cpp:106] Creating Layer inception_4a/pool
I0616 19:48:59.810151 42478 net.cpp:454] inception_4a/pool <- pool3/3x3_s2_pool3/3x3_s2_0_split_3
I0616 19:48:59.810173 42478 net.cpp:411] inception_4a/pool -> inception_4a/pool
I0616 19:48:59.810236 42478 net.cpp:150] Setting up inception_4a/pool
I0616 19:48:59.810263 42478 net.cpp:157] Top shape: 64 480 14 14 (6021120)
I0616 19:48:59.810279 42478 net.cpp:165] Memory required for data: 2358674432
I0616 19:48:59.810307 42478 layer_factory.hpp:77] Creating layer inception_4a/pool_proj
I0616 19:48:59.810348 42478 net.cpp:106] Creating Layer inception_4a/pool_proj
I0616 19:48:59.810369 42478 net.cpp:454] inception_4a/pool_proj <- inception_4a/pool
I0616 19:48:59.810391 42478 net.cpp:411] inception_4a/pool_proj -> inception_4a/pool_proj
I0616 19:48:59.811503 42478 net.cpp:150] Setting up inception_4a/pool_proj
I0616 19:48:59.811542 42478 net.cpp:157] Top shape: 64 64 14 14 (802816)
I0616 19:48:59.811561 42478 net.cpp:165] Memory required for data: 2361885696
I0616 19:48:59.811581 42478 layer_factory.hpp:77] Creating layer inception_4a/relu_pool_proj
I0616 19:48:59.811605 42478 net.cpp:106] Creating Layer inception_4a/relu_pool_proj
I0616 19:48:59.811625 42478 net.cpp:454] inception_4a/relu_pool_proj <- inception_4a/pool_proj
I0616 19:48:59.811643 42478 net.cpp:397] inception_4a/relu_pool_proj -> inception_4a/pool_proj (in-place)
I0616 19:48:59.811826 42478 net.cpp:150] Setting up inception_4a/relu_pool_proj
I0616 19:48:59.811861 42478 net.cpp:157] Top shape: 64 64 14 14 (802816)
I0616 19:48:59.811878 42478 net.cpp:165] Memory required for data: 2365096960
I0616 19:48:59.811895 42478 layer_factory.hpp:77] Creating layer inception_4a/output
I0616 19:48:59.811914 42478 net.cpp:106] Creating Layer inception_4a/output
I0616 19:48:59.811933 42478 net.cpp:454] inception_4a/output <- inception_4a/1x1
I0616 19:48:59.811950 42478 net.cpp:454] inception_4a/output <- inception_4a/3x3
I0616 19:48:59.811967 42478 net.cpp:454] inception_4a/output <- inception_4a/5x5
I0616 19:48:59.811985 42478 net.cpp:454] inception_4a/output <- inception_4a/pool_proj
I0616 19:48:59.812003 42478 net.cpp:411] inception_4a/output -> inception_4a/output
I0616 19:48:59.812055 42478 net.cpp:150] Setting up inception_4a/output
I0616 19:48:59.812083 42478 net.cpp:157] Top shape: 64 512 14 14 (6422528)
I0616 19:48:59.812098 42478 net.cpp:165] Memory required for data: 2390787072
I0616 19:48:59.812115 42478 layer_factory.hpp:77] Creating layer inception_4a/output_inception_4a/output_0_split
I0616 19:48:59.812134 42478 net.cpp:106] Creating Layer inception_4a/output_inception_4a/output_0_split
I0616 19:48:59.812151 42478 net.cpp:454] inception_4a/output_inception_4a/output_0_split <- inception_4a/output
I0616 19:48:59.812172 42478 net.cpp:411] inception_4a/output_inception_4a/output_0_split -> inception_4a/output_inception_4a/output_0_split_0
I0616 19:48:59.812196 42478 net.cpp:411] inception_4a/output_inception_4a/output_0_split -> inception_4a/output_inception_4a/output_0_split_1
I0616 19:48:59.812217 42478 net.cpp:411] inception_4a/output_inception_4a/output_0_split -> inception_4a/output_inception_4a/output_0_split_2
I0616 19:48:59.812237 42478 net.cpp:411] inception_4a/output_inception_4a/output_0_split -> inception_4a/output_inception_4a/output_0_split_3
I0616 19:48:59.812260 42478 net.cpp:411] inception_4a/output_inception_4a/output_0_split -> inception_4a/output_inception_4a/output_0_split_4
I0616 19:48:59.812350 42478 net.cpp:150] Setting up inception_4a/output_inception_4a/output_0_split
I0616 19:48:59.812376 42478 net.cpp:157] Top shape: 64 512 14 14 (6422528)
I0616 19:48:59.812393 42478 net.cpp:157] Top shape: 64 512 14 14 (6422528)
I0616 19:48:59.812410 42478 net.cpp:157] Top shape: 64 512 14 14 (6422528)
I0616 19:48:59.812427 42478 net.cpp:157] Top shape: 64 512 14 14 (6422528)
I0616 19:48:59.812453 42478 net.cpp:157] Top shape: 64 512 14 14 (6422528)
I0616 19:48:59.812469 42478 net.cpp:165] Memory required for data: 2519237632
I0616 19:48:59.812484 42478 layer_factory.hpp:77] Creating layer loss1/ave_pool
I0616 19:48:59.812513 42478 net.cpp:106] Creating Layer loss1/ave_pool
I0616 19:48:59.812531 42478 net.cpp:454] loss1/ave_pool <- inception_4a/output_inception_4a/output_0_split_0
I0616 19:48:59.812562 42478 net.cpp:411] loss1/ave_pool -> loss1/ave_pool
I0616 19:48:59.812876 42478 net.cpp:150] Setting up loss1/ave_pool
I0616 19:48:59.812911 42478 net.cpp:157] Top shape: 64 512 4 4 (524288)
I0616 19:48:59.812929 42478 net.cpp:165] Memory required for data: 2521334784
I0616 19:48:59.812957 42478 layer_factory.hpp:77] Creating layer loss1/conv
I0616 19:48:59.813004 42478 net.cpp:106] Creating Layer loss1/conv
I0616 19:48:59.813055 42478 net.cpp:454] loss1/conv <- loss1/ave_pool
I0616 19:48:59.813078 42478 net.cpp:411] loss1/conv -> loss1/conv
I0616 19:48:59.814527 42478 net.cpp:150] Setting up loss1/conv
I0616 19:48:59.814569 42478 net.cpp:157] Top shape: 64 128 4 4 (131072)
I0616 19:48:59.814589 42478 net.cpp:165] Memory required for data: 2521859072
I0616 19:48:59.814611 42478 layer_factory.hpp:77] Creating layer loss1/relu_conv
I0616 19:48:59.814635 42478 net.cpp:106] Creating Layer loss1/relu_conv
I0616 19:48:59.814654 42478 net.cpp:454] loss1/relu_conv <- loss1/conv
I0616 19:48:59.814673 42478 net.cpp:397] loss1/relu_conv -> loss1/conv (in-place)
I0616 19:48:59.814857 42478 net.cpp:150] Setting up loss1/relu_conv
I0616 19:48:59.814888 42478 net.cpp:157] Top shape: 64 128 4 4 (131072)
I0616 19:48:59.814905 42478 net.cpp:165] Memory required for data: 2522383360
I0616 19:48:59.814923 42478 layer_factory.hpp:77] Creating layer loss1/fc
I0616 19:48:59.814949 42478 net.cpp:106] Creating Layer loss1/fc
I0616 19:48:59.814970 42478 net.cpp:454] loss1/fc <- loss1/conv
I0616 19:48:59.814990 42478 net.cpp:411] loss1/fc -> loss1/fc
I0616 19:48:59.829782 42478 net.cpp:150] Setting up loss1/fc
I0616 19:48:59.829821 42478 net.cpp:157] Top shape: 64 1024 (65536)
I0616 19:48:59.829840 42478 net.cpp:165] Memory required for data: 2522645504
I0616 19:48:59.829860 42478 layer_factory.hpp:77] Creating layer loss1/relu_fc
I0616 19:48:59.829880 42478 net.cpp:106] Creating Layer loss1/relu_fc
I0616 19:48:59.829900 42478 net.cpp:454] loss1/relu_fc <- loss1/fc
I0616 19:48:59.829917 42478 net.cpp:397] loss1/relu_fc -> loss1/fc (in-place)
I0616 19:48:59.830217 42478 net.cpp:150] Setting up loss1/relu_fc
I0616 19:48:59.830255 42478 net.cpp:157] Top shape: 64 1024 (65536)
I0616 19:48:59.830274 42478 net.cpp:165] Memory required for data: 2522907648
I0616 19:48:59.830291 42478 layer_factory.hpp:77] Creating layer loss1/drop_fc
I0616 19:48:59.830320 42478 net.cpp:106] Creating Layer loss1/drop_fc
I0616 19:48:59.830340 42478 net.cpp:454] loss1/drop_fc <- loss1/fc
I0616 19:48:59.830359 42478 net.cpp:397] loss1/drop_fc -> loss1/fc (in-place)
I0616 19:48:59.830417 42478 net.cpp:150] Setting up loss1/drop_fc
I0616 19:48:59.830443 42478 net.cpp:157] Top shape: 64 1024 (65536)
I0616 19:48:59.830459 42478 net.cpp:165] Memory required for data: 2523169792
I0616 19:48:59.830476 42478 layer_factory.hpp:77] Creating layer loss1/classifier
I0616 19:48:59.830498 42478 net.cpp:106] Creating Layer loss1/classifier
I0616 19:48:59.830518 42478 net.cpp:454] loss1/classifier <- loss1/fc
I0616 19:48:59.830536 42478 net.cpp:411] loss1/classifier -> loss1/classifier
I0616 19:48:59.837967 42478 net.cpp:150] Setting up loss1/classifier
I0616 19:48:59.838019 42478 net.cpp:157] Top shape: 64 1000 (64000)
I0616 19:48:59.838039 42478 net.cpp:165] Memory required for data: 2523425792
I0616 19:48:59.838059 42478 layer_factory.hpp:77] Creating layer loss1/loss
I0616 19:48:59.838085 42478 net.cpp:106] Creating Layer loss1/loss
I0616 19:48:59.838114 42478 net.cpp:454] loss1/loss <- loss1/classifier
I0616 19:48:59.838132 42478 net.cpp:454] loss1/loss <- label_data_1_split_0
I0616 19:48:59.838150 42478 net.cpp:411] loss1/loss -> loss1/loss1
I0616 19:48:59.838189 42478 layer_factory.hpp:77] Creating layer loss1/loss
I0616 19:48:59.839036 42478 net.cpp:150] Setting up loss1/loss
I0616 19:48:59.839073 42478 net.cpp:157] Top shape: (1)
I0616 19:48:59.839092 42478 net.cpp:160]     with loss weight 0.3
I0616 19:48:59.839159 42478 net.cpp:165] Memory required for data: 2523425796
I0616 19:48:59.839175 42478 layer_factory.hpp:77] Creating layer inception_4b/1x1
I0616 19:48:59.839202 42478 net.cpp:106] Creating Layer inception_4b/1x1
I0616 19:48:59.839232 42478 net.cpp:454] inception_4b/1x1 <- inception_4a/output_inception_4a/output_0_split_1
I0616 19:48:59.839254 42478 net.cpp:411] inception_4b/1x1 -> inception_4b/1x1
I0616 19:48:59.840808 42478 net.cpp:150] Setting up inception_4b/1x1
I0616 19:48:59.840859 42478 net.cpp:157] Top shape: 64 160 14 14 (2007040)
I0616 19:48:59.840879 42478 net.cpp:165] Memory required for data: 2531453956
I0616 19:48:59.840899 42478 layer_factory.hpp:77] Creating layer inception_4b/relu_1x1
I0616 19:48:59.840921 42478 net.cpp:106] Creating Layer inception_4b/relu_1x1
I0616 19:48:59.840940 42478 net.cpp:454] inception_4b/relu_1x1 <- inception_4b/1x1
I0616 19:48:59.840960 42478 net.cpp:397] inception_4b/relu_1x1 -> inception_4b/1x1 (in-place)
I0616 19:48:59.841148 42478 net.cpp:150] Setting up inception_4b/relu_1x1
I0616 19:48:59.841181 42478 net.cpp:157] Top shape: 64 160 14 14 (2007040)
I0616 19:48:59.841198 42478 net.cpp:165] Memory required for data: 2539482116
I0616 19:48:59.841215 42478 layer_factory.hpp:77] Creating layer inception_4b/3x3_reduce
I0616 19:48:59.841240 42478 net.cpp:106] Creating Layer inception_4b/3x3_reduce
I0616 19:48:59.841260 42478 net.cpp:454] inception_4b/3x3_reduce <- inception_4a/output_inception_4a/output_0_split_2
I0616 19:48:59.841284 42478 net.cpp:411] inception_4b/3x3_reduce -> inception_4b/3x3_reduce
I0616 19:48:59.842557 42478 net.cpp:150] Setting up inception_4b/3x3_reduce
I0616 19:48:59.842597 42478 net.cpp:157] Top shape: 64 112 14 14 (1404928)
I0616 19:48:59.842615 42478 net.cpp:165] Memory required for data: 2545101828
I0616 19:48:59.842636 42478 layer_factory.hpp:77] Creating layer inception_4b/relu_3x3_reduce
I0616 19:48:59.842658 42478 net.cpp:106] Creating Layer inception_4b/relu_3x3_reduce
I0616 19:48:59.842676 42478 net.cpp:454] inception_4b/relu_3x3_reduce <- inception_4b/3x3_reduce
I0616 19:48:59.842697 42478 net.cpp:397] inception_4b/relu_3x3_reduce -> inception_4b/3x3_reduce (in-place)
I0616 19:48:59.842986 42478 net.cpp:150] Setting up inception_4b/relu_3x3_reduce
I0616 19:48:59.843031 42478 net.cpp:157] Top shape: 64 112 14 14 (1404928)
I0616 19:48:59.843050 42478 net.cpp:165] Memory required for data: 2550721540
I0616 19:48:59.843068 42478 layer_factory.hpp:77] Creating layer inception_4b/3x3
I0616 19:48:59.843094 42478 net.cpp:106] Creating Layer inception_4b/3x3
I0616 19:48:59.843114 42478 net.cpp:454] inception_4b/3x3 <- inception_4b/3x3_reduce
I0616 19:48:59.843137 42478 net.cpp:411] inception_4b/3x3 -> inception_4b/3x3
I0616 19:48:59.845746 42478 net.cpp:150] Setting up inception_4b/3x3
I0616 19:48:59.845787 42478 net.cpp:157] Top shape: 64 224 14 14 (2809856)
I0616 19:48:59.845805 42478 net.cpp:165] Memory required for data: 2561960964
I0616 19:48:59.845825 42478 layer_factory.hpp:77] Creating layer inception_4b/relu_3x3
I0616 19:48:59.845849 42478 net.cpp:106] Creating Layer inception_4b/relu_3x3
I0616 19:48:59.845867 42478 net.cpp:454] inception_4b/relu_3x3 <- inception_4b/3x3
I0616 19:48:59.845885 42478 net.cpp:397] inception_4b/relu_3x3 -> inception_4b/3x3 (in-place)
I0616 19:48:59.846089 42478 net.cpp:150] Setting up inception_4b/relu_3x3
I0616 19:48:59.846123 42478 net.cpp:157] Top shape: 64 224 14 14 (2809856)
I0616 19:48:59.846141 42478 net.cpp:165] Memory required for data: 2573200388
I0616 19:48:59.846158 42478 layer_factory.hpp:77] Creating layer inception_4b/5x5_reduce
I0616 19:48:59.846184 42478 net.cpp:106] Creating Layer inception_4b/5x5_reduce
I0616 19:48:59.846204 42478 net.cpp:454] inception_4b/5x5_reduce <- inception_4a/output_inception_4a/output_0_split_3
I0616 19:48:59.846222 42478 net.cpp:411] inception_4b/5x5_reduce -> inception_4b/5x5_reduce
I0616 19:48:59.847389 42478 net.cpp:150] Setting up inception_4b/5x5_reduce
I0616 19:48:59.847427 42478 net.cpp:157] Top shape: 64 24 14 14 (301056)
I0616 19:48:59.847457 42478 net.cpp:165] Memory required for data: 2574404612
I0616 19:48:59.847478 42478 layer_factory.hpp:77] Creating layer inception_4b/relu_5x5_reduce
I0616 19:48:59.847499 42478 net.cpp:106] Creating Layer inception_4b/relu_5x5_reduce
I0616 19:48:59.847518 42478 net.cpp:454] inception_4b/relu_5x5_reduce <- inception_4b/5x5_reduce
I0616 19:48:59.847549 42478 net.cpp:397] inception_4b/relu_5x5_reduce -> inception_4b/5x5_reduce (in-place)
I0616 19:48:59.847779 42478 net.cpp:150] Setting up inception_4b/relu_5x5_reduce
I0616 19:48:59.847844 42478 net.cpp:157] Top shape: 64 24 14 14 (301056)
I0616 19:48:59.847862 42478 net.cpp:165] Memory required for data: 2575608836
I0616 19:48:59.847890 42478 layer_factory.hpp:77] Creating layer inception_4b/5x5
I0616 19:48:59.847918 42478 net.cpp:106] Creating Layer inception_4b/5x5
I0616 19:48:59.847937 42478 net.cpp:454] inception_4b/5x5 <- inception_4b/5x5_reduce
I0616 19:48:59.847959 42478 net.cpp:411] inception_4b/5x5 -> inception_4b/5x5
I0616 19:48:59.849143 42478 net.cpp:150] Setting up inception_4b/5x5
I0616 19:48:59.849184 42478 net.cpp:157] Top shape: 64 64 14 14 (802816)
I0616 19:48:59.849202 42478 net.cpp:165] Memory required for data: 2578820100
I0616 19:48:59.849223 42478 layer_factory.hpp:77] Creating layer inception_4b/relu_5x5
I0616 19:48:59.849243 42478 net.cpp:106] Creating Layer inception_4b/relu_5x5
I0616 19:48:59.849261 42478 net.cpp:454] inception_4b/relu_5x5 <- inception_4b/5x5
I0616 19:48:59.849280 42478 net.cpp:397] inception_4b/relu_5x5 -> inception_4b/5x5 (in-place)
I0616 19:48:59.849571 42478 net.cpp:150] Setting up inception_4b/relu_5x5
I0616 19:48:59.849606 42478 net.cpp:157] Top shape: 64 64 14 14 (802816)
I0616 19:48:59.849624 42478 net.cpp:165] Memory required for data: 2582031364
I0616 19:48:59.849642 42478 layer_factory.hpp:77] Creating layer inception_4b/pool
I0616 19:48:59.849660 42478 net.cpp:106] Creating Layer inception_4b/pool
I0616 19:48:59.849678 42478 net.cpp:454] inception_4b/pool <- inception_4a/output_inception_4a/output_0_split_4
I0616 19:48:59.849699 42478 net.cpp:411] inception_4b/pool -> inception_4b/pool
I0616 19:48:59.849771 42478 net.cpp:150] Setting up inception_4b/pool
I0616 19:48:59.849797 42478 net.cpp:157] Top shape: 64 512 14 14 (6422528)
I0616 19:48:59.849814 42478 net.cpp:165] Memory required for data: 2607721476
I0616 19:48:59.849830 42478 layer_factory.hpp:77] Creating layer inception_4b/pool_proj
I0616 19:48:59.849854 42478 net.cpp:106] Creating Layer inception_4b/pool_proj
I0616 19:48:59.849875 42478 net.cpp:454] inception_4b/pool_proj <- inception_4b/pool
I0616 19:48:59.849895 42478 net.cpp:411] inception_4b/pool_proj -> inception_4b/pool_proj
I0616 19:48:59.851114 42478 net.cpp:150] Setting up inception_4b/pool_proj
I0616 19:48:59.851202 42478 net.cpp:157] Top shape: 64 64 14 14 (802816)
I0616 19:48:59.851220 42478 net.cpp:165] Memory required for data: 2610932740
I0616 19:48:59.851253 42478 layer_factory.hpp:77] Creating layer inception_4b/relu_pool_proj
I0616 19:48:59.851297 42478 net.cpp:106] Creating Layer inception_4b/relu_pool_proj
I0616 19:48:59.851338 42478 net.cpp:454] inception_4b/relu_pool_proj <- inception_4b/pool_proj
I0616 19:48:59.851357 42478 net.cpp:397] inception_4b/relu_pool_proj -> inception_4b/pool_proj (in-place)
I0616 19:48:59.851649 42478 net.cpp:150] Setting up inception_4b/relu_pool_proj
I0616 19:48:59.851681 42478 net.cpp:157] Top shape: 64 64 14 14 (802816)
I0616 19:48:59.851709 42478 net.cpp:165] Memory required for data: 2614144004
I0616 19:48:59.851725 42478 layer_factory.hpp:77] Creating layer inception_4b/output
I0616 19:48:59.851744 42478 net.cpp:106] Creating Layer inception_4b/output
I0616 19:48:59.851773 42478 net.cpp:454] inception_4b/output <- inception_4b/1x1
I0616 19:48:59.851791 42478 net.cpp:454] inception_4b/output <- inception_4b/3x3
I0616 19:48:59.851809 42478 net.cpp:454] inception_4b/output <- inception_4b/5x5
I0616 19:48:59.851826 42478 net.cpp:454] inception_4b/output <- inception_4b/pool_proj
I0616 19:48:59.851845 42478 net.cpp:411] inception_4b/output -> inception_4b/output
I0616 19:48:59.851892 42478 net.cpp:150] Setting up inception_4b/output
I0616 19:48:59.851917 42478 net.cpp:157] Top shape: 64 512 14 14 (6422528)
I0616 19:48:59.851934 42478 net.cpp:165] Memory required for data: 2639834116
I0616 19:48:59.851950 42478 layer_factory.hpp:77] Creating layer inception_4b/output_inception_4b/output_0_split
I0616 19:48:59.851979 42478 net.cpp:106] Creating Layer inception_4b/output_inception_4b/output_0_split
I0616 19:48:59.852025 42478 net.cpp:454] inception_4b/output_inception_4b/output_0_split <- inception_4b/output
I0616 19:48:59.852058 42478 net.cpp:411] inception_4b/output_inception_4b/output_0_split -> inception_4b/output_inception_4b/output_0_split_0
I0616 19:48:59.852092 42478 net.cpp:411] inception_4b/output_inception_4b/output_0_split -> inception_4b/output_inception_4b/output_0_split_1
I0616 19:48:59.852114 42478 net.cpp:411] inception_4b/output_inception_4b/output_0_split -> inception_4b/output_inception_4b/output_0_split_2
I0616 19:48:59.852134 42478 net.cpp:411] inception_4b/output_inception_4b/output_0_split -> inception_4b/output_inception_4b/output_0_split_3
I0616 19:48:59.852262 42478 net.cpp:150] Setting up inception_4b/output_inception_4b/output_0_split
I0616 19:48:59.852300 42478 net.cpp:157] Top shape: 64 512 14 14 (6422528)
I0616 19:48:59.852329 42478 net.cpp:157] Top shape: 64 512 14 14 (6422528)
I0616 19:48:59.852368 42478 net.cpp:157] Top shape: 64 512 14 14 (6422528)
I0616 19:48:59.852396 42478 net.cpp:157] Top shape: 64 512 14 14 (6422528)
I0616 19:48:59.852412 42478 net.cpp:165] Memory required for data: 2742594564
I0616 19:48:59.852430 42478 layer_factory.hpp:77] Creating layer inception_4c/1x1
I0616 19:48:59.852453 42478 net.cpp:106] Creating Layer inception_4c/1x1
I0616 19:48:59.852473 42478 net.cpp:454] inception_4c/1x1 <- inception_4b/output_inception_4b/output_0_split_0
I0616 19:48:59.852505 42478 net.cpp:411] inception_4c/1x1 -> inception_4c/1x1
I0616 19:48:59.853819 42478 net.cpp:150] Setting up inception_4c/1x1
I0616 19:48:59.853860 42478 net.cpp:157] Top shape: 64 128 14 14 (1605632)
I0616 19:48:59.853880 42478 net.cpp:165] Memory required for data: 2749017092
I0616 19:48:59.853900 42478 layer_factory.hpp:77] Creating layer inception_4c/relu_1x1
I0616 19:48:59.853921 42478 net.cpp:106] Creating Layer inception_4c/relu_1x1
I0616 19:48:59.853940 42478 net.cpp:454] inception_4c/relu_1x1 <- inception_4c/1x1
I0616 19:48:59.853957 42478 net.cpp:397] inception_4c/relu_1x1 -> inception_4c/1x1 (in-place)
I0616 19:48:59.854171 42478 net.cpp:150] Setting up inception_4c/relu_1x1
I0616 19:48:59.854202 42478 net.cpp:157] Top shape: 64 128 14 14 (1605632)
I0616 19:48:59.854219 42478 net.cpp:165] Memory required for data: 2755439620
I0616 19:48:59.854235 42478 layer_factory.hpp:77] Creating layer inception_4c/3x3_reduce
I0616 19:48:59.854260 42478 net.cpp:106] Creating Layer inception_4c/3x3_reduce
I0616 19:48:59.854280 42478 net.cpp:454] inception_4c/3x3_reduce <- inception_4b/output_inception_4b/output_0_split_1
I0616 19:48:59.854302 42478 net.cpp:411] inception_4c/3x3_reduce -> inception_4c/3x3_reduce
I0616 19:48:59.856245 42478 net.cpp:150] Setting up inception_4c/3x3_reduce
I0616 19:48:59.856287 42478 net.cpp:157] Top shape: 64 128 14 14 (1605632)
I0616 19:48:59.856307 42478 net.cpp:165] Memory required for data: 2761862148
I0616 19:48:59.856328 42478 layer_factory.hpp:77] Creating layer inception_4c/relu_3x3_reduce
I0616 19:48:59.856349 42478 net.cpp:106] Creating Layer inception_4c/relu_3x3_reduce
I0616 19:48:59.856369 42478 net.cpp:454] inception_4c/relu_3x3_reduce <- inception_4c/3x3_reduce
I0616 19:48:59.856389 42478 net.cpp:397] inception_4c/relu_3x3_reduce -> inception_4c/3x3_reduce (in-place)
I0616 19:48:59.856686 42478 net.cpp:150] Setting up inception_4c/relu_3x3_reduce
I0616 19:48:59.856722 42478 net.cpp:157] Top shape: 64 128 14 14 (1605632)
I0616 19:48:59.856739 42478 net.cpp:165] Memory required for data: 2768284676
I0616 19:48:59.856756 42478 layer_factory.hpp:77] Creating layer inception_4c/3x3
I0616 19:48:59.856782 42478 net.cpp:106] Creating Layer inception_4c/3x3
I0616 19:48:59.856802 42478 net.cpp:454] inception_4c/3x3 <- inception_4c/3x3_reduce
I0616 19:48:59.856828 42478 net.cpp:411] inception_4c/3x3 -> inception_4c/3x3
I0616 19:48:59.859954 42478 net.cpp:150] Setting up inception_4c/3x3
I0616 19:48:59.860005 42478 net.cpp:157] Top shape: 64 256 14 14 (3211264)
I0616 19:48:59.860039 42478 net.cpp:165] Memory required for data: 2781129732
I0616 19:48:59.860071 42478 layer_factory.hpp:77] Creating layer inception_4c/relu_3x3
I0616 19:48:59.860116 42478 net.cpp:106] Creating Layer inception_4c/relu_3x3
I0616 19:48:59.860136 42478 net.cpp:454] inception_4c/relu_3x3 <- inception_4c/3x3
I0616 19:48:59.860157 42478 net.cpp:397] inception_4c/relu_3x3 -> inception_4c/3x3 (in-place)
I0616 19:48:59.860337 42478 net.cpp:150] Setting up inception_4c/relu_3x3
I0616 19:48:59.860368 42478 net.cpp:157] Top shape: 64 256 14 14 (3211264)
I0616 19:48:59.860385 42478 net.cpp:165] Memory required for data: 2793974788
I0616 19:48:59.860402 42478 layer_factory.hpp:77] Creating layer inception_4c/5x5_reduce
I0616 19:48:59.860427 42478 net.cpp:106] Creating Layer inception_4c/5x5_reduce
I0616 19:48:59.860447 42478 net.cpp:454] inception_4c/5x5_reduce <- inception_4b/output_inception_4b/output_0_split_2
I0616 19:48:59.860469 42478 net.cpp:411] inception_4c/5x5_reduce -> inception_4c/5x5_reduce
I0616 19:48:59.861657 42478 net.cpp:150] Setting up inception_4c/5x5_reduce
I0616 19:48:59.861696 42478 net.cpp:157] Top shape: 64 24 14 14 (301056)
I0616 19:48:59.861714 42478 net.cpp:165] Memory required for data: 2795179012
I0616 19:48:59.861734 42478 layer_factory.hpp:77] Creating layer inception_4c/relu_5x5_reduce
I0616 19:48:59.861757 42478 net.cpp:106] Creating Layer inception_4c/relu_5x5_reduce
I0616 19:48:59.861788 42478 net.cpp:454] inception_4c/relu_5x5_reduce <- inception_4c/5x5_reduce
I0616 19:48:59.861806 42478 net.cpp:397] inception_4c/relu_5x5_reduce -> inception_4c/5x5_reduce (in-place)
I0616 19:48:59.862043 42478 net.cpp:150] Setting up inception_4c/relu_5x5_reduce
I0616 19:48:59.862076 42478 net.cpp:157] Top shape: 64 24 14 14 (301056)
I0616 19:48:59.862095 42478 net.cpp:165] Memory required for data: 2796383236
I0616 19:48:59.862112 42478 layer_factory.hpp:77] Creating layer inception_4c/5x5
I0616 19:48:59.862146 42478 net.cpp:106] Creating Layer inception_4c/5x5
I0616 19:48:59.862179 42478 net.cpp:454] inception_4c/5x5 <- inception_4c/5x5_reduce
I0616 19:48:59.862202 42478 net.cpp:411] inception_4c/5x5 -> inception_4c/5x5
I0616 19:48:59.863417 42478 net.cpp:150] Setting up inception_4c/5x5
I0616 19:48:59.863456 42478 net.cpp:157] Top shape: 64 64 14 14 (802816)
I0616 19:48:59.863476 42478 net.cpp:165] Memory required for data: 2799594500
I0616 19:48:59.863497 42478 layer_factory.hpp:77] Creating layer inception_4c/relu_5x5
I0616 19:48:59.863517 42478 net.cpp:106] Creating Layer inception_4c/relu_5x5
I0616 19:48:59.863536 42478 net.cpp:454] inception_4c/relu_5x5 <- inception_4c/5x5
I0616 19:48:59.863555 42478 net.cpp:397] inception_4c/relu_5x5 -> inception_4c/5x5 (in-place)
I0616 19:48:59.863857 42478 net.cpp:150] Setting up inception_4c/relu_5x5
I0616 19:48:59.863893 42478 net.cpp:157] Top shape: 64 64 14 14 (802816)
I0616 19:48:59.863911 42478 net.cpp:165] Memory required for data: 2802805764
I0616 19:48:59.863929 42478 layer_factory.hpp:77] Creating layer inception_4c/pool
I0616 19:48:59.863948 42478 net.cpp:106] Creating Layer inception_4c/pool
I0616 19:48:59.863967 42478 net.cpp:454] inception_4c/pool <- inception_4b/output_inception_4b/output_0_split_3
I0616 19:48:59.863989 42478 net.cpp:411] inception_4c/pool -> inception_4c/pool
I0616 19:48:59.864060 42478 net.cpp:150] Setting up inception_4c/pool
I0616 19:48:59.864089 42478 net.cpp:157] Top shape: 64 512 14 14 (6422528)
I0616 19:48:59.864105 42478 net.cpp:165] Memory required for data: 2828495876
I0616 19:48:59.864121 42478 layer_factory.hpp:77] Creating layer inception_4c/pool_proj
I0616 19:48:59.864148 42478 net.cpp:106] Creating Layer inception_4c/pool_proj
I0616 19:48:59.864167 42478 net.cpp:454] inception_4c/pool_proj <- inception_4c/pool
I0616 19:48:59.864188 42478 net.cpp:411] inception_4c/pool_proj -> inception_4c/pool_proj
I0616 19:48:59.865375 42478 net.cpp:150] Setting up inception_4c/pool_proj
I0616 19:48:59.865414 42478 net.cpp:157] Top shape: 64 64 14 14 (802816)
I0616 19:48:59.865434 42478 net.cpp:165] Memory required for data: 2831707140
I0616 19:48:59.865454 42478 layer_factory.hpp:77] Creating layer inception_4c/relu_pool_proj
I0616 19:48:59.865497 42478 net.cpp:106] Creating Layer inception_4c/relu_pool_proj
I0616 19:48:59.865540 42478 net.cpp:454] inception_4c/relu_pool_proj <- inception_4c/pool_proj
I0616 19:48:59.865561 42478 net.cpp:397] inception_4c/relu_pool_proj -> inception_4c/pool_proj (in-place)
I0616 19:48:59.865772 42478 net.cpp:150] Setting up inception_4c/relu_pool_proj
I0616 19:48:59.865814 42478 net.cpp:157] Top shape: 64 64 14 14 (802816)
I0616 19:48:59.865833 42478 net.cpp:165] Memory required for data: 2834918404
I0616 19:48:59.865859 42478 layer_factory.hpp:77] Creating layer inception_4c/output
I0616 19:48:59.865880 42478 net.cpp:106] Creating Layer inception_4c/output
I0616 19:48:59.865908 42478 net.cpp:454] inception_4c/output <- inception_4c/1x1
I0616 19:48:59.865928 42478 net.cpp:454] inception_4c/output <- inception_4c/3x3
I0616 19:48:59.865947 42478 net.cpp:454] inception_4c/output <- inception_4c/5x5
I0616 19:48:59.865974 42478 net.cpp:454] inception_4c/output <- inception_4c/pool_proj
I0616 19:48:59.865993 42478 net.cpp:411] inception_4c/output -> inception_4c/output
I0616 19:48:59.866072 42478 net.cpp:150] Setting up inception_4c/output
I0616 19:48:59.866122 42478 net.cpp:157] Top shape: 64 512 14 14 (6422528)
I0616 19:48:59.866147 42478 net.cpp:165] Memory required for data: 2860608516
I0616 19:48:59.866163 42478 layer_factory.hpp:77] Creating layer inception_4c/output_inception_4c/output_0_split
I0616 19:48:59.866183 42478 net.cpp:106] Creating Layer inception_4c/output_inception_4c/output_0_split
I0616 19:48:59.866200 42478 net.cpp:454] inception_4c/output_inception_4c/output_0_split <- inception_4c/output
I0616 19:48:59.866219 42478 net.cpp:411] inception_4c/output_inception_4c/output_0_split -> inception_4c/output_inception_4c/output_0_split_0
I0616 19:48:59.866241 42478 net.cpp:411] inception_4c/output_inception_4c/output_0_split -> inception_4c/output_inception_4c/output_0_split_1
I0616 19:48:59.866262 42478 net.cpp:411] inception_4c/output_inception_4c/output_0_split -> inception_4c/output_inception_4c/output_0_split_2
I0616 19:48:59.866294 42478 net.cpp:411] inception_4c/output_inception_4c/output_0_split -> inception_4c/output_inception_4c/output_0_split_3
I0616 19:48:59.866400 42478 net.cpp:150] Setting up inception_4c/output_inception_4c/output_0_split
I0616 19:48:59.866427 42478 net.cpp:157] Top shape: 64 512 14 14 (6422528)
I0616 19:48:59.866446 42478 net.cpp:157] Top shape: 64 512 14 14 (6422528)
I0616 19:48:59.866463 42478 net.cpp:157] Top shape: 64 512 14 14 (6422528)
I0616 19:48:59.866489 42478 net.cpp:157] Top shape: 64 512 14 14 (6422528)
I0616 19:48:59.866504 42478 net.cpp:165] Memory required for data: 2963368964
I0616 19:48:59.866531 42478 layer_factory.hpp:77] Creating layer inception_4d/1x1
I0616 19:48:59.866555 42478 net.cpp:106] Creating Layer inception_4d/1x1
I0616 19:48:59.866575 42478 net.cpp:454] inception_4d/1x1 <- inception_4c/output_inception_4c/output_0_split_0
I0616 19:48:59.866595 42478 net.cpp:411] inception_4d/1x1 -> inception_4d/1x1
I0616 19:48:59.867888 42478 net.cpp:150] Setting up inception_4d/1x1
I0616 19:48:59.867926 42478 net.cpp:157] Top shape: 64 112 14 14 (1404928)
I0616 19:48:59.867945 42478 net.cpp:165] Memory required for data: 2968988676
I0616 19:48:59.867965 42478 layer_factory.hpp:77] Creating layer inception_4d/relu_1x1
I0616 19:48:59.867988 42478 net.cpp:106] Creating Layer inception_4d/relu_1x1
I0616 19:48:59.868023 42478 net.cpp:454] inception_4d/relu_1x1 <- inception_4d/1x1
I0616 19:48:59.868043 42478 net.cpp:397] inception_4d/relu_1x1 -> inception_4d/1x1 (in-place)
I0616 19:48:59.868239 42478 net.cpp:150] Setting up inception_4d/relu_1x1
I0616 19:48:59.868273 42478 net.cpp:157] Top shape: 64 112 14 14 (1404928)
I0616 19:48:59.868290 42478 net.cpp:165] Memory required for data: 2974608388
I0616 19:48:59.868306 42478 layer_factory.hpp:77] Creating layer inception_4d/3x3_reduce
I0616 19:48:59.868330 42478 net.cpp:106] Creating Layer inception_4d/3x3_reduce
I0616 19:48:59.868350 42478 net.cpp:454] inception_4d/3x3_reduce <- inception_4c/output_inception_4c/output_0_split_1
I0616 19:48:59.868382 42478 net.cpp:411] inception_4d/3x3_reduce -> inception_4d/3x3_reduce
I0616 19:48:59.869845 42478 net.cpp:150] Setting up inception_4d/3x3_reduce
I0616 19:48:59.869906 42478 net.cpp:157] Top shape: 64 144 14 14 (1806336)
I0616 19:48:59.869925 42478 net.cpp:165] Memory required for data: 2981833732
I0616 19:48:59.869945 42478 layer_factory.hpp:77] Creating layer inception_4d/relu_3x3_reduce
I0616 19:48:59.869966 42478 net.cpp:106] Creating Layer inception_4d/relu_3x3_reduce
I0616 19:48:59.869983 42478 net.cpp:454] inception_4d/relu_3x3_reduce <- inception_4d/3x3_reduce
I0616 19:48:59.870020 42478 net.cpp:397] inception_4d/relu_3x3_reduce -> inception_4d/3x3_reduce (in-place)
I0616 19:48:59.870460 42478 net.cpp:150] Setting up inception_4d/relu_3x3_reduce
I0616 19:48:59.870496 42478 net.cpp:157] Top shape: 64 144 14 14 (1806336)
I0616 19:48:59.870527 42478 net.cpp:165] Memory required for data: 2989059076
I0616 19:48:59.870544 42478 layer_factory.hpp:77] Creating layer inception_4d/3x3
I0616 19:48:59.870569 42478 net.cpp:106] Creating Layer inception_4d/3x3
I0616 19:48:59.870600 42478 net.cpp:454] inception_4d/3x3 <- inception_4d/3x3_reduce
I0616 19:48:59.870623 42478 net.cpp:411] inception_4d/3x3 -> inception_4d/3x3
I0616 19:48:59.874701 42478 net.cpp:150] Setting up inception_4d/3x3
I0616 19:48:59.874763 42478 net.cpp:157] Top shape: 64 288 14 14 (3612672)
I0616 19:48:59.874783 42478 net.cpp:165] Memory required for data: 3003509764
I0616 19:48:59.874804 42478 layer_factory.hpp:77] Creating layer inception_4d/relu_3x3
I0616 19:48:59.874837 42478 net.cpp:106] Creating Layer inception_4d/relu_3x3
I0616 19:48:59.874858 42478 net.cpp:454] inception_4d/relu_3x3 <- inception_4d/3x3
I0616 19:48:59.874878 42478 net.cpp:397] inception_4d/relu_3x3 -> inception_4d/3x3 (in-place)
I0616 19:48:59.875108 42478 net.cpp:150] Setting up inception_4d/relu_3x3
I0616 19:48:59.875140 42478 net.cpp:157] Top shape: 64 288 14 14 (3612672)
I0616 19:48:59.875157 42478 net.cpp:165] Memory required for data: 3017960452
I0616 19:48:59.875174 42478 layer_factory.hpp:77] Creating layer inception_4d/5x5_reduce
I0616 19:48:59.875200 42478 net.cpp:106] Creating Layer inception_4d/5x5_reduce
I0616 19:48:59.875219 42478 net.cpp:454] inception_4d/5x5_reduce <- inception_4c/output_inception_4c/output_0_split_2
I0616 19:48:59.875243 42478 net.cpp:411] inception_4d/5x5_reduce -> inception_4d/5x5_reduce
I0616 19:48:59.876534 42478 net.cpp:150] Setting up inception_4d/5x5_reduce
I0616 19:48:59.876574 42478 net.cpp:157] Top shape: 64 32 14 14 (401408)
I0616 19:48:59.876592 42478 net.cpp:165] Memory required for data: 3019566084
I0616 19:48:59.876612 42478 layer_factory.hpp:77] Creating layer inception_4d/relu_5x5_reduce
I0616 19:48:59.876633 42478 net.cpp:106] Creating Layer inception_4d/relu_5x5_reduce
I0616 19:48:59.876652 42478 net.cpp:454] inception_4d/relu_5x5_reduce <- inception_4d/5x5_reduce
I0616 19:48:59.876669 42478 net.cpp:397] inception_4d/relu_5x5_reduce -> inception_4d/5x5_reduce (in-place)
I0616 19:48:59.876853 42478 net.cpp:150] Setting up inception_4d/relu_5x5_reduce
I0616 19:48:59.876884 42478 net.cpp:157] Top shape: 64 32 14 14 (401408)
I0616 19:48:59.876902 42478 net.cpp:165] Memory required for data: 3021171716
I0616 19:48:59.876919 42478 layer_factory.hpp:77] Creating layer inception_4d/5x5
I0616 19:48:59.876945 42478 net.cpp:106] Creating Layer inception_4d/5x5
I0616 19:48:59.876965 42478 net.cpp:454] inception_4d/5x5 <- inception_4d/5x5_reduce
I0616 19:48:59.876997 42478 net.cpp:411] inception_4d/5x5 -> inception_4d/5x5
I0616 19:48:59.878516 42478 net.cpp:150] Setting up inception_4d/5x5
I0616 19:48:59.878556 42478 net.cpp:157] Top shape: 64 64 14 14 (802816)
I0616 19:48:59.878577 42478 net.cpp:165] Memory required for data: 3024382980
I0616 19:48:59.878598 42478 layer_factory.hpp:77] Creating layer inception_4d/relu_5x5
I0616 19:48:59.878619 42478 net.cpp:106] Creating Layer inception_4d/relu_5x5
I0616 19:48:59.878638 42478 net.cpp:454] inception_4d/relu_5x5 <- inception_4d/5x5
I0616 19:48:59.878671 42478 net.cpp:397] inception_4d/relu_5x5 -> inception_4d/5x5 (in-place)
I0616 19:48:59.879003 42478 net.cpp:150] Setting up inception_4d/relu_5x5
I0616 19:48:59.879041 42478 net.cpp:157] Top shape: 64 64 14 14 (802816)
I0616 19:48:59.879061 42478 net.cpp:165] Memory required for data: 3027594244
I0616 19:48:59.879079 42478 layer_factory.hpp:77] Creating layer inception_4d/pool
I0616 19:48:59.879113 42478 net.cpp:106] Creating Layer inception_4d/pool
I0616 19:48:59.879132 42478 net.cpp:454] inception_4d/pool <- inception_4c/output_inception_4c/output_0_split_3
I0616 19:48:59.879161 42478 net.cpp:411] inception_4d/pool -> inception_4d/pool
I0616 19:48:59.879240 42478 net.cpp:150] Setting up inception_4d/pool
I0616 19:48:59.879290 42478 net.cpp:157] Top shape: 64 512 14 14 (6422528)
I0616 19:48:59.879307 42478 net.cpp:165] Memory required for data: 3053284356
I0616 19:48:59.879324 42478 layer_factory.hpp:77] Creating layer inception_4d/pool_proj
I0616 19:48:59.879348 42478 net.cpp:106] Creating Layer inception_4d/pool_proj
I0616 19:48:59.879377 42478 net.cpp:454] inception_4d/pool_proj <- inception_4d/pool
I0616 19:48:59.879396 42478 net.cpp:411] inception_4d/pool_proj -> inception_4d/pool_proj
I0616 19:48:59.881209 42478 net.cpp:150] Setting up inception_4d/pool_proj
I0616 19:48:59.881249 42478 net.cpp:157] Top shape: 64 64 14 14 (802816)
I0616 19:48:59.881268 42478 net.cpp:165] Memory required for data: 3056495620
I0616 19:48:59.881289 42478 layer_factory.hpp:77] Creating layer inception_4d/relu_pool_proj
I0616 19:48:59.881310 42478 net.cpp:106] Creating Layer inception_4d/relu_pool_proj
I0616 19:48:59.881328 42478 net.cpp:454] inception_4d/relu_pool_proj <- inception_4d/pool_proj
I0616 19:48:59.881350 42478 net.cpp:397] inception_4d/relu_pool_proj -> inception_4d/pool_proj (in-place)
I0616 19:48:59.881539 42478 net.cpp:150] Setting up inception_4d/relu_pool_proj
I0616 19:48:59.881572 42478 net.cpp:157] Top shape: 64 64 14 14 (802816)
I0616 19:48:59.881590 42478 net.cpp:165] Memory required for data: 3059706884
I0616 19:48:59.881606 42478 layer_factory.hpp:77] Creating layer inception_4d/output
I0616 19:48:59.881626 42478 net.cpp:106] Creating Layer inception_4d/output
I0616 19:48:59.881644 42478 net.cpp:454] inception_4d/output <- inception_4d/1x1
I0616 19:48:59.881661 42478 net.cpp:454] inception_4d/output <- inception_4d/3x3
I0616 19:48:59.881680 42478 net.cpp:454] inception_4d/output <- inception_4d/5x5
I0616 19:48:59.881696 42478 net.cpp:454] inception_4d/output <- inception_4d/pool_proj
I0616 19:48:59.881714 42478 net.cpp:411] inception_4d/output -> inception_4d/output
I0616 19:48:59.881764 42478 net.cpp:150] Setting up inception_4d/output
I0616 19:48:59.881790 42478 net.cpp:157] Top shape: 64 528 14 14 (6623232)
I0616 19:48:59.881808 42478 net.cpp:165] Memory required for data: 3086199812
I0616 19:48:59.881824 42478 layer_factory.hpp:77] Creating layer inception_4d/output_inception_4d/output_0_split
I0616 19:48:59.881841 42478 net.cpp:106] Creating Layer inception_4d/output_inception_4d/output_0_split
I0616 19:48:59.881860 42478 net.cpp:454] inception_4d/output_inception_4d/output_0_split <- inception_4d/output
I0616 19:48:59.881880 42478 net.cpp:411] inception_4d/output_inception_4d/output_0_split -> inception_4d/output_inception_4d/output_0_split_0
I0616 19:48:59.881901 42478 net.cpp:411] inception_4d/output_inception_4d/output_0_split -> inception_4d/output_inception_4d/output_0_split_1
I0616 19:48:59.881922 42478 net.cpp:411] inception_4d/output_inception_4d/output_0_split -> inception_4d/output_inception_4d/output_0_split_2
I0616 19:48:59.881943 42478 net.cpp:411] inception_4d/output_inception_4d/output_0_split -> inception_4d/output_inception_4d/output_0_split_3
I0616 19:48:59.881963 42478 net.cpp:411] inception_4d/output_inception_4d/output_0_split -> inception_4d/output_inception_4d/output_0_split_4
I0616 19:48:59.882083 42478 net.cpp:150] Setting up inception_4d/output_inception_4d/output_0_split
I0616 19:48:59.882120 42478 net.cpp:157] Top shape: 64 528 14 14 (6623232)
I0616 19:48:59.882138 42478 net.cpp:157] Top shape: 64 528 14 14 (6623232)
I0616 19:48:59.882177 42478 net.cpp:157] Top shape: 64 528 14 14 (6623232)
I0616 19:48:59.882196 42478 net.cpp:157] Top shape: 64 528 14 14 (6623232)
I0616 19:48:59.882213 42478 net.cpp:157] Top shape: 64 528 14 14 (6623232)
I0616 19:48:59.882228 42478 net.cpp:165] Memory required for data: 3218664452
I0616 19:48:59.882246 42478 layer_factory.hpp:77] Creating layer loss2/ave_pool
I0616 19:48:59.882263 42478 net.cpp:106] Creating Layer loss2/ave_pool
I0616 19:48:59.882282 42478 net.cpp:454] loss2/ave_pool <- inception_4d/output_inception_4d/output_0_split_0
I0616 19:48:59.882302 42478 net.cpp:411] loss2/ave_pool -> loss2/ave_pool
I0616 19:48:59.882670 42478 net.cpp:150] Setting up loss2/ave_pool
I0616 19:48:59.882705 42478 net.cpp:157] Top shape: 64 528 4 4 (540672)
I0616 19:48:59.882725 42478 net.cpp:165] Memory required for data: 3220827140
I0616 19:48:59.882740 42478 layer_factory.hpp:77] Creating layer loss2/conv
I0616 19:48:59.882764 42478 net.cpp:106] Creating Layer loss2/conv
I0616 19:48:59.882784 42478 net.cpp:454] loss2/conv <- loss2/ave_pool
I0616 19:48:59.882805 42478 net.cpp:411] loss2/conv -> loss2/conv
I0616 19:48:59.885004 42478 net.cpp:150] Setting up loss2/conv
I0616 19:48:59.885071 42478 net.cpp:157] Top shape: 64 128 4 4 (131072)
I0616 19:48:59.885092 42478 net.cpp:165] Memory required for data: 3221351428
I0616 19:48:59.885123 42478 layer_factory.hpp:77] Creating layer loss2/relu_conv
I0616 19:48:59.885143 42478 net.cpp:106] Creating Layer loss2/relu_conv
I0616 19:48:59.885161 42478 net.cpp:454] loss2/relu_conv <- loss2/conv
I0616 19:48:59.885180 42478 net.cpp:397] loss2/relu_conv -> loss2/conv (in-place)
I0616 19:48:59.885479 42478 net.cpp:150] Setting up loss2/relu_conv
I0616 19:48:59.885516 42478 net.cpp:157] Top shape: 64 128 4 4 (131072)
I0616 19:48:59.885535 42478 net.cpp:165] Memory required for data: 3221875716
I0616 19:48:59.885551 42478 layer_factory.hpp:77] Creating layer loss2/fc
I0616 19:48:59.885572 42478 net.cpp:106] Creating Layer loss2/fc
I0616 19:48:59.885591 42478 net.cpp:454] loss2/fc <- loss2/conv
I0616 19:48:59.885613 42478 net.cpp:411] loss2/fc -> loss2/fc
I0616 19:48:59.900631 42478 net.cpp:150] Setting up loss2/fc
I0616 19:48:59.900671 42478 net.cpp:157] Top shape: 64 1024 (65536)
I0616 19:48:59.900689 42478 net.cpp:165] Memory required for data: 3222137860
I0616 19:48:59.900709 42478 layer_factory.hpp:77] Creating layer loss2/relu_fc
I0616 19:48:59.900732 42478 net.cpp:106] Creating Layer loss2/relu_fc
I0616 19:48:59.900751 42478 net.cpp:454] loss2/relu_fc <- loss2/fc
I0616 19:48:59.900769 42478 net.cpp:397] loss2/relu_fc -> loss2/fc (in-place)
I0616 19:48:59.901084 42478 net.cpp:150] Setting up loss2/relu_fc
I0616 19:48:59.901123 42478 net.cpp:157] Top shape: 64 1024 (65536)
I0616 19:48:59.901144 42478 net.cpp:165] Memory required for data: 3222400004
I0616 19:48:59.901161 42478 layer_factory.hpp:77] Creating layer loss2/drop_fc
I0616 19:48:59.901192 42478 net.cpp:106] Creating Layer loss2/drop_fc
I0616 19:48:59.901209 42478 net.cpp:454] loss2/drop_fc <- loss2/fc
I0616 19:48:59.901228 42478 net.cpp:397] loss2/drop_fc -> loss2/fc (in-place)
I0616 19:48:59.901281 42478 net.cpp:150] Setting up loss2/drop_fc
I0616 19:48:59.901309 42478 net.cpp:157] Top shape: 64 1024 (65536)
I0616 19:48:59.901324 42478 net.cpp:165] Memory required for data: 3222662148
I0616 19:48:59.901340 42478 layer_factory.hpp:77] Creating layer loss2/classifier
I0616 19:48:59.901362 42478 net.cpp:106] Creating Layer loss2/classifier
I0616 19:48:59.901381 42478 net.cpp:454] loss2/classifier <- loss2/fc
I0616 19:48:59.901399 42478 net.cpp:411] loss2/classifier -> loss2/classifier
I0616 19:48:59.908957 42478 net.cpp:150] Setting up loss2/classifier
I0616 19:48:59.908996 42478 net.cpp:157] Top shape: 64 1000 (64000)
I0616 19:48:59.909018 42478 net.cpp:165] Memory required for data: 3222918148
I0616 19:48:59.909039 42478 layer_factory.hpp:77] Creating layer loss2/loss
I0616 19:48:59.909071 42478 net.cpp:106] Creating Layer loss2/loss
I0616 19:48:59.909090 42478 net.cpp:454] loss2/loss <- loss2/classifier
I0616 19:48:59.909131 42478 net.cpp:454] loss2/loss <- label_data_1_split_1
I0616 19:48:59.909164 42478 net.cpp:411] loss2/loss -> loss2/loss1
I0616 19:48:59.909188 42478 layer_factory.hpp:77] Creating layer loss2/loss
I0616 19:48:59.909503 42478 net.cpp:150] Setting up loss2/loss
I0616 19:48:59.909538 42478 net.cpp:157] Top shape: (1)
I0616 19:48:59.909557 42478 net.cpp:160]     with loss weight 0.3
I0616 19:48:59.909581 42478 net.cpp:165] Memory required for data: 3222918152
I0616 19:48:59.909597 42478 layer_factory.hpp:77] Creating layer inception_4e/1x1
I0616 19:48:59.909622 42478 net.cpp:106] Creating Layer inception_4e/1x1
I0616 19:48:59.909643 42478 net.cpp:454] inception_4e/1x1 <- inception_4d/output_inception_4d/output_0_split_1
I0616 19:48:59.909663 42478 net.cpp:411] inception_4e/1x1 -> inception_4e/1x1
I0616 19:48:59.911481 42478 net.cpp:150] Setting up inception_4e/1x1
I0616 19:48:59.911521 42478 net.cpp:157] Top shape: 64 256 14 14 (3211264)
I0616 19:48:59.911540 42478 net.cpp:165] Memory required for data: 3235763208
I0616 19:48:59.911559 42478 layer_factory.hpp:77] Creating layer inception_4e/relu_1x1
I0616 19:48:59.911582 42478 net.cpp:106] Creating Layer inception_4e/relu_1x1
I0616 19:48:59.911612 42478 net.cpp:454] inception_4e/relu_1x1 <- inception_4e/1x1
I0616 19:48:59.911631 42478 net.cpp:397] inception_4e/relu_1x1 -> inception_4e/1x1 (in-place)
I0616 19:48:59.911860 42478 net.cpp:150] Setting up inception_4e/relu_1x1
I0616 19:48:59.911895 42478 net.cpp:157] Top shape: 64 256 14 14 (3211264)
I0616 19:48:59.911924 42478 net.cpp:165] Memory required for data: 3248608264
I0616 19:48:59.911942 42478 layer_factory.hpp:77] Creating layer inception_4e/3x3_reduce
I0616 19:48:59.911977 42478 net.cpp:106] Creating Layer inception_4e/3x3_reduce
I0616 19:48:59.911996 42478 net.cpp:454] inception_4e/3x3_reduce <- inception_4d/output_inception_4d/output_0_split_2
I0616 19:48:59.912034 42478 net.cpp:411] inception_4e/3x3_reduce -> inception_4e/3x3_reduce
I0616 19:48:59.914115 42478 net.cpp:150] Setting up inception_4e/3x3_reduce
I0616 19:48:59.914155 42478 net.cpp:157] Top shape: 64 160 14 14 (2007040)
I0616 19:48:59.914175 42478 net.cpp:165] Memory required for data: 3256636424
I0616 19:48:59.914196 42478 layer_factory.hpp:77] Creating layer inception_4e/relu_3x3_reduce
I0616 19:48:59.914221 42478 net.cpp:106] Creating Layer inception_4e/relu_3x3_reduce
I0616 19:48:59.914242 42478 net.cpp:454] inception_4e/relu_3x3_reduce <- inception_4e/3x3_reduce
I0616 19:48:59.914263 42478 net.cpp:397] inception_4e/relu_3x3_reduce -> inception_4e/3x3_reduce (in-place)
I0616 19:48:59.914590 42478 net.cpp:150] Setting up inception_4e/relu_3x3_reduce
I0616 19:48:59.914631 42478 net.cpp:157] Top shape: 64 160 14 14 (2007040)
I0616 19:48:59.914650 42478 net.cpp:165] Memory required for data: 3264664584
I0616 19:48:59.914666 42478 layer_factory.hpp:77] Creating layer inception_4e/3x3
I0616 19:48:59.914692 42478 net.cpp:106] Creating Layer inception_4e/3x3
I0616 19:48:59.914712 42478 net.cpp:454] inception_4e/3x3 <- inception_4e/3x3_reduce
I0616 19:48:59.914732 42478 net.cpp:411] inception_4e/3x3 -> inception_4e/3x3
I0616 19:48:59.919136 42478 net.cpp:150] Setting up inception_4e/3x3
I0616 19:48:59.919174 42478 net.cpp:157] Top shape: 64 320 14 14 (4014080)
I0616 19:48:59.919194 42478 net.cpp:165] Memory required for data: 3280720904
I0616 19:48:59.919214 42478 layer_factory.hpp:77] Creating layer inception_4e/relu_3x3
I0616 19:48:59.919235 42478 net.cpp:106] Creating Layer inception_4e/relu_3x3
I0616 19:48:59.919253 42478 net.cpp:454] inception_4e/relu_3x3 <- inception_4e/3x3
I0616 19:48:59.919271 42478 net.cpp:397] inception_4e/relu_3x3 -> inception_4e/3x3 (in-place)
I0616 19:48:59.919471 42478 net.cpp:150] Setting up inception_4e/relu_3x3
I0616 19:48:59.919505 42478 net.cpp:157] Top shape: 64 320 14 14 (4014080)
I0616 19:48:59.919523 42478 net.cpp:165] Memory required for data: 3296777224
I0616 19:48:59.919539 42478 layer_factory.hpp:77] Creating layer inception_4e/5x5_reduce
I0616 19:48:59.919574 42478 net.cpp:106] Creating Layer inception_4e/5x5_reduce
I0616 19:48:59.919625 42478 net.cpp:454] inception_4e/5x5_reduce <- inception_4d/output_inception_4d/output_0_split_3
I0616 19:48:59.919651 42478 net.cpp:411] inception_4e/5x5_reduce -> inception_4e/5x5_reduce
I0616 19:48:59.920914 42478 net.cpp:150] Setting up inception_4e/5x5_reduce
I0616 19:48:59.920955 42478 net.cpp:157] Top shape: 64 32 14 14 (401408)
I0616 19:48:59.920976 42478 net.cpp:165] Memory required for data: 3298382856
I0616 19:48:59.920997 42478 layer_factory.hpp:77] Creating layer inception_4e/relu_5x5_reduce
I0616 19:48:59.921025 42478 net.cpp:106] Creating Layer inception_4e/relu_5x5_reduce
I0616 19:48:59.921046 42478 net.cpp:454] inception_4e/relu_5x5_reduce <- inception_4e/5x5_reduce
I0616 19:48:59.921066 42478 net.cpp:397] inception_4e/relu_5x5_reduce -> inception_4e/5x5_reduce (in-place)
I0616 19:48:59.921262 42478 net.cpp:150] Setting up inception_4e/relu_5x5_reduce
I0616 19:48:59.921294 42478 net.cpp:157] Top shape: 64 32 14 14 (401408)
I0616 19:48:59.921313 42478 net.cpp:165] Memory required for data: 3299988488
I0616 19:48:59.921329 42478 layer_factory.hpp:77] Creating layer inception_4e/5x5
I0616 19:48:59.921368 42478 net.cpp:106] Creating Layer inception_4e/5x5
I0616 19:48:59.921391 42478 net.cpp:454] inception_4e/5x5 <- inception_4e/5x5_reduce
I0616 19:48:59.921411 42478 net.cpp:411] inception_4e/5x5 -> inception_4e/5x5
I0616 19:48:59.923097 42478 net.cpp:150] Setting up inception_4e/5x5
I0616 19:48:59.923137 42478 net.cpp:157] Top shape: 64 128 14 14 (1605632)
I0616 19:48:59.923156 42478 net.cpp:165] Memory required for data: 3306411016
I0616 19:48:59.923177 42478 layer_factory.hpp:77] Creating layer inception_4e/relu_5x5
I0616 19:48:59.923199 42478 net.cpp:106] Creating Layer inception_4e/relu_5x5
I0616 19:48:59.923218 42478 net.cpp:454] inception_4e/relu_5x5 <- inception_4e/5x5
I0616 19:48:59.923236 42478 net.cpp:397] inception_4e/relu_5x5 -> inception_4e/5x5 (in-place)
I0616 19:48:59.923575 42478 net.cpp:150] Setting up inception_4e/relu_5x5
I0616 19:48:59.923610 42478 net.cpp:157] Top shape: 64 128 14 14 (1605632)
I0616 19:48:59.923629 42478 net.cpp:165] Memory required for data: 3312833544
I0616 19:48:59.923645 42478 layer_factory.hpp:77] Creating layer inception_4e/pool
I0616 19:48:59.923665 42478 net.cpp:106] Creating Layer inception_4e/pool
I0616 19:48:59.923682 42478 net.cpp:454] inception_4e/pool <- inception_4d/output_inception_4d/output_0_split_4
I0616 19:48:59.923703 42478 net.cpp:411] inception_4e/pool -> inception_4e/pool
I0616 19:48:59.923774 42478 net.cpp:150] Setting up inception_4e/pool
I0616 19:48:59.923800 42478 net.cpp:157] Top shape: 64 528 14 14 (6623232)
I0616 19:48:59.923816 42478 net.cpp:165] Memory required for data: 3339326472
I0616 19:48:59.923832 42478 layer_factory.hpp:77] Creating layer inception_4e/pool_proj
I0616 19:48:59.923859 42478 net.cpp:106] Creating Layer inception_4e/pool_proj
I0616 19:48:59.923879 42478 net.cpp:454] inception_4e/pool_proj <- inception_4e/pool
I0616 19:48:59.923899 42478 net.cpp:411] inception_4e/pool_proj -> inception_4e/pool_proj
I0616 19:48:59.925289 42478 net.cpp:150] Setting up inception_4e/pool_proj
I0616 19:48:59.925328 42478 net.cpp:157] Top shape: 64 128 14 14 (1605632)
I0616 19:48:59.925345 42478 net.cpp:165] Memory required for data: 3345749000
I0616 19:48:59.925365 42478 layer_factory.hpp:77] Creating layer inception_4e/relu_pool_proj
I0616 19:48:59.925387 42478 net.cpp:106] Creating Layer inception_4e/relu_pool_proj
I0616 19:48:59.925406 42478 net.cpp:454] inception_4e/relu_pool_proj <- inception_4e/pool_proj
I0616 19:48:59.925426 42478 net.cpp:397] inception_4e/relu_pool_proj -> inception_4e/pool_proj (in-place)
I0616 19:48:59.925612 42478 net.cpp:150] Setting up inception_4e/relu_pool_proj
I0616 19:48:59.925644 42478 net.cpp:157] Top shape: 64 128 14 14 (1605632)
I0616 19:48:59.925662 42478 net.cpp:165] Memory required for data: 3352171528
I0616 19:48:59.925679 42478 layer_factory.hpp:77] Creating layer inception_4e/output
I0616 19:48:59.925698 42478 net.cpp:106] Creating Layer inception_4e/output
I0616 19:48:59.925737 42478 net.cpp:454] inception_4e/output <- inception_4e/1x1
I0616 19:48:59.925757 42478 net.cpp:454] inception_4e/output <- inception_4e/3x3
I0616 19:48:59.925775 42478 net.cpp:454] inception_4e/output <- inception_4e/5x5
I0616 19:48:59.925792 42478 net.cpp:454] inception_4e/output <- inception_4e/pool_proj
I0616 19:48:59.925811 42478 net.cpp:411] inception_4e/output -> inception_4e/output
I0616 19:48:59.925863 42478 net.cpp:150] Setting up inception_4e/output
I0616 19:48:59.925889 42478 net.cpp:157] Top shape: 64 832 14 14 (10436608)
I0616 19:48:59.925906 42478 net.cpp:165] Memory required for data: 3393917960
I0616 19:48:59.925921 42478 layer_factory.hpp:77] Creating layer pool4/3x3_s2
I0616 19:48:59.925940 42478 net.cpp:106] Creating Layer pool4/3x3_s2
I0616 19:48:59.925957 42478 net.cpp:454] pool4/3x3_s2 <- inception_4e/output
I0616 19:48:59.925978 42478 net.cpp:411] pool4/3x3_s2 -> pool4/3x3_s2
I0616 19:48:59.926049 42478 net.cpp:150] Setting up pool4/3x3_s2
I0616 19:48:59.926075 42478 net.cpp:157] Top shape: 64 832 7 7 (2609152)
I0616 19:48:59.926092 42478 net.cpp:165] Memory required for data: 3404354568
I0616 19:48:59.926108 42478 layer_factory.hpp:77] Creating layer pool4/3x3_s2_pool4/3x3_s2_0_split
I0616 19:48:59.926126 42478 net.cpp:106] Creating Layer pool4/3x3_s2_pool4/3x3_s2_0_split
I0616 19:48:59.926143 42478 net.cpp:454] pool4/3x3_s2_pool4/3x3_s2_0_split <- pool4/3x3_s2
I0616 19:48:59.926163 42478 net.cpp:411] pool4/3x3_s2_pool4/3x3_s2_0_split -> pool4/3x3_s2_pool4/3x3_s2_0_split_0
I0616 19:48:59.926184 42478 net.cpp:411] pool4/3x3_s2_pool4/3x3_s2_0_split -> pool4/3x3_s2_pool4/3x3_s2_0_split_1
I0616 19:48:59.926204 42478 net.cpp:411] pool4/3x3_s2_pool4/3x3_s2_0_split -> pool4/3x3_s2_pool4/3x3_s2_0_split_2
I0616 19:48:59.926224 42478 net.cpp:411] pool4/3x3_s2_pool4/3x3_s2_0_split -> pool4/3x3_s2_pool4/3x3_s2_0_split_3
I0616 19:48:59.926307 42478 net.cpp:150] Setting up pool4/3x3_s2_pool4/3x3_s2_0_split
I0616 19:48:59.926334 42478 net.cpp:157] Top shape: 64 832 7 7 (2609152)
I0616 19:48:59.926352 42478 net.cpp:157] Top shape: 64 832 7 7 (2609152)
I0616 19:48:59.926368 42478 net.cpp:157] Top shape: 64 832 7 7 (2609152)
I0616 19:48:59.926385 42478 net.cpp:157] Top shape: 64 832 7 7 (2609152)
I0616 19:48:59.926400 42478 net.cpp:165] Memory required for data: 3446101000
I0616 19:48:59.926415 42478 layer_factory.hpp:77] Creating layer inception_5a/1x1
I0616 19:48:59.926437 42478 net.cpp:106] Creating Layer inception_5a/1x1
I0616 19:48:59.926455 42478 net.cpp:454] inception_5a/1x1 <- pool4/3x3_s2_pool4/3x3_s2_0_split_0
I0616 19:48:59.926476 42478 net.cpp:411] inception_5a/1x1 -> inception_5a/1x1
I0616 19:48:59.929473 42478 net.cpp:150] Setting up inception_5a/1x1
I0616 19:48:59.929513 42478 net.cpp:157] Top shape: 64 256 7 7 (802816)
I0616 19:48:59.929543 42478 net.cpp:165] Memory required for data: 3449312264
I0616 19:48:59.929563 42478 layer_factory.hpp:77] Creating layer inception_5a/relu_1x1
I0616 19:48:59.929608 42478 net.cpp:106] Creating Layer inception_5a/relu_1x1
I0616 19:48:59.929628 42478 net.cpp:454] inception_5a/relu_1x1 <- inception_5a/1x1
I0616 19:48:59.929648 42478 net.cpp:397] inception_5a/relu_1x1 -> inception_5a/1x1 (in-place)
I0616 19:48:59.929858 42478 net.cpp:150] Setting up inception_5a/relu_1x1
I0616 19:48:59.929893 42478 net.cpp:157] Top shape: 64 256 7 7 (802816)
I0616 19:48:59.929910 42478 net.cpp:165] Memory required for data: 3452523528
I0616 19:48:59.929927 42478 layer_factory.hpp:77] Creating layer inception_5a/3x3_reduce
I0616 19:48:59.929951 42478 net.cpp:106] Creating Layer inception_5a/3x3_reduce
I0616 19:48:59.929972 42478 net.cpp:454] inception_5a/3x3_reduce <- pool4/3x3_s2_pool4/3x3_s2_0_split_1
I0616 19:48:59.929992 42478 net.cpp:411] inception_5a/3x3_reduce -> inception_5a/3x3_reduce
I0616 19:48:59.936208 42478 net.cpp:150] Setting up inception_5a/3x3_reduce
I0616 19:48:59.936271 42478 net.cpp:157] Top shape: 64 160 7 7 (501760)
I0616 19:48:59.936312 42478 net.cpp:165] Memory required for data: 3454530568
I0616 19:48:59.936367 42478 layer_factory.hpp:77] Creating layer inception_5a/relu_3x3_reduce
I0616 19:48:59.936436 42478 net.cpp:106] Creating Layer inception_5a/relu_3x3_reduce
I0616 19:48:59.936467 42478 net.cpp:454] inception_5a/relu_3x3_reduce <- inception_5a/3x3_reduce
I0616 19:48:59.936508 42478 net.cpp:397] inception_5a/relu_3x3_reduce -> inception_5a/3x3_reduce (in-place)
I0616 19:48:59.936939 42478 net.cpp:150] Setting up inception_5a/relu_3x3_reduce
I0616 19:48:59.936977 42478 net.cpp:157] Top shape: 64 160 7 7 (501760)
I0616 19:48:59.937010 42478 net.cpp:165] Memory required for data: 3456537608
I0616 19:48:59.937041 42478 layer_factory.hpp:77] Creating layer inception_5a/3x3
I0616 19:48:59.937077 42478 net.cpp:106] Creating Layer inception_5a/3x3
I0616 19:48:59.937114 42478 net.cpp:454] inception_5a/3x3 <- inception_5a/3x3_reduce
I0616 19:48:59.937137 42478 net.cpp:411] inception_5a/3x3 -> inception_5a/3x3
I0616 19:48:59.941915 42478 net.cpp:150] Setting up inception_5a/3x3
I0616 19:48:59.941959 42478 net.cpp:157] Top shape: 64 320 7 7 (1003520)
I0616 19:48:59.941979 42478 net.cpp:165] Memory required for data: 3460551688
I0616 19:48:59.941999 42478 layer_factory.hpp:77] Creating layer inception_5a/relu_3x3
I0616 19:48:59.942025 42478 net.cpp:106] Creating Layer inception_5a/relu_3x3
I0616 19:48:59.942055 42478 net.cpp:454] inception_5a/relu_3x3 <- inception_5a/3x3
I0616 19:48:59.942075 42478 net.cpp:397] inception_5a/relu_3x3 -> inception_5a/3x3 (in-place)
I0616 19:48:59.942279 42478 net.cpp:150] Setting up inception_5a/relu_3x3
I0616 19:48:59.942312 42478 net.cpp:157] Top shape: 64 320 7 7 (1003520)
I0616 19:48:59.942328 42478 net.cpp:165] Memory required for data: 3464565768
I0616 19:48:59.942344 42478 layer_factory.hpp:77] Creating layer inception_5a/5x5_reduce
I0616 19:48:59.942368 42478 net.cpp:106] Creating Layer inception_5a/5x5_reduce
I0616 19:48:59.942387 42478 net.cpp:454] inception_5a/5x5_reduce <- pool4/3x3_s2_pool4/3x3_s2_0_split_2
I0616 19:48:59.942409 42478 net.cpp:411] inception_5a/5x5_reduce -> inception_5a/5x5_reduce
I0616 19:48:59.943655 42478 net.cpp:150] Setting up inception_5a/5x5_reduce
I0616 19:48:59.943693 42478 net.cpp:157] Top shape: 64 32 7 7 (100352)
I0616 19:48:59.943712 42478 net.cpp:165] Memory required for data: 3464967176
I0616 19:48:59.943732 42478 layer_factory.hpp:77] Creating layer inception_5a/relu_5x5_reduce
I0616 19:48:59.943754 42478 net.cpp:106] Creating Layer inception_5a/relu_5x5_reduce
I0616 19:48:59.943774 42478 net.cpp:454] inception_5a/relu_5x5_reduce <- inception_5a/5x5_reduce
I0616 19:48:59.943792 42478 net.cpp:397] inception_5a/relu_5x5_reduce -> inception_5a/5x5_reduce (in-place)
I0616 19:48:59.943986 42478 net.cpp:150] Setting up inception_5a/relu_5x5_reduce
I0616 19:48:59.944025 42478 net.cpp:157] Top shape: 64 32 7 7 (100352)
I0616 19:48:59.944053 42478 net.cpp:165] Memory required for data: 3465368584
I0616 19:48:59.944070 42478 layer_factory.hpp:77] Creating layer inception_5a/5x5
I0616 19:48:59.944095 42478 net.cpp:106] Creating Layer inception_5a/5x5
I0616 19:48:59.944126 42478 net.cpp:454] inception_5a/5x5 <- inception_5a/5x5_reduce
I0616 19:48:59.944146 42478 net.cpp:411] inception_5a/5x5 -> inception_5a/5x5
I0616 19:48:59.945981 42478 net.cpp:150] Setting up inception_5a/5x5
I0616 19:48:59.946024 42478 net.cpp:157] Top shape: 64 128 7 7 (401408)
I0616 19:48:59.946066 42478 net.cpp:165] Memory required for data: 3466974216
I0616 19:48:59.946086 42478 layer_factory.hpp:77] Creating layer inception_5a/relu_5x5
I0616 19:48:59.946110 42478 net.cpp:106] Creating Layer inception_5a/relu_5x5
I0616 19:48:59.946130 42478 net.cpp:454] inception_5a/relu_5x5 <- inception_5a/5x5
I0616 19:48:59.946148 42478 net.cpp:397] inception_5a/relu_5x5 -> inception_5a/5x5 (in-place)
I0616 19:48:59.946509 42478 net.cpp:150] Setting up inception_5a/relu_5x5
I0616 19:48:59.946568 42478 net.cpp:157] Top shape: 64 128 7 7 (401408)
I0616 19:48:59.946589 42478 net.cpp:165] Memory required for data: 3468579848
I0616 19:48:59.946606 42478 layer_factory.hpp:77] Creating layer inception_5a/pool
I0616 19:48:59.946636 42478 net.cpp:106] Creating Layer inception_5a/pool
I0616 19:48:59.946668 42478 net.cpp:454] inception_5a/pool <- pool4/3x3_s2_pool4/3x3_s2_0_split_3
I0616 19:48:59.946688 42478 net.cpp:411] inception_5a/pool -> inception_5a/pool
I0616 19:48:59.946776 42478 net.cpp:150] Setting up inception_5a/pool
I0616 19:48:59.946827 42478 net.cpp:157] Top shape: 64 832 7 7 (2609152)
I0616 19:48:59.946846 42478 net.cpp:165] Memory required for data: 3479016456
I0616 19:48:59.946863 42478 layer_factory.hpp:77] Creating layer inception_5a/pool_proj
I0616 19:48:59.946899 42478 net.cpp:106] Creating Layer inception_5a/pool_proj
I0616 19:48:59.946920 42478 net.cpp:454] inception_5a/pool_proj <- inception_5a/pool
I0616 19:48:59.946943 42478 net.cpp:411] inception_5a/pool_proj -> inception_5a/pool_proj
I0616 19:48:59.949154 42478 net.cpp:150] Setting up inception_5a/pool_proj
I0616 19:48:59.949198 42478 net.cpp:157] Top shape: 64 128 7 7 (401408)
I0616 19:48:59.949216 42478 net.cpp:165] Memory required for data: 3480622088
I0616 19:48:59.949236 42478 layer_factory.hpp:77] Creating layer inception_5a/relu_pool_proj
I0616 19:48:59.949256 42478 net.cpp:106] Creating Layer inception_5a/relu_pool_proj
I0616 19:48:59.949275 42478 net.cpp:454] inception_5a/relu_pool_proj <- inception_5a/pool_proj
I0616 19:48:59.949293 42478 net.cpp:397] inception_5a/relu_pool_proj -> inception_5a/pool_proj (in-place)
I0616 19:48:59.949487 42478 net.cpp:150] Setting up inception_5a/relu_pool_proj
I0616 19:48:59.949519 42478 net.cpp:157] Top shape: 64 128 7 7 (401408)
I0616 19:48:59.949537 42478 net.cpp:165] Memory required for data: 3482227720
I0616 19:48:59.949553 42478 layer_factory.hpp:77] Creating layer inception_5a/output
I0616 19:48:59.949571 42478 net.cpp:106] Creating Layer inception_5a/output
I0616 19:48:59.949589 42478 net.cpp:454] inception_5a/output <- inception_5a/1x1
I0616 19:48:59.949606 42478 net.cpp:454] inception_5a/output <- inception_5a/3x3
I0616 19:48:59.949623 42478 net.cpp:454] inception_5a/output <- inception_5a/5x5
I0616 19:48:59.949641 42478 net.cpp:454] inception_5a/output <- inception_5a/pool_proj
I0616 19:48:59.949661 42478 net.cpp:411] inception_5a/output -> inception_5a/output
I0616 19:48:59.949713 42478 net.cpp:150] Setting up inception_5a/output
I0616 19:48:59.949741 42478 net.cpp:157] Top shape: 64 832 7 7 (2609152)
I0616 19:48:59.949759 42478 net.cpp:165] Memory required for data: 3492664328
I0616 19:48:59.949785 42478 layer_factory.hpp:77] Creating layer inception_5a/output_inception_5a/output_0_split
I0616 19:48:59.949805 42478 net.cpp:106] Creating Layer inception_5a/output_inception_5a/output_0_split
I0616 19:48:59.949834 42478 net.cpp:454] inception_5a/output_inception_5a/output_0_split <- inception_5a/output
I0616 19:48:59.949852 42478 net.cpp:411] inception_5a/output_inception_5a/output_0_split -> inception_5a/output_inception_5a/output_0_split_0
I0616 19:48:59.949874 42478 net.cpp:411] inception_5a/output_inception_5a/output_0_split -> inception_5a/output_inception_5a/output_0_split_1
I0616 19:48:59.949897 42478 net.cpp:411] inception_5a/output_inception_5a/output_0_split -> inception_5a/output_inception_5a/output_0_split_2
I0616 19:48:59.949916 42478 net.cpp:411] inception_5a/output_inception_5a/output_0_split -> inception_5a/output_inception_5a/output_0_split_3
I0616 19:48:59.950024 42478 net.cpp:150] Setting up inception_5a/output_inception_5a/output_0_split
I0616 19:48:59.950052 42478 net.cpp:157] Top shape: 64 832 7 7 (2609152)
I0616 19:48:59.950070 42478 net.cpp:157] Top shape: 64 832 7 7 (2609152)
I0616 19:48:59.950088 42478 net.cpp:157] Top shape: 64 832 7 7 (2609152)
I0616 19:48:59.950104 42478 net.cpp:157] Top shape: 64 832 7 7 (2609152)
I0616 19:48:59.950119 42478 net.cpp:165] Memory required for data: 3534410760
I0616 19:48:59.950146 42478 layer_factory.hpp:77] Creating layer inception_5b/1x1
I0616 19:48:59.950189 42478 net.cpp:106] Creating Layer inception_5b/1x1
I0616 19:48:59.950220 42478 net.cpp:454] inception_5b/1x1 <- inception_5a/output_inception_5a/output_0_split_0
I0616 19:48:59.950266 42478 net.cpp:411] inception_5b/1x1 -> inception_5b/1x1
I0616 19:48:59.953886 42478 net.cpp:150] Setting up inception_5b/1x1
I0616 19:48:59.953941 42478 net.cpp:157] Top shape: 64 384 7 7 (1204224)
I0616 19:48:59.953972 42478 net.cpp:165] Memory required for data: 3539227656
I0616 19:48:59.953994 42478 layer_factory.hpp:77] Creating layer inception_5b/relu_1x1
I0616 19:48:59.954033 42478 net.cpp:106] Creating Layer inception_5b/relu_1x1
I0616 19:48:59.954064 42478 net.cpp:454] inception_5b/relu_1x1 <- inception_5b/1x1
I0616 19:48:59.954107 42478 net.cpp:397] inception_5b/relu_1x1 -> inception_5b/1x1 (in-place)
I0616 19:48:59.954361 42478 net.cpp:150] Setting up inception_5b/relu_1x1
I0616 19:48:59.954394 42478 net.cpp:157] Top shape: 64 384 7 7 (1204224)
I0616 19:48:59.954412 42478 net.cpp:165] Memory required for data: 3544044552
I0616 19:48:59.954439 42478 layer_factory.hpp:77] Creating layer inception_5b/3x3_reduce
I0616 19:48:59.954465 42478 net.cpp:106] Creating Layer inception_5b/3x3_reduce
I0616 19:48:59.954499 42478 net.cpp:454] inception_5b/3x3_reduce <- inception_5a/output_inception_5a/output_0_split_1
I0616 19:48:59.954520 42478 net.cpp:411] inception_5b/3x3_reduce -> inception_5b/3x3_reduce
I0616 19:48:59.957108 42478 net.cpp:150] Setting up inception_5b/3x3_reduce
I0616 19:48:59.957149 42478 net.cpp:157] Top shape: 64 192 7 7 (602112)
I0616 19:48:59.957167 42478 net.cpp:165] Memory required for data: 3546453000
I0616 19:48:59.957187 42478 layer_factory.hpp:77] Creating layer inception_5b/relu_3x3_reduce
I0616 19:48:59.957207 42478 net.cpp:106] Creating Layer inception_5b/relu_3x3_reduce
I0616 19:48:59.957226 42478 net.cpp:454] inception_5b/relu_3x3_reduce <- inception_5b/3x3_reduce
I0616 19:48:59.957247 42478 net.cpp:397] inception_5b/relu_3x3_reduce -> inception_5b/3x3_reduce (in-place)
I0616 19:48:59.957592 42478 net.cpp:150] Setting up inception_5b/relu_3x3_reduce
I0616 19:48:59.957628 42478 net.cpp:157] Top shape: 64 192 7 7 (602112)
I0616 19:48:59.957645 42478 net.cpp:165] Memory required for data: 3548861448
I0616 19:48:59.957662 42478 layer_factory.hpp:77] Creating layer inception_5b/3x3
I0616 19:48:59.957687 42478 net.cpp:106] Creating Layer inception_5b/3x3
I0616 19:48:59.957707 42478 net.cpp:454] inception_5b/3x3 <- inception_5b/3x3_reduce
I0616 19:48:59.957731 42478 net.cpp:411] inception_5b/3x3 -> inception_5b/3x3
I0616 19:48:59.963585 42478 net.cpp:150] Setting up inception_5b/3x3
I0616 19:48:59.963639 42478 net.cpp:157] Top shape: 64 384 7 7 (1204224)
I0616 19:48:59.963657 42478 net.cpp:165] Memory required for data: 3553678344
I0616 19:48:59.963677 42478 layer_factory.hpp:77] Creating layer inception_5b/relu_3x3
I0616 19:48:59.963709 42478 net.cpp:106] Creating Layer inception_5b/relu_3x3
I0616 19:48:59.963728 42478 net.cpp:454] inception_5b/relu_3x3 <- inception_5b/3x3
I0616 19:48:59.963749 42478 net.cpp:397] inception_5b/relu_3x3 -> inception_5b/3x3 (in-place)
I0616 19:48:59.963953 42478 net.cpp:150] Setting up inception_5b/relu_3x3
I0616 19:48:59.963986 42478 net.cpp:157] Top shape: 64 384 7 7 (1204224)
I0616 19:48:59.964004 42478 net.cpp:165] Memory required for data: 3558495240
I0616 19:48:59.964026 42478 layer_factory.hpp:77] Creating layer inception_5b/5x5_reduce
I0616 19:48:59.964051 42478 net.cpp:106] Creating Layer inception_5b/5x5_reduce
I0616 19:48:59.964088 42478 net.cpp:454] inception_5b/5x5_reduce <- inception_5a/output_inception_5a/output_0_split_2
I0616 19:48:59.964112 42478 net.cpp:411] inception_5b/5x5_reduce -> inception_5b/5x5_reduce
I0616 19:48:59.965534 42478 net.cpp:150] Setting up inception_5b/5x5_reduce
I0616 19:48:59.965574 42478 net.cpp:157] Top shape: 64 48 7 7 (150528)
I0616 19:48:59.965593 42478 net.cpp:165] Memory required for data: 3559097352
I0616 19:48:59.965613 42478 layer_factory.hpp:77] Creating layer inception_5b/relu_5x5_reduce
I0616 19:48:59.965634 42478 net.cpp:106] Creating Layer inception_5b/relu_5x5_reduce
I0616 19:48:59.965653 42478 net.cpp:454] inception_5b/relu_5x5_reduce <- inception_5b/5x5_reduce
I0616 19:48:59.965672 42478 net.cpp:397] inception_5b/relu_5x5_reduce -> inception_5b/5x5_reduce (in-place)
I0616 19:48:59.965899 42478 net.cpp:150] Setting up inception_5b/relu_5x5_reduce
I0616 19:48:59.965931 42478 net.cpp:157] Top shape: 64 48 7 7 (150528)
I0616 19:48:59.965948 42478 net.cpp:165] Memory required for data: 3559699464
I0616 19:48:59.965965 42478 layer_factory.hpp:77] Creating layer inception_5b/5x5
I0616 19:48:59.965991 42478 net.cpp:106] Creating Layer inception_5b/5x5
I0616 19:48:59.966027 42478 net.cpp:454] inception_5b/5x5 <- inception_5b/5x5_reduce
I0616 19:48:59.966051 42478 net.cpp:411] inception_5b/5x5 -> inception_5b/5x5
I0616 19:48:59.968037 42478 net.cpp:150] Setting up inception_5b/5x5
I0616 19:48:59.968097 42478 net.cpp:157] Top shape: 64 128 7 7 (401408)
I0616 19:48:59.968142 42478 net.cpp:165] Memory required for data: 3561305096
I0616 19:48:59.968173 42478 layer_factory.hpp:77] Creating layer inception_5b/relu_5x5
I0616 19:48:59.968206 42478 net.cpp:106] Creating Layer inception_5b/relu_5x5
I0616 19:48:59.968237 42478 net.cpp:454] inception_5b/relu_5x5 <- inception_5b/5x5
I0616 19:48:59.968258 42478 net.cpp:397] inception_5b/relu_5x5 -> inception_5b/5x5 (in-place)
I0616 19:48:59.968677 42478 net.cpp:150] Setting up inception_5b/relu_5x5
I0616 19:48:59.968714 42478 net.cpp:157] Top shape: 64 128 7 7 (401408)
I0616 19:48:59.968732 42478 net.cpp:165] Memory required for data: 3562910728
I0616 19:48:59.968750 42478 layer_factory.hpp:77] Creating layer inception_5b/pool
I0616 19:48:59.968770 42478 net.cpp:106] Creating Layer inception_5b/pool
I0616 19:48:59.968789 42478 net.cpp:454] inception_5b/pool <- inception_5a/output_inception_5a/output_0_split_3
I0616 19:48:59.968808 42478 net.cpp:411] inception_5b/pool -> inception_5b/pool
I0616 19:48:59.968900 42478 net.cpp:150] Setting up inception_5b/pool
I0616 19:48:59.968929 42478 net.cpp:157] Top shape: 64 832 7 7 (2609152)
I0616 19:48:59.968945 42478 net.cpp:165] Memory required for data: 3573347336
I0616 19:48:59.968961 42478 layer_factory.hpp:77] Creating layer inception_5b/pool_proj
I0616 19:48:59.968986 42478 net.cpp:106] Creating Layer inception_5b/pool_proj
I0616 19:48:59.969009 42478 net.cpp:454] inception_5b/pool_proj <- inception_5b/pool
I0616 19:48:59.969033 42478 net.cpp:411] inception_5b/pool_proj -> inception_5b/pool_proj
I0616 19:48:59.971278 42478 net.cpp:150] Setting up inception_5b/pool_proj
I0616 19:48:59.971318 42478 net.cpp:157] Top shape: 64 128 7 7 (401408)
I0616 19:48:59.971338 42478 net.cpp:165] Memory required for data: 3574952968
I0616 19:48:59.971357 42478 layer_factory.hpp:77] Creating layer inception_5b/relu_pool_proj
I0616 19:48:59.971380 42478 net.cpp:106] Creating Layer inception_5b/relu_pool_proj
I0616 19:48:59.971400 42478 net.cpp:454] inception_5b/relu_pool_proj <- inception_5b/pool_proj
I0616 19:48:59.971417 42478 net.cpp:397] inception_5b/relu_pool_proj -> inception_5b/pool_proj (in-place)
I0616 19:48:59.971632 42478 net.cpp:150] Setting up inception_5b/relu_pool_proj
I0616 19:48:59.971664 42478 net.cpp:157] Top shape: 64 128 7 7 (401408)
I0616 19:48:59.971693 42478 net.cpp:165] Memory required for data: 3576558600
I0616 19:48:59.971709 42478 layer_factory.hpp:77] Creating layer inception_5b/output
I0616 19:48:59.971729 42478 net.cpp:106] Creating Layer inception_5b/output
I0616 19:48:59.971745 42478 net.cpp:454] inception_5b/output <- inception_5b/1x1
I0616 19:48:59.971765 42478 net.cpp:454] inception_5b/output <- inception_5b/3x3
I0616 19:48:59.971782 42478 net.cpp:454] inception_5b/output <- inception_5b/5x5
I0616 19:48:59.971799 42478 net.cpp:454] inception_5b/output <- inception_5b/pool_proj
I0616 19:48:59.971832 42478 net.cpp:411] inception_5b/output -> inception_5b/output
I0616 19:48:59.971896 42478 net.cpp:150] Setting up inception_5b/output
I0616 19:48:59.971923 42478 net.cpp:157] Top shape: 64 1024 7 7 (3211264)
I0616 19:48:59.971951 42478 net.cpp:165] Memory required for data: 3589403656
I0616 19:48:59.971967 42478 layer_factory.hpp:77] Creating layer pool5/7x7_s1
I0616 19:48:59.971990 42478 net.cpp:106] Creating Layer pool5/7x7_s1
I0616 19:48:59.972025 42478 net.cpp:454] pool5/7x7_s1 <- inception_5b/output
I0616 19:48:59.972059 42478 net.cpp:411] pool5/7x7_s1 -> pool5/7x7_s1
I0616 19:48:59.972421 42478 net.cpp:150] Setting up pool5/7x7_s1
I0616 19:48:59.972458 42478 net.cpp:157] Top shape: 64 1024 1 1 (65536)
I0616 19:48:59.972476 42478 net.cpp:165] Memory required for data: 3589665800
I0616 19:48:59.972493 42478 layer_factory.hpp:77] Creating layer pool5/drop_7x7_s1
I0616 19:48:59.972513 42478 net.cpp:106] Creating Layer pool5/drop_7x7_s1
I0616 19:48:59.972533 42478 net.cpp:454] pool5/drop_7x7_s1 <- pool5/7x7_s1
I0616 19:48:59.972553 42478 net.cpp:397] pool5/drop_7x7_s1 -> pool5/7x7_s1 (in-place)
I0616 19:48:59.972616 42478 net.cpp:150] Setting up pool5/drop_7x7_s1
I0616 19:48:59.972642 42478 net.cpp:157] Top shape: 64 1024 1 1 (65536)
I0616 19:48:59.972659 42478 net.cpp:165] Memory required for data: 3589927944
I0616 19:48:59.972676 42478 layer_factory.hpp:77] Creating layer loss3/classifier_resized
I0616 19:48:59.972719 42478 net.cpp:106] Creating Layer loss3/classifier_resized
I0616 19:48:59.972741 42478 net.cpp:454] loss3/classifier_resized <- pool5/7x7_s1
I0616 19:48:59.972761 42478 net.cpp:411] loss3/classifier_resized -> loss3/classifier_resized
I0616 19:48:59.974550 42478 net.cpp:150] Setting up loss3/classifier_resized
I0616 19:48:59.974588 42478 net.cpp:157] Top shape: 64 216 (13824)
I0616 19:48:59.974606 42478 net.cpp:165] Memory required for data: 3589983240
I0616 19:48:59.974627 42478 layer_factory.hpp:77] Creating layer loss3/loss3
I0616 19:48:59.974648 42478 net.cpp:106] Creating Layer loss3/loss3
I0616 19:48:59.974666 42478 net.cpp:454] loss3/loss3 <- loss3/classifier_resized
I0616 19:48:59.974685 42478 net.cpp:454] loss3/loss3 <- label_data_1_split_2
I0616 19:48:59.974715 42478 net.cpp:411] loss3/loss3 -> loss3/loss3
…
I0616 19:48:59.982553 42478 net.cpp:322] The NetState phase (1) differed from the phase (0) specified by a rule in layer data
I0616 19:48:59.983860 42478 net.cpp:49] Initializing net from parameters: 
name: "foodCAT_food101_googlenet"
state {
  phase: TEST
}
layer {
  name: "data"
  type: "ImageData"
  top: "data"
  top: "label"
  include {
    phase: TEST
  }
  transform_param {
    mirror: false
    crop_size: 224
    mean_value: 104
    mean_value: 117
    mean_value: 123
  }
  image_data_param {
    source: "foodCAT_SR_balanced/val.txt"
    batch_size: 16
    shuffle: false
    new_height: 256
    new_width: 256
  }
}
layer {
  name: "conv1/7x7_s2"
  type: "Convolution"
  bottom: "data"
  top: "conv1/7x7_s2"
  param {
    lr_mult: 1
    decay_mult: 1
  }
  param {
    lr_mult: 2
    decay_mult: 0
  }
  convolution_param {
    num_output: 64
    pad: 3
    kernel_size: 7
    stride: 2
    weight_filler {
      type: "xavier"
      std: 0.1
    }
    bias_filler {
      type: "constant"
      value: 0.2
    }
  }
}
layer {
  name: "conv1/relu_7x7"
  type: "ReLU"
  bottom: "conv1/7x7_s2"
  top: "conv1/7x7_s2"
}
layer {
  name: "pool1/3x3_s2"
  type: "Pooling"
  bottom: "conv1/7x7_s2"
  top: "pool1/3x3_s2"
  pooling_param {
    pool: MAX
    kernel_size: 3
    stride: 2
  }
}
layer {
  name: "pool1/norm1"
  type: "LRN"
  bottom: "pool1/3x3_s2"
  top: "pool1/norm1"
  lrn_param {
    local_size: 5
    alpha: 0.0001
    beta: 0.75
  }
}
layer {
  name: "conv2/3x3_reduce"
  type: "Convolution"
  bottom: "pool1/norm1"
  top: "conv2/3x3_reduce"
  param {
    lr_mult: 1
    decay_mult: 1
  }
  param {
    lr_mult: 2
    decay_mult: 0
  }
  convolution_param {
    num_output: 64
    kernel_size: 1
    weight_filler {
      type: "xavier"
      std: 0.1
    }
    bias_filler {
      type: "constant"
      value: 0.2
    }
  }
}
layer {
  name: "conv2/relu_3x3_reduce"
  type: "ReLU"
  bottom: "conv2/3x3_reduce"
  top: "conv2/3x3_reduce"
}
layer {
  name: "conv2/3x3"
  type: "Convolution"
  bottom: "conv2/3x3_reduce"
  top: "conv2/3x3"
  param {
    lr_mult: 1
    decay_mult: 1
  }
  param {
    lr_mult: 2
    decay_mult: 0
  }
  convolution_param {
    num_output: 192
    pad: 1
    kernel_size: 3
    weight_filler {
      type: "xavier"
      std: 0.03
    }
    bias_filler {
      type: "constant"
      value: 0.2
    }
  }
}
layer {
  name: "conv2/relu_3x3"
  type: "ReLU"
  bottom: "conv2/3x3"
  top: "conv2/3x3"
}
layer {
  name: "conv2/norm2"
  type: "LRN"
  bottom: "conv2/3x3"
  top: "conv2/norm2"
  lrn_param {
    local_size: 5
    alpha: 0.0001
    beta: 0.75
  }
}
layer {
  name: "pool2/3x3_s2"
  type: "Pooling"
  bottom: "conv2/norm2"
  top: "pool2/3x3_s2"
  pooling_param {
    pool: MAX
    kernel_size: 3
    stride: 2
  }
}
layer {
  name: "inception_3a/1x1"
  type: "Convolution"
  bottom: "pool2/3x3_s2"
  top: "inception_3a/1x1"
  param {
    lr_mult: 1
    decay_mult: 1
  }
  param {
    lr_mult: 2
    decay_mult: 0
  }
  convolution_param {
    num_output: 64
    kernel_size: 1
    weight_filler {
      type: "xavier"
      std: 0.03
    }
    bias_filler {
      type: "constant"
      value: 0.2
    }
  }
}
layer {
  name: "inception_3a/relu_1x1"
  type: "ReLU"
  bottom: "inception_3a/1x1"
  top: "inception_3a/1x1"
}
layer {
  name: "inception_3a/3x3_reduce"
  type: "Convolution"
  bottom: "pool2/3x3_s2"
  top: "inception_3a/3x3_reduce"
  param {
    lr_mult: 1
    decay_mult: 1
  }
  param {
    lr_mult: 2
    decay_mult: 0
  }
  convolution_param {
    num_output: 96
    kernel_size: 1
    weight_filler {
      type: "xavier"
      std: 0.09
    }
    bias_filler {
      type: "constant"
      value: 0.2
    }
  }
}
layer {
  name: "inception_3a/relu_3x3_reduce"
  type: "ReLU"
  bottom: "inception_3a/3x3_reduce"
  top: "inception_3a/3x3_reduce"
}
layer {
  name: "inception_3a/3x3"
  type: "Convolution"
  bottom: "inception_3a/3x3_reduce"
  top: "inception_3a/3x3"
  param {
    lr_mult: 1
    decay_mult: 1
  }
  param {
    lr_mult: 2
    decay_mult: 0
  }
  convolution_param {
    num_output: 128
    pad: 1
    kernel_size: 3
    weight_filler {
      type: "xavier"
      std: 0.03
    }
    bias_filler {
      type: "constant"
      value: 0.2
    }
  }
}
layer {
  name: "inception_3a/relu_3x3"
  type: "ReLU"
  bottom: "inception_3a/3x3"
  top: "inception_3a/3x3"
}
layer {
  name: "inception_3a/5x5_reduce"
  type: "Convolution"
  bottom: "pool2/3x3_s2"
  top: "inception_3a/5x5_reduce"
  param {
    lr_mult: 1
    decay_mult: 1
  }
  param {
    lr_mult: 2
    decay_mult: 0
  }
  convolution_param {
    num_output: 16
    kernel_size: 1
    weight_filler {
      type: "xavier"
      std: 0.2
    }
    bias_filler {
      type: "constant"
      value: 0.2
    }
  }
}
layer {
  name: "inception_3a/relu_5x5_reduce"
  type: "ReLU"
  bottom: "inception_3a/5x5_reduce"
  top: "inception_3a/5x5_reduce"
}
layer {
  name: "inception_3a/5x5"
  type: "Convolution"
  bottom: "inception_3a/5x5_reduce"
  top: "inception_3a/5x5"
  param {
    lr_mult: 1
    decay_mult: 1
  }
  param {
    lr_mult: 2
    decay_mult: 0
  }
  convolution_param {
    num_output: 32
    pad: 2
    kernel_size: 5
    weight_filler {
      type: "xavier"
      std: 0.03
    }
    bias_filler {
      type: "constant"
      value: 0.2
    }
  }
}
layer {
  name: "inception_3a/relu_5x5"
  type: "ReLU"
  bottom: "inception_3a/5x5"
  top: "inception_3a/5x5"
}
layer {
  name: "inception_3a/pool"
  type: "Pooling"
  bottom: "pool2/3x3_s2"
  top: "inception_3a/pool"
  pooling_param {
    pool: MAX
    kernel_size: 3
    stride: 1
    pad: 1
  }
}
layer {
  name: "inception_3a/pool_proj"
  type: "Convolution"
  bottom: "inception_3a/pool"
  top: "inception_3a/pool_proj"
  param {
    lr_mult: 1
    decay_mult: 1
  }
  param {
    lr_mult: 2
    decay_mult: 0
  }
  convolution_param {
    num_output: 32
    kernel_size: 1
    weight_filler {
      type: "xavier"
      std: 0.1
    }
    bias_filler {
      type: "constant"
      value: 0.2
    }
  }
}
layer {
  name: "inception_3a/relu_pool_proj"
  type: "ReLU"
  bottom: "inception_3a/pool_proj"
  top: "inception_3a/pool_proj"
}
layer {
  name: "inception_3a/output"
  type: "Concat"
  bottom: "inception_3a/1x1"
  bottom: "inception_3a/3x3"
  bottom: "inception_3a/5x5"
  bottom: "inception_3a/pool_proj"
  top: "inception_3a/output"
}
layer {
  name: "inception_3b/1x1"
  type: "Convolution"
  bottom: "inception_3a/output"
  top: "inception_3b/1x1"
  param {
    lr_mult: 1
    decay_mult: 1
  }
  param {
    lr_mult: 2
    decay_mult: 0
  }
  convolution_param {
    num_output: 128
    kernel_size: 1
    weight_filler {
      type: "xavier"
      std: 0.03
    }
    bias_filler {
      type: "constant"
      value: 0.2
    }
  }
}
layer {
  name: "inception_3b/relu_1x1"
  type: "ReLU"
  bottom: "inception_3b/1x1"
  top: "inception_3b/1x1"
}
layer {
  name: "inception_3b/3x3_reduce"
  type: "Convolution"
  bottom: "inception_3a/output"
  top: "inception_3b/3x3_reduce"
  param {
    lr_mult: 1
    decay_mult: 1
  }
  param {
    lr_mult: 2
    decay_mult: 0
  }
  convolution_param {
    num_output: 128
    kernel_size: 1
    weight_filler {
      type: "xavier"
      std: 0.09
    }
    bias_filler {
      type: "constant"
      value: 0.2
    }
  }
}
layer {
  name: "inception_3b/relu_3x3_reduce"
  type: "ReLU"
  bottom: "inception_3b/3x3_reduce"
  top: "inception_3b/3x3_reduce"
}
layer {
  name: "inception_3b/3x3"
  type: "Convolution"
  bottom: "inception_3b/3x3_reduce"
  top: "inception_3b/3x3"
  param {
    lr_mult: 1
    decay_mult: 1
  }
  param {
    lr_mult: 2
    decay_mult: 0
  }
  convolution_param {
    num_output: 192
    pad: 1
    kernel_size: 3
    weight_filler {
      type: "xavier"
      std: 0.03
    }
    bias_filler {
      type: "constant"
      value: 0.2
    }
  }
}
layer {
  name: "inception_3b/relu_3x3"
  type: "ReLU"
  bottom: "inception_3b/3x3"
  top: "inception_3b/3x3"
}
layer {
  name: "inception_3b/5x5_reduce"
  type: "Convolution"
  bottom: "inception_3a/output"
  top: "inception_3b/5x5_reduce"
  param {
    lr_mult: 1
    decay_mult: 1
  }
  param {
    lr_mult: 2
    decay_mult: 0
  }
  convolution_param {
    num_output: 32
    kernel_size: 1
    weight_filler {
      type: "xavier"
      std: 0.2
    }
    bias_filler {
      type: "constant"
      value: 0.2
    }
  }
}
layer {
  name: "inception_3b/relu_5x5_reduce"
  type: "ReLU"
  bottom: "inception_3b/5x5_reduce"
  top: "inception_3b/5x5_reduce"
}
layer {
  name: "inception_3b/5x5"
  type: "Convolution"
  bottom: "inception_3b/5x5_reduce"
  top: "inception_3b/5x5"
  param {
    lr_mult: 1
    decay_mult: 1
  }
  param {
    lr_mult: 2
    decay_mult: 0
  }
  convolution_param {
    num_output: 96
    pad: 2
    kernel_size: 5
    weight_filler {
      type: "xavier"
      std: 0.03
    }
    bias_filler {
      type: "constant"
      value: 0.2
    }
  }
}
layer {
  name: "inception_3b/relu_5x5"
  type: "ReLU"
  bottom: "inception_3b/5x5"
  top: "inception_3b/5x5"
}
layer {
  name: "inception_3b/pool"
  type: "Pooling"
  bottom: "inception_3a/output"
  top: "inception_3b/pool"
  pooling_param {
    pool: MAX
    kernel_size: 3
    stride: 1
    pad: 1
  }
}
layer {
  name: "inception_3b/pool_proj"
  type: "Convolution"
  bottom: "inception_3b/pool"
  top: "inception_3b/pool_proj"
  param {
    lr_mult: 1
    decay_mult: 1
  }
  param {
    lr_mult: 2
    decay_mult: 0
  }
  convolution_param {
    num_output: 64
    kernel_size: 1
    weight_filler {
      type: "xavier"
      std: 0.1
    }
    bias_filler {
      type: "constant"
      value: 0.2
    }
  }
}
layer {
  name: "inception_3b/relu_pool_proj"
  type: "ReLU"
  bottom: "inception_3b/pool_proj"
  top: "inception_3b/pool_proj"
}
layer {
  name: "inception_3b/output"
  type: "Concat"
  bottom: "inception_3b/1x1"
  bottom: "inception_3b/3x3"
  bottom: "inception_3b/5x5"
  bottom: "inception_3b/pool_proj"
  top: "inception_3b/output"
}
layer {
  name: "pool3/3x3_s2"
  type: "Pooling"
  bottom: "inception_3b/output"
  top: "pool3/3x3_s2"
  pooling_param {
    pool: MAX
    kernel_size: 3
    stride: 2
  }
}
layer {
  name: "inception_4a/1x1"
  type: "Convolution"
  bottom: "pool3/3x3_s2"
  top: "inception_4a/1x1"
  param {
    lr_mult: 1
    decay_mult: 1
  }
  param {
    lr_mult: 2
    decay_mult: 0
  }
  convolution_param {
    num_output: 192
    kernel_size: 1
    weight_filler {
      type: "xavier"
      std: 0.03
    }
    bias_filler {
      type: "constant"
      value: 0.2
    }
  }
}
layer {
  name: "inception_4a/relu_1x1"
  type: "ReLU"
  bottom: "inception_4a/1x1"
  top: "inception_4a/1x1"
}
layer {
  name: "inception_4a/3x3_reduce"
  type: "Convolution"
  bottom: "pool3/3x3_s2"
  top: "inception_4a/3x3_reduce"
  param {
    lr_mult: 1
    decay_mult: 1
  }
  param {
    lr_mult: 2
    decay_mult: 0
  }
  convolution_param {
    num_output: 96
    kernel_size: 1
    weight_filler {
      type: "xavier"
      std: 0.09
    }
    bias_filler {
      type: "constant"
      value: 0.2
    }
  }
}
layer {
  name: "inception_4a/relu_3x3_reduce"
  type: "ReLU"
  bottom: "inception_4a/3x3_reduce"
  top: "inception_4a/3x3_reduce"
}
layer {
  name: "inception_4a/3x3"
  type: "Convolution"
  bottom: "inception_4a/3x3_reduce"
  top: "inception_4a/3x3"
  param {
    lr_mult: 1
    decay_mult: 1
  }
  param {
    lr_mult: 2
    decay_mult: 0
  }
  convolution_param {
    num_output: 208
    pad: 1
    kernel_size: 3
    weight_filler {
      type: "xavier"
      std: 0.03
    }
    bias_filler {
      type: "constant"
      value: 0.2
    }
  }
}
layer {
  name: "inception_4a/relu_3x3"
  type: "ReLU"
  bottom: "inception_4a/3x3"
  top: "inception_4a/3x3"
}
layer {
  name: "inception_4a/5x5_reduce"
  type: "Convolution"
  bottom: "pool3/3x3_s2"
  top: "inception_4a/5x5_reduce"
  param {
    lr_mult: 1
    decay_mult: 1
  }
  param {
    lr_mult: 2
    decay_mult: 0
  }
  convolution_param {
    num_output: 16
    kernel_size: 1
    weight_filler {
      type: "xavier"
      std: 0.2
    }
    bias_filler {
      type: "constant"
      value: 0.2
    }
  }
}
layer {
  name: "inception_4a/relu_5x5_reduce"
  type: "ReLU"
  bottom: "inception_4a/5x5_reduce"
  top: "inception_4a/5x5_reduce"
}
layer {
  name: "inception_4a/5x5"
  type: "Convolution"
  bottom: "inception_4a/5x5_reduce"
  top: "inception_4a/5x5"
  param {
    lr_mult: 1
    decay_mult: 1
  }
  param {
    lr_mult: 2
    decay_mult: 0
  }
  convolution_param {
    num_output: 48
    pad: 2
    kernel_size: 5
    weight_filler {
      type: "xavier"
      std: 0.03
    }
    bias_filler {
      type: "constant"
      value: 0.2
    }
  }
}
layer {
  name: "inception_4a/relu_5x5"
  type: "ReLU"
  bottom: "inception_4a/5x5"
  top: "inception_4a/5x5"
}
layer {
  name: "inception_4a/pool"
  type: "Pooling"
  bottom: "pool3/3x3_s2"
  top: "inception_4a/pool"
  pooling_param {
    pool: MAX
    kernel_size: 3
    stride: 1
    pad: 1
  }
}
layer {
  name: "inception_4a/pool_proj"
  type: "Convolution"
  bottom: "inception_4a/pool"
  top: "inception_4a/pool_proj"
  param {
    lr_mult: 1
    decay_mult: 1
  }
  param {
    lr_mult: 2
    decay_mult: 0
  }
  convolution_param {
    num_output: 64
    kernel_size: 1
    weight_filler {
      type: "xavier"
      std: 0.1
    }
    bias_filler {
      type: "constant"
      value: 0.2
    }
  }
}
layer {
  name: "inception_4a/relu_pool_proj"
  type: "ReLU"
  bottom: "inception_4a/pool_proj"
  top: "inception_4a/pool_proj"
}
layer {
  name: "inception_4a/output"
  type: "Concat"
  bottom: "inception_4a/1x1"
  bottom: "inception_4a/3x3"
  bottom: "inception_4a/5x5"
  bottom: "inception_4a/pool_proj"
  top: "inception_4a/output"
}
layer {
  name: "loss1/ave_pool"
  type: "Pooling"
  bottom: "inception_4a/output"
  top: "loss1/ave_pool"
  pooling_param {
    pool: AVE
    kernel_size: 5
    stride: 3
  }
}
layer {
  name: "loss1/conv"
  type: "Convolution"
  bottom: "loss1/ave_pool"
  top: "loss1/conv"
  param {
    lr_mult: 1
    decay_mult: 1
  }
  param {
    lr_mult: 2
    decay_mult: 0
  }
  convolution_param {
    num_output: 128
    kernel_size: 1
    weight_filler {
      type: "xavier"
      std: 0.08
    }
    bias_filler {
      type: "constant"
      value: 0.2
    }
  }
}
layer {
  name: "loss1/relu_conv"
  type: "ReLU"
…
I0616 19:49:00.122705 42478 net.cpp:106] Creating Layer inception_4c/pool
I0616 19:49:00.122723 42478 net.cpp:454] inception_4c/pool <- inception_4b/output_inception_4b/output_0_split_3
I0616 19:49:00.122769 42478 net.cpp:411] inception_4c/pool -> inception_4c/pool
I0616 19:49:00.122869 42478 net.cpp:150] Setting up inception_4c/pool
I0616 19:49:00.122910 42478 net.cpp:157] Top shape: 16 512 14 14 (1605632)
I0616 19:49:00.122927 42478 net.cpp:165] Memory required for data: 707316364
I0616 19:49:00.122946 42478 layer_factory.hpp:77] Creating layer inception_4c/pool_proj
I0616 19:49:00.122972 42478 net.cpp:106] Creating Layer inception_4c/pool_proj
I0616 19:49:00.122992 42478 net.cpp:454] inception_4c/pool_proj <- inception_4c/pool
I0616 19:49:00.123016 42478 net.cpp:411] inception_4c/pool_proj -> inception_4c/pool_proj
I0616 19:49:00.125032 42478 net.cpp:150] Setting up inception_4c/pool_proj
I0616 19:49:00.125077 42478 net.cpp:157] Top shape: 16 64 14 14 (200704)
I0616 19:49:00.125097 42478 net.cpp:165] Memory required for data: 708119180
I0616 19:49:00.125116 42478 layer_factory.hpp:77] Creating layer inception_4c/relu_pool_proj
I0616 19:49:00.125138 42478 net.cpp:106] Creating Layer inception_4c/relu_pool_proj
I0616 19:49:00.125157 42478 net.cpp:454] inception_4c/relu_pool_proj <- inception_4c/pool_proj
I0616 19:49:00.125179 42478 net.cpp:397] inception_4c/relu_pool_proj -> inception_4c/pool_proj (in-place)
I0616 19:49:00.125402 42478 net.cpp:150] Setting up inception_4c/relu_pool_proj
I0616 19:49:00.125434 42478 net.cpp:157] Top shape: 16 64 14 14 (200704)
I0616 19:49:00.125452 42478 net.cpp:165] Memory required for data: 708921996
I0616 19:49:00.125468 42478 layer_factory.hpp:77] Creating layer inception_4c/output
I0616 19:49:00.125488 42478 net.cpp:106] Creating Layer inception_4c/output
I0616 19:49:00.125506 42478 net.cpp:454] inception_4c/output <- inception_4c/1x1
I0616 19:49:00.125524 42478 net.cpp:454] inception_4c/output <- inception_4c/3x3
I0616 19:49:00.125542 42478 net.cpp:454] inception_4c/output <- inception_4c/5x5
I0616 19:49:00.125560 42478 net.cpp:454] inception_4c/output <- inception_4c/pool_proj
I0616 19:49:00.125607 42478 net.cpp:411] inception_4c/output -> inception_4c/output
I0616 19:49:00.125676 42478 net.cpp:150] Setting up inception_4c/output
I0616 19:49:00.125705 42478 net.cpp:157] Top shape: 16 512 14 14 (1605632)
I0616 19:49:00.125721 42478 net.cpp:165] Memory required for data: 715344524
I0616 19:49:00.125738 42478 layer_factory.hpp:77] Creating layer inception_4c/output_inception_4c/output_0_split
I0616 19:49:00.125757 42478 net.cpp:106] Creating Layer inception_4c/output_inception_4c/output_0_split
I0616 19:49:00.125774 42478 net.cpp:454] inception_4c/output_inception_4c/output_0_split <- inception_4c/output
I0616 19:49:00.125793 42478 net.cpp:411] inception_4c/output_inception_4c/output_0_split -> inception_4c/output_inception_4c/output_0_split_0
I0616 19:49:00.125818 42478 net.cpp:411] inception_4c/output_inception_4c/output_0_split -> inception_4c/output_inception_4c/output_0_split_1
I0616 19:49:00.125839 42478 net.cpp:411] inception_4c/output_inception_4c/output_0_split -> inception_4c/output_inception_4c/output_0_split_2
I0616 19:49:00.125860 42478 net.cpp:411] inception_4c/output_inception_4c/output_0_split -> inception_4c/output_inception_4c/output_0_split_3
I0616 19:49:00.125983 42478 net.cpp:150] Setting up inception_4c/output_inception_4c/output_0_split
I0616 19:49:00.126015 42478 net.cpp:157] Top shape: 16 512 14 14 (1605632)
I0616 19:49:00.126036 42478 net.cpp:157] Top shape: 16 512 14 14 (1605632)
I0616 19:49:00.126054 42478 net.cpp:157] Top shape: 16 512 14 14 (1605632)
I0616 19:49:00.126070 42478 net.cpp:157] Top shape: 16 512 14 14 (1605632)
I0616 19:49:00.126085 42478 net.cpp:165] Memory required for data: 741034636
I0616 19:49:00.126102 42478 layer_factory.hpp:77] Creating layer inception_4d/1x1
I0616 19:49:00.126128 42478 net.cpp:106] Creating Layer inception_4d/1x1
I0616 19:49:00.126148 42478 net.cpp:454] inception_4d/1x1 <- inception_4c/output_inception_4c/output_0_split_0
I0616 19:49:00.126169 42478 net.cpp:411] inception_4d/1x1 -> inception_4d/1x1
I0616 19:49:00.127766 42478 net.cpp:150] Setting up inception_4d/1x1
I0616 19:49:00.127816 42478 net.cpp:157] Top shape: 16 112 14 14 (351232)
I0616 19:49:00.127837 42478 net.cpp:165] Memory required for data: 742439564
I0616 19:49:00.127858 42478 layer_factory.hpp:77] Creating layer inception_4d/relu_1x1
I0616 19:49:00.127882 42478 net.cpp:106] Creating Layer inception_4d/relu_1x1
I0616 19:49:00.127900 42478 net.cpp:454] inception_4d/relu_1x1 <- inception_4d/1x1
I0616 19:49:00.127923 42478 net.cpp:397] inception_4d/relu_1x1 -> inception_4d/1x1 (in-place)
I0616 19:49:00.128288 42478 net.cpp:150] Setting up inception_4d/relu_1x1
I0616 19:49:00.128325 42478 net.cpp:157] Top shape: 16 112 14 14 (351232)
I0616 19:49:00.128345 42478 net.cpp:165] Memory required for data: 743844492
I0616 19:49:00.128365 42478 layer_factory.hpp:77] Creating layer inception_4d/3x3_reduce
I0616 19:49:00.128391 42478 net.cpp:106] Creating Layer inception_4d/3x3_reduce
I0616 19:49:00.128412 42478 net.cpp:454] inception_4d/3x3_reduce <- inception_4c/output_inception_4c/output_0_split_1
I0616 19:49:00.128434 42478 net.cpp:411] inception_4d/3x3_reduce -> inception_4d/3x3_reduce
I0616 19:49:00.129986 42478 net.cpp:150] Setting up inception_4d/3x3_reduce
I0616 19:49:00.130029 42478 net.cpp:157] Top shape: 16 144 14 14 (451584)
I0616 19:49:00.130049 42478 net.cpp:165] Memory required for data: 745650828
I0616 19:49:00.130070 42478 layer_factory.hpp:77] Creating layer inception_4d/relu_3x3_reduce
I0616 19:49:00.130091 42478 net.cpp:106] Creating Layer inception_4d/relu_3x3_reduce
I0616 19:49:00.130110 42478 net.cpp:454] inception_4d/relu_3x3_reduce <- inception_4d/3x3_reduce
I0616 19:49:00.130131 42478 net.cpp:397] inception_4d/relu_3x3_reduce -> inception_4d/3x3_reduce (in-place)
I0616 19:49:00.130492 42478 net.cpp:150] Setting up inception_4d/relu_3x3_reduce
I0616 19:49:00.130528 42478 net.cpp:157] Top shape: 16 144 14 14 (451584)
I0616 19:49:00.130548 42478 net.cpp:165] Memory required for data: 747457164
I0616 19:49:00.130575 42478 layer_factory.hpp:77] Creating layer inception_4d/3x3
I0616 19:49:00.130614 42478 net.cpp:106] Creating Layer inception_4d/3x3
I0616 19:49:00.130636 42478 net.cpp:454] inception_4d/3x3 <- inception_4d/3x3_reduce
I0616 19:49:00.130659 42478 net.cpp:411] inception_4d/3x3 -> inception_4d/3x3
I0616 19:49:00.134845 42478 net.cpp:150] Setting up inception_4d/3x3
I0616 19:49:00.134889 42478 net.cpp:157] Top shape: 16 288 14 14 (903168)
I0616 19:49:00.134909 42478 net.cpp:165] Memory required for data: 751069836
I0616 19:49:00.134930 42478 layer_factory.hpp:77] Creating layer inception_4d/relu_3x3
I0616 19:49:00.134950 42478 net.cpp:106] Creating Layer inception_4d/relu_3x3
I0616 19:49:00.134980 42478 net.cpp:454] inception_4d/relu_3x3 <- inception_4d/3x3
I0616 19:49:00.134999 42478 net.cpp:397] inception_4d/relu_3x3 -> inception_4d/3x3 (in-place)
I0616 19:49:00.135246 42478 net.cpp:150] Setting up inception_4d/relu_3x3
I0616 19:49:00.135299 42478 net.cpp:157] Top shape: 16 288 14 14 (903168)
I0616 19:49:00.135319 42478 net.cpp:165] Memory required for data: 754682508
I0616 19:49:00.135336 42478 layer_factory.hpp:77] Creating layer inception_4d/5x5_reduce
I0616 19:49:00.135361 42478 net.cpp:106] Creating Layer inception_4d/5x5_reduce
I0616 19:49:00.135382 42478 net.cpp:454] inception_4d/5x5_reduce <- inception_4c/output_inception_4c/output_0_split_2
I0616 19:49:00.135416 42478 net.cpp:411] inception_4d/5x5_reduce -> inception_4d/5x5_reduce
I0616 19:49:00.136932 42478 net.cpp:150] Setting up inception_4d/5x5_reduce
I0616 19:49:00.136986 42478 net.cpp:157] Top shape: 16 32 14 14 (100352)
I0616 19:49:00.137017 42478 net.cpp:165] Memory required for data: 755083916
I0616 19:49:00.137040 42478 layer_factory.hpp:77] Creating layer inception_4d/relu_5x5_reduce
I0616 19:49:00.137061 42478 net.cpp:106] Creating Layer inception_4d/relu_5x5_reduce
I0616 19:49:00.137080 42478 net.cpp:454] inception_4d/relu_5x5_reduce <- inception_4d/5x5_reduce
I0616 19:49:00.137102 42478 net.cpp:397] inception_4d/relu_5x5_reduce -> inception_4d/5x5_reduce (in-place)
I0616 19:49:00.137457 42478 net.cpp:150] Setting up inception_4d/relu_5x5_reduce
I0616 19:49:00.137495 42478 net.cpp:157] Top shape: 16 32 14 14 (100352)
I0616 19:49:00.137516 42478 net.cpp:165] Memory required for data: 755485324
I0616 19:49:00.137532 42478 layer_factory.hpp:77] Creating layer inception_4d/5x5
I0616 19:49:00.137557 42478 net.cpp:106] Creating Layer inception_4d/5x5
I0616 19:49:00.137578 42478 net.cpp:454] inception_4d/5x5 <- inception_4d/5x5_reduce
I0616 19:49:00.137599 42478 net.cpp:411] inception_4d/5x5 -> inception_4d/5x5
I0616 19:49:00.139080 42478 net.cpp:150] Setting up inception_4d/5x5
I0616 19:49:00.139119 42478 net.cpp:157] Top shape: 16 64 14 14 (200704)
I0616 19:49:00.139148 42478 net.cpp:165] Memory required for data: 756288140
I0616 19:49:00.139179 42478 layer_factory.hpp:77] Creating layer inception_4d/relu_5x5
I0616 19:49:00.139214 42478 net.cpp:106] Creating Layer inception_4d/relu_5x5
I0616 19:49:00.139245 42478 net.cpp:454] inception_4d/relu_5x5 <- inception_4d/5x5
I0616 19:49:00.139264 42478 net.cpp:397] inception_4d/relu_5x5 -> inception_4d/5x5 (in-place)
I0616 19:49:00.139683 42478 net.cpp:150] Setting up inception_4d/relu_5x5
I0616 19:49:00.139720 42478 net.cpp:157] Top shape: 16 64 14 14 (200704)
I0616 19:49:00.139750 42478 net.cpp:165] Memory required for data: 757090956
I0616 19:49:00.139768 42478 layer_factory.hpp:77] Creating layer inception_4d/pool
I0616 19:49:00.139789 42478 net.cpp:106] Creating Layer inception_4d/pool
I0616 19:49:00.139808 42478 net.cpp:454] inception_4d/pool <- inception_4c/output_inception_4c/output_0_split_3
I0616 19:49:00.139827 42478 net.cpp:411] inception_4d/pool -> inception_4d/pool
I0616 19:49:00.139917 42478 net.cpp:150] Setting up inception_4d/pool
I0616 19:49:00.139946 42478 net.cpp:157] Top shape: 16 512 14 14 (1605632)
I0616 19:49:00.139963 42478 net.cpp:165] Memory required for data: 763513484
I0616 19:49:00.139981 42478 layer_factory.hpp:77] Creating layer inception_4d/pool_proj
I0616 19:49:00.140022 42478 net.cpp:106] Creating Layer inception_4d/pool_proj
I0616 19:49:00.140063 42478 net.cpp:454] inception_4d/pool_proj <- inception_4d/pool
I0616 19:49:00.140086 42478 net.cpp:411] inception_4d/pool_proj -> inception_4d/pool_proj
I0616 19:49:00.141551 42478 net.cpp:150] Setting up inception_4d/pool_proj
I0616 19:49:00.141603 42478 net.cpp:157] Top shape: 16 64 14 14 (200704)
I0616 19:49:00.141624 42478 net.cpp:165] Memory required for data: 764316300
I0616 19:49:00.141644 42478 layer_factory.hpp:77] Creating layer inception_4d/relu_pool_proj
I0616 19:49:00.141666 42478 net.cpp:106] Creating Layer inception_4d/relu_pool_proj
I0616 19:49:00.141685 42478 net.cpp:454] inception_4d/relu_pool_proj <- inception_4d/pool_proj
I0616 19:49:00.141703 42478 net.cpp:397] inception_4d/relu_pool_proj -> inception_4d/pool_proj (in-place)
I0616 19:49:00.142071 42478 net.cpp:150] Setting up inception_4d/relu_pool_proj
I0616 19:49:00.142108 42478 net.cpp:157] Top shape: 16 64 14 14 (200704)
I0616 19:49:00.142127 42478 net.cpp:165] Memory required for data: 765119116
I0616 19:49:00.142143 42478 layer_factory.hpp:77] Creating layer inception_4d/output
I0616 19:49:00.142163 42478 net.cpp:106] Creating Layer inception_4d/output
I0616 19:49:00.142180 42478 net.cpp:454] inception_4d/output <- inception_4d/1x1
I0616 19:49:00.142199 42478 net.cpp:454] inception_4d/output <- inception_4d/3x3
I0616 19:49:00.142216 42478 net.cpp:454] inception_4d/output <- inception_4d/5x5
I0616 19:49:00.142235 42478 net.cpp:454] inception_4d/output <- inception_4d/pool_proj
I0616 19:49:00.142254 42478 net.cpp:411] inception_4d/output -> inception_4d/output
I0616 19:49:00.142318 42478 net.cpp:150] Setting up inception_4d/output
I0616 19:49:00.142348 42478 net.cpp:157] Top shape: 16 528 14 14 (1655808)
I0616 19:49:00.142366 42478 net.cpp:165] Memory required for data: 771742348
I0616 19:49:00.142384 42478 layer_factory.hpp:77] Creating layer inception_4d/output_inception_4d/output_0_split
I0616 19:49:00.142402 42478 net.cpp:106] Creating Layer inception_4d/output_inception_4d/output_0_split
I0616 19:49:00.142419 42478 net.cpp:454] inception_4d/output_inception_4d/output_0_split <- inception_4d/output
I0616 19:49:00.142438 42478 net.cpp:411] inception_4d/output_inception_4d/output_0_split -> inception_4d/output_inception_4d/output_0_split_0
I0616 19:49:00.142462 42478 net.cpp:411] inception_4d/output_inception_4d/output_0_split -> inception_4d/output_inception_4d/output_0_split_1
I0616 19:49:00.142483 42478 net.cpp:411] inception_4d/output_inception_4d/output_0_split -> inception_4d/output_inception_4d/output_0_split_2
I0616 19:49:00.142504 42478 net.cpp:411] inception_4d/output_inception_4d/output_0_split -> inception_4d/output_inception_4d/output_0_split_3
I0616 19:49:00.142524 42478 net.cpp:411] inception_4d/output_inception_4d/output_0_split -> inception_4d/output_inception_4d/output_0_split_4
I0616 19:49:00.142668 42478 net.cpp:150] Setting up inception_4d/output_inception_4d/output_0_split
I0616 19:49:00.142696 42478 net.cpp:157] Top shape: 16 528 14 14 (1655808)
I0616 19:49:00.142714 42478 net.cpp:157] Top shape: 16 528 14 14 (1655808)
I0616 19:49:00.142731 42478 net.cpp:157] Top shape: 16 528 14 14 (1655808)
I0616 19:49:00.142747 42478 net.cpp:157] Top shape: 16 528 14 14 (1655808)
I0616 19:49:00.142765 42478 net.cpp:157] Top shape: 16 528 14 14 (1655808)
I0616 19:49:00.142779 42478 net.cpp:165] Memory required for data: 804858508
I0616 19:49:00.142796 42478 layer_factory.hpp:77] Creating layer loss2/ave_pool
I0616 19:49:00.142817 42478 net.cpp:106] Creating Layer loss2/ave_pool
I0616 19:49:00.142835 42478 net.cpp:454] loss2/ave_pool <- inception_4d/output_inception_4d/output_0_split_0
I0616 19:49:00.142854 42478 net.cpp:411] loss2/ave_pool -> loss2/ave_pool
I0616 19:49:00.143268 42478 net.cpp:150] Setting up loss2/ave_pool
I0616 19:49:00.143317 42478 net.cpp:157] Top shape: 16 528 4 4 (135168)
I0616 19:49:00.143337 42478 net.cpp:165] Memory required for data: 805399180
I0616 19:49:00.143353 42478 layer_factory.hpp:77] Creating layer loss2/conv
I0616 19:49:00.143398 42478 net.cpp:106] Creating Layer loss2/conv
I0616 19:49:00.143429 42478 net.cpp:454] loss2/conv <- loss2/ave_pool
I0616 19:49:00.143451 42478 net.cpp:411] loss2/conv -> loss2/conv
I0616 19:49:00.145711 42478 net.cpp:150] Setting up loss2/conv
I0616 19:49:00.145755 42478 net.cpp:157] Top shape: 16 128 4 4 (32768)
I0616 19:49:00.145774 42478 net.cpp:165] Memory required for data: 805530252
I0616 19:49:00.145797 42478 layer_factory.hpp:77] Creating layer loss2/relu_conv
I0616 19:49:00.145820 42478 net.cpp:106] Creating Layer loss2/relu_conv
I0616 19:49:00.145840 42478 net.cpp:454] loss2/relu_conv <- loss2/conv
I0616 19:49:00.145859 42478 net.cpp:397] loss2/relu_conv -> loss2/conv (in-place)
I0616 19:49:00.146106 42478 net.cpp:150] Setting up loss2/relu_conv
I0616 19:49:00.146142 42478 net.cpp:157] Top shape: 16 128 4 4 (32768)
I0616 19:49:00.146159 42478 net.cpp:165] Memory required for data: 805661324
I0616 19:49:00.146176 42478 layer_factory.hpp:77] Creating layer loss2/fc
I0616 19:49:00.146198 42478 net.cpp:106] Creating Layer loss2/fc
I0616 19:49:00.146216 42478 net.cpp:454] loss2/fc <- loss2/conv
I0616 19:49:00.146239 42478 net.cpp:411] loss2/fc -> loss2/fc
I0616 19:49:00.160866 42478 net.cpp:150] Setting up loss2/fc
I0616 19:49:00.160907 42478 net.cpp:157] Top shape: 16 1024 (16384)
I0616 19:49:00.160925 42478 net.cpp:165] Memory required for data: 805726860
I0616 19:49:00.160946 42478 layer_factory.hpp:77] Creating layer loss2/relu_fc
I0616 19:49:00.160967 42478 net.cpp:106] Creating Layer loss2/relu_fc
I0616 19:49:00.160985 42478 net.cpp:454] loss2/relu_fc <- loss2/fc
I0616 19:49:00.161010 42478 net.cpp:397] loss2/relu_fc -> loss2/fc (in-place)
I0616 19:49:00.161373 42478 net.cpp:150] Setting up loss2/relu_fc
I0616 19:49:00.161409 42478 net.cpp:157] Top shape: 16 1024 (16384)
I0616 19:49:00.161427 42478 net.cpp:165] Memory required for data: 805792396
I0616 19:49:00.161444 42478 layer_factory.hpp:77] Creating layer loss2/drop_fc
I0616 19:49:00.161469 42478 net.cpp:106] Creating Layer loss2/drop_fc
I0616 19:49:00.161489 42478 net.cpp:454] loss2/drop_fc <- loss2/fc
I0616 19:49:00.161507 42478 net.cpp:397] loss2/drop_fc -> loss2/fc (in-place)
I0616 19:49:00.161576 42478 net.cpp:150] Setting up loss2/drop_fc
I0616 19:49:00.161603 42478 net.cpp:157] Top shape: 16 1024 (16384)
I0616 19:49:00.161619 42478 net.cpp:165] Memory required for data: 805857932
I0616 19:49:00.161636 42478 layer_factory.hpp:77] Creating layer loss2/classifier
I0616 19:49:00.161658 42478 net.cpp:106] Creating Layer loss2/classifier
I0616 19:49:00.161675 42478 net.cpp:454] loss2/classifier <- loss2/fc
I0616 19:49:00.161698 42478 net.cpp:411] loss2/classifier -> loss2/classifier
I0616 19:49:00.169198 42478 net.cpp:150] Setting up loss2/classifier
I0616 19:49:00.169235 42478 net.cpp:157] Top shape: 16 1000 (16000)
I0616 19:49:00.169255 42478 net.cpp:165] Memory required for data: 805921932
I0616 19:49:00.169275 42478 layer_factory.hpp:77] Creating layer loss2/classifier_loss2/classifier_0_split
I0616 19:49:00.169296 42478 net.cpp:106] Creating Layer loss2/classifier_loss2/classifier_0_split
I0616 19:49:00.169333 42478 net.cpp:454] loss2/classifier_loss2/classifier_0_split <- loss2/classifier
I0616 19:49:00.169358 42478 net.cpp:411] loss2/classifier_loss2/classifier_0_split -> loss2/classifier_loss2/classifier_0_split_0
I0616 19:49:00.169380 42478 net.cpp:411] loss2/classifier_loss2/classifier_0_split -> loss2/classifier_loss2/classifier_0_split_1
I0616 19:49:00.169402 42478 net.cpp:411] loss2/classifier_loss2/classifier_0_split -> loss2/classifier_loss2/classifier_0_split_2
I0616 19:49:00.169514 42478 net.cpp:150] Setting up loss2/classifier_loss2/classifier_0_split
I0616 19:49:00.169544 42478 net.cpp:157] Top shape: 16 1000 (16000)
I0616 19:49:00.169564 42478 net.cpp:157] Top shape: 16 1000 (16000)
I0616 19:49:00.169582 42478 net.cpp:157] Top shape: 16 1000 (16000)
I0616 19:49:00.169600 42478 net.cpp:165] Memory required for data: 806113932
I0616 19:49:00.169622 42478 layer_factory.hpp:77] Creating layer loss2/loss
I0616 19:49:00.169657 42478 net.cpp:106] Creating Layer loss2/loss
I0616 19:49:00.169692 42478 net.cpp:454] loss2/loss <- loss2/classifier_loss2/classifier_0_split_0
I0616 19:49:00.169713 42478 net.cpp:454] loss2/loss <- label_data_1_split_3
…
I0616 19:49:00.170496 42478 net.cpp:150] Setting up loss2/top-5
I0616 19:49:00.170516 42478 net.cpp:157] Top shape: (1)
I0616 19:49:00.170531 42478 net.cpp:165] Memory required for data: 806113944
I0616 19:49:00.170547 42478 layer_factory.hpp:77] Creating layer inception_4e/1x1
I0616 19:49:00.170572 42478 net.cpp:106] Creating Layer inception_4e/1x1
I0616 19:49:00.170593 42478 net.cpp:454] inception_4e/1x1 <- inception_4d/output_inception_4d/output_0_split_1
I0616 19:49:00.170614 42478 net.cpp:411] inception_4e/1x1 -> inception_4e/1x1
I0616 19:49:00.172813 42478 net.cpp:150] Setting up inception_4e/1x1
I0616 19:49:00.172853 42478 net.cpp:157] Top shape: 16 256 14 14 (802816)
I0616 19:49:00.172873 42478 net.cpp:165] Memory required for data: 809325208
I0616 19:49:00.172894 42478 layer_factory.hpp:77] Creating layer inception_4e/relu_1x1
I0616 19:49:00.172916 42478 net.cpp:106] Creating Layer inception_4e/relu_1x1
I0616 19:49:00.172936 42478 net.cpp:454] inception_4e/relu_1x1 <- inception_4e/1x1
I0616 19:49:00.172955 42478 net.cpp:397] inception_4e/relu_1x1 -> inception_4e/1x1 (in-place)
I0616 19:49:00.173197 42478 net.cpp:150] Setting up inception_4e/relu_1x1
I0616 19:49:00.173231 42478 net.cpp:157] Top shape: 16 256 14 14 (802816)
I0616 19:49:00.173249 42478 net.cpp:165] Memory required for data: 812536472
I0616 19:49:00.173266 42478 layer_factory.hpp:77] Creating layer inception_4e/3x3_reduce
I0616 19:49:00.173306 42478 net.cpp:106] Creating Layer inception_4e/3x3_reduce
I0616 19:49:00.173337 42478 net.cpp:454] inception_4e/3x3_reduce <- inception_4d/output_inception_4d/output_0_split_2
I0616 19:49:00.173360 42478 net.cpp:411] inception_4e/3x3_reduce -> inception_4e/3x3_reduce
I0616 19:49:00.175686 42478 net.cpp:150] Setting up inception_4e/3x3_reduce
I0616 19:49:00.175730 42478 net.cpp:157] Top shape: 16 160 14 14 (501760)
I0616 19:49:00.175750 42478 net.cpp:165] Memory required for data: 814543512
I0616 19:49:00.175772 42478 layer_factory.hpp:77] Creating layer inception_4e/relu_3x3_reduce
I0616 19:49:00.175793 42478 net.cpp:106] Creating Layer inception_4e/relu_3x3_reduce
I0616 19:49:00.175812 42478 net.cpp:454] inception_4e/relu_3x3_reduce <- inception_4e/3x3_reduce
I0616 19:49:00.175830 42478 net.cpp:397] inception_4e/relu_3x3_reduce -> inception_4e/3x3_reduce (in-place)
I0616 19:49:00.176190 42478 net.cpp:150] Setting up inception_4e/relu_3x3_reduce
I0616 19:49:00.176229 42478 net.cpp:157] Top shape: 16 160 14 14 (501760)
I0616 19:49:00.176259 42478 net.cpp:165] Memory required for data: 816550552
I0616 19:49:00.176290 42478 layer_factory.hpp:77] Creating layer inception_4e/3x3
I0616 19:49:00.176317 42478 net.cpp:106] Creating Layer inception_4e/3x3
I0616 19:49:00.176337 42478 net.cpp:454] inception_4e/3x3 <- inception_4e/3x3_reduce
I0616 19:49:00.176362 42478 net.cpp:411] inception_4e/3x3 -> inception_4e/3x3
I0616 19:49:00.181567 42478 net.cpp:150] Setting up inception_4e/3x3
I0616 19:49:00.181609 42478 net.cpp:157] Top shape: 16 320 14 14 (1003520)
I0616 19:49:00.181629 42478 net.cpp:165] Memory required for data: 820564632
I0616 19:49:00.181650 42478 layer_factory.hpp:77] Creating layer inception_4e/relu_3x3
I0616 19:49:00.181673 42478 net.cpp:106] Creating Layer inception_4e/relu_3x3
I0616 19:49:00.181692 42478 net.cpp:454] inception_4e/relu_3x3 <- inception_4e/3x3
I0616 19:49:00.181710 42478 net.cpp:397] inception_4e/relu_3x3 -> inception_4e/3x3 (in-place)
I0616 19:49:00.181965 42478 net.cpp:150] Setting up inception_4e/relu_3x3
I0616 19:49:00.182000 42478 net.cpp:157] Top shape: 16 320 14 14 (1003520)
I0616 19:49:00.182032 42478 net.cpp:165] Memory required for data: 824578712
I0616 19:49:00.182060 42478 layer_factory.hpp:77] Creating layer inception_4e/5x5_reduce
I0616 19:49:00.182085 42478 net.cpp:106] Creating Layer inception_4e/5x5_reduce
I0616 19:49:00.182106 42478 net.cpp:454] inception_4e/5x5_reduce <- inception_4d/output_inception_4d/output_0_split_3
I0616 19:49:00.182126 42478 net.cpp:411] inception_4e/5x5_reduce -> inception_4e/5x5_reduce
I0616 19:49:00.183390 42478 net.cpp:150] Setting up inception_4e/5x5_reduce
I0616 19:49:00.183431 42478 net.cpp:157] Top shape: 16 32 14 14 (100352)
I0616 19:49:00.183451 42478 net.cpp:165] Memory required for data: 824980120
I0616 19:49:00.183473 42478 layer_factory.hpp:77] Creating layer inception_4e/relu_5x5_reduce
I0616 19:49:00.183495 42478 net.cpp:106] Creating Layer inception_4e/relu_5x5_reduce
I0616 19:49:00.183512 42478 net.cpp:454] inception_4e/relu_5x5_reduce <- inception_4e/5x5_reduce
I0616 19:49:00.183531 42478 net.cpp:397] inception_4e/relu_5x5_reduce -> inception_4e/5x5_reduce (in-place)
I0616 19:49:00.183758 42478 net.cpp:150] Setting up inception_4e/relu_5x5_reduce
I0616 19:49:00.183790 42478 net.cpp:157] Top shape: 16 32 14 14 (100352)
I0616 19:49:00.183809 42478 net.cpp:165] Memory required for data: 825381528
I0616 19:49:00.183825 42478 layer_factory.hpp:77] Creating layer inception_4e/5x5
I0616 19:49:00.183852 42478 net.cpp:106] Creating Layer inception_4e/5x5
I0616 19:49:00.183873 42478 net.cpp:454] inception_4e/5x5 <- inception_4e/5x5_reduce
I0616 19:49:00.183895 42478 net.cpp:411] inception_4e/5x5 -> inception_4e/5x5
I0616 19:49:00.185555 42478 net.cpp:150] Setting up inception_4e/5x5
I0616 19:49:00.185597 42478 net.cpp:157] Top shape: 16 128 14 14 (401408)
I0616 19:49:00.185617 42478 net.cpp:165] Memory required for data: 826987160
I0616 19:49:00.185638 42478 layer_factory.hpp:77] Creating layer inception_4e/relu_5x5
I0616 19:49:00.185659 42478 net.cpp:106] Creating Layer inception_4e/relu_5x5
I0616 19:49:00.185678 42478 net.cpp:454] inception_4e/relu_5x5 <- inception_4e/5x5
I0616 19:49:00.185698 42478 net.cpp:397] inception_4e/relu_5x5 -> inception_4e/5x5 (in-place)
I0616 19:49:00.186074 42478 net.cpp:150] Setting up inception_4e/relu_5x5
I0616 19:49:00.186111 42478 net.cpp:157] Top shape: 16 128 14 14 (401408)
I0616 19:49:00.186132 42478 net.cpp:165] Memory required for data: 828592792
I0616 19:49:00.186158 42478 layer_factory.hpp:77] Creating layer inception_4e/pool
I0616 19:49:00.186180 42478 net.cpp:106] Creating Layer inception_4e/pool
I0616 19:49:00.186199 42478 net.cpp:454] inception_4e/pool <- inception_4d/output_inception_4d/output_0_split_4
I0616 19:49:00.186223 42478 net.cpp:411] inception_4e/pool -> inception_4e/pool
I0616 19:49:00.186286 42478 net.cpp:150] Setting up inception_4e/pool
I0616 19:49:00.186313 42478 net.cpp:157] Top shape: 16 528 14 14 (1655808)
I0616 19:49:00.186331 42478 net.cpp:165] Memory required for data: 835216024
I0616 19:49:00.186347 42478 layer_factory.hpp:77] Creating layer inception_4e/pool_proj
I0616 19:49:00.186393 42478 net.cpp:106] Creating Layer inception_4e/pool_proj
I0616 19:49:00.186415 42478 net.cpp:454] inception_4e/pool_proj <- inception_4e/pool
I0616 19:49:00.186439 42478 net.cpp:411] inception_4e/pool_proj -> inception_4e/pool_proj
I0616 19:49:00.187917 42478 net.cpp:150] Setting up inception_4e/pool_proj
I0616 19:49:00.187958 42478 net.cpp:157] Top shape: 16 128 14 14 (401408)
I0616 19:49:00.187978 42478 net.cpp:165] Memory required for data: 836821656
I0616 19:49:00.188000 42478 layer_factory.hpp:77] Creating layer inception_4e/relu_pool_proj
I0616 19:49:00.188027 42478 net.cpp:106] Creating Layer inception_4e/relu_pool_proj
I0616 19:49:00.188048 42478 net.cpp:454] inception_4e/relu_pool_proj <- inception_4e/pool_proj
I0616 19:49:00.188071 42478 net.cpp:397] inception_4e/relu_pool_proj -> inception_4e/pool_proj (in-place)
I0616 19:49:00.188438 42478 net.cpp:150] Setting up inception_4e/relu_pool_proj
I0616 19:49:00.188475 42478 net.cpp:157] Top shape: 16 128 14 14 (401408)
I0616 19:49:00.188493 42478 net.cpp:165] Memory required for data: 838427288
I0616 19:49:00.188510 42478 layer_factory.hpp:77] Creating layer inception_4e/output
I0616 19:49:00.188534 42478 net.cpp:106] Creating Layer inception_4e/output
I0616 19:49:00.188552 42478 net.cpp:454] inception_4e/output <- inception_4e/1x1
I0616 19:49:00.188570 42478 net.cpp:454] inception_4e/output <- inception_4e/3x3
I0616 19:49:00.188588 42478 net.cpp:454] inception_4e/output <- inception_4e/5x5
I0616 19:49:00.188606 42478 net.cpp:454] inception_4e/output <- inception_4e/pool_proj
I0616 19:49:00.188626 42478 net.cpp:411] inception_4e/output -> inception_4e/output
I0616 19:49:00.188671 42478 net.cpp:150] Setting up inception_4e/output
I0616 19:49:00.188699 42478 net.cpp:157] Top shape: 16 832 14 14 (2609152)
I0616 19:49:00.188716 42478 net.cpp:165] Memory required for data: 848863896
I0616 19:49:00.188733 42478 layer_factory.hpp:77] Creating layer pool4/3x3_s2
I0616 19:49:00.188752 42478 net.cpp:106] Creating Layer pool4/3x3_s2
I0616 19:49:00.188771 42478 net.cpp:454] pool4/3x3_s2 <- inception_4e/output
I0616 19:49:00.188791 42478 net.cpp:411] pool4/3x3_s2 -> pool4/3x3_s2
I0616 19:49:00.188849 42478 net.cpp:150] Setting up pool4/3x3_s2
I0616 19:49:00.188875 42478 net.cpp:157] Top shape: 16 832 7 7 (652288)
I0616 19:49:00.188892 42478 net.cpp:165] Memory required for data: 851473048
I0616 19:49:00.188908 42478 layer_factory.hpp:77] Creating layer pool4/3x3_s2_pool4/3x3_s2_0_split
I0616 19:49:00.188931 42478 net.cpp:106] Creating Layer pool4/3x3_s2_pool4/3x3_s2_0_split
I0616 19:49:00.188951 42478 net.cpp:454] pool4/3x3_s2_pool4/3x3_s2_0_split <- pool4/3x3_s2
I0616 19:49:00.188972 42478 net.cpp:411] pool4/3x3_s2_pool4/3x3_s2_0_split -> pool4/3x3_s2_pool4/3x3_s2_0_split_0
I0616 19:49:00.188995 42478 net.cpp:411] pool4/3x3_s2_pool4/3x3_s2_0_split -> pool4/3x3_s2_pool4/3x3_s2_0_split_1
I0616 19:49:00.189023 42478 net.cpp:411] pool4/3x3_s2_pool4/3x3_s2_0_split -> pool4/3x3_s2_pool4/3x3_s2_0_split_2
I0616 19:49:00.189064 42478 net.cpp:411] pool4/3x3_s2_pool4/3x3_s2_0_split -> pool4/3x3_s2_pool4/3x3_s2_0_split_3
I0616 19:49:00.189139 42478 net.cpp:150] Setting up pool4/3x3_s2_pool4/3x3_s2_0_split
I0616 19:49:00.189169 42478 net.cpp:157] Top shape: 16 832 7 7 (652288)
I0616 19:49:00.189189 42478 net.cpp:157] Top shape: 16 832 7 7 (652288)
I0616 19:49:00.189208 42478 net.cpp:157] Top shape: 16 832 7 7 (652288)
I0616 19:49:00.189225 42478 net.cpp:157] Top shape: 16 832 7 7 (652288)
I0616 19:49:00.189240 42478 net.cpp:165] Memory required for data: 861909656
I0616 19:49:00.189256 42478 layer_factory.hpp:77] Creating layer inception_5a/1x1
I0616 19:49:00.189281 42478 net.cpp:106] Creating Layer inception_5a/1x1
I0616 19:49:00.189301 42478 net.cpp:454] inception_5a/1x1 <- pool4/3x3_s2_pool4/3x3_s2_0_split_0
I0616 19:49:00.189323 42478 net.cpp:411] inception_5a/1x1 -> inception_5a/1x1
I0616 19:49:00.192059 42478 net.cpp:150] Setting up inception_5a/1x1
I0616 19:49:00.192100 42478 net.cpp:157] Top shape: 16 256 7 7 (200704)
I0616 19:49:00.192142 42478 net.cpp:165] Memory required for data: 862712472
I0616 19:49:00.192175 42478 layer_factory.hpp:77] Creating layer inception_5a/relu_1x1
I0616 19:49:00.192211 42478 net.cpp:106] Creating Layer inception_5a/relu_1x1
I0616 19:49:00.192231 42478 net.cpp:454] inception_5a/relu_1x1 <- inception_5a/1x1
I0616 19:49:00.192252 42478 net.cpp:397] inception_5a/relu_1x1 -> inception_5a/1x1 (in-place)
I0616 19:49:00.192481 42478 net.cpp:150] Setting up inception_5a/relu_1x1
I0616 19:49:00.192515 42478 net.cpp:157] Top shape: 16 256 7 7 (200704)
I0616 19:49:00.192533 42478 net.cpp:165] Memory required for data: 863515288
I0616 19:49:00.192550 42478 layer_factory.hpp:77] Creating layer inception_5a/3x3_reduce
I0616 19:49:00.192575 42478 net.cpp:106] Creating Layer inception_5a/3x3_reduce
I0616 19:49:00.192595 42478 net.cpp:454] inception_5a/3x3_reduce <- pool4/3x3_s2_pool4/3x3_s2_0_split_1
I0616 19:49:00.192616 42478 net.cpp:411] inception_5a/3x3_reduce -> inception_5a/3x3_reduce
I0616 19:49:00.195037 42478 net.cpp:150] Setting up inception_5a/3x3_reduce
I0616 19:49:00.195082 42478 net.cpp:157] Top shape: 16 160 7 7 (125440)
I0616 19:49:00.195117 42478 net.cpp:165] Memory required for data: 864017048
I0616 19:49:00.195142 42478 layer_factory.hpp:77] Creating layer inception_5a/relu_3x3_reduce
I0616 19:49:00.195163 42478 net.cpp:106] Creating Layer inception_5a/relu_3x3_reduce
I0616 19:49:00.195183 42478 net.cpp:454] inception_5a/relu_3x3_reduce <- inception_5a/3x3_reduce
I0616 19:49:00.195205 42478 net.cpp:397] inception_5a/relu_3x3_reduce -> inception_5a/3x3_reduce (in-place)
I0616 19:49:00.195564 42478 net.cpp:150] Setting up inception_5a/relu_3x3_reduce
I0616 19:49:00.195603 42478 net.cpp:157] Top shape: 16 160 7 7 (125440)
I0616 19:49:00.195622 42478 net.cpp:165] Memory required for data: 864518808
I0616 19:49:00.195639 42478 layer_factory.hpp:77] Creating layer inception_5a/3x3
I0616 19:49:00.195672 42478 net.cpp:106] Creating Layer inception_5a/3x3
I0616 19:49:00.195696 42478 net.cpp:454] inception_5a/3x3 <- inception_5a/3x3_reduce
I0616 19:49:00.195718 42478 net.cpp:411] inception_5a/3x3 -> inception_5a/3x3
I0616 19:49:00.200189 42478 net.cpp:150] Setting up inception_5a/3x3
I0616 19:49:00.200232 42478 net.cpp:157] Top shape: 16 320 7 7 (250880)
I0616 19:49:00.200253 42478 net.cpp:165] Memory required for data: 865522328
I0616 19:49:00.200274 42478 layer_factory.hpp:77] Creating layer inception_5a/relu_3x3
I0616 19:49:00.200295 42478 net.cpp:106] Creating Layer inception_5a/relu_3x3
I0616 19:49:00.200314 42478 net.cpp:454] inception_5a/relu_3x3 <- inception_5a/3x3
I0616 19:49:00.200333 42478 net.cpp:397] inception_5a/relu_3x3 -> inception_5a/3x3 (in-place)
I0616 19:49:00.200563 42478 net.cpp:150] Setting up inception_5a/relu_3x3
I0616 19:49:00.200597 42478 net.cpp:157] Top shape: 16 320 7 7 (250880)
I0616 19:49:00.200613 42478 net.cpp:165] Memory required for data: 866525848
I0616 19:49:00.200630 42478 layer_factory.hpp:77] Creating layer inception_5a/5x5_reduce
I0616 19:49:00.200656 42478 net.cpp:106] Creating Layer inception_5a/5x5_reduce
I0616 19:49:00.200677 42478 net.cpp:454] inception_5a/5x5_reduce <- pool4/3x3_s2_pool4/3x3_s2_0_split_2
I0616 19:49:00.200698 42478 net.cpp:411] inception_5a/5x5_reduce -> inception_5a/5x5_reduce
I0616 19:49:00.202045 42478 net.cpp:150] Setting up inception_5a/5x5_reduce
I0616 19:49:00.202085 42478 net.cpp:157] Top shape: 16 32 7 7 (25088)
I0616 19:49:00.202105 42478 net.cpp:165] Memory required for data: 866626200
I0616 19:49:00.202126 42478 layer_factory.hpp:77] Creating layer inception_5a/relu_5x5_reduce
I0616 19:49:00.202154 42478 net.cpp:106] Creating Layer inception_5a/relu_5x5_reduce
I0616 19:49:00.202174 42478 net.cpp:454] inception_5a/relu_5x5_reduce <- inception_5a/5x5_reduce
I0616 19:49:00.202193 42478 net.cpp:397] inception_5a/relu_5x5_reduce -> inception_5a/5x5_reduce (in-place)
I0616 19:49:00.202427 42478 net.cpp:150] Setting up inception_5a/relu_5x5_reduce
I0616 19:49:00.202460 42478 net.cpp:157] Top shape: 16 32 7 7 (25088)
I0616 19:49:00.202489 42478 net.cpp:165] Memory required for data: 866726552
I0616 19:49:00.202520 42478 layer_factory.hpp:77] Creating layer inception_5a/5x5
I0616 19:49:00.202548 42478 net.cpp:106] Creating Layer inception_5a/5x5
I0616 19:49:00.202567 42478 net.cpp:454] inception_5a/5x5 <- inception_5a/5x5_reduce
I0616 19:49:00.202589 42478 net.cpp:411] inception_5a/5x5 -> inception_5a/5x5
I0616 19:49:00.204231 42478 net.cpp:150] Setting up inception_5a/5x5
I0616 19:49:00.204270 42478 net.cpp:157] Top shape: 16 128 7 7 (100352)
I0616 19:49:00.204289 42478 net.cpp:165] Memory required for data: 867127960
I0616 19:49:00.204309 42478 layer_factory.hpp:77] Creating layer inception_5a/relu_5x5
I0616 19:49:00.204330 42478 net.cpp:106] Creating Layer inception_5a/relu_5x5
I0616 19:49:00.204349 42478 net.cpp:454] inception_5a/relu_5x5 <- inception_5a/5x5
I0616 19:49:00.204373 42478 net.cpp:397] inception_5a/relu_5x5 -> inception_5a/5x5 (in-place)
I0616 19:49:00.204754 42478 net.cpp:150] Setting up inception_5a/relu_5x5
I0616 19:49:00.204799 42478 net.cpp:157] Top shape: 16 128 7 7 (100352)
I0616 19:49:00.204819 42478 net.cpp:165] Memory required for data: 867529368
I0616 19:49:00.204838 42478 layer_factory.hpp:77] Creating layer inception_5a/pool
I0616 19:49:00.204857 42478 net.cpp:106] Creating Layer inception_5a/pool
I0616 19:49:00.204876 42478 net.cpp:454] inception_5a/pool <- pool4/3x3_s2_pool4/3x3_s2_0_split_3
I0616 19:49:00.204900 42478 net.cpp:411] inception_5a/pool -> inception_5a/pool
I0616 19:49:00.204963 42478 net.cpp:150] Setting up inception_5a/pool
I0616 19:49:00.204993 42478 net.cpp:157] Top shape: 16 832 7 7 (652288)
I0616 19:49:00.205020 42478 net.cpp:165] Memory required for data: 870138520
I0616 19:49:00.205039 42478 layer_factory.hpp:77] Creating layer inception_5a/pool_proj
I0616 19:49:00.205062 42478 net.cpp:106] Creating Layer inception_5a/pool_proj
I0616 19:49:00.205083 42478 net.cpp:454] inception_5a/pool_proj <- inception_5a/pool
I0616 19:49:00.205103 42478 net.cpp:411] inception_5a/pool_proj -> inception_5a/pool_proj
I0616 19:49:00.207347 42478 net.cpp:150] Setting up inception_5a/pool_proj
I0616 19:49:00.207388 42478 net.cpp:157] Top shape: 16 128 7 7 (100352)
I0616 19:49:00.207408 42478 net.cpp:165] Memory required for data: 870539928
I0616 19:49:00.207429 42478 layer_factory.hpp:77] Creating layer inception_5a/relu_pool_proj
I0616 19:49:00.207465 42478 net.cpp:106] Creating Layer inception_5a/relu_pool_proj
I0616 19:49:00.207489 42478 net.cpp:454] inception_5a/relu_pool_proj <- inception_5a/pool_proj
I0616 19:49:00.207507 42478 net.cpp:397] inception_5a/relu_pool_proj -> inception_5a/pool_proj (in-place)
I0616 19:49:00.207747 42478 net.cpp:150] Setting up inception_5a/relu_pool_proj
I0616 19:49:00.207782 42478 net.cpp:157] Top shape: 16 128 7 7 (100352)
I0616 19:49:00.207800 42478 net.cpp:165] Memory required for data: 870941336
I0616 19:49:00.207818 42478 layer_factory.hpp:77] Creating layer inception_5a/output
I0616 19:49:00.207837 42478 net.cpp:106] Creating Layer inception_5a/output
I0616 19:49:00.207855 42478 net.cpp:454] inception_5a/output <- inception_5a/1x1
I0616 19:49:00.207873 42478 net.cpp:454] inception_5a/output <- inception_5a/3x3
I0616 19:49:00.207891 42478 net.cpp:454] inception_5a/output <- inception_5a/5x5
I0616 19:49:00.207909 42478 net.cpp:454] inception_5a/output <- inception_5a/pool_proj
I0616 19:49:00.207928 42478 net.cpp:411] inception_5a/output -> inception_5a/output
I0616 19:49:00.207974 42478 net.cpp:150] Setting up inception_5a/output
I0616 19:49:00.208000 42478 net.cpp:157] Top shape: 16 832 7 7 (652288)
I0616 19:49:00.208022 42478 net.cpp:165] Memory required for data: 873550488
I0616 19:49:00.208039 42478 layer_factory.hpp:77] Creating layer inception_5a/output_inception_5a/output_0_split
I0616 19:49:00.208057 42478 net.cpp:106] Creating Layer inception_5a/output_inception_5a/output_0_split
I0616 19:49:00.208076 42478 net.cpp:454] inception_5a/output_inception_5a/output_0_split <- inception_5a/output
I0616 19:49:00.208096 42478 net.cpp:411] inception_5a/output_inception_5a/output_0_split -> inception_5a/output_inception_5a/output_0_split_0
I0616 19:49:00.208142 42478 net.cpp:411] inception_5a/output_inception_5a/output_0_split -> inception_5a/output_inception_5a/output_0_split_1
I0616 19:49:00.208168 42478 net.cpp:411] inception_5a/output_inception_5a/output_0_split -> inception_5a/output_inception_5a/output_0_split_2
I0616 19:49:00.208189 42478 net.cpp:411] inception_5a/output_inception_5a/output_0_split -> inception_5a/output_inception_5a/output_0_split_3
I0616 19:49:00.208271 42478 net.cpp:150] Setting up inception_5a/output_inception_5a/output_0_split
I0616 19:49:00.208297 42478 net.cpp:157] Top shape: 16 832 7 7 (652288)
I0616 19:49:00.208315 42478 net.cpp:157] Top shape: 16 832 7 7 (652288)
I0616 19:49:00.208333 42478 net.cpp:157] Top shape: 16 832 7 7 (652288)
I0616 19:49:00.208348 42478 net.cpp:157] Top shape: 16 832 7 7 (652288)
I0616 19:49:00.208364 42478 net.cpp:165] Memory required for data: 883987096
I0616 19:49:00.208380 42478 layer_factory.hpp:77] Creating layer inception_5b/1x1
I0616 19:49:00.208405 42478 net.cpp:106] Creating Layer inception_5b/1x1
I0616 19:49:00.208425 42478 net.cpp:454] inception_5b/1x1 <- inception_5a/output_inception_5a/output_0_split_0
I0616 19:49:00.208444 42478 net.cpp:411] inception_5b/1x1 -> inception_5b/1x1
I0616 19:49:00.212024 42478 net.cpp:150] Setting up inception_5b/1x1
I0616 19:49:00.212069 42478 net.cpp:157] Top shape: 16 384 7 7 (301056)
I0616 19:49:00.212090 42478 net.cpp:165] Memory required for data: 885191320
I0616 19:49:00.212112 42478 layer_factory.hpp:77] Creating layer inception_5b/relu_1x1
I0616 19:49:00.212136 42478 net.cpp:106] Creating Layer inception_5b/relu_1x1
I0616 19:49:00.212154 42478 net.cpp:454] inception_5b/relu_1x1 <- inception_5b/1x1
I0616 19:49:00.212173 42478 net.cpp:397] inception_5b/relu_1x1 -> inception_5b/1x1 (in-place)
I0616 19:49:00.212388 42478 net.cpp:150] Setting up inception_5b/relu_1x1
I0616 19:49:00.212421 42478 net.cpp:157] Top shape: 16 384 7 7 (301056)
I0616 19:49:00.212438 42478 net.cpp:165] Memory required for data: 886395544
I0616 19:49:00.212456 42478 layer_factory.hpp:77] Creating layer inception_5b/3x3_reduce
I0616 19:49:00.212479 42478 net.cpp:106] Creating Layer inception_5b/3x3_reduce
I0616 19:49:00.212499 42478 net.cpp:454] inception_5b/3x3_reduce <- inception_5a/output_inception_5a/output_0_split_1
I0616 19:49:00.212519 42478 net.cpp:411] inception_5b/3x3_reduce -> inception_5b/3x3_reduce
I0616 19:49:00.215065 42478 net.cpp:150] Setting up inception_5b/3x3_reduce
I0616 19:49:00.215131 42478 net.cpp:157] Top shape: 16 192 7 7 (150528)
I0616 19:49:00.215152 42478 net.cpp:165] Memory required for data: 886997656
I0616 19:49:00.215173 42478 layer_factory.hpp:77] Creating layer inception_5b/relu_3x3_reduce
I0616 19:49:00.215195 42478 net.cpp:106] Creating Layer inception_5b/relu_3x3_reduce
I0616 19:49:00.215215 42478 net.cpp:454] inception_5b/relu_3x3_reduce <- inception_5b/3x3_reduce
I0616 19:49:00.215235 42478 net.cpp:397] inception_5b/relu_3x3_reduce -> inception_5b/3x3_reduce (in-place)
I0616 19:49:00.215728 42478 net.cpp:150] Setting up inception_5b/relu_3x3_reduce
I0616 19:49:00.215766 42478 net.cpp:157] Top shape: 16 192 7 7 (150528)
I0616 19:49:00.215785 42478 net.cpp:165] Memory required for data: 887599768
I0616 19:49:00.215802 42478 layer_factory.hpp:77] Creating layer inception_5b/3x3
I0616 19:49:00.215827 42478 net.cpp:106] Creating Layer inception_5b/3x3
I0616 19:49:00.215848 42478 net.cpp:454] inception_5b/3x3 <- inception_5b/3x3_reduce
I0616 19:49:00.215872 42478 net.cpp:411] inception_5b/3x3 -> inception_5b/3x3
I0616 19:49:00.221683 42478 net.cpp:150] Setting up inception_5b/3x3
I0616 19:49:00.221724 42478 net.cpp:157] Top shape: 16 384 7 7 (301056)
I0616 19:49:00.221743 42478 net.cpp:165] Memory required for data: 888803992
I0616 19:49:00.221765 42478 layer_factory.hpp:77] Creating layer inception_5b/relu_3x3
I0616 19:49:00.221788 42478 net.cpp:106] Creating Layer inception_5b/relu_3x3
I0616 19:49:00.221807 42478 net.cpp:454] inception_5b/relu_3x3 <- inception_5b/3x3
I0616 19:49:00.221838 42478 net.cpp:397] inception_5b/relu_3x3 -> inception_5b/3x3 (in-place)
I0616 19:49:00.222110 42478 net.cpp:150] Setting up inception_5b/relu_3x3
I0616 19:49:00.222143 42478 net.cpp:157] Top shape: 16 384 7 7 (301056)
I0616 19:49:00.222162 42478 net.cpp:165] Memory required for data: 890008216
I0616 19:49:00.222179 42478 layer_factory.hpp:77] Creating layer inception_5b/5x5_reduce
I0616 19:49:00.222206 42478 net.cpp:106] Creating Layer inception_5b/5x5_reduce
I0616 19:49:00.222228 42478 net.cpp:454] inception_5b/5x5_reduce <- inception_5a/output_inception_5a/output_0_split_2
I0616 19:49:00.222249 42478 net.cpp:411] inception_5b/5x5_reduce -> inception_5b/5x5_reduce
I0616 19:49:00.223681 42478 net.cpp:150] Setting up inception_5b/5x5_reduce
I0616 19:49:00.223721 42478 net.cpp:157] Top shape: 16 48 7 7 (37632)
I0616 19:49:00.223740 42478 net.cpp:165] Memory required for data: 890158744
I0616 19:49:00.223762 42478 layer_factory.hpp:77] Creating layer inception_5b/relu_5x5_reduce
I0616 19:49:00.223783 42478 net.cpp:106] Creating Layer inception_5b/relu_5x5_reduce
I0616 19:49:00.223801 42478 net.cpp:454] inception_5b/relu_5x5_reduce <- inception_5b/5x5_reduce
I0616 19:49:00.223820 42478 net.cpp:397] inception_5b/relu_5x5_reduce -> inception_5b/5x5_reduce (in-place)
I0616 19:49:00.224056 42478 net.cpp:150] Setting up inception_5b/relu_5x5_reduce
I0616 19:49:00.224088 42478 net.cpp:157] Top shape: 16 48 7 7 (37632)
I0616 19:49:00.224107 42478 net.cpp:165] Memory required for data: 890309272
I0616 19:49:00.224124 42478 layer_factory.hpp:77] Creating layer inception_5b/5x5
I0616 19:49:00.224149 42478 net.cpp:106] Creating Layer inception_5b/5x5
I0616 19:49:00.224169 42478 net.cpp:454] inception_5b/5x5 <- inception_5b/5x5_reduce
I0616 19:49:00.224192 42478 net.cpp:411] inception_5b/5x5 -> inception_5b/5x5
I0616 19:49:00.226119 42478 net.cpp:150] Setting up inception_5b/5x5
I0616 19:49:00.226157 42478 net.cpp:157] Top shape: 16 128 7 7 (100352)
I0616 19:49:00.226187 42478 net.cpp:165] Memory required for data: 890710680
I0616 19:49:00.226208 42478 layer_factory.hpp:77] Creating layer inception_5b/relu_5x5
I0616 19:49:00.226241 42478 net.cpp:106] Creating Layer inception_5b/relu_5x5
I0616 19:49:00.226271 42478 net.cpp:454] inception_5b/relu_5x5 <- inception_5b/5x5
I0616 19:49:00.226291 42478 net.cpp:397] inception_5b/relu_5x5 -> inception_5b/5x5 (in-place)
I0616 19:49:00.226717 42478 net.cpp:150] Setting up inception_5b/relu_5x5
I0616 19:49:00.226765 42478 net.cpp:157] Top shape: 16 128 7 7 (100352)
I0616 19:49:00.226784 42478 net.cpp:165] Memory required for data: 891112088
I0616 19:49:00.226801 42478 layer_factory.hpp:77] Creating layer inception_5b/pool
I0616 19:49:00.226835 42478 net.cpp:106] Creating Layer inception_5b/pool
I0616 19:49:00.226855 42478 net.cpp:454] inception_5b/pool <- inception_5a/output_inception_5a/output_0_split_3
I0616 19:49:00.226874 42478 net.cpp:411] inception_5b/pool -> inception_5b/pool
I0616 19:49:00.226948 42478 net.cpp:150] Setting up inception_5b/pool
I0616 19:49:00.226984 42478 net.cpp:157] Top shape: 16 832 7 7 (652288)
I0616 19:49:00.227001 42478 net.cpp:165] Memory required for data: 893721240
I0616 19:49:00.227022 42478 layer_factory.hpp:77] Creating layer inception_5b/pool_proj
I0616 19:49:00.227049 42478 net.cpp:106] Creating Layer inception_5b/pool_proj
I0616 19:49:00.227069 42478 net.cpp:454] inception_5b/pool_proj <- inception_5b/pool
I0616 19:49:00.227092 42478 net.cpp:411] inception_5b/pool_proj -> inception_5b/pool_proj
I0616 19:49:00.229606 42478 net.cpp:150] Setting up inception_5b/pool_proj
I0616 19:49:00.229647 42478 net.cpp:157] Top shape: 16 128 7 7 (100352)
I0616 19:49:00.229667 42478 net.cpp:165] Memory required for data: 894122648
I0616 19:49:00.229687 42478 layer_factory.hpp:77] Creating layer inception_5b/relu_pool_proj
I0616 19:49:00.229712 42478 net.cpp:106] Creating Layer inception_5b/relu_pool_proj
I0616 19:49:00.229730 42478 net.cpp:454] inception_5b/relu_pool_proj <- inception_5b/pool_proj
I0616 19:49:00.229750 42478 net.cpp:397] inception_5b/relu_pool_proj -> inception_5b/pool_proj (in-place)
I0616 19:49:00.230005 42478 net.cpp:150] Setting up inception_5b/relu_pool_proj
I0616 19:49:00.230052 42478 net.cpp:157] Top shape: 16 128 7 7 (100352)
I0616 19:49:00.230072 42478 net.cpp:165] Memory required for data: 894524056
I0616 19:49:00.230088 42478 layer_factory.hpp:77] Creating layer inception_5b/output
I0616 19:49:00.230108 42478 net.cpp:106] Creating Layer inception_5b/output
I0616 19:49:00.230126 42478 net.cpp:454] inception_5b/output <- inception_5b/1x1
I0616 19:49:00.230144 42478 net.cpp:454] inception_5b/output <- inception_5b/3x3
I0616 19:49:00.230162 42478 net.cpp:454] inception_5b/output <- inception_5b/5x5
I0616 19:49:00.230180 42478 net.cpp:454] inception_5b/output <- inception_5b/pool_proj
I0616 19:49:00.230198 42478 net.cpp:411] inception_5b/output -> inception_5b/output
I0616 19:49:00.230247 42478 net.cpp:150] Setting up inception_5b/output
I0616 19:49:00.230273 42478 net.cpp:157] Top shape: 16 1024 7 7 (802816)
I0616 19:49:00.230290 42478 net.cpp:165] Memory required for data: 897735320
I0616 19:49:00.230306 42478 layer_factory.hpp:77] Creating layer pool5/7x7_s1
I0616 19:49:00.230326 42478 net.cpp:106] Creating Layer pool5/7x7_s1
I0616 19:49:00.230345 42478 net.cpp:454] pool5/7x7_s1 <- inception_5b/output
I0616 19:49:00.230366 42478 net.cpp:411] pool5/7x7_s1 -> pool5/7x7_s1
I0616 19:49:00.230758 42478 net.cpp:150] Setting up pool5/7x7_s1
I0616 19:49:00.230798 42478 net.cpp:157] Top shape: 16 1024 1 1 (16384)
I0616 19:49:00.230818 42478 net.cpp:165] Memory required for data: 897800856
I0616 19:49:00.230835 42478 layer_factory.hpp:77] Creating layer pool5/drop_7x7_s1
I0616 19:49:00.230855 42478 net.cpp:106] Creating Layer pool5/drop_7x7_s1
I0616 19:49:00.230873 42478 net.cpp:454] pool5/drop_7x7_s1 <- pool5/7x7_s1
I0616 19:49:00.230892 42478 net.cpp:397] pool5/drop_7x7_s1 -> pool5/7x7_s1 (in-place)
I0616 19:49:00.230948 42478 net.cpp:150] Setting up pool5/drop_7x7_s1
I0616 19:49:00.230973 42478 net.cpp:157] Top shape: 16 1024 1 1 (16384)
I0616 19:49:00.230989 42478 net.cpp:165] Memory required for data: 897866392
I0616 19:49:00.231034 42478 layer_factory.hpp:77] Creating layer loss3/classifier_resized
I0616 19:49:00.231057 42478 net.cpp:106] Creating Layer loss3/classifier_resized
I0616 19:49:00.231076 42478 net.cpp:454] loss3/classifier_resized <- pool5/7x7_s1
I0616 19:49:00.231096 42478 net.cpp:411] loss3/classifier_resized -> loss3/classifier_resized
I0616 19:49:00.236712 42478 net.cpp:150] Setting up loss3/classifier_resized
I0616 19:49:00.236760 42478 net.cpp:157] Top shape: 16 216 (3456)
I0616 19:49:00.236788 42478 net.cpp:165] Memory required for data: 897880216
I0616 19:49:00.236809 42478 layer_factory.hpp:77] Creating layer loss3/classifier_resized_loss3/classifier_resized_0_split
I0616 19:49:00.236850 42478 net.cpp:106] Creating Layer loss3/classifier_resized_loss3/classifier_resized_0_split
I0616 19:49:00.236868 42478 net.cpp:454] loss3/classifier_resized_loss3/classifier_resized_0_split <- loss3/classifier_resized
I0616 19:49:00.236891 42478 net.cpp:411] loss3/classifier_resized_loss3/classifier_resized_0_split -> loss3/classifier_resized_loss3/classifier_resized_0_split_0
I0616 19:49:00.236917 42478 net.cpp:411] loss3/classifier_resized_loss3/classifier_resized_0_split -> loss3/classifier_resized_loss3/classifier_resized_0_split_1
I0616 19:49:00.236938 42478 net.cpp:411] loss3/classifier_resized_loss3/classifier_resized_0_split -> loss3/classifier_resized_loss3/classifier_resized_0_split_2
I0616 19:49:00.237015 42478 net.cpp:150] Setting up loss3/classifier_resized_loss3/classifier_resized_0_split
I0616 19:49:00.237040 42478 net.cpp:157] Top shape: 16 216 (3456)
I0616 19:49:00.237069 42478 net.cpp:157] Top shape: 16 216 (3456)
I0616 19:49:00.237085 42478 net.cpp:157] Top shape: 16 216 (3456)
I0616 19:49:00.237112 42478 net.cpp:165] Memory required for data: 897921688
I0616 19:49:00.237128 42478 layer_factory.hpp:77] Creating layer loss3/loss3
I0616 19:49:00.237184 42478 net.cpp:106] Creating Layer loss3/loss3
I0616 19:49:00.237202 42478 net.cpp:454] loss3/loss3 <- loss3/classifier_resized_loss3/classifier_resized_0_split_0
I0616 19:49:00.237278 42478 net.cpp:454] loss3/loss3 <- label_data_1_split_6
…
