…
I0501 20:31:07.021798 64986 net.cpp:322] The NetState phase (0) differed from the phase (1) specified by a rule in layer accuracy/top5
I0501 20:31:07.022032 64986 net.cpp:49] Initializing net from parameters: 
name: "foodCAT_VGG_ILSVRC_19_layer"
state {
  phase: TRAIN
}
layer {
  name: "data"
  type: "ImageData"
  top: "data"
  top: "label"
  include {
    phase: TRAIN
  }
  transform_param {
    mirror: true
    crop_size: 224
    mean_value: 104
    mean_value: 117
    mean_value: 123
  }
  image_data_param {
    source: "foodCAT_CLUSTER/train.txt"
    batch_size: 16
    shuffle: true
    new_height: 256
    new_width: 256
  }
}
layer {
  name: "conv1_1"
  type: "Convolution"
  bottom: "data"
  top: "conv1_1"
  convolution_param {
    num_output: 64
    pad: 1
    kernel_size: 3
  }
}
layer {
  name: "ReLU1_1"
  type: "ReLU"
  bottom: "conv1_1"
  top: "conv1_1"
}
layer {
  name: "conv1_2"
  type: "Convolution"
  bottom: "conv1_1"
  top: "conv1_2"
  convolution_param {
    num_output: 64
    pad: 1
    kernel_size: 3
  }
}
layer {
  name: "ReLU1_2"
  type: "ReLU"
  bottom: "conv1_2"
  top: "conv1_2"
}
layer {
  name: "pool1"
  type: "Pooling"
  bottom: "conv1_2"
  top: "pool1"
  pooling_param {
    pool: MAX
    kernel_size: 2
    stride: 2
  }
}
layer {
  name: "conv2_1"
  type: "Convolution"
  bottom: "pool1"
  top: "conv2_1"
  convolution_param {
    num_output: 128
    pad: 1
    kernel_size: 3
  }
}
layer {
  name: "ReLU2_1"
  type: "ReLU"
  bottom: "conv2_1"
  top: "conv2_1"
}
layer {
  name: "conv2_2"
  type: "Convolution"
  bottom: "conv2_1"
  top: "conv2_2"
  convolution_param {
    num_output: 128
    pad: 1
    kernel_size: 3
  }
}
layer {
  name: "ReLU2_2"
  type: "ReLU"
  bottom: "conv2_2"
  top: "conv2_2"
}
layer {
  name: "pool2"
  type: "Pooling"
  bottom: "conv2_2"
  top: "pool2"
  pooling_param {
    pool: MAX
    kernel_size: 2
    stride: 2
  }
}
layer {
  name: "conv3_1"
  type: "Convolution"
  bottom: "pool2"
  top: "conv3_1"
  convolution_param {
    num_output: 256
    pad: 1
    kernel_size: 3
  }
}
layer {
  name: "ReLU3_1"
  type: "ReLU"
  bottom: "conv3_1"
  top: "conv3_1"
}
layer {
  name: "conv3_2"
  type: "Convolution"
  bottom: "conv3_1"
  top: "conv3_2"
  convolution_param {
    num_output: 256
    pad: 1
    kernel_size: 3
  }
}
layer {
  name: "ReLU3_2"
  type: "ReLU"
  bottom: "conv3_2"
  top: "conv3_2"
}
layer {
  name: "conv3_3"
  type: "Convolution"
  bottom: "conv3_2"
  top: "conv3_3"
  convolution_param {
    num_output: 256
    pad: 1
    kernel_size: 3
  }
}
layer {
  name: "ReLU3_3"
  type: "ReLU"
  bottom: "conv3_3"
  top: "conv3_3"
}
layer {
  name: "conv3_4"
  type: "Convolution"
  bottom: "conv3_3"
  top: "conv3_4"
  convolution_param {
    num_output: 256
    pad: 1
    kernel_size: 3
  }
}
layer {
  name: "ReLU3_4"
  type: "ReLU"
  bottom: "conv3_4"
  top: "conv3_4"
}
layer {
  name: "pool3"
  type: "Pooling"
  bottom: "conv3_4"
  top: "pool3"
  pooling_param {
    pool: MAX
    kernel_size: 2
    stride: 2
  }
}
layer {
  name: "conv4_1"
  type: "Convolution"
  bottom: "pool3"
  top: "conv4_1"
  convolution_param {
    num_output: 512
    pad: 1
    kernel_size: 3
  }
}
layer {
  name: "ReLU4_1"
  type: "ReLU"
  bottom: "conv4_1"
  top: "conv4_1"
}
layer {
  name: "conv4_2"
  type: "Convolution"
  bottom: "conv4_1"
  top: "conv4_2"
  convolution_param {
    num_output: 512
    pad: 1
    kernel_size: 3
  }
}
layer {
  name: "ReLU4_2"
  type: "ReLU"
  bottom: "conv4_2"
  top: "conv4_2"
}
layer {
  name: "conv4_3"
  type: "Convolution"
  bottom: "conv4_2"
  top: "conv4_3"
  convolution_param {
    num_output: 512
    pad: 1
    kernel_size: 3
  }
}
layer {
  name: "ReLU4_3"
  type: "ReLU"
  bottom: "conv4_3"
  top: "conv4_3"
}
layer {
  name: "conv4_4"
  type: "Convolution"
  bottom: "conv4_3"
  top: "conv4_4"
  convolution_param {
    num_output: 512
    pad: 1
    kernel_size: 3
  }
}
layer {
  name: "ReLU4_4"
  type: "ReLU"
  bottom: "conv4_4"
  top: "conv4_4"
}
layer {
  name: "pool4"
  type: "Pooling"
  bottom: "conv4_4"
  top: "pool4"
  pooling_param {
    pool: MAX
    kernel_size: 2
    stride: 2
  }
}
layer {
  name: "conv5_1"
  type: "Convolution"
  bottom: "pool4"
  top: "conv5_1"
  convolution_param {
    num_output: 512
    pad: 1
    kernel_size: 3
  }
}
layer {
  name: "ReLU5_1"
  type: "ReLU"
  bottom: "conv5_1"
  top: "conv5_1"
}
layer {
  name: "conv5_2"
  type: "Convolution"
  bottom: "conv5_1"
  top: "conv5_2"
  convolution_param {
    num_output: 512
    pad: 1
    kernel_size: 3
  }
}
layer {
  name: "ReLU5_2"
  type: "ReLU"
  bottom: "conv5_2"
  top: "conv5_2"
}
layer {
  name: "conv5_3"
  type: "Convolution"
  bottom: "conv5_2"
  top: "conv5_3"
  convolution_param {
    num_output: 512
    pad: 1
    kernel_size: 3
  }
}
layer {
  name: "ReLU5_3"
  type: "ReLU"
  bottom: "conv5_3"
  top: "conv5_3"
}
layer {
  name: "conv5_4"
  type: "Convolution"
  bottom: "conv5_3"
  top: "conv5_4"
  convolution_param {
    num_output: 512
    pad: 1
    kernel_size: 3
  }
}
layer {
  name: "ReLU5_4"
  type: "ReLU"
  bottom: "conv5_4"
  top: "conv5_4"
}
layer {
  name: "pool5"
  type: "Pooling"
  bottom: "conv5_4"
  top: "pool5"
  pooling_param {
    pool: MAX
    kernel_size: 2
    stride: 2
  }
}
layer {
  name: "fc6"
  type: "InnerProduct"
  bottom: "pool5"
  top: "fc6"
  inner_product_param {
    num_output: 4096
  }
}
layer {
  name: "ReLU6"
  type: "ReLU"
  bottom: "fc6"
  top: "fc6"
}
layer {
  name: "drop6"
  type: "Dropout"
  bottom: "fc6"
  top: "fc6"
  dropout_param {
    dropout_ratio: 0.5
  }
}
layer {
  name: "fc7"
  type: "InnerProduct"
  bottom: "fc6"
  top: "fc7"
  inner_product_param {
    num_output: 4096
  }
}
layer {
  name: "ReLU7"
  type: "ReLU"
  bottom: "fc7"
  top: "fc7"
}
layer {
  name: "drop7"
  type: "Dropout"
  bottom: "fc7"
  top: "fc7"
  dropout_param {
    dropout_ratio: 0.5
  }
}
layer {
  name: "fc8_foodCAT"
  type: "InnerProduct"
  bottom: "fc7"
  top: "fc8_foodCAT"
  inner_product_param {
    num_output: 218
  }
}
layer {
  name: "loss"
  type: "SoftmaxWithLoss"
  bottom: "fc8_foodCAT"
  bottom: "label"
  top: "loss/loss"
}
I0501 20:31:07.022238 64986 layer_factory.hpp:77] Creating layer data
I0501 20:31:07.027320 64986 net.cpp:106] Creating Layer data
I0501 20:31:07.027349 64986 net.cpp:411] data -> data
I0501 20:31:07.027438 64986 net.cpp:411] data -> label
I0501 20:31:07.029994 64986 image_data_layer.cpp:38] Opening file foodCAT_CLUSTER/train.txt
I0501 20:31:07.118296 64986 image_data_layer.cpp:48] Shuffling data
I0501 20:31:07.126399 64986 image_data_layer.cpp:53] A total of 117113 images.
I0501 20:31:07.595543 64986 image_data_layer.cpp:80] output data size: 16,3,224,224
I0501 20:31:07.612818 64986 net.cpp:150] Setting up data
I0501 20:31:07.612910 64986 net.cpp:157] Top shape: 16 3 224 224 (2408448)
I0501 20:31:07.612936 64986 net.cpp:157] Top shape: 16 (16)
I0501 20:31:07.612954 64986 net.cpp:165] Memory required for data: 9633856
I0501 20:31:07.612974 64986 layer_factory.hpp:77] Creating layer conv1_1
I0501 20:31:07.613008 64986 net.cpp:106] Creating Layer conv1_1
I0501 20:31:07.613028 64986 net.cpp:454] conv1_1 <- data
I0501 20:31:07.613065 64986 net.cpp:411] conv1_1 -> conv1_1
I0501 20:31:10.058760 64986 net.cpp:150] Setting up conv1_1
I0501 20:31:10.058859 64986 net.cpp:157] Top shape: 16 64 224 224 (51380224)
I0501 20:31:10.058920 64986 net.cpp:165] Memory required for data: 215154752
I0501 20:31:10.058954 64986 layer_factory.hpp:77] Creating layer ReLU1_1
I0501 20:31:10.058984 64986 net.cpp:106] Creating Layer ReLU1_1
I0501 20:31:10.059003 64986 net.cpp:454] ReLU1_1 <- conv1_1
I0501 20:31:10.059022 64986 net.cpp:397] ReLU1_1 -> conv1_1 (in-place)
I0501 20:31:10.059197 64986 net.cpp:150] Setting up ReLU1_1
I0501 20:31:10.059231 64986 net.cpp:157] Top shape: 16 64 224 224 (51380224)
I0501 20:31:10.059247 64986 net.cpp:165] Memory required for data: 420675648
I0501 20:31:10.059263 64986 layer_factory.hpp:77] Creating layer conv1_2
I0501 20:31:10.059285 64986 net.cpp:106] Creating Layer conv1_2
I0501 20:31:10.059303 64986 net.cpp:454] conv1_2 <- conv1_1
I0501 20:31:10.059320 64986 net.cpp:411] conv1_2 -> conv1_2
I0501 20:31:10.060225 64986 net.cpp:150] Setting up conv1_2
I0501 20:31:10.060266 64986 net.cpp:157] Top shape: 16 64 224 224 (51380224)
I0501 20:31:10.060286 64986 net.cpp:165] Memory required for data: 626196544
I0501 20:31:10.060307 64986 layer_factory.hpp:77] Creating layer ReLU1_2
I0501 20:31:10.060328 64986 net.cpp:106] Creating Layer ReLU1_2
I0501 20:31:10.060344 64986 net.cpp:454] ReLU1_2 <- conv1_2
I0501 20:31:10.060361 64986 net.cpp:397] ReLU1_2 -> conv1_2 (in-place)
I0501 20:31:10.060632 64986 net.cpp:150] Setting up ReLU1_2
I0501 20:31:10.060668 64986 net.cpp:157] Top shape: 16 64 224 224 (51380224)
I0501 20:31:10.060685 64986 net.cpp:165] Memory required for data: 831717440
I0501 20:31:10.060701 64986 layer_factory.hpp:77] Creating layer pool1
I0501 20:31:10.060722 64986 net.cpp:106] Creating Layer pool1
I0501 20:31:10.060740 64986 net.cpp:454] pool1 <- conv1_2
I0501 20:31:10.060760 64986 net.cpp:411] pool1 -> pool1
I0501 20:31:10.060845 64986 net.cpp:150] Setting up pool1
I0501 20:31:10.060879 64986 net.cpp:157] Top shape: 16 64 112 112 (12845056)
I0501 20:31:10.060909 64986 net.cpp:165] Memory required for data: 883097664
I0501 20:31:10.060923 64986 layer_factory.hpp:77] Creating layer conv2_1
I0501 20:31:10.060942 64986 net.cpp:106] Creating Layer conv2_1
I0501 20:31:10.060959 64986 net.cpp:454] conv2_1 <- pool1
I0501 20:31:10.060977 64986 net.cpp:411] conv2_1 -> conv2_1
I0501 20:31:10.063036 64986 net.cpp:150] Setting up conv2_1
I0501 20:31:10.063077 64986 net.cpp:157] Top shape: 16 128 112 112 (25690112)
I0501 20:31:10.063096 64986 net.cpp:165] Memory required for data: 985858112
I0501 20:31:10.063119 64986 layer_factory.hpp:77] Creating layer ReLU2_1
I0501 20:31:10.063141 64986 net.cpp:106] Creating Layer ReLU2_1
I0501 20:31:10.063158 64986 net.cpp:454] ReLU2_1 <- conv2_1
I0501 20:31:10.063174 64986 net.cpp:397] ReLU2_1 -> conv2_1 (in-place)
I0501 20:31:10.063351 64986 net.cpp:150] Setting up ReLU2_1
I0501 20:31:10.063382 64986 net.cpp:157] Top shape: 16 128 112 112 (25690112)
I0501 20:31:10.063398 64986 net.cpp:165] Memory required for data: 1088618560
I0501 20:31:10.063415 64986 layer_factory.hpp:77] Creating layer conv2_2
I0501 20:31:10.063436 64986 net.cpp:106] Creating Layer conv2_2
I0501 20:31:10.063454 64986 net.cpp:454] conv2_2 <- conv2_1
I0501 20:31:10.063472 64986 net.cpp:411] conv2_2 -> conv2_2
I0501 20:31:10.064437 64986 net.cpp:150] Setting up conv2_2
I0501 20:31:10.064477 64986 net.cpp:157] Top shape: 16 128 112 112 (25690112)
I0501 20:31:10.064496 64986 net.cpp:165] Memory required for data: 1191379008
I0501 20:31:10.064515 64986 layer_factory.hpp:77] Creating layer ReLU2_2
I0501 20:31:10.064535 64986 net.cpp:106] Creating Layer ReLU2_2
I0501 20:31:10.064551 64986 net.cpp:454] ReLU2_2 <- conv2_2
I0501 20:31:10.064568 64986 net.cpp:397] ReLU2_2 -> conv2_2 (in-place)
I0501 20:31:10.064731 64986 net.cpp:150] Setting up ReLU2_2
I0501 20:31:10.064761 64986 net.cpp:157] Top shape: 16 128 112 112 (25690112)
I0501 20:31:10.064777 64986 net.cpp:165] Memory required for data: 1294139456
I0501 20:31:10.064792 64986 layer_factory.hpp:77] Creating layer pool2
I0501 20:31:10.064810 64986 net.cpp:106] Creating Layer pool2
I0501 20:31:10.064848 64986 net.cpp:454] pool2 <- conv2_2
I0501 20:31:10.064898 64986 net.cpp:411] pool2 -> pool2
I0501 20:31:10.064955 64986 net.cpp:150] Setting up pool2
I0501 20:31:10.064980 64986 net.cpp:157] Top shape: 16 128 56 56 (6422528)
I0501 20:31:10.064996 64986 net.cpp:165] Memory required for data: 1319829568
I0501 20:31:10.065009 64986 layer_factory.hpp:77] Creating layer conv3_1
I0501 20:31:10.065032 64986 net.cpp:106] Creating Layer conv3_1
I0501 20:31:10.065048 64986 net.cpp:454] conv3_1 <- pool2
I0501 20:31:10.065065 64986 net.cpp:411] conv3_1 -> conv3_1
I0501 20:31:10.066625 64986 net.cpp:150] Setting up conv3_1
I0501 20:31:10.066665 64986 net.cpp:157] Top shape: 16 256 56 56 (12845056)
I0501 20:31:10.066684 64986 net.cpp:165] Memory required for data: 1371209792
I0501 20:31:10.066705 64986 layer_factory.hpp:77] Creating layer ReLU3_1
I0501 20:31:10.066725 64986 net.cpp:106] Creating Layer ReLU3_1
I0501 20:31:10.066741 64986 net.cpp:454] ReLU3_1 <- conv3_1
I0501 20:31:10.066761 64986 net.cpp:397] ReLU3_1 -> conv3_1 (in-place)
I0501 20:31:10.067059 64986 net.cpp:150] Setting up ReLU3_1
I0501 20:31:10.067097 64986 net.cpp:157] Top shape: 16 256 56 56 (12845056)
I0501 20:31:10.067114 64986 net.cpp:165] Memory required for data: 1422590016
I0501 20:31:10.067129 64986 layer_factory.hpp:77] Creating layer conv3_2
I0501 20:31:10.067150 64986 net.cpp:106] Creating Layer conv3_2
I0501 20:31:10.067168 64986 net.cpp:454] conv3_2 <- conv3_1
I0501 20:31:10.067188 64986 net.cpp:411] conv3_2 -> conv3_2
I0501 20:31:10.069562 64986 net.cpp:150] Setting up conv3_2
I0501 20:31:10.069605 64986 net.cpp:157] Top shape: 16 256 56 56 (12845056)
I0501 20:31:10.069623 64986 net.cpp:165] Memory required for data: 1473970240
I0501 20:31:10.069643 64986 layer_factory.hpp:77] Creating layer ReLU3_2
I0501 20:31:10.069663 64986 net.cpp:106] Creating Layer ReLU3_2
I0501 20:31:10.069679 64986 net.cpp:454] ReLU3_2 <- conv3_2
I0501 20:31:10.069695 64986 net.cpp:397] ReLU3_2 -> conv3_2 (in-place)
I0501 20:31:10.069864 64986 net.cpp:150] Setting up ReLU3_2
I0501 20:31:10.069900 64986 net.cpp:157] Top shape: 16 256 56 56 (12845056)
I0501 20:31:10.069916 64986 net.cpp:165] Memory required for data: 1525350464
I0501 20:31:10.069931 64986 layer_factory.hpp:77] Creating layer conv3_3
I0501 20:31:10.069952 64986 net.cpp:106] Creating Layer conv3_3
I0501 20:31:10.069969 64986 net.cpp:454] conv3_3 <- conv3_2
I0501 20:31:10.069990 64986 net.cpp:411] conv3_3 -> conv3_3
I0501 20:31:10.072317 64986 net.cpp:150] Setting up conv3_3
I0501 20:31:10.072356 64986 net.cpp:157] Top shape: 16 256 56 56 (12845056)
I0501 20:31:10.072374 64986 net.cpp:165] Memory required for data: 1576730688
I0501 20:31:10.072393 64986 layer_factory.hpp:77] Creating layer ReLU3_3
I0501 20:31:10.072417 64986 net.cpp:106] Creating Layer ReLU3_3
I0501 20:31:10.072434 64986 net.cpp:454] ReLU3_3 <- conv3_3
I0501 20:31:10.072451 64986 net.cpp:397] ReLU3_3 -> conv3_3 (in-place)
I0501 20:31:10.072615 64986 net.cpp:150] Setting up ReLU3_3
I0501 20:31:10.072648 64986 net.cpp:157] Top shape: 16 256 56 56 (12845056)
I0501 20:31:10.072664 64986 net.cpp:165] Memory required for data: 1628110912
I0501 20:31:10.072679 64986 layer_factory.hpp:77] Creating layer conv3_4
I0501 20:31:10.072701 64986 net.cpp:106] Creating Layer conv3_4
I0501 20:31:10.072720 64986 net.cpp:454] conv3_4 <- conv3_3
I0501 20:31:10.072736 64986 net.cpp:411] conv3_4 -> conv3_4
I0501 20:31:10.075419 64986 net.cpp:150] Setting up conv3_4
I0501 20:31:10.075464 64986 net.cpp:157] Top shape: 16 256 56 56 (12845056)
I0501 20:31:10.075484 64986 net.cpp:165] Memory required for data: 1679491136
I0501 20:31:10.075505 64986 layer_factory.hpp:77] Creating layer ReLU3_4
I0501 20:31:10.075526 64986 net.cpp:106] Creating Layer ReLU3_4
I0501 20:31:10.075544 64986 net.cpp:454] ReLU3_4 <- conv3_4
I0501 20:31:10.075562 64986 net.cpp:397] ReLU3_4 -> conv3_4 (in-place)
I0501 20:31:10.075836 64986 net.cpp:150] Setting up ReLU3_4
I0501 20:31:10.075878 64986 net.cpp:157] Top shape: 16 256 56 56 (12845056)
I0501 20:31:10.075909 64986 net.cpp:165] Memory required for data: 1730871360
I0501 20:31:10.075940 64986 layer_factory.hpp:77] Creating layer pool3
I0501 20:31:10.075959 64986 net.cpp:106] Creating Layer pool3
I0501 20:31:10.075976 64986 net.cpp:454] pool3 <- conv3_4
I0501 20:31:10.075994 64986 net.cpp:411] pool3 -> pool3
I0501 20:31:10.076053 64986 net.cpp:150] Setting up pool3
I0501 20:31:10.076078 64986 net.cpp:157] Top shape: 16 256 28 28 (3211264)
I0501 20:31:10.076094 64986 net.cpp:165] Memory required for data: 1743716416
I0501 20:31:10.076108 64986 layer_factory.hpp:77] Creating layer conv4_1
I0501 20:31:10.076129 64986 net.cpp:106] Creating Layer conv4_1
I0501 20:31:10.076148 64986 net.cpp:454] conv4_1 <- pool3
I0501 20:31:10.076164 64986 net.cpp:411] conv4_1 -> conv4_1
I0501 20:31:10.080329 64986 net.cpp:150] Setting up conv4_1
I0501 20:31:10.080371 64986 net.cpp:157] Top shape: 16 512 28 28 (6422528)
I0501 20:31:10.080390 64986 net.cpp:165] Memory required for data: 1769406528
I0501 20:31:10.080415 64986 layer_factory.hpp:77] Creating layer ReLU4_1
I0501 20:31:10.080437 64986 net.cpp:106] Creating Layer ReLU4_1
I0501 20:31:10.080454 64986 net.cpp:454] ReLU4_1 <- conv4_1
I0501 20:31:10.080471 64986 net.cpp:397] ReLU4_1 -> conv4_1 (in-place)
I0501 20:31:10.080641 64986 net.cpp:150] Setting up ReLU4_1
I0501 20:31:10.080672 64986 net.cpp:157] Top shape: 16 512 28 28 (6422528)
I0501 20:31:10.080687 64986 net.cpp:165] Memory required for data: 1795096640
I0501 20:31:10.080703 64986 layer_factory.hpp:77] Creating layer conv4_2
I0501 20:31:10.080724 64986 net.cpp:106] Creating Layer conv4_2
I0501 20:31:10.080741 64986 net.cpp:454] conv4_2 <- conv4_1
I0501 20:31:10.080759 64986 net.cpp:411] conv4_2 -> conv4_2
I0501 20:31:10.087090 64986 net.cpp:150] Setting up conv4_2
I0501 20:31:10.087133 64986 net.cpp:157] Top shape: 16 512 28 28 (6422528)
I0501 20:31:10.087152 64986 net.cpp:165] Memory required for data: 1820786752
I0501 20:31:10.087172 64986 layer_factory.hpp:77] Creating layer ReLU4_2
I0501 20:31:10.087190 64986 net.cpp:106] Creating Layer ReLU4_2
I0501 20:31:10.087208 64986 net.cpp:454] ReLU4_2 <- conv4_2
I0501 20:31:10.087226 64986 net.cpp:397] ReLU4_2 -> conv4_2 (in-place)
I0501 20:31:10.087393 64986 net.cpp:150] Setting up ReLU4_2
I0501 20:31:10.087422 64986 net.cpp:157] Top shape: 16 512 28 28 (6422528)
I0501 20:31:10.087438 64986 net.cpp:165] Memory required for data: 1846476864
I0501 20:31:10.087455 64986 layer_factory.hpp:77] Creating layer conv4_3
I0501 20:31:10.087476 64986 net.cpp:106] Creating Layer conv4_3
I0501 20:31:10.087493 64986 net.cpp:454] conv4_3 <- conv4_2
I0501 20:31:10.087514 64986 net.cpp:411] conv4_3 -> conv4_3
I0501 20:31:10.093942 64986 net.cpp:150] Setting up conv4_3
I0501 20:31:10.093984 64986 net.cpp:157] Top shape: 16 512 28 28 (6422528)
I0501 20:31:10.094002 64986 net.cpp:165] Memory required for data: 1872166976
I0501 20:31:10.094022 64986 layer_factory.hpp:77] Creating layer ReLU4_3
I0501 20:31:10.094043 64986 net.cpp:106] Creating Layer ReLU4_3
I0501 20:31:10.094061 64986 net.cpp:454] ReLU4_3 <- conv4_3
I0501 20:31:10.094079 64986 net.cpp:397] ReLU4_3 -> conv4_3 (in-place)
I0501 20:31:10.094350 64986 net.cpp:150] Setting up ReLU4_3
I0501 20:31:10.094385 64986 net.cpp:157] Top shape: 16 512 28 28 (6422528)
I0501 20:31:10.094403 64986 net.cpp:165] Memory required for data: 1897857088
I0501 20:31:10.094419 64986 layer_factory.hpp:77] Creating layer conv4_4
I0501 20:31:10.094439 64986 net.cpp:106] Creating Layer conv4_4
I0501 20:31:10.094458 64986 net.cpp:454] conv4_4 <- conv4_3
I0501 20:31:10.094477 64986 net.cpp:411] conv4_4 -> conv4_4
I0501 20:31:10.100812 64986 net.cpp:150] Setting up conv4_4
I0501 20:31:10.100857 64986 net.cpp:157] Top shape: 16 512 28 28 (6422528)
I0501 20:31:10.100879 64986 net.cpp:165] Memory required for data: 1923547200
I0501 20:31:10.100900 64986 layer_factory.hpp:77] Creating layer ReLU4_4
I0501 20:31:10.100919 64986 net.cpp:106] Creating Layer ReLU4_4
I0501 20:31:10.100936 64986 net.cpp:454] ReLU4_4 <- conv4_4
I0501 20:31:10.100955 64986 net.cpp:397] ReLU4_4 -> conv4_4 (in-place)
I0501 20:31:10.101145 64986 net.cpp:150] Setting up ReLU4_4
I0501 20:31:10.101196 64986 net.cpp:157] Top shape: 16 512 28 28 (6422528)
I0501 20:31:10.101212 64986 net.cpp:165] Memory required for data: 1949237312
I0501 20:31:10.101227 64986 layer_factory.hpp:77] Creating layer pool4
I0501 20:31:10.101245 64986 net.cpp:106] Creating Layer pool4
I0501 20:31:10.101263 64986 net.cpp:454] pool4 <- conv4_4
I0501 20:31:10.101279 64986 net.cpp:411] pool4 -> pool4
I0501 20:31:10.101338 64986 net.cpp:150] Setting up pool4
I0501 20:31:10.101364 64986 net.cpp:157] Top shape: 16 512 14 14 (1605632)
I0501 20:31:10.101379 64986 net.cpp:165] Memory required for data: 1955659840
I0501 20:31:10.101393 64986 layer_factory.hpp:77] Creating layer conv5_1
I0501 20:31:10.101414 64986 net.cpp:106] Creating Layer conv5_1
I0501 20:31:10.101431 64986 net.cpp:454] conv5_1 <- pool4
I0501 20:31:10.101449 64986 net.cpp:411] conv5_1 -> conv5_1
I0501 20:31:10.107749 64986 net.cpp:150] Setting up conv5_1
I0501 20:31:10.107791 64986 net.cpp:157] Top shape: 16 512 14 14 (1605632)
I0501 20:31:10.107810 64986 net.cpp:165] Memory required for data: 1962082368
I0501 20:31:10.107828 64986 layer_factory.hpp:77] Creating layer ReLU5_1
I0501 20:31:10.107851 64986 net.cpp:106] Creating Layer ReLU5_1
I0501 20:31:10.107868 64986 net.cpp:454] ReLU5_1 <- conv5_1
I0501 20:31:10.107890 64986 net.cpp:397] ReLU5_1 -> conv5_1 (in-place)
I0501 20:31:10.108185 64986 net.cpp:150] Setting up ReLU5_1
I0501 20:31:10.108222 64986 net.cpp:157] Top shape: 16 512 14 14 (1605632)
I0501 20:31:10.108238 64986 net.cpp:165] Memory required for data: 1968504896
I0501 20:31:10.108254 64986 layer_factory.hpp:77] Creating layer conv5_2
I0501 20:31:10.108274 64986 net.cpp:106] Creating Layer conv5_2
I0501 20:31:10.108291 64986 net.cpp:454] conv5_2 <- conv5_1
I0501 20:31:10.108311 64986 net.cpp:411] conv5_2 -> conv5_2
I0501 20:31:10.114642 64986 net.cpp:150] Setting up conv5_2
I0501 20:31:10.114684 64986 net.cpp:157] Top shape: 16 512 14 14 (1605632)
I0501 20:31:10.114702 64986 net.cpp:165] Memory required for data: 1974927424
I0501 20:31:10.114722 64986 layer_factory.hpp:77] Creating layer ReLU5_2
I0501 20:31:10.114748 64986 net.cpp:106] Creating Layer ReLU5_2
I0501 20:31:10.114765 64986 net.cpp:454] ReLU5_2 <- conv5_2
I0501 20:31:10.114783 64986 net.cpp:397] ReLU5_2 -> conv5_2 (in-place)
I0501 20:31:10.115061 64986 net.cpp:150] Setting up ReLU5_2
I0501 20:31:10.115095 64986 net.cpp:157] Top shape: 16 512 14 14 (1605632)
I0501 20:31:10.115111 64986 net.cpp:165] Memory required for data: 1981349952
I0501 20:31:10.115128 64986 layer_factory.hpp:77] Creating layer conv5_3
I0501 20:31:10.115149 64986 net.cpp:106] Creating Layer conv5_3
I0501 20:31:10.115169 64986 net.cpp:454] conv5_3 <- conv5_2
I0501 20:31:10.115188 64986 net.cpp:411] conv5_3 -> conv5_3
I0501 20:31:10.121534 64986 net.cpp:150] Setting up conv5_3
I0501 20:31:10.121577 64986 net.cpp:157] Top shape: 16 512 14 14 (1605632)
I0501 20:31:10.121595 64986 net.cpp:165] Memory required for data: 1987772480
I0501 20:31:10.121614 64986 layer_factory.hpp:77] Creating layer ReLU5_3
I0501 20:31:10.121636 64986 net.cpp:106] Creating Layer ReLU5_3
I0501 20:31:10.121654 64986 net.cpp:454] ReLU5_3 <- conv5_3
I0501 20:31:10.121670 64986 net.cpp:397] ReLU5_3 -> conv5_3 (in-place)
I0501 20:31:10.121841 64986 net.cpp:150] Setting up ReLU5_3
I0501 20:31:10.121877 64986 net.cpp:157] Top shape: 16 512 14 14 (1605632)
I0501 20:31:10.121896 64986 net.cpp:165] Memory required for data: 1994195008
I0501 20:31:10.121912 64986 layer_factory.hpp:77] Creating layer conv5_4
I0501 20:31:10.121932 64986 net.cpp:106] Creating Layer conv5_4
I0501 20:31:10.121949 64986 net.cpp:454] conv5_4 <- conv5_3
I0501 20:31:10.121968 64986 net.cpp:411] conv5_4 -> conv5_4
I0501 20:31:10.128312 64986 net.cpp:150] Setting up conv5_4
I0501 20:31:10.128356 64986 net.cpp:157] Top shape: 16 512 14 14 (1605632)
I0501 20:31:10.128376 64986 net.cpp:165] Memory required for data: 2000617536
I0501 20:31:10.128396 64986 layer_factory.hpp:77] Creating layer ReLU5_4
I0501 20:31:10.128437 64986 net.cpp:106] Creating Layer ReLU5_4
I0501 20:31:10.128478 64986 net.cpp:454] ReLU5_4 <- conv5_4
I0501 20:31:10.128496 64986 net.cpp:397] ReLU5_4 -> conv5_4 (in-place)
I0501 20:31:10.128669 64986 net.cpp:150] Setting up ReLU5_4
I0501 20:31:10.128700 64986 net.cpp:157] Top shape: 16 512 14 14 (1605632)
I0501 20:31:10.128715 64986 net.cpp:165] Memory required for data: 2007040064
I0501 20:31:10.128731 64986 layer_factory.hpp:77] Creating layer pool5
I0501 20:31:10.128748 64986 net.cpp:106] Creating Layer pool5
I0501 20:31:10.128765 64986 net.cpp:454] pool5 <- conv5_4
I0501 20:31:10.128784 64986 net.cpp:411] pool5 -> pool5
I0501 20:31:10.128844 64986 net.cpp:150] Setting up pool5
I0501 20:31:10.128875 64986 net.cpp:157] Top shape: 16 512 7 7 (401408)
I0501 20:31:10.128892 64986 net.cpp:165] Memory required for data: 2008645696
I0501 20:31:10.128907 64986 layer_factory.hpp:77] Creating layer fc6
I0501 20:31:10.128929 64986 net.cpp:106] Creating Layer fc6
I0501 20:31:10.128947 64986 net.cpp:454] fc6 <- pool5
I0501 20:31:10.128963 64986 net.cpp:411] fc6 -> fc6
I0501 20:31:10.349241 64986 net.cpp:150] Setting up fc6
I0501 20:31:10.349354 64986 net.cpp:157] Top shape: 16 4096 (65536)
I0501 20:31:10.349371 64986 net.cpp:165] Memory required for data: 2008907840
I0501 20:31:10.349401 64986 layer_factory.hpp:77] Creating layer ReLU6
I0501 20:31:10.349426 64986 net.cpp:106] Creating Layer ReLU6
I0501 20:31:10.349444 64986 net.cpp:454] ReLU6 <- fc6
I0501 20:31:10.349462 64986 net.cpp:397] ReLU6 -> fc6 (in-place)
I0501 20:31:10.349866 64986 net.cpp:150] Setting up ReLU6
I0501 20:31:10.349917 64986 net.cpp:157] Top shape: 16 4096 (65536)
I0501 20:31:10.349934 64986 net.cpp:165] Memory required for data: 2009169984
I0501 20:31:10.349949 64986 layer_factory.hpp:77] Creating layer drop6
I0501 20:31:10.349972 64986 net.cpp:106] Creating Layer drop6
I0501 20:31:10.349989 64986 net.cpp:454] drop6 <- fc6
I0501 20:31:10.350008 64986 net.cpp:397] drop6 -> fc6 (in-place)
I0501 20:31:10.350064 64986 net.cpp:150] Setting up drop6
I0501 20:31:10.350090 64986 net.cpp:157] Top shape: 16 4096 (65536)
I0501 20:31:10.350106 64986 net.cpp:165] Memory required for data: 2009432128
I0501 20:31:10.350121 64986 layer_factory.hpp:77] Creating layer fc7
I0501 20:31:10.350139 64986 net.cpp:106] Creating Layer fc7
I0501 20:31:10.350155 64986 net.cpp:454] fc7 <- fc6
I0501 20:31:10.350172 64986 net.cpp:411] fc7 -> fc7
I0501 20:31:10.388181 64986 net.cpp:150] Setting up fc7
I0501 20:31:10.388289 64986 net.cpp:157] Top shape: 16 4096 (65536)
I0501 20:31:10.388308 64986 net.cpp:165] Memory required for data: 2009694272
I0501 20:31:10.388329 64986 layer_factory.hpp:77] Creating layer ReLU7
I0501 20:31:10.388355 64986 net.cpp:106] Creating Layer ReLU7
I0501 20:31:10.388373 64986 net.cpp:454] ReLU7 <- fc7
I0501 20:31:10.388391 64986 net.cpp:397] ReLU7 -> fc7 (in-place)
I0501 20:31:10.388793 64986 net.cpp:150] Setting up ReLU7
I0501 20:31:10.388830 64986 net.cpp:157] Top shape: 16 4096 (65536)
I0501 20:31:10.388846 64986 net.cpp:165] Memory required for data: 2009956416
I0501 20:31:10.388862 64986 layer_factory.hpp:77] Creating layer drop7
I0501 20:31:10.388890 64986 net.cpp:106] Creating Layer drop7
I0501 20:31:10.388908 64986 net.cpp:454] drop7 <- fc7
I0501 20:31:10.388926 64986 net.cpp:397] drop7 -> fc7 (in-place)
I0501 20:31:10.388972 64986 net.cpp:150] Setting up drop7
I0501 20:31:10.388996 64986 net.cpp:157] Top shape: 16 4096 (65536)
I0501 20:31:10.389011 64986 net.cpp:165] Memory required for data: 2010218560
I0501 20:31:10.389026 64986 layer_factory.hpp:77] Creating layer fc8_foodCAT
I0501 20:31:10.389045 64986 net.cpp:106] Creating Layer fc8_foodCAT
I0501 20:31:10.389060 64986 net.cpp:454] fc8_foodCAT <- fc7
I0501 20:31:10.389081 64986 net.cpp:411] fc8_foodCAT -> fc8_foodCAT
I0501 20:31:10.391383 64986 net.cpp:150] Setting up fc8_foodCAT
I0501 20:31:10.391420 64986 net.cpp:157] Top shape: 16 218 (3488)
I0501 20:31:10.391438 64986 net.cpp:165] Memory required for data: 2010232512
I0501 20:31:10.391455 64986 layer_factory.hpp:77] Creating layer loss
I0501 20:31:10.391505 64986 net.cpp:106] Creating Layer loss
I0501 20:31:10.391561 64986 net.cpp:454] loss <- fc8_foodCAT
I0501 20:31:10.391578 64986 net.cpp:454] loss <- label
I0501 20:31:10.391598 64986 net.cpp:411] loss -> loss/loss
I0501 20:31:10.391625 64986 layer_factory.hpp:77] Creating layer loss
…
I0501 20:31:10.394331 64986 net.cpp:322] The NetState phase (1) differed from the phase (0) specified by a rule in layer data
I0501 20:31:10.394584 64986 net.cpp:49] Initializing net from parameters: 
name: "foodCAT_VGG_ILSVRC_19_layer"
state {
  phase: TEST
}
layer {
  name: "data"
  type: "ImageData"
  top: "data"
  top: "label"
  include {
    phase: TEST
  }
  transform_param {
    mirror: false
    crop_size: 224
    mean_value: 104
    mean_value: 117
    mean_value: 123
  }
  image_data_param {
    source: "foodCAT_CLUSTER/val.txt"
    batch_size: 16
    shuffle: true
    new_height: 256
    new_width: 256
  }
}
layer {
  name: "conv1_1"
  type: "Convolution"
  bottom: "data"
  top: "conv1_1"
  convolution_param {
    num_output: 64
    pad: 1
    kernel_size: 3
  }
}
layer {
  name: "ReLU1_1"
  type: "ReLU"
  bottom: "conv1_1"
  top: "conv1_1"
}
layer {
  name: "conv1_2"
  type: "Convolution"
  bottom: "conv1_1"
  top: "conv1_2"
  convolution_param {
    num_output: 64
    pad: 1
    kernel_size: 3
  }
}
layer {
  name: "ReLU1_2"
  type: "ReLU"
  bottom: "conv1_2"
  top: "conv1_2"
}
layer {
  name: "pool1"
  type: "Pooling"
  bottom: "conv1_2"
  top: "pool1"
  pooling_param {
    pool: MAX
    kernel_size: 2
    stride: 2
  }
}
layer {
  name: "conv2_1"
  type: "Convolution"
  bottom: "pool1"
  top: "conv2_1"
  convolution_param {
    num_output: 128
    pad: 1
    kernel_size: 3
  }
}
layer {
  name: "ReLU2_1"
  type: "ReLU"
  bottom: "conv2_1"
  top: "conv2_1"
}
layer {
  name: "conv2_2"
  type: "Convolution"
  bottom: "conv2_1"
  top: "conv2_2"
  convolution_param {
    num_output: 128
    pad: 1
    kernel_size: 3
  }
}
layer {
  name: "ReLU2_2"
  type: "ReLU"
  bottom: "conv2_2"
  top: "conv2_2"
}
layer {
  name: "pool2"
  type: "Pooling"
  bottom: "conv2_2"
  top: "pool2"
  pooling_param {
    pool: MAX
    kernel_size: 2
    stride: 2
  }
}
layer {
  name: "conv3_1"
  type: "Convolution"
  bottom: "pool2"
  top: "conv3_1"
  convolution_param {
    num_output: 256
    pad: 1
    kernel_size: 3
  }
}
layer {
  name: "ReLU3_1"
  type: "ReLU"
  bottom: "conv3_1"
  top: "conv3_1"
}
layer {
  name: "conv3_2"
  type: "Convolution"
  bottom: "conv3_1"
  top: "conv3_2"
  convolution_param {
    num_output: 256
    pad: 1
    kernel_size: 3
  }
}
layer {
  name: "ReLU3_2"
  type: "ReLU"
  bottom: "conv3_2"
  top: "conv3_2"
}
layer {
  name: "conv3_3"
  type: "Convolution"
  bottom: "conv3_2"
  top: "conv3_3"
  convolution_param {
    num_output: 256
    pad: 1
    kernel_size: 3
  }
}
layer {
  name: "ReLU3_3"
  type: "ReLU"
  bottom: "conv3_3"
  top: "conv3_3"
}
layer {
  name: "conv3_4"
  type: "Convolution"
  bottom: "conv3_3"
  top: "conv3_4"
  convolution_param {
    num_output: 256
    pad: 1
    kernel_size: 3
  }
}
layer {
  name: "ReLU3_4"
  type: "ReLU"
  bottom: "conv3_4"
  top: "conv3_4"
}
layer {
  name: "pool3"
  type: "Pooling"
  bottom: "conv3_4"
  top: "pool3"
  pooling_param {
    pool: MAX
    kernel_size: 2
    stride: 2
  }
}
layer {
  name: "conv4_1"
  type: "Convolution"
  bottom: "pool3"
  top: "conv4_1"
  convolution_param {
    num_output: 512
    pad: 1
    kernel_size: 3
  }
}
layer {
  name: "ReLU4_1"
  type: "ReLU"
  bottom: "conv4_1"
  top: "conv4_1"
}
layer {
  name: "conv4_2"
  type: "Convolution"
  bottom: "conv4_1"
  top: "conv4_2"
  convolution_param {
    num_output: 512
    pad: 1
    kernel_size: 3
  }
}
layer {
  name: "ReLU4_2"
  type: "ReLU"
  bottom: "conv4_2"
  top: "conv4_2"
}
layer {
  name: "conv4_3"
  type: "Convolution"
  bottom: "conv4_2"
  top: "conv4_3"
  convolution_param {
    num_output: 512
    pad: 1
    kernel_size: 3
  }
}
layer {
  name: "ReLU4_3"
  type: "ReLU"
  bottom: "conv4_3"
  top: "conv4_3"
}
layer {
  name: "conv4_4"
  type: "Convolution"
  bottom: "conv4_3"
  top: "conv4_4"
  convolution_param {
    num_output: 512
    pad: 1
    kernel_size: 3
  }
}
layer {
  name: "ReLU4_4"
  type: "ReLU"
  bottom: "conv4_4"
  top: "conv4_4"
}
layer {
  name: "pool4"
  type: "Pooling"
  bottom: "conv4_4"
  top: "pool4"
  pooling_param {
    pool: MAX
    kernel_size: 2
    stride: 2
  }
}
layer {
  name: "conv5_1"
  type: "Convolution"
  bottom: "pool4"
  top: "conv5_1"
  convolution_param {
    num_output: 512
    pad: 1
    kernel_size: 3
  }
}
layer {
  name: "ReLU5_1"
  type: "ReLU"
  bottom: "conv5_1"
  top: "conv5_1"
}
layer {
  name: "conv5_2"
  type: "Convolution"
  bottom: "conv5_1"
  top: "conv5_2"
  convolution_param {
    num_output: 512
    pad: 1
    kernel_size: 3
  }
}
layer {
  name: "ReLU5_2"
  type: "ReLU"
  bottom: "conv5_2"
  top: "conv5_2"
}
layer {
  name: "conv5_3"
  type: "Convolution"
  bottom: "conv5_2"
  top: "conv5_3"
  convolution_param {
    num_output: 512
    pad: 1
    kernel_size: 3
  }
}
layer {
  name: "ReLU5_3"
  type: "ReLU"
  bottom: "conv5_3"
  top: "conv5_3"
}
layer {
  name: "conv5_4"
  type: "Convolution"
  bottom: "conv5_3"
  top: "conv5_4"
  convolution_param {
    num_output: 512
    pad: 1
    kernel_size: 3
  }
}
layer {
  name: "ReLU5_4"
  type: "ReLU"
  bottom: "conv5_4"
  top: "conv5_4"
}
layer {
  name: "pool5"
  type: "Pooling"
  bottom: "conv5_4"
  top: "pool5"
  pooling_param {
    pool: MAX
    kernel_size: 2
    stride: 2
  }
}
layer {
  name: "fc6"
  type: "InnerProduct"
  bottom: "pool5"
  top: "fc6"
  inner_product_param {
    num_output: 4096
  }
}
layer {
  name: "ReLU6"
  type: "ReLU"
  bottom: "fc6"
  top: "fc6"
}
layer {
  name: "drop6"
  type: "Dropout"
  bottom: "fc6"
  top: "fc6"
  dropout_param {
    dropout_ratio: 0.5
  }
}
layer {
  name: "fc7"
  type: "InnerProduct"
  bottom: "fc6"
  top: "fc7"
  inner_product_param {
    num_output: 4096
  }
}
layer {
  name: "ReLU7"
  type: "ReLU"
  bottom: "fc7"
  top: "fc7"
}
layer {
  name: "drop7"
  type: "Dropout"
  bottom: "fc7"
  top: "fc7"
  dropout_param {
    dropout_ratio: 0.5
  }
}
layer {
  name: "fc8_foodCAT"
  type: "InnerProduct"
  bottom: "fc7"
  top: "fc8_foodCAT"
  inner_product_param {
    num_output: 218
  }
}
layer {
  name: "loss"
  type: "SoftmaxWithLoss"
  bottom: "fc8_foodCAT"
  bottom: "label"
  top: "loss/loss"
}
layer {
  name: "accuracy/top1"
  type: "Accuracy"
  bottom: "fc8_foodCAT"
  bottom: "label"
  top: "accuracy@1"
  include {
    phase: TEST
  }
  accuracy_param {
    top_k: 1
  }
}
layer {
  name: "accuracy/top5"
  type: "Accuracy"
  bottom: "fc8_foodCAT"
  bottom: "label"
  top: "accuracy@5"
  include {
    phase: TEST
  }
  accuracy_param {
    top_k: 5
  }
}
I0501 20:31:10.394764 64986 layer_factory.hpp:77] Creating layer data
I0501 20:31:10.394801 64986 net.cpp:106] Creating Layer data
I0501 20:31:10.394822 64986 net.cpp:411] data -> data
I0501 20:31:10.394855 64986 net.cpp:411] data -> label
I0501 20:31:10.394892 64986 image_data_layer.cpp:38] Opening file foodCAT_CLUSTER/val.txt
I0501 20:31:10.444409 64986 image_data_layer.cpp:48] Shuffling data
I0501 20:31:10.445284 64986 image_data_layer.cpp:53] A total of 14649 images.
I0501 20:31:10.449281 64986 image_data_layer.cpp:80] output data size: 16,3,224,224
I0501 20:31:10.466280 64986 net.cpp:150] Setting up data
I0501 20:31:10.466341 64986 net.cpp:157] Top shape: 16 3 224 224 (2408448)
I0501 20:31:10.466363 64986 net.cpp:157] Top shape: 16 (16)
I0501 20:31:10.466379 64986 net.cpp:165] Memory required for data: 9633856
I0501 20:31:10.466395 64986 layer_factory.hpp:77] Creating layer label_data_1_split
I0501 20:31:10.466418 64986 net.cpp:106] Creating Layer label_data_1_split
I0501 20:31:10.466435 64986 net.cpp:454] label_data_1_split <- label
I0501 20:31:10.466452 64986 net.cpp:411] label_data_1_split -> label_data_1_split_0
I0501 20:31:10.466472 64986 net.cpp:411] label_data_1_split -> label_data_1_split_1
I0501 20:31:10.466492 64986 net.cpp:411] label_data_1_split -> label_data_1_split_2
I0501 20:31:10.466560 64986 net.cpp:150] Setting up label_data_1_split
I0501 20:31:10.466584 64986 net.cpp:157] Top shape: 16 (16)
I0501 20:31:10.466624 64986 net.cpp:157] Top shape: 16 (16)
I0501 20:31:10.466642 64986 net.cpp:157] Top shape: 16 (16)
I0501 20:31:10.466657 64986 net.cpp:165] Memory required for data: 9634048
I0501 20:31:10.466671 64986 layer_factory.hpp:77] Creating layer conv1_1
I0501 20:31:10.466692 64986 net.cpp:106] Creating Layer conv1_1
I0501 20:31:10.466709 64986 net.cpp:454] conv1_1 <- data
I0501 20:31:10.466727 64986 net.cpp:411] conv1_1 -> conv1_1
I0501 20:31:10.468006 64986 net.cpp:150] Setting up conv1_1
I0501 20:31:10.468051 64986 net.cpp:157] Top shape: 16 64 224 224 (51380224)
I0501 20:31:10.468083 64986 net.cpp:165] Memory required for data: 215154944
I0501 20:31:10.468142 64986 layer_factory.hpp:77] Creating layer ReLU1_1
I0501 20:31:10.468165 64986 net.cpp:106] Creating Layer ReLU1_1
I0501 20:31:10.468183 64986 net.cpp:454] ReLU1_1 <- conv1_1
I0501 20:31:10.468201 64986 net.cpp:397] ReLU1_1 -> conv1_1 (in-place)
I0501 20:31:10.468397 64986 net.cpp:150] Setting up ReLU1_1
I0501 20:31:10.468427 64986 net.cpp:157] Top shape: 16 64 224 224 (51380224)
I0501 20:31:10.468443 64986 net.cpp:165] Memory required for data: 420675840
I0501 20:31:10.468458 64986 layer_factory.hpp:77] Creating layer conv1_2
I0501 20:31:10.468478 64986 net.cpp:106] Creating Layer conv1_2
I0501 20:31:10.468495 64986 net.cpp:454] conv1_2 <- conv1_1
I0501 20:31:10.468513 64986 net.cpp:411] conv1_2 -> conv1_2
I0501 20:31:10.469983 64986 net.cpp:150] Setting up conv1_2
I0501 20:31:10.470024 64986 net.cpp:157] Top shape: 16 64 224 224 (51380224)
I0501 20:31:10.470042 64986 net.cpp:165] Memory required for data: 626196736
I0501 20:31:10.470064 64986 layer_factory.hpp:77] Creating layer ReLU1_2
I0501 20:31:10.470085 64986 net.cpp:106] Creating Layer ReLU1_2
I0501 20:31:10.470101 64986 net.cpp:454] ReLU1_2 <- conv1_2
I0501 20:31:10.470118 64986 net.cpp:397] ReLU1_2 -> conv1_2 (in-place)
I0501 20:31:10.470494 64986 net.cpp:150] Setting up ReLU1_2
I0501 20:31:10.470528 64986 net.cpp:157] Top shape: 16 64 224 224 (51380224)
I0501 20:31:10.470546 64986 net.cpp:165] Memory required for data: 831717632
I0501 20:31:10.470561 64986 layer_factory.hpp:77] Creating layer pool1
I0501 20:31:10.470579 64986 net.cpp:106] Creating Layer pool1
I0501 20:31:10.470597 64986 net.cpp:454] pool1 <- conv1_2
I0501 20:31:10.470613 64986 net.cpp:411] pool1 -> pool1
I0501 20:31:10.470670 64986 net.cpp:150] Setting up pool1
I0501 20:31:10.470695 64986 net.cpp:157] Top shape: 16 64 112 112 (12845056)
I0501 20:31:10.470710 64986 net.cpp:165] Memory required for data: 883097856
I0501 20:31:10.470724 64986 layer_factory.hpp:77] Creating layer conv2_1
I0501 20:31:10.470742 64986 net.cpp:106] Creating Layer conv2_1
I0501 20:31:10.470758 64986 net.cpp:454] conv2_1 <- pool1
I0501 20:31:10.470775 64986 net.cpp:411] conv2_1 -> conv2_1
I0501 20:31:10.473755 64986 net.cpp:150] Setting up conv2_1
I0501 20:31:10.473806 64986 net.cpp:157] Top shape: 16 128 112 112 (25690112)
I0501 20:31:10.473837 64986 net.cpp:165] Memory required for data: 985858304
I0501 20:31:10.473877 64986 layer_factory.hpp:77] Creating layer ReLU2_1
I0501 20:31:10.473922 64986 net.cpp:106] Creating Layer ReLU2_1
I0501 20:31:10.473939 64986 net.cpp:454] ReLU2_1 <- conv2_1
I0501 20:31:10.473958 64986 net.cpp:397] ReLU2_1 -> conv2_1 (in-place)
I0501 20:31:10.474123 64986 net.cpp:150] Setting up ReLU2_1
I0501 20:31:10.474153 64986 net.cpp:157] Top shape: 16 128 112 112 (25690112)
I0501 20:31:10.474169 64986 net.cpp:165] Memory required for data: 1088618752
I0501 20:31:10.474184 64986 layer_factory.hpp:77] Creating layer conv2_2
I0501 20:31:10.474205 64986 net.cpp:106] Creating Layer conv2_2
I0501 20:31:10.474221 64986 net.cpp:454] conv2_2 <- conv2_1
I0501 20:31:10.474238 64986 net.cpp:411] conv2_2 -> conv2_2
I0501 20:31:10.475241 64986 net.cpp:150] Setting up conv2_2
I0501 20:31:10.475281 64986 net.cpp:157] Top shape: 16 128 112 112 (25690112)
I0501 20:31:10.475301 64986 net.cpp:165] Memory required for data: 1191379200
I0501 20:31:10.475319 64986 layer_factory.hpp:77] Creating layer ReLU2_2
I0501 20:31:10.475374 64986 net.cpp:106] Creating Layer ReLU2_2
I0501 20:31:10.475430 64986 net.cpp:454] ReLU2_2 <- conv2_2
I0501 20:31:10.475460 64986 net.cpp:397] ReLU2_2 -> conv2_2 (in-place)
I0501 20:31:10.475666 64986 net.cpp:150] Setting up ReLU2_2
I0501 20:31:10.475697 64986 net.cpp:157] Top shape: 16 128 112 112 (25690112)
I0501 20:31:10.475713 64986 net.cpp:165] Memory required for data: 1294139648
I0501 20:31:10.475728 64986 layer_factory.hpp:77] Creating layer pool2
I0501 20:31:10.475744 64986 net.cpp:106] Creating Layer pool2
I0501 20:31:10.475760 64986 net.cpp:454] pool2 <- conv2_2
I0501 20:31:10.475777 64986 net.cpp:411] pool2 -> pool2
I0501 20:31:10.475848 64986 net.cpp:150] Setting up pool2
I0501 20:31:10.475936 64986 net.cpp:157] Top shape: 16 128 56 56 (6422528)
I0501 20:31:10.475958 64986 net.cpp:165] Memory required for data: 1319829760
I0501 20:31:10.475985 64986 layer_factory.hpp:77] Creating layer conv3_1
I0501 20:31:10.476002 64986 net.cpp:106] Creating Layer conv3_1
I0501 20:31:10.476019 64986 net.cpp:454] conv3_1 <- pool2
I0501 20:31:10.476042 64986 net.cpp:411] conv3_1 -> conv3_1
I0501 20:31:10.478127 64986 net.cpp:150] Setting up conv3_1
I0501 20:31:10.478170 64986 net.cpp:157] Top shape: 16 256 56 56 (12845056)
I0501 20:31:10.478189 64986 net.cpp:165] Memory required for data: 1371209984
I0501 20:31:10.478211 64986 layer_factory.hpp:77] Creating layer ReLU3_1
I0501 20:31:10.478232 64986 net.cpp:106] Creating Layer ReLU3_1
I0501 20:31:10.478248 64986 net.cpp:454] ReLU3_1 <- conv3_1
I0501 20:31:10.478268 64986 net.cpp:397] ReLU3_1 -> conv3_1 (in-place)
I0501 20:31:10.478555 64986 net.cpp:150] Setting up ReLU3_1
I0501 20:31:10.478590 64986 net.cpp:157] Top shape: 16 256 56 56 (12845056)
I0501 20:31:10.478608 64986 net.cpp:165] Memory required for data: 1422590208
I0501 20:31:10.478624 64986 layer_factory.hpp:77] Creating layer conv3_2
I0501 20:31:10.478646 64986 net.cpp:106] Creating Layer conv3_2
I0501 20:31:10.478664 64986 net.cpp:454] conv3_2 <- conv3_1
I0501 20:31:10.478682 64986 net.cpp:411] conv3_2 -> conv3_2
I0501 20:31:10.481652 64986 net.cpp:150] Setting up conv3_2
I0501 20:31:10.481704 64986 net.cpp:157] Top shape: 16 256 56 56 (12845056)
I0501 20:31:10.481724 64986 net.cpp:165] Memory required for data: 1473970432
I0501 20:31:10.481745 64986 layer_factory.hpp:77] Creating layer ReLU3_2
I0501 20:31:10.481773 64986 net.cpp:106] Creating Layer ReLU3_2
I0501 20:31:10.481791 64986 net.cpp:454] ReLU3_2 <- conv3_2
I0501 20:31:10.481806 64986 net.cpp:397] ReLU3_2 -> conv3_2 (in-place)
I0501 20:31:10.482045 64986 net.cpp:150] Setting up ReLU3_2
I0501 20:31:10.482076 64986 net.cpp:157] Top shape: 16 256 56 56 (12845056)
I0501 20:31:10.482092 64986 net.cpp:165] Memory required for data: 1525350656
I0501 20:31:10.482107 64986 layer_factory.hpp:77] Creating layer conv3_3
I0501 20:31:10.482131 64986 net.cpp:106] Creating Layer conv3_3
I0501 20:31:10.482148 64986 net.cpp:454] conv3_3 <- conv3_2
I0501 20:31:10.482167 64986 net.cpp:411] conv3_3 -> conv3_3
I0501 20:31:10.484745 64986 net.cpp:150] Setting up conv3_3
I0501 20:31:10.484787 64986 net.cpp:157] Top shape: 16 256 56 56 (12845056)
I0501 20:31:10.484807 64986 net.cpp:165] Memory required for data: 1576730880
I0501 20:31:10.484827 64986 layer_factory.hpp:77] Creating layer ReLU3_3
I0501 20:31:10.484848 64986 net.cpp:106] Creating Layer ReLU3_3
I0501 20:31:10.484864 64986 net.cpp:454] ReLU3_3 <- conv3_3
I0501 20:31:10.484910 64986 net.cpp:397] ReLU3_3 -> conv3_3 (in-place)
I0501 20:31:10.485092 64986 net.cpp:150] Setting up ReLU3_3
I0501 20:31:10.485126 64986 net.cpp:157] Top shape: 16 256 56 56 (12845056)
I0501 20:31:10.485141 64986 net.cpp:165] Memory required for data: 1628111104
I0501 20:31:10.485157 64986 layer_factory.hpp:77] Creating layer conv3_4
I0501 20:31:10.485177 64986 net.cpp:106] Creating Layer conv3_4
I0501 20:31:10.485193 64986 net.cpp:454] conv3_4 <- conv3_3
I0501 20:31:10.485213 64986 net.cpp:411] conv3_4 -> conv3_4
I0501 20:31:10.488188 64986 net.cpp:150] Setting up conv3_4
I0501 20:31:10.488229 64986 net.cpp:157] Top shape: 16 256 56 56 (12845056)
I0501 20:31:10.488258 64986 net.cpp:165] Memory required for data: 1679491328
I0501 20:31:10.488292 64986 layer_factory.hpp:77] Creating layer ReLU3_4
I0501 20:31:10.488315 64986 net.cpp:106] Creating Layer ReLU3_4
I0501 20:31:10.488333 64986 net.cpp:454] ReLU3_4 <- conv3_4
I0501 20:31:10.488350 64986 net.cpp:397] ReLU3_4 -> conv3_4 (in-place)
I0501 20:31:10.488641 64986 net.cpp:150] Setting up ReLU3_4
I0501 20:31:10.488677 64986 net.cpp:157] Top shape: 16 256 56 56 (12845056)
I0501 20:31:10.488693 64986 net.cpp:165] Memory required for data: 1730871552
I0501 20:31:10.488709 64986 layer_factory.hpp:77] Creating layer pool3
I0501 20:31:10.488729 64986 net.cpp:106] Creating Layer pool3
I0501 20:31:10.488747 64986 net.cpp:454] pool3 <- conv3_4
I0501 20:31:10.488765 64986 net.cpp:411] pool3 -> pool3
I0501 20:31:10.488842 64986 net.cpp:150] Setting up pool3
I0501 20:31:10.488884 64986 net.cpp:157] Top shape: 16 256 28 28 (3211264)
I0501 20:31:10.488922 64986 net.cpp:165] Memory required for data: 1743716608
I0501 20:31:10.488937 64986 layer_factory.hpp:77] Creating layer conv4_1
I0501 20:31:10.488958 64986 net.cpp:106] Creating Layer conv4_1
I0501 20:31:10.488976 64986 net.cpp:454] conv4_1 <- pool3
I0501 20:31:10.488993 64986 net.cpp:411] conv4_1 -> conv4_1
I0501 20:31:10.493563 64986 net.cpp:150] Setting up conv4_1
I0501 20:31:10.493604 64986 net.cpp:157] Top shape: 16 512 28 28 (6422528)
I0501 20:31:10.493623 64986 net.cpp:165] Memory required for data: 1769406720
I0501 20:31:10.493648 64986 layer_factory.hpp:77] Creating layer ReLU4_1
I0501 20:31:10.493669 64986 net.cpp:106] Creating Layer ReLU4_1
I0501 20:31:10.493685 64986 net.cpp:454] ReLU4_1 <- conv4_1
I0501 20:31:10.493703 64986 net.cpp:397] ReLU4_1 -> conv4_1 (in-place)
I0501 20:31:10.493921 64986 net.cpp:150] Setting up ReLU4_1
I0501 20:31:10.493975 64986 net.cpp:157] Top shape: 16 512 28 28 (6422528)
I0501 20:31:10.493991 64986 net.cpp:165] Memory required for data: 1795096832
I0501 20:31:10.494006 64986 layer_factory.hpp:77] Creating layer conv4_2
I0501 20:31:10.494040 64986 net.cpp:106] Creating Layer conv4_2
I0501 20:31:10.494069 64986 net.cpp:454] conv4_2 <- conv4_1
I0501 20:31:10.494097 64986 net.cpp:411] conv4_2 -> conv4_2
I0501 20:31:10.501134 64986 net.cpp:150] Setting up conv4_2
I0501 20:31:10.501178 64986 net.cpp:157] Top shape: 16 512 28 28 (6422528)
I0501 20:31:10.501196 64986 net.cpp:165] Memory required for data: 1820786944
I0501 20:31:10.501214 64986 layer_factory.hpp:77] Creating layer ReLU4_2
I0501 20:31:10.501235 64986 net.cpp:106] Creating Layer ReLU4_2
I0501 20:31:10.501251 64986 net.cpp:454] ReLU4_2 <- conv4_2
I0501 20:31:10.501282 64986 net.cpp:397] ReLU4_2 -> conv4_2 (in-place)
I0501 20:31:10.501555 64986 net.cpp:150] Setting up ReLU4_2
I0501 20:31:10.501603 64986 net.cpp:157] Top shape: 16 512 28 28 (6422528)
I0501 20:31:10.501621 64986 net.cpp:165] Memory required for data: 1846477056
I0501 20:31:10.501658 64986 layer_factory.hpp:77] Creating layer conv4_3
I0501 20:31:10.501688 64986 net.cpp:106] Creating Layer conv4_3
I0501 20:31:10.501708 64986 net.cpp:454] conv4_3 <- conv4_2
I0501 20:31:10.501731 64986 net.cpp:411] conv4_3 -> conv4_3
I0501 20:31:10.508554 64986 net.cpp:150] Setting up conv4_3
I0501 20:31:10.508618 64986 net.cpp:157] Top shape: 16 512 28 28 (6422528)
I0501 20:31:10.508672 64986 net.cpp:165] Memory required for data: 1872167168
I0501 20:31:10.508693 64986 layer_factory.hpp:77] Creating layer ReLU4_3
I0501 20:31:10.508735 64986 net.cpp:106] Creating Layer ReLU4_3
I0501 20:31:10.508754 64986 net.cpp:454] ReLU4_3 <- conv4_3
I0501 20:31:10.508774 64986 net.cpp:397] ReLU4_3 -> conv4_3 (in-place)
I0501 20:31:10.509300 64986 net.cpp:150] Setting up ReLU4_3
I0501 20:31:10.509372 64986 net.cpp:157] Top shape: 16 512 28 28 (6422528)
I0501 20:31:10.509392 64986 net.cpp:165] Memory required for data: 1897857280
I0501 20:31:10.509443 64986 layer_factory.hpp:77] Creating layer conv4_4
I0501 20:31:10.509469 64986 net.cpp:106] Creating Layer conv4_4
I0501 20:31:10.509488 64986 net.cpp:454] conv4_4 <- conv4_3
I0501 20:31:10.509524 64986 net.cpp:411] conv4_4 -> conv4_4
I0501 20:31:10.516698 64986 net.cpp:150] Setting up conv4_4
I0501 20:31:10.516768 64986 net.cpp:157] Top shape: 16 512 28 28 (6422528)
I0501 20:31:10.516789 64986 net.cpp:165] Memory required for data: 1923547392
I0501 20:31:10.516819 64986 layer_factory.hpp:77] Creating layer ReLU4_4
I0501 20:31:10.516840 64986 net.cpp:106] Creating Layer ReLU4_4
I0501 20:31:10.516868 64986 net.cpp:454] ReLU4_4 <- conv4_4
I0501 20:31:10.516891 64986 net.cpp:397] ReLU4_4 -> conv4_4 (in-place)
I0501 20:31:10.517076 64986 net.cpp:150] Setting up ReLU4_4
I0501 20:31:10.517107 64986 net.cpp:157] Top shape: 16 512 28 28 (6422528)
I0501 20:31:10.517123 64986 net.cpp:165] Memory required for data: 1949237504
I0501 20:31:10.517139 64986 layer_factory.hpp:77] Creating layer pool4
I0501 20:31:10.517160 64986 net.cpp:106] Creating Layer pool4
I0501 20:31:10.517179 64986 net.cpp:454] pool4 <- conv4_4
I0501 20:31:10.517196 64986 net.cpp:411] pool4 -> pool4
I0501 20:31:10.517266 64986 net.cpp:150] Setting up pool4
I0501 20:31:10.517292 64986 net.cpp:157] Top shape: 16 512 14 14 (1605632)
I0501 20:31:10.517307 64986 net.cpp:165] Memory required for data: 1955660032
I0501 20:31:10.517323 64986 layer_factory.hpp:77] Creating layer conv5_1
I0501 20:31:10.517343 64986 net.cpp:106] Creating Layer conv5_1
I0501 20:31:10.517360 64986 net.cpp:454] conv5_1 <- pool4
I0501 20:31:10.517377 64986 net.cpp:411] conv5_1 -> conv5_1
I0501 20:31:10.524561 64986 net.cpp:150] Setting up conv5_1
I0501 20:31:10.524603 64986 net.cpp:157] Top shape: 16 512 14 14 (1605632)
I0501 20:31:10.524621 64986 net.cpp:165] Memory required for data: 1962082560
I0501 20:31:10.524641 64986 layer_factory.hpp:77] Creating layer ReLU5_1
I0501 20:31:10.524660 64986 net.cpp:106] Creating Layer ReLU5_1
I0501 20:31:10.524677 64986 net.cpp:454] ReLU5_1 <- conv5_1
I0501 20:31:10.524696 64986 net.cpp:397] ReLU5_1 -> conv5_1 (in-place)
I0501 20:31:10.524915 64986 net.cpp:150] Setting up ReLU5_1
I0501 20:31:10.524981 64986 net.cpp:157] Top shape: 16 512 14 14 (1605632)
I0501 20:31:10.525008 64986 net.cpp:165] Memory required for data: 1968505088
I0501 20:31:10.525035 64986 layer_factory.hpp:77] Creating layer conv5_2
I0501 20:31:10.525084 64986 net.cpp:106] Creating Layer conv5_2
I0501 20:31:10.525105 64986 net.cpp:454] conv5_2 <- conv5_1
I0501 20:31:10.525125 64986 net.cpp:411] conv5_2 -> conv5_2
I0501 20:31:10.532058 64986 net.cpp:150] Setting up conv5_2
I0501 20:31:10.532099 64986 net.cpp:157] Top shape: 16 512 14 14 (1605632)
I0501 20:31:10.532117 64986 net.cpp:165] Memory required for data: 1974927616
I0501 20:31:10.532160 64986 layer_factory.hpp:77] Creating layer ReLU5_2
I0501 20:31:10.532193 64986 net.cpp:106] Creating Layer ReLU5_2
I0501 20:31:10.532232 64986 net.cpp:454] ReLU5_2 <- conv5_2
I0501 20:31:10.532248 64986 net.cpp:397] ReLU5_2 -> conv5_2 (in-place)
I0501 20:31:10.532728 64986 net.cpp:150] Setting up ReLU5_2
I0501 20:31:10.532766 64986 net.cpp:157] Top shape: 16 512 14 14 (1605632)
I0501 20:31:10.532807 64986 net.cpp:165] Memory required for data: 1981350144
I0501 20:31:10.532829 64986 layer_factory.hpp:77] Creating layer conv5_3
I0501 20:31:10.532852 64986 net.cpp:106] Creating Layer conv5_3
I0501 20:31:10.532886 64986 net.cpp:454] conv5_3 <- conv5_2
I0501 20:31:10.532922 64986 net.cpp:411] conv5_3 -> conv5_3
I0501 20:31:10.540092 64986 net.cpp:150] Setting up conv5_3
I0501 20:31:10.540159 64986 net.cpp:157] Top shape: 16 512 14 14 (1605632)
I0501 20:31:10.540189 64986 net.cpp:165] Memory required for data: 1987772672
I0501 20:31:10.540220 64986 layer_factory.hpp:77] Creating layer ReLU5_3
I0501 20:31:10.540252 64986 net.cpp:106] Creating Layer ReLU5_3
I0501 20:31:10.540271 64986 net.cpp:454] ReLU5_3 <- conv5_3
I0501 20:31:10.540300 64986 net.cpp:397] ReLU5_3 -> conv5_3 (in-place)
I0501 20:31:10.540547 64986 net.cpp:150] Setting up ReLU5_3
I0501 20:31:10.540591 64986 net.cpp:157] Top shape: 16 512 14 14 (1605632)
I0501 20:31:10.540608 64986 net.cpp:165] Memory required for data: 1994195200
I0501 20:31:10.540624 64986 layer_factory.hpp:77] Creating layer conv5_4
I0501 20:31:10.540668 64986 net.cpp:106] Creating Layer conv5_4
I0501 20:31:10.540707 64986 net.cpp:454] conv5_4 <- conv5_3
I0501 20:31:10.540729 64986 net.cpp:411] conv5_4 -> conv5_4
I0501 20:31:10.548152 64986 net.cpp:150] Setting up conv5_4
I0501 20:31:10.548229 64986 net.cpp:157] Top shape: 16 512 14 14 (1605632)
I0501 20:31:10.548249 64986 net.cpp:165] Memory required for data: 2000617728
I0501 20:31:10.548295 64986 layer_factory.hpp:77] Creating layer ReLU5_4
I0501 20:31:10.548319 64986 net.cpp:106] Creating Layer ReLU5_4
I0501 20:31:10.548337 64986 net.cpp:454] ReLU5_4 <- conv5_4
I0501 20:31:10.548354 64986 net.cpp:397] ReLU5_4 -> conv5_4 (in-place)
I0501 20:31:10.548535 64986 net.cpp:150] Setting up ReLU5_4
I0501 20:31:10.548568 64986 net.cpp:157] Top shape: 16 512 14 14 (1605632)
I0501 20:31:10.548584 64986 net.cpp:165] Memory required for data: 2007040256
I0501 20:31:10.548599 64986 layer_factory.hpp:77] Creating layer pool5
I0501 20:31:10.548619 64986 net.cpp:106] Creating Layer pool5
I0501 20:31:10.548635 64986 net.cpp:454] pool5 <- conv5_4
I0501 20:31:10.548655 64986 net.cpp:411] pool5 -> pool5
I0501 20:31:10.548723 64986 net.cpp:150] Setting up pool5
I0501 20:31:10.548751 64986 net.cpp:157] Top shape: 16 512 7 7 (401408)
I0501 20:31:10.548768 64986 net.cpp:165] Memory required for data: 2008645888
I0501 20:31:10.548782 64986 layer_factory.hpp:77] Creating layer fc6
I0501 20:31:10.548800 64986 net.cpp:106] Creating Layer fc6
I0501 20:31:10.548816 64986 net.cpp:454] fc6 <- pool5
I0501 20:31:10.548845 64986 net.cpp:411] fc6 -> fc6
I0501 20:31:10.782335 64986 net.cpp:150] Setting up fc6
I0501 20:31:10.782407 64986 net.cpp:157] Top shape: 16 4096 (65536)
I0501 20:31:10.782428 64986 net.cpp:165] Memory required for data: 2008908032
I0501 20:31:10.782461 64986 layer_factory.hpp:77] Creating layer ReLU6
I0501 20:31:10.782487 64986 net.cpp:106] Creating Layer ReLU6
I0501 20:31:10.782506 64986 net.cpp:454] ReLU6 <- fc6
I0501 20:31:10.782524 64986 net.cpp:397] ReLU6 -> fc6 (in-place)
I0501 20:31:10.783071 64986 net.cpp:150] Setting up ReLU6
I0501 20:31:10.783108 64986 net.cpp:157] Top shape: 16 4096 (65536)
I0501 20:31:10.783126 64986 net.cpp:165] Memory required for data: 2009170176
I0501 20:31:10.783143 64986 layer_factory.hpp:77] Creating layer drop6
I0501 20:31:10.783162 64986 net.cpp:106] Creating Layer drop6
I0501 20:31:10.783179 64986 net.cpp:454] drop6 <- fc6
I0501 20:31:10.783195 64986 net.cpp:397] drop6 -> fc6 (in-place)
I0501 20:31:10.783248 64986 net.cpp:150] Setting up drop6
I0501 20:31:10.783273 64986 net.cpp:157] Top shape: 16 4096 (65536)
I0501 20:31:10.783288 64986 net.cpp:165] Memory required for data: 2009432320
I0501 20:31:10.783303 64986 layer_factory.hpp:77] Creating layer fc7
I0501 20:31:10.783324 64986 net.cpp:106] Creating Layer fc7
I0501 20:31:10.783352 64986 net.cpp:454] fc7 <- fc6
I0501 20:31:10.783381 64986 net.cpp:411] fc7 -> fc7
I0501 20:31:10.826061 64986 net.cpp:150] Setting up fc7
I0501 20:31:10.826130 64986 net.cpp:157] Top shape: 16 4096 (65536)
I0501 20:31:10.826148 64986 net.cpp:165] Memory required for data: 2009694464
I0501 20:31:10.826170 64986 layer_factory.hpp:77] Creating layer ReLU7
I0501 20:31:10.826194 64986 net.cpp:106] Creating Layer ReLU7
I0501 20:31:10.826212 64986 net.cpp:454] ReLU7 <- fc7
I0501 20:31:10.826233 64986 net.cpp:397] ReLU7 -> fc7 (in-place)
I0501 20:31:10.826669 64986 net.cpp:150] Setting up ReLU7
I0501 20:31:10.826705 64986 net.cpp:157] Top shape: 16 4096 (65536)
I0501 20:31:10.826724 64986 net.cpp:165] Memory required for data: 2009956608
I0501 20:31:10.826740 64986 layer_factory.hpp:77] Creating layer drop7
I0501 20:31:10.826759 64986 net.cpp:106] Creating Layer drop7
I0501 20:31:10.826776 64986 net.cpp:454] drop7 <- fc7
I0501 20:31:10.826795 64986 net.cpp:397] drop7 -> fc7 (in-place)
I0501 20:31:10.826869 64986 net.cpp:150] Setting up drop7
I0501 20:31:10.826900 64986 net.cpp:157] Top shape: 16 4096 (65536)
I0501 20:31:10.826931 64986 net.cpp:165] Memory required for data: 2010218752
I0501 20:31:10.826947 64986 layer_factory.hpp:77] Creating layer fc8_foodCAT
I0501 20:31:10.827010 64986 net.cpp:106] Creating Layer fc8_foodCAT
I0501 20:31:10.827030 64986 net.cpp:454] fc8_foodCAT <- fc7
I0501 20:31:10.827047 64986 net.cpp:411] fc8_foodCAT -> fc8_foodCAT
I0501 20:31:10.829731 64986 net.cpp:150] Setting up fc8_foodCAT
I0501 20:31:10.829771 64986 net.cpp:157] Top shape: 16 218 (3488)
I0501 20:31:10.829789 64986 net.cpp:165] Memory required for data: 2010232704
I0501 20:31:10.829808 64986 layer_factory.hpp:77] Creating layer fc8_foodCAT_fc8_foodCAT_0_split
I0501 20:31:10.829830 64986 net.cpp:106] Creating Layer fc8_foodCAT_fc8_foodCAT_0_split
I0501 20:31:10.829848 64986 net.cpp:454] fc8_foodCAT_fc8_foodCAT_0_split <- fc8_foodCAT
I0501 20:31:10.829875 64986 net.cpp:411] fc8_foodCAT_fc8_foodCAT_0_split -> fc8_foodCAT_fc8_foodCAT_0_split_0
I0501 20:31:10.829905 64986 net.cpp:411] fc8_foodCAT_fc8_foodCAT_0_split -> fc8_foodCAT_fc8_foodCAT_0_split_1
I0501 20:31:10.829927 64986 net.cpp:411] fc8_foodCAT_fc8_foodCAT_0_split -> fc8_foodCAT_fc8_foodCAT_0_split_2
I0501 20:31:10.830006 64986 net.cpp:150] Setting up fc8_foodCAT_fc8_foodCAT_0_split
I0501 20:31:10.830035 64986 net.cpp:157] Top shape: 16 218 (3488)
I0501 20:31:10.830066 64986 net.cpp:157] Top shape: 16 218 (3488)
I0501 20:31:10.830096 64986 net.cpp:157] Top shape: 16 218 (3488)
I0501 20:31:10.830111 64986 net.cpp:165] Memory required for data: 2010274560
I0501 20:31:10.830127 64986 layer_factory.hpp:77] Creating layer loss
I0501 20:31:10.830147 64986 net.cpp:106] Creating Layer loss
I0501 20:31:10.830174 64986 net.cpp:454] loss <- fc8_foodCAT_fc8_foodCAT_0_split_0
I0501 20:31:10.830190 64986 net.cpp:454] loss <- label_data_1_split_0
I0501 20:31:10.830209 64986 net.cpp:411] loss -> loss/loss
…
