…
I0506 16:22:11.183121  2784 caffe.cpp:241] GPU device name: GeForce GTX 980
I0506 16:22:11.330716  2784 net.cpp:49] Initializing net from parameters: 
name: "foodCAT_googlenet_food101"
state {
  phase: TEST
}
layer {
  name: "data"
  type: "ImageData"
  top: "data"
  top: "label"
  include {
    phase: TEST
  }
  transform_param {
    mirror: false
    crop_size: 224
    mean_value: 104
    mean_value: 117
    mean_value: 123
  }
  image_data_param {
    source: "foodCAT/test.txt"
    batch_size: 16
    shuffle: true
    new_height: 256
    new_width: 256
  }
}
layer {
  name: "conv1/7x7_s2"
  type: "Convolution"
  bottom: "data"
  top: "conv1/7x7_s2"
  param {
    lr_mult: 1
    decay_mult: 1
  }
  param {
    lr_mult: 2
    decay_mult: 0
  }
  convolution_param {
    num_output: 64
    pad: 3
    kernel_size: 7
    stride: 2
    weight_filler {
      type: "xavier"
      std: 0.1
    }
    bias_filler {
      type: "constant"
      value: 0.2
    }
  }
}
layer {
  name: "conv1/relu_7x7"
  type: "ReLU"
  bottom: "conv1/7x7_s2"
  top: "conv1/7x7_s2"
}
layer {
  name: "pool1/3x3_s2"
  type: "Pooling"
  bottom: "conv1/7x7_s2"
  top: "pool1/3x3_s2"
  pooling_param {
    pool: MAX
    kernel_size: 3
    stride: 2
  }
}
layer {
  name: "pool1/norm1"
  type: "LRN"
  bottom: "pool1/3x3_s2"
  top: "pool1/norm1"
  lrn_param {
    local_size: 5
    alpha: 0.0001
    beta: 0.75
  }
}
layer {
  name: "conv2/3x3_reduce"
  type: "Convolution"
  bottom: "pool1/norm1"
  top: "conv2/3x3_reduce"
  param {
    lr_mult: 1
    decay_mult: 1
  }
  param {
    lr_mult: 2
    decay_mult: 0
  }
  convolution_param {
    num_output: 64
    kernel_size: 1
    weight_filler {
      type: "xavier"
      std: 0.1
    }
    bias_filler {
      type: "constant"
      value: 0.2
    }
  }
}
layer {
  name: "conv2/relu_3x3_reduce"
  type: "ReLU"
  bottom: "conv2/3x3_reduce"
  top: "conv2/3x3_reduce"
}
layer {
  name: "conv2/3x3"
  type: "Convolution"
  bottom: "conv2/3x3_reduce"
  top: "conv2/3x3"
  param {
    lr_mult: 1
    decay_mult: 1
  }
  param {
    lr_mult: 2
    decay_mult: 0
  }
  convolution_param {
    num_output: 192
    pad: 1
    kernel_size: 3
    weight_filler {
      type: "xavier"
      std: 0.03
    }
    bias_filler {
      type: "constant"
      value: 0.2
    }
  }
}
layer {
  name: "conv2/relu_3x3"
  type: "ReLU"
  bottom: "conv2/3x3"
  top: "conv2/3x3"
}
layer {
  name: "conv2/norm2"
  type: "LRN"
  bottom: "conv2/3x3"
  top: "conv2/norm2"
  lrn_param {
    local_size: 5
    alpha: 0.0001
    beta: 0.75
  }
}
layer {
  name: "pool2/3x3_s2"
  type: "Pooling"
  bottom: "conv2/norm2"
  top: "pool2/3x3_s2"
  pooling_param {
    pool: MAX
    kernel_size: 3
    stride: 2
  }
}
layer {
  name: "inception_3a/1x1"
  type: "Convolution"
  bottom: "pool2/3x3_s2"
  top: "inception_3a/1x1"
  param {
    lr_mult: 1
    decay_mult: 1
  }
  param {
    lr_mult: 2
    decay_mult: 0
  }
  convolution_param {
    num_output: 64
    kernel_size: 1
    weight_filler {
      type: "xavier"
      std: 0.03
    }
    bias_filler {
      type: "constant"
      value: 0.2
    }
  }
}
layer {
  name: "inception_3a/relu_1x1"
  type: "ReLU"
  bottom: "inception_3a/1x1"
  top: "inception_3a/1x1"
}
layer {
  name: "inception_3a/3x3_reduce"
  type: "Convolution"
  bottom: "pool2/3x3_s2"
  top: "inception_3a/3x3_reduce"
  param {
    lr_mult: 1
    decay_mult: 1
  }
  param {
    lr_mult: 2
    decay_mult: 0
  }
  convolution_param {
    num_output: 96
    kernel_size: 1
    weight_filler {
      type: "xavier"
      std: 0.09
    }
    bias_filler {
      type: "constant"
      value: 0.2
    }
  }
}
layer {
  name: "inception_3a/relu_3x3_reduce"
  type: "ReLU"
  bottom: "inception_3a/3x3_reduce"
  top: "inception_3a/3x3_reduce"
}
layer {
  name: "inception_3a/3x3"
  type: "Convolution"
  bottom: "inception_3a/3x3_reduce"
  top: "inception_3a/3x3"
  param {
    lr_mult: 1
    decay_mult: 1
  }
  param {
    lr_mult: 2
    decay_mult: 0
  }
  convolution_param {
    num_output: 128
    pad: 1
    kernel_size: 3
    weight_filler {
      type: "xavier"
      std: 0.03
    }
    bias_filler {
      type: "constant"
      value: 0.2
    }
  }
}
layer {
  name: "inception_3a/relu_3x3"
  type: "ReLU"
  bottom: "inception_3a/3x3"
  top: "inception_3a/3x3"
}
layer {
  name: "inception_3a/5x5_reduce"
  type: "Convolution"
  bottom: "pool2/3x3_s2"
  top: "inception_3a/5x5_reduce"
  param {
    lr_mult: 1
    decay_mult: 1
  }
  param {
    lr_mult: 2
    decay_mult: 0
  }
  convolution_param {
    num_output: 16
    kernel_size: 1
    weight_filler {
      type: "xavier"
      std: 0.2
    }
    bias_filler {
      type: "constant"
      value: 0.2
    }
  }
}
layer {
  name: "inception_3a/relu_5x5_reduce"
  type: "ReLU"
  bottom: "inception_3a/5x5_reduce"
  top: "inception_3a/5x5_reduce"
}
layer {
  name: "inception_3a/5x5"
  type: "Convolution"
  bottom: "inception_3a/5x5_reduce"
  top: "inception_3a/5x5"
  param {
    lr_mult: 1
    decay_mult: 1
  }
  param {
    lr_mult: 2
    decay_mult: 0
  }
  convolution_param {
    num_output: 32
    pad: 2
    kernel_size: 5
    weight_filler {
      type: "xavier"
      std: 0.03
    }
    bias_filler {
      type: "constant"
      value: 0.2
    }
  }
}
layer {
  name: "inception_3a/relu_5x5"
  type: "ReLU"
  bottom: "inception_3a/5x5"
  top: "inception_3a/5x5"
}
layer {
  name: "inception_3a/pool"
  type: "Pooling"
  bottom: "pool2/3x3_s2"
  top: "inception_3a/pool"
  pooling_param {
    pool: MAX
    kernel_size: 3
    stride: 1
    pad: 1
  }
}
layer {
  name: "inception_3a/pool_proj"
  type: "Convolution"
  bottom: "inception_3a/pool"
  top: "inception_3a/pool_proj"
  param {
    lr_mult: 1
    decay_mult: 1
  }
  param {
    lr_mult: 2
    decay_mult: 0
  }
  convolution_param {
    num_output: 32
    kernel_size: 1
    weight_filler {
      type: "xavier"
      std: 0.1
    }
    bias_filler {
      type: "constant"
      value: 0.2
    }
  }
}
layer {
  name: "inception_3a/relu_pool_proj"
  type: "ReLU"
  bottom: "inception_3a/pool_proj"
  top: "inception_3a/pool_proj"
}
layer {
  name: "inception_3a/output"
  type: "Concat"
  bottom: "inception_3a/1x1"
  bottom: "inception_3a/3x3"
  bottom: "inception_3a/5x5"
  bottom: "inception_3a/pool_proj"
  top: "inception_3a/output"
}
layer {
  name: "inception_3b/1x1"
  type: "Convolution"
  bottom: "inception_3a/output"
  top: "inception_3b/1x1"
  param {
    lr_mult: 1
    decay_mult: 1
  }
  param {
    lr_mult: 2
    decay_mult: 0
  }
  convolution_param {
    num_output: 128
    kernel_size: 1
    weight_filler {
      type: "xavier"
      std: 0.03
    }
    bias_filler {
      type: "constant"
      value: 0.2
    }
  }
}
layer {
  name: "inception_3b/relu_1x1"
  type: "ReLU"
  bottom: "inception_3b/1x1"
  top: "inception_3b/1x1"
}
layer {
  name: "inception_3b/3x3_reduce"
  type: "Convolution"
  bottom: "inception_3a/output"
  top: "inception_3b/3x3_reduce"
  param {
    lr_mult: 1
    decay_mult: 1
  }
  param {
    lr_mult: 2
    decay_mult: 0
  }
  convolution_param {
    num_output: 128
    kernel_size: 1
    weight_filler {
      type: "xavier"
      std: 0.09
    }
    bias_filler {
      type: "constant"
      value: 0.2
    }
  }
}
layer {
  name: "inception_3b/relu_3x3_reduce"
  type: "ReLU"
  bottom: "inception_3b/3x3_reduce"
  top: "inception_3b/3x3_reduce"
}
layer {
  name: "inception_3b/3x3"
  type: "Convolution"
  bottom: "inception_3b/3x3_reduce"
  top: "inception_3b/3x3"
  param {
    lr_mult: 1
    decay_mult: 1
  }
  param {
    lr_mult: 2
    decay_mult: 0
  }
  convolution_param {
    num_output: 192
    pad: 1
    kernel_size: 3
    weight_filler {
      type: "xavier"
      std: 0.03
    }
    bias_filler {
      type: "constant"
      value: 0.2
    }
  }
}
layer {
  name: "inception_3b/relu_3x3"
  type: "ReLU"
  bottom: "inception_3b/3x3"
  top: "inception_3b/3x3"
}
layer {
  name: "inception_3b/5x5_reduce"
  type: "Convolution"
  bottom: "inception_3a/output"
  top: "inception_3b/5x5_reduce"
  param {
    lr_mult: 1
    decay_mult: 1
  }
  param {
    lr_mult: 2
    decay_mult: 0
  }
  convolution_param {
    num_output: 32
    kernel_size: 1
    weight_filler {
      type: "xavier"
      std: 0.2
    }
    bias_filler {
      type: "constant"
      value: 0.2
    }
  }
}
layer {
  name: "inception_3b/relu_5x5_reduce"
  type: "ReLU"
  bottom: "inception_3b/5x5_reduce"
  top: "inception_3b/5x5_reduce"
}
layer {
  name: "inception_3b/5x5"
  type: "Convolution"
  bottom: "inception_3b/5x5_reduce"
  top: "inception_3b/5x5"
  param {
    lr_mult: 1
    decay_mult: 1
  }
  param {
    lr_mult: 2
    decay_mult: 0
  }
  convolution_param {
    num_output: 96
    pad: 2
    kernel_size: 5
    weight_filler {
      type: "xavier"
      std: 0.03
    }
    bias_filler {
      type: "constant"
      value: 0.2
    }
  }
}
layer {
  name: "inception_3b/relu_5x5"
  type: "ReLU"
  bottom: "inception_3b/5x5"
  top: "inception_3b/5x5"
}
layer {
  name: "inception_3b/pool"
  type: "Pooling"
  bottom: "inception_3a/output"
  top: "inception_3b/pool"
  pooling_param {
    pool: MAX
    kernel_size: 3
    stride: 1
    pad: 1
  }
}
layer {
  name: "inception_3b/pool_proj"
  type: "Convolution"
  bottom: "inception_3b/pool"
  top: "inception_3b/pool_proj"
  param {
    lr_mult: 1
    decay_mult: 1
  }
  param {
    lr_mult: 2
    decay_mult: 0
  }
  convolution_param {
    num_output: 64
    kernel_size: 1
    weight_filler {
      type: "xavier"
      std: 0.1
    }
    bias_filler {
      type: "constant"
      value: 0.2
    }
  }
}
layer {
  name: "inception_3b/relu_pool_proj"
  type: "ReLU"
  bottom: "inception_3b/pool_proj"
  top: "inception_3b/pool_proj"
}
layer {
  name: "inception_3b/output"
  type: "Concat"
  bottom: "inception_3b/1x1"
  bottom: "inception_3b/3x3"
  bottom: "inception_3b/5x5"
  bottom: "inception_3b/pool_proj"
  top: "inception_3b/output"
}
layer {
  name: "pool3/3x3_s2"
  type: "Pooling"
  bottom: "inception_3b/output"
  top: "pool3/3x3_s2"
  pooling_param {
    pool: MAX
    kernel_size: 3
    stride: 2
  }
}
layer {
  name: "inception_4a/1x1"
  type: "Convolution"
  bottom: "pool3/3x3_s2"
  top: "inception_4a/1x1"
  param {
    lr_mult: 1
    decay_mult: 1
  }
  param {
    lr_mult: 2
    decay_mult: 0
  }
  convolution_param {
    num_output: 192
    kernel_size: 1
    weight_filler {
      type: "xavier"
      std: 0.03
    }
    bias_filler {
      type: "constant"
      value: 0.2
    }
  }
}
layer {
  name: "inception_4a/relu_1x1"
  type: "ReLU"
  bottom: "inception_4a/1x1"
  top: "inception_4a/1x1"
}
layer {
  name: "inception_4a/3x3_reduce"
  type: "Convolution"
  bottom: "pool3/3x3_s2"
  top: "inception_4a/3x3_reduce"
  param {
    lr_mult: 1
    decay_mult: 1
  }
  param {
    lr_mult: 2
    decay_mult: 0
  }
  convolution_param {
    num_output: 96
    kernel_size: 1
    weight_filler {
      type: "xavier"
      std: 0.09
    }
    bias_filler {
      type: "constant"
      value: 0.2
    }
  }
}
layer {
  name: "inception_4a/relu_3x3_reduce"
  type: "ReLU"
  bottom: "inception_4a/3x3_reduce"
  top: "inception_4a/3x3_reduce"
}
layer {
  name: "inception_4a/3x3"
  type: "Convolution"
  bottom: "inception_4a/3x3_reduce"
  top: "inception_4a/3x3"
  param {
    lr_mult: 1
    decay_mult: 1
  }
  param {
    lr_mult: 2
    decay_mult: 0
  }
  convolution_param {
    num_output: 208
    pad: 1
    kernel_size: 3
    weight_filler {
      type: "xavier"
      std: 0.03
    }
    bias_filler {
      type: "constant"
      value: 0.2
    }
  }
}
layer {
  name: "inception_4a/relu_3x3"
  type: "ReLU"
  bottom: "inception_4a/3x3"
  top: "inception_4a/3x3"
}
layer {
  name: "inception_4a/5x5_reduce"
  type: "Convolution"
  bottom: "pool3/3x3_s2"
  top: "inception_4a/5x5_reduce"
  param {
    lr_mult: 1
    decay_mult: 1
  }
  param {
    lr_mult: 2
    decay_mult: 0
  }
  convolution_param {
    num_output: 16
    kernel_size: 1
    weight_filler {
      type: "xavier"
      std: 0.2
    }
    bias_filler {
      type: "constant"
      value: 0.2
    }
  }
}
layer {
  name: "inception_4a/relu_5x5_reduce"
  type: "ReLU"
  bottom: "inception_4a/5x5_reduce"
  top: "inception_4a/5x5_reduce"
}
layer {
  name: "inception_4a/5x5"
  type: "Convolution"
  bottom: "inception_4a/5x5_reduce"
  top: "inception_4a/5x5"
  param {
    lr_mult: 1
    decay_mult: 1
  }
  param {
    lr_mult: 2
    decay_mult: 0
  }
  convolution_param {
    num_output: 48
    pad: 2
    kernel_size: 5
    weight_filler {
      type: "xavier"
      std: 0.03
    }
    bias_filler {
      type: "constant"
      value: 0.2
    }
  }
}
layer {
  name: "inception_4a/relu_5x5"
  type: "ReLU"
  bottom: "inception_4a/5x5"
  top: "inception_4a/5x5"
}
layer {
  name: "inception_4a/pool"
  type: "Pooling"
  bottom: "pool3/3x3_s2"
  top: "inception_4a/pool"
  pooling_param {
    pool: MAX
    kernel_size: 3
    stride: 1
    pad: 1
  }
}
layer {
  name: "inception_4a/pool_proj"
  type: "Convolution"
  bottom: "inception_4a/pool"
  top: "inception_4a/pool_proj"
  param {
    lr_mult: 1
    decay_mult: 1
  }
  param {
    lr_mult: 2
    decay_mult: 0
  }
  convolution_param {
    num_output: 64
    kernel_size: 1
    weight_filler {
      type: "xavier"
      std: 0.1
    }
    bias_filler {
      type: "constant"
      value: 0.2
    }
  }
}
layer {
  name: "inception_4a/relu_pool_proj"
  type: "ReLU"
  bottom: "inception_4a/pool_proj"
  top: "inception_4a/pool_proj"
}
layer {
  name: "inception_4a/output"
  type: "Concat"
  bottom: "inception_4a/1x1"
  bottom: "inception_4a/3x3"
  bottom: "inception_4a/5x5"
  bottom: "inception_4a/pool_proj"
  top: "inception_4a/output"
}
layer {
  name: "loss1/ave_pool"
  type: "Pooling"
  bottom: "inception_4a/output"
  top: "loss1/ave_pool"
  pooling_param {
    pool: AVE
    kernel_size: 5
    stride: 3
  }
}
layer {
  name: "loss1/conv"
  type: "Convolution"
  bottom: "loss1/ave_pool"
  top: "loss1/conv"
  param {
    lr_mult: 1
    decay_mult: 1
  }
  param {
    lr_mult: 2
    decay_mult: 0
  }
  convolution_param {
    num_output: 128
    kernel_size: 1
    weight_filler {
      type: "xavier"
      std: 0.08
    }
    bias_filler {
      type: "constant"
      value: 0.2
    }
  }
}
layer {
  name: "loss1/relu_conv"
  type: "ReLU"
  bottom: "loss1/conv"
  top: "loss1/conv"
}
layer {
  name: "loss1/fc"
  type: "InnerProduct"
  bottom: "loss1/conv"
  top: "loss1/fc"
  param {
    lr_mult: 1
    decay_mult: 1
  }
  param {
    lr_mult: 2
    decay_mult: 0
  }
  inner_product_param {
    num_output: 1024
    weight_filler {
      type: "xavier"
      std: 0.02
    }
    bias_filler {
      type: "constant"
      value: 0.2
    }
  }
}
layer {
  name: "loss1/relu_fc"
  type: "ReLU"
  bottom: "loss1/fc"
  top: "loss1/fc"
}
layer {
  name: "loss1/drop_fc"
  type: "Dropout"
  bottom: "loss1/fc"
  top: "loss1/fc"
  dropout_param {
    dropout_ratio: 0.7
  }
}
layer {
  name: "loss1/classifier"
  type: "InnerProduct"
  bottom: "loss1/fc"
  top: "loss1/classifier"
  param {
    lr_mult: 1
    decay_mult: 1
  }
  param {
    lr_mult: 2
    decay_mult: 0
  }
  inner_product_param {
    num_output: 1000
    weight_filler {
      type: "xavier"
      std: 0.0009765625
    }
    bias_filler {
      type: "constant"
      value: 0
    }
  }
}
layer {
  name: "loss1/loss"
  type: "SoftmaxWithLoss"
  bottom: "loss1/classifier"
  bottom: "label"
  top: "loss1/loss1"
  loss_weight: 0.3
}
layer {
  name: "loss1/top-1"
  type: "Accuracy"
  bottom: "loss1/classifier"
  bottom: "label"
  top: "loss1/top-1"
  include {
    phase: TEST
  }
}
layer {
  name: "loss1/top-5"
  type: "Accuracy"
  bottom: "loss1/classifier"
  bottom: "label"
  top: "loss1/top-5"
  include {
    phase: TEST
  }
  accuracy_param {
    top_k: 5
  }
}
layer {
  name: "inception_4b/1x1"
  type: "Convolution"
  bottom: "inception_4a/output"
  top: "inception_4b/1x1"
  param {
    lr_mult: 1
    decay_mult: 1
  }
  param {
    lr_mult: 2
    decay_mult: 0
  }
  convolution_param {
    num_output: 160
    kernel_size: 1
    weight_filler {
      type: "xavier"
      std: 0.03
    }
    bias_filler {
      type: "constant"
      value: 0.2
    }
  }
}
layer {
  name: "inception_4b/relu_1x1"
  type: "ReLU"
  bottom: "inception_4b/1x1"
  top: "inception_4b/1x1"
}
layer {
  name: "inception_4b/3x3_reduce"
  type: "Convolution"
  bottom: "inception_4a/output"
  top: "inception_4b/3x3_reduce"
  param {
    lr_mult: 1
    decay_mult: 1
  }
  param {
    lr_mult: 2
    decay_mult: 0
  }
  convolution_param {
    num_output: 112
    kernel_size: 1
    weight_filler {
      type: "xavier"
      std: 0.09
    }
    bias_filler {
      type: "constant"
      value: 0.2
    }
  }
}
layer {
  name: "inception_4b/relu_3x3_reduce"
  type: "ReLU"
  bottom: "inception_4b/3x3_reduce"
  top: "inception_4b/3x3_reduce"
}
layer {
  name: "inception_4b/3x3"
  type: "Convolution"
  bottom: "inception_4b/3x3_reduce"
  top: "inception_4b/3x3"
  param {
    lr_mult: 1
    decay_mult: 1
  }
  param {
    lr_mult: 2
    decay_mult: 0
  }
  convolution_param {
    num_output: 224
    pad: 1
    kernel_size: 3
    weight_filler {
      type: "xavier"
      std: 0.03
    }
    bias_filler {
      type: "constant"
      value: 0.2
    }
  }
}
layer {
  name: "inception_4b/relu_3x3"
  type: "ReLU"
  bottom: "inception_4b/3x3"
  top: "inception_4b/3x3"
}
layer {
  name: "inception_4b/5x5_reduce"
  type: "Convolution"
  bottom: "inception_4a/output"
  top: "inception_4b/5x5_reduce"
  param {
    lr_mult: 1
    decay_mult: 1
  }
  param {
    lr_mult: 2
    decay_mult: 0
  }
  convolution_param {
    num_output: 24
    kernel_size: 1
    weight_filler {
      type: "xavier"
      std: 0.2
    }
    bias_filler {
      type: "constant"
      value: 0.2
    }
  }
}
layer {
  name: "inception_4b/relu_5x5_reduce"
  type: "ReLU"
  bottom: "inception_4b/5x5_reduce"
  top: "inception_4b/5x5_reduce"
}
layer {
  name: "inception_4b/5x5"
  type: "Convolution"
  bottom: "inception_4b/5x5_reduce"
  top: "inception_4b/5x5"
  param {
    lr_mult: 1
    decay_mult: 1
  }
  param {
    lr_mult: 2
    decay_mult: 0
  }
  convolution_param {
    num_output: 64
    pad: 2
    kernel_size: 5
    weight_filler {
      type: "xavier"
      std: 0.03
    }
    bias_filler {
      type: "constant"
      value: 0.2
    }
  }
}
layer {
  name: "inception_4b/relu_5x5"
  type: "ReLU"
  bottom: "inception_4b/5x5"
  top: "inception_4b/5x5"
}
layer {
  name: "inception_4b/pool"
  type: "Pooling"
  bottom: "inception_4a/output"
  top: "inception_4b/pool"
  pooling_param {
    pool: MAX
    kernel_size: 3
    stride: 1
    pad: 1
  }
}
layer {
  name: "inception_4b/pool_proj"
  type: "Convolution"
  bottom: "inception_4b/pool"
  top: "inception_4b/pool_proj"
  param {
    lr_mult: 1
    decay_mult: 1
  }
  param {
    lr_mult: 2
    decay_mult: 0
  }
  convolution_param {
    num_output: 64
    kernel_size: 1
    weight_filler {
      type: "xavier"
      std: 0.1
    }
    bias_filler {
      type: "constant"
      value: 0.2
    }
  }
}
layer {
  name: "inception_4b/relu_pool_proj"
  type: "ReLU"
  bottom: "inception_4b/pool_proj"
  top: "inception_4b/pool_proj"
}
layer {
  name: "inception_4b/output"
  type: "Concat"
  bottom: "inception_4b/1x1"
  bottom: "inception_4b/3x3"
  bottom: "inception_4b/5x5"
  bottom: "inception_4b/pool_proj"
  top: "inception_4b/output"
}
layer {
  name: "inception_4c/1x1"
  type: "Convolution"
  bottom: "inception_4b/output"
  top: "inception_4c/1x1"
  param {
    lr_mult: 1
    decay_mult: 1
  }
  param {
    lr_mult: 2
    decay_mult: 0
  }
  convolution_param {
    num_output: 128
    kernel_size: 1
    weight_filler {
      type: "xavier"
      std: 0.03
    }
    bias_filler {
      type: "constant"
      value: 0.2
    }
  }
}
layer {
  name: "inception_4c/relu_1x1"
  type: "ReLU"
  bottom: "inception_4c/1x1"
  top: "inception_4c/1x1"
}
layer {
  name: "inception_4c/3x3_reduce"
  type: "Convolution"
  bottom: "inception_4b/output"
  top: "inception_4c/3x3_reduce"
  param {
    lr_mult: 1
    decay_mult: 1
  }
  param {
    lr_mult: 2
    decay_mult: 0
  }
  convolution_param {
    num_output: 128
    kernel_size: 1
    weight_filler {
      type: "xavier"
      std: 0.09
    }
    bias_filler {
      type: "constant"
      value: 0.2
    }
  }
}
layer {
  name: "inception_4c/relu_3x3_reduce"
  type: "ReLU"
  bottom: "inception_4c/3x3_reduce"
  top: "inception_4c/3x3_reduce"
}
layer {
  name: "inception_4c/3x3"
  type: "Convolution"
  bottom: "inception_4c/3x3_reduce"
  top: "inception_4c/3x3"
  param {
    lr_mult: 1
    decay_mult: 1
  }
  param {
    lr_mult: 2
    decay_mult: 0
  }
  convolution_param {
    num_output: 256
    pad: 1
    kernel_size: 3
    weight_filler {
      type: "xavier"
      std: 0.03
    }
    bias_filler {
      type: "constant"
      value: 0.2
    }
  }
}
layer {
  name: "inception_4c/relu_3x3"
  type: "ReLU"
  bottom: "inception_4c/3x3"
  top: "inception_4c/3x3"
}
layer {
  name: "inception_4c/5x5_reduce"
  type: "Convolution"
  bottom: "inception_4b/output"
  top: "inception_4c/5x5_reduce"
  param {
    lr_mult: 1
    decay_mult: 1
  }
  param {
    lr_mult: 2
    decay_mult: 0
  }
  convolution_param {
    num_output: 24
    kernel_size: 1
    weight_filler {
      type: "xavier"
      std: 0.2
    }
    bias_filler {
      type: "constant"
      value: 0.2
    }
  }
}
layer {
  name: "inception_4c/relu_5x5_reduce"
  type: "ReLU"
  bottom: "inception_4c/5x5_reduce"
  top: "inception_4c/5x5_reduce"
}
layer {
  name: "inception_4c/5x5"
  type: "Convolution"
  bottom: "inception_4c/5x5_reduce"
  top: "inception_4c/5x5"
  param {
    lr_mult: 1
    decay_mult: 1
  }
  param {
    lr_mult: 2
    decay_mult: 0
  }
  convolution_param {
    num_output: 64
    pad: 2
    kernel_size: 5
    weight_filler {
      type: "xavier"
      std: 0.03
    }
    bias_filler {
      type: "constant"
      value: 0.2
    }
  }
}
layer {
  name: "inception_4c/relu_5x5"
  type: "ReLU"
  bottom: "inception_4c/5x5"
  top: "inception_4c/5x5"
}
layer {
  name: "inception_4c/pool"
  type: "Pooling"
  bottom: "inception_4b/output"
  top: "inception_4c/pool"
  pooling_param {
    pool: MAX
    kernel_size: 3
    stride: 1
    pad: 1
  }
}
layer {
  name: "inception_4c/pool_proj"
  type: "Convolution"
  bottom: "inception_4c/pool"
  top: "inception_4c/pool_proj"
  param {
    lr_mult: 1
    decay_mult: 1
  }
  param {
    lr_mult: 2
    decay_mult: 0
  }
  convolution_param {
    num_output: 64
    kernel_size: 1
    weight_filler {
      type: "xavier"
      std: 0.1
    }
    bias_filler {
      type: "constant"
      value: 0.2
    }
  }
}
layer {
  name: "inception_4c/relu_pool_proj"
  type: "ReLU"
  bottom: "inception_4c/pool_proj"
  top: "inception_4c/pool_proj"
}
layer {
  name: "inception_4c/output"
  type: "Concat"
  bottom: "inception_4c/1x1"
  bottom: "inception_4c/3x3"
  bottom: "inception_4c/5x5"
  bottom: "inception_4c/pool_proj"
  top: "inception_4c/output"
}
layer {
  name: "inception_4d/1x1"
  type: "Convolution"
  bottom: "inception_4c/output"
  top: "inception_4d/1x1"
  param {
    lr_mult: 1
    decay_mult: 1
  }
  param {
    lr_mult: 2
    decay_mult: 0
  }
  convolution_param {
    num_output: 112
    kernel_size: 1
    weight_filler {
      type: "xavier"
      std: 0.03
    }
    bias_filler {
      type: "constant"
      value: 0.2
    }
  }
}
layer {
  name: "inception_4d/relu_1x1"
  type: "ReLU"
  bottom: "inception_4d/1x1"
  top: "inception_4d/1x1"
}
layer {
  name: "inception_4d/3x3_reduce"
  type: "Convolution"
  bottom: "inception_4c/output"
  top: "inception_4d/3x3_reduce"
  param {
    lr_mult: 1
    decay_mult: 1
  }
  param {
    lr_mult: 2
    decay_mult: 0
  }
  convolution_param {
    num_output: 144
    kernel_size: 1
    weight_filler {
      type: "xavier"
      std: 0.09
    }
    bias_filler {
      type: "constant"
      value: 0.2
    }
  }
}
layer {
  name: "inception_4d/relu_3x3_reduce"
  type: "ReLU"
  bottom: "inception_4d/3x3_reduce"
  top: "inception_4d/3x3_reduce"
}
layer {
  name: "inception_4d/3x3"
  type: "Convolution"
  bottom: "inception_4d/3x3_reduce"
  top: "inception_4d/3x3"
  param {
    lr_mult: 1
    decay_mult: 1
  }
  param {
    lr_mult: 2
    decay_mult: 0
  }
  convolution_param {
    num_output: 288
    pad: 1
    kernel_size: 3
    weight_filler {
      type: "xavier"
      std: 0.03
    }
    bias_filler {
      type: "constant"
      value: 0.2
    }
  }
}
layer {
  name: "inception_4d/relu_3x3"
  type: "ReLU"
  bottom: "inception_4d/3x3"
  top: "inception_4d/3x3"
}
layer {
  name: "inception_4d/5x5_reduce"
  type: "Convolution"
  bottom: "inception_4c/output"
  top: "inception_4d/5x5_reduce"
  param {
    lr_mult: 1
    decay_mult: 1
  }
  param {
    lr_mult: 2
    decay_mult: 0
  }
  convolution_param {
    num_output: 32
    kernel_size: 1
    weight_filler {
      type: "xavier"
      std: 0.2
    }
    bias_filler {
      type: "constant"
      value: 0.2
    }
  }
}
layer {
  name: "inception_4d/relu_5x5_reduce"
  type: "ReLU"
  bottom: "inception_4d/5x5_reduce"
  top: "inception_4d/5x5_reduce"
}
layer {
  name: "inception_4d/5x5"
  type: "Convolution"
  bottom: "inception_4d/5x5_reduce"
  top: "inception_4d/5x5"
  param {
    lr_mult: 1
    decay_mult: 1
  }
  param {
    lr_mult: 2
    decay_mult: 0
  }
  convolution_param {
    num_output: 64
    pad: 2
    kernel_size: 5
    weight_filler {
      type: "xavier"
      std: 0.03
    }
    bias_filler {
      type: "constant"
      value: 0.2
    }
  }
}
layer {
  name: "inception_4d/relu_5x5"
  type: "ReLU"
  bottom: "inception_4d/5x5"
  top: "inception_4d/5x5"
}
layer {
  name: "inception_4d/pool"
  type: "Pooling"
  bottom: "inception_4c/output"
  top: "inception_4d/pool"
  pooling_param {
    pool: MAX
    kernel_size: 3
    stride: 1
    pad: 1
  }
}
layer {
  name: "inception_4d/pool_proj"
  type: "Convolution"
  bottom: "inception_4d/pool"
  top: "inception_4d/pool_proj"
  param {
    lr_mult: 1
    decay_mult: 1
  }
  param {
    lr_mult: 2
    decay_mult: 0
  }
  convolution_param {
    num_output: 64
    kernel_size: 1
    weight_filler {
      type: "xavier"
      std: 0.1
    }
    bias_filler {
      type: "constant"
      value: 0.2
    }
  }
}
layer {
  name: "inception_4d/relu_pool_proj"
  type: "ReLU"
  bottom: "inception_4d/pool_proj"
  top: "inception_4d/pool_proj"
}
layer {
  name: "inception_4d/output"
  type: "Concat"
  bottom: "inception_4d/1x1"
  bottom: "inception_4d/3x3"
  bottom: "inception_4d/5x5"
  bottom: "inception_4d/pool_proj"
  top: "inception_4d/output"
}
layer {
  name: "loss2/ave_pool"
  type: "Pooling"
  bottom: "inception_4d/output"
  top: "loss2/ave_pool"
  pooling_param {
    pool: AVE
    kernel_size: 5
    stride: 3
  }
}
layer {
  name: "loss2/conv"
  type: "Convolution"
  bottom: "loss2/ave_pool"
  top: "loss2/conv"
  param {
    lr_mult: 1
    decay_mult: 1
  }
  param {
    lr_mult: 2
    decay_mult: 0
  }
  convolution_param {
    num_output: 128
    kernel_size: 1
    weight_filler {
      type: "xavier"
      std: 0.08
    }
    bias_filler {
      type: "constant"
      value: 0.2
    }
  }
}
layer {
  name: "loss2/relu_conv"
  type: "ReLU"
  bottom: "loss2/conv"
  top: "loss2/conv"
}
layer {
  name: "loss2/fc"
  type: "InnerProduct"
  bottom: "loss2/conv"
  top: "loss2/fc"
  param {
    lr_mult: 1
    decay_mult: 1
  }
  param {
    lr_mult: 2
    decay_mult: 0
  }
  inner_product_param {
    num_output: 1024
    weight_filler {
      type: "xavier"
      std: 0.02
    }
    bias_filler {
      type: "constant"
      value: 0.2
    }
  }
}
layer {
  name: "loss2/relu_fc"
  type: "ReLU"
  bottom: "loss2/fc"
  top: "loss2/fc"
}
layer {
  name: "loss2/drop_fc"
  type: "Dropout"
  bottom: "loss2/fc"
  top: "loss2/fc"
  dropout_param {
    dropout_ratio: 0.7
  }
}
layer {
  name: "loss2/classifier"
  type: "InnerProduct"
  bottom: "loss2/fc"
  top: "loss2/classifier"
  param {
    lr_mult: 1
    decay_mult: 1
  }
  param {
    lr_mult: 2
    decay_mult: 0
  }
  inner_product_param {
    num_output: 1000
    weight_filler {
      type: "xavier"
      std: 0.0009765625
    }
    bias_filler {
      type: "constant"
      value: 0
    }
  }
}
layer {
  name: "loss2/loss"
  type: "SoftmaxWithLoss"
  bottom: "loss2/classifier"
  bottom: "label"
  top: "loss2/loss1"
  loss_weight: 0.3
}
layer {
  name: "loss2/top-1"
  type: "Accuracy"
  bottom: "loss2/classifier"
  bottom: "label"
  top: "loss2/top-1"
  include {
    phase: TEST
  }
}
layer {
  name: "loss2/top-5"
  type: "Accuracy"
  bottom: "loss2/classifier"
  bottom: "label"
  top: "loss2/top-5"
  include {
    phase: TEST
  }
  accuracy_param {
    top_k: 5
  }
}
layer {
  name: "inception_4e/1x1"
  type: "Convolution"
  bottom: "inception_4d/output"
  top: "inception_4e/1x1"
  param {
    lr_mult: 1
    decay_mult: 1
  }
  param {
    lr_mult: 2
    decay_mult: 0
  }
  convolution_param {
    num_output: 256
    kernel_size: 1
    weight_filler {
      type: "xavier"
      std: 0.03
    }
    bias_filler {
      type: "constant"
      value: 0.2
    }
  }
}
layer {
  name: "inception_4e/relu_1x1"
  type: "ReLU"
  bottom: "inception_4e/1x1"
  top: "inception_4e/1x1"
}
layer {
  name: "inception_4e/3x3_reduce"
  type: "Convolution"
  bottom: "inception_4d/output"
  top: "inception_4e/3x3_reduce"
  param {
    lr_mult: 1
    decay_mult: 1
  }
  param {
    lr_mult: 2
    decay_mult: 0
  }
  convolution_param {
    num_output: 160
    kernel_size: 1
    weight_filler {
      type: "xavier"
      std: 0.09
    }
    bias_filler {
      type: "constant"
      value: 0.2
    }
  }
}
layer {
  name: "inception_4e/relu_3x3_reduce"
  type: "ReLU"
  bottom: "inception_4e/3x3_reduce"
  top: "inception_4e/3x3_reduce"
}
layer {
  name: "inception_4e/3x3"
  type: "Convolution"
  bottom: "inception_4e/3x3_reduce"
  top: "inception_4e/3x3"
  param {
    lr_mult: 1
    decay_mult: 1
  }
  param {
    lr_mult: 2
    decay_mult: 0
  }
  convolution_param {
    num_output: 320
    pad: 1
I0506 16:22:11.331315  2784 layer_factory.hpp:77] Creating layer data
I0506 16:22:11.331348  2784 net.cpp:106] Creating Layer data
I0506 16:22:11.331354  2784 net.cpp:411] data -> data
I0506 16:22:11.331373  2784 net.cpp:411] data -> label
I0506 16:22:11.331385  2784 image_data_layer.cpp:38] Opening file foodCAT/test.txt
I0506 16:22:11.338094  2784 image_data_layer.cpp:48] Shuffling data
I0506 16:22:11.339012  2784 image_data_layer.cpp:53] A total of 14630 images.
I0506 16:22:11.351609  2784 image_data_layer.cpp:80] output data size: 16,3,224,224
I0506 16:22:11.364591  2784 net.cpp:150] Setting up data
I0506 16:22:11.364629  2784 net.cpp:157] Top shape: 16 3 224 224 (2408448)
I0506 16:22:11.364639  2784 net.cpp:157] Top shape: 16 (16)
I0506 16:22:11.364644  2784 net.cpp:165] Memory required for data: 9633856
I0506 16:22:11.364651  2784 layer_factory.hpp:77] Creating layer label_data_1_split
I0506 16:22:11.364668  2784 net.cpp:106] Creating Layer label_data_1_split
I0506 16:22:11.364673  2784 net.cpp:454] label_data_1_split <- label
I0506 16:22:11.364683  2784 net.cpp:411] label_data_1_split -> label_data_1_split_0
I0506 16:22:11.364693  2784 net.cpp:411] label_data_1_split -> label_data_1_split_1
I0506 16:22:11.364699  2784 net.cpp:411] label_data_1_split -> label_data_1_split_2
I0506 16:22:11.364706  2784 net.cpp:411] label_data_1_split -> label_data_1_split_3
I0506 16:22:11.364711  2784 net.cpp:411] label_data_1_split -> label_data_1_split_4
I0506 16:22:11.364716  2784 net.cpp:411] label_data_1_split -> label_data_1_split_5
I0506 16:22:11.364720  2784 net.cpp:411] label_data_1_split -> label_data_1_split_6
I0506 16:22:11.364725  2784 net.cpp:411] label_data_1_split -> label_data_1_split_7
I0506 16:22:11.364730  2784 net.cpp:411] label_data_1_split -> label_data_1_split_8
I0506 16:22:11.364806  2784 net.cpp:150] Setting up label_data_1_split
I0506 16:22:11.364811  2784 net.cpp:157] Top shape: 16 (16)
I0506 16:22:11.364815  2784 net.cpp:157] Top shape: 16 (16)
I0506 16:22:11.364820  2784 net.cpp:157] Top shape: 16 (16)
I0506 16:22:11.364823  2784 net.cpp:157] Top shape: 16 (16)
I0506 16:22:11.364826  2784 net.cpp:157] Top shape: 16 (16)
I0506 16:22:11.364830  2784 net.cpp:157] Top shape: 16 (16)
I0506 16:22:11.364833  2784 net.cpp:157] Top shape: 16 (16)
I0506 16:22:11.364837  2784 net.cpp:157] Top shape: 16 (16)
I0506 16:22:11.364840  2784 net.cpp:157] Top shape: 16 (16)
I0506 16:22:11.364843  2784 net.cpp:165] Memory required for data: 9634432
I0506 16:22:11.364847  2784 layer_factory.hpp:77] Creating layer conv1/7x7_s2
I0506 16:22:11.364864  2784 net.cpp:106] Creating Layer conv1/7x7_s2
I0506 16:22:11.364873  2784 net.cpp:454] conv1/7x7_s2 <- data
I0506 16:22:11.364886  2784 net.cpp:411] conv1/7x7_s2 -> conv1/7x7_s2
I0506 16:22:11.510685  2784 net.cpp:150] Setting up conv1/7x7_s2
I0506 16:22:11.510720  2784 net.cpp:157] Top shape: 16 64 112 112 (12845056)
I0506 16:22:11.510726  2784 net.cpp:165] Memory required for data: 61014656
I0506 16:22:11.510747  2784 layer_factory.hpp:77] Creating layer conv1/relu_7x7
I0506 16:22:11.510761  2784 net.cpp:106] Creating Layer conv1/relu_7x7
I0506 16:22:11.510767  2784 net.cpp:454] conv1/relu_7x7 <- conv1/7x7_s2
I0506 16:22:11.510776  2784 net.cpp:397] conv1/relu_7x7 -> conv1/7x7_s2 (in-place)
I0506 16:22:11.510937  2784 net.cpp:150] Setting up conv1/relu_7x7
I0506 16:22:11.510947  2784 net.cpp:157] Top shape: 16 64 112 112 (12845056)
I0506 16:22:11.510952  2784 net.cpp:165] Memory required for data: 112394880
I0506 16:22:11.510958  2784 layer_factory.hpp:77] Creating layer pool1/3x3_s2
I0506 16:22:11.510969  2784 net.cpp:106] Creating Layer pool1/3x3_s2
I0506 16:22:11.510974  2784 net.cpp:454] pool1/3x3_s2 <- conv1/7x7_s2
I0506 16:22:11.510982  2784 net.cpp:411] pool1/3x3_s2 -> pool1/3x3_s2
I0506 16:22:11.511029  2784 net.cpp:150] Setting up pool1/3x3_s2
I0506 16:22:11.511036  2784 net.cpp:157] Top shape: 16 64 56 56 (3211264)
I0506 16:22:11.511041  2784 net.cpp:165] Memory required for data: 125239936
I0506 16:22:11.511046  2784 layer_factory.hpp:77] Creating layer pool1/norm1
I0506 16:22:11.511057  2784 net.cpp:106] Creating Layer pool1/norm1
I0506 16:22:11.511062  2784 net.cpp:454] pool1/norm1 <- pool1/3x3_s2
I0506 16:22:11.511068  2784 net.cpp:411] pool1/norm1 -> pool1/norm1
I0506 16:22:11.511348  2784 net.cpp:150] Setting up pool1/norm1
I0506 16:22:11.511360  2784 net.cpp:157] Top shape: 16 64 56 56 (3211264)
I0506 16:22:11.511365  2784 net.cpp:165] Memory required for data: 138084992
I0506 16:22:11.511371  2784 layer_factory.hpp:77] Creating layer conv2/3x3_reduce
I0506 16:22:11.511385  2784 net.cpp:106] Creating Layer conv2/3x3_reduce
I0506 16:22:11.511390  2784 net.cpp:454] conv2/3x3_reduce <- pool1/norm1
I0506 16:22:11.511399  2784 net.cpp:411] conv2/3x3_reduce -> conv2/3x3_reduce
I0506 16:22:11.512652  2784 net.cpp:150] Setting up conv2/3x3_reduce
I0506 16:22:11.512666  2784 net.cpp:157] Top shape: 16 64 56 56 (3211264)
I0506 16:22:11.512672  2784 net.cpp:165] Memory required for data: 150930048
I0506 16:22:11.512683  2784 layer_factory.hpp:77] Creating layer conv2/relu_3x3_reduce
I0506 16:22:11.512692  2784 net.cpp:106] Creating Layer conv2/relu_3x3_reduce
I0506 16:22:11.512698  2784 net.cpp:454] conv2/relu_3x3_reduce <- conv2/3x3_reduce
I0506 16:22:11.512706  2784 net.cpp:397] conv2/relu_3x3_reduce -> conv2/3x3_reduce (in-place)
I0506 16:22:11.512864  2784 net.cpp:150] Setting up conv2/relu_3x3_reduce
I0506 16:22:11.512876  2784 net.cpp:157] Top shape: 16 64 56 56 (3211264)
I0506 16:22:11.512881  2784 net.cpp:165] Memory required for data: 163775104
I0506 16:22:11.512887  2784 layer_factory.hpp:77] Creating layer conv2/3x3
I0506 16:22:11.512900  2784 net.cpp:106] Creating Layer conv2/3x3
I0506 16:22:11.512905  2784 net.cpp:454] conv2/3x3 <- conv2/3x3_reduce
I0506 16:22:11.512914  2784 net.cpp:411] conv2/3x3 -> conv2/3x3
I0506 16:22:11.514722  2784 net.cpp:150] Setting up conv2/3x3
I0506 16:22:11.514735  2784 net.cpp:157] Top shape: 16 192 56 56 (9633792)
I0506 16:22:11.514739  2784 net.cpp:165] Memory required for data: 202310272
I0506 16:22:11.514747  2784 layer_factory.hpp:77] Creating layer conv2/relu_3x3
I0506 16:22:11.514753  2784 net.cpp:106] Creating Layer conv2/relu_3x3
I0506 16:22:11.514758  2784 net.cpp:454] conv2/relu_3x3 <- conv2/3x3
I0506 16:22:11.514765  2784 net.cpp:397] conv2/relu_3x3 -> conv2/3x3 (in-place)
I0506 16:22:11.514962  2784 net.cpp:150] Setting up conv2/relu_3x3
I0506 16:22:11.514971  2784 net.cpp:157] Top shape: 16 192 56 56 (9633792)
I0506 16:22:11.514974  2784 net.cpp:165] Memory required for data: 240845440
I0506 16:22:11.514979  2784 layer_factory.hpp:77] Creating layer conv2/norm2
I0506 16:22:11.514988  2784 net.cpp:106] Creating Layer conv2/norm2
I0506 16:22:11.514999  2784 net.cpp:454] conv2/norm2 <- conv2/3x3
I0506 16:22:11.515012  2784 net.cpp:411] conv2/norm2 -> conv2/norm2
I0506 16:22:11.515141  2784 net.cpp:150] Setting up conv2/norm2
I0506 16:22:11.515153  2784 net.cpp:157] Top shape: 16 192 56 56 (9633792)
I0506 16:22:11.515159  2784 net.cpp:165] Memory required for data: 279380608
I0506 16:22:11.515166  2784 layer_factory.hpp:77] Creating layer pool2/3x3_s2
I0506 16:22:11.515173  2784 net.cpp:106] Creating Layer pool2/3x3_s2
I0506 16:22:11.515179  2784 net.cpp:454] pool2/3x3_s2 <- conv2/norm2
I0506 16:22:11.515187  2784 net.cpp:411] pool2/3x3_s2 -> pool2/3x3_s2
I0506 16:22:11.515223  2784 net.cpp:150] Setting up pool2/3x3_s2
I0506 16:22:11.515231  2784 net.cpp:157] Top shape: 16 192 28 28 (2408448)
I0506 16:22:11.515236  2784 net.cpp:165] Memory required for data: 289014400
I0506 16:22:11.515241  2784 layer_factory.hpp:77] Creating layer pool2/3x3_s2_pool2/3x3_s2_0_split
I0506 16:22:11.515249  2784 net.cpp:106] Creating Layer pool2/3x3_s2_pool2/3x3_s2_0_split
I0506 16:22:11.515254  2784 net.cpp:454] pool2/3x3_s2_pool2/3x3_s2_0_split <- pool2/3x3_s2
I0506 16:22:11.515261  2784 net.cpp:411] pool2/3x3_s2_pool2/3x3_s2_0_split -> pool2/3x3_s2_pool2/3x3_s2_0_split_0
I0506 16:22:11.515269  2784 net.cpp:411] pool2/3x3_s2_pool2/3x3_s2_0_split -> pool2/3x3_s2_pool2/3x3_s2_0_split_1
I0506 16:22:11.515277  2784 net.cpp:411] pool2/3x3_s2_pool2/3x3_s2_0_split -> pool2/3x3_s2_pool2/3x3_s2_0_split_2
I0506 16:22:11.515285  2784 net.cpp:411] pool2/3x3_s2_pool2/3x3_s2_0_split -> pool2/3x3_s2_pool2/3x3_s2_0_split_3
I0506 16:22:11.515336  2784 net.cpp:150] Setting up pool2/3x3_s2_pool2/3x3_s2_0_split
I0506 16:22:11.515342  2784 net.cpp:157] Top shape: 16 192 28 28 (2408448)
I0506 16:22:11.515348  2784 net.cpp:157] Top shape: 16 192 28 28 (2408448)
I0506 16:22:11.515354  2784 net.cpp:157] Top shape: 16 192 28 28 (2408448)
I0506 16:22:11.515360  2784 net.cpp:157] Top shape: 16 192 28 28 (2408448)
I0506 16:22:11.515365  2784 net.cpp:165] Memory required for data: 327549568
I0506 16:22:11.515370  2784 layer_factory.hpp:77] Creating layer inception_3a/1x1
I0506 16:22:11.515380  2784 net.cpp:106] Creating Layer inception_3a/1x1
I0506 16:22:11.515386  2784 net.cpp:454] inception_3a/1x1 <- pool2/3x3_s2_pool2/3x3_s2_0_split_0
I0506 16:22:11.515394  2784 net.cpp:411] inception_3a/1x1 -> inception_3a/1x1
I0506 16:22:11.516738  2784 net.cpp:150] Setting up inception_3a/1x1
I0506 16:22:11.516754  2784 net.cpp:157] Top shape: 16 64 28 28 (802816)
I0506 16:22:11.516760  2784 net.cpp:165] Memory required for data: 330760832
I0506 16:22:11.516769  2784 layer_factory.hpp:77] Creating layer inception_3a/relu_1x1
I0506 16:22:11.516777  2784 net.cpp:106] Creating Layer inception_3a/relu_1x1
I0506 16:22:11.516790  2784 net.cpp:454] inception_3a/relu_1x1 <- inception_3a/1x1
I0506 16:22:11.516798  2784 net.cpp:397] inception_3a/relu_1x1 -> inception_3a/1x1 (in-place)
I0506 16:22:11.516959  2784 net.cpp:150] Setting up inception_3a/relu_1x1
I0506 16:22:11.516969  2784 net.cpp:157] Top shape: 16 64 28 28 (802816)
I0506 16:22:11.516974  2784 net.cpp:165] Memory required for data: 333972096
I0506 16:22:11.516980  2784 layer_factory.hpp:77] Creating layer inception_3a/3x3_reduce
I0506 16:22:11.516990  2784 net.cpp:106] Creating Layer inception_3a/3x3_reduce
I0506 16:22:11.516996  2784 net.cpp:454] inception_3a/3x3_reduce <- pool2/3x3_s2_pool2/3x3_s2_0_split_1
I0506 16:22:11.517004  2784 net.cpp:411] inception_3a/3x3_reduce -> inception_3a/3x3_reduce
I0506 16:22:11.518384  2784 net.cpp:150] Setting up inception_3a/3x3_reduce
I0506 16:22:11.518394  2784 net.cpp:157] Top shape: 16 96 28 28 (1204224)
I0506 16:22:11.518399  2784 net.cpp:165] Memory required for data: 338788992
I0506 16:22:11.518407  2784 layer_factory.hpp:77] Creating layer inception_3a/relu_3x3_reduce
I0506 16:22:11.518419  2784 net.cpp:106] Creating Layer inception_3a/relu_3x3_reduce
I0506 16:22:11.518424  2784 net.cpp:454] inception_3a/relu_3x3_reduce <- inception_3a/3x3_reduce
I0506 16:22:11.518429  2784 net.cpp:397] inception_3a/relu_3x3_reduce -> inception_3a/3x3_reduce (in-place)
I0506 16:22:11.518640  2784 net.cpp:150] Setting up inception_3a/relu_3x3_reduce
I0506 16:22:11.518648  2784 net.cpp:157] Top shape: 16 96 28 28 (1204224)
I0506 16:22:11.518652  2784 net.cpp:165] Memory required for data: 343605888
I0506 16:22:11.518656  2784 layer_factory.hpp:77] Creating layer inception_3a/3x3
I0506 16:22:11.518663  2784 net.cpp:106] Creating Layer inception_3a/3x3
I0506 16:22:11.518667  2784 net.cpp:454] inception_3a/3x3 <- inception_3a/3x3_reduce
I0506 16:22:11.518672  2784 net.cpp:411] inception_3a/3x3 -> inception_3a/3x3
I0506 16:22:11.520205  2784 net.cpp:150] Setting up inception_3a/3x3
I0506 16:22:11.520218  2784 net.cpp:157] Top shape: 16 128 28 28 (1605632)
I0506 16:22:11.520225  2784 net.cpp:165] Memory required for data: 350028416
I0506 16:22:11.520232  2784 layer_factory.hpp:77] Creating layer inception_3a/relu_3x3
I0506 16:22:11.520241  2784 net.cpp:106] Creating Layer inception_3a/relu_3x3
I0506 16:22:11.520247  2784 net.cpp:454] inception_3a/relu_3x3 <- inception_3a/3x3
I0506 16:22:11.520254  2784 net.cpp:397] inception_3a/relu_3x3 -> inception_3a/3x3 (in-place)
I0506 16:22:11.520426  2784 net.cpp:150] Setting up inception_3a/relu_3x3
I0506 16:22:11.520437  2784 net.cpp:157] Top shape: 16 128 28 28 (1605632)
I0506 16:22:11.520442  2784 net.cpp:165] Memory required for data: 356450944
I0506 16:22:11.520447  2784 layer_factory.hpp:77] Creating layer inception_3a/5x5_reduce
I0506 16:22:11.520459  2784 net.cpp:106] Creating Layer inception_3a/5x5_reduce
I0506 16:22:11.520465  2784 net.cpp:454] inception_3a/5x5_reduce <- pool2/3x3_s2_pool2/3x3_s2_0_split_2
I0506 16:22:11.520475  2784 net.cpp:411] inception_3a/5x5_reduce -> inception_3a/5x5_reduce
I0506 16:22:11.521443  2784 net.cpp:150] Setting up inception_3a/5x5_reduce
I0506 16:22:11.521458  2784 net.cpp:157] Top shape: 16 16 28 28 (200704)
I0506 16:22:11.521464  2784 net.cpp:165] Memory required for data: 357253760
I0506 16:22:11.521482  2784 layer_factory.hpp:77] Creating layer inception_3a/relu_5x5_reduce
I0506 16:22:11.521492  2784 net.cpp:106] Creating Layer inception_3a/relu_5x5_reduce
I0506 16:22:11.521498  2784 net.cpp:454] inception_3a/relu_5x5_reduce <- inception_3a/5x5_reduce
I0506 16:22:11.521505  2784 net.cpp:397] inception_3a/relu_5x5_reduce -> inception_3a/5x5_reduce (in-place)
I0506 16:22:11.521683  2784 net.cpp:150] Setting up inception_3a/relu_5x5_reduce
I0506 16:22:11.521694  2784 net.cpp:157] Top shape: 16 16 28 28 (200704)
I0506 16:22:11.521699  2784 net.cpp:165] Memory required for data: 358056576
I0506 16:22:11.521704  2784 layer_factory.hpp:77] Creating layer inception_3a/5x5
I0506 16:22:11.521716  2784 net.cpp:106] Creating Layer inception_3a/5x5
I0506 16:22:11.521721  2784 net.cpp:454] inception_3a/5x5 <- inception_3a/5x5_reduce
I0506 16:22:11.521730  2784 net.cpp:411] inception_3a/5x5 -> inception_3a/5x5
I0506 16:22:11.522917  2784 net.cpp:150] Setting up inception_3a/5x5
I0506 16:22:11.522932  2784 net.cpp:157] Top shape: 16 32 28 28 (401408)
I0506 16:22:11.522936  2784 net.cpp:165] Memory required for data: 359662208
I0506 16:22:11.522945  2784 layer_factory.hpp:77] Creating layer inception_3a/relu_5x5
I0506 16:22:11.522954  2784 net.cpp:106] Creating Layer inception_3a/relu_5x5
I0506 16:22:11.522959  2784 net.cpp:454] inception_3a/relu_5x5 <- inception_3a/5x5
I0506 16:22:11.522967  2784 net.cpp:397] inception_3a/relu_5x5 -> inception_3a/5x5 (in-place)
I0506 16:22:11.523207  2784 net.cpp:150] Setting up inception_3a/relu_5x5
I0506 16:22:11.523217  2784 net.cpp:157] Top shape: 16 32 28 28 (401408)
I0506 16:22:11.523221  2784 net.cpp:165] Memory required for data: 361267840
I0506 16:22:11.523224  2784 layer_factory.hpp:77] Creating layer inception_3a/pool
I0506 16:22:11.523231  2784 net.cpp:106] Creating Layer inception_3a/pool
I0506 16:22:11.523234  2784 net.cpp:454] inception_3a/pool <- pool2/3x3_s2_pool2/3x3_s2_0_split_3
I0506 16:22:11.523239  2784 net.cpp:411] inception_3a/pool -> inception_3a/pool
I0506 16:22:11.523277  2784 net.cpp:150] Setting up inception_3a/pool
I0506 16:22:11.523289  2784 net.cpp:157] Top shape: 16 192 28 28 (2408448)
I0506 16:22:11.523298  2784 net.cpp:165] Memory required for data: 370901632
I0506 16:22:11.523303  2784 layer_factory.hpp:77] Creating layer inception_3a/pool_proj
I0506 16:22:11.523313  2784 net.cpp:106] Creating Layer inception_3a/pool_proj
I0506 16:22:11.523319  2784 net.cpp:454] inception_3a/pool_proj <- inception_3a/pool
I0506 16:22:11.523324  2784 net.cpp:411] inception_3a/pool_proj -> inception_3a/pool_proj
I0506 16:22:11.524080  2784 net.cpp:150] Setting up inception_3a/pool_proj
I0506 16:22:11.524092  2784 net.cpp:157] Top shape: 16 32 28 28 (401408)
I0506 16:22:11.524096  2784 net.cpp:165] Memory required for data: 372507264
I0506 16:22:11.524104  2784 layer_factory.hpp:77] Creating layer inception_3a/relu_pool_proj
I0506 16:22:11.524111  2784 net.cpp:106] Creating Layer inception_3a/relu_pool_proj
I0506 16:22:11.524113  2784 net.cpp:454] inception_3a/relu_pool_proj <- inception_3a/pool_proj
I0506 16:22:11.524119  2784 net.cpp:397] inception_3a/relu_pool_proj -> inception_3a/pool_proj (in-place)
I0506 16:22:11.524265  2784 net.cpp:150] Setting up inception_3a/relu_pool_proj
I0506 16:22:11.524277  2784 net.cpp:157] Top shape: 16 32 28 28 (401408)
I0506 16:22:11.524283  2784 net.cpp:165] Memory required for data: 374112896
I0506 16:22:11.524288  2784 layer_factory.hpp:77] Creating layer inception_3a/output
I0506 16:22:11.524296  2784 net.cpp:106] Creating Layer inception_3a/output
I0506 16:22:11.524302  2784 net.cpp:454] inception_3a/output <- inception_3a/1x1
I0506 16:22:11.524307  2784 net.cpp:454] inception_3a/output <- inception_3a/3x3
I0506 16:22:11.524313  2784 net.cpp:454] inception_3a/output <- inception_3a/5x5
I0506 16:22:11.524319  2784 net.cpp:454] inception_3a/output <- inception_3a/pool_proj
I0506 16:22:11.524327  2784 net.cpp:411] inception_3a/output -> inception_3a/output
I0506 16:22:11.524355  2784 net.cpp:150] Setting up inception_3a/output
I0506 16:22:11.524363  2784 net.cpp:157] Top shape: 16 256 28 28 (3211264)
I0506 16:22:11.524369  2784 net.cpp:165] Memory required for data: 386957952
I0506 16:22:11.524374  2784 layer_factory.hpp:77] Creating layer inception_3a/output_inception_3a/output_0_split
I0506 16:22:11.524380  2784 net.cpp:106] Creating Layer inception_3a/output_inception_3a/output_0_split
I0506 16:22:11.524386  2784 net.cpp:454] inception_3a/output_inception_3a/output_0_split <- inception_3a/output
I0506 16:22:11.524394  2784 net.cpp:411] inception_3a/output_inception_3a/output_0_split -> inception_3a/output_inception_3a/output_0_split_0
I0506 16:22:11.524402  2784 net.cpp:411] inception_3a/output_inception_3a/output_0_split -> inception_3a/output_inception_3a/output_0_split_1
I0506 16:22:11.524410  2784 net.cpp:411] inception_3a/output_inception_3a/output_0_split -> inception_3a/output_inception_3a/output_0_split_2
I0506 16:22:11.524421  2784 net.cpp:411] inception_3a/output_inception_3a/output_0_split -> inception_3a/output_inception_3a/output_0_split_3
I0506 16:22:11.524483  2784 net.cpp:150] Setting up inception_3a/output_inception_3a/output_0_split
I0506 16:22:11.524492  2784 net.cpp:157] Top shape: 16 256 28 28 (3211264)
I0506 16:22:11.524499  2784 net.cpp:157] Top shape: 16 256 28 28 (3211264)
I0506 16:22:11.524505  2784 net.cpp:157] Top shape: 16 256 28 28 (3211264)
I0506 16:22:11.524512  2784 net.cpp:157] Top shape: 16 256 28 28 (3211264)
I0506 16:22:11.524516  2784 net.cpp:165] Memory required for data: 438338176
I0506 16:22:11.524521  2784 layer_factory.hpp:77] Creating layer inception_3b/1x1
I0506 16:22:11.524533  2784 net.cpp:106] Creating Layer inception_3b/1x1
I0506 16:22:11.524538  2784 net.cpp:454] inception_3b/1x1 <- inception_3a/output_inception_3a/output_0_split_0
I0506 16:22:11.524547  2784 net.cpp:411] inception_3b/1x1 -> inception_3b/1x1
I0506 16:22:11.525676  2784 net.cpp:150] Setting up inception_3b/1x1
I0506 16:22:11.525689  2784 net.cpp:157] Top shape: 16 128 28 28 (1605632)
I0506 16:22:11.525694  2784 net.cpp:165] Memory required for data: 444760704
I0506 16:22:11.525707  2784 layer_factory.hpp:77] Creating layer inception_3b/relu_1x1
I0506 16:22:11.525722  2784 net.cpp:106] Creating Layer inception_3b/relu_1x1
I0506 16:22:11.525728  2784 net.cpp:454] inception_3b/relu_1x1 <- inception_3b/1x1
I0506 16:22:11.525735  2784 net.cpp:397] inception_3b/relu_1x1 -> inception_3b/1x1 (in-place)
I0506 16:22:11.525904  2784 net.cpp:150] Setting up inception_3b/relu_1x1
I0506 16:22:11.525914  2784 net.cpp:157] Top shape: 16 128 28 28 (1605632)
I0506 16:22:11.525919  2784 net.cpp:165] Memory required for data: 451183232
I0506 16:22:11.525924  2784 layer_factory.hpp:77] Creating layer inception_3b/3x3_reduce
I0506 16:22:11.525935  2784 net.cpp:106] Creating Layer inception_3b/3x3_reduce
I0506 16:22:11.525943  2784 net.cpp:454] inception_3b/3x3_reduce <- inception_3a/output_inception_3a/output_0_split_1
I0506 16:22:11.525951  2784 net.cpp:411] inception_3b/3x3_reduce -> inception_3b/3x3_reduce
I0506 16:22:11.527101  2784 net.cpp:150] Setting up inception_3b/3x3_reduce
I0506 16:22:11.527114  2784 net.cpp:157] Top shape: 16 128 28 28 (1605632)
I0506 16:22:11.527119  2784 net.cpp:165] Memory required for data: 457605760
I0506 16:22:11.527128  2784 layer_factory.hpp:77] Creating layer inception_3b/relu_3x3_reduce
I0506 16:22:11.527137  2784 net.cpp:106] Creating Layer inception_3b/relu_3x3_reduce
I0506 16:22:11.527143  2784 net.cpp:454] inception_3b/relu_3x3_reduce <- inception_3b/3x3_reduce
I0506 16:22:11.527151  2784 net.cpp:397] inception_3b/relu_3x3_reduce -> inception_3b/3x3_reduce (in-place)
I0506 16:22:11.527420  2784 net.cpp:150] Setting up inception_3b/relu_3x3_reduce
I0506 16:22:11.527434  2784 net.cpp:157] Top shape: 16 128 28 28 (1605632)
I0506 16:22:11.527441  2784 net.cpp:165] Memory required for data: 464028288
I0506 16:22:11.527446  2784 layer_factory.hpp:77] Creating layer inception_3b/3x3
I0506 16:22:11.527461  2784 net.cpp:106] Creating Layer inception_3b/3x3
I0506 16:22:11.527464  2784 net.cpp:454] inception_3b/3x3 <- inception_3b/3x3_reduce
I0506 16:22:11.527470  2784 net.cpp:411] inception_3b/3x3 -> inception_3b/3x3
I0506 16:22:11.529839  2784 net.cpp:150] Setting up inception_3b/3x3
I0506 16:22:11.529853  2784 net.cpp:157] Top shape: 16 192 28 28 (2408448)
I0506 16:22:11.529860  2784 net.cpp:165] Memory required for data: 473662080
I0506 16:22:11.529868  2784 layer_factory.hpp:77] Creating layer inception_3b/relu_3x3
I0506 16:22:11.529877  2784 net.cpp:106] Creating Layer inception_3b/relu_3x3
I0506 16:22:11.529883  2784 net.cpp:454] inception_3b/relu_3x3 <- inception_3b/3x3
I0506 16:22:11.529891  2784 net.cpp:397] inception_3b/relu_3x3 -> inception_3b/3x3 (in-place)
I0506 16:22:11.530066  2784 net.cpp:150] Setting up inception_3b/relu_3x3
I0506 16:22:11.530076  2784 net.cpp:157] Top shape: 16 192 28 28 (2408448)
I0506 16:22:11.530081  2784 net.cpp:165] Memory required for data: 483295872
I0506 16:22:11.530086  2784 layer_factory.hpp:77] Creating layer inception_3b/5x5_reduce
I0506 16:22:11.530099  2784 net.cpp:106] Creating Layer inception_3b/5x5_reduce
I0506 16:22:11.530105  2784 net.cpp:454] inception_3b/5x5_reduce <- inception_3a/output_inception_3a/output_0_split_2
I0506 16:22:11.530114  2784 net.cpp:411] inception_3b/5x5_reduce -> inception_3b/5x5_reduce
I0506 16:22:11.531209  2784 net.cpp:150] Setting up inception_3b/5x5_reduce
I0506 16:22:11.531222  2784 net.cpp:157] Top shape: 16 32 28 28 (401408)
I0506 16:22:11.531227  2784 net.cpp:165] Memory required for data: 484901504
I0506 16:22:11.531236  2784 layer_factory.hpp:77] Creating layer inception_3b/relu_5x5_reduce
I0506 16:22:11.531244  2784 net.cpp:106] Creating Layer inception_3b/relu_5x5_reduce
I0506 16:22:11.531250  2784 net.cpp:454] inception_3b/relu_5x5_reduce <- inception_3b/5x5_reduce
I0506 16:22:11.531258  2784 net.cpp:397] inception_3b/relu_5x5_reduce -> inception_3b/5x5_reduce (in-place)
I0506 16:22:11.531435  2784 net.cpp:150] Setting up inception_3b/relu_5x5_reduce
I0506 16:22:11.531445  2784 net.cpp:157] Top shape: 16 32 28 28 (401408)
I0506 16:22:11.531450  2784 net.cpp:165] Memory required for data: 486507136
I0506 16:22:11.531460  2784 layer_factory.hpp:77] Creating layer inception_3b/5x5
I0506 16:22:11.531476  2784 net.cpp:106] Creating Layer inception_3b/5x5
I0506 16:22:11.531482  2784 net.cpp:454] inception_3b/5x5 <- inception_3b/5x5_reduce
I0506 16:22:11.531491  2784 net.cpp:411] inception_3b/5x5 -> inception_3b/5x5
I0506 16:22:11.533133  2784 net.cpp:150] Setting up inception_3b/5x5
I0506 16:22:11.533150  2784 net.cpp:157] Top shape: 16 96 28 28 (1204224)
I0506 16:22:11.533156  2784 net.cpp:165] Memory required for data: 491324032
I0506 16:22:11.533166  2784 layer_factory.hpp:77] Creating layer inception_3b/relu_5x5
I0506 16:22:11.533174  2784 net.cpp:106] Creating Layer inception_3b/relu_5x5
I0506 16:22:11.533180  2784 net.cpp:454] inception_3b/relu_5x5 <- inception_3b/5x5
I0506 16:22:11.533188  2784 net.cpp:397] inception_3b/relu_5x5 -> inception_3b/5x5 (in-place)
I0506 16:22:11.533480  2784 net.cpp:150] Setting up inception_3b/relu_5x5
I0506 16:22:11.533493  2784 net.cpp:157] Top shape: 16 96 28 28 (1204224)
I0506 16:22:11.533499  2784 net.cpp:165] Memory required for data: 496140928
I0506 16:22:11.533504  2784 layer_factory.hpp:77] Creating layer inception_3b/pool
I0506 16:22:11.533514  2784 net.cpp:106] Creating Layer inception_3b/pool
I0506 16:22:11.533519  2784 net.cpp:454] inception_3b/pool <- inception_3a/output_inception_3a/output_0_split_3
I0506 16:22:11.533527  2784 net.cpp:411] inception_3b/pool -> inception_3b/pool
I0506 16:22:11.533571  2784 net.cpp:150] Setting up inception_3b/pool
I0506 16:22:11.533579  2784 net.cpp:157] Top shape: 16 256 28 28 (3211264)
I0506 16:22:11.533584  2784 net.cpp:165] Memory required for data: 508985984
I0506 16:22:11.533589  2784 layer_factory.hpp:77] Creating layer inception_3b/pool_proj
I0506 16:22:11.533601  2784 net.cpp:106] Creating Layer inception_3b/pool_proj
I0506 16:22:11.533607  2784 net.cpp:454] inception_3b/pool_proj <- inception_3b/pool
I0506 16:22:11.533617  2784 net.cpp:411] inception_3b/pool_proj -> inception_3b/pool_proj
I0506 16:22:11.534690  2784 net.cpp:150] Setting up inception_3b/pool_proj
I0506 16:22:11.534704  2784 net.cpp:157] Top shape: 16 64 28 28 (802816)
I0506 16:22:11.534710  2784 net.cpp:165] Memory required for data: 512197248
I0506 16:22:11.534719  2784 layer_factory.hpp:77] Creating layer inception_3b/relu_pool_proj
I0506 16:22:11.534729  2784 net.cpp:106] Creating Layer inception_3b/relu_pool_proj
I0506 16:22:11.534734  2784 net.cpp:454] inception_3b/relu_pool_proj <- inception_3b/pool_proj
I0506 16:22:11.534741  2784 net.cpp:397] inception_3b/relu_pool_proj -> inception_3b/pool_proj (in-place)
I0506 16:22:11.534912  2784 net.cpp:150] Setting up inception_3b/relu_pool_proj
I0506 16:22:11.534921  2784 net.cpp:157] Top shape: 16 64 28 28 (802816)
I0506 16:22:11.534927  2784 net.cpp:165] Memory required for data: 515408512
I0506 16:22:11.534932  2784 layer_factory.hpp:77] Creating layer inception_3b/output
I0506 16:22:11.534940  2784 net.cpp:106] Creating Layer inception_3b/output
I0506 16:22:11.534945  2784 net.cpp:454] inception_3b/output <- inception_3b/1x1
I0506 16:22:11.534950  2784 net.cpp:454] inception_3b/output <- inception_3b/3x3
I0506 16:22:11.534956  2784 net.cpp:454] inception_3b/output <- inception_3b/5x5
I0506 16:22:11.534962  2784 net.cpp:454] inception_3b/output <- inception_3b/pool_proj
I0506 16:22:11.534970  2784 net.cpp:411] inception_3b/output -> inception_3b/output
I0506 16:22:11.534999  2784 net.cpp:150] Setting up inception_3b/output
I0506 16:22:11.535006  2784 net.cpp:157] Top shape: 16 480 28 28 (6021120)
I0506 16:22:11.535012  2784 net.cpp:165] Memory required for data: 539492992
I0506 16:22:11.535017  2784 layer_factory.hpp:77] Creating layer pool3/3x3_s2
I0506 16:22:11.535023  2784 net.cpp:106] Creating Layer pool3/3x3_s2
I0506 16:22:11.535028  2784 net.cpp:454] pool3/3x3_s2 <- inception_3b/output
I0506 16:22:11.535035  2784 net.cpp:411] pool3/3x3_s2 -> pool3/3x3_s2
I0506 16:22:11.535074  2784 net.cpp:150] Setting up pool3/3x3_s2
I0506 16:22:11.535081  2784 net.cpp:157] Top shape: 16 480 14 14 (1505280)
I0506 16:22:11.535090  2784 net.cpp:165] Memory required for data: 545514112
I0506 16:22:11.535100  2784 layer_factory.hpp:77] Creating layer pool3/3x3_s2_pool3/3x3_s2_0_split
I0506 16:22:11.535109  2784 net.cpp:106] Creating Layer pool3/3x3_s2_pool3/3x3_s2_0_split
I0506 16:22:11.535114  2784 net.cpp:454] pool3/3x3_s2_pool3/3x3_s2_0_split <- pool3/3x3_s2
I0506 16:22:11.535121  2784 net.cpp:411] pool3/3x3_s2_pool3/3x3_s2_0_split -> pool3/3x3_s2_pool3/3x3_s2_0_split_0
I0506 16:22:11.535130  2784 net.cpp:411] pool3/3x3_s2_pool3/3x3_s2_0_split -> pool3/3x3_s2_pool3/3x3_s2_0_split_1
I0506 16:22:11.535137  2784 net.cpp:411] pool3/3x3_s2_pool3/3x3_s2_0_split -> pool3/3x3_s2_pool3/3x3_s2_0_split_2
I0506 16:22:11.535145  2784 net.cpp:411] pool3/3x3_s2_pool3/3x3_s2_0_split -> pool3/3x3_s2_pool3/3x3_s2_0_split_3
I0506 16:22:11.535204  2784 net.cpp:150] Setting up pool3/3x3_s2_pool3/3x3_s2_0_split
I0506 16:22:11.535212  2784 net.cpp:157] Top shape: 16 480 14 14 (1505280)
I0506 16:22:11.535218  2784 net.cpp:157] Top shape: 16 480 14 14 (1505280)
I0506 16:22:11.535224  2784 net.cpp:157] Top shape: 16 480 14 14 (1505280)
I0506 16:22:11.535230  2784 net.cpp:157] Top shape: 16 480 14 14 (1505280)
I0506 16:22:11.535234  2784 net.cpp:165] Memory required for data: 569598592
I0506 16:22:11.535239  2784 layer_factory.hpp:77] Creating layer inception_4a/1x1
I0506 16:22:11.535250  2784 net.cpp:106] Creating Layer inception_4a/1x1
I0506 16:22:11.535256  2784 net.cpp:454] inception_4a/1x1 <- pool3/3x3_s2_pool3/3x3_s2_0_split_0
I0506 16:22:11.535265  2784 net.cpp:411] inception_4a/1x1 -> inception_4a/1x1
I0506 16:22:11.536921  2784 net.cpp:150] Setting up inception_4a/1x1
I0506 16:22:11.536936  2784 net.cpp:157] Top shape: 16 192 14 14 (602112)
I0506 16:22:11.536941  2784 net.cpp:165] Memory required for data: 572007040
I0506 16:22:11.536949  2784 layer_factory.hpp:77] Creating layer inception_4a/relu_1x1
I0506 16:22:11.536958  2784 net.cpp:106] Creating Layer inception_4a/relu_1x1
I0506 16:22:11.536964  2784 net.cpp:454] inception_4a/relu_1x1 <- inception_4a/1x1
I0506 16:22:11.536972  2784 net.cpp:397] inception_4a/relu_1x1 -> inception_4a/1x1 (in-place)
I0506 16:22:11.537144  2784 net.cpp:150] Setting up inception_4a/relu_1x1
I0506 16:22:11.537154  2784 net.cpp:157] Top shape: 16 192 14 14 (602112)
I0506 16:22:11.537159  2784 net.cpp:165] Memory required for data: 574415488
I0506 16:22:11.537164  2784 layer_factory.hpp:77] Creating layer inception_4a/3x3_reduce
I0506 16:22:11.537176  2784 net.cpp:106] Creating Layer inception_4a/3x3_reduce
I0506 16:22:11.537183  2784 net.cpp:454] inception_4a/3x3_reduce <- pool3/3x3_s2_pool3/3x3_s2_0_split_1
I0506 16:22:11.537191  2784 net.cpp:411] inception_4a/3x3_reduce -> inception_4a/3x3_reduce
I0506 16:22:11.538485  2784 net.cpp:150] Setting up inception_4a/3x3_reduce
I0506 16:22:11.538498  2784 net.cpp:157] Top shape: 16 96 14 14 (301056)
I0506 16:22:11.538503  2784 net.cpp:165] Memory required for data: 575619712
I0506 16:22:11.538521  2784 layer_factory.hpp:77] Creating layer inception_4a/relu_3x3_reduce
I0506 16:22:11.538528  2784 net.cpp:106] Creating Layer inception_4a/relu_3x3_reduce
I0506 16:22:11.538533  2784 net.cpp:454] inception_4a/relu_3x3_reduce <- inception_4a/3x3_reduce
I0506 16:22:11.538542  2784 net.cpp:397] inception_4a/relu_3x3_reduce -> inception_4a/3x3_reduce (in-place)
I0506 16:22:11.538812  2784 net.cpp:150] Setting up inception_4a/relu_3x3_reduce
I0506 16:22:11.538825  2784 net.cpp:157] Top shape: 16 96 14 14 (301056)
I0506 16:22:11.538831  2784 net.cpp:165] Memory required for data: 576823936
I0506 16:22:11.538836  2784 layer_factory.hpp:77] Creating layer inception_4a/3x3
I0506 16:22:11.538848  2784 net.cpp:106] Creating Layer inception_4a/3x3
I0506 16:22:11.538854  2784 net.cpp:454] inception_4a/3x3 <- inception_4a/3x3_reduce
I0506 16:22:11.538862  2784 net.cpp:411] inception_4a/3x3 -> inception_4a/3x3
I0506 16:22:11.540910  2784 net.cpp:150] Setting up inception_4a/3x3
I0506 16:22:11.540925  2784 net.cpp:157] Top shape: 16 208 14 14 (652288)
I0506 16:22:11.540931  2784 net.cpp:165] Memory required for data: 579433088
I0506 16:22:11.540943  2784 layer_factory.hpp:77] Creating layer inception_4a/relu_3x3
I0506 16:22:11.540956  2784 net.cpp:106] Creating Layer inception_4a/relu_3x3
I0506 16:22:11.540962  2784 net.cpp:454] inception_4a/relu_3x3 <- inception_4a/3x3
I0506 16:22:11.540969  2784 net.cpp:397] inception_4a/relu_3x3 -> inception_4a/3x3 (in-place)
I0506 16:22:11.541142  2784 net.cpp:150] Setting up inception_4a/relu_3x3
I0506 16:22:11.541152  2784 net.cpp:157] Top shape: 16 208 14 14 (652288)
I0506 16:22:11.541157  2784 net.cpp:165] Memory required for data: 582042240
I0506 16:22:11.541162  2784 layer_factory.hpp:77] Creating layer inception_4a/5x5_reduce
I0506 16:22:11.541174  2784 net.cpp:106] Creating Layer inception_4a/5x5_reduce
I0506 16:22:11.541179  2784 net.cpp:454] inception_4a/5x5_reduce <- pool3/3x3_s2_pool3/3x3_s2_0_split_2
I0506 16:22:11.541188  2784 net.cpp:411] inception_4a/5x5_reduce -> inception_4a/5x5_reduce
I0506 16:22:11.542214  2784 net.cpp:150] Setting up inception_4a/5x5_reduce
I0506 16:22:11.542227  2784 net.cpp:157] Top shape: 16 16 14 14 (50176)
I0506 16:22:11.542232  2784 net.cpp:165] Memory required for data: 582242944
I0506 16:22:11.542242  2784 layer_factory.hpp:77] Creating layer inception_4a/relu_5x5_reduce
I0506 16:22:11.542248  2784 net.cpp:106] Creating Layer inception_4a/relu_5x5_reduce
I0506 16:22:11.542254  2784 net.cpp:454] inception_4a/relu_5x5_reduce <- inception_4a/5x5_reduce
I0506 16:22:11.542261  2784 net.cpp:397] inception_4a/relu_5x5_reduce -> inception_4a/5x5_reduce (in-place)
I0506 16:22:11.542433  2784 net.cpp:150] Setting up inception_4a/relu_5x5_reduce
I0506 16:22:11.542444  2784 net.cpp:157] Top shape: 16 16 14 14 (50176)
I0506 16:22:11.542449  2784 net.cpp:165] Memory required for data: 582443648
I0506 16:22:11.542454  2784 layer_factory.hpp:77] Creating layer inception_4a/5x5
I0506 16:22:11.542466  2784 net.cpp:106] Creating Layer inception_4a/5x5
I0506 16:22:11.542471  2784 net.cpp:454] inception_4a/5x5 <- inception_4a/5x5_reduce
I0506 16:22:11.542481  2784 net.cpp:411] inception_4a/5x5 -> inception_4a/5x5
I0506 16:22:11.543594  2784 net.cpp:150] Setting up inception_4a/5x5
I0506 16:22:11.543611  2784 net.cpp:157] Top shape: 16 48 14 14 (150528)
I0506 16:22:11.543617  2784 net.cpp:165] Memory required for data: 583045760
I0506 16:22:11.543625  2784 layer_factory.hpp:77] Creating layer inception_4a/relu_5x5
I0506 16:22:11.543633  2784 net.cpp:106] Creating Layer inception_4a/relu_5x5
I0506 16:22:11.543638  2784 net.cpp:454] inception_4a/relu_5x5 <- inception_4a/5x5
I0506 16:22:11.543647  2784 net.cpp:397] inception_4a/relu_5x5 -> inception_4a/5x5 (in-place)
I0506 16:22:11.543917  2784 net.cpp:150] Setting up inception_4a/relu_5x5
I0506 16:22:11.543929  2784 net.cpp:157] Top shape: 16 48 14 14 (150528)
I0506 16:22:11.543934  2784 net.cpp:165] Memory required for data: 583647872
I0506 16:22:11.543941  2784 layer_factory.hpp:77] Creating layer inception_4a/pool
I0506 16:22:11.543947  2784 net.cpp:106] Creating Layer inception_4a/pool
I0506 16:22:11.543953  2784 net.cpp:454] inception_4a/pool <- pool3/3x3_s2_pool3/3x3_s2_0_split_3
I0506 16:22:11.543962  2784 net.cpp:411] inception_4a/pool -> inception_4a/pool
I0506 16:22:11.544008  2784 net.cpp:150] Setting up inception_4a/pool
I0506 16:22:11.544015  2784 net.cpp:157] Top shape: 16 480 14 14 (1505280)
I0506 16:22:11.544020  2784 net.cpp:165] Memory required for data: 589668992
I0506 16:22:11.544025  2784 layer_factory.hpp:77] Creating layer inception_4a/pool_proj
I0506 16:22:11.544037  2784 net.cpp:106] Creating Layer inception_4a/pool_proj
I0506 16:22:11.544044  2784 net.cpp:454] inception_4a/pool_proj <- inception_4a/pool
I0506 16:22:11.544051  2784 net.cpp:411] inception_4a/pool_proj -> inception_4a/pool_proj
I0506 16:22:11.545156  2784 net.cpp:150] Setting up inception_4a/pool_proj
I0506 16:22:11.545166  2784 net.cpp:157] Top shape: 16 64 14 14 (200704)
I0506 16:22:11.545169  2784 net.cpp:165] Memory required for data: 590471808
I0506 16:22:11.545174  2784 layer_factory.hpp:77] Creating layer inception_4a/relu_pool_proj
I0506 16:22:11.545183  2784 net.cpp:106] Creating Layer inception_4a/relu_pool_proj
I0506 16:22:11.545197  2784 net.cpp:454] inception_4a/relu_pool_proj <- inception_4a/pool_proj
I0506 16:22:11.545204  2784 net.cpp:397] inception_4a/relu_pool_proj -> inception_4a/pool_proj (in-place)
I0506 16:22:11.545344  2784 net.cpp:150] Setting up inception_4a/relu_pool_proj
I0506 16:22:11.545356  2784 net.cpp:157] Top shape: 16 64 14 14 (200704)
I0506 16:22:11.545362  2784 net.cpp:165] Memory required for data: 591274624
I0506 16:22:11.545367  2784 layer_factory.hpp:77] Creating layer inception_4a/output
I0506 16:22:11.545375  2784 net.cpp:106] Creating Layer inception_4a/output
I0506 16:22:11.545378  2784 net.cpp:454] inception_4a/output <- inception_4a/1x1
I0506 16:22:11.545382  2784 net.cpp:454] inception_4a/output <- inception_4a/3x3
I0506 16:22:11.545387  2784 net.cpp:454] inception_4a/output <- inception_4a/5x5
I0506 16:22:11.545390  2784 net.cpp:454] inception_4a/output <- inception_4a/pool_proj
I0506 16:22:11.545394  2784 net.cpp:411] inception_4a/output -> inception_4a/output
I0506 16:22:11.545421  2784 net.cpp:150] Setting up inception_4a/output
I0506 16:22:11.545428  2784 net.cpp:157] Top shape: 16 512 14 14 (1605632)
I0506 16:22:11.545431  2784 net.cpp:165] Memory required for data: 597697152
I0506 16:22:11.545436  2784 layer_factory.hpp:77] Creating layer inception_4a/output_inception_4a/output_0_split
I0506 16:22:11.545444  2784 net.cpp:106] Creating Layer inception_4a/output_inception_4a/output_0_split
I0506 16:22:11.545447  2784 net.cpp:454] inception_4a/output_inception_4a/output_0_split <- inception_4a/output
I0506 16:22:11.545454  2784 net.cpp:411] inception_4a/output_inception_4a/output_0_split -> inception_4a/output_inception_4a/output_0_split_0
I0506 16:22:11.545459  2784 net.cpp:411] inception_4a/output_inception_4a/output_0_split -> inception_4a/output_inception_4a/output_0_split_1
I0506 16:22:11.545465  2784 net.cpp:411] inception_4a/output_inception_4a/output_0_split -> inception_4a/output_inception_4a/output_0_split_2
I0506 16:22:11.545469  2784 net.cpp:411] inception_4a/output_inception_4a/output_0_split -> inception_4a/output_inception_4a/output_0_split_3
I0506 16:22:11.545475  2784 net.cpp:411] inception_4a/output_inception_4a/output_0_split -> inception_4a/output_inception_4a/output_0_split_4
I0506 16:22:11.545528  2784 net.cpp:150] Setting up inception_4a/output_inception_4a/output_0_split
I0506 16:22:11.545532  2784 net.cpp:157] Top shape: 16 512 14 14 (1605632)
I0506 16:22:11.545536  2784 net.cpp:157] Top shape: 16 512 14 14 (1605632)
I0506 16:22:11.545541  2784 net.cpp:157] Top shape: 16 512 14 14 (1605632)
I0506 16:22:11.545543  2784 net.cpp:157] Top shape: 16 512 14 14 (1605632)
I0506 16:22:11.545547  2784 net.cpp:157] Top shape: 16 512 14 14 (1605632)
I0506 16:22:11.545549  2784 net.cpp:165] Memory required for data: 629809792
I0506 16:22:11.545552  2784 layer_factory.hpp:77] Creating layer loss1/ave_pool
I0506 16:22:11.545557  2784 net.cpp:106] Creating Layer loss1/ave_pool
I0506 16:22:11.545562  2784 net.cpp:454] loss1/ave_pool <- inception_4a/output_inception_4a/output_0_split_0
I0506 16:22:11.545565  2784 net.cpp:411] loss1/ave_pool -> loss1/ave_pool
I0506 16:22:11.545804  2784 net.cpp:150] Setting up loss1/ave_pool
I0506 16:22:11.545815  2784 net.cpp:157] Top shape: 16 512 4 4 (131072)
I0506 16:22:11.545819  2784 net.cpp:165] Memory required for data: 630334080
I0506 16:22:11.545824  2784 layer_factory.hpp:77] Creating layer loss1/conv
I0506 16:22:11.545835  2784 net.cpp:106] Creating Layer loss1/conv
I0506 16:22:11.545838  2784 net.cpp:454] loss1/conv <- loss1/ave_pool
I0506 16:22:11.545845  2784 net.cpp:411] loss1/conv -> loss1/conv
I0506 16:22:11.547107  2784 net.cpp:150] Setting up loss1/conv
I0506 16:22:11.547122  2784 net.cpp:157] Top shape: 16 128 4 4 (32768)
I0506 16:22:11.547127  2784 net.cpp:165] Memory required for data: 630465152
I0506 16:22:11.547134  2784 layer_factory.hpp:77] Creating layer loss1/relu_conv
I0506 16:22:11.547142  2784 net.cpp:106] Creating Layer loss1/relu_conv
I0506 16:22:11.547152  2784 net.cpp:454] loss1/relu_conv <- loss1/conv
I0506 16:22:11.547164  2784 net.cpp:397] loss1/relu_conv -> loss1/conv (in-place)
I0506 16:22:11.547435  2784 net.cpp:150] Setting up loss1/relu_conv
I0506 16:22:11.547446  2784 net.cpp:157] Top shape: 16 128 4 4 (32768)
I0506 16:22:11.547452  2784 net.cpp:165] Memory required for data: 630596224
I0506 16:22:11.547457  2784 layer_factory.hpp:77] Creating layer loss1/fc
I0506 16:22:11.547467  2784 net.cpp:106] Creating Layer loss1/fc
I0506 16:22:11.547472  2784 net.cpp:454] loss1/fc <- loss1/conv
I0506 16:22:11.547482  2784 net.cpp:411] loss1/fc -> loss1/fc
I0506 16:22:11.563797  2784 net.cpp:150] Setting up loss1/fc
I0506 16:22:11.563830  2784 net.cpp:157] Top shape: 16 1024 (16384)
I0506 16:22:11.563837  2784 net.cpp:165] Memory required for data: 630661760
I0506 16:22:11.563849  2784 layer_factory.hpp:77] Creating layer loss1/relu_fc
I0506 16:22:11.563863  2784 net.cpp:106] Creating Layer loss1/relu_fc
I0506 16:22:11.563869  2784 net.cpp:454] loss1/relu_fc <- loss1/fc
I0506 16:22:11.563879  2784 net.cpp:397] loss1/relu_fc -> loss1/fc (in-place)
I0506 16:22:11.564121  2784 net.cpp:150] Setting up loss1/relu_fc
I0506 16:22:11.564131  2784 net.cpp:157] Top shape: 16 1024 (16384)
I0506 16:22:11.564136  2784 net.cpp:165] Memory required for data: 630727296
I0506 16:22:11.564141  2784 layer_factory.hpp:77] Creating layer loss1/drop_fc
I0506 16:22:11.564158  2784 net.cpp:106] Creating Layer loss1/drop_fc
I0506 16:22:11.564164  2784 net.cpp:454] loss1/drop_fc <- loss1/fc
I0506 16:22:11.564172  2784 net.cpp:397] loss1/drop_fc -> loss1/fc (in-place)
I0506 16:22:11.564208  2784 net.cpp:150] Setting up loss1/drop_fc
I0506 16:22:11.564215  2784 net.cpp:157] Top shape: 16 1024 (16384)
I0506 16:22:11.564220  2784 net.cpp:165] Memory required for data: 630792832
I0506 16:22:11.564226  2784 layer_factory.hpp:77] Creating layer loss1/classifier
I0506 16:22:11.564236  2784 net.cpp:106] Creating Layer loss1/classifier
I0506 16:22:11.564241  2784 net.cpp:454] loss1/classifier <- loss1/fc
I0506 16:22:11.564249  2784 net.cpp:411] loss1/classifier -> loss1/classifier
I0506 16:22:11.570214  2784 net.cpp:150] Setting up loss1/classifier
I0506 16:22:11.570225  2784 net.cpp:157] Top shape: 16 1000 (16000)
I0506 16:22:11.570227  2784 net.cpp:165] Memory required for data: 630856832
I0506 16:22:11.570233  2784 layer_factory.hpp:77] Creating layer loss1/classifier_loss1/classifier_0_split
I0506 16:22:11.570238  2784 net.cpp:106] Creating Layer loss1/classifier_loss1/classifier_0_split
I0506 16:22:11.570242  2784 net.cpp:454] loss1/classifier_loss1/classifier_0_split <- loss1/classifier
I0506 16:22:11.570247  2784 net.cpp:411] loss1/classifier_loss1/classifier_0_split -> loss1/classifier_loss1/classifier_0_split_0
I0506 16:22:11.570260  2784 net.cpp:411] loss1/classifier_loss1/classifier_0_split -> loss1/classifier_loss1/classifier_0_split_1
I0506 16:22:11.570264  2784 net.cpp:411] loss1/classifier_loss1/classifier_0_split -> loss1/classifier_loss1/classifier_0_split_2
I0506 16:22:11.570302  2784 net.cpp:150] Setting up loss1/classifier_loss1/classifier_0_split
I0506 16:22:11.570307  2784 net.cpp:157] Top shape: 16 1000 (16000)
I0506 16:22:11.570309  2784 net.cpp:157] Top shape: 16 1000 (16000)
I0506 16:22:11.570313  2784 net.cpp:157] Top shape: 16 1000 (16000)
I0506 16:22:11.570315  2784 net.cpp:165] Memory required for data: 631048832
I0506 16:22:11.570318  2784 layer_factory.hpp:77] Creating layer loss1/loss
I0506 16:22:11.570324  2784 net.cpp:106] Creating Layer loss1/loss
I0506 16:22:11.570327  2784 net.cpp:454] loss1/loss <- loss1/classifier_loss1/classifier_0_split_0
I0506 16:22:11.570332  2784 net.cpp:454] loss1/loss <- label_data_1_split_0
…
I0506 16:22:11.570756  2784 net.cpp:150] Setting up loss1/top-5
I0506 16:22:11.570760  2784 net.cpp:157] Top shape: (1)
I0506 16:22:11.570763  2784 net.cpp:165] Memory required for data: 631048844
I0506 16:22:11.570766  2784 layer_factory.hpp:77] Creating layer inception_4b/1x1
I0506 16:22:11.570775  2784 net.cpp:106] Creating Layer inception_4b/1x1
I0506 16:22:11.570778  2784 net.cpp:454] inception_4b/1x1 <- inception_4a/output_inception_4a/output_0_split_1
I0506 16:22:11.570785  2784 net.cpp:411] inception_4b/1x1 -> inception_4b/1x1
I0506 16:22:11.571954  2784 net.cpp:150] Setting up inception_4b/1x1
I0506 16:22:11.571965  2784 net.cpp:157] Top shape: 16 160 14 14 (501760)
I0506 16:22:11.571969  2784 net.cpp:165] Memory required for data: 633055884
I0506 16:22:11.571974  2784 layer_factory.hpp:77] Creating layer inception_4b/relu_1x1
I0506 16:22:11.571980  2784 net.cpp:106] Creating Layer inception_4b/relu_1x1
I0506 16:22:11.571984  2784 net.cpp:454] inception_4b/relu_1x1 <- inception_4b/1x1
I0506 16:22:11.571990  2784 net.cpp:397] inception_4b/relu_1x1 -> inception_4b/1x1 (in-place)
I0506 16:22:11.572113  2784 net.cpp:150] Setting up inception_4b/relu_1x1
I0506 16:22:11.572120  2784 net.cpp:157] Top shape: 16 160 14 14 (501760)
I0506 16:22:11.572124  2784 net.cpp:165] Memory required for data: 635062924
I0506 16:22:11.572126  2784 layer_factory.hpp:77] Creating layer inception_4b/3x3_reduce
I0506 16:22:11.572134  2784 net.cpp:106] Creating Layer inception_4b/3x3_reduce
I0506 16:22:11.572137  2784 net.cpp:454] inception_4b/3x3_reduce <- inception_4a/output_inception_4a/output_0_split_2
I0506 16:22:11.572144  2784 net.cpp:411] inception_4b/3x3_reduce -> inception_4b/3x3_reduce
I0506 16:22:11.573400  2784 net.cpp:150] Setting up inception_4b/3x3_reduce
I0506 16:22:11.573410  2784 net.cpp:157] Top shape: 16 112 14 14 (351232)
I0506 16:22:11.573412  2784 net.cpp:165] Memory required for data: 636467852
I0506 16:22:11.573417  2784 layer_factory.hpp:77] Creating layer inception_4b/relu_3x3_reduce
I0506 16:22:11.573423  2784 net.cpp:106] Creating Layer inception_4b/relu_3x3_reduce
I0506 16:22:11.573427  2784 net.cpp:454] inception_4b/relu_3x3_reduce <- inception_4b/3x3_reduce
I0506 16:22:11.573432  2784 net.cpp:397] inception_4b/relu_3x3_reduce -> inception_4b/3x3_reduce (in-place)
I0506 16:22:11.573634  2784 net.cpp:150] Setting up inception_4b/relu_3x3_reduce
I0506 16:22:11.573643  2784 net.cpp:157] Top shape: 16 112 14 14 (351232)
I0506 16:22:11.573647  2784 net.cpp:165] Memory required for data: 637872780
I0506 16:22:11.573650  2784 layer_factory.hpp:77] Creating layer inception_4b/3x3
I0506 16:22:11.573658  2784 net.cpp:106] Creating Layer inception_4b/3x3
I0506 16:22:11.573662  2784 net.cpp:454] inception_4b/3x3 <- inception_4b/3x3_reduce
I0506 16:22:11.573668  2784 net.cpp:411] inception_4b/3x3 -> inception_4b/3x3
I0506 16:22:11.575640  2784 net.cpp:150] Setting up inception_4b/3x3
I0506 16:22:11.575654  2784 net.cpp:157] Top shape: 16 224 14 14 (702464)
I0506 16:22:11.575660  2784 net.cpp:165] Memory required for data: 640682636
I0506 16:22:11.575671  2784 layer_factory.hpp:77] Creating layer inception_4b/relu_3x3
I0506 16:22:11.575676  2784 net.cpp:106] Creating Layer inception_4b/relu_3x3
I0506 16:22:11.575680  2784 net.cpp:454] inception_4b/relu_3x3 <- inception_4b/3x3
I0506 16:22:11.575686  2784 net.cpp:397] inception_4b/relu_3x3 -> inception_4b/3x3 (in-place)
I0506 16:22:11.575888  2784 net.cpp:150] Setting up inception_4b/relu_3x3
I0506 16:22:11.575897  2784 net.cpp:157] Top shape: 16 224 14 14 (702464)
I0506 16:22:11.575901  2784 net.cpp:165] Memory required for data: 643492492
I0506 16:22:11.575903  2784 layer_factory.hpp:77] Creating layer inception_4b/5x5_reduce
I0506 16:22:11.575911  2784 net.cpp:106] Creating Layer inception_4b/5x5_reduce
I0506 16:22:11.575916  2784 net.cpp:454] inception_4b/5x5_reduce <- inception_4a/output_inception_4a/output_0_split_3
I0506 16:22:11.575922  2784 net.cpp:411] inception_4b/5x5_reduce -> inception_4b/5x5_reduce
I0506 16:22:11.576696  2784 net.cpp:150] Setting up inception_4b/5x5_reduce
I0506 16:22:11.576706  2784 net.cpp:157] Top shape: 16 24 14 14 (75264)
I0506 16:22:11.576709  2784 net.cpp:165] Memory required for data: 643793548
I0506 16:22:11.576715  2784 layer_factory.hpp:77] Creating layer inception_4b/relu_5x5_reduce
I0506 16:22:11.576721  2784 net.cpp:106] Creating Layer inception_4b/relu_5x5_reduce
I0506 16:22:11.576725  2784 net.cpp:454] inception_4b/relu_5x5_reduce <- inception_4b/5x5_reduce
I0506 16:22:11.576730  2784 net.cpp:397] inception_4b/relu_5x5_reduce -> inception_4b/5x5_reduce (in-place)
I0506 16:22:11.576853  2784 net.cpp:150] Setting up inception_4b/relu_5x5_reduce
I0506 16:22:11.576859  2784 net.cpp:157] Top shape: 16 24 14 14 (75264)
I0506 16:22:11.576863  2784 net.cpp:165] Memory required for data: 644094604
I0506 16:22:11.576865  2784 layer_factory.hpp:77] Creating layer inception_4b/5x5
I0506 16:22:11.576874  2784 net.cpp:106] Creating Layer inception_4b/5x5
I0506 16:22:11.576877  2784 net.cpp:454] inception_4b/5x5 <- inception_4b/5x5_reduce
I0506 16:22:11.576882  2784 net.cpp:411] inception_4b/5x5 -> inception_4b/5x5
I0506 16:22:11.577782  2784 net.cpp:150] Setting up inception_4b/5x5
I0506 16:22:11.577792  2784 net.cpp:157] Top shape: 16 64 14 14 (200704)
I0506 16:22:11.577795  2784 net.cpp:165] Memory required for data: 644897420
I0506 16:22:11.577801  2784 layer_factory.hpp:77] Creating layer inception_4b/relu_5x5
I0506 16:22:11.577806  2784 net.cpp:106] Creating Layer inception_4b/relu_5x5
I0506 16:22:11.577810  2784 net.cpp:454] inception_4b/relu_5x5 <- inception_4b/5x5
I0506 16:22:11.577814  2784 net.cpp:397] inception_4b/relu_5x5 -> inception_4b/5x5 (in-place)
I0506 16:22:11.578014  2784 net.cpp:150] Setting up inception_4b/relu_5x5
I0506 16:22:11.578023  2784 net.cpp:157] Top shape: 16 64 14 14 (200704)
I0506 16:22:11.578027  2784 net.cpp:165] Memory required for data: 645700236
I0506 16:22:11.578030  2784 layer_factory.hpp:77] Creating layer inception_4b/pool
I0506 16:22:11.578037  2784 net.cpp:106] Creating Layer inception_4b/pool
I0506 16:22:11.578039  2784 net.cpp:454] inception_4b/pool <- inception_4a/output_inception_4a/output_0_split_4
I0506 16:22:11.578044  2784 net.cpp:411] inception_4b/pool -> inception_4b/pool
I0506 16:22:11.578081  2784 net.cpp:150] Setting up inception_4b/pool
I0506 16:22:11.578086  2784 net.cpp:157] Top shape: 16 512 14 14 (1605632)
I0506 16:22:11.578088  2784 net.cpp:165] Memory required for data: 652122764
I0506 16:22:11.578091  2784 layer_factory.hpp:77] Creating layer inception_4b/pool_proj
I0506 16:22:11.578099  2784 net.cpp:106] Creating Layer inception_4b/pool_proj
I0506 16:22:11.578102  2784 net.cpp:454] inception_4b/pool_proj <- inception_4b/pool
I0506 16:22:11.578109  2784 net.cpp:411] inception_4b/pool_proj -> inception_4b/pool_proj
I0506 16:22:11.578995  2784 net.cpp:150] Setting up inception_4b/pool_proj
I0506 16:22:11.579005  2784 net.cpp:157] Top shape: 16 64 14 14 (200704)
I0506 16:22:11.579008  2784 net.cpp:165] Memory required for data: 652925580
I0506 16:22:11.579016  2784 layer_factory.hpp:77] Creating layer inception_4b/relu_pool_proj
I0506 16:22:11.579025  2784 net.cpp:106] Creating Layer inception_4b/relu_pool_proj
I0506 16:22:11.579030  2784 net.cpp:454] inception_4b/relu_pool_proj <- inception_4b/pool_proj
I0506 16:22:11.579033  2784 net.cpp:397] inception_4b/relu_pool_proj -> inception_4b/pool_proj (in-place)
I0506 16:22:11.579257  2784 net.cpp:150] Setting up inception_4b/relu_pool_proj
I0506 16:22:11.579267  2784 net.cpp:157] Top shape: 16 64 14 14 (200704)
I0506 16:22:11.579270  2784 net.cpp:165] Memory required for data: 653728396
I0506 16:22:11.579273  2784 layer_factory.hpp:77] Creating layer inception_4b/output
I0506 16:22:11.579278  2784 net.cpp:106] Creating Layer inception_4b/output
I0506 16:22:11.579282  2784 net.cpp:454] inception_4b/output <- inception_4b/1x1
I0506 16:22:11.579287  2784 net.cpp:454] inception_4b/output <- inception_4b/3x3
I0506 16:22:11.579290  2784 net.cpp:454] inception_4b/output <- inception_4b/5x5
I0506 16:22:11.579294  2784 net.cpp:454] inception_4b/output <- inception_4b/pool_proj
I0506 16:22:11.579298  2784 net.cpp:411] inception_4b/output -> inception_4b/output
I0506 16:22:11.579321  2784 net.cpp:150] Setting up inception_4b/output
I0506 16:22:11.579326  2784 net.cpp:157] Top shape: 16 512 14 14 (1605632)
I0506 16:22:11.579329  2784 net.cpp:165] Memory required for data: 660150924
I0506 16:22:11.579332  2784 layer_factory.hpp:77] Creating layer inception_4b/output_inception_4b/output_0_split
I0506 16:22:11.579337  2784 net.cpp:106] Creating Layer inception_4b/output_inception_4b/output_0_split
I0506 16:22:11.579340  2784 net.cpp:454] inception_4b/output_inception_4b/output_0_split <- inception_4b/output
I0506 16:22:11.579344  2784 net.cpp:411] inception_4b/output_inception_4b/output_0_split -> inception_4b/output_inception_4b/output_0_split_0
I0506 16:22:11.579350  2784 net.cpp:411] inception_4b/output_inception_4b/output_0_split -> inception_4b/output_inception_4b/output_0_split_1
I0506 16:22:11.579355  2784 net.cpp:411] inception_4b/output_inception_4b/output_0_split -> inception_4b/output_inception_4b/output_0_split_2
I0506 16:22:11.579360  2784 net.cpp:411] inception_4b/output_inception_4b/output_0_split -> inception_4b/output_inception_4b/output_0_split_3
I0506 16:22:11.579404  2784 net.cpp:150] Setting up inception_4b/output_inception_4b/output_0_split
I0506 16:22:11.579409  2784 net.cpp:157] Top shape: 16 512 14 14 (1605632)
I0506 16:22:11.579412  2784 net.cpp:157] Top shape: 16 512 14 14 (1605632)
I0506 16:22:11.579416  2784 net.cpp:157] Top shape: 16 512 14 14 (1605632)
I0506 16:22:11.579419  2784 net.cpp:157] Top shape: 16 512 14 14 (1605632)
I0506 16:22:11.579422  2784 net.cpp:165] Memory required for data: 685841036
I0506 16:22:11.579426  2784 layer_factory.hpp:77] Creating layer inception_4c/1x1
I0506 16:22:11.579432  2784 net.cpp:106] Creating Layer inception_4c/1x1
I0506 16:22:11.579435  2784 net.cpp:454] inception_4c/1x1 <- inception_4b/output_inception_4b/output_0_split_0
I0506 16:22:11.579442  2784 net.cpp:411] inception_4c/1x1 -> inception_4c/1x1
I0506 16:22:11.580482  2784 net.cpp:150] Setting up inception_4c/1x1
I0506 16:22:11.580492  2784 net.cpp:157] Top shape: 16 128 14 14 (401408)
I0506 16:22:11.580495  2784 net.cpp:165] Memory required for data: 687446668
I0506 16:22:11.580502  2784 layer_factory.hpp:77] Creating layer inception_4c/relu_1x1
I0506 16:22:11.580505  2784 net.cpp:106] Creating Layer inception_4c/relu_1x1
I0506 16:22:11.580509  2784 net.cpp:454] inception_4c/relu_1x1 <- inception_4c/1x1
I0506 16:22:11.580514  2784 net.cpp:397] inception_4c/relu_1x1 -> inception_4c/1x1 (in-place)
I0506 16:22:11.580636  2784 net.cpp:150] Setting up inception_4c/relu_1x1
I0506 16:22:11.580642  2784 net.cpp:157] Top shape: 16 128 14 14 (401408)
I0506 16:22:11.580646  2784 net.cpp:165] Memory required for data: 689052300
I0506 16:22:11.580648  2784 layer_factory.hpp:77] Creating layer inception_4c/3x3_reduce
I0506 16:22:11.580657  2784 net.cpp:106] Creating Layer inception_4c/3x3_reduce
I0506 16:22:11.580662  2784 net.cpp:454] inception_4c/3x3_reduce <- inception_4b/output_inception_4b/output_0_split_1
I0506 16:22:11.580672  2784 net.cpp:411] inception_4c/3x3_reduce -> inception_4c/3x3_reduce
I0506 16:22:11.581715  2784 net.cpp:150] Setting up inception_4c/3x3_reduce
I0506 16:22:11.581724  2784 net.cpp:157] Top shape: 16 128 14 14 (401408)
I0506 16:22:11.581728  2784 net.cpp:165] Memory required for data: 690657932
I0506 16:22:11.581733  2784 layer_factory.hpp:77] Creating layer inception_4c/relu_3x3_reduce
I0506 16:22:11.581739  2784 net.cpp:106] Creating Layer inception_4c/relu_3x3_reduce
I0506 16:22:11.581743  2784 net.cpp:454] inception_4c/relu_3x3_reduce <- inception_4c/3x3_reduce
I0506 16:22:11.581748  2784 net.cpp:397] inception_4c/relu_3x3_reduce -> inception_4c/3x3_reduce (in-place)
I0506 16:22:11.581948  2784 net.cpp:150] Setting up inception_4c/relu_3x3_reduce
I0506 16:22:11.581959  2784 net.cpp:157] Top shape: 16 128 14 14 (401408)
I0506 16:22:11.581962  2784 net.cpp:165] Memory required for data: 692263564
I0506 16:22:11.581965  2784 layer_factory.hpp:77] Creating layer inception_4c/3x3
I0506 16:22:11.581974  2784 net.cpp:106] Creating Layer inception_4c/3x3
I0506 16:22:11.581979  2784 net.cpp:454] inception_4c/3x3 <- inception_4c/3x3_reduce
I0506 16:22:11.581984  2784 net.cpp:411] inception_4c/3x3 -> inception_4c/3x3
I0506 16:22:11.584331  2784 net.cpp:150] Setting up inception_4c/3x3
I0506 16:22:11.584342  2784 net.cpp:157] Top shape: 16 256 14 14 (802816)
I0506 16:22:11.584345  2784 net.cpp:165] Memory required for data: 695474828
I0506 16:22:11.584360  2784 layer_factory.hpp:77] Creating layer inception_4c/relu_3x3
I0506 16:22:11.584367  2784 net.cpp:106] Creating Layer inception_4c/relu_3x3
I0506 16:22:11.584370  2784 net.cpp:454] inception_4c/relu_3x3 <- inception_4c/3x3
I0506 16:22:11.584375  2784 net.cpp:397] inception_4c/relu_3x3 -> inception_4c/3x3 (in-place)
I0506 16:22:11.584578  2784 net.cpp:150] Setting up inception_4c/relu_3x3
I0506 16:22:11.584588  2784 net.cpp:157] Top shape: 16 256 14 14 (802816)
I0506 16:22:11.584590  2784 net.cpp:165] Memory required for data: 698686092
I0506 16:22:11.584594  2784 layer_factory.hpp:77] Creating layer inception_4c/5x5_reduce
I0506 16:22:11.584601  2784 net.cpp:106] Creating Layer inception_4c/5x5_reduce
I0506 16:22:11.584605  2784 net.cpp:454] inception_4c/5x5_reduce <- inception_4b/output_inception_4b/output_0_split_2
I0506 16:22:11.584611  2784 net.cpp:411] inception_4c/5x5_reduce -> inception_4c/5x5_reduce
I0506 16:22:11.585408  2784 net.cpp:150] Setting up inception_4c/5x5_reduce
I0506 16:22:11.585418  2784 net.cpp:157] Top shape: 16 24 14 14 (75264)
I0506 16:22:11.585422  2784 net.cpp:165] Memory required for data: 698987148
I0506 16:22:11.585427  2784 layer_factory.hpp:77] Creating layer inception_4c/relu_5x5_reduce
I0506 16:22:11.585433  2784 net.cpp:106] Creating Layer inception_4c/relu_5x5_reduce
I0506 16:22:11.585436  2784 net.cpp:454] inception_4c/relu_5x5_reduce <- inception_4c/5x5_reduce
I0506 16:22:11.585440  2784 net.cpp:397] inception_4c/relu_5x5_reduce -> inception_4c/5x5_reduce (in-place)
I0506 16:22:11.585564  2784 net.cpp:150] Setting up inception_4c/relu_5x5_reduce
I0506 16:22:11.585572  2784 net.cpp:157] Top shape: 16 24 14 14 (75264)
I0506 16:22:11.585574  2784 net.cpp:165] Memory required for data: 699288204
I0506 16:22:11.585577  2784 layer_factory.hpp:77] Creating layer inception_4c/5x5
I0506 16:22:11.585585  2784 net.cpp:106] Creating Layer inception_4c/5x5
I0506 16:22:11.585589  2784 net.cpp:454] inception_4c/5x5 <- inception_4c/5x5_reduce
I0506 16:22:11.585594  2784 net.cpp:411] inception_4c/5x5 -> inception_4c/5x5
I0506 16:22:11.586765  2784 net.cpp:150] Setting up inception_4c/5x5
I0506 16:22:11.586776  2784 net.cpp:157] Top shape: 16 64 14 14 (200704)
I0506 16:22:11.586781  2784 net.cpp:165] Memory required for data: 700091020
I0506 16:22:11.586786  2784 layer_factory.hpp:77] Creating layer inception_4c/relu_5x5
I0506 16:22:11.586791  2784 net.cpp:106] Creating Layer inception_4c/relu_5x5
I0506 16:22:11.586794  2784 net.cpp:454] inception_4c/relu_5x5 <- inception_4c/5x5
I0506 16:22:11.586805  2784 net.cpp:397] inception_4c/relu_5x5 -> inception_4c/5x5 (in-place)
I0506 16:22:11.587012  2784 net.cpp:150] Setting up inception_4c/relu_5x5
I0506 16:22:11.587019  2784 net.cpp:157] Top shape: 16 64 14 14 (200704)
I0506 16:22:11.587023  2784 net.cpp:165] Memory required for data: 700893836
I0506 16:22:11.587026  2784 layer_factory.hpp:77] Creating layer inception_4c/pool
I0506 16:22:11.587031  2784 net.cpp:106] Creating Layer inception_4c/pool
I0506 16:22:11.587034  2784 net.cpp:454] inception_4c/pool <- inception_4b/output_inception_4b/output_0_split_3
I0506 16:22:11.587040  2784 net.cpp:411] inception_4c/pool -> inception_4c/pool
I0506 16:22:11.587077  2784 net.cpp:150] Setting up inception_4c/pool
I0506 16:22:11.587082  2784 net.cpp:157] Top shape: 16 512 14 14 (1605632)
I0506 16:22:11.587085  2784 net.cpp:165] Memory required for data: 707316364
I0506 16:22:11.587087  2784 layer_factory.hpp:77] Creating layer inception_4c/pool_proj
I0506 16:22:11.587095  2784 net.cpp:106] Creating Layer inception_4c/pool_proj
I0506 16:22:11.587100  2784 net.cpp:454] inception_4c/pool_proj <- inception_4c/pool
I0506 16:22:11.587105  2784 net.cpp:411] inception_4c/pool_proj -> inception_4c/pool_proj
I0506 16:22:11.587920  2784 net.cpp:150] Setting up inception_4c/pool_proj
I0506 16:22:11.587930  2784 net.cpp:157] Top shape: 16 64 14 14 (200704)
I0506 16:22:11.587934  2784 net.cpp:165] Memory required for data: 708119180
I0506 16:22:11.587939  2784 layer_factory.hpp:77] Creating layer inception_4c/relu_pool_proj
I0506 16:22:11.587945  2784 net.cpp:106] Creating Layer inception_4c/relu_pool_proj
I0506 16:22:11.587949  2784 net.cpp:454] inception_4c/relu_pool_proj <- inception_4c/pool_proj
I0506 16:22:11.587954  2784 net.cpp:397] inception_4c/relu_pool_proj -> inception_4c/pool_proj (in-place)
I0506 16:22:11.588165  2784 net.cpp:150] Setting up inception_4c/relu_pool_proj
I0506 16:22:11.588174  2784 net.cpp:157] Top shape: 16 64 14 14 (200704)
I0506 16:22:11.588177  2784 net.cpp:165] Memory required for data: 708921996
I0506 16:22:11.588181  2784 layer_factory.hpp:77] Creating layer inception_4c/output
I0506 16:22:11.588186  2784 net.cpp:106] Creating Layer inception_4c/output
I0506 16:22:11.588189  2784 net.cpp:454] inception_4c/output <- inception_4c/1x1
I0506 16:22:11.588193  2784 net.cpp:454] inception_4c/output <- inception_4c/3x3
I0506 16:22:11.588197  2784 net.cpp:454] inception_4c/output <- inception_4c/5x5
I0506 16:22:11.588201  2784 net.cpp:454] inception_4c/output <- inception_4c/pool_proj
I0506 16:22:11.588206  2784 net.cpp:411] inception_4c/output -> inception_4c/output
I0506 16:22:11.588229  2784 net.cpp:150] Setting up inception_4c/output
I0506 16:22:11.588234  2784 net.cpp:157] Top shape: 16 512 14 14 (1605632)
I0506 16:22:11.588238  2784 net.cpp:165] Memory required for data: 715344524
I0506 16:22:11.588240  2784 layer_factory.hpp:77] Creating layer inception_4c/output_inception_4c/output_0_split
I0506 16:22:11.588246  2784 net.cpp:106] Creating Layer inception_4c/output_inception_4c/output_0_split
I0506 16:22:11.588249  2784 net.cpp:454] inception_4c/output_inception_4c/output_0_split <- inception_4c/output
I0506 16:22:11.588254  2784 net.cpp:411] inception_4c/output_inception_4c/output_0_split -> inception_4c/output_inception_4c/output_0_split_0
I0506 16:22:11.588259  2784 net.cpp:411] inception_4c/output_inception_4c/output_0_split -> inception_4c/output_inception_4c/output_0_split_1
I0506 16:22:11.588265  2784 net.cpp:411] inception_4c/output_inception_4c/output_0_split -> inception_4c/output_inception_4c/output_0_split_2
I0506 16:22:11.588270  2784 net.cpp:411] inception_4c/output_inception_4c/output_0_split -> inception_4c/output_inception_4c/output_0_split_3
I0506 16:22:11.588318  2784 net.cpp:150] Setting up inception_4c/output_inception_4c/output_0_split
I0506 16:22:11.588323  2784 net.cpp:157] Top shape: 16 512 14 14 (1605632)
I0506 16:22:11.588327  2784 net.cpp:157] Top shape: 16 512 14 14 (1605632)
I0506 16:22:11.588330  2784 net.cpp:157] Top shape: 16 512 14 14 (1605632)
I0506 16:22:11.588336  2784 net.cpp:157] Top shape: 16 512 14 14 (1605632)
I0506 16:22:11.588342  2784 net.cpp:165] Memory required for data: 741034636
I0506 16:22:11.588346  2784 layer_factory.hpp:77] Creating layer inception_4d/1x1
I0506 16:22:11.588353  2784 net.cpp:106] Creating Layer inception_4d/1x1
I0506 16:22:11.588356  2784 net.cpp:454] inception_4d/1x1 <- inception_4c/output_inception_4c/output_0_split_0
I0506 16:22:11.588362  2784 net.cpp:411] inception_4d/1x1 -> inception_4d/1x1
I0506 16:22:11.589365  2784 net.cpp:150] Setting up inception_4d/1x1
I0506 16:22:11.589375  2784 net.cpp:157] Top shape: 16 112 14 14 (351232)
I0506 16:22:11.589377  2784 net.cpp:165] Memory required for data: 742439564
I0506 16:22:11.589383  2784 layer_factory.hpp:77] Creating layer inception_4d/relu_1x1
I0506 16:22:11.589388  2784 net.cpp:106] Creating Layer inception_4d/relu_1x1
I0506 16:22:11.589391  2784 net.cpp:454] inception_4d/relu_1x1 <- inception_4d/1x1
I0506 16:22:11.589396  2784 net.cpp:397] inception_4d/relu_1x1 -> inception_4d/1x1 (in-place)
I0506 16:22:11.589524  2784 net.cpp:150] Setting up inception_4d/relu_1x1
I0506 16:22:11.589530  2784 net.cpp:157] Top shape: 16 112 14 14 (351232)
I0506 16:22:11.589534  2784 net.cpp:165] Memory required for data: 743844492
I0506 16:22:11.589537  2784 layer_factory.hpp:77] Creating layer inception_4d/3x3_reduce
I0506 16:22:11.589545  2784 net.cpp:106] Creating Layer inception_4d/3x3_reduce
I0506 16:22:11.589548  2784 net.cpp:454] inception_4d/3x3_reduce <- inception_4c/output_inception_4c/output_0_split_1
I0506 16:22:11.589553  2784 net.cpp:411] inception_4d/3x3_reduce -> inception_4d/3x3_reduce
I0506 16:22:11.590762  2784 net.cpp:150] Setting up inception_4d/3x3_reduce
I0506 16:22:11.590772  2784 net.cpp:157] Top shape: 16 144 14 14 (451584)
I0506 16:22:11.590775  2784 net.cpp:165] Memory required for data: 745650828
I0506 16:22:11.590780  2784 layer_factory.hpp:77] Creating layer inception_4d/relu_3x3_reduce
I0506 16:22:11.590786  2784 net.cpp:106] Creating Layer inception_4d/relu_3x3_reduce
I0506 16:22:11.590790  2784 net.cpp:454] inception_4d/relu_3x3_reduce <- inception_4d/3x3_reduce
I0506 16:22:11.590795  2784 net.cpp:397] inception_4d/relu_3x3_reduce -> inception_4d/3x3_reduce (in-place)
I0506 16:22:11.591006  2784 net.cpp:150] Setting up inception_4d/relu_3x3_reduce
I0506 16:22:11.591014  2784 net.cpp:157] Top shape: 16 144 14 14 (451584)
I0506 16:22:11.591018  2784 net.cpp:165] Memory required for data: 747457164
I0506 16:22:11.591022  2784 layer_factory.hpp:77] Creating layer inception_4d/3x3
I0506 16:22:11.591030  2784 net.cpp:106] Creating Layer inception_4d/3x3
I0506 16:22:11.591034  2784 net.cpp:454] inception_4d/3x3 <- inception_4d/3x3_reduce
I0506 16:22:11.591039  2784 net.cpp:411] inception_4d/3x3 -> inception_4d/3x3
I0506 16:22:11.593809  2784 net.cpp:150] Setting up inception_4d/3x3
I0506 16:22:11.593821  2784 net.cpp:157] Top shape: 16 288 14 14 (903168)
I0506 16:22:11.593823  2784 net.cpp:165] Memory required for data: 751069836
I0506 16:22:11.593829  2784 layer_factory.hpp:77] Creating layer inception_4d/relu_3x3
I0506 16:22:11.593834  2784 net.cpp:106] Creating Layer inception_4d/relu_3x3
I0506 16:22:11.593838  2784 net.cpp:454] inception_4d/relu_3x3 <- inception_4d/3x3
I0506 16:22:11.593843  2784 net.cpp:397] inception_4d/relu_3x3 -> inception_4d/3x3 (in-place)
I0506 16:22:11.594056  2784 net.cpp:150] Setting up inception_4d/relu_3x3
I0506 16:22:11.594066  2784 net.cpp:157] Top shape: 16 288 14 14 (903168)
I0506 16:22:11.594069  2784 net.cpp:165] Memory required for data: 754682508
I0506 16:22:11.594074  2784 layer_factory.hpp:77] Creating layer inception_4d/5x5_reduce
I0506 16:22:11.594081  2784 net.cpp:106] Creating Layer inception_4d/5x5_reduce
I0506 16:22:11.594084  2784 net.cpp:454] inception_4d/5x5_reduce <- inception_4c/output_inception_4c/output_0_split_2
I0506 16:22:11.594091  2784 net.cpp:411] inception_4d/5x5_reduce -> inception_4d/5x5_reduce
I0506 16:22:11.594930  2784 net.cpp:150] Setting up inception_4d/5x5_reduce
I0506 16:22:11.594943  2784 net.cpp:157] Top shape: 16 32 14 14 (100352)
I0506 16:22:11.594949  2784 net.cpp:165] Memory required for data: 755083916
I0506 16:22:11.594955  2784 layer_factory.hpp:77] Creating layer inception_4d/relu_5x5_reduce
I0506 16:22:11.594961  2784 net.cpp:106] Creating Layer inception_4d/relu_5x5_reduce
I0506 16:22:11.594964  2784 net.cpp:454] inception_4d/relu_5x5_reduce <- inception_4d/5x5_reduce
I0506 16:22:11.594969  2784 net.cpp:397] inception_4d/relu_5x5_reduce -> inception_4d/5x5_reduce (in-place)
I0506 16:22:11.595096  2784 net.cpp:150] Setting up inception_4d/relu_5x5_reduce
I0506 16:22:11.595104  2784 net.cpp:157] Top shape: 16 32 14 14 (100352)
I0506 16:22:11.595108  2784 net.cpp:165] Memory required for data: 755485324
I0506 16:22:11.595110  2784 layer_factory.hpp:77] Creating layer inception_4d/5x5
I0506 16:22:11.595118  2784 net.cpp:106] Creating Layer inception_4d/5x5
I0506 16:22:11.595121  2784 net.cpp:454] inception_4d/5x5 <- inception_4d/5x5_reduce
I0506 16:22:11.595127  2784 net.cpp:411] inception_4d/5x5 -> inception_4d/5x5
I0506 16:22:11.596134  2784 net.cpp:150] Setting up inception_4d/5x5
I0506 16:22:11.596144  2784 net.cpp:157] Top shape: 16 64 14 14 (200704)
I0506 16:22:11.596148  2784 net.cpp:165] Memory required for data: 756288140
I0506 16:22:11.596153  2784 layer_factory.hpp:77] Creating layer inception_4d/relu_5x5
I0506 16:22:11.596158  2784 net.cpp:106] Creating Layer inception_4d/relu_5x5
I0506 16:22:11.596163  2784 net.cpp:454] inception_4d/relu_5x5 <- inception_4d/5x5
I0506 16:22:11.596168  2784 net.cpp:397] inception_4d/relu_5x5 -> inception_4d/5x5 (in-place)
I0506 16:22:11.596372  2784 net.cpp:150] Setting up inception_4d/relu_5x5
I0506 16:22:11.596381  2784 net.cpp:157] Top shape: 16 64 14 14 (200704)
I0506 16:22:11.596385  2784 net.cpp:165] Memory required for data: 757090956
I0506 16:22:11.596388  2784 layer_factory.hpp:77] Creating layer inception_4d/pool
I0506 16:22:11.596393  2784 net.cpp:106] Creating Layer inception_4d/pool
I0506 16:22:11.596397  2784 net.cpp:454] inception_4d/pool <- inception_4c/output_inception_4c/output_0_split_3
I0506 16:22:11.596402  2784 net.cpp:411] inception_4d/pool -> inception_4d/pool
I0506 16:22:11.596441  2784 net.cpp:150] Setting up inception_4d/pool
I0506 16:22:11.596446  2784 net.cpp:157] Top shape: 16 512 14 14 (1605632)
I0506 16:22:11.596448  2784 net.cpp:165] Memory required for data: 763513484
I0506 16:22:11.596451  2784 layer_factory.hpp:77] Creating layer inception_4d/pool_proj
I0506 16:22:11.596459  2784 net.cpp:106] Creating Layer inception_4d/pool_proj
I0506 16:22:11.596462  2784 net.cpp:454] inception_4d/pool_proj <- inception_4d/pool
I0506 16:22:11.596467  2784 net.cpp:411] inception_4d/pool_proj -> inception_4d/pool_proj
I0506 16:22:11.597290  2784 net.cpp:150] Setting up inception_4d/pool_proj
I0506 16:22:11.597301  2784 net.cpp:157] Top shape: 16 64 14 14 (200704)
I0506 16:22:11.597304  2784 net.cpp:165] Memory required for data: 764316300
I0506 16:22:11.597309  2784 layer_factory.hpp:77] Creating layer inception_4d/relu_pool_proj
I0506 16:22:11.597314  2784 net.cpp:106] Creating Layer inception_4d/relu_pool_proj
I0506 16:22:11.597318  2784 net.cpp:454] inception_4d/relu_pool_proj <- inception_4d/pool_proj
I0506 16:22:11.597323  2784 net.cpp:397] inception_4d/relu_pool_proj -> inception_4d/pool_proj (in-place)
I0506 16:22:11.597530  2784 net.cpp:150] Setting up inception_4d/relu_pool_proj
I0506 16:22:11.597539  2784 net.cpp:157] Top shape: 16 64 14 14 (200704)
I0506 16:22:11.597543  2784 net.cpp:165] Memory required for data: 765119116
I0506 16:22:11.597545  2784 layer_factory.hpp:77] Creating layer inception_4d/output
I0506 16:22:11.597550  2784 net.cpp:106] Creating Layer inception_4d/output
I0506 16:22:11.597554  2784 net.cpp:454] inception_4d/output <- inception_4d/1x1
I0506 16:22:11.597558  2784 net.cpp:454] inception_4d/output <- inception_4d/3x3
I0506 16:22:11.597563  2784 net.cpp:454] inception_4d/output <- inception_4d/5x5
I0506 16:22:11.597565  2784 net.cpp:454] inception_4d/output <- inception_4d/pool_proj
I0506 16:22:11.597574  2784 net.cpp:411] inception_4d/output -> inception_4d/output
I0506 16:22:11.597602  2784 net.cpp:150] Setting up inception_4d/output
I0506 16:22:11.597609  2784 net.cpp:157] Top shape: 16 528 14 14 (1655808)
I0506 16:22:11.597611  2784 net.cpp:165] Memory required for data: 771742348
I0506 16:22:11.597615  2784 layer_factory.hpp:77] Creating layer inception_4d/output_inception_4d/output_0_split
I0506 16:22:11.597620  2784 net.cpp:106] Creating Layer inception_4d/output_inception_4d/output_0_split
I0506 16:22:11.597622  2784 net.cpp:454] inception_4d/output_inception_4d/output_0_split <- inception_4d/output
I0506 16:22:11.597626  2784 net.cpp:411] inception_4d/output_inception_4d/output_0_split -> inception_4d/output_inception_4d/output_0_split_0
I0506 16:22:11.597632  2784 net.cpp:411] inception_4d/output_inception_4d/output_0_split -> inception_4d/output_inception_4d/output_0_split_1
I0506 16:22:11.597638  2784 net.cpp:411] inception_4d/output_inception_4d/output_0_split -> inception_4d/output_inception_4d/output_0_split_2
I0506 16:22:11.597643  2784 net.cpp:411] inception_4d/output_inception_4d/output_0_split -> inception_4d/output_inception_4d/output_0_split_3
I0506 16:22:11.597647  2784 net.cpp:411] inception_4d/output_inception_4d/output_0_split -> inception_4d/output_inception_4d/output_0_split_4
I0506 16:22:11.597707  2784 net.cpp:150] Setting up inception_4d/output_inception_4d/output_0_split
I0506 16:22:11.597710  2784 net.cpp:157] Top shape: 16 528 14 14 (1655808)
I0506 16:22:11.597714  2784 net.cpp:157] Top shape: 16 528 14 14 (1655808)
I0506 16:22:11.597718  2784 net.cpp:157] Top shape: 16 528 14 14 (1655808)
I0506 16:22:11.597721  2784 net.cpp:157] Top shape: 16 528 14 14 (1655808)
I0506 16:22:11.597724  2784 net.cpp:157] Top shape: 16 528 14 14 (1655808)
I0506 16:22:11.597728  2784 net.cpp:165] Memory required for data: 804858508
I0506 16:22:11.597730  2784 layer_factory.hpp:77] Creating layer loss2/ave_pool
I0506 16:22:11.597735  2784 net.cpp:106] Creating Layer loss2/ave_pool
I0506 16:22:11.597738  2784 net.cpp:454] loss2/ave_pool <- inception_4d/output_inception_4d/output_0_split_0
I0506 16:22:11.597743  2784 net.cpp:411] loss2/ave_pool -> loss2/ave_pool
I0506 16:22:11.597962  2784 net.cpp:150] Setting up loss2/ave_pool
I0506 16:22:11.597971  2784 net.cpp:157] Top shape: 16 528 4 4 (135168)
I0506 16:22:11.597975  2784 net.cpp:165] Memory required for data: 805399180
I0506 16:22:11.597977  2784 layer_factory.hpp:77] Creating layer loss2/conv
I0506 16:22:11.597985  2784 net.cpp:106] Creating Layer loss2/conv
I0506 16:22:11.597990  2784 net.cpp:454] loss2/conv <- loss2/ave_pool
I0506 16:22:11.597995  2784 net.cpp:411] loss2/conv -> loss2/conv
I0506 16:22:11.599227  2784 net.cpp:150] Setting up loss2/conv
I0506 16:22:11.599237  2784 net.cpp:157] Top shape: 16 128 4 4 (32768)
I0506 16:22:11.599241  2784 net.cpp:165] Memory required for data: 805530252
I0506 16:22:11.599246  2784 layer_factory.hpp:77] Creating layer loss2/relu_conv
I0506 16:22:11.599252  2784 net.cpp:106] Creating Layer loss2/relu_conv
I0506 16:22:11.599256  2784 net.cpp:454] loss2/relu_conv <- loss2/conv
I0506 16:22:11.599261  2784 net.cpp:397] loss2/relu_conv -> loss2/conv (in-place)
I0506 16:22:11.599469  2784 net.cpp:150] Setting up loss2/relu_conv
I0506 16:22:11.599478  2784 net.cpp:157] Top shape: 16 128 4 4 (32768)
I0506 16:22:11.599481  2784 net.cpp:165] Memory required for data: 805661324
I0506 16:22:11.599484  2784 layer_factory.hpp:77] Creating layer loss2/fc
I0506 16:22:11.599493  2784 net.cpp:106] Creating Layer loss2/fc
I0506 16:22:11.599495  2784 net.cpp:454] loss2/fc <- loss2/conv
I0506 16:22:11.599500  2784 net.cpp:411] loss2/fc -> loss2/fc
I0506 16:22:11.611796  2784 net.cpp:150] Setting up loss2/fc
I0506 16:22:11.611830  2784 net.cpp:157] Top shape: 16 1024 (16384)
I0506 16:22:11.611835  2784 net.cpp:165] Memory required for data: 805726860
I0506 16:22:11.611842  2784 layer_factory.hpp:77] Creating layer loss2/relu_fc
I0506 16:22:11.611852  2784 net.cpp:106] Creating Layer loss2/relu_fc
I0506 16:22:11.611865  2784 net.cpp:454] loss2/relu_fc <- loss2/fc
I0506 16:22:11.611876  2784 net.cpp:397] loss2/relu_fc -> loss2/fc (in-place)
I0506 16:22:11.612061  2784 net.cpp:150] Setting up loss2/relu_fc
I0506 16:22:11.612068  2784 net.cpp:157] Top shape: 16 1024 (16384)
I0506 16:22:11.612071  2784 net.cpp:165] Memory required for data: 805792396
I0506 16:22:11.612074  2784 layer_factory.hpp:77] Creating layer loss2/drop_fc
I0506 16:22:11.612082  2784 net.cpp:106] Creating Layer loss2/drop_fc
I0506 16:22:11.612084  2784 net.cpp:454] loss2/drop_fc <- loss2/fc
I0506 16:22:11.612089  2784 net.cpp:397] loss2/drop_fc -> loss2/fc (in-place)
I0506 16:22:11.612115  2784 net.cpp:150] Setting up loss2/drop_fc
I0506 16:22:11.612120  2784 net.cpp:157] Top shape: 16 1024 (16384)
I0506 16:22:11.612123  2784 net.cpp:165] Memory required for data: 805857932
I0506 16:22:11.612126  2784 layer_factory.hpp:77] Creating layer loss2/classifier
I0506 16:22:11.612133  2784 net.cpp:106] Creating Layer loss2/classifier
I0506 16:22:11.612136  2784 net.cpp:454] loss2/classifier <- loss2/fc
I0506 16:22:11.612141  2784 net.cpp:411] loss2/classifier -> loss2/classifier
I0506 16:22:11.617851  2784 net.cpp:150] Setting up loss2/classifier
I0506 16:22:11.617861  2784 net.cpp:157] Top shape: 16 1000 (16000)
I0506 16:22:11.617863  2784 net.cpp:165] Memory required for data: 805921932
I0506 16:22:11.617868  2784 layer_factory.hpp:77] Creating layer loss2/classifier_loss2/classifier_0_split
I0506 16:22:11.617876  2784 net.cpp:106] Creating Layer loss2/classifier_loss2/classifier_0_split
I0506 16:22:11.617879  2784 net.cpp:454] loss2/classifier_loss2/classifier_0_split <- loss2/classifier
I0506 16:22:11.617883  2784 net.cpp:411] loss2/classifier_loss2/classifier_0_split -> loss2/classifier_loss2/classifier_0_split_0
I0506 16:22:11.617889  2784 net.cpp:411] loss2/classifier_loss2/classifier_0_split -> loss2/classifier_loss2/classifier_0_split_1
I0506 16:22:11.617894  2784 net.cpp:411] loss2/classifier_loss2/classifier_0_split -> loss2/classifier_loss2/classifier_0_split_2
I0506 16:22:11.617938  2784 net.cpp:150] Setting up loss2/classifier_loss2/classifier_0_split
I0506 16:22:11.617944  2784 net.cpp:157] Top shape: 16 1000 (16000)
I0506 16:22:11.617947  2784 net.cpp:157] Top shape: 16 1000 (16000)
I0506 16:22:11.617950  2784 net.cpp:157] Top shape: 16 1000 (16000)
I0506 16:22:11.617954  2784 net.cpp:165] Memory required for data: 806113932
I0506 16:22:11.617956  2784 layer_factory.hpp:77] Creating layer loss2/loss
I0506 16:22:11.617961  2784 net.cpp:106] Creating Layer loss2/loss
I0506 16:22:11.617964  2784 net.cpp:454] loss2/loss <- loss2/classifier_loss2/classifier_0_split_0
I0506 16:22:11.617969  2784 net.cpp:454] loss2/loss <- label_data_1_split_3
…
I0506 16:22:11.618408  2784 net.cpp:150] Setting up loss2/top-5
I0506 16:22:11.618412  2784 net.cpp:157] Top shape: (1)
I0506 16:22:11.618414  2784 net.cpp:165] Memory required for data: 806113944
I0506 16:22:11.618417  2784 layer_factory.hpp:77] Creating layer inception_4e/1x1
I0506 16:22:11.618427  2784 net.cpp:106] Creating Layer inception_4e/1x1
I0506 16:22:11.618430  2784 net.cpp:454] inception_4e/1x1 <- inception_4d/output_inception_4d/output_0_split_1
I0506 16:22:11.618437  2784 net.cpp:411] inception_4e/1x1 -> inception_4e/1x1
I0506 16:22:11.619923  2784 net.cpp:150] Setting up inception_4e/1x1
I0506 16:22:11.619935  2784 net.cpp:157] Top shape: 16 256 14 14 (802816)
I0506 16:22:11.619937  2784 net.cpp:165] Memory required for data: 809325208
I0506 16:22:11.619942  2784 layer_factory.hpp:77] Creating layer inception_4e/relu_1x1
I0506 16:22:11.619949  2784 net.cpp:106] Creating Layer inception_4e/relu_1x1
I0506 16:22:11.619952  2784 net.cpp:454] inception_4e/relu_1x1 <- inception_4e/1x1
I0506 16:22:11.619957  2784 net.cpp:397] inception_4e/relu_1x1 -> inception_4e/1x1 (in-place)
I0506 16:22:11.620085  2784 net.cpp:150] Setting up inception_4e/relu_1x1
I0506 16:22:11.620091  2784 net.cpp:157] Top shape: 16 256 14 14 (802816)
I0506 16:22:11.620095  2784 net.cpp:165] Memory required for data: 812536472
I0506 16:22:11.620097  2784 layer_factory.hpp:77] Creating layer inception_4e/3x3_reduce
I0506 16:22:11.620116  2784 net.cpp:106] Creating Layer inception_4e/3x3_reduce
I0506 16:22:11.620121  2784 net.cpp:454] inception_4e/3x3_reduce <- inception_4d/output_inception_4d/output_0_split_2
I0506 16:22:11.620126  2784 net.cpp:411] inception_4e/3x3_reduce -> inception_4e/3x3_reduce
I0506 16:22:11.621619  2784 net.cpp:150] Setting up inception_4e/3x3_reduce
I0506 16:22:11.621629  2784 net.cpp:157] Top shape: 16 160 14 14 (501760)
I0506 16:22:11.621634  2784 net.cpp:165] Memory required for data: 814543512
I0506 16:22:11.621639  2784 layer_factory.hpp:77] Creating layer inception_4e/relu_3x3_reduce
I0506 16:22:11.621645  2784 net.cpp:106] Creating Layer inception_4e/relu_3x3_reduce
I0506 16:22:11.621649  2784 net.cpp:454] inception_4e/relu_3x3_reduce <- inception_4e/3x3_reduce
I0506 16:22:11.621654  2784 net.cpp:397] inception_4e/relu_3x3_reduce -> inception_4e/3x3_reduce (in-place)
I0506 16:22:11.621870  2784 net.cpp:150] Setting up inception_4e/relu_3x3_reduce
I0506 16:22:11.621877  2784 net.cpp:157] Top shape: 16 160 14 14 (501760)
I0506 16:22:11.621881  2784 net.cpp:165] Memory required for data: 816550552
I0506 16:22:11.621884  2784 layer_factory.hpp:77] Creating layer inception_4e/3x3
I0506 16:22:11.621892  2784 net.cpp:106] Creating Layer inception_4e/3x3
I0506 16:22:11.621896  2784 net.cpp:454] inception_4e/3x3 <- inception_4e/3x3_reduce
I0506 16:22:11.621902  2784 net.cpp:411] inception_4e/3x3 -> inception_4e/3x3
I0506 16:22:11.625200  2784 net.cpp:150] Setting up inception_4e/3x3
I0506 16:22:11.625213  2784 net.cpp:157] Top shape: 16 320 14 14 (1003520)
I0506 16:22:11.625218  2784 net.cpp:165] Memory required for data: 820564632
I0506 16:22:11.625223  2784 layer_factory.hpp:77] Creating layer inception_4e/relu_3x3
I0506 16:22:11.625228  2784 net.cpp:106] Creating Layer inception_4e/relu_3x3
I0506 16:22:11.625232  2784 net.cpp:454] inception_4e/relu_3x3 <- inception_4e/3x3
I0506 16:22:11.625237  2784 net.cpp:397] inception_4e/relu_3x3 -> inception_4e/3x3 (in-place)
I0506 16:22:11.625448  2784 net.cpp:150] Setting up inception_4e/relu_3x3
I0506 16:22:11.625458  2784 net.cpp:157] Top shape: 16 320 14 14 (1003520)
I0506 16:22:11.625461  2784 net.cpp:165] Memory required for data: 824578712
I0506 16:22:11.625465  2784 layer_factory.hpp:77] Creating layer inception_4e/5x5_reduce
I0506 16:22:11.625473  2784 net.cpp:106] Creating Layer inception_4e/5x5_reduce
I0506 16:22:11.625478  2784 net.cpp:454] inception_4e/5x5_reduce <- inception_4d/output_inception_4d/output_0_split_3
I0506 16:22:11.625483  2784 net.cpp:411] inception_4e/5x5_reduce -> inception_4e/5x5_reduce
I0506 16:22:11.626341  2784 net.cpp:150] Setting up inception_4e/5x5_reduce
I0506 16:22:11.626356  2784 net.cpp:157] Top shape: 16 32 14 14 (100352)
I0506 16:22:11.626360  2784 net.cpp:165] Memory required for data: 824980120
I0506 16:22:11.626365  2784 layer_factory.hpp:77] Creating layer inception_4e/relu_5x5_reduce
I0506 16:22:11.626371  2784 net.cpp:106] Creating Layer inception_4e/relu_5x5_reduce
I0506 16:22:11.626375  2784 net.cpp:454] inception_4e/relu_5x5_reduce <- inception_4e/5x5_reduce
I0506 16:22:11.626380  2784 net.cpp:397] inception_4e/relu_5x5_reduce -> inception_4e/5x5_reduce (in-place)
I0506 16:22:11.626509  2784 net.cpp:150] Setting up inception_4e/relu_5x5_reduce
I0506 16:22:11.626516  2784 net.cpp:157] Top shape: 16 32 14 14 (100352)
I0506 16:22:11.626519  2784 net.cpp:165] Memory required for data: 825381528
I0506 16:22:11.626523  2784 layer_factory.hpp:77] Creating layer inception_4e/5x5
I0506 16:22:11.626530  2784 net.cpp:106] Creating Layer inception_4e/5x5
I0506 16:22:11.626534  2784 net.cpp:454] inception_4e/5x5 <- inception_4e/5x5_reduce
I0506 16:22:11.626540  2784 net.cpp:411] inception_4e/5x5 -> inception_4e/5x5
I0506 16:22:11.627818  2784 net.cpp:150] Setting up inception_4e/5x5
I0506 16:22:11.627828  2784 net.cpp:157] Top shape: 16 128 14 14 (401408)
I0506 16:22:11.627831  2784 net.cpp:165] Memory required for data: 826987160
I0506 16:22:11.627837  2784 layer_factory.hpp:77] Creating layer inception_4e/relu_5x5
I0506 16:22:11.627842  2784 net.cpp:106] Creating Layer inception_4e/relu_5x5
I0506 16:22:11.627846  2784 net.cpp:454] inception_4e/relu_5x5 <- inception_4e/5x5
I0506 16:22:11.627851  2784 net.cpp:397] inception_4e/relu_5x5 -> inception_4e/5x5 (in-place)
I0506 16:22:11.628062  2784 net.cpp:150] Setting up inception_4e/relu_5x5
I0506 16:22:11.628070  2784 net.cpp:157] Top shape: 16 128 14 14 (401408)
I0506 16:22:11.628073  2784 net.cpp:165] Memory required for data: 828592792
I0506 16:22:11.628077  2784 layer_factory.hpp:77] Creating layer inception_4e/pool
I0506 16:22:11.628084  2784 net.cpp:106] Creating Layer inception_4e/pool
I0506 16:22:11.628087  2784 net.cpp:454] inception_4e/pool <- inception_4d/output_inception_4d/output_0_split_4
I0506 16:22:11.628093  2784 net.cpp:411] inception_4e/pool -> inception_4e/pool
I0506 16:22:11.628132  2784 net.cpp:150] Setting up inception_4e/pool
I0506 16:22:11.628137  2784 net.cpp:157] Top shape: 16 528 14 14 (1655808)
I0506 16:22:11.628140  2784 net.cpp:165] Memory required for data: 835216024
I0506 16:22:11.628144  2784 layer_factory.hpp:77] Creating layer inception_4e/pool_proj
I0506 16:22:11.628151  2784 net.cpp:106] Creating Layer inception_4e/pool_proj
I0506 16:22:11.628155  2784 net.cpp:454] inception_4e/pool_proj <- inception_4e/pool
I0506 16:22:11.628160  2784 net.cpp:411] inception_4e/pool_proj -> inception_4e/pool_proj
I0506 16:22:11.629175  2784 net.cpp:150] Setting up inception_4e/pool_proj
I0506 16:22:11.629185  2784 net.cpp:157] Top shape: 16 128 14 14 (401408)
I0506 16:22:11.629189  2784 net.cpp:165] Memory required for data: 836821656
I0506 16:22:11.629194  2784 layer_factory.hpp:77] Creating layer inception_4e/relu_pool_proj
I0506 16:22:11.629199  2784 net.cpp:106] Creating Layer inception_4e/relu_pool_proj
I0506 16:22:11.629202  2784 net.cpp:454] inception_4e/relu_pool_proj <- inception_4e/pool_proj
I0506 16:22:11.629207  2784 net.cpp:397] inception_4e/relu_pool_proj -> inception_4e/pool_proj (in-place)
I0506 16:22:11.629421  2784 net.cpp:150] Setting up inception_4e/relu_pool_proj
I0506 16:22:11.629431  2784 net.cpp:157] Top shape: 16 128 14 14 (401408)
I0506 16:22:11.629433  2784 net.cpp:165] Memory required for data: 838427288
I0506 16:22:11.629437  2784 layer_factory.hpp:77] Creating layer inception_4e/output
I0506 16:22:11.629442  2784 net.cpp:106] Creating Layer inception_4e/output
I0506 16:22:11.629446  2784 net.cpp:454] inception_4e/output <- inception_4e/1x1
I0506 16:22:11.629451  2784 net.cpp:454] inception_4e/output <- inception_4e/3x3
I0506 16:22:11.629454  2784 net.cpp:454] inception_4e/output <- inception_4e/5x5
I0506 16:22:11.629461  2784 net.cpp:454] inception_4e/output <- inception_4e/pool_proj
I0506 16:22:11.629469  2784 net.cpp:411] inception_4e/output -> inception_4e/output
I0506 16:22:11.629495  2784 net.cpp:150] Setting up inception_4e/output
I0506 16:22:11.629500  2784 net.cpp:157] Top shape: 16 832 14 14 (2609152)
I0506 16:22:11.629503  2784 net.cpp:165] Memory required for data: 848863896
I0506 16:22:11.629506  2784 layer_factory.hpp:77] Creating layer pool4/3x3_s2
I0506 16:22:11.629511  2784 net.cpp:106] Creating Layer pool4/3x3_s2
I0506 16:22:11.629515  2784 net.cpp:454] pool4/3x3_s2 <- inception_4e/output
I0506 16:22:11.629519  2784 net.cpp:411] pool4/3x3_s2 -> pool4/3x3_s2
I0506 16:22:11.629554  2784 net.cpp:150] Setting up pool4/3x3_s2
I0506 16:22:11.629559  2784 net.cpp:157] Top shape: 16 832 7 7 (652288)
I0506 16:22:11.629560  2784 net.cpp:165] Memory required for data: 851473048
I0506 16:22:11.629564  2784 layer_factory.hpp:77] Creating layer pool4/3x3_s2_pool4/3x3_s2_0_split
I0506 16:22:11.629570  2784 net.cpp:106] Creating Layer pool4/3x3_s2_pool4/3x3_s2_0_split
I0506 16:22:11.629572  2784 net.cpp:454] pool4/3x3_s2_pool4/3x3_s2_0_split <- pool4/3x3_s2
I0506 16:22:11.629577  2784 net.cpp:411] pool4/3x3_s2_pool4/3x3_s2_0_split -> pool4/3x3_s2_pool4/3x3_s2_0_split_0
I0506 16:22:11.629582  2784 net.cpp:411] pool4/3x3_s2_pool4/3x3_s2_0_split -> pool4/3x3_s2_pool4/3x3_s2_0_split_1
I0506 16:22:11.629587  2784 net.cpp:411] pool4/3x3_s2_pool4/3x3_s2_0_split -> pool4/3x3_s2_pool4/3x3_s2_0_split_2
I0506 16:22:11.629602  2784 net.cpp:411] pool4/3x3_s2_pool4/3x3_s2_0_split -> pool4/3x3_s2_pool4/3x3_s2_0_split_3
I0506 16:22:11.629653  2784 net.cpp:150] Setting up pool4/3x3_s2_pool4/3x3_s2_0_split
I0506 16:22:11.629658  2784 net.cpp:157] Top shape: 16 832 7 7 (652288)
I0506 16:22:11.629662  2784 net.cpp:157] Top shape: 16 832 7 7 (652288)
I0506 16:22:11.629667  2784 net.cpp:157] Top shape: 16 832 7 7 (652288)
I0506 16:22:11.629670  2784 net.cpp:157] Top shape: 16 832 7 7 (652288)
I0506 16:22:11.629673  2784 net.cpp:165] Memory required for data: 861909656
I0506 16:22:11.629676  2784 layer_factory.hpp:77] Creating layer inception_5a/1x1
I0506 16:22:11.629684  2784 net.cpp:106] Creating Layer inception_5a/1x1
I0506 16:22:11.629688  2784 net.cpp:454] inception_5a/1x1 <- pool4/3x3_s2_pool4/3x3_s2_0_split_0
I0506 16:22:11.629693  2784 net.cpp:411] inception_5a/1x1 -> inception_5a/1x1
I0506 16:22:11.631707  2784 net.cpp:150] Setting up inception_5a/1x1
I0506 16:22:11.631718  2784 net.cpp:157] Top shape: 16 256 7 7 (200704)
I0506 16:22:11.631721  2784 net.cpp:165] Memory required for data: 862712472
I0506 16:22:11.631727  2784 layer_factory.hpp:77] Creating layer inception_5a/relu_1x1
I0506 16:22:11.631733  2784 net.cpp:106] Creating Layer inception_5a/relu_1x1
I0506 16:22:11.631736  2784 net.cpp:454] inception_5a/relu_1x1 <- inception_5a/1x1
I0506 16:22:11.631742  2784 net.cpp:397] inception_5a/relu_1x1 -> inception_5a/1x1 (in-place)
I0506 16:22:11.631872  2784 net.cpp:150] Setting up inception_5a/relu_1x1
I0506 16:22:11.631880  2784 net.cpp:157] Top shape: 16 256 7 7 (200704)
I0506 16:22:11.631882  2784 net.cpp:165] Memory required for data: 863515288
I0506 16:22:11.631886  2784 layer_factory.hpp:77] Creating layer inception_5a/3x3_reduce
I0506 16:22:11.631894  2784 net.cpp:106] Creating Layer inception_5a/3x3_reduce
I0506 16:22:11.631898  2784 net.cpp:454] inception_5a/3x3_reduce <- pool4/3x3_s2_pool4/3x3_s2_0_split_1
I0506 16:22:11.631903  2784 net.cpp:411] inception_5a/3x3_reduce -> inception_5a/3x3_reduce
I0506 16:22:11.633605  2784 net.cpp:150] Setting up inception_5a/3x3_reduce
I0506 16:22:11.633615  2784 net.cpp:157] Top shape: 16 160 7 7 (125440)
I0506 16:22:11.633617  2784 net.cpp:165] Memory required for data: 864017048
I0506 16:22:11.633622  2784 layer_factory.hpp:77] Creating layer inception_5a/relu_3x3_reduce
I0506 16:22:11.633627  2784 net.cpp:106] Creating Layer inception_5a/relu_3x3_reduce
I0506 16:22:11.633631  2784 net.cpp:454] inception_5a/relu_3x3_reduce <- inception_5a/3x3_reduce
I0506 16:22:11.633636  2784 net.cpp:397] inception_5a/relu_3x3_reduce -> inception_5a/3x3_reduce (in-place)
I0506 16:22:11.633857  2784 net.cpp:150] Setting up inception_5a/relu_3x3_reduce
I0506 16:22:11.633865  2784 net.cpp:157] Top shape: 16 160 7 7 (125440)
I0506 16:22:11.633868  2784 net.cpp:165] Memory required for data: 864518808
I0506 16:22:11.633872  2784 layer_factory.hpp:77] Creating layer inception_5a/3x3
I0506 16:22:11.633880  2784 net.cpp:106] Creating Layer inception_5a/3x3
I0506 16:22:11.633884  2784 net.cpp:454] inception_5a/3x3 <- inception_5a/3x3_reduce
I0506 16:22:11.633891  2784 net.cpp:411] inception_5a/3x3 -> inception_5a/3x3
I0506 16:22:11.637136  2784 net.cpp:150] Setting up inception_5a/3x3
I0506 16:22:11.637150  2784 net.cpp:157] Top shape: 16 320 7 7 (250880)
I0506 16:22:11.637153  2784 net.cpp:165] Memory required for data: 865522328
I0506 16:22:11.637158  2784 layer_factory.hpp:77] Creating layer inception_5a/relu_3x3
I0506 16:22:11.637166  2784 net.cpp:106] Creating Layer inception_5a/relu_3x3
I0506 16:22:11.637169  2784 net.cpp:454] inception_5a/relu_3x3 <- inception_5a/3x3
I0506 16:22:11.637173  2784 net.cpp:397] inception_5a/relu_3x3 -> inception_5a/3x3 (in-place)
I0506 16:22:11.637415  2784 net.cpp:150] Setting up inception_5a/relu_3x3
I0506 16:22:11.637425  2784 net.cpp:157] Top shape: 16 320 7 7 (250880)
I0506 16:22:11.637428  2784 net.cpp:165] Memory required for data: 866525848
I0506 16:22:11.637433  2784 layer_factory.hpp:77] Creating layer inception_5a/5x5_reduce
I0506 16:22:11.637439  2784 net.cpp:106] Creating Layer inception_5a/5x5_reduce
I0506 16:22:11.637444  2784 net.cpp:454] inception_5a/5x5_reduce <- pool4/3x3_s2_pool4/3x3_s2_0_split_2
I0506 16:22:11.637450  2784 net.cpp:411] inception_5a/5x5_reduce -> inception_5a/5x5_reduce
I0506 16:22:11.638474  2784 net.cpp:150] Setting up inception_5a/5x5_reduce
I0506 16:22:11.638484  2784 net.cpp:157] Top shape: 16 32 7 7 (25088)
I0506 16:22:11.638487  2784 net.cpp:165] Memory required for data: 866626200
I0506 16:22:11.638494  2784 layer_factory.hpp:77] Creating layer inception_5a/relu_5x5_reduce
I0506 16:22:11.638499  2784 net.cpp:106] Creating Layer inception_5a/relu_5x5_reduce
I0506 16:22:11.638502  2784 net.cpp:454] inception_5a/relu_5x5_reduce <- inception_5a/5x5_reduce
I0506 16:22:11.638507  2784 net.cpp:397] inception_5a/relu_5x5_reduce -> inception_5a/5x5_reduce (in-place)
I0506 16:22:11.638641  2784 net.cpp:150] Setting up inception_5a/relu_5x5_reduce
I0506 16:22:11.638648  2784 net.cpp:157] Top shape: 16 32 7 7 (25088)
I0506 16:22:11.638651  2784 net.cpp:165] Memory required for data: 866726552
I0506 16:22:11.638654  2784 layer_factory.hpp:77] Creating layer inception_5a/5x5
I0506 16:22:11.638664  2784 net.cpp:106] Creating Layer inception_5a/5x5
I0506 16:22:11.638667  2784 net.cpp:454] inception_5a/5x5 <- inception_5a/5x5_reduce
I0506 16:22:11.638672  2784 net.cpp:411] inception_5a/5x5 -> inception_5a/5x5
I0506 16:22:11.640012  2784 net.cpp:150] Setting up inception_5a/5x5
I0506 16:22:11.640022  2784 net.cpp:157] Top shape: 16 128 7 7 (100352)
I0506 16:22:11.640025  2784 net.cpp:165] Memory required for data: 867127960
I0506 16:22:11.640030  2784 layer_factory.hpp:77] Creating layer inception_5a/relu_5x5
I0506 16:22:11.640036  2784 net.cpp:106] Creating Layer inception_5a/relu_5x5
I0506 16:22:11.640040  2784 net.cpp:454] inception_5a/relu_5x5 <- inception_5a/5x5
I0506 16:22:11.640044  2784 net.cpp:397] inception_5a/relu_5x5 -> inception_5a/5x5 (in-place)
I0506 16:22:11.640257  2784 net.cpp:150] Setting up inception_5a/relu_5x5
I0506 16:22:11.640265  2784 net.cpp:157] Top shape: 16 128 7 7 (100352)
I0506 16:22:11.640269  2784 net.cpp:165] Memory required for data: 867529368
I0506 16:22:11.640272  2784 layer_factory.hpp:77] Creating layer inception_5a/pool
I0506 16:22:11.640278  2784 net.cpp:106] Creating Layer inception_5a/pool
I0506 16:22:11.640282  2784 net.cpp:454] inception_5a/pool <- pool4/3x3_s2_pool4/3x3_s2_0_split_3
I0506 16:22:11.640287  2784 net.cpp:411] inception_5a/pool -> inception_5a/pool
I0506 16:22:11.640327  2784 net.cpp:150] Setting up inception_5a/pool
I0506 16:22:11.640336  2784 net.cpp:157] Top shape: 16 832 7 7 (652288)
I0506 16:22:11.640342  2784 net.cpp:165] Memory required for data: 870138520
I0506 16:22:11.640346  2784 layer_factory.hpp:77] Creating layer inception_5a/pool_proj
I0506 16:22:11.640352  2784 net.cpp:106] Creating Layer inception_5a/pool_proj
I0506 16:22:11.640357  2784 net.cpp:454] inception_5a/pool_proj <- inception_5a/pool
I0506 16:22:11.640362  2784 net.cpp:411] inception_5a/pool_proj -> inception_5a/pool_proj
I0506 16:22:11.641796  2784 net.cpp:150] Setting up inception_5a/pool_proj
I0506 16:22:11.641805  2784 net.cpp:157] Top shape: 16 128 7 7 (100352)
I0506 16:22:11.641809  2784 net.cpp:165] Memory required for data: 870539928
I0506 16:22:11.641814  2784 layer_factory.hpp:77] Creating layer inception_5a/relu_pool_proj
I0506 16:22:11.641820  2784 net.cpp:106] Creating Layer inception_5a/relu_pool_proj
I0506 16:22:11.641824  2784 net.cpp:454] inception_5a/relu_pool_proj <- inception_5a/pool_proj
I0506 16:22:11.641829  2784 net.cpp:397] inception_5a/relu_pool_proj -> inception_5a/pool_proj (in-place)
I0506 16:22:11.642050  2784 net.cpp:150] Setting up inception_5a/relu_pool_proj
I0506 16:22:11.642058  2784 net.cpp:157] Top shape: 16 128 7 7 (100352)
I0506 16:22:11.642061  2784 net.cpp:165] Memory required for data: 870941336
I0506 16:22:11.642066  2784 layer_factory.hpp:77] Creating layer inception_5a/output
I0506 16:22:11.642072  2784 net.cpp:106] Creating Layer inception_5a/output
I0506 16:22:11.642076  2784 net.cpp:454] inception_5a/output <- inception_5a/1x1
I0506 16:22:11.642081  2784 net.cpp:454] inception_5a/output <- inception_5a/3x3
I0506 16:22:11.642083  2784 net.cpp:454] inception_5a/output <- inception_5a/5x5
I0506 16:22:11.642087  2784 net.cpp:454] inception_5a/output <- inception_5a/pool_proj
I0506 16:22:11.642091  2784 net.cpp:411] inception_5a/output -> inception_5a/output
I0506 16:22:11.642119  2784 net.cpp:150] Setting up inception_5a/output
I0506 16:22:11.642125  2784 net.cpp:157] Top shape: 16 832 7 7 (652288)
I0506 16:22:11.642127  2784 net.cpp:165] Memory required for data: 873550488
I0506 16:22:11.642132  2784 layer_factory.hpp:77] Creating layer inception_5a/output_inception_5a/output_0_split
I0506 16:22:11.642137  2784 net.cpp:106] Creating Layer inception_5a/output_inception_5a/output_0_split
I0506 16:22:11.642139  2784 net.cpp:454] inception_5a/output_inception_5a/output_0_split <- inception_5a/output
I0506 16:22:11.642144  2784 net.cpp:411] inception_5a/output_inception_5a/output_0_split -> inception_5a/output_inception_5a/output_0_split_0
I0506 16:22:11.642150  2784 net.cpp:411] inception_5a/output_inception_5a/output_0_split -> inception_5a/output_inception_5a/output_0_split_1
I0506 16:22:11.642155  2784 net.cpp:411] inception_5a/output_inception_5a/output_0_split -> inception_5a/output_inception_5a/output_0_split_2
I0506 16:22:11.642160  2784 net.cpp:411] inception_5a/output_inception_5a/output_0_split -> inception_5a/output_inception_5a/output_0_split_3
I0506 16:22:11.642216  2784 net.cpp:150] Setting up inception_5a/output_inception_5a/output_0_split
I0506 16:22:11.642221  2784 net.cpp:157] Top shape: 16 832 7 7 (652288)
I0506 16:22:11.642225  2784 net.cpp:157] Top shape: 16 832 7 7 (652288)
I0506 16:22:11.642228  2784 net.cpp:157] Top shape: 16 832 7 7 (652288)
I0506 16:22:11.642232  2784 net.cpp:157] Top shape: 16 832 7 7 (652288)
I0506 16:22:11.642235  2784 net.cpp:165] Memory required for data: 883987096
I0506 16:22:11.642238  2784 layer_factory.hpp:77] Creating layer inception_5b/1x1
I0506 16:22:11.642246  2784 net.cpp:106] Creating Layer inception_5b/1x1
I0506 16:22:11.642249  2784 net.cpp:454] inception_5b/1x1 <- inception_5a/output_inception_5a/output_0_split_0
I0506 16:22:11.642256  2784 net.cpp:411] inception_5b/1x1 -> inception_5b/1x1
I0506 16:22:11.644846  2784 net.cpp:150] Setting up inception_5b/1x1
I0506 16:22:11.644857  2784 net.cpp:157] Top shape: 16 384 7 7 (301056)
I0506 16:22:11.644860  2784 net.cpp:165] Memory required for data: 885191320
I0506 16:22:11.644866  2784 layer_factory.hpp:77] Creating layer inception_5b/relu_1x1
I0506 16:22:11.644877  2784 net.cpp:106] Creating Layer inception_5b/relu_1x1
I0506 16:22:11.644881  2784 net.cpp:454] inception_5b/relu_1x1 <- inception_5b/1x1
I0506 16:22:11.644887  2784 net.cpp:397] inception_5b/relu_1x1 -> inception_5b/1x1 (in-place)
I0506 16:22:11.645017  2784 net.cpp:150] Setting up inception_5b/relu_1x1
I0506 16:22:11.645025  2784 net.cpp:157] Top shape: 16 384 7 7 (301056)
I0506 16:22:11.645028  2784 net.cpp:165] Memory required for data: 886395544
I0506 16:22:11.645031  2784 layer_factory.hpp:77] Creating layer inception_5b/3x3_reduce
I0506 16:22:11.645038  2784 net.cpp:106] Creating Layer inception_5b/3x3_reduce
I0506 16:22:11.645042  2784 net.cpp:454] inception_5b/3x3_reduce <- inception_5a/output_inception_5a/output_0_split_1
I0506 16:22:11.645048  2784 net.cpp:411] inception_5b/3x3_reduce -> inception_5b/3x3_reduce
I0506 16:22:11.646826  2784 net.cpp:150] Setting up inception_5b/3x3_reduce
I0506 16:22:11.646836  2784 net.cpp:157] Top shape: 16 192 7 7 (150528)
I0506 16:22:11.646839  2784 net.cpp:165] Memory required for data: 886997656
I0506 16:22:11.646845  2784 layer_factory.hpp:77] Creating layer inception_5b/relu_3x3_reduce
I0506 16:22:11.646850  2784 net.cpp:106] Creating Layer inception_5b/relu_3x3_reduce
I0506 16:22:11.646854  2784 net.cpp:454] inception_5b/relu_3x3_reduce <- inception_5b/3x3_reduce
I0506 16:22:11.646859  2784 net.cpp:397] inception_5b/relu_3x3_reduce -> inception_5b/3x3_reduce (in-place)
I0506 16:22:11.647074  2784 net.cpp:150] Setting up inception_5b/relu_3x3_reduce
I0506 16:22:11.647083  2784 net.cpp:157] Top shape: 16 192 7 7 (150528)
I0506 16:22:11.647088  2784 net.cpp:165] Memory required for data: 887599768
I0506 16:22:11.647090  2784 layer_factory.hpp:77] Creating layer inception_5b/3x3
I0506 16:22:11.647099  2784 net.cpp:106] Creating Layer inception_5b/3x3
I0506 16:22:11.647101  2784 net.cpp:454] inception_5b/3x3 <- inception_5b/3x3_reduce
I0506 16:22:11.647107  2784 net.cpp:411] inception_5b/3x3 -> inception_5b/3x3
I0506 16:22:11.651424  2784 net.cpp:150] Setting up inception_5b/3x3
I0506 16:22:11.651437  2784 net.cpp:157] Top shape: 16 384 7 7 (301056)
I0506 16:22:11.651440  2784 net.cpp:165] Memory required for data: 888803992
I0506 16:22:11.651446  2784 layer_factory.hpp:77] Creating layer inception_5b/relu_3x3
I0506 16:22:11.651453  2784 net.cpp:106] Creating Layer inception_5b/relu_3x3
I0506 16:22:11.651456  2784 net.cpp:454] inception_5b/relu_3x3 <- inception_5b/3x3
I0506 16:22:11.651460  2784 net.cpp:397] inception_5b/relu_3x3 -> inception_5b/3x3 (in-place)
I0506 16:22:11.651731  2784 net.cpp:150] Setting up inception_5b/relu_3x3
I0506 16:22:11.651739  2784 net.cpp:157] Top shape: 16 384 7 7 (301056)
I0506 16:22:11.651742  2784 net.cpp:165] Memory required for data: 890008216
I0506 16:22:11.651746  2784 layer_factory.hpp:77] Creating layer inception_5b/5x5_reduce
I0506 16:22:11.651754  2784 net.cpp:106] Creating Layer inception_5b/5x5_reduce
I0506 16:22:11.651759  2784 net.cpp:454] inception_5b/5x5_reduce <- inception_5a/output_inception_5a/output_0_split_2
I0506 16:22:11.651764  2784 net.cpp:411] inception_5b/5x5_reduce -> inception_5b/5x5_reduce
I0506 16:22:11.653054  2784 net.cpp:150] Setting up inception_5b/5x5_reduce
I0506 16:22:11.653065  2784 net.cpp:157] Top shape: 16 48 7 7 (37632)
I0506 16:22:11.653069  2784 net.cpp:165] Memory required for data: 890158744
I0506 16:22:11.653075  2784 layer_factory.hpp:77] Creating layer inception_5b/relu_5x5_reduce
I0506 16:22:11.653080  2784 net.cpp:106] Creating Layer inception_5b/relu_5x5_reduce
I0506 16:22:11.653084  2784 net.cpp:454] inception_5b/relu_5x5_reduce <- inception_5b/5x5_reduce
I0506 16:22:11.653090  2784 net.cpp:397] inception_5b/relu_5x5_reduce -> inception_5b/5x5_reduce (in-place)
I0506 16:22:11.653223  2784 net.cpp:150] Setting up inception_5b/relu_5x5_reduce
I0506 16:22:11.653230  2784 net.cpp:157] Top shape: 16 48 7 7 (37632)
I0506 16:22:11.653234  2784 net.cpp:165] Memory required for data: 890309272
I0506 16:22:11.653237  2784 layer_factory.hpp:77] Creating layer inception_5b/5x5
I0506 16:22:11.653254  2784 net.cpp:106] Creating Layer inception_5b/5x5
I0506 16:22:11.653259  2784 net.cpp:454] inception_5b/5x5 <- inception_5b/5x5_reduce
I0506 16:22:11.653265  2784 net.cpp:411] inception_5b/5x5 -> inception_5b/5x5
I0506 16:22:11.654888  2784 net.cpp:150] Setting up inception_5b/5x5
I0506 16:22:11.654897  2784 net.cpp:157] Top shape: 16 128 7 7 (100352)
I0506 16:22:11.654901  2784 net.cpp:165] Memory required for data: 890710680
I0506 16:22:11.654906  2784 layer_factory.hpp:77] Creating layer inception_5b/relu_5x5
I0506 16:22:11.654911  2784 net.cpp:106] Creating Layer inception_5b/relu_5x5
I0506 16:22:11.654916  2784 net.cpp:454] inception_5b/relu_5x5 <- inception_5b/5x5
I0506 16:22:11.654920  2784 net.cpp:397] inception_5b/relu_5x5 -> inception_5b/5x5 (in-place)
I0506 16:22:11.655135  2784 net.cpp:150] Setting up inception_5b/relu_5x5
I0506 16:22:11.655143  2784 net.cpp:157] Top shape: 16 128 7 7 (100352)
I0506 16:22:11.655146  2784 net.cpp:165] Memory required for data: 891112088
I0506 16:22:11.655150  2784 layer_factory.hpp:77] Creating layer inception_5b/pool
I0506 16:22:11.655155  2784 net.cpp:106] Creating Layer inception_5b/pool
I0506 16:22:11.655159  2784 net.cpp:454] inception_5b/pool <- inception_5a/output_inception_5a/output_0_split_3
I0506 16:22:11.655165  2784 net.cpp:411] inception_5b/pool -> inception_5b/pool
I0506 16:22:11.655207  2784 net.cpp:150] Setting up inception_5b/pool
I0506 16:22:11.655212  2784 net.cpp:157] Top shape: 16 832 7 7 (652288)
I0506 16:22:11.655215  2784 net.cpp:165] Memory required for data: 893721240
I0506 16:22:11.655218  2784 layer_factory.hpp:77] Creating layer inception_5b/pool_proj
I0506 16:22:11.655228  2784 net.cpp:106] Creating Layer inception_5b/pool_proj
I0506 16:22:11.655231  2784 net.cpp:454] inception_5b/pool_proj <- inception_5b/pool
I0506 16:22:11.655236  2784 net.cpp:411] inception_5b/pool_proj -> inception_5b/pool_proj
I0506 16:22:11.656780  2784 net.cpp:150] Setting up inception_5b/pool_proj
I0506 16:22:11.656790  2784 net.cpp:157] Top shape: 16 128 7 7 (100352)
I0506 16:22:11.656793  2784 net.cpp:165] Memory required for data: 894122648
I0506 16:22:11.656798  2784 layer_factory.hpp:77] Creating layer inception_5b/relu_pool_proj
I0506 16:22:11.656805  2784 net.cpp:106] Creating Layer inception_5b/relu_pool_proj
I0506 16:22:11.656808  2784 net.cpp:454] inception_5b/relu_pool_proj <- inception_5b/pool_proj
I0506 16:22:11.656813  2784 net.cpp:397] inception_5b/relu_pool_proj -> inception_5b/pool_proj (in-place)
I0506 16:22:11.657029  2784 net.cpp:150] Setting up inception_5b/relu_pool_proj
I0506 16:22:11.657038  2784 net.cpp:157] Top shape: 16 128 7 7 (100352)
I0506 16:22:11.657042  2784 net.cpp:165] Memory required for data: 894524056
I0506 16:22:11.657045  2784 layer_factory.hpp:77] Creating layer inception_5b/output
I0506 16:22:11.657052  2784 net.cpp:106] Creating Layer inception_5b/output
I0506 16:22:11.657055  2784 net.cpp:454] inception_5b/output <- inception_5b/1x1
I0506 16:22:11.657059  2784 net.cpp:454] inception_5b/output <- inception_5b/3x3
I0506 16:22:11.657063  2784 net.cpp:454] inception_5b/output <- inception_5b/5x5
I0506 16:22:11.657066  2784 net.cpp:454] inception_5b/output <- inception_5b/pool_proj
I0506 16:22:11.657071  2784 net.cpp:411] inception_5b/output -> inception_5b/output
I0506 16:22:11.657099  2784 net.cpp:150] Setting up inception_5b/output
I0506 16:22:11.657104  2784 net.cpp:157] Top shape: 16 1024 7 7 (802816)
I0506 16:22:11.657106  2784 net.cpp:165] Memory required for data: 897735320
I0506 16:22:11.657109  2784 layer_factory.hpp:77] Creating layer pool5/7x7_s1
I0506 16:22:11.657114  2784 net.cpp:106] Creating Layer pool5/7x7_s1
I0506 16:22:11.657117  2784 net.cpp:454] pool5/7x7_s1 <- inception_5b/output
I0506 16:22:11.657124  2784 net.cpp:411] pool5/7x7_s1 -> pool5/7x7_s1
I0506 16:22:11.657269  2784 net.cpp:150] Setting up pool5/7x7_s1
I0506 16:22:11.657276  2784 net.cpp:157] Top shape: 16 1024 1 1 (16384)
I0506 16:22:11.657279  2784 net.cpp:165] Memory required for data: 897800856
I0506 16:22:11.657285  2784 layer_factory.hpp:77] Creating layer pool5/drop_7x7_s1
I0506 16:22:11.657295  2784 net.cpp:106] Creating Layer pool5/drop_7x7_s1
I0506 16:22:11.657299  2784 net.cpp:454] pool5/drop_7x7_s1 <- pool5/7x7_s1
I0506 16:22:11.657304  2784 net.cpp:397] pool5/drop_7x7_s1 -> pool5/7x7_s1 (in-place)
I0506 16:22:11.657328  2784 net.cpp:150] Setting up pool5/drop_7x7_s1
I0506 16:22:11.657332  2784 net.cpp:157] Top shape: 16 1024 1 1 (16384)
I0506 16:22:11.657335  2784 net.cpp:165] Memory required for data: 897866392
I0506 16:22:11.657338  2784 layer_factory.hpp:77] Creating layer loss3/classifier_foodCAT_googlenet_food101
I0506 16:22:11.657346  2784 net.cpp:106] Creating Layer loss3/classifier_foodCAT_googlenet_food101
I0506 16:22:11.657348  2784 net.cpp:454] loss3/classifier_foodCAT_googlenet_food101 <- pool5/7x7_s1
I0506 16:22:11.657353  2784 net.cpp:411] loss3/classifier_foodCAT_googlenet_food101 -> loss3/classifier_foodCAT_googlenet_food101
I0506 16:22:11.658776  2784 net.cpp:150] Setting up loss3/classifier_foodCAT_googlenet_food101
I0506 16:22:11.658785  2784 net.cpp:157] Top shape: 16 218 (3488)
I0506 16:22:11.658788  2784 net.cpp:165] Memory required for data: 897880344
I0506 16:22:11.658793  2784 layer_factory.hpp:77] Creating layer loss3/classifier_foodCAT_googlenet_food101_loss3/classifier_foodCAT_googlenet_food101_0_split
I0506 16:22:11.658799  2784 net.cpp:106] Creating Layer loss3/classifier_foodCAT_googlenet_food101_loss3/classifier_foodCAT_googlenet_food101_0_split
I0506 16:22:11.658802  2784 net.cpp:454] loss3/classifier_foodCAT_googlenet_food101_loss3/classifier_foodCAT_googlenet_food101_0_split <- loss3/classifier_foodCAT_googlenet_food101
I0506 16:22:11.658808  2784 net.cpp:411] loss3/classifier_foodCAT_googlenet_food101_loss3/classifier_foodCAT_googlenet_food101_0_split -> loss3/classifier_foodCAT_googlenet_food101_loss3/classifier_foodCAT_googlenet_food101_0_split_0
I0506 16:22:11.658814  2784 net.cpp:411] loss3/classifier_foodCAT_googlenet_food101_loss3/classifier_foodCAT_googlenet_food101_0_split -> loss3/classifier_foodCAT_googlenet_food101_loss3/classifier_foodCAT_googlenet_food101_0_split_1
I0506 16:22:11.658820  2784 net.cpp:411] loss3/classifier_foodCAT_googlenet_food101_loss3/classifier_foodCAT_googlenet_food101_0_split -> loss3/classifier_foodCAT_googlenet_food101_loss3/classifier_foodCAT_googlenet_food101_0_split_2
I0506 16:22:11.658870  2784 net.cpp:150] Setting up loss3/classifier_foodCAT_googlenet_food101_loss3/classifier_foodCAT_googlenet_food101_0_split
I0506 16:22:11.658876  2784 net.cpp:157] Top shape: 16 218 (3488)
I0506 16:22:11.658879  2784 net.cpp:157] Top shape: 16 218 (3488)
I0506 16:22:11.658884  2784 net.cpp:157] Top shape: 16 218 (3488)
I0506 16:22:11.658886  2784 net.cpp:165] Memory required for data: 897922200
I0506 16:22:11.658890  2784 layer_factory.hpp:77] Creating layer loss3/loss3
I0506 16:22:11.658895  2784 net.cpp:106] Creating Layer loss3/loss3
I0506 16:22:11.658897  2784 net.cpp:454] loss3/loss3 <- loss3/classifier_foodCAT_googlenet_food101_loss3/classifier_foodCAT_googlenet_food101_0_split_0
I0506 16:22:11.658902  2784 net.cpp:454] loss3/loss3 <- label_data_1_split_6
…
