…
I0506 16:19:26.816658  2704 caffe.cpp:241] GPU device name: GeForce GTX 980
I0506 16:19:26.963253  2704 net.cpp:49] Initializing net from parameters: 
name: "foodCAT_googlenet_food101"
state {
  phase: TEST
}
layer {
  name: "data"
  type: "ImageData"
  top: "data"
  top: "label"
  include {
    phase: TEST
  }
  transform_param {
    mirror: false
    crop_size: 224
    mean_value: 104
    mean_value: 117
    mean_value: 123
  }
  image_data_param {
    source: "foodCAT/test_just_foodCAT.txt"
    batch_size: 16
    shuffle: true
    new_height: 256
    new_width: 256
  }
}
layer {
  name: "conv1/7x7_s2"
  type: "Convolution"
  bottom: "data"
  top: "conv1/7x7_s2"
  param {
    lr_mult: 1
    decay_mult: 1
  }
  param {
    lr_mult: 2
    decay_mult: 0
  }
  convolution_param {
    num_output: 64
    pad: 3
    kernel_size: 7
    stride: 2
    weight_filler {
      type: "xavier"
      std: 0.1
    }
    bias_filler {
      type: "constant"
      value: 0.2
    }
  }
}
layer {
  name: "conv1/relu_7x7"
  type: "ReLU"
  bottom: "conv1/7x7_s2"
  top: "conv1/7x7_s2"
}
layer {
  name: "pool1/3x3_s2"
  type: "Pooling"
  bottom: "conv1/7x7_s2"
  top: "pool1/3x3_s2"
  pooling_param {
    pool: MAX
    kernel_size: 3
    stride: 2
  }
}
layer {
  name: "pool1/norm1"
  type: "LRN"
  bottom: "pool1/3x3_s2"
  top: "pool1/norm1"
  lrn_param {
    local_size: 5
    alpha: 0.0001
    beta: 0.75
  }
}
layer {
  name: "conv2/3x3_reduce"
  type: "Convolution"
  bottom: "pool1/norm1"
  top: "conv2/3x3_reduce"
  param {
    lr_mult: 1
    decay_mult: 1
  }
  param {
    lr_mult: 2
    decay_mult: 0
  }
  convolution_param {
    num_output: 64
    kernel_size: 1
    weight_filler {
      type: "xavier"
      std: 0.1
    }
    bias_filler {
      type: "constant"
      value: 0.2
    }
  }
}
layer {
  name: "conv2/relu_3x3_reduce"
  type: "ReLU"
  bottom: "conv2/3x3_reduce"
  top: "conv2/3x3_reduce"
}
layer {
  name: "conv2/3x3"
  type: "Convolution"
  bottom: "conv2/3x3_reduce"
  top: "conv2/3x3"
  param {
    lr_mult: 1
    decay_mult: 1
  }
  param {
    lr_mult: 2
    decay_mult: 0
  }
  convolution_param {
    num_output: 192
    pad: 1
    kernel_size: 3
    weight_filler {
      type: "xavier"
      std: 0.03
    }
    bias_filler {
      type: "constant"
      value: 0.2
    }
  }
}
layer {
  name: "conv2/relu_3x3"
  type: "ReLU"
  bottom: "conv2/3x3"
  top: "conv2/3x3"
}
layer {
  name: "conv2/norm2"
  type: "LRN"
  bottom: "conv2/3x3"
  top: "conv2/norm2"
  lrn_param {
    local_size: 5
    alpha: 0.0001
    beta: 0.75
  }
}
layer {
  name: "pool2/3x3_s2"
  type: "Pooling"
  bottom: "conv2/norm2"
  top: "pool2/3x3_s2"
  pooling_param {
    pool: MAX
    kernel_size: 3
    stride: 2
  }
}
layer {
  name: "inception_3a/1x1"
  type: "Convolution"
  bottom: "pool2/3x3_s2"
  top: "inception_3a/1x1"
  param {
    lr_mult: 1
    decay_mult: 1
  }
  param {
    lr_mult: 2
    decay_mult: 0
  }
  convolution_param {
    num_output: 64
    kernel_size: 1
    weight_filler {
      type: "xavier"
      std: 0.03
    }
    bias_filler {
      type: "constant"
      value: 0.2
    }
  }
}
layer {
  name: "inception_3a/relu_1x1"
  type: "ReLU"
  bottom: "inception_3a/1x1"
  top: "inception_3a/1x1"
}
layer {
  name: "inception_3a/3x3_reduce"
  type: "Convolution"
  bottom: "pool2/3x3_s2"
  top: "inception_3a/3x3_reduce"
  param {
    lr_mult: 1
    decay_mult: 1
  }
  param {
    lr_mult: 2
    decay_mult: 0
  }
  convolution_param {
    num_output: 96
    kernel_size: 1
    weight_filler {
      type: "xavier"
      std: 0.09
    }
    bias_filler {
      type: "constant"
      value: 0.2
    }
  }
}
layer {
  name: "inception_3a/relu_3x3_reduce"
  type: "ReLU"
  bottom: "inception_3a/3x3_reduce"
  top: "inception_3a/3x3_reduce"
}
layer {
  name: "inception_3a/3x3"
  type: "Convolution"
  bottom: "inception_3a/3x3_reduce"
  top: "inception_3a/3x3"
  param {
    lr_mult: 1
    decay_mult: 1
  }
  param {
    lr_mult: 2
    decay_mult: 0
  }
  convolution_param {
    num_output: 128
    pad: 1
    kernel_size: 3
    weight_filler {
      type: "xavier"
      std: 0.03
    }
    bias_filler {
      type: "constant"
      value: 0.2
    }
  }
}
layer {
  name: "inception_3a/relu_3x3"
  type: "ReLU"
  bottom: "inception_3a/3x3"
  top: "inception_3a/3x3"
}
layer {
  name: "inception_3a/5x5_reduce"
  type: "Convolution"
  bottom: "pool2/3x3_s2"
  top: "inception_3a/5x5_reduce"
  param {
    lr_mult: 1
    decay_mult: 1
  }
  param {
    lr_mult: 2
    decay_mult: 0
  }
  convolution_param {
    num_output: 16
    kernel_size: 1
    weight_filler {
      type: "xavier"
      std: 0.2
    }
    bias_filler {
      type: "constant"
      value: 0.2
    }
  }
}
layer {
  name: "inception_3a/relu_5x5_reduce"
  type: "ReLU"
  bottom: "inception_3a/5x5_reduce"
  top: "inception_3a/5x5_reduce"
}
layer {
  name: "inception_3a/5x5"
  type: "Convolution"
  bottom: "inception_3a/5x5_reduce"
  top: "inception_3a/5x5"
  param {
    lr_mult: 1
    decay_mult: 1
  }
  param {
    lr_mult: 2
    decay_mult: 0
  }
  convolution_param {
    num_output: 32
    pad: 2
    kernel_size: 5
    weight_filler {
      type: "xavier"
      std: 0.03
    }
    bias_filler {
      type: "constant"
      value: 0.2
    }
  }
}
layer {
  name: "inception_3a/relu_5x5"
  type: "ReLU"
  bottom: "inception_3a/5x5"
  top: "inception_3a/5x5"
}
layer {
  name: "inception_3a/pool"
  type: "Pooling"
  bottom: "pool2/3x3_s2"
  top: "inception_3a/pool"
  pooling_param {
    pool: MAX
    kernel_size: 3
    stride: 1
    pad: 1
  }
}
layer {
  name: "inception_3a/pool_proj"
  type: "Convolution"
  bottom: "inception_3a/pool"
  top: "inception_3a/pool_proj"
  param {
    lr_mult: 1
    decay_mult: 1
  }
  param {
    lr_mult: 2
    decay_mult: 0
  }
  convolution_param {
    num_output: 32
    kernel_size: 1
    weight_filler {
      type: "xavier"
      std: 0.1
    }
    bias_filler {
      type: "constant"
      value: 0.2
    }
  }
}
layer {
  name: "inception_3a/relu_pool_proj"
  type: "ReLU"
  bottom: "inception_3a/pool_proj"
  top: "inception_3a/pool_proj"
}
layer {
  name: "inception_3a/output"
  type: "Concat"
  bottom: "inception_3a/1x1"
  bottom: "inception_3a/3x3"
  bottom: "inception_3a/5x5"
  bottom: "inception_3a/pool_proj"
  top: "inception_3a/output"
}
layer {
  name: "inception_3b/1x1"
  type: "Convolution"
  bottom: "inception_3a/output"
  top: "inception_3b/1x1"
  param {
    lr_mult: 1
    decay_mult: 1
  }
  param {
    lr_mult: 2
    decay_mult: 0
  }
  convolution_param {
    num_output: 128
    kernel_size: 1
    weight_filler {
      type: "xavier"
      std: 0.03
    }
    bias_filler {
      type: "constant"
      value: 0.2
    }
  }
}
layer {
  name: "inception_3b/relu_1x1"
  type: "ReLU"
  bottom: "inception_3b/1x1"
  top: "inception_3b/1x1"
}
layer {
  name: "inception_3b/3x3_reduce"
  type: "Convolution"
  bottom: "inception_3a/output"
  top: "inception_3b/3x3_reduce"
  param {
    lr_mult: 1
    decay_mult: 1
  }
  param {
    lr_mult: 2
    decay_mult: 0
  }
  convolution_param {
    num_output: 128
    kernel_size: 1
    weight_filler {
      type: "xavier"
      std: 0.09
    }
    bias_filler {
      type: "constant"
      value: 0.2
    }
  }
}
layer {
  name: "inception_3b/relu_3x3_reduce"
  type: "ReLU"
  bottom: "inception_3b/3x3_reduce"
  top: "inception_3b/3x3_reduce"
}
layer {
  name: "inception_3b/3x3"
  type: "Convolution"
  bottom: "inception_3b/3x3_reduce"
  top: "inception_3b/3x3"
  param {
    lr_mult: 1
    decay_mult: 1
  }
  param {
    lr_mult: 2
    decay_mult: 0
  }
  convolution_param {
    num_output: 192
    pad: 1
    kernel_size: 3
    weight_filler {
      type: "xavier"
      std: 0.03
    }
    bias_filler {
      type: "constant"
      value: 0.2
    }
  }
}
layer {
  name: "inception_3b/relu_3x3"
  type: "ReLU"
  bottom: "inception_3b/3x3"
  top: "inception_3b/3x3"
}
layer {
  name: "inception_3b/5x5_reduce"
  type: "Convolution"
  bottom: "inception_3a/output"
  top: "inception_3b/5x5_reduce"
  param {
    lr_mult: 1
    decay_mult: 1
  }
  param {
    lr_mult: 2
    decay_mult: 0
  }
  convolution_param {
    num_output: 32
    kernel_size: 1
    weight_filler {
      type: "xavier"
      std: 0.2
    }
    bias_filler {
      type: "constant"
      value: 0.2
    }
  }
}
layer {
  name: "inception_3b/relu_5x5_reduce"
  type: "ReLU"
  bottom: "inception_3b/5x5_reduce"
  top: "inception_3b/5x5_reduce"
}
layer {
  name: "inception_3b/5x5"
  type: "Convolution"
  bottom: "inception_3b/5x5_reduce"
  top: "inception_3b/5x5"
  param {
    lr_mult: 1
    decay_mult: 1
  }
  param {
    lr_mult: 2
    decay_mult: 0
  }
  convolution_param {
    num_output: 96
    pad: 2
    kernel_size: 5
    weight_filler {
      type: "xavier"
      std: 0.03
    }
    bias_filler {
      type: "constant"
      value: 0.2
    }
  }
}
layer {
  name: "inception_3b/relu_5x5"
  type: "ReLU"
  bottom: "inception_3b/5x5"
  top: "inception_3b/5x5"
}
layer {
  name: "inception_3b/pool"
  type: "Pooling"
  bottom: "inception_3a/output"
  top: "inception_3b/pool"
  pooling_param {
    pool: MAX
    kernel_size: 3
    stride: 1
    pad: 1
  }
}
layer {
  name: "inception_3b/pool_proj"
  type: "Convolution"
  bottom: "inception_3b/pool"
  top: "inception_3b/pool_proj"
  param {
    lr_mult: 1
    decay_mult: 1
  }
  param {
    lr_mult: 2
    decay_mult: 0
  }
  convolution_param {
    num_output: 64
    kernel_size: 1
    weight_filler {
      type: "xavier"
      std: 0.1
    }
    bias_filler {
      type: "constant"
      value: 0.2
    }
  }
}
layer {
  name: "inception_3b/relu_pool_proj"
  type: "ReLU"
  bottom: "inception_3b/pool_proj"
  top: "inception_3b/pool_proj"
}
layer {
  name: "inception_3b/output"
  type: "Concat"
  bottom: "inception_3b/1x1"
  bottom: "inception_3b/3x3"
  bottom: "inception_3b/5x5"
  bottom: "inception_3b/pool_proj"
  top: "inception_3b/output"
}
layer {
  name: "pool3/3x3_s2"
  type: "Pooling"
  bottom: "inception_3b/output"
  top: "pool3/3x3_s2"
  pooling_param {
    pool: MAX
    kernel_size: 3
    stride: 2
  }
}
layer {
  name: "inception_4a/1x1"
  type: "Convolution"
  bottom: "pool3/3x3_s2"
  top: "inception_4a/1x1"
  param {
    lr_mult: 1
    decay_mult: 1
  }
  param {
    lr_mult: 2
    decay_mult: 0
  }
  convolution_param {
    num_output: 192
    kernel_size: 1
    weight_filler {
      type: "xavier"
      std: 0.03
    }
    bias_filler {
      type: "constant"
      value: 0.2
    }
  }
}
layer {
  name: "inception_4a/relu_1x1"
  type: "ReLU"
  bottom: "inception_4a/1x1"
  top: "inception_4a/1x1"
}
layer {
  name: "inception_4a/3x3_reduce"
  type: "Convolution"
  bottom: "pool3/3x3_s2"
  top: "inception_4a/3x3_reduce"
  param {
    lr_mult: 1
    decay_mult: 1
  }
  param {
    lr_mult: 2
    decay_mult: 0
  }
  convolution_param {
    num_output: 96
    kernel_size: 1
    weight_filler {
      type: "xavier"
      std: 0.09
    }
    bias_filler {
      type: "constant"
      value: 0.2
    }
  }
}
layer {
  name: "inception_4a/relu_3x3_reduce"
  type: "ReLU"
  bottom: "inception_4a/3x3_reduce"
  top: "inception_4a/3x3_reduce"
}
layer {
  name: "inception_4a/3x3"
  type: "Convolution"
  bottom: "inception_4a/3x3_reduce"
  top: "inception_4a/3x3"
  param {
    lr_mult: 1
    decay_mult: 1
  }
  param {
    lr_mult: 2
    decay_mult: 0
  }
  convolution_param {
    num_output: 208
    pad: 1
    kernel_size: 3
    weight_filler {
      type: "xavier"
      std: 0.03
    }
    bias_filler {
      type: "constant"
      value: 0.2
    }
  }
}
layer {
  name: "inception_4a/relu_3x3"
  type: "ReLU"
  bottom: "inception_4a/3x3"
  top: "inception_4a/3x3"
}
layer {
  name: "inception_4a/5x5_reduce"
  type: "Convolution"
  bottom: "pool3/3x3_s2"
  top: "inception_4a/5x5_reduce"
  param {
    lr_mult: 1
    decay_mult: 1
  }
  param {
    lr_mult: 2
    decay_mult: 0
  }
  convolution_param {
    num_output: 16
    kernel_size: 1
    weight_filler {
      type: "xavier"
      std: 0.2
    }
    bias_filler {
      type: "constant"
      value: 0.2
    }
  }
}
layer {
  name: "inception_4a/relu_5x5_reduce"
  type: "ReLU"
  bottom: "inception_4a/5x5_reduce"
  top: "inception_4a/5x5_reduce"
}
layer {
  name: "inception_4a/5x5"
  type: "Convolution"
  bottom: "inception_4a/5x5_reduce"
  top: "inception_4a/5x5"
  param {
    lr_mult: 1
    decay_mult: 1
  }
  param {
    lr_mult: 2
    decay_mult: 0
  }
  convolution_param {
    num_output: 48
    pad: 2
    kernel_size: 5
    weight_filler {
      type: "xavier"
      std: 0.03
    }
    bias_filler {
      type: "constant"
      value: 0.2
    }
  }
}
layer {
  name: "inception_4a/relu_5x5"
  type: "ReLU"
  bottom: "inception_4a/5x5"
  top: "inception_4a/5x5"
}
layer {
  name: "inception_4a/pool"
  type: "Pooling"
  bottom: "pool3/3x3_s2"
  top: "inception_4a/pool"
  pooling_param {
    pool: MAX
    kernel_size: 3
    stride: 1
    pad: 1
  }
}
layer {
  name: "inception_4a/pool_proj"
  type: "Convolution"
  bottom: "inception_4a/pool"
  top: "inception_4a/pool_proj"
  param {
    lr_mult: 1
    decay_mult: 1
  }
  param {
    lr_mult: 2
    decay_mult: 0
  }
  convolution_param {
    num_output: 64
    kernel_size: 1
    weight_filler {
      type: "xavier"
      std: 0.1
    }
    bias_filler {
      type: "constant"
      value: 0.2
    }
  }
}
layer {
  name: "inception_4a/relu_pool_proj"
  type: "ReLU"
  bottom: "inception_4a/pool_proj"
  top: "inception_4a/pool_proj"
}
layer {
  name: "inception_4a/output"
  type: "Concat"
  bottom: "inception_4a/1x1"
  bottom: "inception_4a/3x3"
  bottom: "inception_4a/5x5"
  bottom: "inception_4a/pool_proj"
  top: "inception_4a/output"
}
layer {
  name: "loss1/ave_pool"
  type: "Pooling"
  bottom: "inception_4a/output"
  top: "loss1/ave_pool"
  pooling_param {
    pool: AVE
    kernel_size: 5
    stride: 3
  }
}
layer {
  name: "loss1/conv"
  type: "Convolution"
  bottom: "loss1/ave_pool"
  top: "loss1/conv"
  param {
    lr_mult: 1
    decay_mult: 1
  }
  param {
    lr_mult: 2
    decay_mult: 0
  }
  convolution_param {
    num_output: 128
    kernel_size: 1
    weight_filler {
      type: "xavier"
      std: 0.08
    }
    bias_filler {
      type: "constant"
      value: 0.2
    }
  }
}
layer {
  name: "loss1/relu_conv"
  type: "ReLU"
  bottom: "loss1/conv"
  top: "loss1/conv"
}
layer {
  name: "loss1/fc"
  type: "InnerProduct"
  bottom: "loss1/conv"
  top: "loss1/fc"
  param {
    lr_mult: 1
    decay_mult: 1
  }
  param {
    lr_mult: 2
    decay_mult: 0
  }
  inner_product_param {
    num_output: 1024
    weight_filler {
      type: "xavier"
      std: 0.02
    }
    bias_filler {
      type: "constant"
      value: 0.2
    }
  }
}
layer {
  name: "loss1/relu_fc"
  type: "ReLU"
  bottom: "loss1/fc"
  top: "loss1/fc"
}
layer {
  name: "loss1/drop_fc"
  type: "Dropout"
  bottom: "loss1/fc"
  top: "loss1/fc"
  dropout_param {
    dropout_ratio: 0.7
  }
}
layer {
  name: "loss1/classifier"
  type: "InnerProduct"
  bottom: "loss1/fc"
  top: "loss1/classifier"
  param {
    lr_mult: 1
    decay_mult: 1
  }
  param {
    lr_mult: 2
    decay_mult: 0
  }
  inner_product_param {
    num_output: 1000
    weight_filler {
      type: "xavier"
      std: 0.0009765625
    }
    bias_filler {
      type: "constant"
      value: 0
    }
  }
}
layer {
  name: "loss1/loss"
  type: "SoftmaxWithLoss"
  bottom: "loss1/classifier"
  bottom: "label"
  top: "loss1/loss1"
  loss_weight: 0.3
}
layer {
  name: "loss1/top-1"
  type: "Accuracy"
  bottom: "loss1/classifier"
  bottom: "label"
  top: "loss1/top-1"
  include {
    phase: TEST
  }
}
layer {
  name: "loss1/top-5"
  type: "Accuracy"
  bottom: "loss1/classifier"
  bottom: "label"
  top: "loss1/top-5"
  include {
    phase: TEST
  }
  accuracy_param {
    top_k: 5
  }
}
layer {
  name: "inception_4b/1x1"
  type: "Convolution"
  bottom: "inception_4a/output"
  top: "inception_4b/1x1"
  param {
    lr_mult: 1
    decay_mult: 1
  }
  param {
    lr_mult: 2
    decay_mult: 0
  }
  convolution_param {
    num_output: 160
    kernel_size: 1
    weight_filler {
      type: "xavier"
      std: 0.03
    }
    bias_filler {
      type: "constant"
      value: 0.2
    }
  }
}
layer {
  name: "inception_4b/relu_1x1"
  type: "ReLU"
  bottom: "inception_4b/1x1"
  top: "inception_4b/1x1"
}
layer {
  name: "inception_4b/3x3_reduce"
  type: "Convolution"
  bottom: "inception_4a/output"
  top: "inception_4b/3x3_reduce"
  param {
    lr_mult: 1
    decay_mult: 1
  }
  param {
    lr_mult: 2
    decay_mult: 0
  }
  convolution_param {
    num_output: 112
    kernel_size: 1
    weight_filler {
      type: "xavier"
      std: 0.09
    }
    bias_filler {
      type: "constant"
      value: 0.2
    }
  }
}
layer {
  name: "inception_4b/relu_3x3_reduce"
  type: "ReLU"
  bottom: "inception_4b/3x3_reduce"
  top: "inception_4b/3x3_reduce"
}
layer {
  name: "inception_4b/3x3"
  type: "Convolution"
  bottom: "inception_4b/3x3_reduce"
  top: "inception_4b/3x3"
  param {
    lr_mult: 1
    decay_mult: 1
  }
  param {
    lr_mult: 2
    decay_mult: 0
  }
  convolution_param {
    num_output: 224
    pad: 1
    kernel_size: 3
    weight_filler {
      type: "xavier"
      std: 0.03
    }
    bias_filler {
      type: "constant"
      value: 0.2
    }
  }
}
layer {
  name: "inception_4b/relu_3x3"
  type: "ReLU"
  bottom: "inception_4b/3x3"
  top: "inception_4b/3x3"
}
layer {
  name: "inception_4b/5x5_reduce"
  type: "Convolution"
  bottom: "inception_4a/output"
  top: "inception_4b/5x5_reduce"
  param {
    lr_mult: 1
    decay_mult: 1
  }
  param {
    lr_mult: 2
    decay_mult: 0
  }
  convolution_param {
    num_output: 24
    kernel_size: 1
    weight_filler {
      type: "xavier"
      std: 0.2
    }
    bias_filler {
      type: "constant"
      value: 0.2
    }
  }
}
layer {
  name: "inception_4b/relu_5x5_reduce"
  type: "ReLU"
  bottom: "inception_4b/5x5_reduce"
  top: "inception_4b/5x5_reduce"
}
layer {
  name: "inception_4b/5x5"
  type: "Convolution"
  bottom: "inception_4b/5x5_reduce"
  top: "inception_4b/5x5"
  param {
    lr_mult: 1
    decay_mult: 1
  }
  param {
    lr_mult: 2
    decay_mult: 0
  }
  convolution_param {
    num_output: 64
    pad: 2
    kernel_size: 5
    weight_filler {
      type: "xavier"
      std: 0.03
    }
    bias_filler {
      type: "constant"
      value: 0.2
    }
  }
}
layer {
  name: "inception_4b/relu_5x5"
  type: "ReLU"
  bottom: "inception_4b/5x5"
  top: "inception_4b/5x5"
}
layer {
  name: "inception_4b/pool"
  type: "Pooling"
  bottom: "inception_4a/output"
  top: "inception_4b/pool"
  pooling_param {
    pool: MAX
    kernel_size: 3
    stride: 1
    pad: 1
  }
}
layer {
  name: "inception_4b/pool_proj"
  type: "Convolution"
  bottom: "inception_4b/pool"
  top: "inception_4b/pool_proj"
  param {
    lr_mult: 1
    decay_mult: 1
  }
  param {
    lr_mult: 2
    decay_mult: 0
  }
  convolution_param {
    num_output: 64
    kernel_size: 1
    weight_filler {
      type: "xavier"
      std: 0.1
    }
    bias_filler {
      type: "constant"
      value: 0.2
    }
  }
}
layer {
  name: "inception_4b/relu_pool_proj"
  type: "ReLU"
  bottom: "inception_4b/pool_proj"
  top: "inception_4b/pool_proj"
}
layer {
  name: "inception_4b/output"
  type: "Concat"
  bottom: "inception_4b/1x1"
  bottom: "inception_4b/3x3"
  bottom: "inception_4b/5x5"
  bottom: "inception_4b/pool_proj"
  top: "inception_4b/output"
}
layer {
  name: "inception_4c/1x1"
  type: "Convolution"
  bottom: "inception_4b/output"
  top: "inception_4c/1x1"
  param {
    lr_mult: 1
    decay_mult: 1
  }
  param {
    lr_mult: 2
    decay_mult: 0
  }
  convolution_param {
    num_output: 128
    kernel_size: 1
    weight_filler {
      type: "xavier"
      std: 0.03
    }
    bias_filler {
      type: "constant"
      value: 0.2
    }
  }
}
layer {
  name: "inception_4c/relu_1x1"
  type: "ReLU"
  bottom: "inception_4c/1x1"
  top: "inception_4c/1x1"
}
layer {
  name: "inception_4c/3x3_reduce"
  type: "Convolution"
  bottom: "inception_4b/output"
  top: "inception_4c/3x3_reduce"
  param {
    lr_mult: 1
    decay_mult: 1
  }
  param {
    lr_mult: 2
    decay_mult: 0
  }
  convolution_param {
    num_output: 128
    kernel_size: 1
    weight_filler {
      type: "xavier"
      std: 0.09
    }
    bias_filler {
      type: "constant"
      value: 0.2
    }
  }
}
layer {
  name: "inception_4c/relu_3x3_reduce"
  type: "ReLU"
  bottom: "inception_4c/3x3_reduce"
  top: "inception_4c/3x3_reduce"
}
layer {
  name: "inception_4c/3x3"
  type: "Convolution"
  bottom: "inception_4c/3x3_reduce"
  top: "inception_4c/3x3"
  param {
    lr_mult: 1
    decay_mult: 1
  }
  param {
    lr_mult: 2
    decay_mult: 0
  }
  convolution_param {
    num_output: 256
    pad: 1
    kernel_size: 3
    weight_filler {
      type: "xavier"
      std: 0.03
    }
    bias_filler {
      type: "constant"
      value: 0.2
    }
  }
}
layer {
  name: "inception_4c/relu_3x3"
  type: "ReLU"
  bottom: "inception_4c/3x3"
  top: "inception_4c/3x3"
}
layer {
  name: "inception_4c/5x5_reduce"
  type: "Convolution"
  bottom: "inception_4b/output"
  top: "inception_4c/5x5_reduce"
  param {
    lr_mult: 1
    decay_mult: 1
  }
  param {
    lr_mult: 2
    decay_mult: 0
  }
  convolution_param {
    num_output: 24
    kernel_size: 1
    weight_filler {
      type: "xavier"
      std: 0.2
    }
    bias_filler {
      type: "constant"
      value: 0.2
    }
  }
}
layer {
  name: "inception_4c/relu_5x5_reduce"
  type: "ReLU"
  bottom: "inception_4c/5x5_reduce"
  top: "inception_4c/5x5_reduce"
}
layer {
  name: "inception_4c/5x5"
  type: "Convolution"
  bottom: "inception_4c/5x5_reduce"
  top: "inception_4c/5x5"
  param {
    lr_mult: 1
    decay_mult: 1
  }
  param {
    lr_mult: 2
    decay_mult: 0
  }
  convolution_param {
    num_output: 64
    pad: 2
    kernel_size: 5
    weight_filler {
      type: "xavier"
      std: 0.03
    }
    bias_filler {
      type: "constant"
      value: 0.2
    }
  }
}
layer {
  name: "inception_4c/relu_5x5"
  type: "ReLU"
  bottom: "inception_4c/5x5"
  top: "inception_4c/5x5"
}
layer {
  name: "inception_4c/pool"
  type: "Pooling"
  bottom: "inception_4b/output"
  top: "inception_4c/pool"
  pooling_param {
    pool: MAX
    kernel_size: 3
    stride: 1
    pad: 1
  }
}
layer {
  name: "inception_4c/pool_proj"
  type: "Convolution"
  bottom: "inception_4c/pool"
  top: "inception_4c/pool_proj"
  param {
    lr_mult: 1
    decay_mult: 1
  }
  param {
    lr_mult: 2
    decay_mult: 0
  }
  convolution_param {
    num_output: 64
    kernel_size: 1
    weight_filler {
      type: "xavier"
      std: 0.1
    }
    bias_filler {
      type: "constant"
      value: 0.2
    }
  }
}
layer {
  name: "inception_4c/relu_pool_proj"
  type: "ReLU"
  bottom: "inception_4c/pool_proj"
  top: "inception_4c/pool_proj"
}
layer {
  name: "inception_4c/output"
  type: "Concat"
  bottom: "inception_4c/1x1"
  bottom: "inception_4c/3x3"
  bottom: "inception_4c/5x5"
  bottom: "inception_4c/pool_proj"
  top: "inception_4c/output"
}
layer {
  name: "inception_4d/1x1"
  type: "Convolution"
  bottom: "inception_4c/output"
  top: "inception_4d/1x1"
  param {
    lr_mult: 1
    decay_mult: 1
  }
  param {
    lr_mult: 2
    decay_mult: 0
  }
  convolution_param {
    num_output: 112
    kernel_size: 1
    weight_filler {
      type: "xavier"
      std: 0.03
    }
    bias_filler {
      type: "constant"
      value: 0.2
    }
  }
}
layer {
  name: "inception_4d/relu_1x1"
  type: "ReLU"
  bottom: "inception_4d/1x1"
  top: "inception_4d/1x1"
}
layer {
  name: "inception_4d/3x3_reduce"
  type: "Convolution"
  bottom: "inception_4c/output"
  top: "inception_4d/3x3_reduce"
  param {
    lr_mult: 1
    decay_mult: 1
  }
  param {
    lr_mult: 2
    decay_mult: 0
  }
  convolution_param {
    num_output: 144
    kernel_size: 1
    weight_filler {
      type: "xavier"
      std: 0.09
    }
    bias_filler {
      type: "constant"
      value: 0.2
    }
  }
}
layer {
  name: "inception_4d/relu_3x3_reduce"
  type: "ReLU"
  bottom: "inception_4d/3x3_reduce"
  top: "inception_4d/3x3_reduce"
}
layer {
  name: "inception_4d/3x3"
  type: "Convolution"
  bottom: "inception_4d/3x3_reduce"
  top: "inception_4d/3x3"
  param {
    lr_mult: 1
    decay_mult: 1
  }
  param {
    lr_mult: 2
    decay_mult: 0
  }
  convolution_param {
    num_output: 288
    pad: 1
    kernel_size: 3
    weight_filler {
      type: "xavier"
      std: 0.03
    }
    bias_filler {
      type: "constant"
      value: 0.2
    }
  }
}
layer {
  name: "inception_4d/relu_3x3"
  type: "ReLU"
  bottom: "inception_4d/3x3"
  top: "inception_4d/3x3"
}
layer {
  name: "inception_4d/5x5_reduce"
  type: "Convolution"
  bottom: "inception_4c/output"
  top: "inception_4d/5x5_reduce"
  param {
    lr_mult: 1
    decay_mult: 1
  }
  param {
    lr_mult: 2
    decay_mult: 0
  }
  convolution_param {
    num_output: 32
    kernel_size: 1
    weight_filler {
      type: "xavier"
      std: 0.2
    }
    bias_filler {
      type: "constant"
      value: 0.2
    }
  }
}
layer {
  name: "inception_4d/relu_5x5_reduce"
  type: "ReLU"
  bottom: "inception_4d/5x5_reduce"
  top: "inception_4d/5x5_reduce"
}
layer {
  name: "inception_4d/5x5"
  type: "Convolution"
  bottom: "inception_4d/5x5_reduce"
  top: "inception_4d/5x5"
  param {
    lr_mult: 1
    decay_mult: 1
  }
  param {
    lr_mult: 2
    decay_mult: 0
  }
  convolution_param {
    num_output: 64
    pad: 2
    kernel_size: 5
    weight_filler {
      type: "xavier"
      std: 0.03
    }
    bias_filler {
      type: "constant"
      value: 0.2
    }
  }
}
layer {
  name: "inception_4d/relu_5x5"
  type: "ReLU"
  bottom: "inception_4d/5x5"
  top: "inception_4d/5x5"
}
layer {
  name: "inception_4d/pool"
  type: "Pooling"
  bottom: "inception_4c/output"
  top: "inception_4d/pool"
  pooling_param {
    pool: MAX
    kernel_size: 3
    stride: 1
    pad: 1
  }
}
layer {
  name: "inception_4d/pool_proj"
  type: "Convolution"
  bottom: "inception_4d/pool"
  top: "inception_4d/pool_proj"
  param {
    lr_mult: 1
    decay_mult: 1
  }
  param {
    lr_mult: 2
    decay_mult: 0
  }
  convolution_param {
    num_output: 64
    kernel_size: 1
    weight_filler {
      type: "xavier"
      std: 0.1
    }
    bias_filler {
      type: "constant"
      value: 0.2
    }
  }
}
layer {
  name: "inception_4d/relu_pool_proj"
  type: "ReLU"
  bottom: "inception_4d/pool_proj"
  top: "inception_4d/pool_proj"
}
layer {
  name: "inception_4d/output"
  type: "Concat"
  bottom: "inception_4d/1x1"
  bottom: "inception_4d/3x3"
  bottom: "inception_4d/5x5"
  bottom: "inception_4d/pool_proj"
  top: "inception_4d/output"
}
layer {
  name: "loss2/ave_pool"
  type: "Pooling"
  bottom: "inception_4d/output"
  top: "loss2/ave_pool"
  pooling_param {
    pool: AVE
    kernel_size: 5
    stride: 3
  }
}
layer {
  name: "loss2/conv"
  type: "Convolution"
  bottom: "loss2/ave_pool"
  top: "loss2/conv"
  param {
    lr_mult: 1
    decay_mult: 1
  }
  param {
    lr_mult: 2
    decay_mult: 0
  }
  convolution_param {
    num_output: 128
    kernel_size: 1
    weight_filler {
      type: "xavier"
      std: 0.08
    }
    bias_filler {
      type: "constant"
      value: 0.2
    }
  }
}
layer {
  name: "loss2/relu_conv"
  type: "ReLU"
  bottom: "loss2/conv"
  top: "loss2/conv"
}
layer {
  name: "loss2/fc"
  type: "InnerProduct"
  bottom: "loss2/conv"
  top: "loss2/fc"
  param {
    lr_mult: 1
    decay_mult: 1
  }
  param {
    lr_mult: 2
    decay_mult: 0
  }
  inner_product_param {
    num_output: 1024
    weight_filler {
      type: "xavier"
      std: 0.02
    }
    bias_filler {
      type: "constant"
      value: 0.2
    }
  }
}
layer {
  name: "loss2/relu_fc"
  type: "ReLU"
  bottom: "loss2/fc"
  top: "loss2/fc"
}
layer {
  name: "loss2/drop_fc"
  type: "Dropout"
  bottom: "loss2/fc"
  top: "loss2/fc"
  dropout_param {
    dropout_ratio: 0.7
  }
}
layer {
  name: "loss2/classifier"
  type: "InnerProduct"
  bottom: "loss2/fc"
  top: "loss2/classifier"
  param {
    lr_mult: 1
    decay_mult: 1
  }
  param {
    lr_mult: 2
    decay_mult: 0
  }
  inner_product_param {
    num_output: 1000
    weight_filler {
      type: "xavier"
      std: 0.0009765625
    }
    bias_filler {
      type: "constant"
      value: 0
    }
  }
}
layer {
  name: "loss2/loss"
  type: "SoftmaxWithLoss"
  bottom: "loss2/classifier"
  bottom: "label"
  top: "loss2/loss1"
  loss_weight: 0.3
}
layer {
  name: "loss2/top-1"
  type: "Accuracy"
  bottom: "loss2/classifier"
  bottom: "label"
  top: "loss2/top-1"
  include {
    phase: TEST
  }
}
layer {
  name: "loss2/top-5"
  type: "Accuracy"
  bottom: "loss2/classifier"
  bottom: "label"
  top: "loss2/top-5"
  include {
    phase: TEST
  }
  accuracy_param {
    top_k: 5
  }
}
layer {
  name: "inception_4e/1x1"
  type: "Convolution"
  bottom: "inception_4d/output"
  top: "inception_4e/1x1"
  param {
    lr_mult: 1
    decay_mult: 1
  }
  param {
    lr_mult: 2
    decay_mult: 0
  }
  convolution_param {
    num_output: 256
    kernel_size: 1
    weight_filler {
      type: "xavier"
      std: 0.03
    }
    bias_filler {
      type: "constant"
      value: 0.2
    }
  }
}
layer {
  name: "inception_4e/relu_1x1"
  type: "ReLU"
  bottom: "inception_4e/1x1"
  top: "inception_4e/1x1"
}
layer {
  name: "inception_4e/3x3_reduce"
  type: "Convolution"
  bottom: "inception_4d/output"
  top: "inception_4e/3x3_reduce"
  param {
    lr_mult: 1
    decay_mult: 1
  }
  param {
    lr_mult: 2
    decay_mult: 0
  }
  convolution_param {
    num_output: 160
    kernel_size: 1
    weight_filler {
      type: "xavier"
      std: 0.09
    }
    bias_filler {
      type: "constant"
      value: 0.2
    }
  }
}
layer {
  name: "inception_4e/relu_3x3_reduce"
  type: "ReLU"
  bottom: "inception_4e/3x3_reduce"
  top: "inception_4e/3x3_reduce"
}
layer {
  name: "inception_4e/3x3"
  type: "Convolution"
  bottom: "inception_4e/3x3_reduce"
  top: "inception_4e/3x3"
  param {
    lr_mult: 1
    decay_mult: 1
  }
  param {
    lr_mult: 2
    decay_mult: 0
  }
  convolution_param {
    num_output: 3
I0506 16:19:26.963855  2704 layer_factory.hpp:77] Creating layer data
I0506 16:19:26.963888  2704 net.cpp:106] Creating Layer data
I0506 16:19:26.963894  2704 net.cpp:411] data -> data
I0506 16:19:26.963914  2704 net.cpp:411] data -> label
I0506 16:19:26.963928  2704 image_data_layer.cpp:38] Opening file foodCAT/test_just_foodCAT.txt
I0506 16:19:26.967640  2704 image_data_layer.cpp:48] Shuffling data
I0506 16:19:26.968124  2704 image_data_layer.cpp:53] A total of 4530 images.
I0506 16:19:26.992544  2704 image_data_layer.cpp:80] output data size: 16,3,224,224
I0506 16:19:27.005007  2704 net.cpp:150] Setting up data
I0506 16:19:27.005053  2704 net.cpp:157] Top shape: 16 3 224 224 (2408448)
I0506 16:19:27.005061  2704 net.cpp:157] Top shape: 16 (16)
I0506 16:19:27.005065  2704 net.cpp:165] Memory required for data: 9633856
I0506 16:19:27.005072  2704 layer_factory.hpp:77] Creating layer label_data_1_split
I0506 16:19:27.005445  2704 net.cpp:106] Creating Layer label_data_1_split
I0506 16:19:27.005455  2704 net.cpp:454] label_data_1_split <- label
I0506 16:19:27.005465  2704 net.cpp:411] label_data_1_split -> label_data_1_split_0
I0506 16:19:27.005476  2704 net.cpp:411] label_data_1_split -> label_data_1_split_1
I0506 16:19:27.005483  2704 net.cpp:411] label_data_1_split -> label_data_1_split_2
I0506 16:19:27.005489  2704 net.cpp:411] label_data_1_split -> label_data_1_split_3
I0506 16:19:27.005494  2704 net.cpp:411] label_data_1_split -> label_data_1_split_4
I0506 16:19:27.005499  2704 net.cpp:411] label_data_1_split -> label_data_1_split_5
I0506 16:19:27.005506  2704 net.cpp:411] label_data_1_split -> label_data_1_split_6
I0506 16:19:27.005511  2704 net.cpp:411] label_data_1_split -> label_data_1_split_7
I0506 16:19:27.005516  2704 net.cpp:411] label_data_1_split -> label_data_1_split_8
I0506 16:19:27.005612  2704 net.cpp:150] Setting up label_data_1_split
I0506 16:19:27.005620  2704 net.cpp:157] Top shape: 16 (16)
I0506 16:19:27.005623  2704 net.cpp:157] Top shape: 16 (16)
I0506 16:19:27.005627  2704 net.cpp:157] Top shape: 16 (16)
I0506 16:19:27.005631  2704 net.cpp:157] Top shape: 16 (16)
I0506 16:19:27.005635  2704 net.cpp:157] Top shape: 16 (16)
I0506 16:19:27.005638  2704 net.cpp:157] Top shape: 16 (16)
I0506 16:19:27.005642  2704 net.cpp:157] Top shape: 16 (16)
I0506 16:19:27.005646  2704 net.cpp:157] Top shape: 16 (16)
I0506 16:19:27.005650  2704 net.cpp:157] Top shape: 16 (16)
I0506 16:19:27.005653  2704 net.cpp:165] Memory required for data: 9634432
I0506 16:19:27.005657  2704 layer_factory.hpp:77] Creating layer conv1/7x7_s2
I0506 16:19:27.005676  2704 net.cpp:106] Creating Layer conv1/7x7_s2
I0506 16:19:27.005686  2704 net.cpp:454] conv1/7x7_s2 <- data
I0506 16:19:27.005698  2704 net.cpp:411] conv1/7x7_s2 -> conv1/7x7_s2
I0506 16:19:27.271756  2704 net.cpp:150] Setting up conv1/7x7_s2
I0506 16:19:27.271802  2704 net.cpp:157] Top shape: 16 64 112 112 (12845056)
I0506 16:19:27.271807  2704 net.cpp:165] Memory required for data: 61014656
I0506 16:19:27.271821  2704 layer_factory.hpp:77] Creating layer conv1/relu_7x7
I0506 16:19:27.271832  2704 net.cpp:106] Creating Layer conv1/relu_7x7
I0506 16:19:27.271836  2704 net.cpp:454] conv1/relu_7x7 <- conv1/7x7_s2
I0506 16:19:27.271842  2704 net.cpp:397] conv1/relu_7x7 -> conv1/7x7_s2 (in-place)
I0506 16:19:27.271963  2704 net.cpp:150] Setting up conv1/relu_7x7
I0506 16:19:27.271970  2704 net.cpp:157] Top shape: 16 64 112 112 (12845056)
I0506 16:19:27.271975  2704 net.cpp:165] Memory required for data: 112394880
I0506 16:19:27.271977  2704 layer_factory.hpp:77] Creating layer pool1/3x3_s2
I0506 16:19:27.271986  2704 net.cpp:106] Creating Layer pool1/3x3_s2
I0506 16:19:27.271989  2704 net.cpp:454] pool1/3x3_s2 <- conv1/7x7_s2
I0506 16:19:27.271994  2704 net.cpp:411] pool1/3x3_s2 -> pool1/3x3_s2
I0506 16:19:27.272028  2704 net.cpp:150] Setting up pool1/3x3_s2
I0506 16:19:27.272033  2704 net.cpp:157] Top shape: 16 64 56 56 (3211264)
I0506 16:19:27.272037  2704 net.cpp:165] Memory required for data: 125239936
I0506 16:19:27.272039  2704 layer_factory.hpp:77] Creating layer pool1/norm1
I0506 16:19:27.272047  2704 net.cpp:106] Creating Layer pool1/norm1
I0506 16:19:27.272050  2704 net.cpp:454] pool1/norm1 <- pool1/3x3_s2
I0506 16:19:27.272054  2704 net.cpp:411] pool1/norm1 -> pool1/norm1
I0506 16:19:27.272558  2704 net.cpp:150] Setting up pool1/norm1
I0506 16:19:27.272568  2704 net.cpp:157] Top shape: 16 64 56 56 (3211264)
I0506 16:19:27.272572  2704 net.cpp:165] Memory required for data: 138084992
I0506 16:19:27.272574  2704 layer_factory.hpp:77] Creating layer conv2/3x3_reduce
I0506 16:19:27.272584  2704 net.cpp:106] Creating Layer conv2/3x3_reduce
I0506 16:19:27.272588  2704 net.cpp:454] conv2/3x3_reduce <- pool1/norm1
I0506 16:19:27.272593  2704 net.cpp:411] conv2/3x3_reduce -> conv2/3x3_reduce
I0506 16:19:27.273525  2704 net.cpp:150] Setting up conv2/3x3_reduce
I0506 16:19:27.273536  2704 net.cpp:157] Top shape: 16 64 56 56 (3211264)
I0506 16:19:27.273540  2704 net.cpp:165] Memory required for data: 150930048
I0506 16:19:27.273547  2704 layer_factory.hpp:77] Creating layer conv2/relu_3x3_reduce
I0506 16:19:27.273553  2704 net.cpp:106] Creating Layer conv2/relu_3x3_reduce
I0506 16:19:27.273557  2704 net.cpp:454] conv2/relu_3x3_reduce <- conv2/3x3_reduce
I0506 16:19:27.273562  2704 net.cpp:397] conv2/relu_3x3_reduce -> conv2/3x3_reduce (in-place)
I0506 16:19:27.273679  2704 net.cpp:150] Setting up conv2/relu_3x3_reduce
I0506 16:19:27.273687  2704 net.cpp:157] Top shape: 16 64 56 56 (3211264)
I0506 16:19:27.273691  2704 net.cpp:165] Memory required for data: 163775104
I0506 16:19:27.273694  2704 layer_factory.hpp:77] Creating layer conv2/3x3
I0506 16:19:27.273704  2704 net.cpp:106] Creating Layer conv2/3x3
I0506 16:19:27.273707  2704 net.cpp:454] conv2/3x3 <- conv2/3x3_reduce
I0506 16:19:27.273712  2704 net.cpp:411] conv2/3x3 -> conv2/3x3
I0506 16:19:27.275306  2704 net.cpp:150] Setting up conv2/3x3
I0506 16:19:27.275317  2704 net.cpp:157] Top shape: 16 192 56 56 (9633792)
I0506 16:19:27.275321  2704 net.cpp:165] Memory required for data: 202310272
I0506 16:19:27.275328  2704 layer_factory.hpp:77] Creating layer conv2/relu_3x3
I0506 16:19:27.275333  2704 net.cpp:106] Creating Layer conv2/relu_3x3
I0506 16:19:27.275337  2704 net.cpp:454] conv2/relu_3x3 <- conv2/3x3
I0506 16:19:27.275341  2704 net.cpp:397] conv2/relu_3x3 -> conv2/3x3 (in-place)
I0506 16:19:27.275522  2704 net.cpp:150] Setting up conv2/relu_3x3
I0506 16:19:27.275532  2704 net.cpp:157] Top shape: 16 192 56 56 (9633792)
I0506 16:19:27.275534  2704 net.cpp:165] Memory required for data: 240845440
I0506 16:19:27.275538  2704 layer_factory.hpp:77] Creating layer conv2/norm2
I0506 16:19:27.275543  2704 net.cpp:106] Creating Layer conv2/norm2
I0506 16:19:27.275552  2704 net.cpp:454] conv2/norm2 <- conv2/3x3
I0506 16:19:27.275563  2704 net.cpp:411] conv2/norm2 -> conv2/norm2
I0506 16:19:27.275686  2704 net.cpp:150] Setting up conv2/norm2
I0506 16:19:27.275694  2704 net.cpp:157] Top shape: 16 192 56 56 (9633792)
I0506 16:19:27.275697  2704 net.cpp:165] Memory required for data: 279380608
I0506 16:19:27.275701  2704 layer_factory.hpp:77] Creating layer pool2/3x3_s2
I0506 16:19:27.275706  2704 net.cpp:106] Creating Layer pool2/3x3_s2
I0506 16:19:27.275709  2704 net.cpp:454] pool2/3x3_s2 <- conv2/norm2
I0506 16:19:27.275713  2704 net.cpp:411] pool2/3x3_s2 -> pool2/3x3_s2
I0506 16:19:27.275737  2704 net.cpp:150] Setting up pool2/3x3_s2
I0506 16:19:27.275740  2704 net.cpp:157] Top shape: 16 192 28 28 (2408448)
I0506 16:19:27.275743  2704 net.cpp:165] Memory required for data: 289014400
I0506 16:19:27.275746  2704 layer_factory.hpp:77] Creating layer pool2/3x3_s2_pool2/3x3_s2_0_split
I0506 16:19:27.275751  2704 net.cpp:106] Creating Layer pool2/3x3_s2_pool2/3x3_s2_0_split
I0506 16:19:27.275755  2704 net.cpp:454] pool2/3x3_s2_pool2/3x3_s2_0_split <- pool2/3x3_s2
I0506 16:19:27.275759  2704 net.cpp:411] pool2/3x3_s2_pool2/3x3_s2_0_split -> pool2/3x3_s2_pool2/3x3_s2_0_split_0
I0506 16:19:27.275764  2704 net.cpp:411] pool2/3x3_s2_pool2/3x3_s2_0_split -> pool2/3x3_s2_pool2/3x3_s2_0_split_1
I0506 16:19:27.275769  2704 net.cpp:411] pool2/3x3_s2_pool2/3x3_s2_0_split -> pool2/3x3_s2_pool2/3x3_s2_0_split_2
I0506 16:19:27.275774  2704 net.cpp:411] pool2/3x3_s2_pool2/3x3_s2_0_split -> pool2/3x3_s2_pool2/3x3_s2_0_split_3
I0506 16:19:27.275807  2704 net.cpp:150] Setting up pool2/3x3_s2_pool2/3x3_s2_0_split
I0506 16:19:27.275811  2704 net.cpp:157] Top shape: 16 192 28 28 (2408448)
I0506 16:19:27.275815  2704 net.cpp:157] Top shape: 16 192 28 28 (2408448)
I0506 16:19:27.275818  2704 net.cpp:157] Top shape: 16 192 28 28 (2408448)
I0506 16:19:27.275822  2704 net.cpp:157] Top shape: 16 192 28 28 (2408448)
I0506 16:19:27.275825  2704 net.cpp:165] Memory required for data: 327549568
I0506 16:19:27.275828  2704 layer_factory.hpp:77] Creating layer inception_3a/1x1
I0506 16:19:27.275835  2704 net.cpp:106] Creating Layer inception_3a/1x1
I0506 16:19:27.275838  2704 net.cpp:454] inception_3a/1x1 <- pool2/3x3_s2_pool2/3x3_s2_0_split_0
I0506 16:19:27.275843  2704 net.cpp:411] inception_3a/1x1 -> inception_3a/1x1
I0506 16:19:27.276727  2704 net.cpp:150] Setting up inception_3a/1x1
I0506 16:19:27.276737  2704 net.cpp:157] Top shape: 16 64 28 28 (802816)
I0506 16:19:27.276741  2704 net.cpp:165] Memory required for data: 330760832
I0506 16:19:27.276746  2704 layer_factory.hpp:77] Creating layer inception_3a/relu_1x1
I0506 16:19:27.276751  2704 net.cpp:106] Creating Layer inception_3a/relu_1x1
I0506 16:19:27.276756  2704 net.cpp:454] inception_3a/relu_1x1 <- inception_3a/1x1
I0506 16:19:27.276760  2704 net.cpp:397] inception_3a/relu_1x1 -> inception_3a/1x1 (in-place)
I0506 16:19:27.276867  2704 net.cpp:150] Setting up inception_3a/relu_1x1
I0506 16:19:27.276873  2704 net.cpp:157] Top shape: 16 64 28 28 (802816)
I0506 16:19:27.276876  2704 net.cpp:165] Memory required for data: 333972096
I0506 16:19:27.276880  2704 layer_factory.hpp:77] Creating layer inception_3a/3x3_reduce
I0506 16:19:27.276886  2704 net.cpp:106] Creating Layer inception_3a/3x3_reduce
I0506 16:19:27.276890  2704 net.cpp:454] inception_3a/3x3_reduce <- pool2/3x3_s2_pool2/3x3_s2_0_split_1
I0506 16:19:27.276895  2704 net.cpp:411] inception_3a/3x3_reduce -> inception_3a/3x3_reduce
I0506 16:19:27.277818  2704 net.cpp:150] Setting up inception_3a/3x3_reduce
I0506 16:19:27.277828  2704 net.cpp:157] Top shape: 16 96 28 28 (1204224)
I0506 16:19:27.277832  2704 net.cpp:165] Memory required for data: 338788992
I0506 16:19:27.277839  2704 layer_factory.hpp:77] Creating layer inception_3a/relu_3x3_reduce
I0506 16:19:27.277845  2704 net.cpp:106] Creating Layer inception_3a/relu_3x3_reduce
I0506 16:19:27.277848  2704 net.cpp:454] inception_3a/relu_3x3_reduce <- inception_3a/3x3_reduce
I0506 16:19:27.277853  2704 net.cpp:397] inception_3a/relu_3x3_reduce -> inception_3a/3x3_reduce (in-place)
I0506 16:19:27.278048  2704 net.cpp:150] Setting up inception_3a/relu_3x3_reduce
I0506 16:19:27.278058  2704 net.cpp:157] Top shape: 16 96 28 28 (1204224)
I0506 16:19:27.278061  2704 net.cpp:165] Memory required for data: 343605888
I0506 16:19:27.278064  2704 layer_factory.hpp:77] Creating layer inception_3a/3x3
I0506 16:19:27.278072  2704 net.cpp:106] Creating Layer inception_3a/3x3
I0506 16:19:27.278076  2704 net.cpp:454] inception_3a/3x3 <- inception_3a/3x3_reduce
I0506 16:19:27.278081  2704 net.cpp:411] inception_3a/3x3 -> inception_3a/3x3
I0506 16:19:27.279326  2704 net.cpp:150] Setting up inception_3a/3x3
I0506 16:19:27.279335  2704 net.cpp:157] Top shape: 16 128 28 28 (1605632)
I0506 16:19:27.279340  2704 net.cpp:165] Memory required for data: 350028416
I0506 16:19:27.279345  2704 layer_factory.hpp:77] Creating layer inception_3a/relu_3x3
I0506 16:19:27.279350  2704 net.cpp:106] Creating Layer inception_3a/relu_3x3
I0506 16:19:27.279353  2704 net.cpp:454] inception_3a/relu_3x3 <- inception_3a/3x3
I0506 16:19:27.279357  2704 net.cpp:397] inception_3a/relu_3x3 -> inception_3a/3x3 (in-place)
I0506 16:19:27.279476  2704 net.cpp:150] Setting up inception_3a/relu_3x3
I0506 16:19:27.279484  2704 net.cpp:157] Top shape: 16 128 28 28 (1605632)
I0506 16:19:27.279486  2704 net.cpp:165] Memory required for data: 356450944
I0506 16:19:27.279489  2704 layer_factory.hpp:77] Creating layer inception_3a/5x5_reduce
I0506 16:19:27.279497  2704 net.cpp:106] Creating Layer inception_3a/5x5_reduce
I0506 16:19:27.279500  2704 net.cpp:454] inception_3a/5x5_reduce <- pool2/3x3_s2_pool2/3x3_s2_0_split_2
I0506 16:19:27.279507  2704 net.cpp:411] inception_3a/5x5_reduce -> inception_3a/5x5_reduce
I0506 16:19:27.280189  2704 net.cpp:150] Setting up inception_3a/5x5_reduce
I0506 16:19:27.280200  2704 net.cpp:157] Top shape: 16 16 28 28 (200704)
I0506 16:19:27.280202  2704 net.cpp:165] Memory required for data: 357253760
I0506 16:19:27.280208  2704 layer_factory.hpp:77] Creating layer inception_3a/relu_5x5_reduce
I0506 16:19:27.280213  2704 net.cpp:106] Creating Layer inception_3a/relu_5x5_reduce
I0506 16:19:27.280217  2704 net.cpp:454] inception_3a/relu_5x5_reduce <- inception_3a/5x5_reduce
I0506 16:19:27.280222  2704 net.cpp:397] inception_3a/relu_5x5_reduce -> inception_3a/5x5_reduce (in-place)
I0506 16:19:27.280336  2704 net.cpp:150] Setting up inception_3a/relu_5x5_reduce
I0506 16:19:27.280342  2704 net.cpp:157] Top shape: 16 16 28 28 (200704)
I0506 16:19:27.280345  2704 net.cpp:165] Memory required for data: 358056576
I0506 16:19:27.280349  2704 layer_factory.hpp:77] Creating layer inception_3a/5x5
I0506 16:19:27.280356  2704 net.cpp:106] Creating Layer inception_3a/5x5
I0506 16:19:27.280360  2704 net.cpp:454] inception_3a/5x5 <- inception_3a/5x5_reduce
I0506 16:19:27.280366  2704 net.cpp:411] inception_3a/5x5 -> inception_3a/5x5
I0506 16:19:27.281252  2704 net.cpp:150] Setting up inception_3a/5x5
I0506 16:19:27.281265  2704 net.cpp:157] Top shape: 16 32 28 28 (401408)
I0506 16:19:27.281267  2704 net.cpp:165] Memory required for data: 359662208
I0506 16:19:27.281273  2704 layer_factory.hpp:77] Creating layer inception_3a/relu_5x5
I0506 16:19:27.281278  2704 net.cpp:106] Creating Layer inception_3a/relu_5x5
I0506 16:19:27.281282  2704 net.cpp:454] inception_3a/relu_5x5 <- inception_3a/5x5
I0506 16:19:27.281287  2704 net.cpp:397] inception_3a/relu_5x5 -> inception_3a/5x5 (in-place)
I0506 16:19:27.281481  2704 net.cpp:150] Setting up inception_3a/relu_5x5
I0506 16:19:27.281491  2704 net.cpp:157] Top shape: 16 32 28 28 (401408)
I0506 16:19:27.281494  2704 net.cpp:165] Memory required for data: 361267840
I0506 16:19:27.281497  2704 layer_factory.hpp:77] Creating layer inception_3a/pool
I0506 16:19:27.281502  2704 net.cpp:106] Creating Layer inception_3a/pool
I0506 16:19:27.281507  2704 net.cpp:454] inception_3a/pool <- pool2/3x3_s2_pool2/3x3_s2_0_split_3
I0506 16:19:27.281512  2704 net.cpp:411] inception_3a/pool -> inception_3a/pool
I0506 16:19:27.281541  2704 net.cpp:150] Setting up inception_3a/pool
I0506 16:19:27.281549  2704 net.cpp:157] Top shape: 16 192 28 28 (2408448)
I0506 16:19:27.281556  2704 net.cpp:165] Memory required for data: 370901632
I0506 16:19:27.281559  2704 layer_factory.hpp:77] Creating layer inception_3a/pool_proj
I0506 16:19:27.281568  2704 net.cpp:106] Creating Layer inception_3a/pool_proj
I0506 16:19:27.281571  2704 net.cpp:454] inception_3a/pool_proj <- inception_3a/pool
I0506 16:19:27.281577  2704 net.cpp:411] inception_3a/pool_proj -> inception_3a/pool_proj
I0506 16:19:27.282290  2704 net.cpp:150] Setting up inception_3a/pool_proj
I0506 16:19:27.282302  2704 net.cpp:157] Top shape: 16 32 28 28 (401408)
I0506 16:19:27.282316  2704 net.cpp:165] Memory required for data: 372507264
I0506 16:19:27.282325  2704 layer_factory.hpp:77] Creating layer inception_3a/relu_pool_proj
I0506 16:19:27.282332  2704 net.cpp:106] Creating Layer inception_3a/relu_pool_proj
I0506 16:19:27.282336  2704 net.cpp:454] inception_3a/relu_pool_proj <- inception_3a/pool_proj
I0506 16:19:27.282341  2704 net.cpp:397] inception_3a/relu_pool_proj -> inception_3a/pool_proj (in-place)
I0506 16:19:27.282490  2704 net.cpp:150] Setting up inception_3a/relu_pool_proj
I0506 16:19:27.282497  2704 net.cpp:157] Top shape: 16 32 28 28 (401408)
I0506 16:19:27.282500  2704 net.cpp:165] Memory required for data: 374112896
I0506 16:19:27.282505  2704 layer_factory.hpp:77] Creating layer inception_3a/output
I0506 16:19:27.282510  2704 net.cpp:106] Creating Layer inception_3a/output
I0506 16:19:27.282515  2704 net.cpp:454] inception_3a/output <- inception_3a/1x1
I0506 16:19:27.282518  2704 net.cpp:454] inception_3a/output <- inception_3a/3x3
I0506 16:19:27.282522  2704 net.cpp:454] inception_3a/output <- inception_3a/5x5
I0506 16:19:27.282526  2704 net.cpp:454] inception_3a/output <- inception_3a/pool_proj
I0506 16:19:27.282529  2704 net.cpp:411] inception_3a/output -> inception_3a/output
I0506 16:19:27.282552  2704 net.cpp:150] Setting up inception_3a/output
I0506 16:19:27.282557  2704 net.cpp:157] Top shape: 16 256 28 28 (3211264)
I0506 16:19:27.282559  2704 net.cpp:165] Memory required for data: 386957952
I0506 16:19:27.282562  2704 layer_factory.hpp:77] Creating layer inception_3a/output_inception_3a/output_0_split
I0506 16:19:27.282567  2704 net.cpp:106] Creating Layer inception_3a/output_inception_3a/output_0_split
I0506 16:19:27.282570  2704 net.cpp:454] inception_3a/output_inception_3a/output_0_split <- inception_3a/output
I0506 16:19:27.282577  2704 net.cpp:411] inception_3a/output_inception_3a/output_0_split -> inception_3a/output_inception_3a/output_0_split_0
I0506 16:19:27.282582  2704 net.cpp:411] inception_3a/output_inception_3a/output_0_split -> inception_3a/output_inception_3a/output_0_split_1
I0506 16:19:27.282588  2704 net.cpp:411] inception_3a/output_inception_3a/output_0_split -> inception_3a/output_inception_3a/output_0_split_2
I0506 16:19:27.282594  2704 net.cpp:411] inception_3a/output_inception_3a/output_0_split -> inception_3a/output_inception_3a/output_0_split_3
I0506 16:19:27.282635  2704 net.cpp:150] Setting up inception_3a/output_inception_3a/output_0_split
I0506 16:19:27.282640  2704 net.cpp:157] Top shape: 16 256 28 28 (3211264)
I0506 16:19:27.282644  2704 net.cpp:157] Top shape: 16 256 28 28 (3211264)
I0506 16:19:27.282649  2704 net.cpp:157] Top shape: 16 256 28 28 (3211264)
I0506 16:19:27.282652  2704 net.cpp:157] Top shape: 16 256 28 28 (3211264)
I0506 16:19:27.282655  2704 net.cpp:165] Memory required for data: 438338176
I0506 16:19:27.282658  2704 layer_factory.hpp:77] Creating layer inception_3b/1x1
I0506 16:19:27.282665  2704 net.cpp:106] Creating Layer inception_3b/1x1
I0506 16:19:27.282668  2704 net.cpp:454] inception_3b/1x1 <- inception_3a/output_inception_3a/output_0_split_0
I0506 16:19:27.282675  2704 net.cpp:411] inception_3b/1x1 -> inception_3b/1x1
I0506 16:19:27.283700  2704 net.cpp:150] Setting up inception_3b/1x1
I0506 16:19:27.283710  2704 net.cpp:157] Top shape: 16 128 28 28 (1605632)
I0506 16:19:27.283715  2704 net.cpp:165] Memory required for data: 444760704
I0506 16:19:27.283722  2704 layer_factory.hpp:77] Creating layer inception_3b/relu_1x1
I0506 16:19:27.283732  2704 net.cpp:106] Creating Layer inception_3b/relu_1x1
I0506 16:19:27.283736  2704 net.cpp:454] inception_3b/relu_1x1 <- inception_3b/1x1
I0506 16:19:27.283740  2704 net.cpp:397] inception_3b/relu_1x1 -> inception_3b/1x1 (in-place)
I0506 16:19:27.283855  2704 net.cpp:150] Setting up inception_3b/relu_1x1
I0506 16:19:27.283864  2704 net.cpp:157] Top shape: 16 128 28 28 (1605632)
I0506 16:19:27.283866  2704 net.cpp:165] Memory required for data: 451183232
I0506 16:19:27.283869  2704 layer_factory.hpp:77] Creating layer inception_3b/3x3_reduce
I0506 16:19:27.283876  2704 net.cpp:106] Creating Layer inception_3b/3x3_reduce
I0506 16:19:27.283880  2704 net.cpp:454] inception_3b/3x3_reduce <- inception_3a/output_inception_3a/output_0_split_1
I0506 16:19:27.283886  2704 net.cpp:411] inception_3b/3x3_reduce -> inception_3b/3x3_reduce
I0506 16:19:27.284688  2704 net.cpp:150] Setting up inception_3b/3x3_reduce
I0506 16:19:27.284698  2704 net.cpp:157] Top shape: 16 128 28 28 (1605632)
I0506 16:19:27.284703  2704 net.cpp:165] Memory required for data: 457605760
I0506 16:19:27.284708  2704 layer_factory.hpp:77] Creating layer inception_3b/relu_3x3_reduce
I0506 16:19:27.284713  2704 net.cpp:106] Creating Layer inception_3b/relu_3x3_reduce
I0506 16:19:27.284716  2704 net.cpp:454] inception_3b/relu_3x3_reduce <- inception_3b/3x3_reduce
I0506 16:19:27.284723  2704 net.cpp:397] inception_3b/relu_3x3_reduce -> inception_3b/3x3_reduce (in-place)
I0506 16:19:27.284914  2704 net.cpp:150] Setting up inception_3b/relu_3x3_reduce
I0506 16:19:27.284922  2704 net.cpp:157] Top shape: 16 128 28 28 (1605632)
I0506 16:19:27.284926  2704 net.cpp:165] Memory required for data: 464028288
I0506 16:19:27.284929  2704 layer_factory.hpp:77] Creating layer inception_3b/3x3
I0506 16:19:27.284940  2704 net.cpp:106] Creating Layer inception_3b/3x3
I0506 16:19:27.284943  2704 net.cpp:454] inception_3b/3x3 <- inception_3b/3x3_reduce
I0506 16:19:27.284950  2704 net.cpp:411] inception_3b/3x3 -> inception_3b/3x3
I0506 16:19:27.286881  2704 net.cpp:150] Setting up inception_3b/3x3
I0506 16:19:27.286891  2704 net.cpp:157] Top shape: 16 192 28 28 (2408448)
I0506 16:19:27.286895  2704 net.cpp:165] Memory required for data: 473662080
I0506 16:19:27.286900  2704 layer_factory.hpp:77] Creating layer inception_3b/relu_3x3
I0506 16:19:27.286905  2704 net.cpp:106] Creating Layer inception_3b/relu_3x3
I0506 16:19:27.286908  2704 net.cpp:454] inception_3b/relu_3x3 <- inception_3b/3x3
I0506 16:19:27.286913  2704 net.cpp:397] inception_3b/relu_3x3 -> inception_3b/3x3 (in-place)
I0506 16:19:27.287034  2704 net.cpp:150] Setting up inception_3b/relu_3x3
I0506 16:19:27.287041  2704 net.cpp:157] Top shape: 16 192 28 28 (2408448)
I0506 16:19:27.287045  2704 net.cpp:165] Memory required for data: 483295872
I0506 16:19:27.287047  2704 layer_factory.hpp:77] Creating layer inception_3b/5x5_reduce
I0506 16:19:27.287055  2704 net.cpp:106] Creating Layer inception_3b/5x5_reduce
I0506 16:19:27.287058  2704 net.cpp:454] inception_3b/5x5_reduce <- inception_3a/output_inception_3a/output_0_split_2
I0506 16:19:27.287065  2704 net.cpp:411] inception_3b/5x5_reduce -> inception_3b/5x5_reduce
I0506 16:19:27.287837  2704 net.cpp:150] Setting up inception_3b/5x5_reduce
I0506 16:19:27.287847  2704 net.cpp:157] Top shape: 16 32 28 28 (401408)
I0506 16:19:27.287850  2704 net.cpp:165] Memory required for data: 484901504
I0506 16:19:27.287855  2704 layer_factory.hpp:77] Creating layer inception_3b/relu_5x5_reduce
I0506 16:19:27.287861  2704 net.cpp:106] Creating Layer inception_3b/relu_5x5_reduce
I0506 16:19:27.287865  2704 net.cpp:454] inception_3b/relu_5x5_reduce <- inception_3b/5x5_reduce
I0506 16:19:27.287870  2704 net.cpp:397] inception_3b/relu_5x5_reduce -> inception_3b/5x5_reduce (in-place)
I0506 16:19:27.287992  2704 net.cpp:150] Setting up inception_3b/relu_5x5_reduce
I0506 16:19:27.287998  2704 net.cpp:157] Top shape: 16 32 28 28 (401408)
I0506 16:19:27.288002  2704 net.cpp:165] Memory required for data: 486507136
I0506 16:19:27.288007  2704 layer_factory.hpp:77] Creating layer inception_3b/5x5
I0506 16:19:27.288019  2704 net.cpp:106] Creating Layer inception_3b/5x5
I0506 16:19:27.288023  2704 net.cpp:454] inception_3b/5x5 <- inception_3b/5x5_reduce
I0506 16:19:27.288028  2704 net.cpp:411] inception_3b/5x5 -> inception_3b/5x5
I0506 16:19:27.289290  2704 net.cpp:150] Setting up inception_3b/5x5
I0506 16:19:27.289300  2704 net.cpp:157] Top shape: 16 96 28 28 (1204224)
I0506 16:19:27.289304  2704 net.cpp:165] Memory required for data: 491324032
I0506 16:19:27.289309  2704 layer_factory.hpp:77] Creating layer inception_3b/relu_5x5
I0506 16:19:27.289314  2704 net.cpp:106] Creating Layer inception_3b/relu_5x5
I0506 16:19:27.289319  2704 net.cpp:454] inception_3b/relu_5x5 <- inception_3b/5x5
I0506 16:19:27.289324  2704 net.cpp:397] inception_3b/relu_5x5 -> inception_3b/5x5 (in-place)
I0506 16:19:27.289530  2704 net.cpp:150] Setting up inception_3b/relu_5x5
I0506 16:19:27.289540  2704 net.cpp:157] Top shape: 16 96 28 28 (1204224)
I0506 16:19:27.289542  2704 net.cpp:165] Memory required for data: 496140928
I0506 16:19:27.289546  2704 layer_factory.hpp:77] Creating layer inception_3b/pool
I0506 16:19:27.289551  2704 net.cpp:106] Creating Layer inception_3b/pool
I0506 16:19:27.289556  2704 net.cpp:454] inception_3b/pool <- inception_3a/output_inception_3a/output_0_split_3
I0506 16:19:27.289561  2704 net.cpp:411] inception_3b/pool -> inception_3b/pool
I0506 16:19:27.289592  2704 net.cpp:150] Setting up inception_3b/pool
I0506 16:19:27.289597  2704 net.cpp:157] Top shape: 16 256 28 28 (3211264)
I0506 16:19:27.289599  2704 net.cpp:165] Memory required for data: 508985984
I0506 16:19:27.289602  2704 layer_factory.hpp:77] Creating layer inception_3b/pool_proj
I0506 16:19:27.289610  2704 net.cpp:106] Creating Layer inception_3b/pool_proj
I0506 16:19:27.289613  2704 net.cpp:454] inception_3b/pool_proj <- inception_3b/pool
I0506 16:19:27.289619  2704 net.cpp:411] inception_3b/pool_proj -> inception_3b/pool_proj
I0506 16:19:27.290369  2704 net.cpp:150] Setting up inception_3b/pool_proj
I0506 16:19:27.290380  2704 net.cpp:157] Top shape: 16 64 28 28 (802816)
I0506 16:19:27.290383  2704 net.cpp:165] Memory required for data: 512197248
I0506 16:19:27.290388  2704 layer_factory.hpp:77] Creating layer inception_3b/relu_pool_proj
I0506 16:19:27.290393  2704 net.cpp:106] Creating Layer inception_3b/relu_pool_proj
I0506 16:19:27.290397  2704 net.cpp:454] inception_3b/relu_pool_proj <- inception_3b/pool_proj
I0506 16:19:27.290401  2704 net.cpp:397] inception_3b/relu_pool_proj -> inception_3b/pool_proj (in-place)
I0506 16:19:27.290521  2704 net.cpp:150] Setting up inception_3b/relu_pool_proj
I0506 16:19:27.290527  2704 net.cpp:157] Top shape: 16 64 28 28 (802816)
I0506 16:19:27.290530  2704 net.cpp:165] Memory required for data: 515408512
I0506 16:19:27.290534  2704 layer_factory.hpp:77] Creating layer inception_3b/output
I0506 16:19:27.290539  2704 net.cpp:106] Creating Layer inception_3b/output
I0506 16:19:27.290544  2704 net.cpp:454] inception_3b/output <- inception_3b/1x1
I0506 16:19:27.290547  2704 net.cpp:454] inception_3b/output <- inception_3b/3x3
I0506 16:19:27.290551  2704 net.cpp:454] inception_3b/output <- inception_3b/5x5
I0506 16:19:27.290555  2704 net.cpp:454] inception_3b/output <- inception_3b/pool_proj
I0506 16:19:27.290558  2704 net.cpp:411] inception_3b/output -> inception_3b/output
I0506 16:19:27.290580  2704 net.cpp:150] Setting up inception_3b/output
I0506 16:19:27.290583  2704 net.cpp:157] Top shape: 16 480 28 28 (6021120)
I0506 16:19:27.290586  2704 net.cpp:165] Memory required for data: 539492992
I0506 16:19:27.290590  2704 layer_factory.hpp:77] Creating layer pool3/3x3_s2
I0506 16:19:27.290594  2704 net.cpp:106] Creating Layer pool3/3x3_s2
I0506 16:19:27.290597  2704 net.cpp:454] pool3/3x3_s2 <- inception_3b/output
I0506 16:19:27.290603  2704 net.cpp:411] pool3/3x3_s2 -> pool3/3x3_s2
I0506 16:19:27.290629  2704 net.cpp:150] Setting up pool3/3x3_s2
I0506 16:19:27.290634  2704 net.cpp:157] Top shape: 16 480 14 14 (1505280)
I0506 16:19:27.290640  2704 net.cpp:165] Memory required for data: 545514112
I0506 16:19:27.290647  2704 layer_factory.hpp:77] Creating layer pool3/3x3_s2_pool3/3x3_s2_0_split
I0506 16:19:27.290652  2704 net.cpp:106] Creating Layer pool3/3x3_s2_pool3/3x3_s2_0_split
I0506 16:19:27.290654  2704 net.cpp:454] pool3/3x3_s2_pool3/3x3_s2_0_split <- pool3/3x3_s2
I0506 16:19:27.290658  2704 net.cpp:411] pool3/3x3_s2_pool3/3x3_s2_0_split -> pool3/3x3_s2_pool3/3x3_s2_0_split_0
I0506 16:19:27.290663  2704 net.cpp:411] pool3/3x3_s2_pool3/3x3_s2_0_split -> pool3/3x3_s2_pool3/3x3_s2_0_split_1
I0506 16:19:27.290668  2704 net.cpp:411] pool3/3x3_s2_pool3/3x3_s2_0_split -> pool3/3x3_s2_pool3/3x3_s2_0_split_2
I0506 16:19:27.290674  2704 net.cpp:411] pool3/3x3_s2_pool3/3x3_s2_0_split -> pool3/3x3_s2_pool3/3x3_s2_0_split_3
I0506 16:19:27.290714  2704 net.cpp:150] Setting up pool3/3x3_s2_pool3/3x3_s2_0_split
I0506 16:19:27.290719  2704 net.cpp:157] Top shape: 16 480 14 14 (1505280)
I0506 16:19:27.290721  2704 net.cpp:157] Top shape: 16 480 14 14 (1505280)
I0506 16:19:27.290725  2704 net.cpp:157] Top shape: 16 480 14 14 (1505280)
I0506 16:19:27.290729  2704 net.cpp:157] Top shape: 16 480 14 14 (1505280)
I0506 16:19:27.290731  2704 net.cpp:165] Memory required for data: 569598592
I0506 16:19:27.290735  2704 layer_factory.hpp:77] Creating layer inception_4a/1x1
I0506 16:19:27.290741  2704 net.cpp:106] Creating Layer inception_4a/1x1
I0506 16:19:27.290745  2704 net.cpp:454] inception_4a/1x1 <- pool3/3x3_s2_pool3/3x3_s2_0_split_0
I0506 16:19:27.290750  2704 net.cpp:411] inception_4a/1x1 -> inception_4a/1x1
I0506 16:19:27.291923  2704 net.cpp:150] Setting up inception_4a/1x1
I0506 16:19:27.291932  2704 net.cpp:157] Top shape: 16 192 14 14 (602112)
I0506 16:19:27.291936  2704 net.cpp:165] Memory required for data: 572007040
I0506 16:19:27.291942  2704 layer_factory.hpp:77] Creating layer inception_4a/relu_1x1
I0506 16:19:27.291947  2704 net.cpp:106] Creating Layer inception_4a/relu_1x1
I0506 16:19:27.291950  2704 net.cpp:454] inception_4a/relu_1x1 <- inception_4a/1x1
I0506 16:19:27.291955  2704 net.cpp:397] inception_4a/relu_1x1 -> inception_4a/1x1 (in-place)
I0506 16:19:27.292078  2704 net.cpp:150] Setting up inception_4a/relu_1x1
I0506 16:19:27.292085  2704 net.cpp:157] Top shape: 16 192 14 14 (602112)
I0506 16:19:27.292088  2704 net.cpp:165] Memory required for data: 574415488
I0506 16:19:27.292091  2704 layer_factory.hpp:77] Creating layer inception_4a/3x3_reduce
I0506 16:19:27.292099  2704 net.cpp:106] Creating Layer inception_4a/3x3_reduce
I0506 16:19:27.292104  2704 net.cpp:454] inception_4a/3x3_reduce <- pool3/3x3_s2_pool3/3x3_s2_0_split_1
I0506 16:19:27.292109  2704 net.cpp:411] inception_4a/3x3_reduce -> inception_4a/3x3_reduce
I0506 16:19:27.293030  2704 net.cpp:150] Setting up inception_4a/3x3_reduce
I0506 16:19:27.293040  2704 net.cpp:157] Top shape: 16 96 14 14 (301056)
I0506 16:19:27.293045  2704 net.cpp:165] Memory required for data: 575619712
I0506 16:19:27.293053  2704 layer_factory.hpp:77] Creating layer inception_4a/relu_3x3_reduce
I0506 16:19:27.293059  2704 net.cpp:106] Creating Layer inception_4a/relu_3x3_reduce
I0506 16:19:27.293063  2704 net.cpp:454] inception_4a/relu_3x3_reduce <- inception_4a/3x3_reduce
I0506 16:19:27.293067  2704 net.cpp:397] inception_4a/relu_3x3_reduce -> inception_4a/3x3_reduce (in-place)
I0506 16:19:27.293262  2704 net.cpp:150] Setting up inception_4a/relu_3x3_reduce
I0506 16:19:27.293272  2704 net.cpp:157] Top shape: 16 96 14 14 (301056)
I0506 16:19:27.293274  2704 net.cpp:165] Memory required for data: 576823936
I0506 16:19:27.293278  2704 layer_factory.hpp:77] Creating layer inception_4a/3x3
I0506 16:19:27.293287  2704 net.cpp:106] Creating Layer inception_4a/3x3
I0506 16:19:27.293292  2704 net.cpp:454] inception_4a/3x3 <- inception_4a/3x3_reduce
I0506 16:19:27.293298  2704 net.cpp:411] inception_4a/3x3 -> inception_4a/3x3
I0506 16:19:27.295054  2704 net.cpp:150] Setting up inception_4a/3x3
I0506 16:19:27.295064  2704 net.cpp:157] Top shape: 16 208 14 14 (652288)
I0506 16:19:27.295068  2704 net.cpp:165] Memory required for data: 579433088
I0506 16:19:27.295079  2704 layer_factory.hpp:77] Creating layer inception_4a/relu_3x3
I0506 16:19:27.295085  2704 net.cpp:106] Creating Layer inception_4a/relu_3x3
I0506 16:19:27.295089  2704 net.cpp:454] inception_4a/relu_3x3 <- inception_4a/3x3
I0506 16:19:27.295094  2704 net.cpp:397] inception_4a/relu_3x3 -> inception_4a/3x3 (in-place)
I0506 16:19:27.295212  2704 net.cpp:150] Setting up inception_4a/relu_3x3
I0506 16:19:27.295218  2704 net.cpp:157] Top shape: 16 208 14 14 (652288)
I0506 16:19:27.295222  2704 net.cpp:165] Memory required for data: 582042240
I0506 16:19:27.295224  2704 layer_factory.hpp:77] Creating layer inception_4a/5x5_reduce
I0506 16:19:27.295233  2704 net.cpp:106] Creating Layer inception_4a/5x5_reduce
I0506 16:19:27.295235  2704 net.cpp:454] inception_4a/5x5_reduce <- pool3/3x3_s2_pool3/3x3_s2_0_split_2
I0506 16:19:27.295243  2704 net.cpp:411] inception_4a/5x5_reduce -> inception_4a/5x5_reduce
I0506 16:19:27.295975  2704 net.cpp:150] Setting up inception_4a/5x5_reduce
I0506 16:19:27.295986  2704 net.cpp:157] Top shape: 16 16 14 14 (50176)
I0506 16:19:27.295989  2704 net.cpp:165] Memory required for data: 582242944
I0506 16:19:27.295994  2704 layer_factory.hpp:77] Creating layer inception_4a/relu_5x5_reduce
I0506 16:19:27.296000  2704 net.cpp:106] Creating Layer inception_4a/relu_5x5_reduce
I0506 16:19:27.296003  2704 net.cpp:454] inception_4a/relu_5x5_reduce <- inception_4a/5x5_reduce
I0506 16:19:27.296010  2704 net.cpp:397] inception_4a/relu_5x5_reduce -> inception_4a/5x5_reduce (in-place)
I0506 16:19:27.296126  2704 net.cpp:150] Setting up inception_4a/relu_5x5_reduce
I0506 16:19:27.296133  2704 net.cpp:157] Top shape: 16 16 14 14 (50176)
I0506 16:19:27.296136  2704 net.cpp:165] Memory required for data: 582443648
I0506 16:19:27.296139  2704 layer_factory.hpp:77] Creating layer inception_4a/5x5
I0506 16:19:27.296149  2704 net.cpp:106] Creating Layer inception_4a/5x5
I0506 16:19:27.296151  2704 net.cpp:454] inception_4a/5x5 <- inception_4a/5x5_reduce
I0506 16:19:27.296157  2704 net.cpp:411] inception_4a/5x5 -> inception_4a/5x5
I0506 16:19:27.296939  2704 net.cpp:150] Setting up inception_4a/5x5
I0506 16:19:27.296948  2704 net.cpp:157] Top shape: 16 48 14 14 (150528)
I0506 16:19:27.296952  2704 net.cpp:165] Memory required for data: 583045760
I0506 16:19:27.296957  2704 layer_factory.hpp:77] Creating layer inception_4a/relu_5x5
I0506 16:19:27.296962  2704 net.cpp:106] Creating Layer inception_4a/relu_5x5
I0506 16:19:27.296965  2704 net.cpp:454] inception_4a/relu_5x5 <- inception_4a/5x5
I0506 16:19:27.296972  2704 net.cpp:397] inception_4a/relu_5x5 -> inception_4a/5x5 (in-place)
I0506 16:19:27.297166  2704 net.cpp:150] Setting up inception_4a/relu_5x5
I0506 16:19:27.297175  2704 net.cpp:157] Top shape: 16 48 14 14 (150528)
I0506 16:19:27.297178  2704 net.cpp:165] Memory required for data: 583647872
I0506 16:19:27.297181  2704 layer_factory.hpp:77] Creating layer inception_4a/pool
I0506 16:19:27.297188  2704 net.cpp:106] Creating Layer inception_4a/pool
I0506 16:19:27.297191  2704 net.cpp:454] inception_4a/pool <- pool3/3x3_s2_pool3/3x3_s2_0_split_3
I0506 16:19:27.297196  2704 net.cpp:411] inception_4a/pool -> inception_4a/pool
I0506 16:19:27.297230  2704 net.cpp:150] Setting up inception_4a/pool
I0506 16:19:27.297235  2704 net.cpp:157] Top shape: 16 480 14 14 (1505280)
I0506 16:19:27.297237  2704 net.cpp:165] Memory required for data: 589668992
I0506 16:19:27.297240  2704 layer_factory.hpp:77] Creating layer inception_4a/pool_proj
I0506 16:19:27.297248  2704 net.cpp:106] Creating Layer inception_4a/pool_proj
I0506 16:19:27.297251  2704 net.cpp:454] inception_4a/pool_proj <- inception_4a/pool
I0506 16:19:27.297256  2704 net.cpp:411] inception_4a/pool_proj -> inception_4a/pool_proj
I0506 16:19:27.298171  2704 net.cpp:150] Setting up inception_4a/pool_proj
I0506 16:19:27.298182  2704 net.cpp:157] Top shape: 16 64 14 14 (200704)
I0506 16:19:27.298185  2704 net.cpp:165] Memory required for data: 590471808
I0506 16:19:27.298190  2704 layer_factory.hpp:77] Creating layer inception_4a/relu_pool_proj
I0506 16:19:27.298202  2704 net.cpp:106] Creating Layer inception_4a/relu_pool_proj
I0506 16:19:27.298205  2704 net.cpp:454] inception_4a/relu_pool_proj <- inception_4a/pool_proj
I0506 16:19:27.298210  2704 net.cpp:397] inception_4a/relu_pool_proj -> inception_4a/pool_proj (in-place)
I0506 16:19:27.298331  2704 net.cpp:150] Setting up inception_4a/relu_pool_proj
I0506 16:19:27.298337  2704 net.cpp:157] Top shape: 16 64 14 14 (200704)
I0506 16:19:27.298341  2704 net.cpp:165] Memory required for data: 591274624
I0506 16:19:27.298343  2704 layer_factory.hpp:77] Creating layer inception_4a/output
I0506 16:19:27.298348  2704 net.cpp:106] Creating Layer inception_4a/output
I0506 16:19:27.298352  2704 net.cpp:454] inception_4a/output <- inception_4a/1x1
I0506 16:19:27.298357  2704 net.cpp:454] inception_4a/output <- inception_4a/3x3
I0506 16:19:27.298359  2704 net.cpp:454] inception_4a/output <- inception_4a/5x5
I0506 16:19:27.298363  2704 net.cpp:454] inception_4a/output <- inception_4a/pool_proj
I0506 16:19:27.298368  2704 net.cpp:411] inception_4a/output -> inception_4a/output
I0506 16:19:27.298389  2704 net.cpp:150] Setting up inception_4a/output
I0506 16:19:27.298393  2704 net.cpp:157] Top shape: 16 512 14 14 (1605632)
I0506 16:19:27.298396  2704 net.cpp:165] Memory required for data: 597697152
I0506 16:19:27.298399  2704 layer_factory.hpp:77] Creating layer inception_4a/output_inception_4a/output_0_split
I0506 16:19:27.298405  2704 net.cpp:106] Creating Layer inception_4a/output_inception_4a/output_0_split
I0506 16:19:27.298408  2704 net.cpp:454] inception_4a/output_inception_4a/output_0_split <- inception_4a/output
I0506 16:19:27.298413  2704 net.cpp:411] inception_4a/output_inception_4a/output_0_split -> inception_4a/output_inception_4a/output_0_split_0
I0506 16:19:27.298419  2704 net.cpp:411] inception_4a/output_inception_4a/output_0_split -> inception_4a/output_inception_4a/output_0_split_1
I0506 16:19:27.298424  2704 net.cpp:411] inception_4a/output_inception_4a/output_0_split -> inception_4a/output_inception_4a/output_0_split_2
I0506 16:19:27.298429  2704 net.cpp:411] inception_4a/output_inception_4a/output_0_split -> inception_4a/output_inception_4a/output_0_split_3
I0506 16:19:27.298434  2704 net.cpp:411] inception_4a/output_inception_4a/output_0_split -> inception_4a/output_inception_4a/output_0_split_4
I0506 16:19:27.298485  2704 net.cpp:150] Setting up inception_4a/output_inception_4a/output_0_split
I0506 16:19:27.298491  2704 net.cpp:157] Top shape: 16 512 14 14 (1605632)
I0506 16:19:27.298493  2704 net.cpp:157] Top shape: 16 512 14 14 (1605632)
I0506 16:19:27.298497  2704 net.cpp:157] Top shape: 16 512 14 14 (1605632)
I0506 16:19:27.298501  2704 net.cpp:157] Top shape: 16 512 14 14 (1605632)
I0506 16:19:27.298504  2704 net.cpp:157] Top shape: 16 512 14 14 (1605632)
I0506 16:19:27.298506  2704 net.cpp:165] Memory required for data: 629809792
I0506 16:19:27.298509  2704 layer_factory.hpp:77] Creating layer loss1/ave_pool
I0506 16:19:27.298514  2704 net.cpp:106] Creating Layer loss1/ave_pool
I0506 16:19:27.298518  2704 net.cpp:454] loss1/ave_pool <- inception_4a/output_inception_4a/output_0_split_0
I0506 16:19:27.298522  2704 net.cpp:411] loss1/ave_pool -> loss1/ave_pool
I0506 16:19:27.298740  2704 net.cpp:150] Setting up loss1/ave_pool
I0506 16:19:27.298749  2704 net.cpp:157] Top shape: 16 512 4 4 (131072)
I0506 16:19:27.298753  2704 net.cpp:165] Memory required for data: 630334080
I0506 16:19:27.298756  2704 layer_factory.hpp:77] Creating layer loss1/conv
I0506 16:19:27.298764  2704 net.cpp:106] Creating Layer loss1/conv
I0506 16:19:27.298768  2704 net.cpp:454] loss1/conv <- loss1/ave_pool
I0506 16:19:27.298774  2704 net.cpp:411] loss1/conv -> loss1/conv
I0506 16:19:27.299721  2704 net.cpp:150] Setting up loss1/conv
I0506 16:19:27.299732  2704 net.cpp:157] Top shape: 16 128 4 4 (32768)
I0506 16:19:27.299736  2704 net.cpp:165] Memory required for data: 630465152
I0506 16:19:27.299741  2704 layer_factory.hpp:77] Creating layer loss1/relu_conv
I0506 16:19:27.299751  2704 net.cpp:106] Creating Layer loss1/relu_conv
I0506 16:19:27.299757  2704 net.cpp:454] loss1/relu_conv <- loss1/conv
I0506 16:19:27.299762  2704 net.cpp:397] loss1/relu_conv -> loss1/conv (in-place)
I0506 16:19:27.299959  2704 net.cpp:150] Setting up loss1/relu_conv
I0506 16:19:27.299968  2704 net.cpp:157] Top shape: 16 128 4 4 (32768)
I0506 16:19:27.299971  2704 net.cpp:165] Memory required for data: 630596224
I0506 16:19:27.299975  2704 layer_factory.hpp:77] Creating layer loss1/fc
I0506 16:19:27.299983  2704 net.cpp:106] Creating Layer loss1/fc
I0506 16:19:27.299986  2704 net.cpp:454] loss1/fc <- loss1/conv
I0506 16:19:27.299991  2704 net.cpp:411] loss1/fc -> loss1/fc
I0506 16:19:27.312053  2704 net.cpp:150] Setting up loss1/fc
I0506 16:19:27.312088  2704 net.cpp:157] Top shape: 16 1024 (16384)
I0506 16:19:27.312091  2704 net.cpp:165] Memory required for data: 630661760
I0506 16:19:27.312099  2704 layer_factory.hpp:77] Creating layer loss1/relu_fc
I0506 16:19:27.312110  2704 net.cpp:106] Creating Layer loss1/relu_fc
I0506 16:19:27.312116  2704 net.cpp:454] loss1/relu_fc <- loss1/fc
I0506 16:19:27.312124  2704 net.cpp:397] loss1/relu_fc -> loss1/fc (in-place)
I0506 16:19:27.312299  2704 net.cpp:150] Setting up loss1/relu_fc
I0506 16:19:27.312305  2704 net.cpp:157] Top shape: 16 1024 (16384)
I0506 16:19:27.312309  2704 net.cpp:165] Memory required for data: 630727296
I0506 16:19:27.312311  2704 layer_factory.hpp:77] Creating layer loss1/drop_fc
I0506 16:19:27.312551  2704 net.cpp:106] Creating Layer loss1/drop_fc
I0506 16:19:27.312557  2704 net.cpp:454] loss1/drop_fc <- loss1/fc
I0506 16:19:27.312562  2704 net.cpp:397] loss1/drop_fc -> loss1/fc (in-place)
I0506 16:19:27.312590  2704 net.cpp:150] Setting up loss1/drop_fc
I0506 16:19:27.312595  2704 net.cpp:157] Top shape: 16 1024 (16384)
I0506 16:19:27.312598  2704 net.cpp:165] Memory required for data: 630792832
I0506 16:19:27.312602  2704 layer_factory.hpp:77] Creating layer loss1/classifier
I0506 16:19:27.312609  2704 net.cpp:106] Creating Layer loss1/classifier
I0506 16:19:27.312613  2704 net.cpp:454] loss1/classifier <- loss1/fc
I0506 16:19:27.312618  2704 net.cpp:411] loss1/classifier -> loss1/classifier
I0506 16:19:27.318265  2704 net.cpp:150] Setting up loss1/classifier
I0506 16:19:27.318276  2704 net.cpp:157] Top shape: 16 1000 (16000)
I0506 16:19:27.318279  2704 net.cpp:165] Memory required for data: 630856832
I0506 16:19:27.318284  2704 layer_factory.hpp:77] Creating layer loss1/classifier_loss1/classifier_0_split
I0506 16:19:27.318290  2704 net.cpp:106] Creating Layer loss1/classifier_loss1/classifier_0_split
I0506 16:19:27.318294  2704 net.cpp:454] loss1/classifier_loss1/classifier_0_split <- loss1/classifier
I0506 16:19:27.318298  2704 net.cpp:411] loss1/classifier_loss1/classifier_0_split -> loss1/classifier_loss1/classifier_0_split_0
I0506 16:19:27.318311  2704 net.cpp:411] loss1/classifier_loss1/classifier_0_split -> loss1/classifier_loss1/classifier_0_split_1
I0506 16:19:27.318316  2704 net.cpp:411] loss1/classifier_loss1/classifier_0_split -> loss1/classifier_loss1/classifier_0_split_2
I0506 16:19:27.318351  2704 net.cpp:150] Setting up loss1/classifier_loss1/classifier_0_split
I0506 16:19:27.318356  2704 net.cpp:157] Top shape: 16 1000 (16000)
I0506 16:19:27.318361  2704 net.cpp:157] Top shape: 16 1000 (16000)
I0506 16:19:27.318363  2704 net.cpp:157] Top shape: 16 1000 (16000)
I0506 16:19:27.318367  2704 net.cpp:165] Memory required for data: 631048832
I0506 16:19:27.318369  2704 layer_factory.hpp:77] Creating layer loss1/loss
I0506 16:19:27.318375  2704 net.cpp:106] Creating Layer loss1/loss
I0506 16:19:27.318379  2704 net.cpp:454] loss1/loss <- loss1/classifier_loss1/classifier_0_split_0
I0506 16:19:27.318383  2704 net.cpp:454] loss1/loss <- label_data_1_split_0
…
I0506 16:19:27.318999  2704 net.cpp:150] Setting up loss1/top-5
I0506 16:19:27.319002  2704 net.cpp:157] Top shape: (1)
I0506 16:19:27.319005  2704 net.cpp:165] Memory required for data: 631048844
I0506 16:19:27.319007  2704 layer_factory.hpp:77] Creating layer inception_4b/1x1
I0506 16:19:27.319017  2704 net.cpp:106] Creating Layer inception_4b/1x1
I0506 16:19:27.319020  2704 net.cpp:454] inception_4b/1x1 <- inception_4a/output_inception_4a/output_0_split_1
I0506 16:19:27.319026  2704 net.cpp:411] inception_4b/1x1 -> inception_4b/1x1
I0506 16:19:27.320179  2704 net.cpp:150] Setting up inception_4b/1x1
I0506 16:19:27.320189  2704 net.cpp:157] Top shape: 16 160 14 14 (501760)
I0506 16:19:27.320193  2704 net.cpp:165] Memory required for data: 633055884
I0506 16:19:27.320199  2704 layer_factory.hpp:77] Creating layer inception_4b/relu_1x1
I0506 16:19:27.320204  2704 net.cpp:106] Creating Layer inception_4b/relu_1x1
I0506 16:19:27.320209  2704 net.cpp:454] inception_4b/relu_1x1 <- inception_4b/1x1
I0506 16:19:27.320214  2704 net.cpp:397] inception_4b/relu_1x1 -> inception_4b/1x1 (in-place)
I0506 16:19:27.320334  2704 net.cpp:150] Setting up inception_4b/relu_1x1
I0506 16:19:27.320341  2704 net.cpp:157] Top shape: 16 160 14 14 (501760)
I0506 16:19:27.320344  2704 net.cpp:165] Memory required for data: 635062924
I0506 16:19:27.320348  2704 layer_factory.hpp:77] Creating layer inception_4b/3x3_reduce
I0506 16:19:27.320355  2704 net.cpp:106] Creating Layer inception_4b/3x3_reduce
I0506 16:19:27.320359  2704 net.cpp:454] inception_4b/3x3_reduce <- inception_4a/output_inception_4a/output_0_split_2
I0506 16:19:27.320364  2704 net.cpp:411] inception_4b/3x3_reduce -> inception_4b/3x3_reduce
I0506 16:19:27.321579  2704 net.cpp:150] Setting up inception_4b/3x3_reduce
I0506 16:19:27.321589  2704 net.cpp:157] Top shape: 16 112 14 14 (351232)
I0506 16:19:27.321593  2704 net.cpp:165] Memory required for data: 636467852
I0506 16:19:27.321599  2704 layer_factory.hpp:77] Creating layer inception_4b/relu_3x3_reduce
I0506 16:19:27.321604  2704 net.cpp:106] Creating Layer inception_4b/relu_3x3_reduce
I0506 16:19:27.321609  2704 net.cpp:454] inception_4b/relu_3x3_reduce <- inception_4b/3x3_reduce
I0506 16:19:27.321614  2704 net.cpp:397] inception_4b/relu_3x3_reduce -> inception_4b/3x3_reduce (in-place)
I0506 16:19:27.321812  2704 net.cpp:150] Setting up inception_4b/relu_3x3_reduce
I0506 16:19:27.321821  2704 net.cpp:157] Top shape: 16 112 14 14 (351232)
I0506 16:19:27.321825  2704 net.cpp:165] Memory required for data: 637872780
I0506 16:19:27.321828  2704 layer_factory.hpp:77] Creating layer inception_4b/3x3
I0506 16:19:27.321837  2704 net.cpp:106] Creating Layer inception_4b/3x3
I0506 16:19:27.321841  2704 net.cpp:454] inception_4b/3x3 <- inception_4b/3x3_reduce
I0506 16:19:27.321846  2704 net.cpp:411] inception_4b/3x3 -> inception_4b/3x3
I0506 16:19:27.323786  2704 net.cpp:150] Setting up inception_4b/3x3
I0506 16:19:27.323798  2704 net.cpp:157] Top shape: 16 224 14 14 (702464)
I0506 16:19:27.323806  2704 net.cpp:165] Memory required for data: 640682636
I0506 16:19:27.323817  2704 layer_factory.hpp:77] Creating layer inception_4b/relu_3x3
I0506 16:19:27.323822  2704 net.cpp:106] Creating Layer inception_4b/relu_3x3
I0506 16:19:27.323827  2704 net.cpp:454] inception_4b/relu_3x3 <- inception_4b/3x3
I0506 16:19:27.323832  2704 net.cpp:397] inception_4b/relu_3x3 -> inception_4b/3x3 (in-place)
I0506 16:19:27.324030  2704 net.cpp:150] Setting up inception_4b/relu_3x3
I0506 16:19:27.324039  2704 net.cpp:157] Top shape: 16 224 14 14 (702464)
I0506 16:19:27.324043  2704 net.cpp:165] Memory required for data: 643492492
I0506 16:19:27.324046  2704 layer_factory.hpp:77] Creating layer inception_4b/5x5_reduce
I0506 16:19:27.324054  2704 net.cpp:106] Creating Layer inception_4b/5x5_reduce
I0506 16:19:27.324059  2704 net.cpp:454] inception_4b/5x5_reduce <- inception_4a/output_inception_4a/output_0_split_3
I0506 16:19:27.324064  2704 net.cpp:411] inception_4b/5x5_reduce -> inception_4b/5x5_reduce
I0506 16:19:27.324836  2704 net.cpp:150] Setting up inception_4b/5x5_reduce
I0506 16:19:27.324846  2704 net.cpp:157] Top shape: 16 24 14 14 (75264)
I0506 16:19:27.324848  2704 net.cpp:165] Memory required for data: 643793548
I0506 16:19:27.324853  2704 layer_factory.hpp:77] Creating layer inception_4b/relu_5x5_reduce
I0506 16:19:27.324861  2704 net.cpp:106] Creating Layer inception_4b/relu_5x5_reduce
I0506 16:19:27.324864  2704 net.cpp:454] inception_4b/relu_5x5_reduce <- inception_4b/5x5_reduce
I0506 16:19:27.324868  2704 net.cpp:397] inception_4b/relu_5x5_reduce -> inception_4b/5x5_reduce (in-place)
I0506 16:19:27.324988  2704 net.cpp:150] Setting up inception_4b/relu_5x5_reduce
I0506 16:19:27.324995  2704 net.cpp:157] Top shape: 16 24 14 14 (75264)
I0506 16:19:27.324998  2704 net.cpp:165] Memory required for data: 644094604
I0506 16:19:27.325002  2704 layer_factory.hpp:77] Creating layer inception_4b/5x5
I0506 16:19:27.325011  2704 net.cpp:106] Creating Layer inception_4b/5x5
I0506 16:19:27.325014  2704 net.cpp:454] inception_4b/5x5 <- inception_4b/5x5_reduce
I0506 16:19:27.325019  2704 net.cpp:411] inception_4b/5x5 -> inception_4b/5x5
I0506 16:19:27.325914  2704 net.cpp:150] Setting up inception_4b/5x5
I0506 16:19:27.325924  2704 net.cpp:157] Top shape: 16 64 14 14 (200704)
I0506 16:19:27.325927  2704 net.cpp:165] Memory required for data: 644897420
I0506 16:19:27.325932  2704 layer_factory.hpp:77] Creating layer inception_4b/relu_5x5
I0506 16:19:27.325938  2704 net.cpp:106] Creating Layer inception_4b/relu_5x5
I0506 16:19:27.325942  2704 net.cpp:454] inception_4b/relu_5x5 <- inception_4b/5x5
I0506 16:19:27.325947  2704 net.cpp:397] inception_4b/relu_5x5 -> inception_4b/5x5 (in-place)
I0506 16:19:27.326149  2704 net.cpp:150] Setting up inception_4b/relu_5x5
I0506 16:19:27.326159  2704 net.cpp:157] Top shape: 16 64 14 14 (200704)
I0506 16:19:27.326162  2704 net.cpp:165] Memory required for data: 645700236
I0506 16:19:27.326165  2704 layer_factory.hpp:77] Creating layer inception_4b/pool
I0506 16:19:27.326171  2704 net.cpp:106] Creating Layer inception_4b/pool
I0506 16:19:27.326175  2704 net.cpp:454] inception_4b/pool <- inception_4a/output_inception_4a/output_0_split_4
I0506 16:19:27.326180  2704 net.cpp:411] inception_4b/pool -> inception_4b/pool
I0506 16:19:27.326216  2704 net.cpp:150] Setting up inception_4b/pool
I0506 16:19:27.326222  2704 net.cpp:157] Top shape: 16 512 14 14 (1605632)
I0506 16:19:27.326225  2704 net.cpp:165] Memory required for data: 652122764
I0506 16:19:27.326228  2704 layer_factory.hpp:77] Creating layer inception_4b/pool_proj
I0506 16:19:27.326234  2704 net.cpp:106] Creating Layer inception_4b/pool_proj
I0506 16:19:27.326238  2704 net.cpp:454] inception_4b/pool_proj <- inception_4b/pool
I0506 16:19:27.326244  2704 net.cpp:411] inception_4b/pool_proj -> inception_4b/pool_proj
I0506 16:19:27.327116  2704 net.cpp:150] Setting up inception_4b/pool_proj
I0506 16:19:27.327126  2704 net.cpp:157] Top shape: 16 64 14 14 (200704)
I0506 16:19:27.327129  2704 net.cpp:165] Memory required for data: 652925580
I0506 16:19:27.327137  2704 layer_factory.hpp:77] Creating layer inception_4b/relu_pool_proj
I0506 16:19:27.327145  2704 net.cpp:106] Creating Layer inception_4b/relu_pool_proj
I0506 16:19:27.327149  2704 net.cpp:454] inception_4b/relu_pool_proj <- inception_4b/pool_proj
I0506 16:19:27.327154  2704 net.cpp:397] inception_4b/relu_pool_proj -> inception_4b/pool_proj (in-place)
I0506 16:19:27.327375  2704 net.cpp:150] Setting up inception_4b/relu_pool_proj
I0506 16:19:27.327384  2704 net.cpp:157] Top shape: 16 64 14 14 (200704)
I0506 16:19:27.327389  2704 net.cpp:165] Memory required for data: 653728396
I0506 16:19:27.327391  2704 layer_factory.hpp:77] Creating layer inception_4b/output
I0506 16:19:27.327396  2704 net.cpp:106] Creating Layer inception_4b/output
I0506 16:19:27.327400  2704 net.cpp:454] inception_4b/output <- inception_4b/1x1
I0506 16:19:27.327404  2704 net.cpp:454] inception_4b/output <- inception_4b/3x3
I0506 16:19:27.327409  2704 net.cpp:454] inception_4b/output <- inception_4b/5x5
I0506 16:19:27.327412  2704 net.cpp:454] inception_4b/output <- inception_4b/pool_proj
I0506 16:19:27.327416  2704 net.cpp:411] inception_4b/output -> inception_4b/output
I0506 16:19:27.327440  2704 net.cpp:150] Setting up inception_4b/output
I0506 16:19:27.327445  2704 net.cpp:157] Top shape: 16 512 14 14 (1605632)
I0506 16:19:27.327447  2704 net.cpp:165] Memory required for data: 660150924
I0506 16:19:27.327450  2704 layer_factory.hpp:77] Creating layer inception_4b/output_inception_4b/output_0_split
I0506 16:19:27.327455  2704 net.cpp:106] Creating Layer inception_4b/output_inception_4b/output_0_split
I0506 16:19:27.327458  2704 net.cpp:454] inception_4b/output_inception_4b/output_0_split <- inception_4b/output
I0506 16:19:27.327463  2704 net.cpp:411] inception_4b/output_inception_4b/output_0_split -> inception_4b/output_inception_4b/output_0_split_0
I0506 16:19:27.327468  2704 net.cpp:411] inception_4b/output_inception_4b/output_0_split -> inception_4b/output_inception_4b/output_0_split_1
I0506 16:19:27.327473  2704 net.cpp:411] inception_4b/output_inception_4b/output_0_split -> inception_4b/output_inception_4b/output_0_split_2
I0506 16:19:27.327478  2704 net.cpp:411] inception_4b/output_inception_4b/output_0_split -> inception_4b/output_inception_4b/output_0_split_3
I0506 16:19:27.327522  2704 net.cpp:150] Setting up inception_4b/output_inception_4b/output_0_split
I0506 16:19:27.327527  2704 net.cpp:157] Top shape: 16 512 14 14 (1605632)
I0506 16:19:27.327530  2704 net.cpp:157] Top shape: 16 512 14 14 (1605632)
I0506 16:19:27.327533  2704 net.cpp:157] Top shape: 16 512 14 14 (1605632)
I0506 16:19:27.327538  2704 net.cpp:157] Top shape: 16 512 14 14 (1605632)
I0506 16:19:27.327540  2704 net.cpp:165] Memory required for data: 685841036
I0506 16:19:27.327543  2704 layer_factory.hpp:77] Creating layer inception_4c/1x1
I0506 16:19:27.327549  2704 net.cpp:106] Creating Layer inception_4c/1x1
I0506 16:19:27.327553  2704 net.cpp:454] inception_4c/1x1 <- inception_4b/output_inception_4b/output_0_split_0
I0506 16:19:27.327558  2704 net.cpp:411] inception_4c/1x1 -> inception_4c/1x1
I0506 16:19:27.328585  2704 net.cpp:150] Setting up inception_4c/1x1
I0506 16:19:27.328596  2704 net.cpp:157] Top shape: 16 128 14 14 (401408)
I0506 16:19:27.328599  2704 net.cpp:165] Memory required for data: 687446668
I0506 16:19:27.328604  2704 layer_factory.hpp:77] Creating layer inception_4c/relu_1x1
I0506 16:19:27.328609  2704 net.cpp:106] Creating Layer inception_4c/relu_1x1
I0506 16:19:27.328613  2704 net.cpp:454] inception_4c/relu_1x1 <- inception_4c/1x1
I0506 16:19:27.328619  2704 net.cpp:397] inception_4c/relu_1x1 -> inception_4c/1x1 (in-place)
I0506 16:19:27.328738  2704 net.cpp:150] Setting up inception_4c/relu_1x1
I0506 16:19:27.328745  2704 net.cpp:157] Top shape: 16 128 14 14 (401408)
I0506 16:19:27.328748  2704 net.cpp:165] Memory required for data: 689052300
I0506 16:19:27.328752  2704 layer_factory.hpp:77] Creating layer inception_4c/3x3_reduce
I0506 16:19:27.328761  2704 net.cpp:106] Creating Layer inception_4c/3x3_reduce
I0506 16:19:27.328768  2704 net.cpp:454] inception_4c/3x3_reduce <- inception_4b/output_inception_4b/output_0_split_1
I0506 16:19:27.328778  2704 net.cpp:411] inception_4c/3x3_reduce -> inception_4c/3x3_reduce
I0506 16:19:27.329807  2704 net.cpp:150] Setting up inception_4c/3x3_reduce
I0506 16:19:27.329816  2704 net.cpp:157] Top shape: 16 128 14 14 (401408)
I0506 16:19:27.329819  2704 net.cpp:165] Memory required for data: 690657932
I0506 16:19:27.329824  2704 layer_factory.hpp:77] Creating layer inception_4c/relu_3x3_reduce
I0506 16:19:27.329830  2704 net.cpp:106] Creating Layer inception_4c/relu_3x3_reduce
I0506 16:19:27.329834  2704 net.cpp:454] inception_4c/relu_3x3_reduce <- inception_4c/3x3_reduce
I0506 16:19:27.329838  2704 net.cpp:397] inception_4c/relu_3x3_reduce -> inception_4c/3x3_reduce (in-place)
I0506 16:19:27.330039  2704 net.cpp:150] Setting up inception_4c/relu_3x3_reduce
I0506 16:19:27.330047  2704 net.cpp:157] Top shape: 16 128 14 14 (401408)
I0506 16:19:27.330050  2704 net.cpp:165] Memory required for data: 692263564
I0506 16:19:27.330054  2704 layer_factory.hpp:77] Creating layer inception_4c/3x3
I0506 16:19:27.330063  2704 net.cpp:106] Creating Layer inception_4c/3x3
I0506 16:19:27.330067  2704 net.cpp:454] inception_4c/3x3 <- inception_4c/3x3_reduce
I0506 16:19:27.330072  2704 net.cpp:411] inception_4c/3x3 -> inception_4c/3x3
I0506 16:19:27.332353  2704 net.cpp:150] Setting up inception_4c/3x3
I0506 16:19:27.332365  2704 net.cpp:157] Top shape: 16 256 14 14 (802816)
I0506 16:19:27.332367  2704 net.cpp:165] Memory required for data: 695474828
I0506 16:19:27.332382  2704 layer_factory.hpp:77] Creating layer inception_4c/relu_3x3
I0506 16:19:27.332388  2704 net.cpp:106] Creating Layer inception_4c/relu_3x3
I0506 16:19:27.332392  2704 net.cpp:454] inception_4c/relu_3x3 <- inception_4c/3x3
I0506 16:19:27.332396  2704 net.cpp:397] inception_4c/relu_3x3 -> inception_4c/3x3 (in-place)
I0506 16:19:27.332597  2704 net.cpp:150] Setting up inception_4c/relu_3x3
I0506 16:19:27.332605  2704 net.cpp:157] Top shape: 16 256 14 14 (802816)
I0506 16:19:27.332608  2704 net.cpp:165] Memory required for data: 698686092
I0506 16:19:27.332612  2704 layer_factory.hpp:77] Creating layer inception_4c/5x5_reduce
I0506 16:19:27.332620  2704 net.cpp:106] Creating Layer inception_4c/5x5_reduce
I0506 16:19:27.332624  2704 net.cpp:454] inception_4c/5x5_reduce <- inception_4b/output_inception_4b/output_0_split_2
I0506 16:19:27.332630  2704 net.cpp:411] inception_4c/5x5_reduce -> inception_4c/5x5_reduce
I0506 16:19:27.333415  2704 net.cpp:150] Setting up inception_4c/5x5_reduce
I0506 16:19:27.333425  2704 net.cpp:157] Top shape: 16 24 14 14 (75264)
I0506 16:19:27.333428  2704 net.cpp:165] Memory required for data: 698987148
I0506 16:19:27.333434  2704 layer_factory.hpp:77] Creating layer inception_4c/relu_5x5_reduce
I0506 16:19:27.333439  2704 net.cpp:106] Creating Layer inception_4c/relu_5x5_reduce
I0506 16:19:27.333443  2704 net.cpp:454] inception_4c/relu_5x5_reduce <- inception_4c/5x5_reduce
I0506 16:19:27.333448  2704 net.cpp:397] inception_4c/relu_5x5_reduce -> inception_4c/5x5_reduce (in-place)
I0506 16:19:27.333570  2704 net.cpp:150] Setting up inception_4c/relu_5x5_reduce
I0506 16:19:27.333576  2704 net.cpp:157] Top shape: 16 24 14 14 (75264)
I0506 16:19:27.333580  2704 net.cpp:165] Memory required for data: 699288204
I0506 16:19:27.333583  2704 layer_factory.hpp:77] Creating layer inception_4c/5x5
I0506 16:19:27.333591  2704 net.cpp:106] Creating Layer inception_4c/5x5
I0506 16:19:27.333595  2704 net.cpp:454] inception_4c/5x5 <- inception_4c/5x5_reduce
I0506 16:19:27.333600  2704 net.cpp:411] inception_4c/5x5 -> inception_4c/5x5
I0506 16:19:27.334743  2704 net.cpp:150] Setting up inception_4c/5x5
I0506 16:19:27.334754  2704 net.cpp:157] Top shape: 16 64 14 14 (200704)
I0506 16:19:27.334758  2704 net.cpp:165] Memory required for data: 700091020
I0506 16:19:27.334764  2704 layer_factory.hpp:77] Creating layer inception_4c/relu_5x5
I0506 16:19:27.334769  2704 net.cpp:106] Creating Layer inception_4c/relu_5x5
I0506 16:19:27.334775  2704 net.cpp:454] inception_4c/relu_5x5 <- inception_4c/5x5
I0506 16:19:27.334785  2704 net.cpp:397] inception_4c/relu_5x5 -> inception_4c/5x5 (in-place)
I0506 16:19:27.334986  2704 net.cpp:150] Setting up inception_4c/relu_5x5
I0506 16:19:27.334995  2704 net.cpp:157] Top shape: 16 64 14 14 (200704)
I0506 16:19:27.334998  2704 net.cpp:165] Memory required for data: 700893836
I0506 16:19:27.335002  2704 layer_factory.hpp:77] Creating layer inception_4c/pool
I0506 16:19:27.335008  2704 net.cpp:106] Creating Layer inception_4c/pool
I0506 16:19:27.335012  2704 net.cpp:454] inception_4c/pool <- inception_4b/output_inception_4b/output_0_split_3
I0506 16:19:27.335017  2704 net.cpp:411] inception_4c/pool -> inception_4c/pool
I0506 16:19:27.335053  2704 net.cpp:150] Setting up inception_4c/pool
I0506 16:19:27.335058  2704 net.cpp:157] Top shape: 16 512 14 14 (1605632)
I0506 16:19:27.335062  2704 net.cpp:165] Memory required for data: 707316364
I0506 16:19:27.335064  2704 layer_factory.hpp:77] Creating layer inception_4c/pool_proj
I0506 16:19:27.335072  2704 net.cpp:106] Creating Layer inception_4c/pool_proj
I0506 16:19:27.335075  2704 net.cpp:454] inception_4c/pool_proj <- inception_4c/pool
I0506 16:19:27.335081  2704 net.cpp:411] inception_4c/pool_proj -> inception_4c/pool_proj
I0506 16:19:27.335878  2704 net.cpp:150] Setting up inception_4c/pool_proj
I0506 16:19:27.335888  2704 net.cpp:157] Top shape: 16 64 14 14 (200704)
I0506 16:19:27.335892  2704 net.cpp:165] Memory required for data: 708119180
I0506 16:19:27.335897  2704 layer_factory.hpp:77] Creating layer inception_4c/relu_pool_proj
I0506 16:19:27.335902  2704 net.cpp:106] Creating Layer inception_4c/relu_pool_proj
I0506 16:19:27.335906  2704 net.cpp:454] inception_4c/relu_pool_proj <- inception_4c/pool_proj
I0506 16:19:27.335911  2704 net.cpp:397] inception_4c/relu_pool_proj -> inception_4c/pool_proj (in-place)
I0506 16:19:27.336112  2704 net.cpp:150] Setting up inception_4c/relu_pool_proj
I0506 16:19:27.336120  2704 net.cpp:157] Top shape: 16 64 14 14 (200704)
I0506 16:19:27.336123  2704 net.cpp:165] Memory required for data: 708921996
I0506 16:19:27.336127  2704 layer_factory.hpp:77] Creating layer inception_4c/output
I0506 16:19:27.336133  2704 net.cpp:106] Creating Layer inception_4c/output
I0506 16:19:27.336136  2704 net.cpp:454] inception_4c/output <- inception_4c/1x1
I0506 16:19:27.336140  2704 net.cpp:454] inception_4c/output <- inception_4c/3x3
I0506 16:19:27.336144  2704 net.cpp:454] inception_4c/output <- inception_4c/5x5
I0506 16:19:27.336148  2704 net.cpp:454] inception_4c/output <- inception_4c/pool_proj
I0506 16:19:27.336153  2704 net.cpp:411] inception_4c/output -> inception_4c/output
I0506 16:19:27.336175  2704 net.cpp:150] Setting up inception_4c/output
I0506 16:19:27.336182  2704 net.cpp:157] Top shape: 16 512 14 14 (1605632)
I0506 16:19:27.336185  2704 net.cpp:165] Memory required for data: 715344524
I0506 16:19:27.336189  2704 layer_factory.hpp:77] Creating layer inception_4c/output_inception_4c/output_0_split
I0506 16:19:27.336194  2704 net.cpp:106] Creating Layer inception_4c/output_inception_4c/output_0_split
I0506 16:19:27.336196  2704 net.cpp:454] inception_4c/output_inception_4c/output_0_split <- inception_4c/output
I0506 16:19:27.336201  2704 net.cpp:411] inception_4c/output_inception_4c/output_0_split -> inception_4c/output_inception_4c/output_0_split_0
I0506 16:19:27.336206  2704 net.cpp:411] inception_4c/output_inception_4c/output_0_split -> inception_4c/output_inception_4c/output_0_split_1
I0506 16:19:27.336212  2704 net.cpp:411] inception_4c/output_inception_4c/output_0_split -> inception_4c/output_inception_4c/output_0_split_2
I0506 16:19:27.336218  2704 net.cpp:411] inception_4c/output_inception_4c/output_0_split -> inception_4c/output_inception_4c/output_0_split_3
I0506 16:19:27.336266  2704 net.cpp:150] Setting up inception_4c/output_inception_4c/output_0_split
I0506 16:19:27.336271  2704 net.cpp:157] Top shape: 16 512 14 14 (1605632)
I0506 16:19:27.336274  2704 net.cpp:157] Top shape: 16 512 14 14 (1605632)
I0506 16:19:27.336280  2704 net.cpp:157] Top shape: 16 512 14 14 (1605632)
I0506 16:19:27.336288  2704 net.cpp:157] Top shape: 16 512 14 14 (1605632)
I0506 16:19:27.336290  2704 net.cpp:165] Memory required for data: 741034636
I0506 16:19:27.336294  2704 layer_factory.hpp:77] Creating layer inception_4d/1x1
I0506 16:19:27.336302  2704 net.cpp:106] Creating Layer inception_4d/1x1
I0506 16:19:27.336305  2704 net.cpp:454] inception_4d/1x1 <- inception_4c/output_inception_4c/output_0_split_0
I0506 16:19:27.336310  2704 net.cpp:411] inception_4d/1x1 -> inception_4d/1x1
I0506 16:19:27.337298  2704 net.cpp:150] Setting up inception_4d/1x1
I0506 16:19:27.337308  2704 net.cpp:157] Top shape: 16 112 14 14 (351232)
I0506 16:19:27.337311  2704 net.cpp:165] Memory required for data: 742439564
I0506 16:19:27.337316  2704 layer_factory.hpp:77] Creating layer inception_4d/relu_1x1
I0506 16:19:27.337322  2704 net.cpp:106] Creating Layer inception_4d/relu_1x1
I0506 16:19:27.337327  2704 net.cpp:454] inception_4d/relu_1x1 <- inception_4d/1x1
I0506 16:19:27.337330  2704 net.cpp:397] inception_4d/relu_1x1 -> inception_4d/1x1 (in-place)
I0506 16:19:27.337455  2704 net.cpp:150] Setting up inception_4d/relu_1x1
I0506 16:19:27.337462  2704 net.cpp:157] Top shape: 16 112 14 14 (351232)
I0506 16:19:27.337466  2704 net.cpp:165] Memory required for data: 743844492
I0506 16:19:27.337468  2704 layer_factory.hpp:77] Creating layer inception_4d/3x3_reduce
I0506 16:19:27.337477  2704 net.cpp:106] Creating Layer inception_4d/3x3_reduce
I0506 16:19:27.337481  2704 net.cpp:454] inception_4d/3x3_reduce <- inception_4c/output_inception_4c/output_0_split_1
I0506 16:19:27.337486  2704 net.cpp:411] inception_4d/3x3_reduce -> inception_4d/3x3_reduce
I0506 16:19:27.338676  2704 net.cpp:150] Setting up inception_4d/3x3_reduce
I0506 16:19:27.338685  2704 net.cpp:157] Top shape: 16 144 14 14 (451584)
I0506 16:19:27.338690  2704 net.cpp:165] Memory required for data: 745650828
I0506 16:19:27.338695  2704 layer_factory.hpp:77] Creating layer inception_4d/relu_3x3_reduce
I0506 16:19:27.338699  2704 net.cpp:106] Creating Layer inception_4d/relu_3x3_reduce
I0506 16:19:27.338703  2704 net.cpp:454] inception_4d/relu_3x3_reduce <- inception_4d/3x3_reduce
I0506 16:19:27.338707  2704 net.cpp:397] inception_4d/relu_3x3_reduce -> inception_4d/3x3_reduce (in-place)
I0506 16:19:27.338917  2704 net.cpp:150] Setting up inception_4d/relu_3x3_reduce
I0506 16:19:27.338927  2704 net.cpp:157] Top shape: 16 144 14 14 (451584)
I0506 16:19:27.338929  2704 net.cpp:165] Memory required for data: 747457164
I0506 16:19:27.338932  2704 layer_factory.hpp:77] Creating layer inception_4d/3x3
I0506 16:19:27.338942  2704 net.cpp:106] Creating Layer inception_4d/3x3
I0506 16:19:27.338945  2704 net.cpp:454] inception_4d/3x3 <- inception_4d/3x3_reduce
I0506 16:19:27.338951  2704 net.cpp:411] inception_4d/3x3 -> inception_4d/3x3
I0506 16:19:27.341667  2704 net.cpp:150] Setting up inception_4d/3x3
I0506 16:19:27.341678  2704 net.cpp:157] Top shape: 16 288 14 14 (903168)
I0506 16:19:27.341681  2704 net.cpp:165] Memory required for data: 751069836
I0506 16:19:27.341686  2704 layer_factory.hpp:77] Creating layer inception_4d/relu_3x3
I0506 16:19:27.341692  2704 net.cpp:106] Creating Layer inception_4d/relu_3x3
I0506 16:19:27.341696  2704 net.cpp:454] inception_4d/relu_3x3 <- inception_4d/3x3
I0506 16:19:27.341701  2704 net.cpp:397] inception_4d/relu_3x3 -> inception_4d/3x3 (in-place)
I0506 16:19:27.341904  2704 net.cpp:150] Setting up inception_4d/relu_3x3
I0506 16:19:27.341913  2704 net.cpp:157] Top shape: 16 288 14 14 (903168)
I0506 16:19:27.341917  2704 net.cpp:165] Memory required for data: 754682508
I0506 16:19:27.341919  2704 layer_factory.hpp:77] Creating layer inception_4d/5x5_reduce
I0506 16:19:27.341928  2704 net.cpp:106] Creating Layer inception_4d/5x5_reduce
I0506 16:19:27.341933  2704 net.cpp:454] inception_4d/5x5_reduce <- inception_4c/output_inception_4c/output_0_split_2
I0506 16:19:27.341939  2704 net.cpp:411] inception_4d/5x5_reduce -> inception_4d/5x5_reduce
I0506 16:19:27.342758  2704 net.cpp:150] Setting up inception_4d/5x5_reduce
I0506 16:19:27.342770  2704 net.cpp:157] Top shape: 16 32 14 14 (100352)
I0506 16:19:27.342778  2704 net.cpp:165] Memory required for data: 755083916
I0506 16:19:27.342783  2704 layer_factory.hpp:77] Creating layer inception_4d/relu_5x5_reduce
I0506 16:19:27.342789  2704 net.cpp:106] Creating Layer inception_4d/relu_5x5_reduce
I0506 16:19:27.342792  2704 net.cpp:454] inception_4d/relu_5x5_reduce <- inception_4d/5x5_reduce
I0506 16:19:27.342797  2704 net.cpp:397] inception_4d/relu_5x5_reduce -> inception_4d/5x5_reduce (in-place)
I0506 16:19:27.342922  2704 net.cpp:150] Setting up inception_4d/relu_5x5_reduce
I0506 16:19:27.342929  2704 net.cpp:157] Top shape: 16 32 14 14 (100352)
I0506 16:19:27.342932  2704 net.cpp:165] Memory required for data: 755485324
I0506 16:19:27.342936  2704 layer_factory.hpp:77] Creating layer inception_4d/5x5
I0506 16:19:27.342943  2704 net.cpp:106] Creating Layer inception_4d/5x5
I0506 16:19:27.342947  2704 net.cpp:454] inception_4d/5x5 <- inception_4d/5x5_reduce
I0506 16:19:27.342953  2704 net.cpp:411] inception_4d/5x5 -> inception_4d/5x5
I0506 16:19:27.343947  2704 net.cpp:150] Setting up inception_4d/5x5
I0506 16:19:27.343957  2704 net.cpp:157] Top shape: 16 64 14 14 (200704)
I0506 16:19:27.343961  2704 net.cpp:165] Memory required for data: 756288140
I0506 16:19:27.343966  2704 layer_factory.hpp:77] Creating layer inception_4d/relu_5x5
I0506 16:19:27.343971  2704 net.cpp:106] Creating Layer inception_4d/relu_5x5
I0506 16:19:27.343976  2704 net.cpp:454] inception_4d/relu_5x5 <- inception_4d/5x5
I0506 16:19:27.343981  2704 net.cpp:397] inception_4d/relu_5x5 -> inception_4d/5x5 (in-place)
I0506 16:19:27.344184  2704 net.cpp:150] Setting up inception_4d/relu_5x5
I0506 16:19:27.344193  2704 net.cpp:157] Top shape: 16 64 14 14 (200704)
I0506 16:19:27.344197  2704 net.cpp:165] Memory required for data: 757090956
I0506 16:19:27.344200  2704 layer_factory.hpp:77] Creating layer inception_4d/pool
I0506 16:19:27.344207  2704 net.cpp:106] Creating Layer inception_4d/pool
I0506 16:19:27.344209  2704 net.cpp:454] inception_4d/pool <- inception_4c/output_inception_4c/output_0_split_3
I0506 16:19:27.344214  2704 net.cpp:411] inception_4d/pool -> inception_4d/pool
I0506 16:19:27.344252  2704 net.cpp:150] Setting up inception_4d/pool
I0506 16:19:27.344257  2704 net.cpp:157] Top shape: 16 512 14 14 (1605632)
I0506 16:19:27.344260  2704 net.cpp:165] Memory required for data: 763513484
I0506 16:19:27.344264  2704 layer_factory.hpp:77] Creating layer inception_4d/pool_proj
I0506 16:19:27.344271  2704 net.cpp:106] Creating Layer inception_4d/pool_proj
I0506 16:19:27.344274  2704 net.cpp:454] inception_4d/pool_proj <- inception_4d/pool
I0506 16:19:27.344280  2704 net.cpp:411] inception_4d/pool_proj -> inception_4d/pool_proj
I0506 16:19:27.345093  2704 net.cpp:150] Setting up inception_4d/pool_proj
I0506 16:19:27.345103  2704 net.cpp:157] Top shape: 16 64 14 14 (200704)
I0506 16:19:27.345108  2704 net.cpp:165] Memory required for data: 764316300
I0506 16:19:27.345113  2704 layer_factory.hpp:77] Creating layer inception_4d/relu_pool_proj
I0506 16:19:27.345118  2704 net.cpp:106] Creating Layer inception_4d/relu_pool_proj
I0506 16:19:27.345123  2704 net.cpp:454] inception_4d/relu_pool_proj <- inception_4d/pool_proj
I0506 16:19:27.345127  2704 net.cpp:397] inception_4d/relu_pool_proj -> inception_4d/pool_proj (in-place)
I0506 16:19:27.345331  2704 net.cpp:150] Setting up inception_4d/relu_pool_proj
I0506 16:19:27.345340  2704 net.cpp:157] Top shape: 16 64 14 14 (200704)
I0506 16:19:27.345343  2704 net.cpp:165] Memory required for data: 765119116
I0506 16:19:27.345346  2704 layer_factory.hpp:77] Creating layer inception_4d/output
I0506 16:19:27.345352  2704 net.cpp:106] Creating Layer inception_4d/output
I0506 16:19:27.345356  2704 net.cpp:454] inception_4d/output <- inception_4d/1x1
I0506 16:19:27.345360  2704 net.cpp:454] inception_4d/output <- inception_4d/3x3
I0506 16:19:27.345365  2704 net.cpp:454] inception_4d/output <- inception_4d/5x5
I0506 16:19:27.345368  2704 net.cpp:454] inception_4d/output <- inception_4d/pool_proj
I0506 16:19:27.345376  2704 net.cpp:411] inception_4d/output -> inception_4d/output
I0506 16:19:27.345403  2704 net.cpp:150] Setting up inception_4d/output
I0506 16:19:27.345410  2704 net.cpp:157] Top shape: 16 528 14 14 (1655808)
I0506 16:19:27.345413  2704 net.cpp:165] Memory required for data: 771742348
I0506 16:19:27.345417  2704 layer_factory.hpp:77] Creating layer inception_4d/output_inception_4d/output_0_split
I0506 16:19:27.345422  2704 net.cpp:106] Creating Layer inception_4d/output_inception_4d/output_0_split
I0506 16:19:27.345424  2704 net.cpp:454] inception_4d/output_inception_4d/output_0_split <- inception_4d/output
I0506 16:19:27.345430  2704 net.cpp:411] inception_4d/output_inception_4d/output_0_split -> inception_4d/output_inception_4d/output_0_split_0
I0506 16:19:27.345435  2704 net.cpp:411] inception_4d/output_inception_4d/output_0_split -> inception_4d/output_inception_4d/output_0_split_1
I0506 16:19:27.345440  2704 net.cpp:411] inception_4d/output_inception_4d/output_0_split -> inception_4d/output_inception_4d/output_0_split_2
I0506 16:19:27.345446  2704 net.cpp:411] inception_4d/output_inception_4d/output_0_split -> inception_4d/output_inception_4d/output_0_split_3
I0506 16:19:27.345450  2704 net.cpp:411] inception_4d/output_inception_4d/output_0_split -> inception_4d/output_inception_4d/output_0_split_4
I0506 16:19:27.345510  2704 net.cpp:150] Setting up inception_4d/output_inception_4d/output_0_split
I0506 16:19:27.345513  2704 net.cpp:157] Top shape: 16 528 14 14 (1655808)
I0506 16:19:27.345517  2704 net.cpp:157] Top shape: 16 528 14 14 (1655808)
I0506 16:19:27.345520  2704 net.cpp:157] Top shape: 16 528 14 14 (1655808)
I0506 16:19:27.345525  2704 net.cpp:157] Top shape: 16 528 14 14 (1655808)
I0506 16:19:27.345527  2704 net.cpp:157] Top shape: 16 528 14 14 (1655808)
I0506 16:19:27.345530  2704 net.cpp:165] Memory required for data: 804858508
I0506 16:19:27.345533  2704 layer_factory.hpp:77] Creating layer loss2/ave_pool
I0506 16:19:27.345538  2704 net.cpp:106] Creating Layer loss2/ave_pool
I0506 16:19:27.345542  2704 net.cpp:454] loss2/ave_pool <- inception_4d/output_inception_4d/output_0_split_0
I0506 16:19:27.345547  2704 net.cpp:411] loss2/ave_pool -> loss2/ave_pool
I0506 16:19:27.345768  2704 net.cpp:150] Setting up loss2/ave_pool
I0506 16:19:27.345777  2704 net.cpp:157] Top shape: 16 528 4 4 (135168)
I0506 16:19:27.345780  2704 net.cpp:165] Memory required for data: 805399180
I0506 16:19:27.345784  2704 layer_factory.hpp:77] Creating layer loss2/conv
I0506 16:19:27.345793  2704 net.cpp:106] Creating Layer loss2/conv
I0506 16:19:27.345796  2704 net.cpp:454] loss2/conv <- loss2/ave_pool
I0506 16:19:27.345803  2704 net.cpp:411] loss2/conv -> loss2/conv
I0506 16:19:27.347014  2704 net.cpp:150] Setting up loss2/conv
I0506 16:19:27.347024  2704 net.cpp:157] Top shape: 16 128 4 4 (32768)
I0506 16:19:27.347028  2704 net.cpp:165] Memory required for data: 805530252
I0506 16:19:27.347033  2704 layer_factory.hpp:77] Creating layer loss2/relu_conv
I0506 16:19:27.347039  2704 net.cpp:106] Creating Layer loss2/relu_conv
I0506 16:19:27.347043  2704 net.cpp:454] loss2/relu_conv <- loss2/conv
I0506 16:19:27.347048  2704 net.cpp:397] loss2/relu_conv -> loss2/conv (in-place)
I0506 16:19:27.347254  2704 net.cpp:150] Setting up loss2/relu_conv
I0506 16:19:27.347262  2704 net.cpp:157] Top shape: 16 128 4 4 (32768)
I0506 16:19:27.347266  2704 net.cpp:165] Memory required for data: 805661324
I0506 16:19:27.347270  2704 layer_factory.hpp:77] Creating layer loss2/fc
I0506 16:19:27.347276  2704 net.cpp:106] Creating Layer loss2/fc
I0506 16:19:27.347280  2704 net.cpp:454] loss2/fc <- loss2/conv
I0506 16:19:27.347286  2704 net.cpp:411] loss2/fc -> loss2/fc
I0506 16:19:27.359416  2704 net.cpp:150] Setting up loss2/fc
I0506 16:19:27.359449  2704 net.cpp:157] Top shape: 16 1024 (16384)
I0506 16:19:27.359454  2704 net.cpp:165] Memory required for data: 805726860
I0506 16:19:27.359462  2704 layer_factory.hpp:77] Creating layer loss2/relu_fc
I0506 16:19:27.359473  2704 net.cpp:106] Creating Layer loss2/relu_fc
I0506 16:19:27.359486  2704 net.cpp:454] loss2/relu_fc <- loss2/fc
I0506 16:19:27.359499  2704 net.cpp:397] loss2/relu_fc -> loss2/fc (in-place)
I0506 16:19:27.359685  2704 net.cpp:150] Setting up loss2/relu_fc
I0506 16:19:27.359694  2704 net.cpp:157] Top shape: 16 1024 (16384)
I0506 16:19:27.359697  2704 net.cpp:165] Memory required for data: 805792396
I0506 16:19:27.359700  2704 layer_factory.hpp:77] Creating layer loss2/drop_fc
I0506 16:19:27.359706  2704 net.cpp:106] Creating Layer loss2/drop_fc
I0506 16:19:27.359709  2704 net.cpp:454] loss2/drop_fc <- loss2/fc
I0506 16:19:27.359714  2704 net.cpp:397] loss2/drop_fc -> loss2/fc (in-place)
I0506 16:19:27.359740  2704 net.cpp:150] Setting up loss2/drop_fc
I0506 16:19:27.359745  2704 net.cpp:157] Top shape: 16 1024 (16384)
I0506 16:19:27.359747  2704 net.cpp:165] Memory required for data: 805857932
I0506 16:19:27.359750  2704 layer_factory.hpp:77] Creating layer loss2/classifier
I0506 16:19:27.359757  2704 net.cpp:106] Creating Layer loss2/classifier
I0506 16:19:27.359760  2704 net.cpp:454] loss2/classifier <- loss2/fc
I0506 16:19:27.359766  2704 net.cpp:411] loss2/classifier -> loss2/classifier
I0506 16:19:27.365442  2704 net.cpp:150] Setting up loss2/classifier
I0506 16:19:27.365452  2704 net.cpp:157] Top shape: 16 1000 (16000)
I0506 16:19:27.365454  2704 net.cpp:165] Memory required for data: 805921932
I0506 16:19:27.365459  2704 layer_factory.hpp:77] Creating layer loss2/classifier_loss2/classifier_0_split
I0506 16:19:27.365466  2704 net.cpp:106] Creating Layer loss2/classifier_loss2/classifier_0_split
I0506 16:19:27.365470  2704 net.cpp:454] loss2/classifier_loss2/classifier_0_split <- loss2/classifier
I0506 16:19:27.365475  2704 net.cpp:411] loss2/classifier_loss2/classifier_0_split -> loss2/classifier_loss2/classifier_0_split_0
I0506 16:19:27.365481  2704 net.cpp:411] loss2/classifier_loss2/classifier_0_split -> loss2/classifier_loss2/classifier_0_split_1
I0506 16:19:27.365486  2704 net.cpp:411] loss2/classifier_loss2/classifier_0_split -> loss2/classifier_loss2/classifier_0_split_2
I0506 16:19:27.365530  2704 net.cpp:150] Setting up loss2/classifier_loss2/classifier_0_split
I0506 16:19:27.365535  2704 net.cpp:157] Top shape: 16 1000 (16000)
I0506 16:19:27.365537  2704 net.cpp:157] Top shape: 16 1000 (16000)
I0506 16:19:27.365541  2704 net.cpp:157] Top shape: 16 1000 (16000)
I0506 16:19:27.365543  2704 net.cpp:165] Memory required for data: 806113932
I0506 16:19:27.365546  2704 layer_factory.hpp:77] Creating layer loss2/loss
I0506 16:19:27.365551  2704 net.cpp:106] Creating Layer loss2/loss
I0506 16:19:27.365556  2704 net.cpp:454] loss2/loss <- loss2/classifier_loss2/classifier_0_split_0
I0506 16:19:27.365559  2704 net.cpp:454] loss2/loss <- label_data_1_split_3
…
I0506 16:19:27.366000  2704 net.cpp:150] Setting up loss2/top-5
I0506 16:19:27.366004  2704 net.cpp:157] Top shape: (1)
I0506 16:19:27.366008  2704 net.cpp:165] Memory required for data: 806113944
I0506 16:19:27.366009  2704 layer_factory.hpp:77] Creating layer inception_4e/1x1
I0506 16:19:27.366019  2704 net.cpp:106] Creating Layer inception_4e/1x1
I0506 16:19:27.366022  2704 net.cpp:454] inception_4e/1x1 <- inception_4d/output_inception_4d/output_0_split_1
I0506 16:19:27.366027  2704 net.cpp:411] inception_4e/1x1 -> inception_4e/1x1
I0506 16:19:27.367494  2704 net.cpp:150] Setting up inception_4e/1x1
I0506 16:19:27.367504  2704 net.cpp:157] Top shape: 16 256 14 14 (802816)
I0506 16:19:27.367508  2704 net.cpp:165] Memory required for data: 809325208
I0506 16:19:27.367513  2704 layer_factory.hpp:77] Creating layer inception_4e/relu_1x1
I0506 16:19:27.367519  2704 net.cpp:106] Creating Layer inception_4e/relu_1x1
I0506 16:19:27.367523  2704 net.cpp:454] inception_4e/relu_1x1 <- inception_4e/1x1
I0506 16:19:27.367528  2704 net.cpp:397] inception_4e/relu_1x1 -> inception_4e/1x1 (in-place)
I0506 16:19:27.367660  2704 net.cpp:150] Setting up inception_4e/relu_1x1
I0506 16:19:27.367667  2704 net.cpp:157] Top shape: 16 256 14 14 (802816)
I0506 16:19:27.367671  2704 net.cpp:165] Memory required for data: 812536472
I0506 16:19:27.367673  2704 layer_factory.hpp:77] Creating layer inception_4e/3x3_reduce
I0506 16:19:27.367693  2704 net.cpp:106] Creating Layer inception_4e/3x3_reduce
I0506 16:19:27.367697  2704 net.cpp:454] inception_4e/3x3_reduce <- inception_4d/output_inception_4d/output_0_split_2
I0506 16:19:27.367703  2704 net.cpp:411] inception_4e/3x3_reduce -> inception_4e/3x3_reduce
I0506 16:19:27.369169  2704 net.cpp:150] Setting up inception_4e/3x3_reduce
I0506 16:19:27.369180  2704 net.cpp:157] Top shape: 16 160 14 14 (501760)
I0506 16:19:27.369184  2704 net.cpp:165] Memory required for data: 814543512
I0506 16:19:27.369189  2704 layer_factory.hpp:77] Creating layer inception_4e/relu_3x3_reduce
I0506 16:19:27.369194  2704 net.cpp:106] Creating Layer inception_4e/relu_3x3_reduce
I0506 16:19:27.369199  2704 net.cpp:454] inception_4e/relu_3x3_reduce <- inception_4e/3x3_reduce
I0506 16:19:27.369204  2704 net.cpp:397] inception_4e/relu_3x3_reduce -> inception_4e/3x3_reduce (in-place)
I0506 16:19:27.369424  2704 net.cpp:150] Setting up inception_4e/relu_3x3_reduce
I0506 16:19:27.369433  2704 net.cpp:157] Top shape: 16 160 14 14 (501760)
I0506 16:19:27.369437  2704 net.cpp:165] Memory required for data: 816550552
I0506 16:19:27.369441  2704 layer_factory.hpp:77] Creating layer inception_4e/3x3
I0506 16:19:27.369448  2704 net.cpp:106] Creating Layer inception_4e/3x3
I0506 16:19:27.369452  2704 net.cpp:454] inception_4e/3x3 <- inception_4e/3x3_reduce
I0506 16:19:27.369458  2704 net.cpp:411] inception_4e/3x3 -> inception_4e/3x3
I0506 16:19:27.372670  2704 net.cpp:150] Setting up inception_4e/3x3
I0506 16:19:27.372684  2704 net.cpp:157] Top shape: 16 320 14 14 (1003520)
I0506 16:19:27.372687  2704 net.cpp:165] Memory required for data: 820564632
I0506 16:19:27.372694  2704 layer_factory.hpp:77] Creating layer inception_4e/relu_3x3
I0506 16:19:27.372699  2704 net.cpp:106] Creating Layer inception_4e/relu_3x3
I0506 16:19:27.372704  2704 net.cpp:454] inception_4e/relu_3x3 <- inception_4e/3x3
I0506 16:19:27.372709  2704 net.cpp:397] inception_4e/relu_3x3 -> inception_4e/3x3 (in-place)
I0506 16:19:27.372920  2704 net.cpp:150] Setting up inception_4e/relu_3x3
I0506 16:19:27.372930  2704 net.cpp:157] Top shape: 16 320 14 14 (1003520)
I0506 16:19:27.372932  2704 net.cpp:165] Memory required for data: 824578712
I0506 16:19:27.372936  2704 layer_factory.hpp:77] Creating layer inception_4e/5x5_reduce
I0506 16:19:27.372944  2704 net.cpp:106] Creating Layer inception_4e/5x5_reduce
I0506 16:19:27.372948  2704 net.cpp:454] inception_4e/5x5_reduce <- inception_4d/output_inception_4d/output_0_split_3
I0506 16:19:27.372954  2704 net.cpp:411] inception_4e/5x5_reduce -> inception_4e/5x5_reduce
I0506 16:19:27.373813  2704 net.cpp:150] Setting up inception_4e/5x5_reduce
I0506 16:19:27.373831  2704 net.cpp:157] Top shape: 16 32 14 14 (100352)
I0506 16:19:27.373834  2704 net.cpp:165] Memory required for data: 824980120
I0506 16:19:27.373839  2704 layer_factory.hpp:77] Creating layer inception_4e/relu_5x5_reduce
I0506 16:19:27.373844  2704 net.cpp:106] Creating Layer inception_4e/relu_5x5_reduce
I0506 16:19:27.373848  2704 net.cpp:454] inception_4e/relu_5x5_reduce <- inception_4e/5x5_reduce
I0506 16:19:27.373853  2704 net.cpp:397] inception_4e/relu_5x5_reduce -> inception_4e/5x5_reduce (in-place)
I0506 16:19:27.373977  2704 net.cpp:150] Setting up inception_4e/relu_5x5_reduce
I0506 16:19:27.373985  2704 net.cpp:157] Top shape: 16 32 14 14 (100352)
I0506 16:19:27.373987  2704 net.cpp:165] Memory required for data: 825381528
I0506 16:19:27.373991  2704 layer_factory.hpp:77] Creating layer inception_4e/5x5
I0506 16:19:27.373998  2704 net.cpp:106] Creating Layer inception_4e/5x5
I0506 16:19:27.374002  2704 net.cpp:454] inception_4e/5x5 <- inception_4e/5x5_reduce
I0506 16:19:27.374008  2704 net.cpp:411] inception_4e/5x5 -> inception_4e/5x5
I0506 16:19:27.375265  2704 net.cpp:150] Setting up inception_4e/5x5
I0506 16:19:27.375275  2704 net.cpp:157] Top shape: 16 128 14 14 (401408)
I0506 16:19:27.375279  2704 net.cpp:165] Memory required for data: 826987160
I0506 16:19:27.375284  2704 layer_factory.hpp:77] Creating layer inception_4e/relu_5x5
I0506 16:19:27.375290  2704 net.cpp:106] Creating Layer inception_4e/relu_5x5
I0506 16:19:27.375294  2704 net.cpp:454] inception_4e/relu_5x5 <- inception_4e/5x5
I0506 16:19:27.375298  2704 net.cpp:397] inception_4e/relu_5x5 -> inception_4e/5x5 (in-place)
I0506 16:19:27.375505  2704 net.cpp:150] Setting up inception_4e/relu_5x5
I0506 16:19:27.375514  2704 net.cpp:157] Top shape: 16 128 14 14 (401408)
I0506 16:19:27.375519  2704 net.cpp:165] Memory required for data: 828592792
I0506 16:19:27.375522  2704 layer_factory.hpp:77] Creating layer inception_4e/pool
I0506 16:19:27.375529  2704 net.cpp:106] Creating Layer inception_4e/pool
I0506 16:19:27.375532  2704 net.cpp:454] inception_4e/pool <- inception_4d/output_inception_4d/output_0_split_4
I0506 16:19:27.375537  2704 net.cpp:411] inception_4e/pool -> inception_4e/pool
I0506 16:19:27.375577  2704 net.cpp:150] Setting up inception_4e/pool
I0506 16:19:27.375586  2704 net.cpp:157] Top shape: 16 528 14 14 (1655808)
I0506 16:19:27.375589  2704 net.cpp:165] Memory required for data: 835216024
I0506 16:19:27.375592  2704 layer_factory.hpp:77] Creating layer inception_4e/pool_proj
I0506 16:19:27.375600  2704 net.cpp:106] Creating Layer inception_4e/pool_proj
I0506 16:19:27.375604  2704 net.cpp:454] inception_4e/pool_proj <- inception_4e/pool
I0506 16:19:27.375610  2704 net.cpp:411] inception_4e/pool_proj -> inception_4e/pool_proj
I0506 16:19:27.376616  2704 net.cpp:150] Setting up inception_4e/pool_proj
I0506 16:19:27.376626  2704 net.cpp:157] Top shape: 16 128 14 14 (401408)
I0506 16:19:27.376628  2704 net.cpp:165] Memory required for data: 836821656
I0506 16:19:27.376634  2704 layer_factory.hpp:77] Creating layer inception_4e/relu_pool_proj
I0506 16:19:27.376639  2704 net.cpp:106] Creating Layer inception_4e/relu_pool_proj
I0506 16:19:27.376642  2704 net.cpp:454] inception_4e/relu_pool_proj <- inception_4e/pool_proj
I0506 16:19:27.376648  2704 net.cpp:397] inception_4e/relu_pool_proj -> inception_4e/pool_proj (in-place)
I0506 16:19:27.376855  2704 net.cpp:150] Setting up inception_4e/relu_pool_proj
I0506 16:19:27.376864  2704 net.cpp:157] Top shape: 16 128 14 14 (401408)
I0506 16:19:27.376868  2704 net.cpp:165] Memory required for data: 838427288
I0506 16:19:27.376870  2704 layer_factory.hpp:77] Creating layer inception_4e/output
I0506 16:19:27.376876  2704 net.cpp:106] Creating Layer inception_4e/output
I0506 16:19:27.376879  2704 net.cpp:454] inception_4e/output <- inception_4e/1x1
I0506 16:19:27.376883  2704 net.cpp:454] inception_4e/output <- inception_4e/3x3
I0506 16:19:27.376888  2704 net.cpp:454] inception_4e/output <- inception_4e/5x5
I0506 16:19:27.376894  2704 net.cpp:454] inception_4e/output <- inception_4e/pool_proj
I0506 16:19:27.376904  2704 net.cpp:411] inception_4e/output -> inception_4e/output
I0506 16:19:27.376930  2704 net.cpp:150] Setting up inception_4e/output
I0506 16:19:27.376935  2704 net.cpp:157] Top shape: 16 832 14 14 (2609152)
I0506 16:19:27.376938  2704 net.cpp:165] Memory required for data: 848863896
I0506 16:19:27.376941  2704 layer_factory.hpp:77] Creating layer pool4/3x3_s2
I0506 16:19:27.376946  2704 net.cpp:106] Creating Layer pool4/3x3_s2
I0506 16:19:27.376950  2704 net.cpp:454] pool4/3x3_s2 <- inception_4e/output
I0506 16:19:27.376953  2704 net.cpp:411] pool4/3x3_s2 -> pool4/3x3_s2
I0506 16:19:27.376987  2704 net.cpp:150] Setting up pool4/3x3_s2
I0506 16:19:27.376992  2704 net.cpp:157] Top shape: 16 832 7 7 (652288)
I0506 16:19:27.376996  2704 net.cpp:165] Memory required for data: 851473048
I0506 16:19:27.376998  2704 layer_factory.hpp:77] Creating layer pool4/3x3_s2_pool4/3x3_s2_0_split
I0506 16:19:27.377003  2704 net.cpp:106] Creating Layer pool4/3x3_s2_pool4/3x3_s2_0_split
I0506 16:19:27.377007  2704 net.cpp:454] pool4/3x3_s2_pool4/3x3_s2_0_split <- pool4/3x3_s2
I0506 16:19:27.377012  2704 net.cpp:411] pool4/3x3_s2_pool4/3x3_s2_0_split -> pool4/3x3_s2_pool4/3x3_s2_0_split_0
I0506 16:19:27.377017  2704 net.cpp:411] pool4/3x3_s2_pool4/3x3_s2_0_split -> pool4/3x3_s2_pool4/3x3_s2_0_split_1
I0506 16:19:27.377022  2704 net.cpp:411] pool4/3x3_s2_pool4/3x3_s2_0_split -> pool4/3x3_s2_pool4/3x3_s2_0_split_2
I0506 16:19:27.377035  2704 net.cpp:411] pool4/3x3_s2_pool4/3x3_s2_0_split -> pool4/3x3_s2_pool4/3x3_s2_0_split_3
I0506 16:19:27.377086  2704 net.cpp:150] Setting up pool4/3x3_s2_pool4/3x3_s2_0_split
I0506 16:19:27.377091  2704 net.cpp:157] Top shape: 16 832 7 7 (652288)
I0506 16:19:27.377095  2704 net.cpp:157] Top shape: 16 832 7 7 (652288)
I0506 16:19:27.377100  2704 net.cpp:157] Top shape: 16 832 7 7 (652288)
I0506 16:19:27.377104  2704 net.cpp:157] Top shape: 16 832 7 7 (652288)
I0506 16:19:27.377107  2704 net.cpp:165] Memory required for data: 861909656
I0506 16:19:27.377110  2704 layer_factory.hpp:77] Creating layer inception_5a/1x1
I0506 16:19:27.377118  2704 net.cpp:106] Creating Layer inception_5a/1x1
I0506 16:19:27.377121  2704 net.cpp:454] inception_5a/1x1 <- pool4/3x3_s2_pool4/3x3_s2_0_split_0
I0506 16:19:27.377126  2704 net.cpp:411] inception_5a/1x1 -> inception_5a/1x1
I0506 16:19:27.379115  2704 net.cpp:150] Setting up inception_5a/1x1
I0506 16:19:27.379125  2704 net.cpp:157] Top shape: 16 256 7 7 (200704)
I0506 16:19:27.379129  2704 net.cpp:165] Memory required for data: 862712472
I0506 16:19:27.379134  2704 layer_factory.hpp:77] Creating layer inception_5a/relu_1x1
I0506 16:19:27.379140  2704 net.cpp:106] Creating Layer inception_5a/relu_1x1
I0506 16:19:27.379144  2704 net.cpp:454] inception_5a/relu_1x1 <- inception_5a/1x1
I0506 16:19:27.379149  2704 net.cpp:397] inception_5a/relu_1x1 -> inception_5a/1x1 (in-place)
I0506 16:19:27.379273  2704 net.cpp:150] Setting up inception_5a/relu_1x1
I0506 16:19:27.379279  2704 net.cpp:157] Top shape: 16 256 7 7 (200704)
I0506 16:19:27.379282  2704 net.cpp:165] Memory required for data: 863515288
I0506 16:19:27.379287  2704 layer_factory.hpp:77] Creating layer inception_5a/3x3_reduce
I0506 16:19:27.379294  2704 net.cpp:106] Creating Layer inception_5a/3x3_reduce
I0506 16:19:27.379297  2704 net.cpp:454] inception_5a/3x3_reduce <- pool4/3x3_s2_pool4/3x3_s2_0_split_1
I0506 16:19:27.379304  2704 net.cpp:411] inception_5a/3x3_reduce -> inception_5a/3x3_reduce
I0506 16:19:27.380946  2704 net.cpp:150] Setting up inception_5a/3x3_reduce
I0506 16:19:27.380957  2704 net.cpp:157] Top shape: 16 160 7 7 (125440)
I0506 16:19:27.380960  2704 net.cpp:165] Memory required for data: 864017048
I0506 16:19:27.380966  2704 layer_factory.hpp:77] Creating layer inception_5a/relu_3x3_reduce
I0506 16:19:27.380971  2704 net.cpp:106] Creating Layer inception_5a/relu_3x3_reduce
I0506 16:19:27.380975  2704 net.cpp:454] inception_5a/relu_3x3_reduce <- inception_5a/3x3_reduce
I0506 16:19:27.380983  2704 net.cpp:397] inception_5a/relu_3x3_reduce -> inception_5a/3x3_reduce (in-place)
I0506 16:19:27.381196  2704 net.cpp:150] Setting up inception_5a/relu_3x3_reduce
I0506 16:19:27.381206  2704 net.cpp:157] Top shape: 16 160 7 7 (125440)
I0506 16:19:27.381208  2704 net.cpp:165] Memory required for data: 864518808
I0506 16:19:27.381212  2704 layer_factory.hpp:77] Creating layer inception_5a/3x3
I0506 16:19:27.381220  2704 net.cpp:106] Creating Layer inception_5a/3x3
I0506 16:19:27.381224  2704 net.cpp:454] inception_5a/3x3 <- inception_5a/3x3_reduce
I0506 16:19:27.381230  2704 net.cpp:411] inception_5a/3x3 -> inception_5a/3x3
I0506 16:19:27.384440  2704 net.cpp:150] Setting up inception_5a/3x3
I0506 16:19:27.384454  2704 net.cpp:157] Top shape: 16 320 7 7 (250880)
I0506 16:19:27.384456  2704 net.cpp:165] Memory required for data: 865522328
I0506 16:19:27.384462  2704 layer_factory.hpp:77] Creating layer inception_5a/relu_3x3
I0506 16:19:27.384469  2704 net.cpp:106] Creating Layer inception_5a/relu_3x3
I0506 16:19:27.384472  2704 net.cpp:454] inception_5a/relu_3x3 <- inception_5a/3x3
I0506 16:19:27.384477  2704 net.cpp:397] inception_5a/relu_3x3 -> inception_5a/3x3 (in-place)
I0506 16:19:27.384709  2704 net.cpp:150] Setting up inception_5a/relu_3x3
I0506 16:19:27.384718  2704 net.cpp:157] Top shape: 16 320 7 7 (250880)
I0506 16:19:27.384721  2704 net.cpp:165] Memory required for data: 866525848
I0506 16:19:27.384724  2704 layer_factory.hpp:77] Creating layer inception_5a/5x5_reduce
I0506 16:19:27.384734  2704 net.cpp:106] Creating Layer inception_5a/5x5_reduce
I0506 16:19:27.384738  2704 net.cpp:454] inception_5a/5x5_reduce <- pool4/3x3_s2_pool4/3x3_s2_0_split_2
I0506 16:19:27.384743  2704 net.cpp:411] inception_5a/5x5_reduce -> inception_5a/5x5_reduce
I0506 16:19:27.385721  2704 net.cpp:150] Setting up inception_5a/5x5_reduce
I0506 16:19:27.385730  2704 net.cpp:157] Top shape: 16 32 7 7 (25088)
I0506 16:19:27.385735  2704 net.cpp:165] Memory required for data: 866626200
I0506 16:19:27.385740  2704 layer_factory.hpp:77] Creating layer inception_5a/relu_5x5_reduce
I0506 16:19:27.385745  2704 net.cpp:106] Creating Layer inception_5a/relu_5x5_reduce
I0506 16:19:27.385748  2704 net.cpp:454] inception_5a/relu_5x5_reduce <- inception_5a/5x5_reduce
I0506 16:19:27.385753  2704 net.cpp:397] inception_5a/relu_5x5_reduce -> inception_5a/5x5_reduce (in-place)
I0506 16:19:27.385887  2704 net.cpp:150] Setting up inception_5a/relu_5x5_reduce
I0506 16:19:27.385895  2704 net.cpp:157] Top shape: 16 32 7 7 (25088)
I0506 16:19:27.385897  2704 net.cpp:165] Memory required for data: 866726552
I0506 16:19:27.385901  2704 layer_factory.hpp:77] Creating layer inception_5a/5x5
I0506 16:19:27.385908  2704 net.cpp:106] Creating Layer inception_5a/5x5
I0506 16:19:27.385912  2704 net.cpp:454] inception_5a/5x5 <- inception_5a/5x5_reduce
I0506 16:19:27.385918  2704 net.cpp:411] inception_5a/5x5 -> inception_5a/5x5
I0506 16:19:27.387186  2704 net.cpp:150] Setting up inception_5a/5x5
I0506 16:19:27.387195  2704 net.cpp:157] Top shape: 16 128 7 7 (100352)
I0506 16:19:27.387198  2704 net.cpp:165] Memory required for data: 867127960
I0506 16:19:27.387203  2704 layer_factory.hpp:77] Creating layer inception_5a/relu_5x5
I0506 16:19:27.387208  2704 net.cpp:106] Creating Layer inception_5a/relu_5x5
I0506 16:19:27.387212  2704 net.cpp:454] inception_5a/relu_5x5 <- inception_5a/5x5
I0506 16:19:27.387217  2704 net.cpp:397] inception_5a/relu_5x5 -> inception_5a/5x5 (in-place)
I0506 16:19:27.387428  2704 net.cpp:150] Setting up inception_5a/relu_5x5
I0506 16:19:27.387436  2704 net.cpp:157] Top shape: 16 128 7 7 (100352)
I0506 16:19:27.387439  2704 net.cpp:165] Memory required for data: 867529368
I0506 16:19:27.387442  2704 layer_factory.hpp:77] Creating layer inception_5a/pool
I0506 16:19:27.387449  2704 net.cpp:106] Creating Layer inception_5a/pool
I0506 16:19:27.387451  2704 net.cpp:454] inception_5a/pool <- pool4/3x3_s2_pool4/3x3_s2_0_split_3
I0506 16:19:27.387457  2704 net.cpp:411] inception_5a/pool -> inception_5a/pool
I0506 16:19:27.387496  2704 net.cpp:150] Setting up inception_5a/pool
I0506 16:19:27.387506  2704 net.cpp:157] Top shape: 16 832 7 7 (652288)
I0506 16:19:27.387512  2704 net.cpp:165] Memory required for data: 870138520
I0506 16:19:27.387516  2704 layer_factory.hpp:77] Creating layer inception_5a/pool_proj
I0506 16:19:27.387524  2704 net.cpp:106] Creating Layer inception_5a/pool_proj
I0506 16:19:27.387528  2704 net.cpp:454] inception_5a/pool_proj <- inception_5a/pool
I0506 16:19:27.387533  2704 net.cpp:411] inception_5a/pool_proj -> inception_5a/pool_proj
I0506 16:19:27.388958  2704 net.cpp:150] Setting up inception_5a/pool_proj
I0506 16:19:27.388970  2704 net.cpp:157] Top shape: 16 128 7 7 (100352)
I0506 16:19:27.388973  2704 net.cpp:165] Memory required for data: 870539928
I0506 16:19:27.388979  2704 layer_factory.hpp:77] Creating layer inception_5a/relu_pool_proj
I0506 16:19:27.388984  2704 net.cpp:106] Creating Layer inception_5a/relu_pool_proj
I0506 16:19:27.388988  2704 net.cpp:454] inception_5a/relu_pool_proj <- inception_5a/pool_proj
I0506 16:19:27.388993  2704 net.cpp:397] inception_5a/relu_pool_proj -> inception_5a/pool_proj (in-place)
I0506 16:19:27.389202  2704 net.cpp:150] Setting up inception_5a/relu_pool_proj
I0506 16:19:27.389212  2704 net.cpp:157] Top shape: 16 128 7 7 (100352)
I0506 16:19:27.389216  2704 net.cpp:165] Memory required for data: 870941336
I0506 16:19:27.389219  2704 layer_factory.hpp:77] Creating layer inception_5a/output
I0506 16:19:27.389225  2704 net.cpp:106] Creating Layer inception_5a/output
I0506 16:19:27.389228  2704 net.cpp:454] inception_5a/output <- inception_5a/1x1
I0506 16:19:27.389233  2704 net.cpp:454] inception_5a/output <- inception_5a/3x3
I0506 16:19:27.389236  2704 net.cpp:454] inception_5a/output <- inception_5a/5x5
I0506 16:19:27.389240  2704 net.cpp:454] inception_5a/output <- inception_5a/pool_proj
I0506 16:19:27.389245  2704 net.cpp:411] inception_5a/output -> inception_5a/output
I0506 16:19:27.389271  2704 net.cpp:150] Setting up inception_5a/output
I0506 16:19:27.389276  2704 net.cpp:157] Top shape: 16 832 7 7 (652288)
I0506 16:19:27.389279  2704 net.cpp:165] Memory required for data: 873550488
I0506 16:19:27.389282  2704 layer_factory.hpp:77] Creating layer inception_5a/output_inception_5a/output_0_split
I0506 16:19:27.389288  2704 net.cpp:106] Creating Layer inception_5a/output_inception_5a/output_0_split
I0506 16:19:27.389292  2704 net.cpp:454] inception_5a/output_inception_5a/output_0_split <- inception_5a/output
I0506 16:19:27.389295  2704 net.cpp:411] inception_5a/output_inception_5a/output_0_split -> inception_5a/output_inception_5a/output_0_split_0
I0506 16:19:27.389302  2704 net.cpp:411] inception_5a/output_inception_5a/output_0_split -> inception_5a/output_inception_5a/output_0_split_1
I0506 16:19:27.389307  2704 net.cpp:411] inception_5a/output_inception_5a/output_0_split -> inception_5a/output_inception_5a/output_0_split_2
I0506 16:19:27.389312  2704 net.cpp:411] inception_5a/output_inception_5a/output_0_split -> inception_5a/output_inception_5a/output_0_split_3
I0506 16:19:27.389364  2704 net.cpp:150] Setting up inception_5a/output_inception_5a/output_0_split
I0506 16:19:27.389369  2704 net.cpp:157] Top shape: 16 832 7 7 (652288)
I0506 16:19:27.389372  2704 net.cpp:157] Top shape: 16 832 7 7 (652288)
I0506 16:19:27.389376  2704 net.cpp:157] Top shape: 16 832 7 7 (652288)
I0506 16:19:27.389379  2704 net.cpp:157] Top shape: 16 832 7 7 (652288)
I0506 16:19:27.389382  2704 net.cpp:165] Memory required for data: 883987096
I0506 16:19:27.389385  2704 layer_factory.hpp:77] Creating layer inception_5b/1x1
I0506 16:19:27.389392  2704 net.cpp:106] Creating Layer inception_5b/1x1
I0506 16:19:27.389396  2704 net.cpp:454] inception_5b/1x1 <- inception_5a/output_inception_5a/output_0_split_0
I0506 16:19:27.389402  2704 net.cpp:411] inception_5b/1x1 -> inception_5b/1x1
I0506 16:19:27.391942  2704 net.cpp:150] Setting up inception_5b/1x1
I0506 16:19:27.391952  2704 net.cpp:157] Top shape: 16 384 7 7 (301056)
I0506 16:19:27.391957  2704 net.cpp:165] Memory required for data: 885191320
I0506 16:19:27.391965  2704 layer_factory.hpp:77] Creating layer inception_5b/relu_1x1
I0506 16:19:27.391975  2704 net.cpp:106] Creating Layer inception_5b/relu_1x1
I0506 16:19:27.391979  2704 net.cpp:454] inception_5b/relu_1x1 <- inception_5b/1x1
I0506 16:19:27.391984  2704 net.cpp:397] inception_5b/relu_1x1 -> inception_5b/1x1 (in-place)
I0506 16:19:27.392113  2704 net.cpp:150] Setting up inception_5b/relu_1x1
I0506 16:19:27.392120  2704 net.cpp:157] Top shape: 16 384 7 7 (301056)
I0506 16:19:27.392123  2704 net.cpp:165] Memory required for data: 886395544
I0506 16:19:27.392127  2704 layer_factory.hpp:77] Creating layer inception_5b/3x3_reduce
I0506 16:19:27.392137  2704 net.cpp:106] Creating Layer inception_5b/3x3_reduce
I0506 16:19:27.392140  2704 net.cpp:454] inception_5b/3x3_reduce <- inception_5a/output_inception_5a/output_0_split_1
I0506 16:19:27.392145  2704 net.cpp:411] inception_5b/3x3_reduce -> inception_5b/3x3_reduce
I0506 16:19:27.393906  2704 net.cpp:150] Setting up inception_5b/3x3_reduce
I0506 16:19:27.393916  2704 net.cpp:157] Top shape: 16 192 7 7 (150528)
I0506 16:19:27.393919  2704 net.cpp:165] Memory required for data: 886997656
I0506 16:19:27.393924  2704 layer_factory.hpp:77] Creating layer inception_5b/relu_3x3_reduce
I0506 16:19:27.393930  2704 net.cpp:106] Creating Layer inception_5b/relu_3x3_reduce
I0506 16:19:27.393935  2704 net.cpp:454] inception_5b/relu_3x3_reduce <- inception_5b/3x3_reduce
I0506 16:19:27.393939  2704 net.cpp:397] inception_5b/relu_3x3_reduce -> inception_5b/3x3_reduce (in-place)
I0506 16:19:27.394152  2704 net.cpp:150] Setting up inception_5b/relu_3x3_reduce
I0506 16:19:27.394161  2704 net.cpp:157] Top shape: 16 192 7 7 (150528)
I0506 16:19:27.394165  2704 net.cpp:165] Memory required for data: 887599768
I0506 16:19:27.394167  2704 layer_factory.hpp:77] Creating layer inception_5b/3x3
I0506 16:19:27.394176  2704 net.cpp:106] Creating Layer inception_5b/3x3
I0506 16:19:27.394181  2704 net.cpp:454] inception_5b/3x3 <- inception_5b/3x3_reduce
I0506 16:19:27.394186  2704 net.cpp:411] inception_5b/3x3 -> inception_5b/3x3
I0506 16:19:27.398497  2704 net.cpp:150] Setting up inception_5b/3x3
I0506 16:19:27.398511  2704 net.cpp:157] Top shape: 16 384 7 7 (301056)
I0506 16:19:27.398515  2704 net.cpp:165] Memory required for data: 888803992
I0506 16:19:27.398520  2704 layer_factory.hpp:77] Creating layer inception_5b/relu_3x3
I0506 16:19:27.398526  2704 net.cpp:106] Creating Layer inception_5b/relu_3x3
I0506 16:19:27.398530  2704 net.cpp:454] inception_5b/relu_3x3 <- inception_5b/3x3
I0506 16:19:27.398535  2704 net.cpp:397] inception_5b/relu_3x3 -> inception_5b/3x3 (in-place)
I0506 16:19:27.398749  2704 net.cpp:150] Setting up inception_5b/relu_3x3
I0506 16:19:27.398758  2704 net.cpp:157] Top shape: 16 384 7 7 (301056)
I0506 16:19:27.398761  2704 net.cpp:165] Memory required for data: 890008216
I0506 16:19:27.398766  2704 layer_factory.hpp:77] Creating layer inception_5b/5x5_reduce
I0506 16:19:27.398773  2704 net.cpp:106] Creating Layer inception_5b/5x5_reduce
I0506 16:19:27.398777  2704 net.cpp:454] inception_5b/5x5_reduce <- inception_5a/output_inception_5a/output_0_split_2
I0506 16:19:27.398783  2704 net.cpp:411] inception_5b/5x5_reduce -> inception_5b/5x5_reduce
I0506 16:19:27.400044  2704 net.cpp:150] Setting up inception_5b/5x5_reduce
I0506 16:19:27.400054  2704 net.cpp:157] Top shape: 16 48 7 7 (37632)
I0506 16:19:27.400058  2704 net.cpp:165] Memory required for data: 890158744
I0506 16:19:27.400063  2704 layer_factory.hpp:77] Creating layer inception_5b/relu_5x5_reduce
I0506 16:19:27.400069  2704 net.cpp:106] Creating Layer inception_5b/relu_5x5_reduce
I0506 16:19:27.400074  2704 net.cpp:454] inception_5b/relu_5x5_reduce <- inception_5b/5x5_reduce
I0506 16:19:27.400077  2704 net.cpp:397] inception_5b/relu_5x5_reduce -> inception_5b/5x5_reduce (in-place)
I0506 16:19:27.400208  2704 net.cpp:150] Setting up inception_5b/relu_5x5_reduce
I0506 16:19:27.400214  2704 net.cpp:157] Top shape: 16 48 7 7 (37632)
I0506 16:19:27.400218  2704 net.cpp:165] Memory required for data: 890309272
I0506 16:19:27.400225  2704 layer_factory.hpp:77] Creating layer inception_5b/5x5
I0506 16:19:27.400239  2704 net.cpp:106] Creating Layer inception_5b/5x5
I0506 16:19:27.400243  2704 net.cpp:454] inception_5b/5x5 <- inception_5b/5x5_reduce
I0506 16:19:27.400249  2704 net.cpp:411] inception_5b/5x5 -> inception_5b/5x5
I0506 16:19:27.401823  2704 net.cpp:150] Setting up inception_5b/5x5
I0506 16:19:27.401834  2704 net.cpp:157] Top shape: 16 128 7 7 (100352)
I0506 16:19:27.401836  2704 net.cpp:165] Memory required for data: 890710680
I0506 16:19:27.401842  2704 layer_factory.hpp:77] Creating layer inception_5b/relu_5x5
I0506 16:19:27.401847  2704 net.cpp:106] Creating Layer inception_5b/relu_5x5
I0506 16:19:27.401851  2704 net.cpp:454] inception_5b/relu_5x5 <- inception_5b/5x5
I0506 16:19:27.401856  2704 net.cpp:397] inception_5b/relu_5x5 -> inception_5b/5x5 (in-place)
I0506 16:19:27.402066  2704 net.cpp:150] Setting up inception_5b/relu_5x5
I0506 16:19:27.402076  2704 net.cpp:157] Top shape: 16 128 7 7 (100352)
I0506 16:19:27.402078  2704 net.cpp:165] Memory required for data: 891112088
I0506 16:19:27.402082  2704 layer_factory.hpp:77] Creating layer inception_5b/pool
I0506 16:19:27.402088  2704 net.cpp:106] Creating Layer inception_5b/pool
I0506 16:19:27.402092  2704 net.cpp:454] inception_5b/pool <- inception_5a/output_inception_5a/output_0_split_3
I0506 16:19:27.402097  2704 net.cpp:411] inception_5b/pool -> inception_5b/pool
I0506 16:19:27.402138  2704 net.cpp:150] Setting up inception_5b/pool
I0506 16:19:27.402143  2704 net.cpp:157] Top shape: 16 832 7 7 (652288)
I0506 16:19:27.402146  2704 net.cpp:165] Memory required for data: 893721240
I0506 16:19:27.402149  2704 layer_factory.hpp:77] Creating layer inception_5b/pool_proj
I0506 16:19:27.402158  2704 net.cpp:106] Creating Layer inception_5b/pool_proj
I0506 16:19:27.402161  2704 net.cpp:454] inception_5b/pool_proj <- inception_5b/pool
I0506 16:19:27.402168  2704 net.cpp:411] inception_5b/pool_proj -> inception_5b/pool_proj
I0506 16:19:27.403678  2704 net.cpp:150] Setting up inception_5b/pool_proj
I0506 16:19:27.403688  2704 net.cpp:157] Top shape: 16 128 7 7 (100352)
I0506 16:19:27.403692  2704 net.cpp:165] Memory required for data: 894122648
I0506 16:19:27.403698  2704 layer_factory.hpp:77] Creating layer inception_5b/relu_pool_proj
I0506 16:19:27.403703  2704 net.cpp:106] Creating Layer inception_5b/relu_pool_proj
I0506 16:19:27.403707  2704 net.cpp:454] inception_5b/relu_pool_proj <- inception_5b/pool_proj
I0506 16:19:27.403712  2704 net.cpp:397] inception_5b/relu_pool_proj -> inception_5b/pool_proj (in-place)
I0506 16:19:27.403928  2704 net.cpp:150] Setting up inception_5b/relu_pool_proj
I0506 16:19:27.403936  2704 net.cpp:157] Top shape: 16 128 7 7 (100352)
I0506 16:19:27.403940  2704 net.cpp:165] Memory required for data: 894524056
I0506 16:19:27.403944  2704 layer_factory.hpp:77] Creating layer inception_5b/output
I0506 16:19:27.403949  2704 net.cpp:106] Creating Layer inception_5b/output
I0506 16:19:27.403954  2704 net.cpp:454] inception_5b/output <- inception_5b/1x1
I0506 16:19:27.403957  2704 net.cpp:454] inception_5b/output <- inception_5b/3x3
I0506 16:19:27.403961  2704 net.cpp:454] inception_5b/output <- inception_5b/5x5
I0506 16:19:27.403964  2704 net.cpp:454] inception_5b/output <- inception_5b/pool_proj
I0506 16:19:27.403969  2704 net.cpp:411] inception_5b/output -> inception_5b/output
I0506 16:19:27.403996  2704 net.cpp:150] Setting up inception_5b/output
I0506 16:19:27.404001  2704 net.cpp:157] Top shape: 16 1024 7 7 (802816)
I0506 16:19:27.404005  2704 net.cpp:165] Memory required for data: 897735320
I0506 16:19:27.404007  2704 layer_factory.hpp:77] Creating layer pool5/7x7_s1
I0506 16:19:27.404013  2704 net.cpp:106] Creating Layer pool5/7x7_s1
I0506 16:19:27.404016  2704 net.cpp:454] pool5/7x7_s1 <- inception_5b/output
I0506 16:19:27.404021  2704 net.cpp:411] pool5/7x7_s1 -> pool5/7x7_s1
I0506 16:19:27.404161  2704 net.cpp:150] Setting up pool5/7x7_s1
I0506 16:19:27.404170  2704 net.cpp:157] Top shape: 16 1024 1 1 (16384)
I0506 16:19:27.404172  2704 net.cpp:165] Memory required for data: 897800856
I0506 16:19:27.404178  2704 layer_factory.hpp:77] Creating layer pool5/drop_7x7_s1
I0506 16:19:27.404187  2704 net.cpp:106] Creating Layer pool5/drop_7x7_s1
I0506 16:19:27.404191  2704 net.cpp:454] pool5/drop_7x7_s1 <- pool5/7x7_s1
I0506 16:19:27.404196  2704 net.cpp:397] pool5/drop_7x7_s1 -> pool5/7x7_s1 (in-place)
I0506 16:19:27.404220  2704 net.cpp:150] Setting up pool5/drop_7x7_s1
I0506 16:19:27.404225  2704 net.cpp:157] Top shape: 16 1024 1 1 (16384)
I0506 16:19:27.404228  2704 net.cpp:165] Memory required for data: 897866392
I0506 16:19:27.404232  2704 layer_factory.hpp:77] Creating layer loss3/classifier_foodCAT_googlenet_food101
I0506 16:19:27.404238  2704 net.cpp:106] Creating Layer loss3/classifier_foodCAT_googlenet_food101
I0506 16:19:27.404242  2704 net.cpp:454] loss3/classifier_foodCAT_googlenet_food101 <- pool5/7x7_s1
I0506 16:19:27.404247  2704 net.cpp:411] loss3/classifier_foodCAT_googlenet_food101 -> loss3/classifier_foodCAT_googlenet_food101
I0506 16:19:27.405637  2704 net.cpp:150] Setting up loss3/classifier_foodCAT_googlenet_food101
I0506 16:19:27.405645  2704 net.cpp:157] Top shape: 16 218 (3488)
I0506 16:19:27.405649  2704 net.cpp:165] Memory required for data: 897880344
I0506 16:19:27.405654  2704 layer_factory.hpp:77] Creating layer loss3/classifier_foodCAT_googlenet_food101_loss3/classifier_foodCAT_googlenet_food101_0_split
I0506 16:19:27.405659  2704 net.cpp:106] Creating Layer loss3/classifier_foodCAT_googlenet_food101_loss3/classifier_foodCAT_googlenet_food101_0_split
I0506 16:19:27.405664  2704 net.cpp:454] loss3/classifier_foodCAT_googlenet_food101_loss3/classifier_foodCAT_googlenet_food101_0_split <- loss3/classifier_foodCAT_googlenet_food101
I0506 16:19:27.405669  2704 net.cpp:411] loss3/classifier_foodCAT_googlenet_food101_loss3/classifier_foodCAT_googlenet_food101_0_split -> loss3/classifier_foodCAT_googlenet_food101_loss3/classifier_foodCAT_googlenet_food101_0_split_0
I0506 16:19:27.405675  2704 net.cpp:411] loss3/classifier_foodCAT_googlenet_food101_loss3/classifier_foodCAT_googlenet_food101_0_split -> loss3/classifier_foodCAT_googlenet_food101_loss3/classifier_foodCAT_googlenet_food101_0_split_1
I0506 16:19:27.405680  2704 net.cpp:411] loss3/classifier_foodCAT_googlenet_food101_loss3/classifier_foodCAT_googlenet_food101_0_split -> loss3/classifier_foodCAT_googlenet_food101_loss3/classifier_foodCAT_googlenet_food101_0_split_2
I0506 16:19:27.405728  2704 net.cpp:150] Setting up loss3/classifier_foodCAT_googlenet_food101_loss3/classifier_foodCAT_googlenet_food101_0_split
I0506 16:19:27.405733  2704 net.cpp:157] Top shape: 16 218 (3488)
I0506 16:19:27.405737  2704 net.cpp:157] Top shape: 16 218 (3488)
I0506 16:19:27.405740  2704 net.cpp:157] Top shape: 16 218 (3488)
I0506 16:19:27.405743  2704 net.cpp:165] Memory required for data: 897922200
I0506 16:19:27.405746  2704 layer_factory.hpp:77] Creating layer loss3/loss3
I0506 16:19:27.405752  2704 net.cpp:106] Creating Layer loss3/loss3
I0506 16:19:27.405756  2704 net.cpp:454] loss3/loss3 <- loss3/classifier_foodCAT_googlenet_food101_loss3/classifier_foodCAT_googlenet_food101_0_split_0
I0506 16:19:27.405761  2704 net.cpp:454] loss3/loss3 <- label_data_1_split_6
…
