…
I0503 18:47:12.763814  3078 caffe.cpp:241] GPU device name: GeForce GTX 980
I0503 18:47:12.901077  3078 net.cpp:49] Initializing net from parameters: 
name: "foodCAT_googlenet_food101"
state {
  phase: TEST
}
layer {
  name: "data"
  type: "ImageData"
  top: "data"
  top: "label"
  include {
    phase: TEST
  }
  transform_param {
    mirror: false
    crop_size: 224
    mean_value: 104
    mean_value: 117
    mean_value: 123
  }
  image_data_param {
    source: "foodCAT_CLUSTER/test.txt"
    batch_size: 16
    shuffle: true
    new_height: 256
    new_width: 256
  }
}
layer {
  name: "conv1/7x7_s2"
  type: "Convolution"
  bottom: "data"
  top: "conv1/7x7_s2"
  param {
    lr_mult: 1
    decay_mult: 1
  }
  param {
    lr_mult: 2
    decay_mult: 0
  }
  convolution_param {
    num_output: 64
    pad: 3
    kernel_size: 7
    stride: 2
    weight_filler {
      type: "xavier"
      std: 0.1
    }
    bias_filler {
      type: "constant"
      value: 0.2
    }
  }
}
layer {
  name: "conv1/relu_7x7"
  type: "ReLU"
  bottom: "conv1/7x7_s2"
  top: "conv1/7x7_s2"
}
layer {
  name: "pool1/3x3_s2"
  type: "Pooling"
  bottom: "conv1/7x7_s2"
  top: "pool1/3x3_s2"
  pooling_param {
    pool: MAX
    kernel_size: 3
    stride: 2
  }
}
layer {
  name: "pool1/norm1"
  type: "LRN"
  bottom: "pool1/3x3_s2"
  top: "pool1/norm1"
  lrn_param {
    local_size: 5
    alpha: 0.0001
    beta: 0.75
  }
}
layer {
  name: "conv2/3x3_reduce"
  type: "Convolution"
  bottom: "pool1/norm1"
  top: "conv2/3x3_reduce"
  param {
    lr_mult: 1
    decay_mult: 1
  }
  param {
    lr_mult: 2
    decay_mult: 0
  }
  convolution_param {
    num_output: 64
    kernel_size: 1
    weight_filler {
      type: "xavier"
      std: 0.1
    }
    bias_filler {
      type: "constant"
      value: 0.2
    }
  }
}
layer {
  name: "conv2/relu_3x3_reduce"
  type: "ReLU"
  bottom: "conv2/3x3_reduce"
  top: "conv2/3x3_reduce"
}
layer {
  name: "conv2/3x3"
  type: "Convolution"
  bottom: "conv2/3x3_reduce"
  top: "conv2/3x3"
  param {
    lr_mult: 1
    decay_mult: 1
  }
  param {
    lr_mult: 2
    decay_mult: 0
  }
  convolution_param {
    num_output: 192
    pad: 1
    kernel_size: 3
    weight_filler {
      type: "xavier"
      std: 0.03
    }
    bias_filler {
      type: "constant"
      value: 0.2
    }
  }
}
layer {
  name: "conv2/relu_3x3"
  type: "ReLU"
  bottom: "conv2/3x3"
  top: "conv2/3x3"
}
layer {
  name: "conv2/norm2"
  type: "LRN"
  bottom: "conv2/3x3"
  top: "conv2/norm2"
  lrn_param {
    local_size: 5
    alpha: 0.0001
    beta: 0.75
  }
}
layer {
  name: "pool2/3x3_s2"
  type: "Pooling"
  bottom: "conv2/norm2"
  top: "pool2/3x3_s2"
  pooling_param {
    pool: MAX
    kernel_size: 3
    stride: 2
  }
}
layer {
  name: "inception_3a/1x1"
  type: "Convolution"
  bottom: "pool2/3x3_s2"
  top: "inception_3a/1x1"
  param {
    lr_mult: 1
    decay_mult: 1
  }
  param {
    lr_mult: 2
    decay_mult: 0
  }
  convolution_param {
    num_output: 64
    kernel_size: 1
    weight_filler {
      type: "xavier"
      std: 0.03
    }
    bias_filler {
      type: "constant"
      value: 0.2
    }
  }
}
layer {
  name: "inception_3a/relu_1x1"
  type: "ReLU"
  bottom: "inception_3a/1x1"
  top: "inception_3a/1x1"
}
layer {
  name: "inception_3a/3x3_reduce"
  type: "Convolution"
  bottom: "pool2/3x3_s2"
  top: "inception_3a/3x3_reduce"
  param {
    lr_mult: 1
    decay_mult: 1
  }
  param {
    lr_mult: 2
    decay_mult: 0
  }
  convolution_param {
    num_output: 96
    kernel_size: 1
    weight_filler {
      type: "xavier"
      std: 0.09
    }
    bias_filler {
      type: "constant"
      value: 0.2
    }
  }
}
layer {
  name: "inception_3a/relu_3x3_reduce"
  type: "ReLU"
  bottom: "inception_3a/3x3_reduce"
  top: "inception_3a/3x3_reduce"
}
layer {
  name: "inception_3a/3x3"
  type: "Convolution"
  bottom: "inception_3a/3x3_reduce"
  top: "inception_3a/3x3"
  param {
    lr_mult: 1
    decay_mult: 1
  }
  param {
    lr_mult: 2
    decay_mult: 0
  }
  convolution_param {
    num_output: 128
    pad: 1
    kernel_size: 3
    weight_filler {
      type: "xavier"
      std: 0.03
    }
    bias_filler {
      type: "constant"
      value: 0.2
    }
  }
}
layer {
  name: "inception_3a/relu_3x3"
  type: "ReLU"
  bottom: "inception_3a/3x3"
  top: "inception_3a/3x3"
}
layer {
  name: "inception_3a/5x5_reduce"
  type: "Convolution"
  bottom: "pool2/3x3_s2"
  top: "inception_3a/5x5_reduce"
  param {
    lr_mult: 1
    decay_mult: 1
  }
  param {
    lr_mult: 2
    decay_mult: 0
  }
  convolution_param {
    num_output: 16
    kernel_size: 1
    weight_filler {
      type: "xavier"
      std: 0.2
    }
    bias_filler {
      type: "constant"
      value: 0.2
    }
  }
}
layer {
  name: "inception_3a/relu_5x5_reduce"
  type: "ReLU"
  bottom: "inception_3a/5x5_reduce"
  top: "inception_3a/5x5_reduce"
}
layer {
  name: "inception_3a/5x5"
  type: "Convolution"
  bottom: "inception_3a/5x5_reduce"
  top: "inception_3a/5x5"
  param {
    lr_mult: 1
    decay_mult: 1
  }
  param {
    lr_mult: 2
    decay_mult: 0
  }
  convolution_param {
    num_output: 32
    pad: 2
    kernel_size: 5
    weight_filler {
      type: "xavier"
      std: 0.03
    }
    bias_filler {
      type: "constant"
      value: 0.2
    }
  }
}
layer {
  name: "inception_3a/relu_5x5"
  type: "ReLU"
  bottom: "inception_3a/5x5"
  top: "inception_3a/5x5"
}
layer {
  name: "inception_3a/pool"
  type: "Pooling"
  bottom: "pool2/3x3_s2"
  top: "inception_3a/pool"
  pooling_param {
    pool: MAX
    kernel_size: 3
    stride: 1
    pad: 1
  }
}
layer {
  name: "inception_3a/pool_proj"
  type: "Convolution"
  bottom: "inception_3a/pool"
  top: "inception_3a/pool_proj"
  param {
    lr_mult: 1
    decay_mult: 1
  }
  param {
    lr_mult: 2
    decay_mult: 0
  }
  convolution_param {
    num_output: 32
    kernel_size: 1
    weight_filler {
      type: "xavier"
      std: 0.1
    }
    bias_filler {
      type: "constant"
      value: 0.2
    }
  }
}
layer {
  name: "inception_3a/relu_pool_proj"
  type: "ReLU"
  bottom: "inception_3a/pool_proj"
  top: "inception_3a/pool_proj"
}
layer {
  name: "inception_3a/output"
  type: "Concat"
  bottom: "inception_3a/1x1"
  bottom: "inception_3a/3x3"
  bottom: "inception_3a/5x5"
  bottom: "inception_3a/pool_proj"
  top: "inception_3a/output"
}
layer {
  name: "inception_3b/1x1"
  type: "Convolution"
  bottom: "inception_3a/output"
  top: "inception_3b/1x1"
  param {
    lr_mult: 1
    decay_mult: 1
  }
  param {
    lr_mult: 2
    decay_mult: 0
  }
  convolution_param {
    num_output: 128
    kernel_size: 1
    weight_filler {
      type: "xavier"
      std: 0.03
    }
    bias_filler {
      type: "constant"
      value: 0.2
    }
  }
}
layer {
  name: "inception_3b/relu_1x1"
  type: "ReLU"
  bottom: "inception_3b/1x1"
  top: "inception_3b/1x1"
}
layer {
  name: "inception_3b/3x3_reduce"
  type: "Convolution"
  bottom: "inception_3a/output"
  top: "inception_3b/3x3_reduce"
  param {
    lr_mult: 1
    decay_mult: 1
  }
  param {
    lr_mult: 2
    decay_mult: 0
  }
  convolution_param {
    num_output: 128
    kernel_size: 1
    weight_filler {
      type: "xavier"
      std: 0.09
    }
    bias_filler {
      type: "constant"
      value: 0.2
    }
  }
}
layer {
  name: "inception_3b/relu_3x3_reduce"
  type: "ReLU"
  bottom: "inception_3b/3x3_reduce"
  top: "inception_3b/3x3_reduce"
}
layer {
  name: "inception_3b/3x3"
  type: "Convolution"
  bottom: "inception_3b/3x3_reduce"
  top: "inception_3b/3x3"
  param {
    lr_mult: 1
    decay_mult: 1
  }
  param {
    lr_mult: 2
    decay_mult: 0
  }
  convolution_param {
    num_output: 192
    pad: 1
    kernel_size: 3
    weight_filler {
      type: "xavier"
      std: 0.03
    }
    bias_filler {
      type: "constant"
      value: 0.2
    }
  }
}
layer {
  name: "inception_3b/relu_3x3"
  type: "ReLU"
  bottom: "inception_3b/3x3"
  top: "inception_3b/3x3"
}
layer {
  name: "inception_3b/5x5_reduce"
  type: "Convolution"
  bottom: "inception_3a/output"
  top: "inception_3b/5x5_reduce"
  param {
    lr_mult: 1
    decay_mult: 1
  }
  param {
    lr_mult: 2
    decay_mult: 0
  }
  convolution_param {
    num_output: 32
    kernel_size: 1
    weight_filler {
      type: "xavier"
      std: 0.2
    }
    bias_filler {
      type: "constant"
      value: 0.2
    }
  }
}
layer {
  name: "inception_3b/relu_5x5_reduce"
  type: "ReLU"
  bottom: "inception_3b/5x5_reduce"
  top: "inception_3b/5x5_reduce"
}
layer {
  name: "inception_3b/5x5"
  type: "Convolution"
  bottom: "inception_3b/5x5_reduce"
  top: "inception_3b/5x5"
  param {
    lr_mult: 1
    decay_mult: 1
  }
  param {
    lr_mult: 2
    decay_mult: 0
  }
  convolution_param {
    num_output: 96
    pad: 2
    kernel_size: 5
    weight_filler {
      type: "xavier"
      std: 0.03
    }
    bias_filler {
      type: "constant"
      value: 0.2
    }
  }
}
layer {
  name: "inception_3b/relu_5x5"
  type: "ReLU"
  bottom: "inception_3b/5x5"
  top: "inception_3b/5x5"
}
layer {
  name: "inception_3b/pool"
  type: "Pooling"
  bottom: "inception_3a/output"
  top: "inception_3b/pool"
  pooling_param {
    pool: MAX
    kernel_size: 3
    stride: 1
    pad: 1
  }
}
layer {
  name: "inception_3b/pool_proj"
  type: "Convolution"
  bottom: "inception_3b/pool"
  top: "inception_3b/pool_proj"
  param {
    lr_mult: 1
    decay_mult: 1
  }
  param {
    lr_mult: 2
    decay_mult: 0
  }
  convolution_param {
    num_output: 64
    kernel_size: 1
    weight_filler {
      type: "xavier"
      std: 0.1
    }
    bias_filler {
      type: "constant"
      value: 0.2
    }
  }
}
layer {
  name: "inception_3b/relu_pool_proj"
  type: "ReLU"
  bottom: "inception_3b/pool_proj"
  top: "inception_3b/pool_proj"
}
layer {
  name: "inception_3b/output"
  type: "Concat"
  bottom: "inception_3b/1x1"
  bottom: "inception_3b/3x3"
  bottom: "inception_3b/5x5"
  bottom: "inception_3b/pool_proj"
  top: "inception_3b/output"
}
layer {
  name: "pool3/3x3_s2"
  type: "Pooling"
  bottom: "inception_3b/output"
  top: "pool3/3x3_s2"
  pooling_param {
    pool: MAX
    kernel_size: 3
    stride: 2
  }
}
layer {
  name: "inception_4a/1x1"
  type: "Convolution"
  bottom: "pool3/3x3_s2"
  top: "inception_4a/1x1"
  param {
    lr_mult: 1
    decay_mult: 1
  }
  param {
    lr_mult: 2
    decay_mult: 0
  }
  convolution_param {
    num_output: 192
    kernel_size: 1
    weight_filler {
      type: "xavier"
      std: 0.03
    }
    bias_filler {
      type: "constant"
      value: 0.2
    }
  }
}
layer {
  name: "inception_4a/relu_1x1"
  type: "ReLU"
  bottom: "inception_4a/1x1"
  top: "inception_4a/1x1"
}
layer {
  name: "inception_4a/3x3_reduce"
  type: "Convolution"
  bottom: "pool3/3x3_s2"
  top: "inception_4a/3x3_reduce"
  param {
    lr_mult: 1
    decay_mult: 1
  }
  param {
    lr_mult: 2
    decay_mult: 0
  }
  convolution_param {
    num_output: 96
    kernel_size: 1
    weight_filler {
      type: "xavier"
      std: 0.09
    }
    bias_filler {
      type: "constant"
      value: 0.2
    }
  }
}
layer {
  name: "inception_4a/relu_3x3_reduce"
  type: "ReLU"
  bottom: "inception_4a/3x3_reduce"
  top: "inception_4a/3x3_reduce"
}
layer {
  name: "inception_4a/3x3"
  type: "Convolution"
  bottom: "inception_4a/3x3_reduce"
  top: "inception_4a/3x3"
  param {
    lr_mult: 1
    decay_mult: 1
  }
  param {
    lr_mult: 2
    decay_mult: 0
  }
  convolution_param {
    num_output: 208
    pad: 1
    kernel_size: 3
    weight_filler {
      type: "xavier"
      std: 0.03
    }
    bias_filler {
      type: "constant"
      value: 0.2
    }
  }
}
layer {
  name: "inception_4a/relu_3x3"
  type: "ReLU"
  bottom: "inception_4a/3x3"
  top: "inception_4a/3x3"
}
layer {
  name: "inception_4a/5x5_reduce"
  type: "Convolution"
  bottom: "pool3/3x3_s2"
  top: "inception_4a/5x5_reduce"
  param {
    lr_mult: 1
    decay_mult: 1
  }
  param {
    lr_mult: 2
    decay_mult: 0
  }
  convolution_param {
    num_output: 16
    kernel_size: 1
    weight_filler {
      type: "xavier"
      std: 0.2
    }
    bias_filler {
      type: "constant"
      value: 0.2
    }
  }
}
layer {
  name: "inception_4a/relu_5x5_reduce"
  type: "ReLU"
  bottom: "inception_4a/5x5_reduce"
  top: "inception_4a/5x5_reduce"
}
layer {
  name: "inception_4a/5x5"
  type: "Convolution"
  bottom: "inception_4a/5x5_reduce"
  top: "inception_4a/5x5"
  param {
    lr_mult: 1
    decay_mult: 1
  }
  param {
    lr_mult: 2
    decay_mult: 0
  }
  convolution_param {
    num_output: 48
    pad: 2
    kernel_size: 5
    weight_filler {
      type: "xavier"
      std: 0.03
    }
    bias_filler {
      type: "constant"
      value: 0.2
    }
  }
}
layer {
  name: "inception_4a/relu_5x5"
  type: "ReLU"
  bottom: "inception_4a/5x5"
  top: "inception_4a/5x5"
}
layer {
  name: "inception_4a/pool"
  type: "Pooling"
  bottom: "pool3/3x3_s2"
  top: "inception_4a/pool"
  pooling_param {
    pool: MAX
    kernel_size: 3
    stride: 1
    pad: 1
  }
}
layer {
  name: "inception_4a/pool_proj"
  type: "Convolution"
  bottom: "inception_4a/pool"
  top: "inception_4a/pool_proj"
  param {
    lr_mult: 1
    decay_mult: 1
  }
  param {
    lr_mult: 2
    decay_mult: 0
  }
  convolution_param {
    num_output: 64
    kernel_size: 1
    weight_filler {
      type: "xavier"
      std: 0.1
    }
    bias_filler {
      type: "constant"
      value: 0.2
    }
  }
}
layer {
  name: "inception_4a/relu_pool_proj"
  type: "ReLU"
  bottom: "inception_4a/pool_proj"
  top: "inception_4a/pool_proj"
}
layer {
  name: "inception_4a/output"
  type: "Concat"
  bottom: "inception_4a/1x1"
  bottom: "inception_4a/3x3"
  bottom: "inception_4a/5x5"
  bottom: "inception_4a/pool_proj"
  top: "inception_4a/output"
}
layer {
  name: "loss1/ave_pool"
  type: "Pooling"
  bottom: "inception_4a/output"
  top: "loss1/ave_pool"
  pooling_param {
    pool: AVE
    kernel_size: 5
    stride: 3
  }
}
layer {
  name: "loss1/conv"
  type: "Convolution"
  bottom: "loss1/ave_pool"
  top: "loss1/conv"
  param {
    lr_mult: 1
    decay_mult: 1
  }
  param {
    lr_mult: 2
    decay_mult: 0
  }
  convolution_param {
    num_output: 128
    kernel_size: 1
    weight_filler {
      type: "xavier"
      std: 0.08
    }
    bias_filler {
      type: "constant"
      value: 0.2
    }
  }
}
layer {
  name: "loss1/relu_conv"
  type: "ReLU"
  bottom: "loss1/conv"
  top: "loss1/conv"
}
layer {
  name: "loss1/fc"
  type: "InnerProduct"
  bottom: "loss1/conv"
  top: "loss1/fc"
  param {
    lr_mult: 1
    decay_mult: 1
  }
  param {
    lr_mult: 2
    decay_mult: 0
  }
  inner_product_param {
    num_output: 1024
    weight_filler {
      type: "xavier"
      std: 0.02
    }
    bias_filler {
      type: "constant"
      value: 0.2
    }
  }
}
layer {
  name: "loss1/relu_fc"
  type: "ReLU"
  bottom: "loss1/fc"
  top: "loss1/fc"
}
layer {
  name: "loss1/drop_fc"
  type: "Dropout"
  bottom: "loss1/fc"
  top: "loss1/fc"
  dropout_param {
    dropout_ratio: 0.7
  }
}
layer {
  name: "loss1/classifier"
  type: "InnerProduct"
  bottom: "loss1/fc"
  top: "loss1/classifier"
  param {
    lr_mult: 1
    decay_mult: 1
  }
  param {
    lr_mult: 2
    decay_mult: 0
  }
  inner_product_param {
    num_output: 1000
    weight_filler {
      type: "xavier"
      std: 0.0009765625
    }
    bias_filler {
      type: "constant"
      value: 0
    }
  }
}
layer {
  name: "loss1/loss"
  type: "SoftmaxWithLoss"
  bottom: "loss1/classifier"
  bottom: "label"
  top: "loss1/loss1"
  loss_weight: 0.3
}
layer {
  name: "loss1/top-1"
  type: "Accuracy"
  bottom: "loss1/classifier"
  bottom: "label"
  top: "loss1/top-1"
  include {
    phase: TEST
  }
}
layer {
  name: "loss1/top-5"
  type: "Accuracy"
  bottom: "loss1/classifier"
  bottom: "label"
  top: "loss1/top-5"
  include {
    phase: TEST
  }
  accuracy_param {
    top_k: 5
  }
}
layer {
  name: "inception_4b/1x1"
  type: "Convolution"
  bottom: "inception_4a/output"
  top: "inception_4b/1x1"
  param {
    lr_mult: 1
    decay_mult: 1
  }
  param {
    lr_mult: 2
    decay_mult: 0
  }
  convolution_param {
    num_output: 160
    kernel_size: 1
    weight_filler {
      type: "xavier"
      std: 0.03
    }
    bias_filler {
      type: "constant"
      value: 0.2
    }
  }
}
layer {
  name: "inception_4b/relu_1x1"
  type: "ReLU"
  bottom: "inception_4b/1x1"
  top: "inception_4b/1x1"
}
layer {
  name: "inception_4b/3x3_reduce"
  type: "Convolution"
  bottom: "inception_4a/output"
  top: "inception_4b/3x3_reduce"
  param {
    lr_mult: 1
    decay_mult: 1
  }
  param {
    lr_mult: 2
    decay_mult: 0
  }
  convolution_param {
    num_output: 112
    kernel_size: 1
    weight_filler {
      type: "xavier"
      std: 0.09
    }
    bias_filler {
      type: "constant"
      value: 0.2
    }
  }
}
layer {
  name: "inception_4b/relu_3x3_reduce"
  type: "ReLU"
  bottom: "inception_4b/3x3_reduce"
  top: "inception_4b/3x3_reduce"
}
layer {
  name: "inception_4b/3x3"
  type: "Convolution"
  bottom: "inception_4b/3x3_reduce"
  top: "inception_4b/3x3"
  param {
    lr_mult: 1
    decay_mult: 1
  }
  param {
    lr_mult: 2
    decay_mult: 0
  }
  convolution_param {
    num_output: 224
    pad: 1
    kernel_size: 3
    weight_filler {
      type: "xavier"
      std: 0.03
    }
    bias_filler {
      type: "constant"
      value: 0.2
    }
  }
}
layer {
  name: "inception_4b/relu_3x3"
  type: "ReLU"
  bottom: "inception_4b/3x3"
  top: "inception_4b/3x3"
}
layer {
  name: "inception_4b/5x5_reduce"
  type: "Convolution"
  bottom: "inception_4a/output"
  top: "inception_4b/5x5_reduce"
  param {
    lr_mult: 1
    decay_mult: 1
  }
  param {
    lr_mult: 2
    decay_mult: 0
  }
  convolution_param {
    num_output: 24
    kernel_size: 1
    weight_filler {
      type: "xavier"
      std: 0.2
    }
    bias_filler {
      type: "constant"
      value: 0.2
    }
  }
}
layer {
  name: "inception_4b/relu_5x5_reduce"
  type: "ReLU"
  bottom: "inception_4b/5x5_reduce"
  top: "inception_4b/5x5_reduce"
}
layer {
  name: "inception_4b/5x5"
  type: "Convolution"
  bottom: "inception_4b/5x5_reduce"
  top: "inception_4b/5x5"
  param {
    lr_mult: 1
    decay_mult: 1
  }
  param {
    lr_mult: 2
    decay_mult: 0
  }
  convolution_param {
    num_output: 64
    pad: 2
    kernel_size: 5
    weight_filler {
      type: "xavier"
      std: 0.03
    }
    bias_filler {
      type: "constant"
      value: 0.2
    }
  }
}
layer {
  name: "inception_4b/relu_5x5"
  type: "ReLU"
  bottom: "inception_4b/5x5"
  top: "inception_4b/5x5"
}
layer {
  name: "inception_4b/pool"
  type: "Pooling"
  bottom: "inception_4a/output"
  top: "inception_4b/pool"
  pooling_param {
    pool: MAX
    kernel_size: 3
    stride: 1
    pad: 1
  }
}
layer {
  name: "inception_4b/pool_proj"
  type: "Convolution"
  bottom: "inception_4b/pool"
  top: "inception_4b/pool_proj"
  param {
    lr_mult: 1
    decay_mult: 1
  }
  param {
    lr_mult: 2
    decay_mult: 0
  }
  convolution_param {
    num_output: 64
    kernel_size: 1
    weight_filler {
      type: "xavier"
      std: 0.1
    }
    bias_filler {
      type: "constant"
      value: 0.2
    }
  }
}
layer {
  name: "inception_4b/relu_pool_proj"
  type: "ReLU"
  bottom: "inception_4b/pool_proj"
  top: "inception_4b/pool_proj"
}
layer {
  name: "inception_4b/output"
  type: "Concat"
  bottom: "inception_4b/1x1"
  bottom: "inception_4b/3x3"
  bottom: "inception_4b/5x5"
  bottom: "inception_4b/pool_proj"
  top: "inception_4b/output"
}
layer {
  name: "inception_4c/1x1"
  type: "Convolution"
  bottom: "inception_4b/output"
  top: "inception_4c/1x1"
  param {
    lr_mult: 1
    decay_mult: 1
  }
  param {
    lr_mult: 2
    decay_mult: 0
  }
  convolution_param {
    num_output: 128
    kernel_size: 1
    weight_filler {
      type: "xavier"
      std: 0.03
    }
    bias_filler {
      type: "constant"
      value: 0.2
    }
  }
}
layer {
  name: "inception_4c/relu_1x1"
  type: "ReLU"
  bottom: "inception_4c/1x1"
  top: "inception_4c/1x1"
}
layer {
  name: "inception_4c/3x3_reduce"
  type: "Convolution"
  bottom: "inception_4b/output"
  top: "inception_4c/3x3_reduce"
  param {
    lr_mult: 1
    decay_mult: 1
  }
  param {
    lr_mult: 2
    decay_mult: 0
  }
  convolution_param {
    num_output: 128
    kernel_size: 1
    weight_filler {
      type: "xavier"
      std: 0.09
    }
    bias_filler {
      type: "constant"
      value: 0.2
    }
  }
}
layer {
  name: "inception_4c/relu_3x3_reduce"
  type: "ReLU"
  bottom: "inception_4c/3x3_reduce"
  top: "inception_4c/3x3_reduce"
}
layer {
  name: "inception_4c/3x3"
  type: "Convolution"
  bottom: "inception_4c/3x3_reduce"
  top: "inception_4c/3x3"
  param {
    lr_mult: 1
    decay_mult: 1
  }
  param {
    lr_mult: 2
    decay_mult: 0
  }
  convolution_param {
    num_output: 256
    pad: 1
    kernel_size: 3
    weight_filler {
      type: "xavier"
      std: 0.03
    }
    bias_filler {
      type: "constant"
      value: 0.2
    }
  }
}
layer {
  name: "inception_4c/relu_3x3"
  type: "ReLU"
  bottom: "inception_4c/3x3"
  top: "inception_4c/3x3"
}
layer {
  name: "inception_4c/5x5_reduce"
  type: "Convolution"
  bottom: "inception_4b/output"
  top: "inception_4c/5x5_reduce"
  param {
    lr_mult: 1
    decay_mult: 1
  }
  param {
    lr_mult: 2
    decay_mult: 0
  }
  convolution_param {
    num_output: 24
    kernel_size: 1
    weight_filler {
      type: "xavier"
      std: 0.2
    }
    bias_filler {
      type: "constant"
      value: 0.2
    }
  }
}
layer {
  name: "inception_4c/relu_5x5_reduce"
  type: "ReLU"
  bottom: "inception_4c/5x5_reduce"
  top: "inception_4c/5x5_reduce"
}
layer {
  name: "inception_4c/5x5"
  type: "Convolution"
  bottom: "inception_4c/5x5_reduce"
  top: "inception_4c/5x5"
  param {
    lr_mult: 1
    decay_mult: 1
  }
  param {
    lr_mult: 2
    decay_mult: 0
  }
  convolution_param {
    num_output: 64
    pad: 2
    kernel_size: 5
    weight_filler {
      type: "xavier"
      std: 0.03
    }
    bias_filler {
      type: "constant"
      value: 0.2
    }
  }
}
layer {
  name: "inception_4c/relu_5x5"
  type: "ReLU"
  bottom: "inception_4c/5x5"
  top: "inception_4c/5x5"
}
layer {
  name: "inception_4c/pool"
  type: "Pooling"
  bottom: "inception_4b/output"
  top: "inception_4c/pool"
  pooling_param {
    pool: MAX
    kernel_size: 3
    stride: 1
    pad: 1
  }
}
layer {
  name: "inception_4c/pool_proj"
  type: "Convolution"
  bottom: "inception_4c/pool"
  top: "inception_4c/pool_proj"
  param {
    lr_mult: 1
    decay_mult: 1
  }
  param {
    lr_mult: 2
    decay_mult: 0
  }
  convolution_param {
    num_output: 64
    kernel_size: 1
    weight_filler {
      type: "xavier"
      std: 0.1
    }
    bias_filler {
      type: "constant"
      value: 0.2
    }
  }
}
layer {
  name: "inception_4c/relu_pool_proj"
  type: "ReLU"
  bottom: "inception_4c/pool_proj"
  top: "inception_4c/pool_proj"
}
layer {
  name: "inception_4c/output"
  type: "Concat"
  bottom: "inception_4c/1x1"
  bottom: "inception_4c/3x3"
  bottom: "inception_4c/5x5"
  bottom: "inception_4c/pool_proj"
  top: "inception_4c/output"
}
layer {
  name: "inception_4d/1x1"
  type: "Convolution"
  bottom: "inception_4c/output"
  top: "inception_4d/1x1"
  param {
    lr_mult: 1
    decay_mult: 1
  }
  param {
    lr_mult: 2
    decay_mult: 0
  }
  convolution_param {
    num_output: 112
    kernel_size: 1
    weight_filler {
      type: "xavier"
      std: 0.03
    }
    bias_filler {
      type: "constant"
      value: 0.2
    }
  }
}
layer {
  name: "inception_4d/relu_1x1"
  type: "ReLU"
  bottom: "inception_4d/1x1"
  top: "inception_4d/1x1"
}
layer {
  name: "inception_4d/3x3_reduce"
  type: "Convolution"
  bottom: "inception_4c/output"
  top: "inception_4d/3x3_reduce"
  param {
    lr_mult: 1
    decay_mult: 1
  }
  param {
    lr_mult: 2
    decay_mult: 0
  }
  convolution_param {
    num_output: 144
    kernel_size: 1
    weight_filler {
      type: "xavier"
      std: 0.09
    }
    bias_filler {
      type: "constant"
      value: 0.2
    }
  }
}
layer {
  name: "inception_4d/relu_3x3_reduce"
  type: "ReLU"
  bottom: "inception_4d/3x3_reduce"
  top: "inception_4d/3x3_reduce"
}
layer {
  name: "inception_4d/3x3"
  type: "Convolution"
  bottom: "inception_4d/3x3_reduce"
  top: "inception_4d/3x3"
  param {
    lr_mult: 1
    decay_mult: 1
  }
  param {
    lr_mult: 2
    decay_mult: 0
  }
  convolution_param {
    num_output: 288
    pad: 1
    kernel_size: 3
    weight_filler {
      type: "xavier"
      std: 0.03
    }
    bias_filler {
      type: "constant"
      value: 0.2
    }
  }
}
layer {
  name: "inception_4d/relu_3x3"
  type: "ReLU"
  bottom: "inception_4d/3x3"
  top: "inception_4d/3x3"
}
layer {
  name: "inception_4d/5x5_reduce"
  type: "Convolution"
  bottom: "inception_4c/output"
  top: "inception_4d/5x5_reduce"
  param {
    lr_mult: 1
    decay_mult: 1
  }
  param {
    lr_mult: 2
    decay_mult: 0
  }
  convolution_param {
    num_output: 32
    kernel_size: 1
    weight_filler {
      type: "xavier"
      std: 0.2
    }
    bias_filler {
      type: "constant"
      value: 0.2
    }
  }
}
layer {
  name: "inception_4d/relu_5x5_reduce"
  type: "ReLU"
  bottom: "inception_4d/5x5_reduce"
  top: "inception_4d/5x5_reduce"
}
layer {
  name: "inception_4d/5x5"
  type: "Convolution"
  bottom: "inception_4d/5x5_reduce"
  top: "inception_4d/5x5"
  param {
    lr_mult: 1
    decay_mult: 1
  }
  param {
    lr_mult: 2
    decay_mult: 0
  }
  convolution_param {
    num_output: 64
    pad: 2
    kernel_size: 5
    weight_filler {
      type: "xavier"
      std: 0.03
    }
    bias_filler {
      type: "constant"
      value: 0.2
    }
  }
}
layer {
  name: "inception_4d/relu_5x5"
  type: "ReLU"
  bottom: "inception_4d/5x5"
  top: "inception_4d/5x5"
}
layer {
  name: "inception_4d/pool"
  type: "Pooling"
  bottom: "inception_4c/output"
  top: "inception_4d/pool"
  pooling_param {
    pool: MAX
    kernel_size: 3
    stride: 1
    pad: 1
  }
}
layer {
  name: "inception_4d/pool_proj"
  type: "Convolution"
  bottom: "inception_4d/pool"
  top: "inception_4d/pool_proj"
  param {
    lr_mult: 1
    decay_mult: 1
  }
  param {
    lr_mult: 2
    decay_mult: 0
  }
  convolution_param {
    num_output: 64
    kernel_size: 1
    weight_filler {
      type: "xavier"
      std: 0.1
    }
    bias_filler {
      type: "constant"
      value: 0.2
    }
  }
}
layer {
  name: "inception_4d/relu_pool_proj"
  type: "ReLU"
  bottom: "inception_4d/pool_proj"
  top: "inception_4d/pool_proj"
}
layer {
  name: "inception_4d/output"
  type: "Concat"
  bottom: "inception_4d/1x1"
  bottom: "inception_4d/3x3"
  bottom: "inception_4d/5x5"
  bottom: "inception_4d/pool_proj"
  top: "inception_4d/output"
}
layer {
  name: "loss2/ave_pool"
  type: "Pooling"
  bottom: "inception_4d/output"
  top: "loss2/ave_pool"
  pooling_param {
    pool: AVE
    kernel_size: 5
    stride: 3
  }
}
layer {
  name: "loss2/conv"
  type: "Convolution"
  bottom: "loss2/ave_pool"
  top: "loss2/conv"
  param {
    lr_mult: 1
    decay_mult: 1
  }
  param {
    lr_mult: 2
    decay_mult: 0
  }
  convolution_param {
    num_output: 128
    kernel_size: 1
    weight_filler {
      type: "xavier"
      std: 0.08
    }
    bias_filler {
      type: "constant"
      value: 0.2
    }
  }
}
layer {
  name: "loss2/relu_conv"
  type: "ReLU"
  bottom: "loss2/conv"
  top: "loss2/conv"
}
layer {
  name: "loss2/fc"
  type: "InnerProduct"
  bottom: "loss2/conv"
  top: "loss2/fc"
  param {
    lr_mult: 1
    decay_mult: 1
  }
  param {
    lr_mult: 2
    decay_mult: 0
  }
  inner_product_param {
    num_output: 1024
    weight_filler {
      type: "xavier"
      std: 0.02
    }
    bias_filler {
      type: "constant"
      value: 0.2
    }
  }
}
layer {
  name: "loss2/relu_fc"
  type: "ReLU"
  bottom: "loss2/fc"
  top: "loss2/fc"
}
layer {
  name: "loss2/drop_fc"
  type: "Dropout"
  bottom: "loss2/fc"
  top: "loss2/fc"
  dropout_param {
    dropout_ratio: 0.7
  }
}
layer {
  name: "loss2/classifier"
  type: "InnerProduct"
  bottom: "loss2/fc"
  top: "loss2/classifier"
  param {
    lr_mult: 1
    decay_mult: 1
  }
  param {
    lr_mult: 2
    decay_mult: 0
  }
  inner_product_param {
    num_output: 1000
    weight_filler {
      type: "xavier"
      std: 0.0009765625
    }
    bias_filler {
      type: "constant"
      value: 0
    }
  }
}
layer {
  name: "loss2/loss"
  type: "SoftmaxWithLoss"
  bottom: "loss2/classifier"
  bottom: "label"
  top: "loss2/loss1"
  loss_weight: 0.3
}
layer {
  name: "loss2/top-1"
  type: "Accuracy"
  bottom: "loss2/classifier"
  bottom: "label"
  top: "loss2/top-1"
  include {
    phase: TEST
  }
}
layer {
  name: "loss2/top-5"
  type: "Accuracy"
  bottom: "loss2/classifier"
  bottom: "label"
  top: "loss2/top-5"
  include {
    phase: TEST
  }
  accuracy_param {
    top_k: 5
  }
}
layer {
  name: "inception_4e/1x1"
  type: "Convolution"
  bottom: "inception_4d/output"
  top: "inception_4e/1x1"
  param {
    lr_mult: 1
    decay_mult: 1
  }
  param {
    lr_mult: 2
    decay_mult: 0
  }
  convolution_param {
    num_output: 256
    kernel_size: 1
    weight_filler {
      type: "xavier"
      std: 0.03
    }
    bias_filler {
      type: "constant"
      value: 0.2
    }
  }
}
layer {
  name: "inception_4e/relu_1x1"
  type: "ReLU"
  bottom: "inception_4e/1x1"
  top: "inception_4e/1x1"
}
layer {
  name: "inception_4e/3x3_reduce"
  type: "Convolution"
  bottom: "inception_4d/output"
  top: "inception_4e/3x3_reduce"
  param {
    lr_mult: 1
    decay_mult: 1
  }
  param {
    lr_mult: 2
    decay_mult: 0
  }
  convolution_param {
    num_output: 160
    kernel_size: 1
    weight_filler {
      type: "xavier"
      std: 0.09
    }
    bias_filler {
      type: "constant"
      value: 0.2
    }
  }
}
layer {
  name: "inception_4e/relu_3x3_reduce"
  type: "ReLU"
  bottom: "inception_4e/3x3_reduce"
  top: "inception_4e/3x3_reduce"
}
layer {
  name: "inception_4e/3x3"
  type: "Convolution"
  bottom: "inception_4e/3x3_reduce"
  top: "inception_4e/3x3"
  param {
    lr_mult: 1
    decay_mult: 1
  }
  param {
    lr_mult: 2
    decay_mult: 0
  }
  convolution_param {
    num_output: 320
  
I0503 18:47:12.901662  3078 layer_factory.hpp:77] Creating layer data
I0503 18:47:12.901691  3078 net.cpp:106] Creating Layer data
I0503 18:47:12.901697  3078 net.cpp:411] data -> data
I0503 18:47:12.901717  3078 net.cpp:411] data -> label
I0503 18:47:12.901729  3078 image_data_layer.cpp:38] Opening file foodCAT_CLUSTER/test.txt
I0503 18:47:12.906230  3078 image_data_layer.cpp:48] Shuffling data
I0503 18:47:12.907142  3078 image_data_layer.cpp:53] A total of 14630 images.
I0503 18:47:12.917255  3078 image_data_layer.cpp:80] output data size: 16,3,224,224
I0503 18:47:12.930090  3078 net.cpp:150] Setting up data
I0503 18:47:12.930124  3078 net.cpp:157] Top shape: 16 3 224 224 (2408448)
I0503 18:47:12.930129  3078 net.cpp:157] Top shape: 16 (16)
I0503 18:47:12.930131  3078 net.cpp:165] Memory required for data: 9633856
I0503 18:47:12.930138  3078 layer_factory.hpp:77] Creating layer label_data_1_split
I0503 18:47:12.930153  3078 net.cpp:106] Creating Layer label_data_1_split
I0503 18:47:12.930158  3078 net.cpp:454] label_data_1_split <- label
I0503 18:47:12.930167  3078 net.cpp:411] label_data_1_split -> label_data_1_split_0
I0503 18:47:12.930177  3078 net.cpp:411] label_data_1_split -> label_data_1_split_1
I0503 18:47:12.930182  3078 net.cpp:411] label_data_1_split -> label_data_1_split_2
I0503 18:47:12.930187  3078 net.cpp:411] label_data_1_split -> label_data_1_split_3
I0503 18:47:12.930192  3078 net.cpp:411] label_data_1_split -> label_data_1_split_4
I0503 18:47:12.930197  3078 net.cpp:411] label_data_1_split -> label_data_1_split_5
I0503 18:47:12.930202  3078 net.cpp:411] label_data_1_split -> label_data_1_split_6
I0503 18:47:12.930207  3078 net.cpp:411] label_data_1_split -> label_data_1_split_7
I0503 18:47:12.930212  3078 net.cpp:411] label_data_1_split -> label_data_1_split_8
I0503 18:47:12.930282  3078 net.cpp:150] Setting up label_data_1_split
I0503 18:47:12.930287  3078 net.cpp:157] Top shape: 16 (16)
I0503 18:47:12.930290  3078 net.cpp:157] Top shape: 16 (16)
I0503 18:47:12.930294  3078 net.cpp:157] Top shape: 16 (16)
I0503 18:47:12.930297  3078 net.cpp:157] Top shape: 16 (16)
I0503 18:47:12.930300  3078 net.cpp:157] Top shape: 16 (16)
I0503 18:47:12.930305  3078 net.cpp:157] Top shape: 16 (16)
I0503 18:47:12.930307  3078 net.cpp:157] Top shape: 16 (16)
I0503 18:47:12.930310  3078 net.cpp:157] Top shape: 16 (16)
I0503 18:47:12.930315  3078 net.cpp:157] Top shape: 16 (16)
I0503 18:47:12.930316  3078 net.cpp:165] Memory required for data: 9634432
I0503 18:47:12.930320  3078 layer_factory.hpp:77] Creating layer conv1/7x7_s2
I0503 18:47:12.930333  3078 net.cpp:106] Creating Layer conv1/7x7_s2
I0503 18:47:12.930342  3078 net.cpp:454] conv1/7x7_s2 <- data
I0503 18:47:12.930353  3078 net.cpp:411] conv1/7x7_s2 -> conv1/7x7_s2
I0503 18:47:13.051661  3078 net.cpp:150] Setting up conv1/7x7_s2
I0503 18:47:13.051692  3078 net.cpp:157] Top shape: 16 64 112 112 (12845056)
I0503 18:47:13.051695  3078 net.cpp:165] Memory required for data: 61014656
I0503 18:47:13.051708  3078 layer_factory.hpp:77] Creating layer conv1/relu_7x7
I0503 18:47:13.051718  3078 net.cpp:106] Creating Layer conv1/relu_7x7
I0503 18:47:13.051723  3078 net.cpp:454] conv1/relu_7x7 <- conv1/7x7_s2
I0503 18:47:13.051728  3078 net.cpp:397] conv1/relu_7x7 -> conv1/7x7_s2 (in-place)
I0503 18:47:13.051843  3078 net.cpp:150] Setting up conv1/relu_7x7
I0503 18:47:13.051849  3078 net.cpp:157] Top shape: 16 64 112 112 (12845056)
I0503 18:47:13.051852  3078 net.cpp:165] Memory required for data: 112394880
I0503 18:47:13.051856  3078 layer_factory.hpp:77] Creating layer pool1/3x3_s2
I0503 18:47:13.051862  3078 net.cpp:106] Creating Layer pool1/3x3_s2
I0503 18:47:13.051867  3078 net.cpp:454] pool1/3x3_s2 <- conv1/7x7_s2
I0503 18:47:13.051872  3078 net.cpp:411] pool1/3x3_s2 -> pool1/3x3_s2
I0503 18:47:13.051908  3078 net.cpp:150] Setting up pool1/3x3_s2
I0503 18:47:13.051913  3078 net.cpp:157] Top shape: 16 64 56 56 (3211264)
I0503 18:47:13.051916  3078 net.cpp:165] Memory required for data: 125239936
I0503 18:47:13.051919  3078 layer_factory.hpp:77] Creating layer pool1/norm1
I0503 18:47:13.051928  3078 net.cpp:106] Creating Layer pool1/norm1
I0503 18:47:13.051930  3078 net.cpp:454] pool1/norm1 <- pool1/3x3_s2
I0503 18:47:13.051934  3078 net.cpp:411] pool1/norm1 -> pool1/norm1
I0503 18:47:13.052141  3078 net.cpp:150] Setting up pool1/norm1
I0503 18:47:13.052150  3078 net.cpp:157] Top shape: 16 64 56 56 (3211264)
I0503 18:47:13.052152  3078 net.cpp:165] Memory required for data: 138084992
I0503 18:47:13.052155  3078 layer_factory.hpp:77] Creating layer conv2/3x3_reduce
I0503 18:47:13.052165  3078 net.cpp:106] Creating Layer conv2/3x3_reduce
I0503 18:47:13.052168  3078 net.cpp:454] conv2/3x3_reduce <- pool1/norm1
I0503 18:47:13.052173  3078 net.cpp:411] conv2/3x3_reduce -> conv2/3x3_reduce
I0503 18:47:13.053143  3078 net.cpp:150] Setting up conv2/3x3_reduce
I0503 18:47:13.053153  3078 net.cpp:157] Top shape: 16 64 56 56 (3211264)
I0503 18:47:13.053156  3078 net.cpp:165] Memory required for data: 150930048
I0503 18:47:13.053164  3078 layer_factory.hpp:77] Creating layer conv2/relu_3x3_reduce
I0503 18:47:13.053169  3078 net.cpp:106] Creating Layer conv2/relu_3x3_reduce
I0503 18:47:13.053174  3078 net.cpp:454] conv2/relu_3x3_reduce <- conv2/3x3_reduce
I0503 18:47:13.053177  3078 net.cpp:397] conv2/relu_3x3_reduce -> conv2/3x3_reduce (in-place)
I0503 18:47:13.053290  3078 net.cpp:150] Setting up conv2/relu_3x3_reduce
I0503 18:47:13.053297  3078 net.cpp:157] Top shape: 16 64 56 56 (3211264)
I0503 18:47:13.053300  3078 net.cpp:165] Memory required for data: 163775104
I0503 18:47:13.053303  3078 layer_factory.hpp:77] Creating layer conv2/3x3
I0503 18:47:13.053311  3078 net.cpp:106] Creating Layer conv2/3x3
I0503 18:47:13.053315  3078 net.cpp:454] conv2/3x3 <- conv2/3x3_reduce
I0503 18:47:13.053321  3078 net.cpp:411] conv2/3x3 -> conv2/3x3
I0503 18:47:13.054716  3078 net.cpp:150] Setting up conv2/3x3
I0503 18:47:13.054725  3078 net.cpp:157] Top shape: 16 192 56 56 (9633792)
I0503 18:47:13.054729  3078 net.cpp:165] Memory required for data: 202310272
I0503 18:47:13.054735  3078 layer_factory.hpp:77] Creating layer conv2/relu_3x3
I0503 18:47:13.054741  3078 net.cpp:106] Creating Layer conv2/relu_3x3
I0503 18:47:13.054744  3078 net.cpp:454] conv2/relu_3x3 <- conv2/3x3
I0503 18:47:13.054749  3078 net.cpp:397] conv2/relu_3x3 -> conv2/3x3 (in-place)
I0503 18:47:13.054945  3078 net.cpp:150] Setting up conv2/relu_3x3
I0503 18:47:13.054955  3078 net.cpp:157] Top shape: 16 192 56 56 (9633792)
I0503 18:47:13.054957  3078 net.cpp:165] Memory required for data: 240845440
I0503 18:47:13.054960  3078 layer_factory.hpp:77] Creating layer conv2/norm2
I0503 18:47:13.054966  3078 net.cpp:106] Creating Layer conv2/norm2
I0503 18:47:13.054975  3078 net.cpp:454] conv2/norm2 <- conv2/3x3
I0503 18:47:13.054985  3078 net.cpp:411] conv2/norm2 -> conv2/norm2
I0503 18:47:13.055148  3078 net.cpp:150] Setting up conv2/norm2
I0503 18:47:13.055155  3078 net.cpp:157] Top shape: 16 192 56 56 (9633792)
I0503 18:47:13.055158  3078 net.cpp:165] Memory required for data: 279380608
I0503 18:47:13.055161  3078 layer_factory.hpp:77] Creating layer pool2/3x3_s2
I0503 18:47:13.055167  3078 net.cpp:106] Creating Layer pool2/3x3_s2
I0503 18:47:13.055171  3078 net.cpp:454] pool2/3x3_s2 <- conv2/norm2
I0503 18:47:13.055174  3078 net.cpp:411] pool2/3x3_s2 -> pool2/3x3_s2
I0503 18:47:13.055199  3078 net.cpp:150] Setting up pool2/3x3_s2
I0503 18:47:13.055204  3078 net.cpp:157] Top shape: 16 192 28 28 (2408448)
I0503 18:47:13.055207  3078 net.cpp:165] Memory required for data: 289014400
I0503 18:47:13.055209  3078 layer_factory.hpp:77] Creating layer pool2/3x3_s2_pool2/3x3_s2_0_split
I0503 18:47:13.055214  3078 net.cpp:106] Creating Layer pool2/3x3_s2_pool2/3x3_s2_0_split
I0503 18:47:13.055217  3078 net.cpp:454] pool2/3x3_s2_pool2/3x3_s2_0_split <- pool2/3x3_s2
I0503 18:47:13.055222  3078 net.cpp:411] pool2/3x3_s2_pool2/3x3_s2_0_split -> pool2/3x3_s2_pool2/3x3_s2_0_split_0
I0503 18:47:13.055227  3078 net.cpp:411] pool2/3x3_s2_pool2/3x3_s2_0_split -> pool2/3x3_s2_pool2/3x3_s2_0_split_1
I0503 18:47:13.055232  3078 net.cpp:411] pool2/3x3_s2_pool2/3x3_s2_0_split -> pool2/3x3_s2_pool2/3x3_s2_0_split_2
I0503 18:47:13.055235  3078 net.cpp:411] pool2/3x3_s2_pool2/3x3_s2_0_split -> pool2/3x3_s2_pool2/3x3_s2_0_split_3
I0503 18:47:13.055271  3078 net.cpp:150] Setting up pool2/3x3_s2_pool2/3x3_s2_0_split
I0503 18:47:13.055276  3078 net.cpp:157] Top shape: 16 192 28 28 (2408448)
I0503 18:47:13.055279  3078 net.cpp:157] Top shape: 16 192 28 28 (2408448)
I0503 18:47:13.055282  3078 net.cpp:157] Top shape: 16 192 28 28 (2408448)
I0503 18:47:13.055285  3078 net.cpp:157] Top shape: 16 192 28 28 (2408448)
I0503 18:47:13.055289  3078 net.cpp:165] Memory required for data: 327549568
I0503 18:47:13.055291  3078 layer_factory.hpp:77] Creating layer inception_3a/1x1
I0503 18:47:13.055299  3078 net.cpp:106] Creating Layer inception_3a/1x1
I0503 18:47:13.055301  3078 net.cpp:454] inception_3a/1x1 <- pool2/3x3_s2_pool2/3x3_s2_0_split_0
I0503 18:47:13.055306  3078 net.cpp:411] inception_3a/1x1 -> inception_3a/1x1
I0503 18:47:13.056265  3078 net.cpp:150] Setting up inception_3a/1x1
I0503 18:47:13.056274  3078 net.cpp:157] Top shape: 16 64 28 28 (802816)
I0503 18:47:13.056277  3078 net.cpp:165] Memory required for data: 330760832
I0503 18:47:13.056282  3078 layer_factory.hpp:77] Creating layer inception_3a/relu_1x1
I0503 18:47:13.056288  3078 net.cpp:106] Creating Layer inception_3a/relu_1x1
I0503 18:47:13.056293  3078 net.cpp:454] inception_3a/relu_1x1 <- inception_3a/1x1
I0503 18:47:13.056296  3078 net.cpp:397] inception_3a/relu_1x1 -> inception_3a/1x1 (in-place)
I0503 18:47:13.056416  3078 net.cpp:150] Setting up inception_3a/relu_1x1
I0503 18:47:13.056422  3078 net.cpp:157] Top shape: 16 64 28 28 (802816)
I0503 18:47:13.056426  3078 net.cpp:165] Memory required for data: 333972096
I0503 18:47:13.056428  3078 layer_factory.hpp:77] Creating layer inception_3a/3x3_reduce
I0503 18:47:13.056435  3078 net.cpp:106] Creating Layer inception_3a/3x3_reduce
I0503 18:47:13.056438  3078 net.cpp:454] inception_3a/3x3_reduce <- pool2/3x3_s2_pool2/3x3_s2_0_split_1
I0503 18:47:13.056444  3078 net.cpp:411] inception_3a/3x3_reduce -> inception_3a/3x3_reduce
I0503 18:47:13.057438  3078 net.cpp:150] Setting up inception_3a/3x3_reduce
I0503 18:47:13.057447  3078 net.cpp:157] Top shape: 16 96 28 28 (1204224)
I0503 18:47:13.057451  3078 net.cpp:165] Memory required for data: 338788992
I0503 18:47:13.057458  3078 layer_factory.hpp:77] Creating layer inception_3a/relu_3x3_reduce
I0503 18:47:13.057464  3078 net.cpp:106] Creating Layer inception_3a/relu_3x3_reduce
I0503 18:47:13.057467  3078 net.cpp:454] inception_3a/relu_3x3_reduce <- inception_3a/3x3_reduce
I0503 18:47:13.057474  3078 net.cpp:397] inception_3a/relu_3x3_reduce -> inception_3a/3x3_reduce (in-place)
I0503 18:47:13.057674  3078 net.cpp:150] Setting up inception_3a/relu_3x3_reduce
I0503 18:47:13.057682  3078 net.cpp:157] Top shape: 16 96 28 28 (1204224)
I0503 18:47:13.057685  3078 net.cpp:165] Memory required for data: 343605888
I0503 18:47:13.057688  3078 layer_factory.hpp:77] Creating layer inception_3a/3x3
I0503 18:47:13.057696  3078 net.cpp:106] Creating Layer inception_3a/3x3
I0503 18:47:13.057700  3078 net.cpp:454] inception_3a/3x3 <- inception_3a/3x3_reduce
I0503 18:47:13.057705  3078 net.cpp:411] inception_3a/3x3 -> inception_3a/3x3
I0503 18:47:13.058948  3078 net.cpp:150] Setting up inception_3a/3x3
I0503 18:47:13.058959  3078 net.cpp:157] Top shape: 16 128 28 28 (1605632)
I0503 18:47:13.058961  3078 net.cpp:165] Memory required for data: 350028416
I0503 18:47:13.058966  3078 layer_factory.hpp:77] Creating layer inception_3a/relu_3x3
I0503 18:47:13.058971  3078 net.cpp:106] Creating Layer inception_3a/relu_3x3
I0503 18:47:13.058974  3078 net.cpp:454] inception_3a/relu_3x3 <- inception_3a/3x3
I0503 18:47:13.058979  3078 net.cpp:397] inception_3a/relu_3x3 -> inception_3a/3x3 (in-place)
I0503 18:47:13.059104  3078 net.cpp:150] Setting up inception_3a/relu_3x3
I0503 18:47:13.059110  3078 net.cpp:157] Top shape: 16 128 28 28 (1605632)
I0503 18:47:13.059113  3078 net.cpp:165] Memory required for data: 356450944
I0503 18:47:13.059116  3078 layer_factory.hpp:77] Creating layer inception_3a/5x5_reduce
I0503 18:47:13.059124  3078 net.cpp:106] Creating Layer inception_3a/5x5_reduce
I0503 18:47:13.059128  3078 net.cpp:454] inception_3a/5x5_reduce <- pool2/3x3_s2_pool2/3x3_s2_0_split_2
I0503 18:47:13.059134  3078 net.cpp:411] inception_3a/5x5_reduce -> inception_3a/5x5_reduce
I0503 18:47:13.059823  3078 net.cpp:150] Setting up inception_3a/5x5_reduce
I0503 18:47:13.059834  3078 net.cpp:157] Top shape: 16 16 28 28 (200704)
I0503 18:47:13.059836  3078 net.cpp:165] Memory required for data: 357253760
I0503 18:47:13.059841  3078 layer_factory.hpp:77] Creating layer inception_3a/relu_5x5_reduce
I0503 18:47:13.059846  3078 net.cpp:106] Creating Layer inception_3a/relu_5x5_reduce
I0503 18:47:13.059849  3078 net.cpp:454] inception_3a/relu_5x5_reduce <- inception_3a/5x5_reduce
I0503 18:47:13.059855  3078 net.cpp:397] inception_3a/relu_5x5_reduce -> inception_3a/5x5_reduce (in-place)
I0503 18:47:13.059973  3078 net.cpp:150] Setting up inception_3a/relu_5x5_reduce
I0503 18:47:13.059979  3078 net.cpp:157] Top shape: 16 16 28 28 (200704)
I0503 18:47:13.059983  3078 net.cpp:165] Memory required for data: 358056576
I0503 18:47:13.059985  3078 layer_factory.hpp:77] Creating layer inception_3a/5x5
I0503 18:47:13.059993  3078 net.cpp:106] Creating Layer inception_3a/5x5
I0503 18:47:13.059996  3078 net.cpp:454] inception_3a/5x5 <- inception_3a/5x5_reduce
I0503 18:47:13.060003  3078 net.cpp:411] inception_3a/5x5 -> inception_3a/5x5
I0503 18:47:13.060818  3078 net.cpp:150] Setting up inception_3a/5x5
I0503 18:47:13.060828  3078 net.cpp:157] Top shape: 16 32 28 28 (401408)
I0503 18:47:13.060832  3078 net.cpp:165] Memory required for data: 359662208
I0503 18:47:13.060837  3078 layer_factory.hpp:77] Creating layer inception_3a/relu_5x5
I0503 18:47:13.060847  3078 net.cpp:106] Creating Layer inception_3a/relu_5x5
I0503 18:47:13.060850  3078 net.cpp:454] inception_3a/relu_5x5 <- inception_3a/5x5
I0503 18:47:13.060854  3078 net.cpp:397] inception_3a/relu_5x5 -> inception_3a/5x5 (in-place)
I0503 18:47:13.061050  3078 net.cpp:150] Setting up inception_3a/relu_5x5
I0503 18:47:13.061059  3078 net.cpp:157] Top shape: 16 32 28 28 (401408)
I0503 18:47:13.061064  3078 net.cpp:165] Memory required for data: 361267840
I0503 18:47:13.061066  3078 layer_factory.hpp:77] Creating layer inception_3a/pool
I0503 18:47:13.061071  3078 net.cpp:106] Creating Layer inception_3a/pool
I0503 18:47:13.061074  3078 net.cpp:454] inception_3a/pool <- pool2/3x3_s2_pool2/3x3_s2_0_split_3
I0503 18:47:13.061079  3078 net.cpp:411] inception_3a/pool -> inception_3a/pool
I0503 18:47:13.061110  3078 net.cpp:150] Setting up inception_3a/pool
I0503 18:47:13.061117  3078 net.cpp:157] Top shape: 16 192 28 28 (2408448)
I0503 18:47:13.061123  3078 net.cpp:165] Memory required for data: 370901632
I0503 18:47:13.061126  3078 layer_factory.hpp:77] Creating layer inception_3a/pool_proj
I0503 18:47:13.061134  3078 net.cpp:106] Creating Layer inception_3a/pool_proj
I0503 18:47:13.061137  3078 net.cpp:454] inception_3a/pool_proj <- inception_3a/pool
I0503 18:47:13.061142  3078 net.cpp:411] inception_3a/pool_proj -> inception_3a/pool_proj
I0503 18:47:13.061827  3078 net.cpp:150] Setting up inception_3a/pool_proj
I0503 18:47:13.061836  3078 net.cpp:157] Top shape: 16 32 28 28 (401408)
I0503 18:47:13.061839  3078 net.cpp:165] Memory required for data: 372507264
I0503 18:47:13.061848  3078 layer_factory.hpp:77] Creating layer inception_3a/relu_pool_proj
I0503 18:47:13.061853  3078 net.cpp:106] Creating Layer inception_3a/relu_pool_proj
I0503 18:47:13.061856  3078 net.cpp:454] inception_3a/relu_pool_proj <- inception_3a/pool_proj
I0503 18:47:13.061861  3078 net.cpp:397] inception_3a/relu_pool_proj -> inception_3a/pool_proj (in-place)
I0503 18:47:13.061978  3078 net.cpp:150] Setting up inception_3a/relu_pool_proj
I0503 18:47:13.061985  3078 net.cpp:157] Top shape: 16 32 28 28 (401408)
I0503 18:47:13.061988  3078 net.cpp:165] Memory required for data: 374112896
I0503 18:47:13.061991  3078 layer_factory.hpp:77] Creating layer inception_3a/output
I0503 18:47:13.061996  3078 net.cpp:106] Creating Layer inception_3a/output
I0503 18:47:13.062000  3078 net.cpp:454] inception_3a/output <- inception_3a/1x1
I0503 18:47:13.062005  3078 net.cpp:454] inception_3a/output <- inception_3a/3x3
I0503 18:47:13.062007  3078 net.cpp:454] inception_3a/output <- inception_3a/5x5
I0503 18:47:13.062011  3078 net.cpp:454] inception_3a/output <- inception_3a/pool_proj
I0503 18:47:13.062014  3078 net.cpp:411] inception_3a/output -> inception_3a/output
I0503 18:47:13.062036  3078 net.cpp:150] Setting up inception_3a/output
I0503 18:47:13.062039  3078 net.cpp:157] Top shape: 16 256 28 28 (3211264)
I0503 18:47:13.062042  3078 net.cpp:165] Memory required for data: 386957952
I0503 18:47:13.062046  3078 layer_factory.hpp:77] Creating layer inception_3a/output_inception_3a/output_0_split
I0503 18:47:13.062049  3078 net.cpp:106] Creating Layer inception_3a/output_inception_3a/output_0_split
I0503 18:47:13.062052  3078 net.cpp:454] inception_3a/output_inception_3a/output_0_split <- inception_3a/output
I0503 18:47:13.062058  3078 net.cpp:411] inception_3a/output_inception_3a/output_0_split -> inception_3a/output_inception_3a/output_0_split_0
I0503 18:47:13.062063  3078 net.cpp:411] inception_3a/output_inception_3a/output_0_split -> inception_3a/output_inception_3a/output_0_split_1
I0503 18:47:13.062068  3078 net.cpp:411] inception_3a/output_inception_3a/output_0_split -> inception_3a/output_inception_3a/output_0_split_2
I0503 18:47:13.062075  3078 net.cpp:411] inception_3a/output_inception_3a/output_0_split -> inception_3a/output_inception_3a/output_0_split_3
I0503 18:47:13.062115  3078 net.cpp:150] Setting up inception_3a/output_inception_3a/output_0_split
I0503 18:47:13.062119  3078 net.cpp:157] Top shape: 16 256 28 28 (3211264)
I0503 18:47:13.062124  3078 net.cpp:157] Top shape: 16 256 28 28 (3211264)
I0503 18:47:13.062126  3078 net.cpp:157] Top shape: 16 256 28 28 (3211264)
I0503 18:47:13.062130  3078 net.cpp:157] Top shape: 16 256 28 28 (3211264)
I0503 18:47:13.062132  3078 net.cpp:165] Memory required for data: 438338176
I0503 18:47:13.062135  3078 layer_factory.hpp:77] Creating layer inception_3b/1x1
I0503 18:47:13.062142  3078 net.cpp:106] Creating Layer inception_3b/1x1
I0503 18:47:13.062145  3078 net.cpp:454] inception_3b/1x1 <- inception_3a/output_inception_3a/output_0_split_0
I0503 18:47:13.062151  3078 net.cpp:411] inception_3b/1x1 -> inception_3b/1x1
I0503 18:47:13.062958  3078 net.cpp:150] Setting up inception_3b/1x1
I0503 18:47:13.062968  3078 net.cpp:157] Top shape: 16 128 28 28 (1605632)
I0503 18:47:13.062971  3078 net.cpp:165] Memory required for data: 444760704
I0503 18:47:13.062979  3078 layer_factory.hpp:77] Creating layer inception_3b/relu_1x1
I0503 18:47:13.062988  3078 net.cpp:106] Creating Layer inception_3b/relu_1x1
I0503 18:47:13.062990  3078 net.cpp:454] inception_3b/relu_1x1 <- inception_3b/1x1
I0503 18:47:13.062995  3078 net.cpp:397] inception_3b/relu_1x1 -> inception_3b/1x1 (in-place)
I0503 18:47:13.063113  3078 net.cpp:150] Setting up inception_3b/relu_1x1
I0503 18:47:13.063120  3078 net.cpp:157] Top shape: 16 128 28 28 (1605632)
I0503 18:47:13.063123  3078 net.cpp:165] Memory required for data: 451183232
I0503 18:47:13.063127  3078 layer_factory.hpp:77] Creating layer inception_3b/3x3_reduce
I0503 18:47:13.063133  3078 net.cpp:106] Creating Layer inception_3b/3x3_reduce
I0503 18:47:13.063136  3078 net.cpp:454] inception_3b/3x3_reduce <- inception_3a/output_inception_3a/output_0_split_1
I0503 18:47:13.063143  3078 net.cpp:411] inception_3b/3x3_reduce -> inception_3b/3x3_reduce
I0503 18:47:13.063951  3078 net.cpp:150] Setting up inception_3b/3x3_reduce
I0503 18:47:13.063959  3078 net.cpp:157] Top shape: 16 128 28 28 (1605632)
I0503 18:47:13.063962  3078 net.cpp:165] Memory required for data: 457605760
I0503 18:47:13.063967  3078 layer_factory.hpp:77] Creating layer inception_3b/relu_3x3_reduce
I0503 18:47:13.063972  3078 net.cpp:106] Creating Layer inception_3b/relu_3x3_reduce
I0503 18:47:13.063976  3078 net.cpp:454] inception_3b/relu_3x3_reduce <- inception_3b/3x3_reduce
I0503 18:47:13.063979  3078 net.cpp:397] inception_3b/relu_3x3_reduce -> inception_3b/3x3_reduce (in-place)
I0503 18:47:13.064172  3078 net.cpp:150] Setting up inception_3b/relu_3x3_reduce
I0503 18:47:13.064182  3078 net.cpp:157] Top shape: 16 128 28 28 (1605632)
I0503 18:47:13.064184  3078 net.cpp:165] Memory required for data: 464028288
I0503 18:47:13.064188  3078 layer_factory.hpp:77] Creating layer inception_3b/3x3
I0503 18:47:13.064198  3078 net.cpp:106] Creating Layer inception_3b/3x3
I0503 18:47:13.064201  3078 net.cpp:454] inception_3b/3x3 <- inception_3b/3x3_reduce
I0503 18:47:13.064206  3078 net.cpp:411] inception_3b/3x3 -> inception_3b/3x3
I0503 18:47:13.066197  3078 net.cpp:150] Setting up inception_3b/3x3
I0503 18:47:13.066208  3078 net.cpp:157] Top shape: 16 192 28 28 (2408448)
I0503 18:47:13.066211  3078 net.cpp:165] Memory required for data: 473662080
I0503 18:47:13.066216  3078 layer_factory.hpp:77] Creating layer inception_3b/relu_3x3
I0503 18:47:13.066221  3078 net.cpp:106] Creating Layer inception_3b/relu_3x3
I0503 18:47:13.066226  3078 net.cpp:454] inception_3b/relu_3x3 <- inception_3b/3x3
I0503 18:47:13.066229  3078 net.cpp:397] inception_3b/relu_3x3 -> inception_3b/3x3 (in-place)
I0503 18:47:13.066349  3078 net.cpp:150] Setting up inception_3b/relu_3x3
I0503 18:47:13.066354  3078 net.cpp:157] Top shape: 16 192 28 28 (2408448)
I0503 18:47:13.066357  3078 net.cpp:165] Memory required for data: 483295872
I0503 18:47:13.066360  3078 layer_factory.hpp:77] Creating layer inception_3b/5x5_reduce
I0503 18:47:13.066367  3078 net.cpp:106] Creating Layer inception_3b/5x5_reduce
I0503 18:47:13.066371  3078 net.cpp:454] inception_3b/5x5_reduce <- inception_3a/output_inception_3a/output_0_split_2
I0503 18:47:13.066378  3078 net.cpp:411] inception_3b/5x5_reduce -> inception_3b/5x5_reduce
I0503 18:47:13.067158  3078 net.cpp:150] Setting up inception_3b/5x5_reduce
I0503 18:47:13.067167  3078 net.cpp:157] Top shape: 16 32 28 28 (401408)
I0503 18:47:13.067170  3078 net.cpp:165] Memory required for data: 484901504
I0503 18:47:13.067176  3078 layer_factory.hpp:77] Creating layer inception_3b/relu_5x5_reduce
I0503 18:47:13.067180  3078 net.cpp:106] Creating Layer inception_3b/relu_5x5_reduce
I0503 18:47:13.067184  3078 net.cpp:454] inception_3b/relu_5x5_reduce <- inception_3b/5x5_reduce
I0503 18:47:13.067189  3078 net.cpp:397] inception_3b/relu_5x5_reduce -> inception_3b/5x5_reduce (in-place)
I0503 18:47:13.067314  3078 net.cpp:150] Setting up inception_3b/relu_5x5_reduce
I0503 18:47:13.067322  3078 net.cpp:157] Top shape: 16 32 28 28 (401408)
I0503 18:47:13.067324  3078 net.cpp:165] Memory required for data: 486507136
I0503 18:47:13.067329  3078 layer_factory.hpp:77] Creating layer inception_3b/5x5
I0503 18:47:13.067342  3078 net.cpp:106] Creating Layer inception_3b/5x5
I0503 18:47:13.067344  3078 net.cpp:454] inception_3b/5x5 <- inception_3b/5x5_reduce
I0503 18:47:13.067349  3078 net.cpp:411] inception_3b/5x5 -> inception_3b/5x5
I0503 18:47:13.068615  3078 net.cpp:150] Setting up inception_3b/5x5
I0503 18:47:13.068625  3078 net.cpp:157] Top shape: 16 96 28 28 (1204224)
I0503 18:47:13.068629  3078 net.cpp:165] Memory required for data: 491324032
I0503 18:47:13.068634  3078 layer_factory.hpp:77] Creating layer inception_3b/relu_5x5
I0503 18:47:13.068639  3078 net.cpp:106] Creating Layer inception_3b/relu_5x5
I0503 18:47:13.068641  3078 net.cpp:454] inception_3b/relu_5x5 <- inception_3b/5x5
I0503 18:47:13.068646  3078 net.cpp:397] inception_3b/relu_5x5 -> inception_3b/5x5 (in-place)
I0503 18:47:13.068856  3078 net.cpp:150] Setting up inception_3b/relu_5x5
I0503 18:47:13.068866  3078 net.cpp:157] Top shape: 16 96 28 28 (1204224)
I0503 18:47:13.068869  3078 net.cpp:165] Memory required for data: 496140928
I0503 18:47:13.068872  3078 layer_factory.hpp:77] Creating layer inception_3b/pool
I0503 18:47:13.068877  3078 net.cpp:106] Creating Layer inception_3b/pool
I0503 18:47:13.068881  3078 net.cpp:454] inception_3b/pool <- inception_3a/output_inception_3a/output_0_split_3
I0503 18:47:13.068886  3078 net.cpp:411] inception_3b/pool -> inception_3b/pool
I0503 18:47:13.068915  3078 net.cpp:150] Setting up inception_3b/pool
I0503 18:47:13.068920  3078 net.cpp:157] Top shape: 16 256 28 28 (3211264)
I0503 18:47:13.068923  3078 net.cpp:165] Memory required for data: 508985984
I0503 18:47:13.068925  3078 layer_factory.hpp:77] Creating layer inception_3b/pool_proj
I0503 18:47:13.068934  3078 net.cpp:106] Creating Layer inception_3b/pool_proj
I0503 18:47:13.068938  3078 net.cpp:454] inception_3b/pool_proj <- inception_3b/pool
I0503 18:47:13.068943  3078 net.cpp:411] inception_3b/pool_proj -> inception_3b/pool_proj
I0503 18:47:13.069741  3078 net.cpp:150] Setting up inception_3b/pool_proj
I0503 18:47:13.069749  3078 net.cpp:157] Top shape: 16 64 28 28 (802816)
I0503 18:47:13.069753  3078 net.cpp:165] Memory required for data: 512197248
I0503 18:47:13.069758  3078 layer_factory.hpp:77] Creating layer inception_3b/relu_pool_proj
I0503 18:47:13.069763  3078 net.cpp:106] Creating Layer inception_3b/relu_pool_proj
I0503 18:47:13.069766  3078 net.cpp:454] inception_3b/relu_pool_proj <- inception_3b/pool_proj
I0503 18:47:13.069772  3078 net.cpp:397] inception_3b/relu_pool_proj -> inception_3b/pool_proj (in-place)
I0503 18:47:13.069890  3078 net.cpp:150] Setting up inception_3b/relu_pool_proj
I0503 18:47:13.069895  3078 net.cpp:157] Top shape: 16 64 28 28 (802816)
I0503 18:47:13.069898  3078 net.cpp:165] Memory required for data: 515408512
I0503 18:47:13.069901  3078 layer_factory.hpp:77] Creating layer inception_3b/output
I0503 18:47:13.069906  3078 net.cpp:106] Creating Layer inception_3b/output
I0503 18:47:13.069911  3078 net.cpp:454] inception_3b/output <- inception_3b/1x1
I0503 18:47:13.069914  3078 net.cpp:454] inception_3b/output <- inception_3b/3x3
I0503 18:47:13.069917  3078 net.cpp:454] inception_3b/output <- inception_3b/5x5
I0503 18:47:13.069921  3078 net.cpp:454] inception_3b/output <- inception_3b/pool_proj
I0503 18:47:13.069924  3078 net.cpp:411] inception_3b/output -> inception_3b/output
I0503 18:47:13.069944  3078 net.cpp:150] Setting up inception_3b/output
I0503 18:47:13.069948  3078 net.cpp:157] Top shape: 16 480 28 28 (6021120)
I0503 18:47:13.069952  3078 net.cpp:165] Memory required for data: 539492992
I0503 18:47:13.069954  3078 layer_factory.hpp:77] Creating layer pool3/3x3_s2
I0503 18:47:13.069959  3078 net.cpp:106] Creating Layer pool3/3x3_s2
I0503 18:47:13.069962  3078 net.cpp:454] pool3/3x3_s2 <- inception_3b/output
I0503 18:47:13.069967  3078 net.cpp:411] pool3/3x3_s2 -> pool3/3x3_s2
I0503 18:47:13.069994  3078 net.cpp:150] Setting up pool3/3x3_s2
I0503 18:47:13.069999  3078 net.cpp:157] Top shape: 16 480 14 14 (1505280)
I0503 18:47:13.070004  3078 net.cpp:165] Memory required for data: 545514112
I0503 18:47:13.070011  3078 layer_factory.hpp:77] Creating layer pool3/3x3_s2_pool3/3x3_s2_0_split
I0503 18:47:13.070016  3078 net.cpp:106] Creating Layer pool3/3x3_s2_pool3/3x3_s2_0_split
I0503 18:47:13.070019  3078 net.cpp:454] pool3/3x3_s2_pool3/3x3_s2_0_split <- pool3/3x3_s2
I0503 18:47:13.070024  3078 net.cpp:411] pool3/3x3_s2_pool3/3x3_s2_0_split -> pool3/3x3_s2_pool3/3x3_s2_0_split_0
I0503 18:47:13.070027  3078 net.cpp:411] pool3/3x3_s2_pool3/3x3_s2_0_split -> pool3/3x3_s2_pool3/3x3_s2_0_split_1
I0503 18:47:13.070032  3078 net.cpp:411] pool3/3x3_s2_pool3/3x3_s2_0_split -> pool3/3x3_s2_pool3/3x3_s2_0_split_2
I0503 18:47:13.070036  3078 net.cpp:411] pool3/3x3_s2_pool3/3x3_s2_0_split -> pool3/3x3_s2_pool3/3x3_s2_0_split_3
I0503 18:47:13.070076  3078 net.cpp:150] Setting up pool3/3x3_s2_pool3/3x3_s2_0_split
I0503 18:47:13.070080  3078 net.cpp:157] Top shape: 16 480 14 14 (1505280)
I0503 18:47:13.070085  3078 net.cpp:157] Top shape: 16 480 14 14 (1505280)
I0503 18:47:13.070087  3078 net.cpp:157] Top shape: 16 480 14 14 (1505280)
I0503 18:47:13.070091  3078 net.cpp:157] Top shape: 16 480 14 14 (1505280)
I0503 18:47:13.070093  3078 net.cpp:165] Memory required for data: 569598592
I0503 18:47:13.070096  3078 layer_factory.hpp:77] Creating layer inception_4a/1x1
I0503 18:47:13.070102  3078 net.cpp:106] Creating Layer inception_4a/1x1
I0503 18:47:13.070106  3078 net.cpp:454] inception_4a/1x1 <- pool3/3x3_s2_pool3/3x3_s2_0_split_0
I0503 18:47:13.070111  3078 net.cpp:411] inception_4a/1x1 -> inception_4a/1x1
I0503 18:47:13.071290  3078 net.cpp:150] Setting up inception_4a/1x1
I0503 18:47:13.071300  3078 net.cpp:157] Top shape: 16 192 14 14 (602112)
I0503 18:47:13.071303  3078 net.cpp:165] Memory required for data: 572007040
I0503 18:47:13.071308  3078 layer_factory.hpp:77] Creating layer inception_4a/relu_1x1
I0503 18:47:13.071313  3078 net.cpp:106] Creating Layer inception_4a/relu_1x1
I0503 18:47:13.071317  3078 net.cpp:454] inception_4a/relu_1x1 <- inception_4a/1x1
I0503 18:47:13.071321  3078 net.cpp:397] inception_4a/relu_1x1 -> inception_4a/1x1 (in-place)
I0503 18:47:13.071442  3078 net.cpp:150] Setting up inception_4a/relu_1x1
I0503 18:47:13.071449  3078 net.cpp:157] Top shape: 16 192 14 14 (602112)
I0503 18:47:13.071452  3078 net.cpp:165] Memory required for data: 574415488
I0503 18:47:13.071455  3078 layer_factory.hpp:77] Creating layer inception_4a/3x3_reduce
I0503 18:47:13.071462  3078 net.cpp:106] Creating Layer inception_4a/3x3_reduce
I0503 18:47:13.071465  3078 net.cpp:454] inception_4a/3x3_reduce <- pool3/3x3_s2_pool3/3x3_s2_0_split_1
I0503 18:47:13.071471  3078 net.cpp:411] inception_4a/3x3_reduce -> inception_4a/3x3_reduce
I0503 18:47:13.072387  3078 net.cpp:150] Setting up inception_4a/3x3_reduce
I0503 18:47:13.072397  3078 net.cpp:157] Top shape: 16 96 14 14 (301056)
I0503 18:47:13.072402  3078 net.cpp:165] Memory required for data: 575619712
I0503 18:47:13.072408  3078 layer_factory.hpp:77] Creating layer inception_4a/relu_3x3_reduce
I0503 18:47:13.072414  3078 net.cpp:106] Creating Layer inception_4a/relu_3x3_reduce
I0503 18:47:13.072418  3078 net.cpp:454] inception_4a/relu_3x3_reduce <- inception_4a/3x3_reduce
I0503 18:47:13.072422  3078 net.cpp:397] inception_4a/relu_3x3_reduce -> inception_4a/3x3_reduce (in-place)
I0503 18:47:13.072618  3078 net.cpp:150] Setting up inception_4a/relu_3x3_reduce
I0503 18:47:13.072625  3078 net.cpp:157] Top shape: 16 96 14 14 (301056)
I0503 18:47:13.072628  3078 net.cpp:165] Memory required for data: 576823936
I0503 18:47:13.072631  3078 layer_factory.hpp:77] Creating layer inception_4a/3x3
I0503 18:47:13.072640  3078 net.cpp:106] Creating Layer inception_4a/3x3
I0503 18:47:13.072644  3078 net.cpp:454] inception_4a/3x3 <- inception_4a/3x3_reduce
I0503 18:47:13.072649  3078 net.cpp:411] inception_4a/3x3 -> inception_4a/3x3
I0503 18:47:13.074465  3078 net.cpp:150] Setting up inception_4a/3x3
I0503 18:47:13.074476  3078 net.cpp:157] Top shape: 16 208 14 14 (652288)
I0503 18:47:13.074478  3078 net.cpp:165] Memory required for data: 579433088
I0503 18:47:13.074489  3078 layer_factory.hpp:77] Creating layer inception_4a/relu_3x3
I0503 18:47:13.074496  3078 net.cpp:106] Creating Layer inception_4a/relu_3x3
I0503 18:47:13.074499  3078 net.cpp:454] inception_4a/relu_3x3 <- inception_4a/3x3
I0503 18:47:13.074504  3078 net.cpp:397] inception_4a/relu_3x3 -> inception_4a/3x3 (in-place)
I0503 18:47:13.074626  3078 net.cpp:150] Setting up inception_4a/relu_3x3
I0503 18:47:13.074633  3078 net.cpp:157] Top shape: 16 208 14 14 (652288)
I0503 18:47:13.074636  3078 net.cpp:165] Memory required for data: 582042240
I0503 18:47:13.074640  3078 layer_factory.hpp:77] Creating layer inception_4a/5x5_reduce
I0503 18:47:13.074647  3078 net.cpp:106] Creating Layer inception_4a/5x5_reduce
I0503 18:47:13.074651  3078 net.cpp:454] inception_4a/5x5_reduce <- pool3/3x3_s2_pool3/3x3_s2_0_split_2
I0503 18:47:13.074656  3078 net.cpp:411] inception_4a/5x5_reduce -> inception_4a/5x5_reduce
I0503 18:47:13.075419  3078 net.cpp:150] Setting up inception_4a/5x5_reduce
I0503 18:47:13.075428  3078 net.cpp:157] Top shape: 16 16 14 14 (50176)
I0503 18:47:13.075431  3078 net.cpp:165] Memory required for data: 582242944
I0503 18:47:13.075436  3078 layer_factory.hpp:77] Creating layer inception_4a/relu_5x5_reduce
I0503 18:47:13.075443  3078 net.cpp:106] Creating Layer inception_4a/relu_5x5_reduce
I0503 18:47:13.075445  3078 net.cpp:454] inception_4a/relu_5x5_reduce <- inception_4a/5x5_reduce
I0503 18:47:13.075451  3078 net.cpp:397] inception_4a/relu_5x5_reduce -> inception_4a/5x5_reduce (in-place)
I0503 18:47:13.075568  3078 net.cpp:150] Setting up inception_4a/relu_5x5_reduce
I0503 18:47:13.075575  3078 net.cpp:157] Top shape: 16 16 14 14 (50176)
I0503 18:47:13.075577  3078 net.cpp:165] Memory required for data: 582443648
I0503 18:47:13.075580  3078 layer_factory.hpp:77] Creating layer inception_4a/5x5
I0503 18:47:13.075588  3078 net.cpp:106] Creating Layer inception_4a/5x5
I0503 18:47:13.075592  3078 net.cpp:454] inception_4a/5x5 <- inception_4a/5x5_reduce
I0503 18:47:13.075598  3078 net.cpp:411] inception_4a/5x5 -> inception_4a/5x5
I0503 18:47:13.076388  3078 net.cpp:150] Setting up inception_4a/5x5
I0503 18:47:13.076397  3078 net.cpp:157] Top shape: 16 48 14 14 (150528)
I0503 18:47:13.076400  3078 net.cpp:165] Memory required for data: 583045760
I0503 18:47:13.076406  3078 layer_factory.hpp:77] Creating layer inception_4a/relu_5x5
I0503 18:47:13.076411  3078 net.cpp:106] Creating Layer inception_4a/relu_5x5
I0503 18:47:13.076414  3078 net.cpp:454] inception_4a/relu_5x5 <- inception_4a/5x5
I0503 18:47:13.076419  3078 net.cpp:397] inception_4a/relu_5x5 -> inception_4a/5x5 (in-place)
I0503 18:47:13.076617  3078 net.cpp:150] Setting up inception_4a/relu_5x5
I0503 18:47:13.076624  3078 net.cpp:157] Top shape: 16 48 14 14 (150528)
I0503 18:47:13.076627  3078 net.cpp:165] Memory required for data: 583647872
I0503 18:47:13.076630  3078 layer_factory.hpp:77] Creating layer inception_4a/pool
I0503 18:47:13.076635  3078 net.cpp:106] Creating Layer inception_4a/pool
I0503 18:47:13.076639  3078 net.cpp:454] inception_4a/pool <- pool3/3x3_s2_pool3/3x3_s2_0_split_3
I0503 18:47:13.076644  3078 net.cpp:411] inception_4a/pool -> inception_4a/pool
I0503 18:47:13.076676  3078 net.cpp:150] Setting up inception_4a/pool
I0503 18:47:13.076683  3078 net.cpp:157] Top shape: 16 480 14 14 (1505280)
I0503 18:47:13.076685  3078 net.cpp:165] Memory required for data: 589668992
I0503 18:47:13.076689  3078 layer_factory.hpp:77] Creating layer inception_4a/pool_proj
I0503 18:47:13.076694  3078 net.cpp:106] Creating Layer inception_4a/pool_proj
I0503 18:47:13.076697  3078 net.cpp:454] inception_4a/pool_proj <- inception_4a/pool
I0503 18:47:13.076704  3078 net.cpp:411] inception_4a/pool_proj -> inception_4a/pool_proj
I0503 18:47:13.077638  3078 net.cpp:150] Setting up inception_4a/pool_proj
I0503 18:47:13.077648  3078 net.cpp:157] Top shape: 16 64 14 14 (200704)
I0503 18:47:13.077651  3078 net.cpp:165] Memory required for data: 590471808
I0503 18:47:13.077656  3078 layer_factory.hpp:77] Creating layer inception_4a/relu_pool_proj
I0503 18:47:13.077664  3078 net.cpp:106] Creating Layer inception_4a/relu_pool_proj
I0503 18:47:13.077672  3078 net.cpp:454] inception_4a/relu_pool_proj <- inception_4a/pool_proj
I0503 18:47:13.077677  3078 net.cpp:397] inception_4a/relu_pool_proj -> inception_4a/pool_proj (in-place)
I0503 18:47:13.077797  3078 net.cpp:150] Setting up inception_4a/relu_pool_proj
I0503 18:47:13.077805  3078 net.cpp:157] Top shape: 16 64 14 14 (200704)
I0503 18:47:13.077807  3078 net.cpp:165] Memory required for data: 591274624
I0503 18:47:13.077811  3078 layer_factory.hpp:77] Creating layer inception_4a/output
I0503 18:47:13.077816  3078 net.cpp:106] Creating Layer inception_4a/output
I0503 18:47:13.077818  3078 net.cpp:454] inception_4a/output <- inception_4a/1x1
I0503 18:47:13.077822  3078 net.cpp:454] inception_4a/output <- inception_4a/3x3
I0503 18:47:13.077826  3078 net.cpp:454] inception_4a/output <- inception_4a/5x5
I0503 18:47:13.077829  3078 net.cpp:454] inception_4a/output <- inception_4a/pool_proj
I0503 18:47:13.077833  3078 net.cpp:411] inception_4a/output -> inception_4a/output
I0503 18:47:13.077854  3078 net.cpp:150] Setting up inception_4a/output
I0503 18:47:13.077858  3078 net.cpp:157] Top shape: 16 512 14 14 (1605632)
I0503 18:47:13.077862  3078 net.cpp:165] Memory required for data: 597697152
I0503 18:47:13.077864  3078 layer_factory.hpp:77] Creating layer inception_4a/output_inception_4a/output_0_split
I0503 18:47:13.077869  3078 net.cpp:106] Creating Layer inception_4a/output_inception_4a/output_0_split
I0503 18:47:13.077872  3078 net.cpp:454] inception_4a/output_inception_4a/output_0_split <- inception_4a/output
I0503 18:47:13.077877  3078 net.cpp:411] inception_4a/output_inception_4a/output_0_split -> inception_4a/output_inception_4a/output_0_split_0
I0503 18:47:13.077883  3078 net.cpp:411] inception_4a/output_inception_4a/output_0_split -> inception_4a/output_inception_4a/output_0_split_1
I0503 18:47:13.077888  3078 net.cpp:411] inception_4a/output_inception_4a/output_0_split -> inception_4a/output_inception_4a/output_0_split_2
I0503 18:47:13.077893  3078 net.cpp:411] inception_4a/output_inception_4a/output_0_split -> inception_4a/output_inception_4a/output_0_split_3
I0503 18:47:13.077898  3078 net.cpp:411] inception_4a/output_inception_4a/output_0_split -> inception_4a/output_inception_4a/output_0_split_4
I0503 18:47:13.077949  3078 net.cpp:150] Setting up inception_4a/output_inception_4a/output_0_split
I0503 18:47:13.077952  3078 net.cpp:157] Top shape: 16 512 14 14 (1605632)
I0503 18:47:13.077955  3078 net.cpp:157] Top shape: 16 512 14 14 (1605632)
I0503 18:47:13.077960  3078 net.cpp:157] Top shape: 16 512 14 14 (1605632)
I0503 18:47:13.077962  3078 net.cpp:157] Top shape: 16 512 14 14 (1605632)
I0503 18:47:13.077965  3078 net.cpp:157] Top shape: 16 512 14 14 (1605632)
I0503 18:47:13.077967  3078 net.cpp:165] Memory required for data: 629809792
I0503 18:47:13.077970  3078 layer_factory.hpp:77] Creating layer loss1/ave_pool
I0503 18:47:13.077975  3078 net.cpp:106] Creating Layer loss1/ave_pool
I0503 18:47:13.077977  3078 net.cpp:454] loss1/ave_pool <- inception_4a/output_inception_4a/output_0_split_0
I0503 18:47:13.077982  3078 net.cpp:411] loss1/ave_pool -> loss1/ave_pool
I0503 18:47:13.078198  3078 net.cpp:150] Setting up loss1/ave_pool
I0503 18:47:13.078207  3078 net.cpp:157] Top shape: 16 512 4 4 (131072)
I0503 18:47:13.078209  3078 net.cpp:165] Memory required for data: 630334080
I0503 18:47:13.078212  3078 layer_factory.hpp:77] Creating layer loss1/conv
I0503 18:47:13.078220  3078 net.cpp:106] Creating Layer loss1/conv
I0503 18:47:13.078223  3078 net.cpp:454] loss1/conv <- loss1/ave_pool
I0503 18:47:13.078229  3078 net.cpp:411] loss1/conv -> loss1/conv
I0503 18:47:13.079188  3078 net.cpp:150] Setting up loss1/conv
I0503 18:47:13.079197  3078 net.cpp:157] Top shape: 16 128 4 4 (32768)
I0503 18:47:13.079200  3078 net.cpp:165] Memory required for data: 630465152
I0503 18:47:13.079205  3078 layer_factory.hpp:77] Creating layer loss1/relu_conv
I0503 18:47:13.079210  3078 net.cpp:106] Creating Layer loss1/relu_conv
I0503 18:47:13.079218  3078 net.cpp:454] loss1/relu_conv <- loss1/conv
I0503 18:47:13.079224  3078 net.cpp:397] loss1/relu_conv -> loss1/conv (in-place)
I0503 18:47:13.079421  3078 net.cpp:150] Setting up loss1/relu_conv
I0503 18:47:13.079428  3078 net.cpp:157] Top shape: 16 128 4 4 (32768)
I0503 18:47:13.079432  3078 net.cpp:165] Memory required for data: 630596224
I0503 18:47:13.079434  3078 layer_factory.hpp:77] Creating layer loss1/fc
I0503 18:47:13.079442  3078 net.cpp:106] Creating Layer loss1/fc
I0503 18:47:13.079444  3078 net.cpp:454] loss1/fc <- loss1/conv
I0503 18:47:13.079449  3078 net.cpp:411] loss1/fc -> loss1/fc
I0503 18:47:13.091624  3078 net.cpp:150] Setting up loss1/fc
I0503 18:47:13.091647  3078 net.cpp:157] Top shape: 16 1024 (16384)
I0503 18:47:13.091651  3078 net.cpp:165] Memory required for data: 630661760
I0503 18:47:13.091660  3078 layer_factory.hpp:77] Creating layer loss1/relu_fc
I0503 18:47:13.091667  3078 net.cpp:106] Creating Layer loss1/relu_fc
I0503 18:47:13.091672  3078 net.cpp:454] loss1/relu_fc <- loss1/fc
I0503 18:47:13.091677  3078 net.cpp:397] loss1/relu_fc -> loss1/fc (in-place)
I0503 18:47:13.091855  3078 net.cpp:150] Setting up loss1/relu_fc
I0503 18:47:13.091861  3078 net.cpp:157] Top shape: 16 1024 (16384)
I0503 18:47:13.091864  3078 net.cpp:165] Memory required for data: 630727296
I0503 18:47:13.091867  3078 layer_factory.hpp:77] Creating layer loss1/drop_fc
I0503 18:47:13.091879  3078 net.cpp:106] Creating Layer loss1/drop_fc
I0503 18:47:13.091883  3078 net.cpp:454] loss1/drop_fc <- loss1/fc
I0503 18:47:13.091888  3078 net.cpp:397] loss1/drop_fc -> loss1/fc (in-place)
I0503 18:47:13.091912  3078 net.cpp:150] Setting up loss1/drop_fc
I0503 18:47:13.091917  3078 net.cpp:157] Top shape: 16 1024 (16384)
I0503 18:47:13.091919  3078 net.cpp:165] Memory required for data: 630792832
I0503 18:47:13.091922  3078 layer_factory.hpp:77] Creating layer loss1/classifier
I0503 18:47:13.091930  3078 net.cpp:106] Creating Layer loss1/classifier
I0503 18:47:13.091933  3078 net.cpp:454] loss1/classifier <- loss1/fc
I0503 18:47:13.091938  3078 net.cpp:411] loss1/classifier -> loss1/classifier
I0503 18:47:13.097724  3078 net.cpp:150] Setting up loss1/classifier
I0503 18:47:13.097733  3078 net.cpp:157] Top shape: 16 1000 (16000)
I0503 18:47:13.097736  3078 net.cpp:165] Memory required for data: 630856832
I0503 18:47:13.097741  3078 layer_factory.hpp:77] Creating layer loss1/classifier_loss1/classifier_0_split
I0503 18:47:13.097746  3078 net.cpp:106] Creating Layer loss1/classifier_loss1/classifier_0_split
I0503 18:47:13.097750  3078 net.cpp:454] loss1/classifier_loss1/classifier_0_split <- loss1/classifier
I0503 18:47:13.097754  3078 net.cpp:411] loss1/classifier_loss1/classifier_0_split -> loss1/classifier_loss1/classifier_0_split_0
I0503 18:47:13.097766  3078 net.cpp:411] loss1/classifier_loss1/classifier_0_split -> loss1/classifier_loss1/classifier_0_split_1
I0503 18:47:13.097772  3078 net.cpp:411] loss1/classifier_loss1/classifier_0_split -> loss1/classifier_loss1/classifier_0_split_2
I0503 18:47:13.097807  3078 net.cpp:150] Setting up loss1/classifier_loss1/classifier_0_split
I0503 18:47:13.097813  3078 net.cpp:157] Top shape: 16 1000 (16000)
I0503 18:47:13.097816  3078 net.cpp:157] Top shape: 16 1000 (16000)
I0503 18:47:13.097820  3078 net.cpp:157] Top shape: 16 1000 (16000)
I0503 18:47:13.097822  3078 net.cpp:165] Memory required for data: 631048832
I0503 18:47:13.097825  3078 layer_factory.hpp:77] Creating layer loss1/loss
I0503 18:47:13.097829  3078 net.cpp:106] Creating Layer loss1/loss
I0503 18:47:13.097832  3078 net.cpp:454] loss1/loss <- loss1/classifier_loss1/classifier_0_split_0
I0503 18:47:13.097837  3078 net.cpp:454] loss1/loss <- label_data_1_split_0
…
I0503 18:47:13.098260  3078 net.cpp:150] Setting up loss1/top-5
I0503 18:47:13.098264  3078 net.cpp:157] Top shape: (1)
I0503 18:47:13.098266  3078 net.cpp:165] Memory required for data: 631048844
I0503 18:47:13.098269  3078 layer_factory.hpp:77] Creating layer inception_4b/1x1
I0503 18:47:13.098278  3078 net.cpp:106] Creating Layer inception_4b/1x1
I0503 18:47:13.098281  3078 net.cpp:454] inception_4b/1x1 <- inception_4a/output_inception_4a/output_0_split_1
I0503 18:47:13.098286  3078 net.cpp:411] inception_4b/1x1 -> inception_4b/1x1
I0503 18:47:13.099436  3078 net.cpp:150] Setting up inception_4b/1x1
I0503 18:47:13.099444  3078 net.cpp:157] Top shape: 16 160 14 14 (501760)
I0503 18:47:13.099448  3078 net.cpp:165] Memory required for data: 633055884
I0503 18:47:13.099453  3078 layer_factory.hpp:77] Creating layer inception_4b/relu_1x1
I0503 18:47:13.099458  3078 net.cpp:106] Creating Layer inception_4b/relu_1x1
I0503 18:47:13.099462  3078 net.cpp:454] inception_4b/relu_1x1 <- inception_4b/1x1
I0503 18:47:13.099467  3078 net.cpp:397] inception_4b/relu_1x1 -> inception_4b/1x1 (in-place)
I0503 18:47:13.099586  3078 net.cpp:150] Setting up inception_4b/relu_1x1
I0503 18:47:13.099592  3078 net.cpp:157] Top shape: 16 160 14 14 (501760)
I0503 18:47:13.099596  3078 net.cpp:165] Memory required for data: 635062924
I0503 18:47:13.099598  3078 layer_factory.hpp:77] Creating layer inception_4b/3x3_reduce
I0503 18:47:13.099607  3078 net.cpp:106] Creating Layer inception_4b/3x3_reduce
I0503 18:47:13.099611  3078 net.cpp:454] inception_4b/3x3_reduce <- inception_4a/output_inception_4a/output_0_split_2
I0503 18:47:13.099617  3078 net.cpp:411] inception_4b/3x3_reduce -> inception_4b/3x3_reduce
I0503 18:47:13.100836  3078 net.cpp:150] Setting up inception_4b/3x3_reduce
I0503 18:47:13.100850  3078 net.cpp:157] Top shape: 16 112 14 14 (351232)
I0503 18:47:13.100853  3078 net.cpp:165] Memory required for data: 636467852
I0503 18:47:13.100858  3078 layer_factory.hpp:77] Creating layer inception_4b/relu_3x3_reduce
I0503 18:47:13.100863  3078 net.cpp:106] Creating Layer inception_4b/relu_3x3_reduce
I0503 18:47:13.100867  3078 net.cpp:454] inception_4b/relu_3x3_reduce <- inception_4b/3x3_reduce
I0503 18:47:13.100872  3078 net.cpp:397] inception_4b/relu_3x3_reduce -> inception_4b/3x3_reduce (in-place)
I0503 18:47:13.101073  3078 net.cpp:150] Setting up inception_4b/relu_3x3_reduce
I0503 18:47:13.101080  3078 net.cpp:157] Top shape: 16 112 14 14 (351232)
I0503 18:47:13.101083  3078 net.cpp:165] Memory required for data: 637872780
I0503 18:47:13.101086  3078 layer_factory.hpp:77] Creating layer inception_4b/3x3
I0503 18:47:13.101094  3078 net.cpp:106] Creating Layer inception_4b/3x3
I0503 18:47:13.101099  3078 net.cpp:454] inception_4b/3x3 <- inception_4b/3x3_reduce
I0503 18:47:13.101104  3078 net.cpp:411] inception_4b/3x3 -> inception_4b/3x3
I0503 18:47:13.103039  3078 net.cpp:150] Setting up inception_4b/3x3
I0503 18:47:13.103049  3078 net.cpp:157] Top shape: 16 224 14 14 (702464)
I0503 18:47:13.103055  3078 net.cpp:165] Memory required for data: 640682636
I0503 18:47:13.103065  3078 layer_factory.hpp:77] Creating layer inception_4b/relu_3x3
I0503 18:47:13.103070  3078 net.cpp:106] Creating Layer inception_4b/relu_3x3
I0503 18:47:13.103075  3078 net.cpp:454] inception_4b/relu_3x3 <- inception_4b/3x3
I0503 18:47:13.103080  3078 net.cpp:397] inception_4b/relu_3x3 -> inception_4b/3x3 (in-place)
I0503 18:47:13.103281  3078 net.cpp:150] Setting up inception_4b/relu_3x3
I0503 18:47:13.103288  3078 net.cpp:157] Top shape: 16 224 14 14 (702464)
I0503 18:47:13.103291  3078 net.cpp:165] Memory required for data: 643492492
I0503 18:47:13.103294  3078 layer_factory.hpp:77] Creating layer inception_4b/5x5_reduce
I0503 18:47:13.103302  3078 net.cpp:106] Creating Layer inception_4b/5x5_reduce
I0503 18:47:13.103305  3078 net.cpp:454] inception_4b/5x5_reduce <- inception_4a/output_inception_4a/output_0_split_3
I0503 18:47:13.103312  3078 net.cpp:411] inception_4b/5x5_reduce -> inception_4b/5x5_reduce
I0503 18:47:13.104089  3078 net.cpp:150] Setting up inception_4b/5x5_reduce
I0503 18:47:13.104097  3078 net.cpp:157] Top shape: 16 24 14 14 (75264)
I0503 18:47:13.104100  3078 net.cpp:165] Memory required for data: 643793548
I0503 18:47:13.104105  3078 layer_factory.hpp:77] Creating layer inception_4b/relu_5x5_reduce
I0503 18:47:13.104110  3078 net.cpp:106] Creating Layer inception_4b/relu_5x5_reduce
I0503 18:47:13.104113  3078 net.cpp:454] inception_4b/relu_5x5_reduce <- inception_4b/5x5_reduce
I0503 18:47:13.104120  3078 net.cpp:397] inception_4b/relu_5x5_reduce -> inception_4b/5x5_reduce (in-place)
I0503 18:47:13.104240  3078 net.cpp:150] Setting up inception_4b/relu_5x5_reduce
I0503 18:47:13.104249  3078 net.cpp:157] Top shape: 16 24 14 14 (75264)
I0503 18:47:13.104251  3078 net.cpp:165] Memory required for data: 644094604
I0503 18:47:13.104254  3078 layer_factory.hpp:77] Creating layer inception_4b/5x5
I0503 18:47:13.104261  3078 net.cpp:106] Creating Layer inception_4b/5x5
I0503 18:47:13.104264  3078 net.cpp:454] inception_4b/5x5 <- inception_4b/5x5_reduce
I0503 18:47:13.104269  3078 net.cpp:411] inception_4b/5x5 -> inception_4b/5x5
I0503 18:47:13.105180  3078 net.cpp:150] Setting up inception_4b/5x5
I0503 18:47:13.105190  3078 net.cpp:157] Top shape: 16 64 14 14 (200704)
I0503 18:47:13.105193  3078 net.cpp:165] Memory required for data: 644897420
I0503 18:47:13.105198  3078 layer_factory.hpp:77] Creating layer inception_4b/relu_5x5
I0503 18:47:13.105203  3078 net.cpp:106] Creating Layer inception_4b/relu_5x5
I0503 18:47:13.105207  3078 net.cpp:454] inception_4b/relu_5x5 <- inception_4b/5x5
I0503 18:47:13.105211  3078 net.cpp:397] inception_4b/relu_5x5 -> inception_4b/5x5 (in-place)
I0503 18:47:13.105412  3078 net.cpp:150] Setting up inception_4b/relu_5x5
I0503 18:47:13.105420  3078 net.cpp:157] Top shape: 16 64 14 14 (200704)
I0503 18:47:13.105423  3078 net.cpp:165] Memory required for data: 645700236
I0503 18:47:13.105427  3078 layer_factory.hpp:77] Creating layer inception_4b/pool
I0503 18:47:13.105432  3078 net.cpp:106] Creating Layer inception_4b/pool
I0503 18:47:13.105435  3078 net.cpp:454] inception_4b/pool <- inception_4a/output_inception_4a/output_0_split_4
I0503 18:47:13.105442  3078 net.cpp:411] inception_4b/pool -> inception_4b/pool
I0503 18:47:13.105489  3078 net.cpp:150] Setting up inception_4b/pool
I0503 18:47:13.105504  3078 net.cpp:157] Top shape: 16 512 14 14 (1605632)
I0503 18:47:13.105506  3078 net.cpp:165] Memory required for data: 652122764
I0503 18:47:13.105509  3078 layer_factory.hpp:77] Creating layer inception_4b/pool_proj
I0503 18:47:13.105515  3078 net.cpp:106] Creating Layer inception_4b/pool_proj
I0503 18:47:13.105518  3078 net.cpp:454] inception_4b/pool_proj <- inception_4b/pool
I0503 18:47:13.105525  3078 net.cpp:411] inception_4b/pool_proj -> inception_4b/pool_proj
I0503 18:47:13.106431  3078 net.cpp:150] Setting up inception_4b/pool_proj
I0503 18:47:13.106441  3078 net.cpp:157] Top shape: 16 64 14 14 (200704)
I0503 18:47:13.106443  3078 net.cpp:165] Memory required for data: 652925580
I0503 18:47:13.106451  3078 layer_factory.hpp:77] Creating layer inception_4b/relu_pool_proj
I0503 18:47:13.106459  3078 net.cpp:106] Creating Layer inception_4b/relu_pool_proj
I0503 18:47:13.106463  3078 net.cpp:454] inception_4b/relu_pool_proj <- inception_4b/pool_proj
I0503 18:47:13.106467  3078 net.cpp:397] inception_4b/relu_pool_proj -> inception_4b/pool_proj (in-place)
I0503 18:47:13.106698  3078 net.cpp:150] Setting up inception_4b/relu_pool_proj
I0503 18:47:13.106705  3078 net.cpp:157] Top shape: 16 64 14 14 (200704)
I0503 18:47:13.106709  3078 net.cpp:165] Memory required for data: 653728396
I0503 18:47:13.106712  3078 layer_factory.hpp:77] Creating layer inception_4b/output
I0503 18:47:13.106717  3078 net.cpp:106] Creating Layer inception_4b/output
I0503 18:47:13.106720  3078 net.cpp:454] inception_4b/output <- inception_4b/1x1
I0503 18:47:13.106725  3078 net.cpp:454] inception_4b/output <- inception_4b/3x3
I0503 18:47:13.106729  3078 net.cpp:454] inception_4b/output <- inception_4b/5x5
I0503 18:47:13.106732  3078 net.cpp:454] inception_4b/output <- inception_4b/pool_proj
I0503 18:47:13.106736  3078 net.cpp:411] inception_4b/output -> inception_4b/output
I0503 18:47:13.106760  3078 net.cpp:150] Setting up inception_4b/output
I0503 18:47:13.106765  3078 net.cpp:157] Top shape: 16 512 14 14 (1605632)
I0503 18:47:13.106768  3078 net.cpp:165] Memory required for data: 660150924
I0503 18:47:13.106770  3078 layer_factory.hpp:77] Creating layer inception_4b/output_inception_4b/output_0_split
I0503 18:47:13.106775  3078 net.cpp:106] Creating Layer inception_4b/output_inception_4b/output_0_split
I0503 18:47:13.106778  3078 net.cpp:454] inception_4b/output_inception_4b/output_0_split <- inception_4b/output
I0503 18:47:13.106783  3078 net.cpp:411] inception_4b/output_inception_4b/output_0_split -> inception_4b/output_inception_4b/output_0_split_0
I0503 18:47:13.106788  3078 net.cpp:411] inception_4b/output_inception_4b/output_0_split -> inception_4b/output_inception_4b/output_0_split_1
I0503 18:47:13.106793  3078 net.cpp:411] inception_4b/output_inception_4b/output_0_split -> inception_4b/output_inception_4b/output_0_split_2
I0503 18:47:13.106798  3078 net.cpp:411] inception_4b/output_inception_4b/output_0_split -> inception_4b/output_inception_4b/output_0_split_3
I0503 18:47:13.106843  3078 net.cpp:150] Setting up inception_4b/output_inception_4b/output_0_split
I0503 18:47:13.106848  3078 net.cpp:157] Top shape: 16 512 14 14 (1605632)
I0503 18:47:13.106851  3078 net.cpp:157] Top shape: 16 512 14 14 (1605632)
I0503 18:47:13.106854  3078 net.cpp:157] Top shape: 16 512 14 14 (1605632)
I0503 18:47:13.106858  3078 net.cpp:157] Top shape: 16 512 14 14 (1605632)
I0503 18:47:13.106869  3078 net.cpp:165] Memory required for data: 685841036
I0503 18:47:13.106873  3078 layer_factory.hpp:77] Creating layer inception_4c/1x1
I0503 18:47:13.106878  3078 net.cpp:106] Creating Layer inception_4c/1x1
I0503 18:47:13.106881  3078 net.cpp:454] inception_4c/1x1 <- inception_4b/output_inception_4b/output_0_split_0
I0503 18:47:13.106886  3078 net.cpp:411] inception_4c/1x1 -> inception_4c/1x1
I0503 18:47:13.107914  3078 net.cpp:150] Setting up inception_4c/1x1
I0503 18:47:13.107923  3078 net.cpp:157] Top shape: 16 128 14 14 (401408)
I0503 18:47:13.107926  3078 net.cpp:165] Memory required for data: 687446668
I0503 18:47:13.107931  3078 layer_factory.hpp:77] Creating layer inception_4c/relu_1x1
I0503 18:47:13.107936  3078 net.cpp:106] Creating Layer inception_4c/relu_1x1
I0503 18:47:13.107940  3078 net.cpp:454] inception_4c/relu_1x1 <- inception_4c/1x1
I0503 18:47:13.107944  3078 net.cpp:397] inception_4c/relu_1x1 -> inception_4c/1x1 (in-place)
I0503 18:47:13.108065  3078 net.cpp:150] Setting up inception_4c/relu_1x1
I0503 18:47:13.108072  3078 net.cpp:157] Top shape: 16 128 14 14 (401408)
I0503 18:47:13.108075  3078 net.cpp:165] Memory required for data: 689052300
I0503 18:47:13.108078  3078 layer_factory.hpp:77] Creating layer inception_4c/3x3_reduce
I0503 18:47:13.108085  3078 net.cpp:106] Creating Layer inception_4c/3x3_reduce
I0503 18:47:13.108091  3078 net.cpp:454] inception_4c/3x3_reduce <- inception_4b/output_inception_4b/output_0_split_1
I0503 18:47:13.108100  3078 net.cpp:411] inception_4c/3x3_reduce -> inception_4c/3x3_reduce
I0503 18:47:13.109141  3078 net.cpp:150] Setting up inception_4c/3x3_reduce
I0503 18:47:13.109151  3078 net.cpp:157] Top shape: 16 128 14 14 (401408)
I0503 18:47:13.109154  3078 net.cpp:165] Memory required for data: 690657932
I0503 18:47:13.109159  3078 layer_factory.hpp:77] Creating layer inception_4c/relu_3x3_reduce
I0503 18:47:13.109165  3078 net.cpp:106] Creating Layer inception_4c/relu_3x3_reduce
I0503 18:47:13.109169  3078 net.cpp:454] inception_4c/relu_3x3_reduce <- inception_4c/3x3_reduce
I0503 18:47:13.109174  3078 net.cpp:397] inception_4c/relu_3x3_reduce -> inception_4c/3x3_reduce (in-place)
I0503 18:47:13.109371  3078 net.cpp:150] Setting up inception_4c/relu_3x3_reduce
I0503 18:47:13.109380  3078 net.cpp:157] Top shape: 16 128 14 14 (401408)
I0503 18:47:13.109382  3078 net.cpp:165] Memory required for data: 692263564
I0503 18:47:13.109385  3078 layer_factory.hpp:77] Creating layer inception_4c/3x3
I0503 18:47:13.109395  3078 net.cpp:106] Creating Layer inception_4c/3x3
I0503 18:47:13.109398  3078 net.cpp:454] inception_4c/3x3 <- inception_4c/3x3_reduce
I0503 18:47:13.109403  3078 net.cpp:411] inception_4c/3x3 -> inception_4c/3x3
I0503 18:47:13.111685  3078 net.cpp:150] Setting up inception_4c/3x3
I0503 18:47:13.111696  3078 net.cpp:157] Top shape: 16 256 14 14 (802816)
I0503 18:47:13.111698  3078 net.cpp:165] Memory required for data: 695474828
I0503 18:47:13.111712  3078 layer_factory.hpp:77] Creating layer inception_4c/relu_3x3
I0503 18:47:13.111718  3078 net.cpp:106] Creating Layer inception_4c/relu_3x3
I0503 18:47:13.111721  3078 net.cpp:454] inception_4c/relu_3x3 <- inception_4c/3x3
I0503 18:47:13.111726  3078 net.cpp:397] inception_4c/relu_3x3 -> inception_4c/3x3 (in-place)
I0503 18:47:13.111927  3078 net.cpp:150] Setting up inception_4c/relu_3x3
I0503 18:47:13.111935  3078 net.cpp:157] Top shape: 16 256 14 14 (802816)
I0503 18:47:13.111938  3078 net.cpp:165] Memory required for data: 698686092
I0503 18:47:13.111942  3078 layer_factory.hpp:77] Creating layer inception_4c/5x5_reduce
I0503 18:47:13.111949  3078 net.cpp:106] Creating Layer inception_4c/5x5_reduce
I0503 18:47:13.111953  3078 net.cpp:454] inception_4c/5x5_reduce <- inception_4b/output_inception_4b/output_0_split_2
I0503 18:47:13.111959  3078 net.cpp:411] inception_4c/5x5_reduce -> inception_4c/5x5_reduce
I0503 18:47:13.112746  3078 net.cpp:150] Setting up inception_4c/5x5_reduce
I0503 18:47:13.112756  3078 net.cpp:157] Top shape: 16 24 14 14 (75264)
I0503 18:47:13.112758  3078 net.cpp:165] Memory required for data: 698987148
I0503 18:47:13.112763  3078 layer_factory.hpp:77] Creating layer inception_4c/relu_5x5_reduce
I0503 18:47:13.112768  3078 net.cpp:106] Creating Layer inception_4c/relu_5x5_reduce
I0503 18:47:13.112772  3078 net.cpp:454] inception_4c/relu_5x5_reduce <- inception_4c/5x5_reduce
I0503 18:47:13.112777  3078 net.cpp:397] inception_4c/relu_5x5_reduce -> inception_4c/5x5_reduce (in-place)
I0503 18:47:13.112901  3078 net.cpp:150] Setting up inception_4c/relu_5x5_reduce
I0503 18:47:13.112910  3078 net.cpp:157] Top shape: 16 24 14 14 (75264)
I0503 18:47:13.112912  3078 net.cpp:165] Memory required for data: 699288204
I0503 18:47:13.112915  3078 layer_factory.hpp:77] Creating layer inception_4c/5x5
I0503 18:47:13.112923  3078 net.cpp:106] Creating Layer inception_4c/5x5
I0503 18:47:13.112926  3078 net.cpp:454] inception_4c/5x5 <- inception_4c/5x5_reduce
I0503 18:47:13.112931  3078 net.cpp:411] inception_4c/5x5 -> inception_4c/5x5
I0503 18:47:13.114076  3078 net.cpp:150] Setting up inception_4c/5x5
I0503 18:47:13.114085  3078 net.cpp:157] Top shape: 16 64 14 14 (200704)
I0503 18:47:13.114089  3078 net.cpp:165] Memory required for data: 700091020
I0503 18:47:13.114094  3078 layer_factory.hpp:77] Creating layer inception_4c/relu_5x5
I0503 18:47:13.114099  3078 net.cpp:106] Creating Layer inception_4c/relu_5x5
I0503 18:47:13.114105  3078 net.cpp:454] inception_4c/relu_5x5 <- inception_4c/5x5
I0503 18:47:13.114114  3078 net.cpp:397] inception_4c/relu_5x5 -> inception_4c/5x5 (in-place)
I0503 18:47:13.114320  3078 net.cpp:150] Setting up inception_4c/relu_5x5
I0503 18:47:13.114327  3078 net.cpp:157] Top shape: 16 64 14 14 (200704)
I0503 18:47:13.114331  3078 net.cpp:165] Memory required for data: 700893836
I0503 18:47:13.114333  3078 layer_factory.hpp:77] Creating layer inception_4c/pool
I0503 18:47:13.114338  3078 net.cpp:106] Creating Layer inception_4c/pool
I0503 18:47:13.114341  3078 net.cpp:454] inception_4c/pool <- inception_4b/output_inception_4b/output_0_split_3
I0503 18:47:13.114347  3078 net.cpp:411] inception_4c/pool -> inception_4c/pool
I0503 18:47:13.114384  3078 net.cpp:150] Setting up inception_4c/pool
I0503 18:47:13.114389  3078 net.cpp:157] Top shape: 16 512 14 14 (1605632)
I0503 18:47:13.114392  3078 net.cpp:165] Memory required for data: 707316364
I0503 18:47:13.114395  3078 layer_factory.hpp:77] Creating layer inception_4c/pool_proj
I0503 18:47:13.114401  3078 net.cpp:106] Creating Layer inception_4c/pool_proj
I0503 18:47:13.114405  3078 net.cpp:454] inception_4c/pool_proj <- inception_4c/pool
I0503 18:47:13.114410  3078 net.cpp:411] inception_4c/pool_proj -> inception_4c/pool_proj
I0503 18:47:13.115211  3078 net.cpp:150] Setting up inception_4c/pool_proj
I0503 18:47:13.115219  3078 net.cpp:157] Top shape: 16 64 14 14 (200704)
I0503 18:47:13.115223  3078 net.cpp:165] Memory required for data: 708119180
I0503 18:47:13.115228  3078 layer_factory.hpp:77] Creating layer inception_4c/relu_pool_proj
I0503 18:47:13.115233  3078 net.cpp:106] Creating Layer inception_4c/relu_pool_proj
I0503 18:47:13.115236  3078 net.cpp:454] inception_4c/relu_pool_proj <- inception_4c/pool_proj
I0503 18:47:13.115241  3078 net.cpp:397] inception_4c/relu_pool_proj -> inception_4c/pool_proj (in-place)
I0503 18:47:13.115443  3078 net.cpp:150] Setting up inception_4c/relu_pool_proj
I0503 18:47:13.115453  3078 net.cpp:157] Top shape: 16 64 14 14 (200704)
I0503 18:47:13.115455  3078 net.cpp:165] Memory required for data: 708921996
I0503 18:47:13.115458  3078 layer_factory.hpp:77] Creating layer inception_4c/output
I0503 18:47:13.115463  3078 net.cpp:106] Creating Layer inception_4c/output
I0503 18:47:13.115466  3078 net.cpp:454] inception_4c/output <- inception_4c/1x1
I0503 18:47:13.115470  3078 net.cpp:454] inception_4c/output <- inception_4c/3x3
I0503 18:47:13.115473  3078 net.cpp:454] inception_4c/output <- inception_4c/5x5
I0503 18:47:13.115478  3078 net.cpp:454] inception_4c/output <- inception_4c/pool_proj
I0503 18:47:13.115480  3078 net.cpp:411] inception_4c/output -> inception_4c/output
I0503 18:47:13.115505  3078 net.cpp:150] Setting up inception_4c/output
I0503 18:47:13.115509  3078 net.cpp:157] Top shape: 16 512 14 14 (1605632)
I0503 18:47:13.115514  3078 net.cpp:165] Memory required for data: 715344524
I0503 18:47:13.115516  3078 layer_factory.hpp:77] Creating layer inception_4c/output_inception_4c/output_0_split
I0503 18:47:13.115520  3078 net.cpp:106] Creating Layer inception_4c/output_inception_4c/output_0_split
I0503 18:47:13.115523  3078 net.cpp:454] inception_4c/output_inception_4c/output_0_split <- inception_4c/output
I0503 18:47:13.115527  3078 net.cpp:411] inception_4c/output_inception_4c/output_0_split -> inception_4c/output_inception_4c/output_0_split_0
I0503 18:47:13.115545  3078 net.cpp:411] inception_4c/output_inception_4c/output_0_split -> inception_4c/output_inception_4c/output_0_split_1
I0503 18:47:13.115550  3078 net.cpp:411] inception_4c/output_inception_4c/output_0_split -> inception_4c/output_inception_4c/output_0_split_2
I0503 18:47:13.115555  3078 net.cpp:411] inception_4c/output_inception_4c/output_0_split -> inception_4c/output_inception_4c/output_0_split_3
I0503 18:47:13.115622  3078 net.cpp:150] Setting up inception_4c/output_inception_4c/output_0_split
I0503 18:47:13.115627  3078 net.cpp:157] Top shape: 16 512 14 14 (1605632)
I0503 18:47:13.115629  3078 net.cpp:157] Top shape: 16 512 14 14 (1605632)
I0503 18:47:13.115633  3078 net.cpp:157] Top shape: 16 512 14 14 (1605632)
I0503 18:47:13.115641  3078 net.cpp:157] Top shape: 16 512 14 14 (1605632)
I0503 18:47:13.115643  3078 net.cpp:165] Memory required for data: 741034636
I0503 18:47:13.115646  3078 layer_factory.hpp:77] Creating layer inception_4d/1x1
I0503 18:47:13.115654  3078 net.cpp:106] Creating Layer inception_4d/1x1
I0503 18:47:13.115658  3078 net.cpp:454] inception_4d/1x1 <- inception_4c/output_inception_4c/output_0_split_0
I0503 18:47:13.115663  3078 net.cpp:411] inception_4d/1x1 -> inception_4d/1x1
I0503 18:47:13.116657  3078 net.cpp:150] Setting up inception_4d/1x1
I0503 18:47:13.116665  3078 net.cpp:157] Top shape: 16 112 14 14 (351232)
I0503 18:47:13.116668  3078 net.cpp:165] Memory required for data: 742439564
I0503 18:47:13.116673  3078 layer_factory.hpp:77] Creating layer inception_4d/relu_1x1
I0503 18:47:13.116678  3078 net.cpp:106] Creating Layer inception_4d/relu_1x1
I0503 18:47:13.116682  3078 net.cpp:454] inception_4d/relu_1x1 <- inception_4d/1x1
I0503 18:47:13.116686  3078 net.cpp:397] inception_4d/relu_1x1 -> inception_4d/1x1 (in-place)
I0503 18:47:13.116812  3078 net.cpp:150] Setting up inception_4d/relu_1x1
I0503 18:47:13.116819  3078 net.cpp:157] Top shape: 16 112 14 14 (351232)
I0503 18:47:13.116822  3078 net.cpp:165] Memory required for data: 743844492
I0503 18:47:13.116825  3078 layer_factory.hpp:77] Creating layer inception_4d/3x3_reduce
I0503 18:47:13.116833  3078 net.cpp:106] Creating Layer inception_4d/3x3_reduce
I0503 18:47:13.116837  3078 net.cpp:454] inception_4d/3x3_reduce <- inception_4c/output_inception_4c/output_0_split_1
I0503 18:47:13.116847  3078 net.cpp:411] inception_4d/3x3_reduce -> inception_4d/3x3_reduce
I0503 18:47:13.118065  3078 net.cpp:150] Setting up inception_4d/3x3_reduce
I0503 18:47:13.118075  3078 net.cpp:157] Top shape: 16 144 14 14 (451584)
I0503 18:47:13.118078  3078 net.cpp:165] Memory required for data: 745650828
I0503 18:47:13.118083  3078 layer_factory.hpp:77] Creating layer inception_4d/relu_3x3_reduce
I0503 18:47:13.118088  3078 net.cpp:106] Creating Layer inception_4d/relu_3x3_reduce
I0503 18:47:13.118093  3078 net.cpp:454] inception_4d/relu_3x3_reduce <- inception_4d/3x3_reduce
I0503 18:47:13.118096  3078 net.cpp:397] inception_4d/relu_3x3_reduce -> inception_4d/3x3_reduce (in-place)
I0503 18:47:13.118306  3078 net.cpp:150] Setting up inception_4d/relu_3x3_reduce
I0503 18:47:13.118314  3078 net.cpp:157] Top shape: 16 144 14 14 (451584)
I0503 18:47:13.118317  3078 net.cpp:165] Memory required for data: 747457164
I0503 18:47:13.118320  3078 layer_factory.hpp:77] Creating layer inception_4d/3x3
I0503 18:47:13.118329  3078 net.cpp:106] Creating Layer inception_4d/3x3
I0503 18:47:13.118331  3078 net.cpp:454] inception_4d/3x3 <- inception_4d/3x3_reduce
I0503 18:47:13.118337  3078 net.cpp:411] inception_4d/3x3 -> inception_4d/3x3
I0503 18:47:13.121070  3078 net.cpp:150] Setting up inception_4d/3x3
I0503 18:47:13.121080  3078 net.cpp:157] Top shape: 16 288 14 14 (903168)
I0503 18:47:13.121084  3078 net.cpp:165] Memory required for data: 751069836
I0503 18:47:13.121089  3078 layer_factory.hpp:77] Creating layer inception_4d/relu_3x3
I0503 18:47:13.121093  3078 net.cpp:106] Creating Layer inception_4d/relu_3x3
I0503 18:47:13.121098  3078 net.cpp:454] inception_4d/relu_3x3 <- inception_4d/3x3
I0503 18:47:13.121103  3078 net.cpp:397] inception_4d/relu_3x3 -> inception_4d/3x3 (in-place)
I0503 18:47:13.121304  3078 net.cpp:150] Setting up inception_4d/relu_3x3
I0503 18:47:13.121314  3078 net.cpp:157] Top shape: 16 288 14 14 (903168)
I0503 18:47:13.121316  3078 net.cpp:165] Memory required for data: 754682508
I0503 18:47:13.121320  3078 layer_factory.hpp:77] Creating layer inception_4d/5x5_reduce
I0503 18:47:13.121326  3078 net.cpp:106] Creating Layer inception_4d/5x5_reduce
I0503 18:47:13.121330  3078 net.cpp:454] inception_4d/5x5_reduce <- inception_4c/output_inception_4c/output_0_split_2
I0503 18:47:13.121337  3078 net.cpp:411] inception_4d/5x5_reduce -> inception_4d/5x5_reduce
I0503 18:47:13.122167  3078 net.cpp:150] Setting up inception_4d/5x5_reduce
I0503 18:47:13.122180  3078 net.cpp:157] Top shape: 16 32 14 14 (100352)
I0503 18:47:13.122187  3078 net.cpp:165] Memory required for data: 755083916
I0503 18:47:13.122192  3078 layer_factory.hpp:77] Creating layer inception_4d/relu_5x5_reduce
I0503 18:47:13.122197  3078 net.cpp:106] Creating Layer inception_4d/relu_5x5_reduce
I0503 18:47:13.122200  3078 net.cpp:454] inception_4d/relu_5x5_reduce <- inception_4d/5x5_reduce
I0503 18:47:13.122205  3078 net.cpp:397] inception_4d/relu_5x5_reduce -> inception_4d/5x5_reduce (in-place)
I0503 18:47:13.122330  3078 net.cpp:150] Setting up inception_4d/relu_5x5_reduce
I0503 18:47:13.122336  3078 net.cpp:157] Top shape: 16 32 14 14 (100352)
I0503 18:47:13.122339  3078 net.cpp:165] Memory required for data: 755485324
I0503 18:47:13.122342  3078 layer_factory.hpp:77] Creating layer inception_4d/5x5
I0503 18:47:13.122350  3078 net.cpp:106] Creating Layer inception_4d/5x5
I0503 18:47:13.122354  3078 net.cpp:454] inception_4d/5x5 <- inception_4d/5x5_reduce
I0503 18:47:13.122359  3078 net.cpp:411] inception_4d/5x5 -> inception_4d/5x5
I0503 18:47:13.123359  3078 net.cpp:150] Setting up inception_4d/5x5
I0503 18:47:13.123368  3078 net.cpp:157] Top shape: 16 64 14 14 (200704)
I0503 18:47:13.123371  3078 net.cpp:165] Memory required for data: 756288140
I0503 18:47:13.123376  3078 layer_factory.hpp:77] Creating layer inception_4d/relu_5x5
I0503 18:47:13.123381  3078 net.cpp:106] Creating Layer inception_4d/relu_5x5
I0503 18:47:13.123384  3078 net.cpp:454] inception_4d/relu_5x5 <- inception_4d/5x5
I0503 18:47:13.123389  3078 net.cpp:397] inception_4d/relu_5x5 -> inception_4d/5x5 (in-place)
I0503 18:47:13.123594  3078 net.cpp:150] Setting up inception_4d/relu_5x5
I0503 18:47:13.123601  3078 net.cpp:157] Top shape: 16 64 14 14 (200704)
I0503 18:47:13.123605  3078 net.cpp:165] Memory required for data: 757090956
I0503 18:47:13.123607  3078 layer_factory.hpp:77] Creating layer inception_4d/pool
I0503 18:47:13.123612  3078 net.cpp:106] Creating Layer inception_4d/pool
I0503 18:47:13.123616  3078 net.cpp:454] inception_4d/pool <- inception_4c/output_inception_4c/output_0_split_3
I0503 18:47:13.123621  3078 net.cpp:411] inception_4d/pool -> inception_4d/pool
I0503 18:47:13.123659  3078 net.cpp:150] Setting up inception_4d/pool
I0503 18:47:13.123664  3078 net.cpp:157] Top shape: 16 512 14 14 (1605632)
I0503 18:47:13.123667  3078 net.cpp:165] Memory required for data: 763513484
I0503 18:47:13.123669  3078 layer_factory.hpp:77] Creating layer inception_4d/pool_proj
I0503 18:47:13.123677  3078 net.cpp:106] Creating Layer inception_4d/pool_proj
I0503 18:47:13.123680  3078 net.cpp:454] inception_4d/pool_proj <- inception_4d/pool
I0503 18:47:13.123685  3078 net.cpp:411] inception_4d/pool_proj -> inception_4d/pool_proj
I0503 18:47:13.124505  3078 net.cpp:150] Setting up inception_4d/pool_proj
I0503 18:47:13.124514  3078 net.cpp:157] Top shape: 16 64 14 14 (200704)
I0503 18:47:13.124517  3078 net.cpp:165] Memory required for data: 764316300
I0503 18:47:13.124523  3078 layer_factory.hpp:77] Creating layer inception_4d/relu_pool_proj
I0503 18:47:13.124528  3078 net.cpp:106] Creating Layer inception_4d/relu_pool_proj
I0503 18:47:13.124531  3078 net.cpp:454] inception_4d/relu_pool_proj <- inception_4d/pool_proj
I0503 18:47:13.124536  3078 net.cpp:397] inception_4d/relu_pool_proj -> inception_4d/pool_proj (in-place)
I0503 18:47:13.124740  3078 net.cpp:150] Setting up inception_4d/relu_pool_proj
I0503 18:47:13.124749  3078 net.cpp:157] Top shape: 16 64 14 14 (200704)
I0503 18:47:13.124752  3078 net.cpp:165] Memory required for data: 765119116
I0503 18:47:13.124755  3078 layer_factory.hpp:77] Creating layer inception_4d/output
I0503 18:47:13.124760  3078 net.cpp:106] Creating Layer inception_4d/output
I0503 18:47:13.124763  3078 net.cpp:454] inception_4d/output <- inception_4d/1x1
I0503 18:47:13.124768  3078 net.cpp:454] inception_4d/output <- inception_4d/3x3
I0503 18:47:13.124770  3078 net.cpp:454] inception_4d/output <- inception_4d/5x5
I0503 18:47:13.124774  3078 net.cpp:454] inception_4d/output <- inception_4d/pool_proj
I0503 18:47:13.124781  3078 net.cpp:411] inception_4d/output -> inception_4d/output
I0503 18:47:13.124809  3078 net.cpp:150] Setting up inception_4d/output
I0503 18:47:13.124814  3078 net.cpp:157] Top shape: 16 528 14 14 (1655808)
I0503 18:47:13.124817  3078 net.cpp:165] Memory required for data: 771742348
I0503 18:47:13.124820  3078 layer_factory.hpp:77] Creating layer inception_4d/output_inception_4d/output_0_split
I0503 18:47:13.124826  3078 net.cpp:106] Creating Layer inception_4d/output_inception_4d/output_0_split
I0503 18:47:13.124830  3078 net.cpp:454] inception_4d/output_inception_4d/output_0_split <- inception_4d/output
I0503 18:47:13.124833  3078 net.cpp:411] inception_4d/output_inception_4d/output_0_split -> inception_4d/output_inception_4d/output_0_split_0
I0503 18:47:13.124842  3078 net.cpp:411] inception_4d/output_inception_4d/output_0_split -> inception_4d/output_inception_4d/output_0_split_1
I0503 18:47:13.124848  3078 net.cpp:411] inception_4d/output_inception_4d/output_0_split -> inception_4d/output_inception_4d/output_0_split_2
I0503 18:47:13.124853  3078 net.cpp:411] inception_4d/output_inception_4d/output_0_split -> inception_4d/output_inception_4d/output_0_split_3
I0503 18:47:13.124858  3078 net.cpp:411] inception_4d/output_inception_4d/output_0_split -> inception_4d/output_inception_4d/output_0_split_4
I0503 18:47:13.124918  3078 net.cpp:150] Setting up inception_4d/output_inception_4d/output_0_split
I0503 18:47:13.124922  3078 net.cpp:157] Top shape: 16 528 14 14 (1655808)
I0503 18:47:13.124927  3078 net.cpp:157] Top shape: 16 528 14 14 (1655808)
I0503 18:47:13.124929  3078 net.cpp:157] Top shape: 16 528 14 14 (1655808)
I0503 18:47:13.124933  3078 net.cpp:157] Top shape: 16 528 14 14 (1655808)
I0503 18:47:13.124935  3078 net.cpp:157] Top shape: 16 528 14 14 (1655808)
I0503 18:47:13.124938  3078 net.cpp:165] Memory required for data: 804858508
I0503 18:47:13.124940  3078 layer_factory.hpp:77] Creating layer loss2/ave_pool
I0503 18:47:13.124946  3078 net.cpp:106] Creating Layer loss2/ave_pool
I0503 18:47:13.124949  3078 net.cpp:454] loss2/ave_pool <- inception_4d/output_inception_4d/output_0_split_0
I0503 18:47:13.124954  3078 net.cpp:411] loss2/ave_pool -> loss2/ave_pool
I0503 18:47:13.125176  3078 net.cpp:150] Setting up loss2/ave_pool
I0503 18:47:13.125185  3078 net.cpp:157] Top shape: 16 528 4 4 (135168)
I0503 18:47:13.125187  3078 net.cpp:165] Memory required for data: 805399180
I0503 18:47:13.125191  3078 layer_factory.hpp:77] Creating layer loss2/conv
I0503 18:47:13.125198  3078 net.cpp:106] Creating Layer loss2/conv
I0503 18:47:13.125202  3078 net.cpp:454] loss2/conv <- loss2/ave_pool
I0503 18:47:13.125207  3078 net.cpp:411] loss2/conv -> loss2/conv
I0503 18:47:13.126471  3078 net.cpp:150] Setting up loss2/conv
I0503 18:47:13.126482  3078 net.cpp:157] Top shape: 16 128 4 4 (32768)
I0503 18:47:13.126484  3078 net.cpp:165] Memory required for data: 805530252
I0503 18:47:13.126489  3078 layer_factory.hpp:77] Creating layer loss2/relu_conv
I0503 18:47:13.126494  3078 net.cpp:106] Creating Layer loss2/relu_conv
I0503 18:47:13.126498  3078 net.cpp:454] loss2/relu_conv <- loss2/conv
I0503 18:47:13.126503  3078 net.cpp:397] loss2/relu_conv -> loss2/conv (in-place)
I0503 18:47:13.126714  3078 net.cpp:150] Setting up loss2/relu_conv
I0503 18:47:13.126724  3078 net.cpp:157] Top shape: 16 128 4 4 (32768)
I0503 18:47:13.126726  3078 net.cpp:165] Memory required for data: 805661324
I0503 18:47:13.126729  3078 layer_factory.hpp:77] Creating layer loss2/fc
I0503 18:47:13.126736  3078 net.cpp:106] Creating Layer loss2/fc
I0503 18:47:13.126739  3078 net.cpp:454] loss2/fc <- loss2/conv
I0503 18:47:13.126744  3078 net.cpp:411] loss2/fc -> loss2/fc
I0503 18:47:13.139004  3078 net.cpp:150] Setting up loss2/fc
I0503 18:47:13.139034  3078 net.cpp:157] Top shape: 16 1024 (16384)
I0503 18:47:13.139037  3078 net.cpp:165] Memory required for data: 805726860
I0503 18:47:13.139045  3078 layer_factory.hpp:77] Creating layer loss2/relu_fc
I0503 18:47:13.139053  3078 net.cpp:106] Creating Layer loss2/relu_fc
I0503 18:47:13.139065  3078 net.cpp:454] loss2/relu_fc <- loss2/fc
I0503 18:47:13.139077  3078 net.cpp:397] loss2/relu_fc -> loss2/fc (in-place)
I0503 18:47:13.139264  3078 net.cpp:150] Setting up loss2/relu_fc
I0503 18:47:13.139271  3078 net.cpp:157] Top shape: 16 1024 (16384)
I0503 18:47:13.139276  3078 net.cpp:165] Memory required for data: 805792396
I0503 18:47:13.139278  3078 layer_factory.hpp:77] Creating layer loss2/drop_fc
I0503 18:47:13.139284  3078 net.cpp:106] Creating Layer loss2/drop_fc
I0503 18:47:13.139287  3078 net.cpp:454] loss2/drop_fc <- loss2/fc
I0503 18:47:13.139292  3078 net.cpp:397] loss2/drop_fc -> loss2/fc (in-place)
I0503 18:47:13.139317  3078 net.cpp:150] Setting up loss2/drop_fc
I0503 18:47:13.139322  3078 net.cpp:157] Top shape: 16 1024 (16384)
I0503 18:47:13.139325  3078 net.cpp:165] Memory required for data: 805857932
I0503 18:47:13.139328  3078 layer_factory.hpp:77] Creating layer loss2/classifier
I0503 18:47:13.139336  3078 net.cpp:106] Creating Layer loss2/classifier
I0503 18:47:13.139339  3078 net.cpp:454] loss2/classifier <- loss2/fc
I0503 18:47:13.139343  3078 net.cpp:411] loss2/classifier -> loss2/classifier
I0503 18:47:13.145020  3078 net.cpp:150] Setting up loss2/classifier
I0503 18:47:13.145030  3078 net.cpp:157] Top shape: 16 1000 (16000)
I0503 18:47:13.145032  3078 net.cpp:165] Memory required for data: 805921932
I0503 18:47:13.145037  3078 layer_factory.hpp:77] Creating layer loss2/classifier_loss2/classifier_0_split
I0503 18:47:13.145042  3078 net.cpp:106] Creating Layer loss2/classifier_loss2/classifier_0_split
I0503 18:47:13.145046  3078 net.cpp:454] loss2/classifier_loss2/classifier_0_split <- loss2/classifier
I0503 18:47:13.145051  3078 net.cpp:411] loss2/classifier_loss2/classifier_0_split -> loss2/classifier_loss2/classifier_0_split_0
I0503 18:47:13.145057  3078 net.cpp:411] loss2/classifier_loss2/classifier_0_split -> loss2/classifier_loss2/classifier_0_split_1
I0503 18:47:13.145062  3078 net.cpp:411] loss2/classifier_loss2/classifier_0_split -> loss2/classifier_loss2/classifier_0_split_2
I0503 18:47:13.145105  3078 net.cpp:150] Setting up loss2/classifier_loss2/classifier_0_split
I0503 18:47:13.145110  3078 net.cpp:157] Top shape: 16 1000 (16000)
I0503 18:47:13.145113  3078 net.cpp:157] Top shape: 16 1000 (16000)
I0503 18:47:13.145117  3078 net.cpp:157] Top shape: 16 1000 (16000)
I0503 18:47:13.145119  3078 net.cpp:165] Memory required for data: 806113932
I0503 18:47:13.145123  3078 layer_factory.hpp:77] Creating layer loss2/loss
I0503 18:47:13.145128  3078 net.cpp:106] Creating Layer loss2/loss
I0503 18:47:13.145130  3078 net.cpp:454] loss2/loss <- loss2/classifier_loss2/classifier_0_split_0
I0503 18:47:13.145134  3078 net.cpp:454] loss2/loss <- label_data_1_split_3
…
I0503 18:47:13.145570  3078 net.cpp:150] Setting up loss2/top-5
I0503 18:47:13.145575  3078 net.cpp:157] Top shape: (1)
I0503 18:47:13.145576  3078 net.cpp:165] Memory required for data: 806113944
I0503 18:47:13.145579  3078 layer_factory.hpp:77] Creating layer inception_4e/1x1
I0503 18:47:13.145588  3078 net.cpp:106] Creating Layer inception_4e/1x1
I0503 18:47:13.145591  3078 net.cpp:454] inception_4e/1x1 <- inception_4d/output_inception_4d/output_0_split_1
I0503 18:47:13.145597  3078 net.cpp:411] inception_4e/1x1 -> inception_4e/1x1
I0503 18:47:13.147110  3078 net.cpp:150] Setting up inception_4e/1x1
I0503 18:47:13.147119  3078 net.cpp:157] Top shape: 16 256 14 14 (802816)
I0503 18:47:13.147122  3078 net.cpp:165] Memory required for data: 809325208
I0503 18:47:13.147128  3078 layer_factory.hpp:77] Creating layer inception_4e/relu_1x1
I0503 18:47:13.147133  3078 net.cpp:106] Creating Layer inception_4e/relu_1x1
I0503 18:47:13.147136  3078 net.cpp:454] inception_4e/relu_1x1 <- inception_4e/1x1
I0503 18:47:13.147142  3078 net.cpp:397] inception_4e/relu_1x1 -> inception_4e/1x1 (in-place)
I0503 18:47:13.147266  3078 net.cpp:150] Setting up inception_4e/relu_1x1
I0503 18:47:13.147274  3078 net.cpp:157] Top shape: 16 256 14 14 (802816)
I0503 18:47:13.147276  3078 net.cpp:165] Memory required for data: 812536472
I0503 18:47:13.147279  3078 layer_factory.hpp:77] Creating layer inception_4e/3x3_reduce
I0503 18:47:13.147300  3078 net.cpp:106] Creating Layer inception_4e/3x3_reduce
I0503 18:47:13.147303  3078 net.cpp:454] inception_4e/3x3_reduce <- inception_4d/output_inception_4d/output_0_split_2
I0503 18:47:13.147310  3078 net.cpp:411] inception_4e/3x3_reduce -> inception_4e/3x3_reduce
I0503 18:47:13.148798  3078 net.cpp:150] Setting up inception_4e/3x3_reduce
I0503 18:47:13.148809  3078 net.cpp:157] Top shape: 16 160 14 14 (501760)
I0503 18:47:13.148813  3078 net.cpp:165] Memory required for data: 814543512
I0503 18:47:13.148818  3078 layer_factory.hpp:77] Creating layer inception_4e/relu_3x3_reduce
I0503 18:47:13.148823  3078 net.cpp:106] Creating Layer inception_4e/relu_3x3_reduce
I0503 18:47:13.148826  3078 net.cpp:454] inception_4e/relu_3x3_reduce <- inception_4e/3x3_reduce
I0503 18:47:13.148830  3078 net.cpp:397] inception_4e/relu_3x3_reduce -> inception_4e/3x3_reduce (in-place)
I0503 18:47:13.149055  3078 net.cpp:150] Setting up inception_4e/relu_3x3_reduce
I0503 18:47:13.149063  3078 net.cpp:157] Top shape: 16 160 14 14 (501760)
I0503 18:47:13.149066  3078 net.cpp:165] Memory required for data: 816550552
I0503 18:47:13.149070  3078 layer_factory.hpp:77] Creating layer inception_4e/3x3
I0503 18:47:13.149077  3078 net.cpp:106] Creating Layer inception_4e/3x3
I0503 18:47:13.149081  3078 net.cpp:454] inception_4e/3x3 <- inception_4e/3x3_reduce
I0503 18:47:13.149086  3078 net.cpp:411] inception_4e/3x3 -> inception_4e/3x3
I0503 18:47:13.152312  3078 net.cpp:150] Setting up inception_4e/3x3
I0503 18:47:13.152323  3078 net.cpp:157] Top shape: 16 320 14 14 (1003520)
I0503 18:47:13.152325  3078 net.cpp:165] Memory required for data: 820564632
I0503 18:47:13.152330  3078 layer_factory.hpp:77] Creating layer inception_4e/relu_3x3
I0503 18:47:13.152336  3078 net.cpp:106] Creating Layer inception_4e/relu_3x3
I0503 18:47:13.152339  3078 net.cpp:454] inception_4e/relu_3x3 <- inception_4e/3x3
I0503 18:47:13.152344  3078 net.cpp:397] inception_4e/relu_3x3 -> inception_4e/3x3 (in-place)
I0503 18:47:13.152551  3078 net.cpp:150] Setting up inception_4e/relu_3x3
I0503 18:47:13.152559  3078 net.cpp:157] Top shape: 16 320 14 14 (1003520)
I0503 18:47:13.152562  3078 net.cpp:165] Memory required for data: 824578712
I0503 18:47:13.152566  3078 layer_factory.hpp:77] Creating layer inception_4e/5x5_reduce
I0503 18:47:13.152575  3078 net.cpp:106] Creating Layer inception_4e/5x5_reduce
I0503 18:47:13.152578  3078 net.cpp:454] inception_4e/5x5_reduce <- inception_4d/output_inception_4d/output_0_split_3
I0503 18:47:13.152583  3078 net.cpp:411] inception_4e/5x5_reduce -> inception_4e/5x5_reduce
I0503 18:47:13.153437  3078 net.cpp:150] Setting up inception_4e/5x5_reduce
I0503 18:47:13.153452  3078 net.cpp:157] Top shape: 16 32 14 14 (100352)
I0503 18:47:13.153457  3078 net.cpp:165] Memory required for data: 824980120
I0503 18:47:13.153462  3078 layer_factory.hpp:77] Creating layer inception_4e/relu_5x5_reduce
I0503 18:47:13.153467  3078 net.cpp:106] Creating Layer inception_4e/relu_5x5_reduce
I0503 18:47:13.153470  3078 net.cpp:454] inception_4e/relu_5x5_reduce <- inception_4e/5x5_reduce
I0503 18:47:13.153475  3078 net.cpp:397] inception_4e/relu_5x5_reduce -> inception_4e/5x5_reduce (in-place)
I0503 18:47:13.153604  3078 net.cpp:150] Setting up inception_4e/relu_5x5_reduce
I0503 18:47:13.153610  3078 net.cpp:157] Top shape: 16 32 14 14 (100352)
I0503 18:47:13.153614  3078 net.cpp:165] Memory required for data: 825381528
I0503 18:47:13.153616  3078 layer_factory.hpp:77] Creating layer inception_4e/5x5
I0503 18:47:13.153625  3078 net.cpp:106] Creating Layer inception_4e/5x5
I0503 18:47:13.153627  3078 net.cpp:454] inception_4e/5x5 <- inception_4e/5x5_reduce
I0503 18:47:13.153633  3078 net.cpp:411] inception_4e/5x5 -> inception_4e/5x5
I0503 18:47:13.154898  3078 net.cpp:150] Setting up inception_4e/5x5
I0503 18:47:13.154907  3078 net.cpp:157] Top shape: 16 128 14 14 (401408)
I0503 18:47:13.154911  3078 net.cpp:165] Memory required for data: 826987160
I0503 18:47:13.154916  3078 layer_factory.hpp:77] Creating layer inception_4e/relu_5x5
I0503 18:47:13.154922  3078 net.cpp:106] Creating Layer inception_4e/relu_5x5
I0503 18:47:13.154925  3078 net.cpp:454] inception_4e/relu_5x5 <- inception_4e/5x5
I0503 18:47:13.154929  3078 net.cpp:397] inception_4e/relu_5x5 -> inception_4e/5x5 (in-place)
I0503 18:47:13.155145  3078 net.cpp:150] Setting up inception_4e/relu_5x5
I0503 18:47:13.155153  3078 net.cpp:157] Top shape: 16 128 14 14 (401408)
I0503 18:47:13.155156  3078 net.cpp:165] Memory required for data: 828592792
I0503 18:47:13.155159  3078 layer_factory.hpp:77] Creating layer inception_4e/pool
I0503 18:47:13.155166  3078 net.cpp:106] Creating Layer inception_4e/pool
I0503 18:47:13.155170  3078 net.cpp:454] inception_4e/pool <- inception_4d/output_inception_4d/output_0_split_4
I0503 18:47:13.155174  3078 net.cpp:411] inception_4e/pool -> inception_4e/pool
I0503 18:47:13.155215  3078 net.cpp:150] Setting up inception_4e/pool
I0503 18:47:13.155220  3078 net.cpp:157] Top shape: 16 528 14 14 (1655808)
I0503 18:47:13.155222  3078 net.cpp:165] Memory required for data: 835216024
I0503 18:47:13.155225  3078 layer_factory.hpp:77] Creating layer inception_4e/pool_proj
I0503 18:47:13.155232  3078 net.cpp:106] Creating Layer inception_4e/pool_proj
I0503 18:47:13.155236  3078 net.cpp:454] inception_4e/pool_proj <- inception_4e/pool
I0503 18:47:13.155241  3078 net.cpp:411] inception_4e/pool_proj -> inception_4e/pool_proj
I0503 18:47:13.156304  3078 net.cpp:150] Setting up inception_4e/pool_proj
I0503 18:47:13.156313  3078 net.cpp:157] Top shape: 16 128 14 14 (401408)
I0503 18:47:13.156316  3078 net.cpp:165] Memory required for data: 836821656
I0503 18:47:13.156322  3078 layer_factory.hpp:77] Creating layer inception_4e/relu_pool_proj
I0503 18:47:13.156327  3078 net.cpp:106] Creating Layer inception_4e/relu_pool_proj
I0503 18:47:13.156329  3078 net.cpp:454] inception_4e/relu_pool_proj <- inception_4e/pool_proj
I0503 18:47:13.156333  3078 net.cpp:397] inception_4e/relu_pool_proj -> inception_4e/pool_proj (in-place)
I0503 18:47:13.156543  3078 net.cpp:150] Setting up inception_4e/relu_pool_proj
I0503 18:47:13.156551  3078 net.cpp:157] Top shape: 16 128 14 14 (401408)
I0503 18:47:13.156554  3078 net.cpp:165] Memory required for data: 838427288
I0503 18:47:13.156558  3078 layer_factory.hpp:77] Creating layer inception_4e/output
I0503 18:47:13.156563  3078 net.cpp:106] Creating Layer inception_4e/output
I0503 18:47:13.156566  3078 net.cpp:454] inception_4e/output <- inception_4e/1x1
I0503 18:47:13.156570  3078 net.cpp:454] inception_4e/output <- inception_4e/3x3
I0503 18:47:13.156574  3078 net.cpp:454] inception_4e/output <- inception_4e/5x5
I0503 18:47:13.156579  3078 net.cpp:454] inception_4e/output <- inception_4e/pool_proj
I0503 18:47:13.156589  3078 net.cpp:411] inception_4e/output -> inception_4e/output
I0503 18:47:13.156615  3078 net.cpp:150] Setting up inception_4e/output
I0503 18:47:13.156620  3078 net.cpp:157] Top shape: 16 832 14 14 (2609152)
I0503 18:47:13.156622  3078 net.cpp:165] Memory required for data: 848863896
I0503 18:47:13.156625  3078 layer_factory.hpp:77] Creating layer pool4/3x3_s2
I0503 18:47:13.156630  3078 net.cpp:106] Creating Layer pool4/3x3_s2
I0503 18:47:13.156633  3078 net.cpp:454] pool4/3x3_s2 <- inception_4e/output
I0503 18:47:13.156637  3078 net.cpp:411] pool4/3x3_s2 -> pool4/3x3_s2
I0503 18:47:13.156672  3078 net.cpp:150] Setting up pool4/3x3_s2
I0503 18:47:13.156677  3078 net.cpp:157] Top shape: 16 832 7 7 (652288)
I0503 18:47:13.156678  3078 net.cpp:165] Memory required for data: 851473048
I0503 18:47:13.156682  3078 layer_factory.hpp:77] Creating layer pool4/3x3_s2_pool4/3x3_s2_0_split
I0503 18:47:13.156685  3078 net.cpp:106] Creating Layer pool4/3x3_s2_pool4/3x3_s2_0_split
I0503 18:47:13.156688  3078 net.cpp:454] pool4/3x3_s2_pool4/3x3_s2_0_split <- pool4/3x3_s2
I0503 18:47:13.156693  3078 net.cpp:411] pool4/3x3_s2_pool4/3x3_s2_0_split -> pool4/3x3_s2_pool4/3x3_s2_0_split_0
I0503 18:47:13.156698  3078 net.cpp:411] pool4/3x3_s2_pool4/3x3_s2_0_split -> pool4/3x3_s2_pool4/3x3_s2_0_split_1
I0503 18:47:13.156703  3078 net.cpp:411] pool4/3x3_s2_pool4/3x3_s2_0_split -> pool4/3x3_s2_pool4/3x3_s2_0_split_2
I0503 18:47:13.156718  3078 net.cpp:411] pool4/3x3_s2_pool4/3x3_s2_0_split -> pool4/3x3_s2_pool4/3x3_s2_0_split_3
I0503 18:47:13.156769  3078 net.cpp:150] Setting up pool4/3x3_s2_pool4/3x3_s2_0_split
I0503 18:47:13.156774  3078 net.cpp:157] Top shape: 16 832 7 7 (652288)
I0503 18:47:13.156777  3078 net.cpp:157] Top shape: 16 832 7 7 (652288)
I0503 18:47:13.156781  3078 net.cpp:157] Top shape: 16 832 7 7 (652288)
I0503 18:47:13.156785  3078 net.cpp:157] Top shape: 16 832 7 7 (652288)
I0503 18:47:13.156786  3078 net.cpp:165] Memory required for data: 861909656
I0503 18:47:13.156790  3078 layer_factory.hpp:77] Creating layer inception_5a/1x1
I0503 18:47:13.156798  3078 net.cpp:106] Creating Layer inception_5a/1x1
I0503 18:47:13.156801  3078 net.cpp:454] inception_5a/1x1 <- pool4/3x3_s2_pool4/3x3_s2_0_split_0
I0503 18:47:13.156806  3078 net.cpp:411] inception_5a/1x1 -> inception_5a/1x1
I0503 18:47:13.158805  3078 net.cpp:150] Setting up inception_5a/1x1
I0503 18:47:13.158815  3078 net.cpp:157] Top shape: 16 256 7 7 (200704)
I0503 18:47:13.158818  3078 net.cpp:165] Memory required for data: 862712472
I0503 18:47:13.158824  3078 layer_factory.hpp:77] Creating layer inception_5a/relu_1x1
I0503 18:47:13.158829  3078 net.cpp:106] Creating Layer inception_5a/relu_1x1
I0503 18:47:13.158833  3078 net.cpp:454] inception_5a/relu_1x1 <- inception_5a/1x1
I0503 18:47:13.158838  3078 net.cpp:397] inception_5a/relu_1x1 -> inception_5a/1x1 (in-place)
I0503 18:47:13.158965  3078 net.cpp:150] Setting up inception_5a/relu_1x1
I0503 18:47:13.158973  3078 net.cpp:157] Top shape: 16 256 7 7 (200704)
I0503 18:47:13.158977  3078 net.cpp:165] Memory required for data: 863515288
I0503 18:47:13.158979  3078 layer_factory.hpp:77] Creating layer inception_5a/3x3_reduce
I0503 18:47:13.158987  3078 net.cpp:106] Creating Layer inception_5a/3x3_reduce
I0503 18:47:13.158990  3078 net.cpp:454] inception_5a/3x3_reduce <- pool4/3x3_s2_pool4/3x3_s2_0_split_1
I0503 18:47:13.158995  3078 net.cpp:411] inception_5a/3x3_reduce -> inception_5a/3x3_reduce
I0503 18:47:13.160634  3078 net.cpp:150] Setting up inception_5a/3x3_reduce
I0503 18:47:13.160643  3078 net.cpp:157] Top shape: 16 160 7 7 (125440)
I0503 18:47:13.160646  3078 net.cpp:165] Memory required for data: 864017048
I0503 18:47:13.160651  3078 layer_factory.hpp:77] Creating layer inception_5a/relu_3x3_reduce
I0503 18:47:13.160656  3078 net.cpp:106] Creating Layer inception_5a/relu_3x3_reduce
I0503 18:47:13.160661  3078 net.cpp:454] inception_5a/relu_3x3_reduce <- inception_5a/3x3_reduce
I0503 18:47:13.160668  3078 net.cpp:397] inception_5a/relu_3x3_reduce -> inception_5a/3x3_reduce (in-place)
I0503 18:47:13.160886  3078 net.cpp:150] Setting up inception_5a/relu_3x3_reduce
I0503 18:47:13.160894  3078 net.cpp:157] Top shape: 16 160 7 7 (125440)
I0503 18:47:13.160897  3078 net.cpp:165] Memory required for data: 864518808
I0503 18:47:13.160900  3078 layer_factory.hpp:77] Creating layer inception_5a/3x3
I0503 18:47:13.160909  3078 net.cpp:106] Creating Layer inception_5a/3x3
I0503 18:47:13.160913  3078 net.cpp:454] inception_5a/3x3 <- inception_5a/3x3_reduce
I0503 18:47:13.160919  3078 net.cpp:411] inception_5a/3x3 -> inception_5a/3x3
I0503 18:47:13.164147  3078 net.cpp:150] Setting up inception_5a/3x3
I0503 18:47:13.164156  3078 net.cpp:157] Top shape: 16 320 7 7 (250880)
I0503 18:47:13.164160  3078 net.cpp:165] Memory required for data: 865522328
I0503 18:47:13.164165  3078 layer_factory.hpp:77] Creating layer inception_5a/relu_3x3
I0503 18:47:13.164171  3078 net.cpp:106] Creating Layer inception_5a/relu_3x3
I0503 18:47:13.164175  3078 net.cpp:454] inception_5a/relu_3x3 <- inception_5a/3x3
I0503 18:47:13.164180  3078 net.cpp:397] inception_5a/relu_3x3 -> inception_5a/3x3 (in-place)
I0503 18:47:13.164413  3078 net.cpp:150] Setting up inception_5a/relu_3x3
I0503 18:47:13.164422  3078 net.cpp:157] Top shape: 16 320 7 7 (250880)
I0503 18:47:13.164424  3078 net.cpp:165] Memory required for data: 866525848
I0503 18:47:13.164428  3078 layer_factory.hpp:77] Creating layer inception_5a/5x5_reduce
I0503 18:47:13.164438  3078 net.cpp:106] Creating Layer inception_5a/5x5_reduce
I0503 18:47:13.164440  3078 net.cpp:454] inception_5a/5x5_reduce <- pool4/3x3_s2_pool4/3x3_s2_0_split_2
I0503 18:47:13.164445  3078 net.cpp:411] inception_5a/5x5_reduce -> inception_5a/5x5_reduce
I0503 18:47:13.165441  3078 net.cpp:150] Setting up inception_5a/5x5_reduce
I0503 18:47:13.165451  3078 net.cpp:157] Top shape: 16 32 7 7 (25088)
I0503 18:47:13.165453  3078 net.cpp:165] Memory required for data: 866626200
I0503 18:47:13.165458  3078 layer_factory.hpp:77] Creating layer inception_5a/relu_5x5_reduce
I0503 18:47:13.165463  3078 net.cpp:106] Creating Layer inception_5a/relu_5x5_reduce
I0503 18:47:13.165467  3078 net.cpp:454] inception_5a/relu_5x5_reduce <- inception_5a/5x5_reduce
I0503 18:47:13.165472  3078 net.cpp:397] inception_5a/relu_5x5_reduce -> inception_5a/5x5_reduce (in-place)
I0503 18:47:13.165606  3078 net.cpp:150] Setting up inception_5a/relu_5x5_reduce
I0503 18:47:13.165612  3078 net.cpp:157] Top shape: 16 32 7 7 (25088)
I0503 18:47:13.165616  3078 net.cpp:165] Memory required for data: 866726552
I0503 18:47:13.165619  3078 layer_factory.hpp:77] Creating layer inception_5a/5x5
I0503 18:47:13.165627  3078 net.cpp:106] Creating Layer inception_5a/5x5
I0503 18:47:13.165630  3078 net.cpp:454] inception_5a/5x5 <- inception_5a/5x5_reduce
I0503 18:47:13.165635  3078 net.cpp:411] inception_5a/5x5 -> inception_5a/5x5
I0503 18:47:13.166970  3078 net.cpp:150] Setting up inception_5a/5x5
I0503 18:47:13.166980  3078 net.cpp:157] Top shape: 16 128 7 7 (100352)
I0503 18:47:13.166983  3078 net.cpp:165] Memory required for data: 867127960
I0503 18:47:13.166988  3078 layer_factory.hpp:77] Creating layer inception_5a/relu_5x5
I0503 18:47:13.166992  3078 net.cpp:106] Creating Layer inception_5a/relu_5x5
I0503 18:47:13.166996  3078 net.cpp:454] inception_5a/relu_5x5 <- inception_5a/5x5
I0503 18:47:13.167001  3078 net.cpp:397] inception_5a/relu_5x5 -> inception_5a/5x5 (in-place)
I0503 18:47:13.167212  3078 net.cpp:150] Setting up inception_5a/relu_5x5
I0503 18:47:13.167222  3078 net.cpp:157] Top shape: 16 128 7 7 (100352)
I0503 18:47:13.167223  3078 net.cpp:165] Memory required for data: 867529368
I0503 18:47:13.167227  3078 layer_factory.hpp:77] Creating layer inception_5a/pool
I0503 18:47:13.167232  3078 net.cpp:106] Creating Layer inception_5a/pool
I0503 18:47:13.167235  3078 net.cpp:454] inception_5a/pool <- pool4/3x3_s2_pool4/3x3_s2_0_split_3
I0503 18:47:13.167240  3078 net.cpp:411] inception_5a/pool -> inception_5a/pool
I0503 18:47:13.167280  3078 net.cpp:150] Setting up inception_5a/pool
I0503 18:47:13.167289  3078 net.cpp:157] Top shape: 16 832 7 7 (652288)
I0503 18:47:13.167295  3078 net.cpp:165] Memory required for data: 870138520
I0503 18:47:13.167297  3078 layer_factory.hpp:77] Creating layer inception_5a/pool_proj
I0503 18:47:13.167306  3078 net.cpp:106] Creating Layer inception_5a/pool_proj
I0503 18:47:13.167309  3078 net.cpp:454] inception_5a/pool_proj <- inception_5a/pool
I0503 18:47:13.167315  3078 net.cpp:411] inception_5a/pool_proj -> inception_5a/pool_proj
I0503 18:47:13.168740  3078 net.cpp:150] Setting up inception_5a/pool_proj
I0503 18:47:13.168750  3078 net.cpp:157] Top shape: 16 128 7 7 (100352)
I0503 18:47:13.168753  3078 net.cpp:165] Memory required for data: 870539928
I0503 18:47:13.168758  3078 layer_factory.hpp:77] Creating layer inception_5a/relu_pool_proj
I0503 18:47:13.168764  3078 net.cpp:106] Creating Layer inception_5a/relu_pool_proj
I0503 18:47:13.168767  3078 net.cpp:454] inception_5a/relu_pool_proj <- inception_5a/pool_proj
I0503 18:47:13.168772  3078 net.cpp:397] inception_5a/relu_pool_proj -> inception_5a/pool_proj (in-place)
I0503 18:47:13.168987  3078 net.cpp:150] Setting up inception_5a/relu_pool_proj
I0503 18:47:13.168995  3078 net.cpp:157] Top shape: 16 128 7 7 (100352)
I0503 18:47:13.169000  3078 net.cpp:165] Memory required for data: 870941336
I0503 18:47:13.169003  3078 layer_factory.hpp:77] Creating layer inception_5a/output
I0503 18:47:13.169009  3078 net.cpp:106] Creating Layer inception_5a/output
I0503 18:47:13.169013  3078 net.cpp:454] inception_5a/output <- inception_5a/1x1
I0503 18:47:13.169016  3078 net.cpp:454] inception_5a/output <- inception_5a/3x3
I0503 18:47:13.169020  3078 net.cpp:454] inception_5a/output <- inception_5a/5x5
I0503 18:47:13.169023  3078 net.cpp:454] inception_5a/output <- inception_5a/pool_proj
I0503 18:47:13.169028  3078 net.cpp:411] inception_5a/output -> inception_5a/output
I0503 18:47:13.169054  3078 net.cpp:150] Setting up inception_5a/output
I0503 18:47:13.169059  3078 net.cpp:157] Top shape: 16 832 7 7 (652288)
I0503 18:47:13.169061  3078 net.cpp:165] Memory required for data: 873550488
I0503 18:47:13.169064  3078 layer_factory.hpp:77] Creating layer inception_5a/output_inception_5a/output_0_split
I0503 18:47:13.169070  3078 net.cpp:106] Creating Layer inception_5a/output_inception_5a/output_0_split
I0503 18:47:13.169072  3078 net.cpp:454] inception_5a/output_inception_5a/output_0_split <- inception_5a/output
I0503 18:47:13.169077  3078 net.cpp:411] inception_5a/output_inception_5a/output_0_split -> inception_5a/output_inception_5a/output_0_split_0
I0503 18:47:13.169083  3078 net.cpp:411] inception_5a/output_inception_5a/output_0_split -> inception_5a/output_inception_5a/output_0_split_1
I0503 18:47:13.169088  3078 net.cpp:411] inception_5a/output_inception_5a/output_0_split -> inception_5a/output_inception_5a/output_0_split_2
I0503 18:47:13.169093  3078 net.cpp:411] inception_5a/output_inception_5a/output_0_split -> inception_5a/output_inception_5a/output_0_split_3
I0503 18:47:13.169147  3078 net.cpp:150] Setting up inception_5a/output_inception_5a/output_0_split
I0503 18:47:13.169152  3078 net.cpp:157] Top shape: 16 832 7 7 (652288)
I0503 18:47:13.169154  3078 net.cpp:157] Top shape: 16 832 7 7 (652288)
I0503 18:47:13.169157  3078 net.cpp:157] Top shape: 16 832 7 7 (652288)
I0503 18:47:13.169160  3078 net.cpp:157] Top shape: 16 832 7 7 (652288)
I0503 18:47:13.169163  3078 net.cpp:165] Memory required for data: 883987096
I0503 18:47:13.169167  3078 layer_factory.hpp:77] Creating layer inception_5b/1x1
I0503 18:47:13.169173  3078 net.cpp:106] Creating Layer inception_5b/1x1
I0503 18:47:13.169176  3078 net.cpp:454] inception_5b/1x1 <- inception_5a/output_inception_5a/output_0_split_0
I0503 18:47:13.169181  3078 net.cpp:411] inception_5b/1x1 -> inception_5b/1x1
I0503 18:47:13.171794  3078 net.cpp:150] Setting up inception_5b/1x1
I0503 18:47:13.171803  3078 net.cpp:157] Top shape: 16 384 7 7 (301056)
I0503 18:47:13.171808  3078 net.cpp:165] Memory required for data: 885191320
I0503 18:47:13.171814  3078 layer_factory.hpp:77] Creating layer inception_5b/relu_1x1
I0503 18:47:13.171823  3078 net.cpp:106] Creating Layer inception_5b/relu_1x1
I0503 18:47:13.171828  3078 net.cpp:454] inception_5b/relu_1x1 <- inception_5b/1x1
I0503 18:47:13.171833  3078 net.cpp:397] inception_5b/relu_1x1 -> inception_5b/1x1 (in-place)
I0503 18:47:13.171965  3078 net.cpp:150] Setting up inception_5b/relu_1x1
I0503 18:47:13.171972  3078 net.cpp:157] Top shape: 16 384 7 7 (301056)
I0503 18:47:13.171975  3078 net.cpp:165] Memory required for data: 886395544
I0503 18:47:13.171978  3078 layer_factory.hpp:77] Creating layer inception_5b/3x3_reduce
I0503 18:47:13.171986  3078 net.cpp:106] Creating Layer inception_5b/3x3_reduce
I0503 18:47:13.171989  3078 net.cpp:454] inception_5b/3x3_reduce <- inception_5a/output_inception_5a/output_0_split_1
I0503 18:47:13.171995  3078 net.cpp:411] inception_5b/3x3_reduce -> inception_5b/3x3_reduce
I0503 18:47:13.173790  3078 net.cpp:150] Setting up inception_5b/3x3_reduce
I0503 18:47:13.173800  3078 net.cpp:157] Top shape: 16 192 7 7 (150528)
I0503 18:47:13.173804  3078 net.cpp:165] Memory required for data: 886997656
I0503 18:47:13.173809  3078 layer_factory.hpp:77] Creating layer inception_5b/relu_3x3_reduce
I0503 18:47:13.173815  3078 net.cpp:106] Creating Layer inception_5b/relu_3x3_reduce
I0503 18:47:13.173817  3078 net.cpp:454] inception_5b/relu_3x3_reduce <- inception_5b/3x3_reduce
I0503 18:47:13.173822  3078 net.cpp:397] inception_5b/relu_3x3_reduce -> inception_5b/3x3_reduce (in-place)
I0503 18:47:13.174043  3078 net.cpp:150] Setting up inception_5b/relu_3x3_reduce
I0503 18:47:13.174052  3078 net.cpp:157] Top shape: 16 192 7 7 (150528)
I0503 18:47:13.174055  3078 net.cpp:165] Memory required for data: 887599768
I0503 18:47:13.174058  3078 layer_factory.hpp:77] Creating layer inception_5b/3x3
I0503 18:47:13.174067  3078 net.cpp:106] Creating Layer inception_5b/3x3
I0503 18:47:13.174070  3078 net.cpp:454] inception_5b/3x3 <- inception_5b/3x3_reduce
I0503 18:47:13.174075  3078 net.cpp:411] inception_5b/3x3 -> inception_5b/3x3
I0503 18:47:13.178447  3078 net.cpp:150] Setting up inception_5b/3x3
I0503 18:47:13.178457  3078 net.cpp:157] Top shape: 16 384 7 7 (301056)
I0503 18:47:13.178459  3078 net.cpp:165] Memory required for data: 888803992
I0503 18:47:13.178464  3078 layer_factory.hpp:77] Creating layer inception_5b/relu_3x3
I0503 18:47:13.178470  3078 net.cpp:106] Creating Layer inception_5b/relu_3x3
I0503 18:47:13.178474  3078 net.cpp:454] inception_5b/relu_3x3 <- inception_5b/3x3
I0503 18:47:13.178478  3078 net.cpp:397] inception_5b/relu_3x3 -> inception_5b/3x3 (in-place)
I0503 18:47:13.178690  3078 net.cpp:150] Setting up inception_5b/relu_3x3
I0503 18:47:13.178699  3078 net.cpp:157] Top shape: 16 384 7 7 (301056)
I0503 18:47:13.178702  3078 net.cpp:165] Memory required for data: 890008216
I0503 18:47:13.178706  3078 layer_factory.hpp:77] Creating layer inception_5b/5x5_reduce
I0503 18:47:13.178714  3078 net.cpp:106] Creating Layer inception_5b/5x5_reduce
I0503 18:47:13.178716  3078 net.cpp:454] inception_5b/5x5_reduce <- inception_5a/output_inception_5a/output_0_split_2
I0503 18:47:13.178724  3078 net.cpp:411] inception_5b/5x5_reduce -> inception_5b/5x5_reduce
I0503 18:47:13.179980  3078 net.cpp:150] Setting up inception_5b/5x5_reduce
I0503 18:47:13.179991  3078 net.cpp:157] Top shape: 16 48 7 7 (37632)
I0503 18:47:13.179993  3078 net.cpp:165] Memory required for data: 890158744
I0503 18:47:13.179998  3078 layer_factory.hpp:77] Creating layer inception_5b/relu_5x5_reduce
I0503 18:47:13.180004  3078 net.cpp:106] Creating Layer inception_5b/relu_5x5_reduce
I0503 18:47:13.180007  3078 net.cpp:454] inception_5b/relu_5x5_reduce <- inception_5b/5x5_reduce
I0503 18:47:13.180012  3078 net.cpp:397] inception_5b/relu_5x5_reduce -> inception_5b/5x5_reduce (in-place)
I0503 18:47:13.180142  3078 net.cpp:150] Setting up inception_5b/relu_5x5_reduce
I0503 18:47:13.180148  3078 net.cpp:157] Top shape: 16 48 7 7 (37632)
I0503 18:47:13.180151  3078 net.cpp:165] Memory required for data: 890309272
I0503 18:47:13.180158  3078 layer_factory.hpp:77] Creating layer inception_5b/5x5
I0503 18:47:13.180171  3078 net.cpp:106] Creating Layer inception_5b/5x5
I0503 18:47:13.180176  3078 net.cpp:454] inception_5b/5x5 <- inception_5b/5x5_reduce
I0503 18:47:13.180181  3078 net.cpp:411] inception_5b/5x5 -> inception_5b/5x5
I0503 18:47:13.181771  3078 net.cpp:150] Setting up inception_5b/5x5
I0503 18:47:13.181782  3078 net.cpp:157] Top shape: 16 128 7 7 (100352)
I0503 18:47:13.181784  3078 net.cpp:165] Memory required for data: 890710680
I0503 18:47:13.181789  3078 layer_factory.hpp:77] Creating layer inception_5b/relu_5x5
I0503 18:47:13.181794  3078 net.cpp:106] Creating Layer inception_5b/relu_5x5
I0503 18:47:13.181797  3078 net.cpp:454] inception_5b/relu_5x5 <- inception_5b/5x5
I0503 18:47:13.181802  3078 net.cpp:397] inception_5b/relu_5x5 -> inception_5b/5x5 (in-place)
I0503 18:47:13.182014  3078 net.cpp:150] Setting up inception_5b/relu_5x5
I0503 18:47:13.182023  3078 net.cpp:157] Top shape: 16 128 7 7 (100352)
I0503 18:47:13.182025  3078 net.cpp:165] Memory required for data: 891112088
I0503 18:47:13.182029  3078 layer_factory.hpp:77] Creating layer inception_5b/pool
I0503 18:47:13.182035  3078 net.cpp:106] Creating Layer inception_5b/pool
I0503 18:47:13.182039  3078 net.cpp:454] inception_5b/pool <- inception_5a/output_inception_5a/output_0_split_3
I0503 18:47:13.182044  3078 net.cpp:411] inception_5b/pool -> inception_5b/pool
I0503 18:47:13.182086  3078 net.cpp:150] Setting up inception_5b/pool
I0503 18:47:13.182091  3078 net.cpp:157] Top shape: 16 832 7 7 (652288)
I0503 18:47:13.182095  3078 net.cpp:165] Memory required for data: 893721240
I0503 18:47:13.182097  3078 layer_factory.hpp:77] Creating layer inception_5b/pool_proj
I0503 18:47:13.182104  3078 net.cpp:106] Creating Layer inception_5b/pool_proj
I0503 18:47:13.182108  3078 net.cpp:454] inception_5b/pool_proj <- inception_5b/pool
I0503 18:47:13.182112  3078 net.cpp:411] inception_5b/pool_proj -> inception_5b/pool_proj
I0503 18:47:13.183631  3078 net.cpp:150] Setting up inception_5b/pool_proj
I0503 18:47:13.183641  3078 net.cpp:157] Top shape: 16 128 7 7 (100352)
I0503 18:47:13.183645  3078 net.cpp:165] Memory required for data: 894122648
I0503 18:47:13.183650  3078 layer_factory.hpp:77] Creating layer inception_5b/relu_pool_proj
I0503 18:47:13.183655  3078 net.cpp:106] Creating Layer inception_5b/relu_pool_proj
I0503 18:47:13.183660  3078 net.cpp:454] inception_5b/relu_pool_proj <- inception_5b/pool_proj
I0503 18:47:13.183665  3078 net.cpp:397] inception_5b/relu_pool_proj -> inception_5b/pool_proj (in-place)
I0503 18:47:13.183879  3078 net.cpp:150] Setting up inception_5b/relu_pool_proj
I0503 18:47:13.183887  3078 net.cpp:157] Top shape: 16 128 7 7 (100352)
I0503 18:47:13.183890  3078 net.cpp:165] Memory required for data: 894524056
I0503 18:47:13.183893  3078 layer_factory.hpp:77] Creating layer inception_5b/output
I0503 18:47:13.183899  3078 net.cpp:106] Creating Layer inception_5b/output
I0503 18:47:13.183902  3078 net.cpp:454] inception_5b/output <- inception_5b/1x1
I0503 18:47:13.183907  3078 net.cpp:454] inception_5b/output <- inception_5b/3x3
I0503 18:47:13.183910  3078 net.cpp:454] inception_5b/output <- inception_5b/5x5
I0503 18:47:13.183913  3078 net.cpp:454] inception_5b/output <- inception_5b/pool_proj
I0503 18:47:13.183917  3078 net.cpp:411] inception_5b/output -> inception_5b/output
I0503 18:47:13.183945  3078 net.cpp:150] Setting up inception_5b/output
I0503 18:47:13.183950  3078 net.cpp:157] Top shape: 16 1024 7 7 (802816)
I0503 18:47:13.183954  3078 net.cpp:165] Memory required for data: 897735320
I0503 18:47:13.183956  3078 layer_factory.hpp:77] Creating layer pool5/7x7_s1
I0503 18:47:13.183960  3078 net.cpp:106] Creating Layer pool5/7x7_s1
I0503 18:47:13.183964  3078 net.cpp:454] pool5/7x7_s1 <- inception_5b/output
I0503 18:47:13.183969  3078 net.cpp:411] pool5/7x7_s1 -> pool5/7x7_s1
I0503 18:47:13.184114  3078 net.cpp:150] Setting up pool5/7x7_s1
I0503 18:47:13.184123  3078 net.cpp:157] Top shape: 16 1024 1 1 (16384)
I0503 18:47:13.184125  3078 net.cpp:165] Memory required for data: 897800856
I0503 18:47:13.184130  3078 layer_factory.hpp:77] Creating layer pool5/drop_7x7_s1
I0503 18:47:13.184140  3078 net.cpp:106] Creating Layer pool5/drop_7x7_s1
I0503 18:47:13.184144  3078 net.cpp:454] pool5/drop_7x7_s1 <- pool5/7x7_s1
I0503 18:47:13.184147  3078 net.cpp:397] pool5/drop_7x7_s1 -> pool5/7x7_s1 (in-place)
I0503 18:47:13.184172  3078 net.cpp:150] Setting up pool5/drop_7x7_s1
I0503 18:47:13.184177  3078 net.cpp:157] Top shape: 16 1024 1 1 (16384)
I0503 18:47:13.184180  3078 net.cpp:165] Memory required for data: 897866392
I0503 18:47:13.184182  3078 layer_factory.hpp:77] Creating layer loss3/classifier_foodCAT_googlenet_food101
I0503 18:47:13.184190  3078 net.cpp:106] Creating Layer loss3/classifier_foodCAT_googlenet_food101
I0503 18:47:13.184192  3078 net.cpp:454] loss3/classifier_foodCAT_googlenet_food101 <- pool5/7x7_s1
I0503 18:47:13.184197  3078 net.cpp:411] loss3/classifier_foodCAT_googlenet_food101 -> loss3/classifier_foodCAT_googlenet_food101
I0503 18:47:13.185611  3078 net.cpp:150] Setting up loss3/classifier_foodCAT_googlenet_food101
I0503 18:47:13.185621  3078 net.cpp:157] Top shape: 16 218 (3488)
I0503 18:47:13.185623  3078 net.cpp:165] Memory required for data: 897880344
I0503 18:47:13.185629  3078 layer_factory.hpp:77] Creating layer loss3/classifier_foodCAT_googlenet_food101_loss3/classifier_foodCAT_googlenet_food101_0_split
I0503 18:47:13.185634  3078 net.cpp:106] Creating Layer loss3/classifier_foodCAT_googlenet_food101_loss3/classifier_foodCAT_googlenet_food101_0_split
I0503 18:47:13.185637  3078 net.cpp:454] loss3/classifier_foodCAT_googlenet_food101_loss3/classifier_foodCAT_googlenet_food101_0_split <- loss3/classifier_foodCAT_googlenet_food101
I0503 18:47:13.185643  3078 net.cpp:411] loss3/classifier_foodCAT_googlenet_food101_loss3/classifier_foodCAT_googlenet_food101_0_split -> loss3/classifier_foodCAT_googlenet_food101_loss3/classifier_foodCAT_googlenet_food101_0_split_0
I0503 18:47:13.185649  3078 net.cpp:411] loss3/classifier_foodCAT_googlenet_food101_loss3/classifier_foodCAT_googlenet_food101_0_split -> loss3/classifier_foodCAT_googlenet_food101_loss3/classifier_foodCAT_googlenet_food101_0_split_1
I0503 18:47:13.185654  3078 net.cpp:411] loss3/classifier_foodCAT_googlenet_food101_loss3/classifier_foodCAT_googlenet_food101_0_split -> loss3/classifier_foodCAT_googlenet_food101_loss3/classifier_foodCAT_googlenet_food101_0_split_2
I0503 18:47:13.185703  3078 net.cpp:150] Setting up loss3/classifier_foodCAT_googlenet_food101_loss3/classifier_foodCAT_googlenet_food101_0_split
I0503 18:47:13.185708  3078 net.cpp:157] Top shape: 16 218 (3488)
I0503 18:47:13.185713  3078 net.cpp:157] Top shape: 16 218 (3488)
I0503 18:47:13.185715  3078 net.cpp:157] Top shape: 16 218 (3488)
I0503 18:47:13.185719  3078 net.cpp:165] Memory required for data: 897922200
I0503 18:47:13.185721  3078 layer_factory.hpp:77] Creating layer loss3/loss3
I0503 18:47:13.185726  3078 net.cpp:106] Creating Layer loss3/loss3
I0503 18:47:13.185730  3078 net.cpp:454] loss3/loss3 <- loss3/classifier_foodCAT_googlenet_food101_loss3/classifier_foodCAT_googlenet_food101_0_split_0
I0503 18:47:13.185734  3078 net.cpp:454] loss3/loss3 <- label_data_1_split_6
…
