…
I0616 20:11:26.095990 42879 net.cpp:322] The NetState phase (0) differed from the phase (1) specified by a rule in layer loss3/top-5
I0616 20:11:26.097079 42879 net.cpp:49] Initializing net from parameters: 
name: "foodCAT_food101_googlenet"
state {
  phase: TRAIN
}
layer {
  name: "data"
  type: "ImageData"
  top: "data"
  top: "label"
  include {
    phase: TRAIN
  }
  transform_param {
    mirror: true
    crop_size: 224
    mean_value: 104
    mean_value: 117
    mean_value: 123
  }
  image_data_param {
    source: "foodCAT_resized_balanced/train.txt"
    batch_size: 64
    shuffle: true
    new_height: 256
    new_width: 256
  }
}
layer {
  name: "conv1/7x7_s2"
  type: "Convolution"
  bottom: "data"
  top: "conv1/7x7_s2"
  param {
    lr_mult: 1
    decay_mult: 1
  }
  param {
    lr_mult: 2
    decay_mult: 0
  }
  convolution_param {
    num_output: 64
    pad: 3
    kernel_size: 7
    stride: 2
    weight_filler {
      type: "xavier"
      std: 0.1
    }
    bias_filler {
      type: "constant"
      value: 0.2
    }
  }
}
layer {
  name: "conv1/relu_7x7"
  type: "ReLU"
  bottom: "conv1/7x7_s2"
  top: "conv1/7x7_s2"
}
layer {
  name: "pool1/3x3_s2"
  type: "Pooling"
  bottom: "conv1/7x7_s2"
  top: "pool1/3x3_s2"
  pooling_param {
    pool: MAX
    kernel_size: 3
    stride: 2
  }
}
layer {
  name: "pool1/norm1"
  type: "LRN"
  bottom: "pool1/3x3_s2"
  top: "pool1/norm1"
  lrn_param {
    local_size: 5
    alpha: 0.0001
    beta: 0.75
  }
}
layer {
  name: "conv2/3x3_reduce"
  type: "Convolution"
  bottom: "pool1/norm1"
  top: "conv2/3x3_reduce"
  param {
    lr_mult: 1
    decay_mult: 1
  }
  param {
    lr_mult: 2
    decay_mult: 0
  }
  convolution_param {
    num_output: 64
    kernel_size: 1
    weight_filler {
      type: "xavier"
      std: 0.1
    }
    bias_filler {
      type: "constant"
      value: 0.2
    }
  }
}
layer {
  name: "conv2/relu_3x3_reduce"
  type: "ReLU"
  bottom: "conv2/3x3_reduce"
  top: "conv2/3x3_reduce"
}
layer {
  name: "conv2/3x3"
  type: "Convolution"
  bottom: "conv2/3x3_reduce"
  top: "conv2/3x3"
  param {
    lr_mult: 1
    decay_mult: 1
  }
  param {
    lr_mult: 2
    decay_mult: 0
  }
  convolution_param {
    num_output: 192
    pad: 1
    kernel_size: 3
    weight_filler {
      type: "xavier"
      std: 0.03
    }
    bias_filler {
      type: "constant"
      value: 0.2
    }
  }
}
layer {
  name: "conv2/relu_3x3"
  type: "ReLU"
  bottom: "conv2/3x3"
  top: "conv2/3x3"
}
layer {
  name: "conv2/norm2"
  type: "LRN"
  bottom: "conv2/3x3"
  top: "conv2/norm2"
  lrn_param {
    local_size: 5
    alpha: 0.0001
    beta: 0.75
  }
}
layer {
  name: "pool2/3x3_s2"
  type: "Pooling"
  bottom: "conv2/norm2"
  top: "pool2/3x3_s2"
  pooling_param {
    pool: MAX
    kernel_size: 3
    stride: 2
  }
}
layer {
  name: "inception_3a/1x1"
  type: "Convolution"
  bottom: "pool2/3x3_s2"
  top: "inception_3a/1x1"
  param {
    lr_mult: 1
    decay_mult: 1
  }
  param {
    lr_mult: 2
    decay_mult: 0
  }
  convolution_param {
    num_output: 64
    kernel_size: 1
    weight_filler {
      type: "xavier"
      std: 0.03
    }
    bias_filler {
      type: "constant"
      value: 0.2
    }
  }
}
layer {
  name: "inception_3a/relu_1x1"
  type: "ReLU"
  bottom: "inception_3a/1x1"
  top: "inception_3a/1x1"
}
layer {
  name: "inception_3a/3x3_reduce"
  type: "Convolution"
  bottom: "pool2/3x3_s2"
  top: "inception_3a/3x3_reduce"
  param {
    lr_mult: 1
    decay_mult: 1
  }
  param {
    lr_mult: 2
    decay_mult: 0
  }
  convolution_param {
    num_output: 96
    kernel_size: 1
    weight_filler {
      type: "xavier"
      std: 0.09
    }
    bias_filler {
      type: "constant"
      value: 0.2
    }
  }
}
layer {
  name: "inception_3a/relu_3x3_reduce"
  type: "ReLU"
  bottom: "inception_3a/3x3_reduce"
  top: "inception_3a/3x3_reduce"
}
layer {
  name: "inception_3a/3x3"
  type: "Convolution"
  bottom: "inception_3a/3x3_reduce"
  top: "inception_3a/3x3"
  param {
    lr_mult: 1
    decay_mult: 1
  }
  param {
    lr_mult: 2
    decay_mult: 0
  }
  convolution_param {
    num_output: 128
    pad: 1
    kernel_size: 3
    weight_filler {
      type: "xavier"
      std: 0.03
    }
    bias_filler {
      type: "constant"
      value: 0.2
    }
  }
}
layer {
  name: "inception_3a/relu_3x3"
  type: "ReLU"
  bottom: "inception_3a/3x3"
  top: "inception_3a/3x3"
}
layer {
  name: "inception_3a/5x5_reduce"
  type: "Convolution"
  bottom: "pool2/3x3_s2"
  top: "inception_3a/5x5_reduce"
  param {
    lr_mult: 1
    decay_mult: 1
  }
  param {
    lr_mult: 2
    decay_mult: 0
  }
  convolution_param {
    num_output: 16
    kernel_size: 1
    weight_filler {
      type: "xavier"
      std: 0.2
    }
    bias_filler {
      type: "constant"
      value: 0.2
    }
  }
}
layer {
  name: "inception_3a/relu_5x5_reduce"
  type: "ReLU"
  bottom: "inception_3a/5x5_reduce"
  top: "inception_3a/5x5_reduce"
}
layer {
  name: "inception_3a/5x5"
  type: "Convolution"
  bottom: "inception_3a/5x5_reduce"
  top: "inception_3a/5x5"
  param {
    lr_mult: 1
    decay_mult: 1
  }
  param {
    lr_mult: 2
    decay_mult: 0
  }
  convolution_param {
    num_output: 32
    pad: 2
    kernel_size: 5
    weight_filler {
      type: "xavier"
      std: 0.03
    }
    bias_filler {
      type: "constant"
      value: 0.2
    }
  }
}
layer {
  name: "inception_3a/relu_5x5"
  type: "ReLU"
  bottom: "inception_3a/5x5"
  top: "inception_3a/5x5"
}
layer {
  name: "inception_3a/pool"
  type: "Pooling"
  bottom: "pool2/3x3_s2"
  top: "inception_3a/pool"
  pooling_param {
    pool: MAX
    kernel_size: 3
    stride: 1
    pad: 1
  }
}
layer {
  name: "inception_3a/pool_proj"
  type: "Convolution"
  bottom: "inception_3a/pool"
  top: "inception_3a/pool_proj"
  param {
    lr_mult: 1
    decay_mult: 1
  }
  param {
    lr_mult: 2
    decay_mult: 0
  }
  convolution_param {
    num_output: 32
    kernel_size: 1
    weight_filler {
      type: "xavier"
      std: 0.1
    }
    bias_filler {
      type: "constant"
      value: 0.2
    }
  }
}
layer {
  name: "inception_3a/relu_pool_proj"
  type: "ReLU"
  bottom: "inception_3a/pool_proj"
  top: "inception_3a/pool_proj"
}
layer {
  name: "inception_3a/output"
  type: "Concat"
  bottom: "inception_3a/1x1"
  bottom: "inception_3a/3x3"
  bottom: "inception_3a/5x5"
  bottom: "inception_3a/pool_proj"
  top: "inception_3a/output"
}
layer {
  name: "inception_3b/1x1"
  type: "Convolution"
  bottom: "inception_3a/output"
  top: "inception_3b/1x1"
  param {
    lr_mult: 1
    decay_mult: 1
  }
  param {
    lr_mult: 2
    decay_mult: 0
  }
  convolution_param {
    num_output: 128
    kernel_size: 1
    weight_filler {
      type: "xavier"
      std: 0.03
    }
    bias_filler {
      type: "constant"
      value: 0.2
    }
  }
}
layer {
  name: "inception_3b/relu_1x1"
  type: "ReLU"
  bottom: "inception_3b/1x1"
  top: "inception_3b/1x1"
}
layer {
  name: "inception_3b/3x3_reduce"
  type: "Convolution"
  bottom: "inception_3a/output"
  top: "inception_3b/3x3_reduce"
  param {
    lr_mult: 1
    decay_mult: 1
  }
  param {
    lr_mult: 2
    decay_mult: 0
  }
  convolution_param {
    num_output: 128
    kernel_size: 1
    weight_filler {
      type: "xavier"
      std: 0.09
    }
    bias_filler {
      type: "constant"
      value: 0.2
    }
  }
}
layer {
  name: "inception_3b/relu_3x3_reduce"
  type: "ReLU"
  bottom: "inception_3b/3x3_reduce"
  top: "inception_3b/3x3_reduce"
}
layer {
  name: "inception_3b/3x3"
  type: "Convolution"
  bottom: "inception_3b/3x3_reduce"
  top: "inception_3b/3x3"
  param {
    lr_mult: 1
    decay_mult: 1
  }
  param {
    lr_mult: 2
    decay_mult: 0
  }
  convolution_param {
    num_output: 192
    pad: 1
    kernel_size: 3
    weight_filler {
      type: "xavier"
      std: 0.03
    }
    bias_filler {
      type: "constant"
      value: 0.2
    }
  }
}
layer {
  name: "inception_3b/relu_3x3"
  type: "ReLU"
  bottom: "inception_3b/3x3"
  top: "inception_3b/3x3"
}
layer {
  name: "inception_3b/5x5_reduce"
  type: "Convolution"
  bottom: "inception_3a/output"
  top: "inception_3b/5x5_reduce"
  param {
    lr_mult: 1
    decay_mult: 1
  }
  param {
    lr_mult: 2
    decay_mult: 0
  }
  convolution_param {
    num_output: 32
    kernel_size: 1
    weight_filler {
      type: "xavier"
      std: 0.2
    }
    bias_filler {
      type: "constant"
      value: 0.2
    }
  }
}
layer {
  name: "inception_3b/relu_5x5_reduce"
  type: "ReLU"
  bottom: "inception_3b/5x5_reduce"
  top: "inception_3b/5x5_reduce"
}
layer {
  name: "inception_3b/5x5"
  type: "Convolution"
  bottom: "inception_3b/5x5_reduce"
  top: "inception_3b/5x5"
  param {
    lr_mult: 1
    decay_mult: 1
  }
  param {
    lr_mult: 2
    decay_mult: 0
  }
  convolution_param {
    num_output: 96
    pad: 2
    kernel_size: 5
    weight_filler {
      type: "xavier"
      std: 0.03
    }
    bias_filler {
      type: "constant"
      value: 0.2
    }
  }
}
layer {
  name: "inception_3b/relu_5x5"
  type: "ReLU"
  bottom: "inception_3b/5x5"
  top: "inception_3b/5x5"
}
layer {
  name: "inception_3b/pool"
  type: "Pooling"
  bottom: "inception_3a/output"
  top: "inception_3b/pool"
  pooling_param {
    pool: MAX
    kernel_size: 3
    stride: 1
    pad: 1
  }
}
layer {
  name: "inception_3b/pool_proj"
  type: "Convolution"
  bottom: "inception_3b/pool"
  top: "inception_3b/pool_proj"
  param {
    lr_mult: 1
    decay_mult: 1
  }
  param {
    lr_mult: 2
    decay_mult: 0
  }
  convolution_param {
    num_output: 64
    kernel_size: 1
    weight_filler {
      type: "xavier"
      std: 0.1
    }
    bias_filler {
      type: "constant"
      value: 0.2
    }
  }
}
layer {
  name: "inception_3b/relu_pool_proj"
  type: "ReLU"
  bottom: "inception_3b/pool_proj"
  top: "inception_3b/pool_proj"
}
layer {
  name: "inception_3b/output"
  type: "Concat"
  bottom: "inception_3b/1x1"
  bottom: "inception_3b/3x3"
  bottom: "inception_3b/5x5"
  bottom: "inception_3b/pool_proj"
  top: "inception_3b/output"
}
layer {
  name: "pool3/3x3_s2"
  type: "Pooling"
  bottom: "inception_3b/output"
  top: "pool3/3x3_s2"
  pooling_param {
    pool: MAX
    kernel_size: 3
    stride: 2
  }
}
layer {
  name: "inception_4a/1x1"
  type: "Convolution"
  bottom: "pool3/3x3_s2"
  top: "inception_4a/1x1"
  param {
    lr_mult: 1
    decay_mult: 1
  }
  param {
    lr_mult: 2
    decay_mult: 0
  }
  convolution_param {
    num_output: 192
    kernel_size: 1
    weight_filler {
      type: "xavier"
      std: 0.03
    }
    bias_filler {
      type: "constant"
      value: 0.2
    }
  }
}
layer {
  name: "inception_4a/relu_1x1"
  type: "ReLU"
  bottom: "inception_4a/1x1"
  top: "inception_4a/1x1"
}
layer {
  name: "inception_4a/3x3_reduce"
  type: "Convolution"
  bottom: "pool3/3x3_s2"
  top: "inception_4a/3x3_reduce"
  param {
    lr_mult: 1
    decay_mult: 1
  }
  param {
    lr_mult: 2
    decay_mult: 0
  }
  convolution_param {
    num_output: 96
    kernel_size: 1
    weight_filler {
      type: "xavier"
      std: 0.09
    }
    bias_filler {
      type: "constant"
      value: 0.2
    }
  }
}
layer {
  name: "inception_4a/relu_3x3_reduce"
  type: "ReLU"
  bottom: "inception_4a/3x3_reduce"
  top: "inception_4a/3x3_reduce"
}
layer {
  name: "inception_4a/3x3"
  type: "Convolution"
  bottom: "inception_4a/3x3_reduce"
  top: "inception_4a/3x3"
  param {
    lr_mult: 1
    decay_mult: 1
  }
  param {
    lr_mult: 2
    decay_mult: 0
  }
  convolution_param {
    num_output: 208
    pad: 1
    kernel_size: 3
    weight_filler {
      type: "xavier"
      std: 0.03
    }
    bias_filler {
      type: "constant"
      value: 0.2
    }
  }
}
layer {
  name: "inception_4a/relu_3x3"
  type: "ReLU"
  bottom: "inception_4a/3x3"
  top: "inception_4a/3x3"
}
layer {
  name: "inception_4a/5x5_reduce"
  type: "Convolution"
  bottom: "pool3/3x3_s2"
  top: "inception_4a/5x5_reduce"
  param {
    lr_mult: 1
    decay_mult: 1
  }
  param {
    lr_mult: 2
    decay_mult: 0
  }
  convolution_param {
    num_output: 16
    kernel_size: 1
    weight_filler {
      type: "xavier"
      std: 0.2
    }
    bias_filler {
      type: "constant"
      value: 0.2
    }
  }
}
layer {
  name: "inception_4a/relu_5x5_reduce"
  type: "ReLU"
  bottom: "inception_4a/5x5_reduce"
  top: "inception_4a/5x5_reduce"
}
layer {
  name: "inception_4a/5x5"
  type: "Convolution"
  bottom: "inception_4a/5x5_reduce"
  top: "inception_4a/5x5"
  param {
    lr_mult: 1
    decay_mult: 1
  }
  param {
    lr_mult: 2
    decay_mult: 0
  }
  convolution_param {
    num_output: 48
    pad: 2
    kernel_size: 5
    weight_filler {
      type: "xavier"
      std: 0.03
    }
    bias_filler {
      type: "constant"
      value: 0.2
    }
  }
}
layer {
  name: "inception_4a/relu_5x5"
  type: "ReLU"
  bottom: "inception_4a/5x5"
  top: "inception_4a/5x5"
}
layer {
  name: "inception_4a/pool"
  type: "Pooling"
  bottom: "pool3/3x3_s2"
  top: "inception_4a/pool"
  pooling_param {
    pool: MAX
    kernel_size: 3
    stride: 1
    pad: 1
  }
}
layer {
  name: "inception_4a/pool_proj"
  type: "Convolution"
  bottom: "inception_4a/pool"
  top: "inception_4a/pool_proj"
  param {
    lr_mult: 1
    decay_mult: 1
  }
  param {
    lr_mult: 2
    decay_mult: 0
  }
  convolution_param {
    num_output: 64
    kernel_size: 1
    weight_filler {
      type: "xavier"
      std: 0.1
    }
    bias_filler {
      type: "constant"
      value: 0.2
    }
  }
}
layer {
  name: "inception_4a/relu_pool_proj"
  type: "ReLU"
  bottom: "inception_4a/pool_proj"
  top: "inception_4a/pool_proj"
}
layer {
  name: "inception_4a/output"
  type: "Concat"
  bottom: "inception_4a/1x1"
  bottom: "inception_4a/3x3"
  bottom: "inception_4a/5x5"
  bottom: "inception_4a/pool_proj"
  top: "inception_4a/output"
}
layer {
  name: "loss1/ave_pool"
  type: "Pooling"
  bottom: "inception_4a/output"
  top: "loss1/ave_pool"
  pooling_param {
    pool: AVE
    kernel_size: 5
    stride: 3
  }
}
layer {
  name: "loss1/conv"
  type: "Convolution"
  bottom: "loss1/ave_pool"
  top: "loss1/conv"
  param {
    lr_mult: 1
    decay_mult: 1
  }
  param {
    lr_mult: 2
    decay_mult: 0
  }
  convolution_param {
    num_output: 128
    kernel_size: 1
    weight_filler {
      type: "xavier"
      std: 0.08
    }
    bias_filler {
      type: "constant"
      value: 0.2
    }
  }
}
layer {
  name: "loss1/relu_conv"
  type: "ReLU"
  bottom: "loss1/conv"
  top: "loss1/conv"
}
layer {
  name: "loss1/fc"
  type: "InnerProduct"
  bottom: "loss1/conv"
  top: "loss1/fc"
  param {
    lr_mult: 1
    decay_mult: 1
  }
  param {
    lr_mult: 2
    decay_mult: 0
  }
  inner_product_param {
    num_output: 1024
    weight_filler {
      type: "xavier"
      std: 0.02
    }
    bias_filler {
      type: "constant"
      value: 0.2
    }
  }
}
layer {
  name: "loss1/relu_fc"
  type: "ReLU"
  bottom: "loss1/fc"
  top: "loss1/fc"
}
layer {
  name: "loss1/drop_fc"
  type: "Dropout"
  bottom: "loss1/fc"
  top: "loss1/fc"
  dropout_param {
    dropout_ratio: 0.7
  }
}
layer {
  name: "loss1/classifier"
  type: "InnerProduct"
  bottom: "loss1/fc"
  top: "loss1/classifier"
  param {
    lr_mult: 1
    decay_mult: 1
  }
  param {
    lr_mult: 2
    decay_mult: 0
  }
  inner_product_param {
    num_output: 1000
    weight_filler {
      type: "xavier"
      std: 0.0009765625
    }
    bias_filler {
      type: "constant"
      value: 0
    }
  }
}
layer {
  name: "loss1/loss"
  type: "SoftmaxWithLoss"
  bottom: "loss1/classifier"
  bottom: "label"
  top: "loss1/loss1"
  loss_weight: 0.3
}
layer {
  name: "inception_4b/1x1"
  type: "Convolution"
  bottom: "inception_4a/output"
  top: "inception_4b/1x1"
  param {
    lr_mult: 1
    decay_mult: 1
  }
  param {
    lr_mult: 2
    decay_mult: 0
  }
  convolution_param {
    num_output: 160
    kernel_size: 1
    weight_filler {
      type: "xavier"
      std: 0.03
    }
    bias_filler {
      type: "constant"
      value: 0.2
    }
  }
}
layer {
  name: "inception_4b/relu_1x1"
  type: "ReLU"
  bottom: "inception_4b/1x1"
  top: "inception_4b/1x1"
}
layer {
  name: "inception_4b/3x3_reduce"
  type: "Convolution"
  bottom: "inception_4a/output"
  top: "inception_4b/3x3_reduce"
  param {
    lr_mult: 1
    decay_mult: 1
  }
  param {
    lr_mult: 2
    decay_mult: 0
  }
  convolution_param {
    num_output: 112
    kernel_size: 1
    weight_filler {
      type: "xavier"
      std: 0.09
    }
    bias_filler {
      type: "constant"
      value: 0.2
    }
  }
}
layer {
  name: "inception_4b/relu_3x3_reduce"
  type: "ReLU"
  bottom: "inception_4b/3x3_reduce"
  top: "inception_4b/3x3_reduce"
}
layer {
  name: "inception_4b/3x3"
  type: "Convolution"
  bottom: "inception_4b/3x3_reduce"
  top: "inception_4b/3x3"
  param {
    lr_mult: 1
    decay_mult: 1
  }
  param {
    lr_mult: 2
    decay_mult: 0
  }
  convolution_param {
    num_output: 224
    pad: 1
    kernel_size: 3
    weight_filler {
      type: "xavier"
      std: 0.03
    }
    bias_filler {
      type: "constant"
      value: 0.2
    }
  }
}
layer {
  name: "inception_4b/relu_3x3"
  type: "ReLU"
  bottom: "inception_4b/3x3"
  top: "inception_4b/3x3"
}
layer {
  name: "inception_4b/5x5_reduce"
  type: "Convolution"
  bottom: "inception_4a/output"
  top: "inception_4b/5x5_reduce"
  param {
    lr_mult: 1
    decay_mult: 1
  }
  param {
    lr_mult: 2
    decay_mult: 0
  }
  convolution_param {
    num_output: 24
    kernel_size: 1
    weight_filler {
      type: "xavier"
      std: 0.2
    }
    bias_filler {
      type: "constant"
      value: 0.2
    }
  }
}
layer {
  name: "inception_4b/relu_5x5_reduce"
  type: "ReLU"
  bottom: "inception_4b/5x5_reduce"
  top: "inception_4b/5x5_reduce"
}
layer {
  name: "inception_4b/5x5"
  type: "Convolution"
  bottom: "inception_4b/5x5_reduce"
  top: "inception_4b/5x5"
  param {
    lr_mult: 1
    decay_mult: 1
  }
  param {
    lr_mult: 2
    decay_mult: 0
  }
  convolution_param {
    num_output: 64
    pad: 2
    kernel_size: 5
    weight_filler {
      type: "xavier"
      std: 0.03
    }
    bias_filler {
      type: "constant"
      value: 0.2
    }
  }
}
layer {
  name: "inception_4b/relu_5x5"
  type: "ReLU"
  bottom: "inception_4b/5x5"
  top: "inception_4b/5x5"
}
layer {
  name: "inception_4b/pool"
  type: "Pooling"
  bottom: "inception_4a/output"
  top: "inception_4b/pool"
  pooling_param {
    pool: MAX
    kernel_size: 3
    stride: 1
    pad: 1
  }
}
layer {
  name: "inception_4b/pool_proj"
  type: "Convolution"
  bottom: "inception_4b/pool"
  top: "inception_4b/pool_proj"
  param {
    lr_mult: 1
    decay_mult: 1
  }
  param {
    lr_mult: 2
    decay_mult: 0
  }
  convolution_param {
    num_output: 64
    kernel_size: 1
    weight_filler {
      type: "xavier"
      std: 0.1
    }
    bias_filler {
      type: "constant"
      value: 0.2
    }
  }
}
layer {
  name: "inception_4b/relu_pool_proj"
  type: "ReLU"
  bottom: "inception_4b/pool_proj"
  top: "inception_4b/pool_proj"
}
layer {
  name: "inception_4b/output"
  type: "Concat"
  bottom: "inception_4b/1x1"
  bottom: "inception_4b/3x3"
  bottom: "inception_4b/5x5"
  bottom: "inception_4b/pool_proj"
  top: "inception_4b/output"
}
layer {
  name: "inception_4c/1x1"
  type: "Convolution"
  bottom: "inception_4b/output"
  top: "inception_4c/1x1"
  param {
    lr_mult: 1
    decay_mult: 1
  }
  param {
    lr_mult: 2
    decay_mult: 0
  }
  convolution_param {
    num_output: 128
    kernel_size: 1
    weight_filler {
      type: "xavier"
      std: 0.03
    }
    bias_filler {
      type: "constant"
      value: 0.2
    }
  }
}
layer {
  name: "inception_4c/relu_1x1"
  type: "ReLU"
  bottom: "inception_4c/1x1"
  top: "inception_4c/1x1"
}
layer {
  name: "inception_4c/3x3_reduce"
  type: "Convolution"
  bottom: "inception_4b/output"
  top: "inception_4c/3x3_reduce"
  param {
    lr_mult: 1
    decay_mult: 1
  }
  param {
    lr_mult: 2
    decay_mult: 0
  }
  convolution_param {
    num_output: 128
    kernel_size: 1
    weight_filler {
      type: "xavier"
      std: 0.09
    }
    bias_filler {
      type: "constant"
      value: 0.2
    }
  }
}
layer {
  name: "inception_4c/relu_3x3_reduce"
  type: "ReLU"
  bottom: "inception_4c/3x3_reduce"
  top: "inception_4c/3x3_reduce"
}
layer {
  name: "inception_4c/3x3"
  type: "Convolution"
  bottom: "inception_4c/3x3_reduce"
  top: "inception_4c/3x3"
  param {
    lr_mult: 1
    decay_mult: 1
  }
  param {
    lr_mult: 2
    decay_mult: 0
  }
  convolution_param {
    num_output: 256
    pad: 1
    kernel_size: 3
    weight_filler {
      type: "xavier"
      std: 0.03
    }
    bias_filler {
      type: "constant"
      value: 0.2
    }
  }
}
layer {
  name: "inception_4c/relu_3x3"
  type: "ReLU"
  bottom: "inception_4c/3x3"
  top: "inception_4c/3x3"
}
layer {
  name: "inception_4c/5x5_reduce"
  type: "Convolution"
  bottom: "inception_4b/output"
  top: "inception_4c/5x5_reduce"
  param {
    lr_mult: 1
    decay_mult: 1
  }
  param {
    lr_mult: 2
    decay_mult: 0
  }
  convolution_param {
    num_output: 24
    kernel_size: 1
    weight_filler {
      type: "xavier"
      std: 0.2
    }
    bias_filler {
      type: "constant"
      value: 0.2
    }
  }
}
layer {
  name: "inception_4c/relu_5x5_reduce"
  type: "ReLU"
  bottom: "inception_4c/5x5_reduce"
  top: "inception_4c/5x5_reduce"
}
layer {
  name: "inception_4c/5x5"
  type: "Convolution"
  bottom: "inception_4c/5x5_reduce"
  top: "inception_4c/5x5"
  param {
    lr_mult: 1
    decay_mult: 1
  }
  param {
    lr_mult: 2
    decay_mult: 0
  }
  convolution_param {
    num_output: 64
    pad: 2
    kernel_size: 5
    weight_filler {
      type: "xavier"
      std: 0.03
    }
    bias_filler {
      type: "constant"
      value: 0.2
    }
  }
}
layer {
  name: "inception_4c/relu_5x5"
  type: "ReLU"
  bottom: "inception_4c/5x5"
  top: "inception_4c/5x5"
}
layer {
  name: "inception_4c/pool"
  type: "Pooling"
  bottom: "inception_4b/output"
  top: "inception_4c/pool"
  pooling_param {
    pool: MAX
    kernel_size: 3
    stride: 1
    pad: 1
  }
}
layer {
  name: "inception_4c/pool_proj"
  type: "Convolution"
  bottom: "inception_4c/pool"
  top: "inception_4c/pool_proj"
  param {
    lr_mult: 1
    decay_mult: 1
  }
  param {
    lr_mult: 2
    decay_mult: 0
  }
  convolution_param {
    num_output: 64
    kernel_size: 1
    weight_filler {
      type: "xavier"
      std: 0.1
    }
    bias_filler {
      type: "constant"
      value: 0.2
    }
  }
}
layer {
  name: "inception_4c/relu_pool_proj"
  type: "ReLU"
  bottom: "inception_4c/pool_proj"
  top: "inception_4c/pool_proj"
}
layer {
  name: "inception_4c/output"
  type: "Concat"
  bottom: "inception_4c/1x1"
  bottom: "inception_4c/3x3"
  bottom: "inception_4c/5x5"
  bottom: "inception_4c/pool_proj"
  top: "inception_4c/output"
}
layer {
  name: "inception_4d/1x1"
  type: "Convolution"
  bottom: "inception_4c/output"
  top: "inception_4d/1x1"
  param {
    lr_mult: 1
    decay_mult: 1
  }
  param {
    lr_mult: 2
    decay_mult: 0
  }
  convolution_param {
    num_output: 112
    kernel_size: 1
    weight_filler {
      type: "xavier"
      std: 0.03
    }
    bias_filler {
      type: "constant"
      value: 0.2
    }
  }
}
layer {
  name: "inception_4d/relu_1x1"
  type: "ReLU"
  bottom: "inception_4d/1x1"
  top: "inception_4d/1x1"
}
layer {
  name: "inception_4d/3x3_reduce"
  type: "Convolution"
  bottom: "inception_4c/output"
  top: "inception_4d/3x3_reduce"
  param {
    lr_mult: 1
    decay_mult: 1
  }
  param {
    lr_mult: 2
    decay_mult: 0
  }
  convolution_param {
    num_output: 144
    kernel_size: 1
    weight_filler {
      type: "xavier"
      std: 0.09
    }
    bias_filler {
      type: "constant"
      value: 0.2
    }
  }
}
layer {
  name: "inception_4d/relu_3x3_reduce"
  type: "ReLU"
  bottom: "inception_4d/3x3_reduce"
  top: "inception_4d/3x3_reduce"
}
layer {
  name: "inception_4d/3x3"
  type: "Convolution"
  bottom: "inception_4d/3x3_reduce"
  top: "inception_4d/3x3"
  param {
    lr_mult: 1
    decay_mult: 1
  }
  param {
    lr_mult: 2
    decay_mult: 0
  }
  convolution_param {
    num_output: 288
    pad: 1
    kernel_size: 3
    weight_filler {
      type: "xavier"
      std: 0.03
    }
    bias_filler {
      type: "constant"
      value: 0.2
    }
  }
}
layer {
  name: "inception_4d/relu_3x3"
  type: "ReLU"
  bottom: "inception_4d/3x3"
  top: "inception_4d/3x3"
}
layer {
  name: "inception_4d/5x5_reduce"
  type: "Convolution"
  bottom: "inception_4c/output"
  top: "inception_4d/5x5_reduce"
  param {
    lr_mult: 1
    decay_mult: 1
  }
  param {
    lr_mult: 2
    decay_mult: 0
  }
  convolution_param {
    num_output: 32
    kernel_size: 1
    weight_filler {
      type: "xavier"
      std: 0.2
    }
    bias_filler {
      type: "constant"
      value: 0.2
    }
  }
}
layer {
  name: "inception_4d/relu_5x5_reduce"
  type: "ReLU"
  bottom: "inception_4d/5x5_reduce"
  top: "inception_4d/5x5_reduce"
}
layer {
  name: "inception_4d/5x5"
  type: "Convolution"
  bottom: "inception_4d/5x5_reduce"
  top: "inception_4d/5x5"
  param {
    lr_mult: 1
    decay_mult: 1
  }
  param {
    lr_mult: 2
    decay_mult: 0
  }
  convolution_param {
    num_output: 64
    pad: 2
    kernel_size: 5
    weight_filler {
      type: "xavier"
      std: 0.03
    }
    bias_filler {
      type: "constant"
      value: 0.2
    }
  }
}
layer {
  name: "inception_4d/relu_5x5"
  type: "ReLU"
  bottom: "inception_4d/5x5"
  top: "inception_4d/5x5"
}
layer {
  name: "inception_4d/pool"
  type: "Pooling"
  bottom: "inception_4c/output"
  top: "inception_4d/pool"
  pooling_param {
    pool: MAX
    kernel_size: 3
    stride: 1
    pad: 1
  }
}
layer {
  name: "inception_4d/pool_proj"
  type: "Convolution"
  bottom: "inception_4d/pool"
  top: "inception_4d/pool_proj"
  param {
    lr_mult: 1
    decay_mult: 1
  }
  param {
    lr_mult: 2
    decay_mult: 0
  }
  convolution_param {
    num_output: 64
    kernel_size: 1
    weight_filler {
      type: "xavier"
      std: 0.1
    }
    bias_filler {
      type: "constant"
      value: 0.2
    }
  }
}
layer {
  name: "inception_4d/relu_pool_proj"
  type: "ReLU"
  bottom: "inception_4d/pool_proj"
  top: "inception_4d/pool_proj"
}
layer {
  name: "inception_4d/output"
  type: "Concat"
  bottom: "inception_4d/1x1"
  bottom: "inception_4d/3x3"
  bottom: "inception_4d/5x5"
  bottom: "inception_4d/pool_proj"
  top: "inception_4d/output"
}
layer {
  name: "loss2/ave_pool"
  type: "Pooling"
  bottom: "inception_4d/output"
  top: "loss2/ave_pool"
  pooling_param {
    pool: AVE
    kernel_size: 5
    stride: 3
  }
}
layer {
  name: "loss2/conv"
  type: "Convolution"
  bottom: "loss2/ave_pool"
  top: "loss2/conv"
  param {
    lr_mult: 1
    decay_mult: 1
  }
  param {
    lr_mult: 2
    decay_mult: 0
  }
  convolution_param {
    num_output: 128
    kernel_size: 1
    weight_filler {
      type: "xavier"
      std: 0.08
    }
    bias_filler {
      type: "constant"
      value: 0.2
    }
  }
}
layer {
  name: "loss2/relu_conv"
  type: "ReLU"
  bottom: "loss2/conv"
  top: "loss2/conv"
}
layer {
  name: "loss2/fc"
  type: "InnerProduct"
  bottom: "loss2/conv"
  top: "loss2/fc"
  param {
    lr_mult: 1
    decay_mult: 1
  }
  param {
    lr_mult: 2
    decay_mult: 0
  }
  inner_product_param {
    num_output: 1024
    weight_filler {
      type: "xavier"
      std: 0.02
    }
    bias_filler {
      type: "constant"
      value: 0.2
    }
  }
}
layer {
  name: "loss2/relu_fc"
  type: "ReLU"
  bottom: "loss2/fc"
  top: "loss2/fc"
}
layer {
  name: "loss2/drop_fc"
  type: "Dropout"
  bottom: "loss2/fc"
  top: "loss2/fc"
  dropout_param {
    dropout_ratio: 0.7
  }
}
layer {
  name: "loss2/classifier"
  type: "InnerProduct"
  bottom: "loss2/fc"
  top: "loss2/classifier"
  param {
    lr_mult: 1
    decay_mult: 1
  }
  param {
    lr_mult: 2
    decay_mult: 0
  }
  inner_product_param {
    num_output: 1000
    weight_filler {
      type: "xavier"
      std: 0.0009765625
    }
    bias_filler {
      type: "constant"
      value: 0
    }
  }
}
layer {
  name: "loss2/loss"
  type: "SoftmaxWithLoss"
  bottom: "loss2/classifier"
  bottom: "label"
  top: "loss2/loss1"
  loss_weight: 0.3
}
layer {
  name: "inception_4e/1x1"
  type: "Convolution"
  bottom: "inception_4d/output"
  top: "inception_4e/1x1"
  param {
    lr_mult: 1
    decay_mult: 1
  }
  param {
    lr_mult: 2
    decay_mult: 0
  }
  convolution_param {
    num_output: 256
    kernel_size: 1
    weight_filler {
      type: "xavier"
      std: 0.03
    }
    bias_filler {
      type: "constant"
      value: 0.2
    }
  }
}
layer {
  name: "inception_4e/relu_1x1"
  type: "ReLU"
  bottom: "inception_4e/1x1"
  top: "inception_4e/1x1"
}
layer {
  name: "inception_4e/3x3_reduce"
  type: "Convolution"
  bottom: "inception_4d/output"
  top: "inception_4e/3x3_reduce"
  param {
    lr_mult: 1
    decay_mult: 1
  }
  param {
    lr_mult: 2
    decay_mult: 0
  }
  convolution_param {
    num_output: 160
    kernel_size: 1
    weight_filler {
      type: "xavier"
      std: 0.09
    }
    bias_filler {
      type: "constant"
      value: 0.2
    }
  }
}
layer {
  name: "inception_4e/relu_3x3_reduce"
  type: "ReLU"
  bottom: "inception_4e/3x3_reduce"
  top: "inception_4e/3x3_reduce"
}
layer {
  name: "inception_4e/3x3"
  type: "Convolution"
  bottom: "inception_4e/3x3_reduce"
  top: "inception_4e/3x3"
  param {
    lr_mult: 1
    decay_mult: 1
  }
  param {
    lr_mult: 2
    decay_mult: 0
  }
  convolution_param {
    num_output: 320
    pad: 1
    kernel_size: 3
    weight_filler {
      type: "xavier"
      std: 0.03
    }
    bias_filler {
      type: "constant"
      value: 0.2
    }
  }
}
layer {
  name: "inception_4e/relu_3x3"
  type: "ReLU"
  bottom: "inception_4e/3x3"
  top: "inception_4e/3x3"
}
layer {
  name: "inception_4e/5x5_reduce"
  type: "Convolution"
  bottom: "inception_4d/output"
  top: "inception_4e/5x5_reduce"
  param {
    lr_mult: 1
    decay_mult: 1
  }
  param {
    lr_mult: 2
    decay_mult: 0
  }
  convolution_param {
    num_output: 32
    kernel_size: 1
    weight_filler {
      type: "xavier"
      std: 0.2
    }
    bias_filler {
      type: "constant"
      
I0616 20:11:26.097787 42879 layer_factory.hpp:77] Creating layer data
I0616 20:11:26.097873 42879 net.cpp:106] Creating Layer data
I0616 20:11:26.097903 42879 net.cpp:411] data -> data
I0616 20:11:26.097955 42879 net.cpp:411] data -> label
I0616 20:11:26.098461 42879 image_data_layer.cpp:38] Opening file foodCAT_resized_balanced/train.txt
I0616 20:11:26.135874 42879 image_data_layer.cpp:48] Shuffling data
I0616 20:11:26.140616 42879 image_data_layer.cpp:53] A total of 73085 images.
I0616 20:11:26.331547 42879 image_data_layer.cpp:80] output data size: 64,3,224,224
I0616 20:11:26.393754 42879 net.cpp:150] Setting up data
I0616 20:11:26.393889 42879 net.cpp:157] Top shape: 64 3 224 224 (9633792)
I0616 20:11:26.393915 42879 net.cpp:157] Top shape: 64 (64)
I0616 20:11:26.393932 42879 net.cpp:165] Memory required for data: 38535424
I0616 20:11:26.393956 42879 layer_factory.hpp:77] Creating layer label_data_1_split
I0616 20:11:26.394006 42879 net.cpp:106] Creating Layer label_data_1_split
I0616 20:11:26.394039 42879 net.cpp:454] label_data_1_split <- label
I0616 20:11:26.394085 42879 net.cpp:411] label_data_1_split -> label_data_1_split_0
I0616 20:11:26.394115 42879 net.cpp:411] label_data_1_split -> label_data_1_split_1
I0616 20:11:26.394158 42879 net.cpp:411] label_data_1_split -> label_data_1_split_2
I0616 20:11:26.394255 42879 net.cpp:150] Setting up label_data_1_split
I0616 20:11:26.394282 42879 net.cpp:157] Top shape: 64 (64)
I0616 20:11:26.394300 42879 net.cpp:157] Top shape: 64 (64)
I0616 20:11:26.394318 42879 net.cpp:157] Top shape: 64 (64)
I0616 20:11:26.394335 42879 net.cpp:165] Memory required for data: 38536192
I0616 20:11:26.394351 42879 layer_factory.hpp:77] Creating layer conv1/7x7_s2
I0616 20:11:26.394387 42879 net.cpp:106] Creating Layer conv1/7x7_s2
I0616 20:11:26.394407 42879 net.cpp:454] conv1/7x7_s2 <- data
I0616 20:11:26.394428 42879 net.cpp:411] conv1/7x7_s2 -> conv1/7x7_s2
I0616 20:11:26.518458 42879 net.cpp:150] Setting up conv1/7x7_s2
I0616 20:11:26.518528 42879 net.cpp:157] Top shape: 64 64 112 112 (51380224)
I0616 20:11:26.518548 42879 net.cpp:165] Memory required for data: 244057088
I0616 20:11:26.518584 42879 layer_factory.hpp:77] Creating layer conv1/relu_7x7
I0616 20:11:26.518615 42879 net.cpp:106] Creating Layer conv1/relu_7x7
I0616 20:11:26.518635 42879 net.cpp:454] conv1/relu_7x7 <- conv1/7x7_s2
I0616 20:11:26.518654 42879 net.cpp:397] conv1/relu_7x7 -> conv1/7x7_s2 (in-place)
I0616 20:11:26.518808 42879 net.cpp:150] Setting up conv1/relu_7x7
I0616 20:11:26.518841 42879 net.cpp:157] Top shape: 64 64 112 112 (51380224)
I0616 20:11:26.518857 42879 net.cpp:165] Memory required for data: 449577984
I0616 20:11:26.518874 42879 layer_factory.hpp:77] Creating layer pool1/3x3_s2
I0616 20:11:26.518898 42879 net.cpp:106] Creating Layer pool1/3x3_s2
I0616 20:11:26.518918 42879 net.cpp:454] pool1/3x3_s2 <- conv1/7x7_s2
I0616 20:11:26.518936 42879 net.cpp:411] pool1/3x3_s2 -> pool1/3x3_s2
I0616 20:11:26.519014 42879 net.cpp:150] Setting up pool1/3x3_s2
I0616 20:11:26.519043 42879 net.cpp:157] Top shape: 64 64 56 56 (12845056)
I0616 20:11:26.519060 42879 net.cpp:165] Memory required for data: 500958208
I0616 20:11:26.519076 42879 layer_factory.hpp:77] Creating layer pool1/norm1
I0616 20:11:26.519103 42879 net.cpp:106] Creating Layer pool1/norm1
I0616 20:11:26.519121 42879 net.cpp:454] pool1/norm1 <- pool1/3x3_s2
I0616 20:11:26.519140 42879 net.cpp:411] pool1/norm1 -> pool1/norm1
I0616 20:11:26.519424 42879 net.cpp:150] Setting up pool1/norm1
I0616 20:11:26.519461 42879 net.cpp:157] Top shape: 64 64 56 56 (12845056)
I0616 20:11:26.519479 42879 net.cpp:165] Memory required for data: 552338432
I0616 20:11:26.519496 42879 layer_factory.hpp:77] Creating layer conv2/3x3_reduce
I0616 20:11:26.519523 42879 net.cpp:106] Creating Layer conv2/3x3_reduce
I0616 20:11:26.519542 42879 net.cpp:454] conv2/3x3_reduce <- pool1/norm1
I0616 20:11:26.519562 42879 net.cpp:411] conv2/3x3_reduce -> conv2/3x3_reduce
I0616 20:11:26.520869 42879 net.cpp:150] Setting up conv2/3x3_reduce
I0616 20:11:26.520913 42879 net.cpp:157] Top shape: 64 64 56 56 (12845056)
I0616 20:11:26.520933 42879 net.cpp:165] Memory required for data: 603718656
I0616 20:11:26.520956 42879 layer_factory.hpp:77] Creating layer conv2/relu_3x3_reduce
I0616 20:11:26.520982 42879 net.cpp:106] Creating Layer conv2/relu_3x3_reduce
I0616 20:11:26.521001 42879 net.cpp:454] conv2/relu_3x3_reduce <- conv2/3x3_reduce
I0616 20:11:26.521020 42879 net.cpp:397] conv2/relu_3x3_reduce -> conv2/3x3_reduce (in-place)
I0616 20:11:26.521163 42879 net.cpp:150] Setting up conv2/relu_3x3_reduce
I0616 20:11:26.521194 42879 net.cpp:157] Top shape: 64 64 56 56 (12845056)
I0616 20:11:26.521211 42879 net.cpp:165] Memory required for data: 655098880
I0616 20:11:26.521227 42879 layer_factory.hpp:77] Creating layer conv2/3x3
I0616 20:11:26.521251 42879 net.cpp:106] Creating Layer conv2/3x3
I0616 20:11:26.521270 42879 net.cpp:454] conv2/3x3 <- conv2/3x3_reduce
I0616 20:11:26.521291 42879 net.cpp:411] conv2/3x3 -> conv2/3x3
I0616 20:11:26.523213 42879 net.cpp:150] Setting up conv2/3x3
I0616 20:11:26.523254 42879 net.cpp:157] Top shape: 64 192 56 56 (38535168)
I0616 20:11:26.523273 42879 net.cpp:165] Memory required for data: 809239552
I0616 20:11:26.523296 42879 layer_factory.hpp:77] Creating layer conv2/relu_3x3
I0616 20:11:26.523347 42879 net.cpp:106] Creating Layer conv2/relu_3x3
I0616 20:11:26.523407 42879 net.cpp:454] conv2/relu_3x3 <- conv2/3x3
I0616 20:11:26.523439 42879 net.cpp:397] conv2/relu_3x3 -> conv2/3x3 (in-place)
I0616 20:11:26.523744 42879 net.cpp:150] Setting up conv2/relu_3x3
I0616 20:11:26.523828 42879 net.cpp:157] Top shape: 64 192 56 56 (38535168)
I0616 20:11:26.523859 42879 net.cpp:165] Memory required for data: 963380224
I0616 20:11:26.523900 42879 layer_factory.hpp:77] Creating layer conv2/norm2
I0616 20:11:26.523936 42879 net.cpp:106] Creating Layer conv2/norm2
I0616 20:11:26.523955 42879 net.cpp:454] conv2/norm2 <- conv2/3x3
I0616 20:11:26.524003 42879 net.cpp:411] conv2/norm2 -> conv2/norm2
I0616 20:11:26.524188 42879 net.cpp:150] Setting up conv2/norm2
I0616 20:11:26.524221 42879 net.cpp:157] Top shape: 64 192 56 56 (38535168)
I0616 20:11:26.524238 42879 net.cpp:165] Memory required for data: 1117520896
I0616 20:11:26.524255 42879 layer_factory.hpp:77] Creating layer pool2/3x3_s2
I0616 20:11:26.524274 42879 net.cpp:106] Creating Layer pool2/3x3_s2
I0616 20:11:26.524291 42879 net.cpp:454] pool2/3x3_s2 <- conv2/norm2
I0616 20:11:26.524310 42879 net.cpp:411] pool2/3x3_s2 -> pool2/3x3_s2
I0616 20:11:26.524356 42879 net.cpp:150] Setting up pool2/3x3_s2
I0616 20:11:26.524382 42879 net.cpp:157] Top shape: 64 192 28 28 (9633792)
I0616 20:11:26.524399 42879 net.cpp:165] Memory required for data: 1156056064
I0616 20:11:26.524415 42879 layer_factory.hpp:77] Creating layer pool2/3x3_s2_pool2/3x3_s2_0_split
I0616 20:11:26.524435 42879 net.cpp:106] Creating Layer pool2/3x3_s2_pool2/3x3_s2_0_split
I0616 20:11:26.524451 42879 net.cpp:454] pool2/3x3_s2_pool2/3x3_s2_0_split <- pool2/3x3_s2
I0616 20:11:26.524471 42879 net.cpp:411] pool2/3x3_s2_pool2/3x3_s2_0_split -> pool2/3x3_s2_pool2/3x3_s2_0_split_0
I0616 20:11:26.524492 42879 net.cpp:411] pool2/3x3_s2_pool2/3x3_s2_0_split -> pool2/3x3_s2_pool2/3x3_s2_0_split_1
I0616 20:11:26.524524 42879 net.cpp:411] pool2/3x3_s2_pool2/3x3_s2_0_split -> pool2/3x3_s2_pool2/3x3_s2_0_split_2
I0616 20:11:26.524546 42879 net.cpp:411] pool2/3x3_s2_pool2/3x3_s2_0_split -> pool2/3x3_s2_pool2/3x3_s2_0_split_3
I0616 20:11:26.524628 42879 net.cpp:150] Setting up pool2/3x3_s2_pool2/3x3_s2_0_split
I0616 20:11:26.524653 42879 net.cpp:157] Top shape: 64 192 28 28 (9633792)
I0616 20:11:26.524683 42879 net.cpp:157] Top shape: 64 192 28 28 (9633792)
I0616 20:11:26.524709 42879 net.cpp:157] Top shape: 64 192 28 28 (9633792)
I0616 20:11:26.524729 42879 net.cpp:157] Top shape: 64 192 28 28 (9633792)
I0616 20:11:26.524744 42879 net.cpp:165] Memory required for data: 1310196736
I0616 20:11:26.524760 42879 layer_factory.hpp:77] Creating layer inception_3a/1x1
I0616 20:11:26.524783 42879 net.cpp:106] Creating Layer inception_3a/1x1
I0616 20:11:26.524802 42879 net.cpp:454] inception_3a/1x1 <- pool2/3x3_s2_pool2/3x3_s2_0_split_0
I0616 20:11:26.524822 42879 net.cpp:411] inception_3a/1x1 -> inception_3a/1x1
I0616 20:11:26.526510 42879 net.cpp:150] Setting up inception_3a/1x1
I0616 20:11:26.526551 42879 net.cpp:157] Top shape: 64 64 28 28 (3211264)
I0616 20:11:26.526571 42879 net.cpp:165] Memory required for data: 1323041792
I0616 20:11:26.526590 42879 layer_factory.hpp:77] Creating layer inception_3a/relu_1x1
I0616 20:11:26.526613 42879 net.cpp:106] Creating Layer inception_3a/relu_1x1
I0616 20:11:26.526633 42879 net.cpp:454] inception_3a/relu_1x1 <- inception_3a/1x1
I0616 20:11:26.526651 42879 net.cpp:397] inception_3a/relu_1x1 -> inception_3a/1x1 (in-place)
I0616 20:11:26.526911 42879 net.cpp:150] Setting up inception_3a/relu_1x1
I0616 20:11:26.526947 42879 net.cpp:157] Top shape: 64 64 28 28 (3211264)
I0616 20:11:26.526968 42879 net.cpp:165] Memory required for data: 1335886848
I0616 20:11:26.526998 42879 layer_factory.hpp:77] Creating layer inception_3a/3x3_reduce
I0616 20:11:26.527034 42879 net.cpp:106] Creating Layer inception_3a/3x3_reduce
I0616 20:11:26.527053 42879 net.cpp:454] inception_3a/3x3_reduce <- pool2/3x3_s2_pool2/3x3_s2_0_split_1
I0616 20:11:26.527076 42879 net.cpp:411] inception_3a/3x3_reduce -> inception_3a/3x3_reduce
I0616 20:11:26.528551 42879 net.cpp:150] Setting up inception_3a/3x3_reduce
I0616 20:11:26.528591 42879 net.cpp:157] Top shape: 64 96 28 28 (4816896)
I0616 20:11:26.528611 42879 net.cpp:165] Memory required for data: 1355154432
I0616 20:11:26.528635 42879 layer_factory.hpp:77] Creating layer inception_3a/relu_3x3_reduce
I0616 20:11:26.528659 42879 net.cpp:106] Creating Layer inception_3a/relu_3x3_reduce
I0616 20:11:26.528678 42879 net.cpp:454] inception_3a/relu_3x3_reduce <- inception_3a/3x3_reduce
I0616 20:11:26.528697 42879 net.cpp:397] inception_3a/relu_3x3_reduce -> inception_3a/3x3_reduce (in-place)
I0616 20:11:26.528965 42879 net.cpp:150] Setting up inception_3a/relu_3x3_reduce
I0616 20:11:26.529022 42879 net.cpp:157] Top shape: 64 96 28 28 (4816896)
I0616 20:11:26.529052 42879 net.cpp:165] Memory required for data: 1374422016
I0616 20:11:26.529068 42879 layer_factory.hpp:77] Creating layer inception_3a/3x3
I0616 20:11:26.529094 42879 net.cpp:106] Creating Layer inception_3a/3x3
I0616 20:11:26.529114 42879 net.cpp:454] inception_3a/3x3 <- inception_3a/3x3_reduce
I0616 20:11:26.529134 42879 net.cpp:411] inception_3a/3x3 -> inception_3a/3x3
I0616 20:11:26.530486 42879 net.cpp:150] Setting up inception_3a/3x3
I0616 20:11:26.530524 42879 net.cpp:157] Top shape: 64 128 28 28 (6422528)
I0616 20:11:26.530544 42879 net.cpp:165] Memory required for data: 1400112128
I0616 20:11:26.530563 42879 layer_factory.hpp:77] Creating layer inception_3a/relu_3x3
I0616 20:11:26.530583 42879 net.cpp:106] Creating Layer inception_3a/relu_3x3
I0616 20:11:26.530601 42879 net.cpp:454] inception_3a/relu_3x3 <- inception_3a/3x3
I0616 20:11:26.530621 42879 net.cpp:397] inception_3a/relu_3x3 -> inception_3a/3x3 (in-place)
I0616 20:11:26.530782 42879 net.cpp:150] Setting up inception_3a/relu_3x3
I0616 20:11:26.530813 42879 net.cpp:157] Top shape: 64 128 28 28 (6422528)
I0616 20:11:26.530830 42879 net.cpp:165] Memory required for data: 1425802240
I0616 20:11:26.530846 42879 layer_factory.hpp:77] Creating layer inception_3a/5x5_reduce
I0616 20:11:26.530870 42879 net.cpp:106] Creating Layer inception_3a/5x5_reduce
I0616 20:11:26.530890 42879 net.cpp:454] inception_3a/5x5_reduce <- pool2/3x3_s2_pool2/3x3_s2_0_split_2
I0616 20:11:26.530911 42879 net.cpp:411] inception_3a/5x5_reduce -> inception_3a/5x5_reduce
I0616 20:11:26.531823 42879 net.cpp:150] Setting up inception_3a/5x5_reduce
I0616 20:11:26.531862 42879 net.cpp:157] Top shape: 64 16 28 28 (802816)
I0616 20:11:26.531880 42879 net.cpp:165] Memory required for data: 1429013504
I0616 20:11:26.531900 42879 layer_factory.hpp:77] Creating layer inception_3a/relu_5x5_reduce
I0616 20:11:26.531920 42879 net.cpp:106] Creating Layer inception_3a/relu_5x5_reduce
I0616 20:11:26.531939 42879 net.cpp:454] inception_3a/relu_5x5_reduce <- inception_3a/5x5_reduce
I0616 20:11:26.531956 42879 net.cpp:397] inception_3a/relu_5x5_reduce -> inception_3a/5x5_reduce (in-place)
I0616 20:11:26.532228 42879 net.cpp:150] Setting up inception_3a/relu_5x5_reduce
I0616 20:11:26.532266 42879 net.cpp:157] Top shape: 64 16 28 28 (802816)
I0616 20:11:26.532284 42879 net.cpp:165] Memory required for data: 1432224768
I0616 20:11:26.532300 42879 layer_factory.hpp:77] Creating layer inception_3a/5x5
I0616 20:11:26.532325 42879 net.cpp:106] Creating Layer inception_3a/5x5
I0616 20:11:26.532346 42879 net.cpp:454] inception_3a/5x5 <- inception_3a/5x5_reduce
I0616 20:11:26.532366 42879 net.cpp:411] inception_3a/5x5 -> inception_3a/5x5
I0616 20:11:26.533293 42879 net.cpp:150] Setting up inception_3a/5x5
I0616 20:11:26.533331 42879 net.cpp:157] Top shape: 64 32 28 28 (1605632)
I0616 20:11:26.533349 42879 net.cpp:165] Memory required for data: 1438647296
I0616 20:11:26.533370 42879 layer_factory.hpp:77] Creating layer inception_3a/relu_5x5
I0616 20:11:26.533392 42879 net.cpp:106] Creating Layer inception_3a/relu_5x5
I0616 20:11:26.533411 42879 net.cpp:454] inception_3a/relu_5x5 <- inception_3a/5x5
I0616 20:11:26.533429 42879 net.cpp:397] inception_3a/relu_5x5 -> inception_3a/5x5 (in-place)
I0616 20:11:26.533707 42879 net.cpp:150] Setting up inception_3a/relu_5x5
I0616 20:11:26.533752 42879 net.cpp:157] Top shape: 64 32 28 28 (1605632)
I0616 20:11:26.533771 42879 net.cpp:165] Memory required for data: 1445069824
I0616 20:11:26.533787 42879 layer_factory.hpp:77] Creating layer inception_3a/pool
I0616 20:11:26.533809 42879 net.cpp:106] Creating Layer inception_3a/pool
I0616 20:11:26.533828 42879 net.cpp:454] inception_3a/pool <- pool2/3x3_s2_pool2/3x3_s2_0_split_3
I0616 20:11:26.533846 42879 net.cpp:411] inception_3a/pool -> inception_3a/pool
I0616 20:11:26.533905 42879 net.cpp:150] Setting up inception_3a/pool
I0616 20:11:26.533931 42879 net.cpp:157] Top shape: 64 192 28 28 (9633792)
I0616 20:11:26.533947 42879 net.cpp:165] Memory required for data: 1483604992
I0616 20:11:26.533968 42879 layer_factory.hpp:77] Creating layer inception_3a/pool_proj
I0616 20:11:26.533994 42879 net.cpp:106] Creating Layer inception_3a/pool_proj
I0616 20:11:26.534013 42879 net.cpp:454] inception_3a/pool_proj <- inception_3a/pool
I0616 20:11:26.534034 42879 net.cpp:411] inception_3a/pool_proj -> inception_3a/pool_proj
I0616 20:11:26.534888 42879 net.cpp:150] Setting up inception_3a/pool_proj
I0616 20:11:26.534927 42879 net.cpp:157] Top shape: 64 32 28 28 (1605632)
I0616 20:11:26.534946 42879 net.cpp:165] Memory required for data: 1490027520
I0616 20:11:26.534975 42879 layer_factory.hpp:77] Creating layer inception_3a/relu_pool_proj
I0616 20:11:26.534999 42879 net.cpp:106] Creating Layer inception_3a/relu_pool_proj
I0616 20:11:26.535018 42879 net.cpp:454] inception_3a/relu_pool_proj <- inception_3a/pool_proj
I0616 20:11:26.535037 42879 net.cpp:397] inception_3a/relu_pool_proj -> inception_3a/pool_proj (in-place)
I0616 20:11:26.535195 42879 net.cpp:150] Setting up inception_3a/relu_pool_proj
I0616 20:11:26.535230 42879 net.cpp:157] Top shape: 64 32 28 28 (1605632)
I0616 20:11:26.535248 42879 net.cpp:165] Memory required for data: 1496450048
I0616 20:11:26.535264 42879 layer_factory.hpp:77] Creating layer inception_3a/output
I0616 20:11:26.535284 42879 net.cpp:106] Creating Layer inception_3a/output
I0616 20:11:26.535301 42879 net.cpp:454] inception_3a/output <- inception_3a/1x1
I0616 20:11:26.535318 42879 net.cpp:454] inception_3a/output <- inception_3a/3x3
I0616 20:11:26.535336 42879 net.cpp:454] inception_3a/output <- inception_3a/5x5
I0616 20:11:26.535351 42879 net.cpp:454] inception_3a/output <- inception_3a/pool_proj
I0616 20:11:26.535369 42879 net.cpp:411] inception_3a/output -> inception_3a/output
I0616 20:11:26.535416 42879 net.cpp:150] Setting up inception_3a/output
I0616 20:11:26.535444 42879 net.cpp:157] Top shape: 64 256 28 28 (12845056)
I0616 20:11:26.535460 42879 net.cpp:165] Memory required for data: 1547830272
I0616 20:11:26.535475 42879 layer_factory.hpp:77] Creating layer inception_3a/output_inception_3a/output_0_split
I0616 20:11:26.535495 42879 net.cpp:106] Creating Layer inception_3a/output_inception_3a/output_0_split
I0616 20:11:26.535511 42879 net.cpp:454] inception_3a/output_inception_3a/output_0_split <- inception_3a/output
I0616 20:11:26.535533 42879 net.cpp:411] inception_3a/output_inception_3a/output_0_split -> inception_3a/output_inception_3a/output_0_split_0
I0616 20:11:26.535555 42879 net.cpp:411] inception_3a/output_inception_3a/output_0_split -> inception_3a/output_inception_3a/output_0_split_1
I0616 20:11:26.535576 42879 net.cpp:411] inception_3a/output_inception_3a/output_0_split -> inception_3a/output_inception_3a/output_0_split_2
I0616 20:11:26.535598 42879 net.cpp:411] inception_3a/output_inception_3a/output_0_split -> inception_3a/output_inception_3a/output_0_split_3
I0616 20:11:26.535668 42879 net.cpp:150] Setting up inception_3a/output_inception_3a/output_0_split
I0616 20:11:26.535706 42879 net.cpp:157] Top shape: 64 256 28 28 (12845056)
I0616 20:11:26.535725 42879 net.cpp:157] Top shape: 64 256 28 28 (12845056)
I0616 20:11:26.535745 42879 net.cpp:157] Top shape: 64 256 28 28 (12845056)
I0616 20:11:26.535764 42879 net.cpp:157] Top shape: 64 256 28 28 (12845056)
I0616 20:11:26.535779 42879 net.cpp:165] Memory required for data: 1753351168
I0616 20:11:26.535820 42879 layer_factory.hpp:77] Creating layer inception_3b/1x1
I0616 20:11:26.535847 42879 net.cpp:106] Creating Layer inception_3b/1x1
I0616 20:11:26.535866 42879 net.cpp:454] inception_3b/1x1 <- inception_3a/output_inception_3a/output_0_split_0
I0616 20:11:26.535888 42879 net.cpp:411] inception_3b/1x1 -> inception_3b/1x1
I0616 20:11:26.536952 42879 net.cpp:150] Setting up inception_3b/1x1
I0616 20:11:26.536996 42879 net.cpp:157] Top shape: 64 128 28 28 (6422528)
I0616 20:11:26.537017 42879 net.cpp:165] Memory required for data: 1779041280
I0616 20:11:26.537037 42879 layer_factory.hpp:77] Creating layer inception_3b/relu_1x1
I0616 20:11:26.537058 42879 net.cpp:106] Creating Layer inception_3b/relu_1x1
I0616 20:11:26.537076 42879 net.cpp:454] inception_3b/relu_1x1 <- inception_3b/1x1
I0616 20:11:26.537096 42879 net.cpp:397] inception_3b/relu_1x1 -> inception_3b/1x1 (in-place)
I0616 20:11:26.537364 42879 net.cpp:150] Setting up inception_3b/relu_1x1
I0616 20:11:26.537401 42879 net.cpp:157] Top shape: 64 128 28 28 (6422528)
I0616 20:11:26.537420 42879 net.cpp:165] Memory required for data: 1804731392
I0616 20:11:26.537436 42879 layer_factory.hpp:77] Creating layer inception_3b/3x3_reduce
I0616 20:11:26.537461 42879 net.cpp:106] Creating Layer inception_3b/3x3_reduce
I0616 20:11:26.537479 42879 net.cpp:454] inception_3b/3x3_reduce <- inception_3a/output_inception_3a/output_0_split_1
I0616 20:11:26.537500 42879 net.cpp:411] inception_3b/3x3_reduce -> inception_3b/3x3_reduce
I0616 20:11:26.538688 42879 net.cpp:150] Setting up inception_3b/3x3_reduce
I0616 20:11:26.538729 42879 net.cpp:157] Top shape: 64 128 28 28 (6422528)
I0616 20:11:26.538748 42879 net.cpp:165] Memory required for data: 1830421504
I0616 20:11:26.538769 42879 layer_factory.hpp:77] Creating layer inception_3b/relu_3x3_reduce
I0616 20:11:26.538790 42879 net.cpp:106] Creating Layer inception_3b/relu_3x3_reduce
I0616 20:11:26.538810 42879 net.cpp:454] inception_3b/relu_3x3_reduce <- inception_3b/3x3_reduce
I0616 20:11:26.538828 42879 net.cpp:397] inception_3b/relu_3x3_reduce -> inception_3b/3x3_reduce (in-place)
I0616 20:11:26.539202 42879 net.cpp:150] Setting up inception_3b/relu_3x3_reduce
I0616 20:11:26.539283 42879 net.cpp:157] Top shape: 64 128 28 28 (6422528)
I0616 20:11:26.539335 42879 net.cpp:165] Memory required for data: 1856111616
I0616 20:11:26.539353 42879 layer_factory.hpp:77] Creating layer inception_3b/3x3
I0616 20:11:26.539397 42879 net.cpp:106] Creating Layer inception_3b/3x3
I0616 20:11:26.539419 42879 net.cpp:454] inception_3b/3x3 <- inception_3b/3x3_reduce
I0616 20:11:26.539470 42879 net.cpp:411] inception_3b/3x3 -> inception_3b/3x3
I0616 20:11:26.542189 42879 net.cpp:150] Setting up inception_3b/3x3
I0616 20:11:26.542232 42879 net.cpp:157] Top shape: 64 192 28 28 (9633792)
I0616 20:11:26.542254 42879 net.cpp:165] Memory required for data: 1894646784
I0616 20:11:26.542275 42879 layer_factory.hpp:77] Creating layer inception_3b/relu_3x3
I0616 20:11:26.542296 42879 net.cpp:106] Creating Layer inception_3b/relu_3x3
I0616 20:11:26.542315 42879 net.cpp:454] inception_3b/relu_3x3 <- inception_3b/3x3
I0616 20:11:26.542335 42879 net.cpp:397] inception_3b/relu_3x3 -> inception_3b/3x3 (in-place)
I0616 20:11:26.542500 42879 net.cpp:150] Setting up inception_3b/relu_3x3
I0616 20:11:26.542531 42879 net.cpp:157] Top shape: 64 192 28 28 (9633792)
I0616 20:11:26.542548 42879 net.cpp:165] Memory required for data: 1933181952
I0616 20:11:26.542565 42879 layer_factory.hpp:77] Creating layer inception_3b/5x5_reduce
I0616 20:11:26.542592 42879 net.cpp:106] Creating Layer inception_3b/5x5_reduce
I0616 20:11:26.542611 42879 net.cpp:454] inception_3b/5x5_reduce <- inception_3a/output_inception_3a/output_0_split_2
I0616 20:11:26.542632 42879 net.cpp:411] inception_3b/5x5_reduce -> inception_3b/5x5_reduce
I0616 20:11:26.543632 42879 net.cpp:150] Setting up inception_3b/5x5_reduce
I0616 20:11:26.543671 42879 net.cpp:157] Top shape: 64 32 28 28 (1605632)
I0616 20:11:26.543699 42879 net.cpp:165] Memory required for data: 1939604480
I0616 20:11:26.543752 42879 layer_factory.hpp:77] Creating layer inception_3b/relu_5x5_reduce
I0616 20:11:26.543814 42879 net.cpp:106] Creating Layer inception_3b/relu_5x5_reduce
I0616 20:11:26.543845 42879 net.cpp:454] inception_3b/relu_5x5_reduce <- inception_3b/5x5_reduce
I0616 20:11:26.543866 42879 net.cpp:397] inception_3b/relu_5x5_reduce -> inception_3b/5x5_reduce (in-place)
I0616 20:11:26.544180 42879 net.cpp:150] Setting up inception_3b/relu_5x5_reduce
I0616 20:11:26.544215 42879 net.cpp:157] Top shape: 64 32 28 28 (1605632)
I0616 20:11:26.544234 42879 net.cpp:165] Memory required for data: 1946027008
I0616 20:11:26.544250 42879 layer_factory.hpp:77] Creating layer inception_3b/5x5
I0616 20:11:26.544275 42879 net.cpp:106] Creating Layer inception_3b/5x5
I0616 20:11:26.544294 42879 net.cpp:454] inception_3b/5x5 <- inception_3b/5x5_reduce
I0616 20:11:26.544317 42879 net.cpp:411] inception_3b/5x5 -> inception_3b/5x5
I0616 20:11:26.545929 42879 net.cpp:150] Setting up inception_3b/5x5
I0616 20:11:26.545974 42879 net.cpp:157] Top shape: 64 96 28 28 (4816896)
I0616 20:11:26.546011 42879 net.cpp:165] Memory required for data: 1965294592
I0616 20:11:26.546072 42879 layer_factory.hpp:77] Creating layer inception_3b/relu_5x5
I0616 20:11:26.546093 42879 net.cpp:106] Creating Layer inception_3b/relu_5x5
I0616 20:11:26.546113 42879 net.cpp:454] inception_3b/relu_5x5 <- inception_3b/5x5
I0616 20:11:26.546133 42879 net.cpp:397] inception_3b/relu_5x5 -> inception_3b/5x5 (in-place)
I0616 20:11:26.546423 42879 net.cpp:150] Setting up inception_3b/relu_5x5
I0616 20:11:26.546458 42879 net.cpp:157] Top shape: 64 96 28 28 (4816896)
I0616 20:11:26.546476 42879 net.cpp:165] Memory required for data: 1984562176
I0616 20:11:26.546492 42879 layer_factory.hpp:77] Creating layer inception_3b/pool
I0616 20:11:26.546512 42879 net.cpp:106] Creating Layer inception_3b/pool
I0616 20:11:26.546531 42879 net.cpp:454] inception_3b/pool <- inception_3a/output_inception_3a/output_0_split_3
I0616 20:11:26.546550 42879 net.cpp:411] inception_3b/pool -> inception_3b/pool
I0616 20:11:26.546605 42879 net.cpp:150] Setting up inception_3b/pool
I0616 20:11:26.546633 42879 net.cpp:157] Top shape: 64 256 28 28 (12845056)
I0616 20:11:26.546648 42879 net.cpp:165] Memory required for data: 2035942400
I0616 20:11:26.546664 42879 layer_factory.hpp:77] Creating layer inception_3b/pool_proj
I0616 20:11:26.546689 42879 net.cpp:106] Creating Layer inception_3b/pool_proj
I0616 20:11:26.546708 42879 net.cpp:454] inception_3b/pool_proj <- inception_3b/pool
I0616 20:11:26.546730 42879 net.cpp:411] inception_3b/pool_proj -> inception_3b/pool_proj
I0616 20:11:26.547736 42879 net.cpp:150] Setting up inception_3b/pool_proj
I0616 20:11:26.547790 42879 net.cpp:157] Top shape: 64 64 28 28 (3211264)
I0616 20:11:26.547827 42879 net.cpp:165] Memory required for data: 2048787456
I0616 20:11:26.547857 42879 layer_factory.hpp:77] Creating layer inception_3b/relu_pool_proj
I0616 20:11:26.547894 42879 net.cpp:106] Creating Layer inception_3b/relu_pool_proj
I0616 20:11:26.547921 42879 net.cpp:454] inception_3b/relu_pool_proj <- inception_3b/pool_proj
I0616 20:11:26.547945 42879 net.cpp:397] inception_3b/relu_pool_proj -> inception_3b/pool_proj (in-place)
I0616 20:11:26.548135 42879 net.cpp:150] Setting up inception_3b/relu_pool_proj
I0616 20:11:26.548167 42879 net.cpp:157] Top shape: 64 64 28 28 (3211264)
I0616 20:11:26.548184 42879 net.cpp:165] Memory required for data: 2061632512
I0616 20:11:26.548200 42879 layer_factory.hpp:77] Creating layer inception_3b/output
I0616 20:11:26.548221 42879 net.cpp:106] Creating Layer inception_3b/output
I0616 20:11:26.548240 42879 net.cpp:454] inception_3b/output <- inception_3b/1x1
I0616 20:11:26.548259 42879 net.cpp:454] inception_3b/output <- inception_3b/3x3
I0616 20:11:26.548275 42879 net.cpp:454] inception_3b/output <- inception_3b/5x5
I0616 20:11:26.548292 42879 net.cpp:454] inception_3b/output <- inception_3b/pool_proj
I0616 20:11:26.548310 42879 net.cpp:411] inception_3b/output -> inception_3b/output
I0616 20:11:26.548355 42879 net.cpp:150] Setting up inception_3b/output
I0616 20:11:26.548403 42879 net.cpp:157] Top shape: 64 480 28 28 (24084480)
I0616 20:11:26.548423 42879 net.cpp:165] Memory required for data: 2157970432
I0616 20:11:26.548437 42879 layer_factory.hpp:77] Creating layer pool3/3x3_s2
I0616 20:11:26.548457 42879 net.cpp:106] Creating Layer pool3/3x3_s2
I0616 20:11:26.548475 42879 net.cpp:454] pool3/3x3_s2 <- inception_3b/output
I0616 20:11:26.548496 42879 net.cpp:411] pool3/3x3_s2 -> pool3/3x3_s2
I0616 20:11:26.548549 42879 net.cpp:150] Setting up pool3/3x3_s2
I0616 20:11:26.548575 42879 net.cpp:157] Top shape: 64 480 14 14 (6021120)
I0616 20:11:26.548591 42879 net.cpp:165] Memory required for data: 2182054912
I0616 20:11:26.548607 42879 layer_factory.hpp:77] Creating layer pool3/3x3_s2_pool3/3x3_s2_0_split
I0616 20:11:26.548629 42879 net.cpp:106] Creating Layer pool3/3x3_s2_pool3/3x3_s2_0_split
I0616 20:11:26.548646 42879 net.cpp:454] pool3/3x3_s2_pool3/3x3_s2_0_split <- pool3/3x3_s2
I0616 20:11:26.548666 42879 net.cpp:411] pool3/3x3_s2_pool3/3x3_s2_0_split -> pool3/3x3_s2_pool3/3x3_s2_0_split_0
I0616 20:11:26.548687 42879 net.cpp:411] pool3/3x3_s2_pool3/3x3_s2_0_split -> pool3/3x3_s2_pool3/3x3_s2_0_split_1
I0616 20:11:26.548709 42879 net.cpp:411] pool3/3x3_s2_pool3/3x3_s2_0_split -> pool3/3x3_s2_pool3/3x3_s2_0_split_2
I0616 20:11:26.548730 42879 net.cpp:411] pool3/3x3_s2_pool3/3x3_s2_0_split -> pool3/3x3_s2_pool3/3x3_s2_0_split_3
I0616 20:11:26.548799 42879 net.cpp:150] Setting up pool3/3x3_s2_pool3/3x3_s2_0_split
I0616 20:11:26.548825 42879 net.cpp:157] Top shape: 64 480 14 14 (6021120)
I0616 20:11:26.548841 42879 net.cpp:157] Top shape: 64 480 14 14 (6021120)
I0616 20:11:26.548858 42879 net.cpp:157] Top shape: 64 480 14 14 (6021120)
I0616 20:11:26.548874 42879 net.cpp:157] Top shape: 64 480 14 14 (6021120)
I0616 20:11:26.548889 42879 net.cpp:165] Memory required for data: 2278392832
I0616 20:11:26.548905 42879 layer_factory.hpp:77] Creating layer inception_4a/1x1
I0616 20:11:26.548928 42879 net.cpp:106] Creating Layer inception_4a/1x1
I0616 20:11:26.548948 42879 net.cpp:454] inception_4a/1x1 <- pool3/3x3_s2_pool3/3x3_s2_0_split_0
I0616 20:11:26.548974 42879 net.cpp:411] inception_4a/1x1 -> inception_4a/1x1
I0616 20:11:26.550376 42879 net.cpp:150] Setting up inception_4a/1x1
I0616 20:11:26.550416 42879 net.cpp:157] Top shape: 64 192 14 14 (2408448)
I0616 20:11:26.550436 42879 net.cpp:165] Memory required for data: 2288026624
I0616 20:11:26.550457 42879 layer_factory.hpp:77] Creating layer inception_4a/relu_1x1
I0616 20:11:26.550478 42879 net.cpp:106] Creating Layer inception_4a/relu_1x1
I0616 20:11:26.550498 42879 net.cpp:454] inception_4a/relu_1x1 <- inception_4a/1x1
I0616 20:11:26.550516 42879 net.cpp:397] inception_4a/relu_1x1 -> inception_4a/1x1 (in-place)
I0616 20:11:26.550786 42879 net.cpp:150] Setting up inception_4a/relu_1x1
I0616 20:11:26.550820 42879 net.cpp:157] Top shape: 64 192 14 14 (2408448)
I0616 20:11:26.550838 42879 net.cpp:165] Memory required for data: 2297660416
I0616 20:11:26.550854 42879 layer_factory.hpp:77] Creating layer inception_4a/3x3_reduce
I0616 20:11:26.550879 42879 net.cpp:106] Creating Layer inception_4a/3x3_reduce
I0616 20:11:26.550899 42879 net.cpp:454] inception_4a/3x3_reduce <- pool3/3x3_s2_pool3/3x3_s2_0_split_1
I0616 20:11:26.550921 42879 net.cpp:411] inception_4a/3x3_reduce -> inception_4a/3x3_reduce
I0616 20:11:26.551946 42879 net.cpp:150] Setting up inception_4a/3x3_reduce
I0616 20:11:26.552011 42879 net.cpp:157] Top shape: 64 96 14 14 (1204224)
I0616 20:11:26.552053 42879 net.cpp:165] Memory required for data: 2302477312
I0616 20:11:26.552089 42879 layer_factory.hpp:77] Creating layer inception_4a/relu_3x3_reduce
I0616 20:11:26.552112 42879 net.cpp:106] Creating Layer inception_4a/relu_3x3_reduce
I0616 20:11:26.552130 42879 net.cpp:454] inception_4a/relu_3x3_reduce <- inception_4a/3x3_reduce
I0616 20:11:26.552150 42879 net.cpp:397] inception_4a/relu_3x3_reduce -> inception_4a/3x3_reduce (in-place)
I0616 20:11:26.552420 42879 net.cpp:150] Setting up inception_4a/relu_3x3_reduce
I0616 20:11:26.552466 42879 net.cpp:157] Top shape: 64 96 14 14 (1204224)
I0616 20:11:26.552498 42879 net.cpp:165] Memory required for data: 2307294208
I0616 20:11:26.552515 42879 layer_factory.hpp:77] Creating layer inception_4a/3x3
I0616 20:11:26.552542 42879 net.cpp:106] Creating Layer inception_4a/3x3
I0616 20:11:26.552563 42879 net.cpp:454] inception_4a/3x3 <- inception_4a/3x3_reduce
I0616 20:11:26.552585 42879 net.cpp:411] inception_4a/3x3 -> inception_4a/3x3
I0616 20:11:26.554734 42879 net.cpp:150] Setting up inception_4a/3x3
I0616 20:11:26.554775 42879 net.cpp:157] Top shape: 64 208 14 14 (2609152)
I0616 20:11:26.554795 42879 net.cpp:165] Memory required for data: 2317730816
I0616 20:11:26.554814 42879 layer_factory.hpp:77] Creating layer inception_4a/relu_3x3
I0616 20:11:26.554836 42879 net.cpp:106] Creating Layer inception_4a/relu_3x3
I0616 20:11:26.554853 42879 net.cpp:454] inception_4a/relu_3x3 <- inception_4a/3x3
I0616 20:11:26.554874 42879 net.cpp:397] inception_4a/relu_3x3 -> inception_4a/3x3 (in-place)
I0616 20:11:26.555042 42879 net.cpp:150] Setting up inception_4a/relu_3x3
I0616 20:11:26.555076 42879 net.cpp:157] Top shape: 64 208 14 14 (2609152)
I0616 20:11:26.555094 42879 net.cpp:165] Memory required for data: 2328167424
I0616 20:11:26.555110 42879 layer_factory.hpp:77] Creating layer inception_4a/5x5_reduce
I0616 20:11:26.555132 42879 net.cpp:106] Creating Layer inception_4a/5x5_reduce
I0616 20:11:26.555151 42879 net.cpp:454] inception_4a/5x5_reduce <- pool3/3x3_s2_pool3/3x3_s2_0_split_2
I0616 20:11:26.555174 42879 net.cpp:411] inception_4a/5x5_reduce -> inception_4a/5x5_reduce
I0616 20:11:26.556116 42879 net.cpp:150] Setting up inception_4a/5x5_reduce
I0616 20:11:26.556174 42879 net.cpp:157] Top shape: 64 16 14 14 (200704)
I0616 20:11:26.556221 42879 net.cpp:165] Memory required for data: 2328970240
I0616 20:11:26.556252 42879 layer_factory.hpp:77] Creating layer inception_4a/relu_5x5_reduce
I0616 20:11:26.556282 42879 net.cpp:106] Creating Layer inception_4a/relu_5x5_reduce
I0616 20:11:26.556313 42879 net.cpp:454] inception_4a/relu_5x5_reduce <- inception_4a/5x5_reduce
I0616 20:11:26.556334 42879 net.cpp:397] inception_4a/relu_5x5_reduce -> inception_4a/5x5_reduce (in-place)
I0616 20:11:26.556602 42879 net.cpp:150] Setting up inception_4a/relu_5x5_reduce
I0616 20:11:26.556638 42879 net.cpp:157] Top shape: 64 16 14 14 (200704)
I0616 20:11:26.556654 42879 net.cpp:165] Memory required for data: 2329773056
I0616 20:11:26.556671 42879 layer_factory.hpp:77] Creating layer inception_4a/5x5
I0616 20:11:26.556697 42879 net.cpp:106] Creating Layer inception_4a/5x5
I0616 20:11:26.556717 42879 net.cpp:454] inception_4a/5x5 <- inception_4a/5x5_reduce
I0616 20:11:26.556737 42879 net.cpp:411] inception_4a/5x5 -> inception_4a/5x5
I0616 20:11:26.557768 42879 net.cpp:150] Setting up inception_4a/5x5
I0616 20:11:26.557811 42879 net.cpp:157] Top shape: 64 48 14 14 (602112)
I0616 20:11:26.557832 42879 net.cpp:165] Memory required for data: 2332181504
I0616 20:11:26.557852 42879 layer_factory.hpp:77] Creating layer inception_4a/relu_5x5
I0616 20:11:26.557873 42879 net.cpp:106] Creating Layer inception_4a/relu_5x5
I0616 20:11:26.557891 42879 net.cpp:454] inception_4a/relu_5x5 <- inception_4a/5x5
I0616 20:11:26.557910 42879 net.cpp:397] inception_4a/relu_5x5 -> inception_4a/5x5 (in-place)
I0616 20:11:26.558239 42879 net.cpp:150] Setting up inception_4a/relu_5x5
I0616 20:11:26.558289 42879 net.cpp:157] Top shape: 64 48 14 14 (602112)
I0616 20:11:26.558318 42879 net.cpp:165] Memory required for data: 2334589952
I0616 20:11:26.558334 42879 layer_factory.hpp:77] Creating layer inception_4a/pool
I0616 20:11:26.558354 42879 net.cpp:106] Creating Layer inception_4a/pool
I0616 20:11:26.558384 42879 net.cpp:454] inception_4a/pool <- pool3/3x3_s2_pool3/3x3_s2_0_split_3
I0616 20:11:26.558408 42879 net.cpp:411] inception_4a/pool -> inception_4a/pool
I0616 20:11:26.558480 42879 net.cpp:150] Setting up inception_4a/pool
I0616 20:11:26.558507 42879 net.cpp:157] Top shape: 64 480 14 14 (6021120)
I0616 20:11:26.558524 42879 net.cpp:165] Memory required for data: 2358674432
I0616 20:11:26.558552 42879 layer_factory.hpp:77] Creating layer inception_4a/pool_proj
I0616 20:11:26.558593 42879 net.cpp:106] Creating Layer inception_4a/pool_proj
I0616 20:11:26.558612 42879 net.cpp:454] inception_4a/pool_proj <- inception_4a/pool
I0616 20:11:26.558634 42879 net.cpp:411] inception_4a/pool_proj -> inception_4a/pool_proj
I0616 20:11:26.559968 42879 net.cpp:150] Setting up inception_4a/pool_proj
I0616 20:11:26.560035 42879 net.cpp:157] Top shape: 64 64 14 14 (802816)
I0616 20:11:26.560065 42879 net.cpp:165] Memory required for data: 2361885696
I0616 20:11:26.560086 42879 layer_factory.hpp:77] Creating layer inception_4a/relu_pool_proj
I0616 20:11:26.560106 42879 net.cpp:106] Creating Layer inception_4a/relu_pool_proj
I0616 20:11:26.560124 42879 net.cpp:454] inception_4a/relu_pool_proj <- inception_4a/pool_proj
I0616 20:11:26.560142 42879 net.cpp:397] inception_4a/relu_pool_proj -> inception_4a/pool_proj (in-place)
I0616 20:11:26.560361 42879 net.cpp:150] Setting up inception_4a/relu_pool_proj
I0616 20:11:26.560425 42879 net.cpp:157] Top shape: 64 64 14 14 (802816)
I0616 20:11:26.560442 42879 net.cpp:165] Memory required for data: 2365096960
I0616 20:11:26.560458 42879 layer_factory.hpp:77] Creating layer inception_4a/output
I0616 20:11:26.560478 42879 net.cpp:106] Creating Layer inception_4a/output
I0616 20:11:26.560495 42879 net.cpp:454] inception_4a/output <- inception_4a/1x1
I0616 20:11:26.560513 42879 net.cpp:454] inception_4a/output <- inception_4a/3x3
I0616 20:11:26.560531 42879 net.cpp:454] inception_4a/output <- inception_4a/5x5
I0616 20:11:26.560549 42879 net.cpp:454] inception_4a/output <- inception_4a/pool_proj
I0616 20:11:26.560569 42879 net.cpp:411] inception_4a/output -> inception_4a/output
I0616 20:11:26.560614 42879 net.cpp:150] Setting up inception_4a/output
I0616 20:11:26.560642 42879 net.cpp:157] Top shape: 64 512 14 14 (6422528)
I0616 20:11:26.560657 42879 net.cpp:165] Memory required for data: 2390787072
I0616 20:11:26.560672 42879 layer_factory.hpp:77] Creating layer inception_4a/output_inception_4a/output_0_split
I0616 20:11:26.560691 42879 net.cpp:106] Creating Layer inception_4a/output_inception_4a/output_0_split
I0616 20:11:26.560708 42879 net.cpp:454] inception_4a/output_inception_4a/output_0_split <- inception_4a/output
I0616 20:11:26.560727 42879 net.cpp:411] inception_4a/output_inception_4a/output_0_split -> inception_4a/output_inception_4a/output_0_split_0
I0616 20:11:26.560750 42879 net.cpp:411] inception_4a/output_inception_4a/output_0_split -> inception_4a/output_inception_4a/output_0_split_1
I0616 20:11:26.560773 42879 net.cpp:411] inception_4a/output_inception_4a/output_0_split -> inception_4a/output_inception_4a/output_0_split_2
I0616 20:11:26.560794 42879 net.cpp:411] inception_4a/output_inception_4a/output_0_split -> inception_4a/output_inception_4a/output_0_split_3
I0616 20:11:26.560816 42879 net.cpp:411] inception_4a/output_inception_4a/output_0_split -> inception_4a/output_inception_4a/output_0_split_4
I0616 20:11:26.560897 42879 net.cpp:150] Setting up inception_4a/output_inception_4a/output_0_split
I0616 20:11:26.560935 42879 net.cpp:157] Top shape: 64 512 14 14 (6422528)
I0616 20:11:26.560955 42879 net.cpp:157] Top shape: 64 512 14 14 (6422528)
I0616 20:11:26.560976 42879 net.cpp:157] Top shape: 64 512 14 14 (6422528)
I0616 20:11:26.561012 42879 net.cpp:157] Top shape: 64 512 14 14 (6422528)
I0616 20:11:26.561039 42879 net.cpp:157] Top shape: 64 512 14 14 (6422528)
I0616 20:11:26.561054 42879 net.cpp:165] Memory required for data: 2519237632
I0616 20:11:26.561070 42879 layer_factory.hpp:77] Creating layer loss1/ave_pool
I0616 20:11:26.561090 42879 net.cpp:106] Creating Layer loss1/ave_pool
I0616 20:11:26.561108 42879 net.cpp:454] loss1/ave_pool <- inception_4a/output_inception_4a/output_0_split_0
I0616 20:11:26.561127 42879 net.cpp:411] loss1/ave_pool -> loss1/ave_pool
I0616 20:11:26.561441 42879 net.cpp:150] Setting up loss1/ave_pool
I0616 20:11:26.561480 42879 net.cpp:157] Top shape: 64 512 4 4 (524288)
I0616 20:11:26.561499 42879 net.cpp:165] Memory required for data: 2521334784
I0616 20:11:26.561542 42879 layer_factory.hpp:77] Creating layer loss1/conv
I0616 20:11:26.561571 42879 net.cpp:106] Creating Layer loss1/conv
I0616 20:11:26.561592 42879 net.cpp:454] loss1/conv <- loss1/ave_pool
I0616 20:11:26.561612 42879 net.cpp:411] loss1/conv -> loss1/conv
I0616 20:11:26.562827 42879 net.cpp:150] Setting up loss1/conv
I0616 20:11:26.562866 42879 net.cpp:157] Top shape: 64 128 4 4 (131072)
I0616 20:11:26.562885 42879 net.cpp:165] Memory required for data: 2521859072
I0616 20:11:26.562904 42879 layer_factory.hpp:77] Creating layer loss1/relu_conv
I0616 20:11:26.562925 42879 net.cpp:106] Creating Layer loss1/relu_conv
I0616 20:11:26.562943 42879 net.cpp:454] loss1/relu_conv <- loss1/conv
I0616 20:11:26.562968 42879 net.cpp:397] loss1/relu_conv -> loss1/conv (in-place)
I0616 20:11:26.563158 42879 net.cpp:150] Setting up loss1/relu_conv
I0616 20:11:26.563190 42879 net.cpp:157] Top shape: 64 128 4 4 (131072)
I0616 20:11:26.563207 42879 net.cpp:165] Memory required for data: 2522383360
I0616 20:11:26.563223 42879 layer_factory.hpp:77] Creating layer loss1/fc
I0616 20:11:26.563249 42879 net.cpp:106] Creating Layer loss1/fc
I0616 20:11:26.563268 42879 net.cpp:454] loss1/fc <- loss1/conv
I0616 20:11:26.563292 42879 net.cpp:411] loss1/fc -> loss1/fc
I0616 20:11:26.576539 42879 net.cpp:150] Setting up loss1/fc
I0616 20:11:26.576601 42879 net.cpp:157] Top shape: 64 1024 (65536)
I0616 20:11:26.576619 42879 net.cpp:165] Memory required for data: 2522645504
I0616 20:11:26.576652 42879 layer_factory.hpp:77] Creating layer loss1/relu_fc
I0616 20:11:26.576683 42879 net.cpp:106] Creating Layer loss1/relu_fc
I0616 20:11:26.576704 42879 net.cpp:454] loss1/relu_fc <- loss1/fc
I0616 20:11:26.576746 42879 net.cpp:397] loss1/relu_fc -> loss1/fc (in-place)
I0616 20:11:26.577116 42879 net.cpp:150] Setting up loss1/relu_fc
I0616 20:11:26.577152 42879 net.cpp:157] Top shape: 64 1024 (65536)
I0616 20:11:26.577169 42879 net.cpp:165] Memory required for data: 2522907648
I0616 20:11:26.577185 42879 layer_factory.hpp:77] Creating layer loss1/drop_fc
I0616 20:11:26.577215 42879 net.cpp:106] Creating Layer loss1/drop_fc
I0616 20:11:26.577237 42879 net.cpp:454] loss1/drop_fc <- loss1/fc
I0616 20:11:26.577256 42879 net.cpp:397] loss1/drop_fc -> loss1/fc (in-place)
I0616 20:11:26.577311 42879 net.cpp:150] Setting up loss1/drop_fc
I0616 20:11:26.577339 42879 net.cpp:157] Top shape: 64 1024 (65536)
I0616 20:11:26.577358 42879 net.cpp:165] Memory required for data: 2523169792
I0616 20:11:26.577374 42879 layer_factory.hpp:77] Creating layer loss1/classifier
I0616 20:11:26.577394 42879 net.cpp:106] Creating Layer loss1/classifier
I0616 20:11:26.577412 42879 net.cpp:454] loss1/classifier <- loss1/fc
I0616 20:11:26.577433 42879 net.cpp:411] loss1/classifier -> loss1/classifier
I0616 20:11:26.584405 42879 net.cpp:150] Setting up loss1/classifier
I0616 20:11:26.584471 42879 net.cpp:157] Top shape: 64 1000 (64000)
I0616 20:11:26.584491 42879 net.cpp:165] Memory required for data: 2523425792
I0616 20:11:26.584520 42879 layer_factory.hpp:77] Creating layer loss1/loss
I0616 20:11:26.584549 42879 net.cpp:106] Creating Layer loss1/loss
I0616 20:11:26.584568 42879 net.cpp:454] loss1/loss <- loss1/classifier
I0616 20:11:26.584586 42879 net.cpp:454] loss1/loss <- label_data_1_split_0
I0616 20:11:26.584606 42879 net.cpp:411] loss1/loss -> loss1/loss1
I0616 20:11:26.584637 42879 layer_factory.hpp:77] Creating layer loss1/loss
I0616 20:11:26.585505 42879 net.cpp:150] Setting up loss1/loss
I0616 20:11:26.585566 42879 net.cpp:157] Top shape: (1)
I0616 20:11:26.585584 42879 net.cpp:160]     with loss weight 0.3
I0616 20:11:26.585702 42879 net.cpp:165] Memory required for data: 2523425796
I0616 20:11:26.585737 42879 layer_factory.hpp:77] Creating layer inception_4b/1x1
I0616 20:11:26.585763 42879 net.cpp:106] Creating Layer inception_4b/1x1
I0616 20:11:26.585785 42879 net.cpp:454] inception_4b/1x1 <- inception_4a/output_inception_4a/output_0_split_1
I0616 20:11:26.585809 42879 net.cpp:411] inception_4b/1x1 -> inception_4b/1x1
I0616 20:11:26.587654 42879 net.cpp:150] Setting up inception_4b/1x1
I0616 20:11:26.587707 42879 net.cpp:157] Top shape: 64 160 14 14 (2007040)
I0616 20:11:26.587726 42879 net.cpp:165] Memory required for data: 2531453956
I0616 20:11:26.587746 42879 layer_factory.hpp:77] Creating layer inception_4b/relu_1x1
I0616 20:11:26.587769 42879 net.cpp:106] Creating Layer inception_4b/relu_1x1
I0616 20:11:26.587788 42879 net.cpp:454] inception_4b/relu_1x1 <- inception_4b/1x1
I0616 20:11:26.587806 42879 net.cpp:397] inception_4b/relu_1x1 -> inception_4b/1x1 (in-place)
I0616 20:11:26.587976 42879 net.cpp:150] Setting up inception_4b/relu_1x1
I0616 20:11:26.588032 42879 net.cpp:157] Top shape: 64 160 14 14 (2007040)
I0616 20:11:26.588074 42879 net.cpp:165] Memory required for data: 2539482116
I0616 20:11:26.588090 42879 layer_factory.hpp:77] Creating layer inception_4b/3x3_reduce
I0616 20:11:26.588114 42879 net.cpp:106] Creating Layer inception_4b/3x3_reduce
I0616 20:11:26.588135 42879 net.cpp:454] inception_4b/3x3_reduce <- inception_4a/output_inception_4a/output_0_split_2
I0616 20:11:26.588155 42879 net.cpp:411] inception_4b/3x3_reduce -> inception_4b/3x3_reduce
I0616 20:11:26.589310 42879 net.cpp:150] Setting up inception_4b/3x3_reduce
I0616 20:11:26.589349 42879 net.cpp:157] Top shape: 64 112 14 14 (1404928)
I0616 20:11:26.589368 42879 net.cpp:165] Memory required for data: 2545101828
I0616 20:11:26.589388 42879 layer_factory.hpp:77] Creating layer inception_4b/relu_3x3_reduce
I0616 20:11:26.589413 42879 net.cpp:106] Creating Layer inception_4b/relu_3x3_reduce
I0616 20:11:26.589432 42879 net.cpp:454] inception_4b/relu_3x3_reduce <- inception_4b/3x3_reduce
I0616 20:11:26.589452 42879 net.cpp:397] inception_4b/relu_3x3_reduce -> inception_4b/3x3_reduce (in-place)
I0616 20:11:26.589725 42879 net.cpp:150] Setting up inception_4b/relu_3x3_reduce
I0616 20:11:26.589762 42879 net.cpp:157] Top shape: 64 112 14 14 (1404928)
I0616 20:11:26.589781 42879 net.cpp:165] Memory required for data: 2550721540
I0616 20:11:26.589797 42879 layer_factory.hpp:77] Creating layer inception_4b/3x3
I0616 20:11:26.589821 42879 net.cpp:106] Creating Layer inception_4b/3x3
I0616 20:11:26.589841 42879 net.cpp:454] inception_4b/3x3 <- inception_4b/3x3_reduce
I0616 20:11:26.589862 42879 net.cpp:411] inception_4b/3x3 -> inception_4b/3x3
I0616 20:11:26.592430 42879 net.cpp:150] Setting up inception_4b/3x3
I0616 20:11:26.592473 42879 net.cpp:157] Top shape: 64 224 14 14 (2809856)
I0616 20:11:26.592492 42879 net.cpp:165] Memory required for data: 2561960964
I0616 20:11:26.592512 42879 layer_factory.hpp:77] Creating layer inception_4b/relu_3x3
I0616 20:11:26.592533 42879 net.cpp:106] Creating Layer inception_4b/relu_3x3
I0616 20:11:26.592552 42879 net.cpp:454] inception_4b/relu_3x3 <- inception_4b/3x3
I0616 20:11:26.592571 42879 net.cpp:397] inception_4b/relu_3x3 -> inception_4b/3x3 (in-place)
I0616 20:11:26.592735 42879 net.cpp:150] Setting up inception_4b/relu_3x3
I0616 20:11:26.592766 42879 net.cpp:157] Top shape: 64 224 14 14 (2809856)
I0616 20:11:26.592782 42879 net.cpp:165] Memory required for data: 2573200388
I0616 20:11:26.592798 42879 layer_factory.hpp:77] Creating layer inception_4b/5x5_reduce
I0616 20:11:26.592823 42879 net.cpp:106] Creating Layer inception_4b/5x5_reduce
I0616 20:11:26.592844 42879 net.cpp:454] inception_4b/5x5_reduce <- inception_4a/output_inception_4a/output_0_split_3
I0616 20:11:26.592866 42879 net.cpp:411] inception_4b/5x5_reduce -> inception_4b/5x5_reduce
I0616 20:11:26.593863 42879 net.cpp:150] Setting up inception_4b/5x5_reduce
I0616 20:11:26.593905 42879 net.cpp:157] Top shape: 64 24 14 14 (301056)
I0616 20:11:26.593924 42879 net.cpp:165] Memory required for data: 2574404612
I0616 20:11:26.593943 42879 layer_factory.hpp:77] Creating layer inception_4b/relu_5x5_reduce
I0616 20:11:26.593987 42879 net.cpp:106] Creating Layer inception_4b/relu_5x5_reduce
I0616 20:11:26.594014 42879 net.cpp:454] inception_4b/relu_5x5_reduce <- inception_4b/5x5_reduce
I0616 20:11:26.594055 42879 net.cpp:397] inception_4b/relu_5x5_reduce -> inception_4b/5x5_reduce (in-place)
I0616 20:11:26.594256 42879 net.cpp:150] Setting up inception_4b/relu_5x5_reduce
I0616 20:11:26.594290 42879 net.cpp:157] Top shape: 64 24 14 14 (301056)
I0616 20:11:26.594306 42879 net.cpp:165] Memory required for data: 2575608836
I0616 20:11:26.594322 42879 layer_factory.hpp:77] Creating layer inception_4b/5x5
I0616 20:11:26.594349 42879 net.cpp:106] Creating Layer inception_4b/5x5
I0616 20:11:26.594369 42879 net.cpp:454] inception_4b/5x5 <- inception_4b/5x5_reduce
I0616 20:11:26.594391 42879 net.cpp:411] inception_4b/5x5 -> inception_4b/5x5
I0616 20:11:26.595500 42879 net.cpp:150] Setting up inception_4b/5x5
I0616 20:11:26.595540 42879 net.cpp:157] Top shape: 64 64 14 14 (802816)
I0616 20:11:26.595557 42879 net.cpp:165] Memory required for data: 2578820100
I0616 20:11:26.595577 42879 layer_factory.hpp:77] Creating layer inception_4b/relu_5x5
I0616 20:11:26.595600 42879 net.cpp:106] Creating Layer inception_4b/relu_5x5
I0616 20:11:26.595619 42879 net.cpp:454] inception_4b/relu_5x5 <- inception_4b/5x5
I0616 20:11:26.595638 42879 net.cpp:397] inception_4b/relu_5x5 -> inception_4b/5x5 (in-place)
I0616 20:11:26.595911 42879 net.cpp:150] Setting up inception_4b/relu_5x5
I0616 20:11:26.595947 42879 net.cpp:157] Top shape: 64 64 14 14 (802816)
I0616 20:11:26.595969 42879 net.cpp:165] Memory required for data: 2582031364
I0616 20:11:26.595988 42879 layer_factory.hpp:77] Creating layer inception_4b/pool
I0616 20:11:26.596009 42879 net.cpp:106] Creating Layer inception_4b/pool
I0616 20:11:26.596029 42879 net.cpp:454] inception_4b/pool <- inception_4a/output_inception_4a/output_0_split_4
I0616 20:11:26.596048 42879 net.cpp:411] inception_4b/pool -> inception_4b/pool
I0616 20:11:26.596117 42879 net.cpp:150] Setting up inception_4b/pool
I0616 20:11:26.596145 42879 net.cpp:157] Top shape: 64 512 14 14 (6422528)
I0616 20:11:26.596161 42879 net.cpp:165] Memory required for data: 2607721476
I0616 20:11:26.596177 42879 layer_factory.hpp:77] Creating layer inception_4b/pool_proj
I0616 20:11:26.596201 42879 net.cpp:106] Creating Layer inception_4b/pool_proj
I0616 20:11:26.596220 42879 net.cpp:454] inception_4b/pool_proj <- inception_4b/pool
I0616 20:11:26.596242 42879 net.cpp:411] inception_4b/pool_proj -> inception_4b/pool_proj
I0616 20:11:26.597311 42879 net.cpp:150] Setting up inception_4b/pool_proj
I0616 20:11:26.597352 42879 net.cpp:157] Top shape: 64 64 14 14 (802816)
I0616 20:11:26.597371 42879 net.cpp:165] Memory required for data: 2610932740
I0616 20:11:26.597391 42879 layer_factory.hpp:77] Creating layer inception_4b/relu_pool_proj
I0616 20:11:26.597414 42879 net.cpp:106] Creating Layer inception_4b/relu_pool_proj
I0616 20:11:26.597431 42879 net.cpp:454] inception_4b/relu_pool_proj <- inception_4b/pool_proj
I0616 20:11:26.597450 42879 net.cpp:397] inception_4b/relu_pool_proj -> inception_4b/pool_proj (in-place)
I0616 20:11:26.597658 42879 net.cpp:150] Setting up inception_4b/relu_pool_proj
I0616 20:11:26.597692 42879 net.cpp:157] Top shape: 64 64 14 14 (802816)
I0616 20:11:26.597708 42879 net.cpp:165] Memory required for data: 2614144004
I0616 20:11:26.597724 42879 layer_factory.hpp:77] Creating layer inception_4b/output
I0616 20:11:26.597745 42879 net.cpp:106] Creating Layer inception_4b/output
I0616 20:11:26.597775 42879 net.cpp:454] inception_4b/output <- inception_4b/1x1
I0616 20:11:26.597797 42879 net.cpp:454] inception_4b/output <- inception_4b/3x3
I0616 20:11:26.597816 42879 net.cpp:454] inception_4b/output <- inception_4b/5x5
I0616 20:11:26.597833 42879 net.cpp:454] inception_4b/output <- inception_4b/pool_proj
I0616 20:11:26.597851 42879 net.cpp:411] inception_4b/output -> inception_4b/output
I0616 20:11:26.597897 42879 net.cpp:150] Setting up inception_4b/output
I0616 20:11:26.597923 42879 net.cpp:157] Top shape: 64 512 14 14 (6422528)
I0616 20:11:26.597939 42879 net.cpp:165] Memory required for data: 2639834116
I0616 20:11:26.597954 42879 layer_factory.hpp:77] Creating layer inception_4b/output_inception_4b/output_0_split
I0616 20:11:26.597983 42879 net.cpp:106] Creating Layer inception_4b/output_inception_4b/output_0_split
I0616 20:11:26.598037 42879 net.cpp:454] inception_4b/output_inception_4b/output_0_split <- inception_4b/output
I0616 20:11:26.598070 42879 net.cpp:411] inception_4b/output_inception_4b/output_0_split -> inception_4b/output_inception_4b/output_0_split_0
I0616 20:11:26.598093 42879 net.cpp:411] inception_4b/output_inception_4b/output_0_split -> inception_4b/output_inception_4b/output_0_split_1
I0616 20:11:26.598114 42879 net.cpp:411] inception_4b/output_inception_4b/output_0_split -> inception_4b/output_inception_4b/output_0_split_2
I0616 20:11:26.598135 42879 net.cpp:411] inception_4b/output_inception_4b/output_0_split -> inception_4b/output_inception_4b/output_0_split_3
I0616 20:11:26.598218 42879 net.cpp:150] Setting up inception_4b/output_inception_4b/output_0_split
I0616 20:11:26.598268 42879 net.cpp:157] Top shape: 64 512 14 14 (6422528)
I0616 20:11:26.598309 42879 net.cpp:157] Top shape: 64 512 14 14 (6422528)
I0616 20:11:26.598337 42879 net.cpp:157] Top shape: 64 512 14 14 (6422528)
I0616 20:11:26.598356 42879 net.cpp:157] Top shape: 64 512 14 14 (6422528)
I0616 20:11:26.598374 42879 net.cpp:165] Memory required for data: 2742594564
I0616 20:11:26.598393 42879 layer_factory.hpp:77] Creating layer inception_4c/1x1
I0616 20:11:26.598415 42879 net.cpp:106] Creating Layer inception_4c/1x1
I0616 20:11:26.598433 42879 net.cpp:454] inception_4c/1x1 <- inception_4b/output_inception_4b/output_0_split_0
I0616 20:11:26.598453 42879 net.cpp:411] inception_4c/1x1 -> inception_4c/1x1
I0616 20:11:26.599653 42879 net.cpp:150] Setting up inception_4c/1x1
I0616 20:11:26.599691 42879 net.cpp:157] Top shape: 64 128 14 14 (1605632)
I0616 20:11:26.599710 42879 net.cpp:165] Memory required for data: 2749017092
I0616 20:11:26.599730 42879 layer_factory.hpp:77] Creating layer inception_4c/relu_1x1
I0616 20:11:26.599750 42879 net.cpp:106] Creating Layer inception_4c/relu_1x1
I0616 20:11:26.599768 42879 net.cpp:454] inception_4c/relu_1x1 <- inception_4c/1x1
I0616 20:11:26.599789 42879 net.cpp:397] inception_4c/relu_1x1 -> inception_4c/1x1 (in-place)
I0616 20:11:26.599959 42879 net.cpp:150] Setting up inception_4c/relu_1x1
I0616 20:11:26.600000 42879 net.cpp:157] Top shape: 64 128 14 14 (1605632)
I0616 20:11:26.600018 42879 net.cpp:165] Memory required for data: 2755439620
I0616 20:11:26.600034 42879 layer_factory.hpp:77] Creating layer inception_4c/3x3_reduce
I0616 20:11:26.600059 42879 net.cpp:106] Creating Layer inception_4c/3x3_reduce
I0616 20:11:26.600086 42879 net.cpp:454] inception_4c/3x3_reduce <- inception_4b/output_inception_4b/output_0_split_1
I0616 20:11:26.600111 42879 net.cpp:411] inception_4c/3x3_reduce -> inception_4c/3x3_reduce
I0616 20:11:26.602215 42879 net.cpp:150] Setting up inception_4c/3x3_reduce
I0616 20:11:26.602277 42879 net.cpp:157] Top shape: 64 128 14 14 (1605632)
I0616 20:11:26.602306 42879 net.cpp:165] Memory required for data: 2761862148
I0616 20:11:26.602326 42879 layer_factory.hpp:77] Creating layer inception_4c/relu_3x3_reduce
I0616 20:11:26.602349 42879 net.cpp:106] Creating Layer inception_4c/relu_3x3_reduce
I0616 20:11:26.602370 42879 net.cpp:454] inception_4c/relu_3x3_reduce <- inception_4c/3x3_reduce
I0616 20:11:26.602388 42879 net.cpp:397] inception_4c/relu_3x3_reduce -> inception_4c/3x3_reduce (in-place)
I0616 20:11:26.602669 42879 net.cpp:150] Setting up inception_4c/relu_3x3_reduce
I0616 20:11:26.602708 42879 net.cpp:157] Top shape: 64 128 14 14 (1605632)
I0616 20:11:26.602727 42879 net.cpp:165] Memory required for data: 2768284676
I0616 20:11:26.602743 42879 layer_factory.hpp:77] Creating layer inception_4c/3x3
I0616 20:11:26.602771 42879 net.cpp:106] Creating Layer inception_4c/3x3
I0616 20:11:26.602792 42879 net.cpp:454] inception_4c/3x3 <- inception_4c/3x3_reduce
I0616 20:11:26.602823 42879 net.cpp:411] inception_4c/3x3 -> inception_4c/3x3
I0616 20:11:26.606003 42879 net.cpp:150] Setting up inception_4c/3x3
I0616 20:11:26.606060 42879 net.cpp:157] Top shape: 64 256 14 14 (3211264)
I0616 20:11:26.606078 42879 net.cpp:165] Memory required for data: 2781129732
I0616 20:11:26.606122 42879 layer_factory.hpp:77] Creating layer inception_4c/relu_3x3
I0616 20:11:26.606161 42879 net.cpp:106] Creating Layer inception_4c/relu_3x3
I0616 20:11:26.606181 42879 net.cpp:454] inception_4c/relu_3x3 <- inception_4c/3x3
I0616 20:11:26.606200 42879 net.cpp:397] inception_4c/relu_3x3 -> inception_4c/3x3 (in-place)
I0616 20:11:26.606374 42879 net.cpp:150] Setting up inception_4c/relu_3x3
I0616 20:11:26.606406 42879 net.cpp:157] Top shape: 64 256 14 14 (3211264)
I0616 20:11:26.606423 42879 net.cpp:165] Memory required for data: 2793974788
I0616 20:11:26.606439 42879 layer_factory.hpp:77] Creating layer inception_4c/5x5_reduce
I0616 20:11:26.606465 42879 net.cpp:106] Creating Layer inception_4c/5x5_reduce
I0616 20:11:26.606485 42879 net.cpp:454] inception_4c/5x5_reduce <- inception_4b/output_inception_4b/output_0_split_2
I0616 20:11:26.606505 42879 net.cpp:411] inception_4c/5x5_reduce -> inception_4c/5x5_reduce
I0616 20:11:26.607523 42879 net.cpp:150] Setting up inception_4c/5x5_reduce
I0616 20:11:26.607563 42879 net.cpp:157] Top shape: 64 24 14 14 (301056)
I0616 20:11:26.607580 42879 net.cpp:165] Memory required for data: 2795179012
I0616 20:11:26.607600 42879 layer_factory.hpp:77] Creating layer inception_4c/relu_5x5_reduce
I0616 20:11:26.607621 42879 net.cpp:106] Creating Layer inception_4c/relu_5x5_reduce
I0616 20:11:26.607640 42879 net.cpp:454] inception_4c/relu_5x5_reduce <- inception_4c/5x5_reduce
I0616 20:11:26.607661 42879 net.cpp:397] inception_4c/relu_5x5_reduce -> inception_4c/5x5_reduce (in-place)
I0616 20:11:26.607832 42879 net.cpp:150] Setting up inception_4c/relu_5x5_reduce
I0616 20:11:26.607866 42879 net.cpp:157] Top shape: 64 24 14 14 (301056)
I0616 20:11:26.607882 42879 net.cpp:165] Memory required for data: 2796383236
I0616 20:11:26.607899 42879 layer_factory.hpp:77] Creating layer inception_4c/5x5
I0616 20:11:26.607921 42879 net.cpp:106] Creating Layer inception_4c/5x5
I0616 20:11:26.607940 42879 net.cpp:454] inception_4c/5x5 <- inception_4c/5x5_reduce
I0616 20:11:26.607965 42879 net.cpp:411] inception_4c/5x5 -> inception_4c/5x5
I0616 20:11:26.609155 42879 net.cpp:150] Setting up inception_4c/5x5
I0616 20:11:26.609194 42879 net.cpp:157] Top shape: 64 64 14 14 (802816)
I0616 20:11:26.609213 42879 net.cpp:165] Memory required for data: 2799594500
I0616 20:11:26.609233 42879 layer_factory.hpp:77] Creating layer inception_4c/relu_5x5
I0616 20:11:26.609256 42879 net.cpp:106] Creating Layer inception_4c/relu_5x5
I0616 20:11:26.609274 42879 net.cpp:454] inception_4c/relu_5x5 <- inception_4c/5x5
I0616 20:11:26.609293 42879 net.cpp:397] inception_4c/relu_5x5 -> inception_4c/5x5 (in-place)
I0616 20:11:26.609606 42879 net.cpp:150] Setting up inception_4c/relu_5x5
I0616 20:11:26.609644 42879 net.cpp:157] Top shape: 64 64 14 14 (802816)
I0616 20:11:26.609663 42879 net.cpp:165] Memory required for data: 2802805764
I0616 20:11:26.609679 42879 layer_factory.hpp:77] Creating layer inception_4c/pool
I0616 20:11:26.609699 42879 net.cpp:106] Creating Layer inception_4c/pool
I0616 20:11:26.609717 42879 net.cpp:454] inception_4c/pool <- inception_4b/output_inception_4b/output_0_split_3
I0616 20:11:26.609736 42879 net.cpp:411] inception_4c/pool -> inception_4c/pool
I0616 20:11:26.609800 42879 net.cpp:150] Setting up inception_4c/pool
I0616 20:11:26.609827 42879 net.cpp:157] Top shape: 64 512 14 14 (6422528)
I0616 20:11:26.609843 42879 net.cpp:165] Memory required for data: 2828495876
I0616 20:11:26.609859 42879 layer_factory.hpp:77] Creating layer inception_4c/pool_proj
I0616 20:11:26.609884 42879 net.cpp:106] Creating Layer inception_4c/pool_proj
I0616 20:11:26.609902 42879 net.cpp:454] inception_4c/pool_proj <- inception_4c/pool
I0616 20:11:26.609925 42879 net.cpp:411] inception_4c/pool_proj -> inception_4c/pool_proj
I0616 20:11:26.611079 42879 net.cpp:150] Setting up inception_4c/pool_proj
I0616 20:11:26.611117 42879 net.cpp:157] Top shape: 64 64 14 14 (802816)
I0616 20:11:26.611136 42879 net.cpp:165] Memory required for data: 2831707140
I0616 20:11:26.611156 42879 layer_factory.hpp:77] Creating layer inception_4c/relu_pool_proj
I0616 20:11:26.611202 42879 net.cpp:106] Creating Layer inception_4c/relu_pool_proj
I0616 20:11:26.611223 42879 net.cpp:454] inception_4c/relu_pool_proj <- inception_4c/pool_proj
I0616 20:11:26.611243 42879 net.cpp:397] inception_4c/relu_pool_proj -> inception_4c/pool_proj (in-place)
I0616 20:11:26.611418 42879 net.cpp:150] Setting up inception_4c/relu_pool_proj
I0616 20:11:26.611450 42879 net.cpp:157] Top shape: 64 64 14 14 (802816)
I0616 20:11:26.611467 42879 net.cpp:165] Memory required for data: 2834918404
I0616 20:11:26.611484 42879 layer_factory.hpp:77] Creating layer inception_4c/output
I0616 20:11:26.611502 42879 net.cpp:106] Creating Layer inception_4c/output
I0616 20:11:26.611521 42879 net.cpp:454] inception_4c/output <- inception_4c/1x1
I0616 20:11:26.611538 42879 net.cpp:454] inception_4c/output <- inception_4c/3x3
I0616 20:11:26.611557 42879 net.cpp:454] inception_4c/output <- inception_4c/5x5
I0616 20:11:26.611573 42879 net.cpp:454] inception_4c/output <- inception_4c/pool_proj
I0616 20:11:26.611593 42879 net.cpp:411] inception_4c/output -> inception_4c/output
I0616 20:11:26.611641 42879 net.cpp:150] Setting up inception_4c/output
I0616 20:11:26.611667 42879 net.cpp:157] Top shape: 64 512 14 14 (6422528)
I0616 20:11:26.611685 42879 net.cpp:165] Memory required for data: 2860608516
I0616 20:11:26.611701 42879 layer_factory.hpp:77] Creating layer inception_4c/output_inception_4c/output_0_split
I0616 20:11:26.611723 42879 net.cpp:106] Creating Layer inception_4c/output_inception_4c/output_0_split
I0616 20:11:26.611742 42879 net.cpp:454] inception_4c/output_inception_4c/output_0_split <- inception_4c/output
I0616 20:11:26.611760 42879 net.cpp:411] inception_4c/output_inception_4c/output_0_split -> inception_4c/output_inception_4c/output_0_split_0
I0616 20:11:26.611783 42879 net.cpp:411] inception_4c/output_inception_4c/output_0_split -> inception_4c/output_inception_4c/output_0_split_1
I0616 20:11:26.611804 42879 net.cpp:411] inception_4c/output_inception_4c/output_0_split -> inception_4c/output_inception_4c/output_0_split_2
I0616 20:11:26.611825 42879 net.cpp:411] inception_4c/output_inception_4c/output_0_split -> inception_4c/output_inception_4c/output_0_split_3
I0616 20:11:26.611907 42879 net.cpp:150] Setting up inception_4c/output_inception_4c/output_0_split
I0616 20:11:26.611932 42879 net.cpp:157] Top shape: 64 512 14 14 (6422528)
I0616 20:11:26.611949 42879 net.cpp:157] Top shape: 64 512 14 14 (6422528)
I0616 20:11:26.611971 42879 net.cpp:157] Top shape: 64 512 14 14 (6422528)
I0616 20:11:26.611989 42879 net.cpp:157] Top shape: 64 512 14 14 (6422528)
I0616 20:11:26.612016 42879 net.cpp:165] Memory required for data: 2963368964
I0616 20:11:26.612043 42879 layer_factory.hpp:77] Creating layer inception_4d/1x1
I0616 20:11:26.612089 42879 net.cpp:106] Creating Layer inception_4d/1x1
I0616 20:11:26.612109 42879 net.cpp:454] inception_4d/1x1 <- inception_4c/output_inception_4c/output_0_split_0
I0616 20:11:26.612131 42879 net.cpp:411] inception_4d/1x1 -> inception_4d/1x1
I0616 20:11:26.613364 42879 net.cpp:150] Setting up inception_4d/1x1
I0616 20:11:26.613405 42879 net.cpp:157] Top shape: 64 112 14 14 (1404928)
I0616 20:11:26.613425 42879 net.cpp:165] Memory required for data: 2968988676
I0616 20:11:26.613445 42879 layer_factory.hpp:77] Creating layer inception_4d/relu_1x1
I0616 20:11:26.613466 42879 net.cpp:106] Creating Layer inception_4d/relu_1x1
I0616 20:11:26.613483 42879 net.cpp:454] inception_4d/relu_1x1 <- inception_4d/1x1
I0616 20:11:26.613502 42879 net.cpp:397] inception_4d/relu_1x1 -> inception_4d/1x1 (in-place)
I0616 20:11:26.613677 42879 net.cpp:150] Setting up inception_4d/relu_1x1
I0616 20:11:26.613709 42879 net.cpp:157] Top shape: 64 112 14 14 (1404928)
I0616 20:11:26.613725 42879 net.cpp:165] Memory required for data: 2974608388
I0616 20:11:26.613742 42879 layer_factory.hpp:77] Creating layer inception_4d/3x3_reduce
I0616 20:11:26.613766 42879 net.cpp:106] Creating Layer inception_4d/3x3_reduce
I0616 20:11:26.613786 42879 net.cpp:454] inception_4d/3x3_reduce <- inception_4c/output_inception_4c/output_0_split_1
I0616 20:11:26.613833 42879 net.cpp:411] inception_4d/3x3_reduce -> inception_4d/3x3_reduce
I0616 20:11:26.615164 42879 net.cpp:150] Setting up inception_4d/3x3_reduce
I0616 20:11:26.615203 42879 net.cpp:157] Top shape: 64 144 14 14 (1806336)
I0616 20:11:26.615222 42879 net.cpp:165] Memory required for data: 2981833732
I0616 20:11:26.615242 42879 layer_factory.hpp:77] Creating layer inception_4d/relu_3x3_reduce
I0616 20:11:26.615265 42879 net.cpp:106] Creating Layer inception_4d/relu_3x3_reduce
I0616 20:11:26.615284 42879 net.cpp:454] inception_4d/relu_3x3_reduce <- inception_4d/3x3_reduce
I0616 20:11:26.615303 42879 net.cpp:397] inception_4d/relu_3x3_reduce -> inception_4d/3x3_reduce (in-place)
I0616 20:11:26.615591 42879 net.cpp:150] Setting up inception_4d/relu_3x3_reduce
I0616 20:11:26.615628 42879 net.cpp:157] Top shape: 64 144 14 14 (1806336)
I0616 20:11:26.615645 42879 net.cpp:165] Memory required for data: 2989059076
I0616 20:11:26.615663 42879 layer_factory.hpp:77] Creating layer inception_4d/3x3
I0616 20:11:26.615686 42879 net.cpp:106] Creating Layer inception_4d/3x3
I0616 20:11:26.615706 42879 net.cpp:454] inception_4d/3x3 <- inception_4d/3x3_reduce
I0616 20:11:26.615727 42879 net.cpp:411] inception_4d/3x3 -> inception_4d/3x3
I0616 20:11:26.619112 42879 net.cpp:150] Setting up inception_4d/3x3
I0616 20:11:26.619153 42879 net.cpp:157] Top shape: 64 288 14 14 (3612672)
I0616 20:11:26.619171 42879 net.cpp:165] Memory required for data: 3003509764
I0616 20:11:26.619191 42879 layer_factory.hpp:77] Creating layer inception_4d/relu_3x3
I0616 20:11:26.619212 42879 net.cpp:106] Creating Layer inception_4d/relu_3x3
I0616 20:11:26.619231 42879 net.cpp:454] inception_4d/relu_3x3 <- inception_4d/3x3
I0616 20:11:26.619252 42879 net.cpp:397] inception_4d/relu_3x3 -> inception_4d/3x3 (in-place)
I0616 20:11:26.619427 42879 net.cpp:150] Setting up inception_4d/relu_3x3
I0616 20:11:26.619462 42879 net.cpp:157] Top shape: 64 288 14 14 (3612672)
I0616 20:11:26.619479 42879 net.cpp:165] Memory required for data: 3017960452
I0616 20:11:26.619495 42879 layer_factory.hpp:77] Creating layer inception_4d/5x5_reduce
I0616 20:11:26.619518 42879 net.cpp:106] Creating Layer inception_4d/5x5_reduce
I0616 20:11:26.619536 42879 net.cpp:454] inception_4d/5x5_reduce <- inception_4c/output_inception_4c/output_0_split_2
I0616 20:11:26.619559 42879 net.cpp:411] inception_4d/5x5_reduce -> inception_4d/5x5_reduce
I0616 20:11:26.620848 42879 net.cpp:150] Setting up inception_4d/5x5_reduce
I0616 20:11:26.620889 42879 net.cpp:157] Top shape: 64 32 14 14 (401408)
I0616 20:11:26.620918 42879 net.cpp:165] Memory required for data: 3019566084
I0616 20:11:26.620940 42879 layer_factory.hpp:77] Creating layer inception_4d/relu_5x5_reduce
I0616 20:11:26.620967 42879 net.cpp:106] Creating Layer inception_4d/relu_5x5_reduce
I0616 20:11:26.620988 42879 net.cpp:454] inception_4d/relu_5x5_reduce <- inception_4d/5x5_reduce
I0616 20:11:26.621006 42879 net.cpp:397] inception_4d/relu_5x5_reduce -> inception_4d/5x5_reduce (in-place)
I0616 20:11:26.621186 42879 net.cpp:150] Setting up inception_4d/relu_5x5_reduce
I0616 20:11:26.621219 42879 net.cpp:157] Top shape: 64 32 14 14 (401408)
I0616 20:11:26.621237 42879 net.cpp:165] Memory required for data: 3021171716
I0616 20:11:26.621253 42879 layer_factory.hpp:77] Creating layer inception_4d/5x5
I0616 20:11:26.621279 42879 net.cpp:106] Creating Layer inception_4d/5x5
I0616 20:11:26.621297 42879 net.cpp:454] inception_4d/5x5 <- inception_4d/5x5_reduce
I0616 20:11:26.621318 42879 net.cpp:411] inception_4d/5x5 -> inception_4d/5x5
I0616 20:11:26.622865 42879 net.cpp:150] Setting up inception_4d/5x5
I0616 20:11:26.622907 42879 net.cpp:157] Top shape: 64 64 14 14 (802816)
I0616 20:11:26.622926 42879 net.cpp:165] Memory required for data: 3024382980
I0616 20:11:26.622947 42879 layer_factory.hpp:77] Creating layer inception_4d/relu_5x5
I0616 20:11:26.622977 42879 net.cpp:106] Creating Layer inception_4d/relu_5x5
I0616 20:11:26.622995 42879 net.cpp:454] inception_4d/relu_5x5 <- inception_4d/5x5
I0616 20:11:26.623026 42879 net.cpp:397] inception_4d/relu_5x5 -> inception_4d/5x5 (in-place)
I0616 20:11:26.623347 42879 net.cpp:150] Setting up inception_4d/relu_5x5
I0616 20:11:26.623389 42879 net.cpp:157] Top shape: 64 64 14 14 (802816)
I0616 20:11:26.623406 42879 net.cpp:165] Memory required for data: 3027594244
I0616 20:11:26.623423 42879 layer_factory.hpp:77] Creating layer inception_4d/pool
I0616 20:11:26.623442 42879 net.cpp:106] Creating Layer inception_4d/pool
I0616 20:11:26.623461 42879 net.cpp:454] inception_4d/pool <- inception_4c/output_inception_4c/output_0_split_3
I0616 20:11:26.623482 42879 net.cpp:411] inception_4d/pool -> inception_4d/pool
I0616 20:11:26.623549 42879 net.cpp:150] Setting up inception_4d/pool
I0616 20:11:26.623576 42879 net.cpp:157] Top shape: 64 512 14 14 (6422528)
I0616 20:11:26.623594 42879 net.cpp:165] Memory required for data: 3053284356
I0616 20:11:26.623610 42879 layer_factory.hpp:77] Creating layer inception_4d/pool_proj
I0616 20:11:26.623632 42879 net.cpp:106] Creating Layer inception_4d/pool_proj
I0616 20:11:26.623653 42879 net.cpp:454] inception_4d/pool_proj <- inception_4d/pool
I0616 20:11:26.623673 42879 net.cpp:411] inception_4d/pool_proj -> inception_4d/pool_proj
I0616 20:11:26.625366 42879 net.cpp:150] Setting up inception_4d/pool_proj
I0616 20:11:26.625409 42879 net.cpp:157] Top shape: 64 64 14 14 (802816)
I0616 20:11:26.625429 42879 net.cpp:165] Memory required for data: 3056495620
I0616 20:11:26.625449 42879 layer_factory.hpp:77] Creating layer inception_4d/relu_pool_proj
I0616 20:11:26.625470 42879 net.cpp:106] Creating Layer inception_4d/relu_pool_proj
I0616 20:11:26.625488 42879 net.cpp:454] inception_4d/relu_pool_proj <- inception_4d/pool_proj
I0616 20:11:26.625507 42879 net.cpp:397] inception_4d/relu_pool_proj -> inception_4d/pool_proj (in-place)
I0616 20:11:26.625686 42879 net.cpp:150] Setting up inception_4d/relu_pool_proj
I0616 20:11:26.625718 42879 net.cpp:157] Top shape: 64 64 14 14 (802816)
I0616 20:11:26.625735 42879 net.cpp:165] Memory required for data: 3059706884
I0616 20:11:26.625751 42879 layer_factory.hpp:77] Creating layer inception_4d/output
I0616 20:11:26.625771 42879 net.cpp:106] Creating Layer inception_4d/output
I0616 20:11:26.625788 42879 net.cpp:454] inception_4d/output <- inception_4d/1x1
I0616 20:11:26.625807 42879 net.cpp:454] inception_4d/output <- inception_4d/3x3
I0616 20:11:26.625823 42879 net.cpp:454] inception_4d/output <- inception_4d/5x5
I0616 20:11:26.625841 42879 net.cpp:454] inception_4d/output <- inception_4d/pool_proj
I0616 20:11:26.625861 42879 net.cpp:411] inception_4d/output -> inception_4d/output
I0616 20:11:26.625910 42879 net.cpp:150] Setting up inception_4d/output
I0616 20:11:26.625939 42879 net.cpp:157] Top shape: 64 528 14 14 (6623232)
I0616 20:11:26.625957 42879 net.cpp:165] Memory required for data: 3086199812
I0616 20:11:26.625977 42879 layer_factory.hpp:77] Creating layer inception_4d/output_inception_4d/output_0_split
I0616 20:11:26.625998 42879 net.cpp:106] Creating Layer inception_4d/output_inception_4d/output_0_split
I0616 20:11:26.626016 42879 net.cpp:454] inception_4d/output_inception_4d/output_0_split <- inception_4d/output
I0616 20:11:26.626035 42879 net.cpp:411] inception_4d/output_inception_4d/output_0_split -> inception_4d/output_inception_4d/output_0_split_0
I0616 20:11:26.626060 42879 net.cpp:411] inception_4d/output_inception_4d/output_0_split -> inception_4d/output_inception_4d/output_0_split_1
I0616 20:11:26.626080 42879 net.cpp:411] inception_4d/output_inception_4d/output_0_split -> inception_4d/output_inception_4d/output_0_split_2
I0616 20:11:26.626101 42879 net.cpp:411] inception_4d/output_inception_4d/output_0_split -> inception_4d/output_inception_4d/output_0_split_3
I0616 20:11:26.626122 42879 net.cpp:411] inception_4d/output_inception_4d/output_0_split -> inception_4d/output_inception_4d/output_0_split_4
I0616 20:11:26.626217 42879 net.cpp:150] Setting up inception_4d/output_inception_4d/output_0_split
I0616 20:11:26.626245 42879 net.cpp:157] Top shape: 64 528 14 14 (6623232)
I0616 20:11:26.626277 42879 net.cpp:157] Top shape: 64 528 14 14 (6623232)
I0616 20:11:26.626309 42879 net.cpp:157] Top shape: 64 528 14 14 (6623232)
I0616 20:11:26.626327 42879 net.cpp:157] Top shape: 64 528 14 14 (6623232)
I0616 20:11:26.626343 42879 net.cpp:157] Top shape: 64 528 14 14 (6623232)
I0616 20:11:26.626358 42879 net.cpp:165] Memory required for data: 3218664452
I0616 20:11:26.626374 42879 layer_factory.hpp:77] Creating layer loss2/ave_pool
I0616 20:11:26.626396 42879 net.cpp:106] Creating Layer loss2/ave_pool
I0616 20:11:26.626415 42879 net.cpp:454] loss2/ave_pool <- inception_4d/output_inception_4d/output_0_split_0
I0616 20:11:26.626433 42879 net.cpp:411] loss2/ave_pool -> loss2/ave_pool
I0616 20:11:26.626750 42879 net.cpp:150] Setting up loss2/ave_pool
I0616 20:11:26.626787 42879 net.cpp:157] Top shape: 64 528 4 4 (540672)
I0616 20:11:26.626804 42879 net.cpp:165] Memory required for data: 3220827140
I0616 20:11:26.626821 42879 layer_factory.hpp:77] Creating layer loss2/conv
I0616 20:11:26.626845 42879 net.cpp:106] Creating Layer loss2/conv
I0616 20:11:26.626865 42879 net.cpp:454] loss2/conv <- loss2/ave_pool
I0616 20:11:26.626886 42879 net.cpp:411] loss2/conv -> loss2/conv
I0616 20:11:26.628628 42879 net.cpp:150] Setting up loss2/conv
I0616 20:11:26.628669 42879 net.cpp:157] Top shape: 64 128 4 4 (131072)
I0616 20:11:26.628689 42879 net.cpp:165] Memory required for data: 3221351428
I0616 20:11:26.628708 42879 layer_factory.hpp:77] Creating layer loss2/relu_conv
I0616 20:11:26.628731 42879 net.cpp:106] Creating Layer loss2/relu_conv
I0616 20:11:26.628751 42879 net.cpp:454] loss2/relu_conv <- loss2/conv
I0616 20:11:26.628769 42879 net.cpp:397] loss2/relu_conv -> loss2/conv (in-place)
I0616 20:11:26.629066 42879 net.cpp:150] Setting up loss2/relu_conv
I0616 20:11:26.629102 42879 net.cpp:157] Top shape: 64 128 4 4 (131072)
I0616 20:11:26.629120 42879 net.cpp:165] Memory required for data: 3221875716
I0616 20:11:26.629137 42879 layer_factory.hpp:77] Creating layer loss2/fc
I0616 20:11:26.629161 42879 net.cpp:106] Creating Layer loss2/fc
I0616 20:11:26.629181 42879 net.cpp:454] loss2/fc <- loss2/conv
I0616 20:11:26.629202 42879 net.cpp:411] loss2/fc -> loss2/fc
I0616 20:11:26.642635 42879 net.cpp:150] Setting up loss2/fc
I0616 20:11:26.642688 42879 net.cpp:157] Top shape: 64 1024 (65536)
I0616 20:11:26.642732 42879 net.cpp:165] Memory required for data: 3222137860
I0616 20:11:26.642767 42879 layer_factory.hpp:77] Creating layer loss2/relu_fc
I0616 20:11:26.642802 42879 net.cpp:106] Creating Layer loss2/relu_fc
I0616 20:11:26.642855 42879 net.cpp:454] loss2/relu_fc <- loss2/fc
I0616 20:11:26.642889 42879 net.cpp:397] loss2/relu_fc -> loss2/fc (in-place)
I0616 20:11:26.643301 42879 net.cpp:150] Setting up loss2/relu_fc
I0616 20:11:26.643337 42879 net.cpp:157] Top shape: 64 1024 (65536)
I0616 20:11:26.643355 42879 net.cpp:165] Memory required for data: 3222400004
I0616 20:11:26.643371 42879 layer_factory.hpp:77] Creating layer loss2/drop_fc
I0616 20:11:26.643391 42879 net.cpp:106] Creating Layer loss2/drop_fc
I0616 20:11:26.643410 42879 net.cpp:454] loss2/drop_fc <- loss2/fc
I0616 20:11:26.643430 42879 net.cpp:397] loss2/drop_fc -> loss2/fc (in-place)
I0616 20:11:26.643483 42879 net.cpp:150] Setting up loss2/drop_fc
I0616 20:11:26.643510 42879 net.cpp:157] Top shape: 64 1024 (65536)
I0616 20:11:26.643527 42879 net.cpp:165] Memory required for data: 3222662148
I0616 20:11:26.643543 42879 layer_factory.hpp:77] Creating layer loss2/classifier
I0616 20:11:26.643576 42879 net.cpp:106] Creating Layer loss2/classifier
I0616 20:11:26.643595 42879 net.cpp:454] loss2/classifier <- loss2/fc
I0616 20:11:26.643640 42879 net.cpp:411] loss2/classifier -> loss2/classifier
I0616 20:11:26.650539 42879 net.cpp:150] Setting up loss2/classifier
I0616 20:11:26.650584 42879 net.cpp:157] Top shape: 64 1000 (64000)
I0616 20:11:26.650610 42879 net.cpp:165] Memory required for data: 3222918148
I0616 20:11:26.650647 42879 layer_factory.hpp:77] Creating layer loss2/loss
I0616 20:11:26.650683 42879 net.cpp:106] Creating Layer loss2/loss
I0616 20:11:26.650748 42879 net.cpp:454] loss2/loss <- loss2/classifier
I0616 20:11:26.650782 42879 net.cpp:454] loss2/loss <- label_data_1_split_1
I0616 20:11:26.650809 42879 net.cpp:411] loss2/loss -> loss2/loss1
I0616 20:11:26.650837 42879 layer_factory.hpp:77] Creating layer loss2/loss
I0616 20:11:26.651137 42879 net.cpp:150] Setting up loss2/loss
I0616 20:11:26.651172 42879 net.cpp:157] Top shape: (1)
I0616 20:11:26.651190 42879 net.cpp:160]     with loss weight 0.3
I0616 20:11:26.651214 42879 net.cpp:165] Memory required for data: 3222918152
I0616 20:11:26.651231 42879 layer_factory.hpp:77] Creating layer inception_4e/1x1
I0616 20:11:26.651254 42879 net.cpp:106] Creating Layer inception_4e/1x1
I0616 20:11:26.651274 42879 net.cpp:454] inception_4e/1x1 <- inception_4d/output_inception_4d/output_0_split_1
I0616 20:11:26.651298 42879 net.cpp:411] inception_4e/1x1 -> inception_4e/1x1
I0616 20:11:26.652863 42879 net.cpp:150] Setting up inception_4e/1x1
I0616 20:11:26.652904 42879 net.cpp:157] Top shape: 64 256 14 14 (3211264)
I0616 20:11:26.652923 42879 net.cpp:165] Memory required for data: 3235763208
I0616 20:11:26.652943 42879 layer_factory.hpp:77] Creating layer inception_4e/relu_1x1
I0616 20:11:26.652967 42879 net.cpp:106] Creating Layer inception_4e/relu_1x1
I0616 20:11:26.652987 42879 net.cpp:454] inception_4e/relu_1x1 <- inception_4e/1x1
I0616 20:11:26.653007 42879 net.cpp:397] inception_4e/relu_1x1 -> inception_4e/1x1 (in-place)
I0616 20:11:26.653189 42879 net.cpp:150] Setting up inception_4e/relu_1x1
I0616 20:11:26.653221 42879 net.cpp:157] Top shape: 64 256 14 14 (3211264)
I0616 20:11:26.653237 42879 net.cpp:165] Memory required for data: 3248608264
I0616 20:11:26.653254 42879 layer_factory.hpp:77] Creating layer inception_4e/3x3_reduce
I0616 20:11:26.653281 42879 net.cpp:106] Creating Layer inception_4e/3x3_reduce
I0616 20:11:26.653301 42879 net.cpp:454] inception_4e/3x3_reduce <- inception_4d/output_inception_4d/output_0_split_2
I0616 20:11:26.653324 42879 net.cpp:411] inception_4e/3x3_reduce -> inception_4e/3x3_reduce
I0616 20:11:26.655200 42879 net.cpp:150] Setting up inception_4e/3x3_reduce
I0616 20:11:26.655277 42879 net.cpp:157] Top shape: 64 160 14 14 (2007040)
I0616 20:11:26.655300 42879 net.cpp:165] Memory required for data: 3256636424
I0616 20:11:26.655323 42879 layer_factory.hpp:77] Creating layer inception_4e/relu_3x3_reduce
I0616 20:11:26.655347 42879 net.cpp:106] Creating Layer inception_4e/relu_3x3_reduce
I0616 20:11:26.655367 42879 net.cpp:454] inception_4e/relu_3x3_reduce <- inception_4e/3x3_reduce
I0616 20:11:26.655398 42879 net.cpp:397] inception_4e/relu_3x3_reduce -> inception_4e/3x3_reduce (in-place)
I0616 20:11:26.655690 42879 net.cpp:150] Setting up inception_4e/relu_3x3_reduce
I0616 20:11:26.655725 42879 net.cpp:157] Top shape: 64 160 14 14 (2007040)
I0616 20:11:26.655743 42879 net.cpp:165] Memory required for data: 3264664584
I0616 20:11:26.655760 42879 layer_factory.hpp:77] Creating layer inception_4e/3x3
I0616 20:11:26.655784 42879 net.cpp:106] Creating Layer inception_4e/3x3
I0616 20:11:26.655804 42879 net.cpp:454] inception_4e/3x3 <- inception_4e/3x3_reduce
I0616 20:11:26.655827 42879 net.cpp:411] inception_4e/3x3 -> inception_4e/3x3
I0616 20:11:26.659824 42879 net.cpp:150] Setting up inception_4e/3x3
I0616 20:11:26.659864 42879 net.cpp:157] Top shape: 64 320 14 14 (4014080)
I0616 20:11:26.659883 42879 net.cpp:165] Memory required for data: 3280720904
I0616 20:11:26.659904 42879 layer_factory.hpp:77] Creating layer inception_4e/relu_3x3
I0616 20:11:26.659926 42879 net.cpp:106] Creating Layer inception_4e/relu_3x3
I0616 20:11:26.659946 42879 net.cpp:454] inception_4e/relu_3x3 <- inception_4e/3x3
I0616 20:11:26.659968 42879 net.cpp:397] inception_4e/relu_3x3 -> inception_4e/3x3 (in-place)
I0616 20:11:26.660157 42879 net.cpp:150] Setting up inception_4e/relu_3x3
I0616 20:11:26.660189 42879 net.cpp:157] Top shape: 64 320 14 14 (4014080)
I0616 20:11:26.660207 42879 net.cpp:165] Memory required for data: 3296777224
I0616 20:11:26.660223 42879 layer_factory.hpp:77] Creating layer inception_4e/5x5_reduce
I0616 20:11:26.660259 42879 net.cpp:106] Creating Layer inception_4e/5x5_reduce
I0616 20:11:26.660293 42879 net.cpp:454] inception_4e/5x5_reduce <- inception_4d/output_inception_4d/output_0_split_3
I0616 20:11:26.660316 42879 net.cpp:411] inception_4e/5x5_reduce -> inception_4e/5x5_reduce
I0616 20:11:26.661391 42879 net.cpp:150] Setting up inception_4e/5x5_reduce
I0616 20:11:26.661432 42879 net.cpp:157] Top shape: 64 32 14 14 (401408)
I0616 20:11:26.661454 42879 net.cpp:165] Memory required for data: 3298382856
I0616 20:11:26.661474 42879 layer_factory.hpp:77] Creating layer inception_4e/relu_5x5_reduce
I0616 20:11:26.661495 42879 net.cpp:106] Creating Layer inception_4e/relu_5x5_reduce
I0616 20:11:26.661514 42879 net.cpp:454] inception_4e/relu_5x5_reduce <- inception_4e/5x5_reduce
I0616 20:11:26.661535 42879 net.cpp:397] inception_4e/relu_5x5_reduce -> inception_4e/5x5_reduce (in-place)
I0616 20:11:26.661715 42879 net.cpp:150] Setting up inception_4e/relu_5x5_reduce
I0616 20:11:26.661747 42879 net.cpp:157] Top shape: 64 32 14 14 (401408)
I0616 20:11:26.661764 42879 net.cpp:165] Memory required for data: 3299988488
I0616 20:11:26.661780 42879 layer_factory.hpp:77] Creating layer inception_4e/5x5
I0616 20:11:26.661819 42879 net.cpp:106] Creating Layer inception_4e/5x5
I0616 20:11:26.661841 42879 net.cpp:454] inception_4e/5x5 <- inception_4e/5x5_reduce
I0616 20:11:26.661861 42879 net.cpp:411] inception_4e/5x5 -> inception_4e/5x5
I0616 20:11:26.663440 42879 net.cpp:150] Setting up inception_4e/5x5
I0616 20:11:26.663480 42879 net.cpp:157] Top shape: 64 128 14 14 (1605632)
I0616 20:11:26.663498 42879 net.cpp:165] Memory required for data: 3306411016
I0616 20:11:26.663519 42879 layer_factory.hpp:77] Creating layer inception_4e/relu_5x5
I0616 20:11:26.663542 42879 net.cpp:106] Creating Layer inception_4e/relu_5x5
I0616 20:11:26.663561 42879 net.cpp:454] inception_4e/relu_5x5 <- inception_4e/5x5
I0616 20:11:26.663579 42879 net.cpp:397] inception_4e/relu_5x5 -> inception_4e/5x5 (in-place)
I0616 20:11:26.663880 42879 net.cpp:150] Setting up inception_4e/relu_5x5
I0616 20:11:26.663918 42879 net.cpp:157] Top shape: 64 128 14 14 (1605632)
I0616 20:11:26.663936 42879 net.cpp:165] Memory required for data: 3312833544
I0616 20:11:26.663952 42879 layer_factory.hpp:77] Creating layer inception_4e/pool
I0616 20:11:26.663978 42879 net.cpp:106] Creating Layer inception_4e/pool
I0616 20:11:26.663998 42879 net.cpp:454] inception_4e/pool <- inception_4d/output_inception_4d/output_0_split_4
I0616 20:11:26.664026 42879 net.cpp:411] inception_4e/pool -> inception_4e/pool
I0616 20:11:26.664096 42879 net.cpp:150] Setting up inception_4e/pool
I0616 20:11:26.664124 42879 net.cpp:157] Top shape: 64 528 14 14 (6623232)
I0616 20:11:26.664139 42879 net.cpp:165] Memory required for data: 3339326472
I0616 20:11:26.664155 42879 layer_factory.hpp:77] Creating layer inception_4e/pool_proj
I0616 20:11:26.664178 42879 net.cpp:106] Creating Layer inception_4e/pool_proj
I0616 20:11:26.664198 42879 net.cpp:454] inception_4e/pool_proj <- inception_4e/pool
I0616 20:11:26.664222 42879 net.cpp:411] inception_4e/pool_proj -> inception_4e/pool_proj
I0616 20:11:26.665619 42879 net.cpp:150] Setting up inception_4e/pool_proj
I0616 20:11:26.665660 42879 net.cpp:157] Top shape: 64 128 14 14 (1605632)
I0616 20:11:26.665680 42879 net.cpp:165] Memory required for data: 3345749000
I0616 20:11:26.665712 42879 layer_factory.hpp:77] Creating layer inception_4e/relu_pool_proj
I0616 20:11:26.665745 42879 net.cpp:106] Creating Layer inception_4e/relu_pool_proj
I0616 20:11:26.665765 42879 net.cpp:454] inception_4e/relu_pool_proj <- inception_4e/pool_proj
I0616 20:11:26.665783 42879 net.cpp:397] inception_4e/relu_pool_proj -> inception_4e/pool_proj (in-place)
I0616 20:11:26.666045 42879 net.cpp:150] Setting up inception_4e/relu_pool_proj
I0616 20:11:26.666079 42879 net.cpp:157] Top shape: 64 128 14 14 (1605632)
I0616 20:11:26.666095 42879 net.cpp:165] Memory required for data: 3352171528
I0616 20:11:26.666111 42879 layer_factory.hpp:77] Creating layer inception_4e/output
I0616 20:11:26.666142 42879 net.cpp:106] Creating Layer inception_4e/output
I0616 20:11:26.666174 42879 net.cpp:454] inception_4e/output <- inception_4e/1x1
I0616 20:11:26.666193 42879 net.cpp:454] inception_4e/output <- inception_4e/3x3
I0616 20:11:26.666210 42879 net.cpp:454] inception_4e/output <- inception_4e/5x5
I0616 20:11:26.666229 42879 net.cpp:454] inception_4e/output <- inception_4e/pool_proj
I0616 20:11:26.666261 42879 net.cpp:411] inception_4e/output -> inception_4e/output
I0616 20:11:26.666327 42879 net.cpp:150] Setting up inception_4e/output
I0616 20:11:26.666366 42879 net.cpp:157] Top shape: 64 832 14 14 (10436608)
I0616 20:11:26.666394 42879 net.cpp:165] Memory required for data: 3393917960
I0616 20:11:26.666419 42879 layer_factory.hpp:77] Creating layer pool4/3x3_s2
I0616 20:11:26.666450 42879 net.cpp:106] Creating Layer pool4/3x3_s2
I0616 20:11:26.666468 42879 net.cpp:454] pool4/3x3_s2 <- inception_4e/output
I0616 20:11:26.666501 42879 net.cpp:411] pool4/3x3_s2 -> pool4/3x3_s2
I0616 20:11:26.666594 42879 net.cpp:150] Setting up pool4/3x3_s2
I0616 20:11:26.666622 42879 net.cpp:157] Top shape: 64 832 7 7 (2609152)
I0616 20:11:26.666645 42879 net.cpp:165] Memory required for data: 3404354568
I0616 20:11:26.666671 42879 layer_factory.hpp:77] Creating layer pool4/3x3_s2_pool4/3x3_s2_0_split
I0616 20:11:26.666694 42879 net.cpp:106] Creating Layer pool4/3x3_s2_pool4/3x3_s2_0_split
I0616 20:11:26.666723 42879 net.cpp:454] pool4/3x3_s2_pool4/3x3_s2_0_split <- pool4/3x3_s2
I0616 20:11:26.666754 42879 net.cpp:411] pool4/3x3_s2_pool4/3x3_s2_0_split -> pool4/3x3_s2_pool4/3x3_s2_0_split_0
I0616 20:11:26.666776 42879 net.cpp:411] pool4/3x3_s2_pool4/3x3_s2_0_split -> pool4/3x3_s2_pool4/3x3_s2_0_split_1
I0616 20:11:26.666811 42879 net.cpp:411] pool4/3x3_s2_pool4/3x3_s2_0_split -> pool4/3x3_s2_pool4/3x3_s2_0_split_2
I0616 20:11:26.666839 42879 net.cpp:411] pool4/3x3_s2_pool4/3x3_s2_0_split -> pool4/3x3_s2_pool4/3x3_s2_0_split_3
I0616 20:11:26.666941 42879 net.cpp:150] Setting up pool4/3x3_s2_pool4/3x3_s2_0_split
I0616 20:11:26.666996 42879 net.cpp:157] Top shape: 64 832 7 7 (2609152)
I0616 20:11:26.667014 42879 net.cpp:157] Top shape: 64 832 7 7 (2609152)
I0616 20:11:26.667042 42879 net.cpp:157] Top shape: 64 832 7 7 (2609152)
I0616 20:11:26.667069 42879 net.cpp:157] Top shape: 64 832 7 7 (2609152)
I0616 20:11:26.667086 42879 net.cpp:165] Memory required for data: 3446101000
I0616 20:11:26.667104 42879 layer_factory.hpp:77] Creating layer inception_5a/1x1
I0616 20:11:26.667150 42879 net.cpp:106] Creating Layer inception_5a/1x1
I0616 20:11:26.667170 42879 net.cpp:454] inception_5a/1x1 <- pool4/3x3_s2_pool4/3x3_s2_0_split_0
I0616 20:11:26.667213 42879 net.cpp:411] inception_5a/1x1 -> inception_5a/1x1
I0616 20:11:26.670074 42879 net.cpp:150] Setting up inception_5a/1x1
I0616 20:11:26.670117 42879 net.cpp:157] Top shape: 64 256 7 7 (802816)
I0616 20:11:26.670137 42879 net.cpp:165] Memory required for data: 3449312264
I0616 20:11:26.670158 42879 layer_factory.hpp:77] Creating layer inception_5a/relu_1x1
I0616 20:11:26.670179 42879 net.cpp:106] Creating Layer inception_5a/relu_1x1
I0616 20:11:26.670197 42879 net.cpp:454] inception_5a/relu_1x1 <- inception_5a/1x1
I0616 20:11:26.670215 42879 net.cpp:397] inception_5a/relu_1x1 -> inception_5a/1x1 (in-place)
I0616 20:11:26.670397 42879 net.cpp:150] Setting up inception_5a/relu_1x1
I0616 20:11:26.670428 42879 net.cpp:157] Top shape: 64 256 7 7 (802816)
I0616 20:11:26.670446 42879 net.cpp:165] Memory required for data: 3452523528
I0616 20:11:26.670462 42879 layer_factory.hpp:77] Creating layer inception_5a/3x3_reduce
I0616 20:11:26.670486 42879 net.cpp:106] Creating Layer inception_5a/3x3_reduce
I0616 20:11:26.670506 42879 net.cpp:454] inception_5a/3x3_reduce <- pool4/3x3_s2_pool4/3x3_s2_0_split_1
I0616 20:11:26.670528 42879 net.cpp:411] inception_5a/3x3_reduce -> inception_5a/3x3_reduce
I0616 20:11:26.672711 42879 net.cpp:150] Setting up inception_5a/3x3_reduce
I0616 20:11:26.672754 42879 net.cpp:157] Top shape: 64 160 7 7 (501760)
I0616 20:11:26.672773 42879 net.cpp:165] Memory required for data: 3454530568
I0616 20:11:26.672806 42879 layer_factory.hpp:77] Creating layer inception_5a/relu_3x3_reduce
I0616 20:11:26.672844 42879 net.cpp:106] Creating Layer inception_5a/relu_3x3_reduce
I0616 20:11:26.672865 42879 net.cpp:454] inception_5a/relu_3x3_reduce <- inception_5a/3x3_reduce
I0616 20:11:26.672884 42879 net.cpp:397] inception_5a/relu_3x3_reduce -> inception_5a/3x3_reduce (in-place)
I0616 20:11:26.673235 42879 net.cpp:150] Setting up inception_5a/relu_3x3_reduce
I0616 20:11:26.673274 42879 net.cpp:157] Top shape: 64 160 7 7 (501760)
I0616 20:11:26.673292 42879 net.cpp:165] Memory required for data: 3456537608
I0616 20:11:26.673308 42879 layer_factory.hpp:77] Creating layer inception_5a/3x3
I0616 20:11:26.673334 42879 net.cpp:106] Creating Layer inception_5a/3x3
I0616 20:11:26.673355 42879 net.cpp:454] inception_5a/3x3 <- inception_5a/3x3_reduce
I0616 20:11:26.673375 42879 net.cpp:411] inception_5a/3x3 -> inception_5a/3x3
I0616 20:11:26.677474 42879 net.cpp:150] Setting up inception_5a/3x3
I0616 20:11:26.677516 42879 net.cpp:157] Top shape: 64 320 7 7 (1003520)
I0616 20:11:26.677536 42879 net.cpp:165] Memory required for data: 3460551688
I0616 20:11:26.677556 42879 layer_factory.hpp:77] Creating layer inception_5a/relu_3x3
I0616 20:11:26.677578 42879 net.cpp:106] Creating Layer inception_5a/relu_3x3
I0616 20:11:26.677598 42879 net.cpp:454] inception_5a/relu_3x3 <- inception_5a/3x3
I0616 20:11:26.677616 42879 net.cpp:397] inception_5a/relu_3x3 -> inception_5a/3x3 (in-place)
I0616 20:11:26.677810 42879 net.cpp:150] Setting up inception_5a/relu_3x3
I0616 20:11:26.677842 42879 net.cpp:157] Top shape: 64 320 7 7 (1003520)
I0616 20:11:26.677860 42879 net.cpp:165] Memory required for data: 3464565768
I0616 20:11:26.677875 42879 layer_factory.hpp:77] Creating layer inception_5a/5x5_reduce
I0616 20:11:26.677901 42879 net.cpp:106] Creating Layer inception_5a/5x5_reduce
I0616 20:11:26.677922 42879 net.cpp:454] inception_5a/5x5_reduce <- pool4/3x3_s2_pool4/3x3_s2_0_split_2
I0616 20:11:26.677942 42879 net.cpp:411] inception_5a/5x5_reduce -> inception_5a/5x5_reduce
I0616 20:11:26.679200 42879 net.cpp:150] Setting up inception_5a/5x5_reduce
I0616 20:11:26.679239 42879 net.cpp:157] Top shape: 64 32 7 7 (100352)
I0616 20:11:26.679257 42879 net.cpp:165] Memory required for data: 3464967176
I0616 20:11:26.679277 42879 layer_factory.hpp:77] Creating layer inception_5a/relu_5x5_reduce
I0616 20:11:26.679298 42879 net.cpp:106] Creating Layer inception_5a/relu_5x5_reduce
I0616 20:11:26.679316 42879 net.cpp:454] inception_5a/relu_5x5_reduce <- inception_5a/5x5_reduce
I0616 20:11:26.679334 42879 net.cpp:397] inception_5a/relu_5x5_reduce -> inception_5a/5x5_reduce (in-place)
I0616 20:11:26.679519 42879 net.cpp:150] Setting up inception_5a/relu_5x5_reduce
I0616 20:11:26.679563 42879 net.cpp:157] Top shape: 64 32 7 7 (100352)
I0616 20:11:26.679581 42879 net.cpp:165] Memory required for data: 3465368584
I0616 20:11:26.679608 42879 layer_factory.hpp:77] Creating layer inception_5a/5x5
I0616 20:11:26.679639 42879 net.cpp:106] Creating Layer inception_5a/5x5
I0616 20:11:26.679671 42879 net.cpp:454] inception_5a/5x5 <- inception_5a/5x5_reduce
I0616 20:11:26.679694 42879 net.cpp:411] inception_5a/5x5 -> inception_5a/5x5
I0616 20:11:26.681428 42879 net.cpp:150] Setting up inception_5a/5x5
I0616 20:11:26.681468 42879 net.cpp:157] Top shape: 64 128 7 7 (401408)
I0616 20:11:26.681486 42879 net.cpp:165] Memory required for data: 3466974216
I0616 20:11:26.681509 42879 layer_factory.hpp:77] Creating layer inception_5a/relu_5x5
I0616 20:11:26.681530 42879 net.cpp:106] Creating Layer inception_5a/relu_5x5
I0616 20:11:26.681560 42879 net.cpp:454] inception_5a/relu_5x5 <- inception_5a/5x5
I0616 20:11:26.681582 42879 net.cpp:397] inception_5a/relu_5x5 -> inception_5a/5x5 (in-place)
I0616 20:11:26.682025 42879 net.cpp:150] Setting up inception_5a/relu_5x5
I0616 20:11:26.682086 42879 net.cpp:157] Top shape: 64 128 7 7 (401408)
I0616 20:11:26.682106 42879 net.cpp:165] Memory required for data: 3468579848
I0616 20:11:26.682134 42879 layer_factory.hpp:77] Creating layer inception_5a/pool
I0616 20:11:26.682212 42879 net.cpp:106] Creating Layer inception_5a/pool
I0616 20:11:26.682245 42879 net.cpp:454] inception_5a/pool <- pool4/3x3_s2_pool4/3x3_s2_0_split_3
I0616 20:11:26.682268 42879 net.cpp:411] inception_5a/pool -> inception_5a/pool
I0616 20:11:26.682423 42879 net.cpp:150] Setting up inception_5a/pool
I0616 20:11:26.682453 42879 net.cpp:157] Top shape: 64 832 7 7 (2609152)
I0616 20:11:26.682473 42879 net.cpp:165] Memory required for data: 3479016456
I0616 20:11:26.682510 42879 layer_factory.hpp:77] Creating layer inception_5a/pool_proj
I0616 20:11:26.682559 42879 net.cpp:106] Creating Layer inception_5a/pool_proj
I0616 20:11:26.682613 42879 net.cpp:454] inception_5a/pool_proj <- inception_5a/pool
I0616 20:11:26.682647 42879 net.cpp:411] inception_5a/pool_proj -> inception_5a/pool_proj
I0616 20:11:26.684705 42879 net.cpp:150] Setting up inception_5a/pool_proj
I0616 20:11:26.684744 42879 net.cpp:157] Top shape: 64 128 7 7 (401408)
I0616 20:11:26.684763 42879 net.cpp:165] Memory required for data: 3480622088
I0616 20:11:26.684783 42879 layer_factory.hpp:77] Creating layer inception_5a/relu_pool_proj
I0616 20:11:26.684808 42879 net.cpp:106] Creating Layer inception_5a/relu_pool_proj
I0616 20:11:26.684826 42879 net.cpp:454] inception_5a/relu_pool_proj <- inception_5a/pool_proj
I0616 20:11:26.684849 42879 net.cpp:397] inception_5a/relu_pool_proj -> inception_5a/pool_proj (in-place)
I0616 20:11:26.685063 42879 net.cpp:150] Setting up inception_5a/relu_pool_proj
I0616 20:11:26.685097 42879 net.cpp:157] Top shape: 64 128 7 7 (401408)
I0616 20:11:26.685116 42879 net.cpp:165] Memory required for data: 3482227720
I0616 20:11:26.685132 42879 layer_factory.hpp:77] Creating layer inception_5a/output
I0616 20:11:26.685151 42879 net.cpp:106] Creating Layer inception_5a/output
I0616 20:11:26.685169 42879 net.cpp:454] inception_5a/output <- inception_5a/1x1
I0616 20:11:26.685187 42879 net.cpp:454] inception_5a/output <- inception_5a/3x3
I0616 20:11:26.685204 42879 net.cpp:454] inception_5a/output <- inception_5a/5x5
I0616 20:11:26.685221 42879 net.cpp:454] inception_5a/output <- inception_5a/pool_proj
I0616 20:11:26.685240 42879 net.cpp:411] inception_5a/output -> inception_5a/output
I0616 20:11:26.685293 42879 net.cpp:150] Setting up inception_5a/output
I0616 20:11:26.685320 42879 net.cpp:157] Top shape: 64 832 7 7 (2609152)
I0616 20:11:26.685336 42879 net.cpp:165] Memory required for data: 3492664328
I0616 20:11:26.685353 42879 layer_factory.hpp:77] Creating layer inception_5a/output_inception_5a/output_0_split
I0616 20:11:26.685371 42879 net.cpp:106] Creating Layer inception_5a/output_inception_5a/output_0_split
I0616 20:11:26.685389 42879 net.cpp:454] inception_5a/output_inception_5a/output_0_split <- inception_5a/output
I0616 20:11:26.685410 42879 net.cpp:411] inception_5a/output_inception_5a/output_0_split -> inception_5a/output_inception_5a/output_0_split_0
I0616 20:11:26.685433 42879 net.cpp:411] inception_5a/output_inception_5a/output_0_split -> inception_5a/output_inception_5a/output_0_split_1
I0616 20:11:26.685454 42879 net.cpp:411] inception_5a/output_inception_5a/output_0_split -> inception_5a/output_inception_5a/output_0_split_2
I0616 20:11:26.685477 42879 net.cpp:411] inception_5a/output_inception_5a/output_0_split -> inception_5a/output_inception_5a/output_0_split_3
I0616 20:11:26.685570 42879 net.cpp:150] Setting up inception_5a/output_inception_5a/output_0_split
I0616 20:11:26.685597 42879 net.cpp:157] Top shape: 64 832 7 7 (2609152)
I0616 20:11:26.685614 42879 net.cpp:157] Top shape: 64 832 7 7 (2609152)
I0616 20:11:26.685631 42879 net.cpp:157] Top shape: 64 832 7 7 (2609152)
I0616 20:11:26.685647 42879 net.cpp:157] Top shape: 64 832 7 7 (2609152)
I0616 20:11:26.685662 42879 net.cpp:165] Memory required for data: 3534410760
I0616 20:11:26.685678 42879 layer_factory.hpp:77] Creating layer inception_5b/1x1
I0616 20:11:26.685703 42879 net.cpp:106] Creating Layer inception_5b/1x1
I0616 20:11:26.685721 42879 net.cpp:454] inception_5b/1x1 <- inception_5a/output_inception_5a/output_0_split_0
I0616 20:11:26.685753 42879 net.cpp:411] inception_5b/1x1 -> inception_5b/1x1
I0616 20:11:26.689002 42879 net.cpp:150] Setting up inception_5b/1x1
I0616 20:11:26.689046 42879 net.cpp:157] Top shape: 64 384 7 7 (1204224)
I0616 20:11:26.689069 42879 net.cpp:165] Memory required for data: 3539227656
I0616 20:11:26.689102 42879 layer_factory.hpp:77] Creating layer inception_5b/relu_1x1
I0616 20:11:26.689138 42879 net.cpp:106] Creating Layer inception_5b/relu_1x1
I0616 20:11:26.689182 42879 net.cpp:454] inception_5b/relu_1x1 <- inception_5b/1x1
I0616 20:11:26.689211 42879 net.cpp:397] inception_5b/relu_1x1 -> inception_5b/1x1 (in-place)
I0616 20:11:26.689399 42879 net.cpp:150] Setting up inception_5b/relu_1x1
I0616 20:11:26.689435 42879 net.cpp:157] Top shape: 64 384 7 7 (1204224)
I0616 20:11:26.689451 42879 net.cpp:165] Memory required for data: 3544044552
I0616 20:11:26.689467 42879 layer_factory.hpp:77] Creating layer inception_5b/3x3_reduce
I0616 20:11:26.689492 42879 net.cpp:106] Creating Layer inception_5b/3x3_reduce
I0616 20:11:26.689513 42879 net.cpp:454] inception_5b/3x3_reduce <- inception_5a/output_inception_5a/output_0_split_1
I0616 20:11:26.689533 42879 net.cpp:411] inception_5b/3x3_reduce -> inception_5b/3x3_reduce
I0616 20:11:26.691738 42879 net.cpp:150] Setting up inception_5b/3x3_reduce
I0616 20:11:26.691779 42879 net.cpp:157] Top shape: 64 192 7 7 (602112)
I0616 20:11:26.691798 42879 net.cpp:165] Memory required for data: 3546453000
I0616 20:11:26.691818 42879 layer_factory.hpp:77] Creating layer inception_5b/relu_3x3_reduce
I0616 20:11:26.691841 42879 net.cpp:106] Creating Layer inception_5b/relu_3x3_reduce
I0616 20:11:26.691860 42879 net.cpp:454] inception_5b/relu_3x3_reduce <- inception_5b/3x3_reduce
I0616 20:11:26.691879 42879 net.cpp:397] inception_5b/relu_3x3_reduce -> inception_5b/3x3_reduce (in-place)
I0616 20:11:26.692179 42879 net.cpp:150] Setting up inception_5b/relu_3x3_reduce
I0616 20:11:26.692217 42879 net.cpp:157] Top shape: 64 192 7 7 (602112)
I0616 20:11:26.692236 42879 net.cpp:165] Memory required for data: 3548861448
I0616 20:11:26.692255 42879 layer_factory.hpp:77] Creating layer inception_5b/3x3
I0616 20:11:26.692279 42879 net.cpp:106] Creating Layer inception_5b/3x3
I0616 20:11:26.692301 42879 net.cpp:454] inception_5b/3x3 <- inception_5b/3x3_reduce
I0616 20:11:26.692320 42879 net.cpp:411] inception_5b/3x3 -> inception_5b/3x3
I0616 20:11:26.698360 42879 net.cpp:150] Setting up inception_5b/3x3
I0616 20:11:26.698418 42879 net.cpp:157] Top shape: 64 384 7 7 (1204224)
I0616 20:11:26.698442 42879 net.cpp:165] Memory required for data: 3553678344
I0616 20:11:26.698463 42879 layer_factory.hpp:77] Creating layer inception_5b/relu_3x3
I0616 20:11:26.698496 42879 net.cpp:106] Creating Layer inception_5b/relu_3x3
I0616 20:11:26.698528 42879 net.cpp:454] inception_5b/relu_3x3 <- inception_5b/3x3
I0616 20:11:26.698559 42879 net.cpp:397] inception_5b/relu_3x3 -> inception_5b/3x3 (in-place)
I0616 20:11:26.698760 42879 net.cpp:150] Setting up inception_5b/relu_3x3
I0616 20:11:26.698791 42879 net.cpp:157] Top shape: 64 384 7 7 (1204224)
I0616 20:11:26.698809 42879 net.cpp:165] Memory required for data: 3558495240
I0616 20:11:26.698825 42879 layer_factory.hpp:77] Creating layer inception_5b/5x5_reduce
I0616 20:11:26.698850 42879 net.cpp:106] Creating Layer inception_5b/5x5_reduce
I0616 20:11:26.698871 42879 net.cpp:454] inception_5b/5x5_reduce <- inception_5a/output_inception_5a/output_0_split_2
I0616 20:11:26.698894 42879 net.cpp:411] inception_5b/5x5_reduce -> inception_5b/5x5_reduce
I0616 20:11:26.700290 42879 net.cpp:150] Setting up inception_5b/5x5_reduce
I0616 20:11:26.700330 42879 net.cpp:157] Top shape: 64 48 7 7 (150528)
I0616 20:11:26.700350 42879 net.cpp:165] Memory required for data: 3559097352
I0616 20:11:26.700371 42879 layer_factory.hpp:77] Creating layer inception_5b/relu_5x5_reduce
I0616 20:11:26.700392 42879 net.cpp:106] Creating Layer inception_5b/relu_5x5_reduce
I0616 20:11:26.700412 42879 net.cpp:454] inception_5b/relu_5x5_reduce <- inception_5b/5x5_reduce
I0616 20:11:26.700444 42879 net.cpp:397] inception_5b/relu_5x5_reduce -> inception_5b/5x5_reduce (in-place)
I0616 20:11:26.700651 42879 net.cpp:150] Setting up inception_5b/relu_5x5_reduce
I0616 20:11:26.700687 42879 net.cpp:157] Top shape: 64 48 7 7 (150528)
I0616 20:11:26.700706 42879 net.cpp:165] Memory required for data: 3559699464
I0616 20:11:26.700722 42879 layer_factory.hpp:77] Creating layer inception_5b/5x5
I0616 20:11:26.700747 42879 net.cpp:106] Creating Layer inception_5b/5x5
I0616 20:11:26.700778 42879 net.cpp:454] inception_5b/5x5 <- inception_5b/5x5_reduce
I0616 20:11:26.700803 42879 net.cpp:411] inception_5b/5x5 -> inception_5b/5x5
I0616 20:11:26.702678 42879 net.cpp:150] Setting up inception_5b/5x5
I0616 20:11:26.702723 42879 net.cpp:157] Top shape: 64 128 7 7 (401408)
I0616 20:11:26.702742 42879 net.cpp:165] Memory required for data: 3561305096
I0616 20:11:26.702764 42879 layer_factory.hpp:77] Creating layer inception_5b/relu_5x5
I0616 20:11:26.702785 42879 net.cpp:106] Creating Layer inception_5b/relu_5x5
I0616 20:11:26.702803 42879 net.cpp:454] inception_5b/relu_5x5 <- inception_5b/5x5
I0616 20:11:26.702822 42879 net.cpp:397] inception_5b/relu_5x5 -> inception_5b/5x5 (in-place)
I0616 20:11:26.703212 42879 net.cpp:150] Setting up inception_5b/relu_5x5
I0616 20:11:26.703248 42879 net.cpp:157] Top shape: 64 128 7 7 (401408)
I0616 20:11:26.703266 42879 net.cpp:165] Memory required for data: 3562910728
I0616 20:11:26.703284 42879 layer_factory.hpp:77] Creating layer inception_5b/pool
I0616 20:11:26.703304 42879 net.cpp:106] Creating Layer inception_5b/pool
I0616 20:11:26.703321 42879 net.cpp:454] inception_5b/pool <- inception_5a/output_inception_5a/output_0_split_3
I0616 20:11:26.703343 42879 net.cpp:411] inception_5b/pool -> inception_5b/pool
I0616 20:11:26.703414 42879 net.cpp:150] Setting up inception_5b/pool
I0616 20:11:26.703443 42879 net.cpp:157] Top shape: 64 832 7 7 (2609152)
I0616 20:11:26.703459 42879 net.cpp:165] Memory required for data: 3573347336
I0616 20:11:26.703474 42879 layer_factory.hpp:77] Creating layer inception_5b/pool_proj
I0616 20:11:26.703498 42879 net.cpp:106] Creating Layer inception_5b/pool_proj
I0616 20:11:26.703518 42879 net.cpp:454] inception_5b/pool_proj <- inception_5b/pool
I0616 20:11:26.703539 42879 net.cpp:411] inception_5b/pool_proj -> inception_5b/pool_proj
I0616 20:11:26.705649 42879 net.cpp:150] Setting up inception_5b/pool_proj
I0616 20:11:26.705689 42879 net.cpp:157] Top shape: 64 128 7 7 (401408)
I0616 20:11:26.705708 42879 net.cpp:165] Memory required for data: 3574952968
I0616 20:11:26.705729 42879 layer_factory.hpp:77] Creating layer inception_5b/relu_pool_proj
I0616 20:11:26.705749 42879 net.cpp:106] Creating Layer inception_5b/relu_pool_proj
I0616 20:11:26.705768 42879 net.cpp:454] inception_5b/relu_pool_proj <- inception_5b/pool_proj
I0616 20:11:26.705790 42879 net.cpp:397] inception_5b/relu_pool_proj -> inception_5b/pool_proj (in-place)
I0616 20:11:26.705977 42879 net.cpp:150] Setting up inception_5b/relu_pool_proj
I0616 20:11:26.706010 42879 net.cpp:157] Top shape: 64 128 7 7 (401408)
I0616 20:11:26.706027 42879 net.cpp:165] Memory required for data: 3576558600
I0616 20:11:26.706043 42879 layer_factory.hpp:77] Creating layer inception_5b/output
I0616 20:11:26.706064 42879 net.cpp:106] Creating Layer inception_5b/output
I0616 20:11:26.706084 42879 net.cpp:454] inception_5b/output <- inception_5b/1x1
I0616 20:11:26.706104 42879 net.cpp:454] inception_5b/output <- inception_5b/3x3
I0616 20:11:26.706125 42879 net.cpp:454] inception_5b/output <- inception_5b/5x5
I0616 20:11:26.706142 42879 net.cpp:454] inception_5b/output <- inception_5b/pool_proj
I0616 20:11:26.706161 42879 net.cpp:411] inception_5b/output -> inception_5b/output
I0616 20:11:26.706217 42879 net.cpp:150] Setting up inception_5b/output
I0616 20:11:26.706243 42879 net.cpp:157] Top shape: 64 1024 7 7 (3211264)
I0616 20:11:26.706260 42879 net.cpp:165] Memory required for data: 3589403656
I0616 20:11:26.706276 42879 layer_factory.hpp:77] Creating layer pool5/7x7_s1
I0616 20:11:26.706295 42879 net.cpp:106] Creating Layer pool5/7x7_s1
I0616 20:11:26.706326 42879 net.cpp:454] pool5/7x7_s1 <- inception_5b/output
I0616 20:11:26.706362 42879 net.cpp:411] pool5/7x7_s1 -> pool5/7x7_s1
I0616 20:11:26.706691 42879 net.cpp:150] Setting up pool5/7x7_s1
I0616 20:11:26.706727 42879 net.cpp:157] Top shape: 64 1024 1 1 (65536)
I0616 20:11:26.706744 42879 net.cpp:165] Memory required for data: 3589665800
I0616 20:11:26.706761 42879 layer_factory.hpp:77] Creating layer pool5/drop_7x7_s1
I0616 20:11:26.706782 42879 net.cpp:106] Creating Layer pool5/drop_7x7_s1
I0616 20:11:26.706801 42879 net.cpp:454] pool5/drop_7x7_s1 <- pool5/7x7_s1
I0616 20:11:26.706820 42879 net.cpp:397] pool5/drop_7x7_s1 -> pool5/7x7_s1 (in-place)
I0616 20:11:26.706873 42879 net.cpp:150] Setting up pool5/drop_7x7_s1
I0616 20:11:26.706899 42879 net.cpp:157] Top shape: 64 1024 1 1 (65536)
I0616 20:11:26.706917 42879 net.cpp:165] Memory required for data: 3589927944
I0616 20:11:26.706931 42879 layer_factory.hpp:77] Creating layer loss3/classifier_resized
I0616 20:11:26.706953 42879 net.cpp:106] Creating Layer loss3/classifier_resized
I0616 20:11:26.706975 42879 net.cpp:454] loss3/classifier_resized <- pool5/7x7_s1
I0616 20:11:26.706998 42879 net.cpp:411] loss3/classifier_resized -> loss3/classifier_resized
I0616 20:11:26.708641 42879 net.cpp:150] Setting up loss3/classifier_resized
I0616 20:11:26.708678 42879 net.cpp:157] Top shape: 64 216 (13824)
I0616 20:11:26.708696 42879 net.cpp:165] Memory required for data: 3589983240
I0616 20:11:26.708716 42879 layer_factory.hpp:77] Creating layer loss3/loss3
I0616 20:11:26.708739 42879 net.cpp:106] Creating Layer loss3/loss3
I0616 20:11:26.708758 42879 net.cpp:454] loss3/loss3 <- loss3/classifier_resized
I0616 20:11:26.708776 42879 net.cpp:454] loss3/loss3 <- label_data_1_split_2
I0616 20:11:26.708796 42879 net.cpp:411] loss3/loss3 -> loss3/loss3
…
I0616 20:11:26.716814 42879 net.cpp:322] The NetState phase (1) differed from the phase (0) specified by a rule in layer data
I0616 20:11:26.718145 42879 net.cpp:49] Initializing net from parameters: 
name: "foodCAT_food101_googlenet"
state {
  phase: TEST
}
layer {
  name: "data"
  type: "ImageData"
  top: "data"
  top: "label"
  include {
    phase: TEST
  }
  transform_param {
    mirror: false
    crop_size: 224
    mean_value: 104
    mean_value: 117
    mean_value: 123
  }
  image_data_param {
    source: "foodCAT_resized_balanced/val.txt"
    batch_size: 16
    shuffle: false
    new_height: 256
    new_width: 256
  }
}
layer {
  name: "conv1/7x7_s2"
  type: "Convolution"
  bottom: "data"
  top: "conv1/7x7_s2"
  param {
    lr_mult: 1
    decay_mult: 1
  }
  param {
    lr_mult: 2
    decay_mult: 0
  }
  convolution_param {
    num_output: 64
    pad: 3
    kernel_size: 7
    stride: 2
    weight_filler {
      type: "xavier"
      std: 0.1
    }
    bias_filler {
      type: "constant"
      value: 0.2
    }
  }
}
layer {
  name: "conv1/relu_7x7"
  type: "ReLU"
  bottom: "conv1/7x7_s2"
  top: "conv1/7x7_s2"
}
layer {
  name: "pool1/3x3_s2"
  type: "Pooling"
  bottom: "conv1/7x7_s2"
  top: "pool1/3x3_s2"
  pooling_param {
    pool: MAX
    kernel_size: 3
    stride: 2
  }
}
layer {
  name: "pool1/norm1"
  type: "LRN"
  bottom: "pool1/3x3_s2"
  top: "pool1/norm1"
  lrn_param {
    local_size: 5
    alpha: 0.0001
    beta: 0.75
  }
}
layer {
  name: "conv2/3x3_reduce"
  type: "Convolution"
  bottom: "pool1/norm1"
  top: "conv2/3x3_reduce"
  param {
    lr_mult: 1
    decay_mult: 1
  }
  param {
    lr_mult: 2
    decay_mult: 0
  }
  convolution_param {
    num_output: 64
    kernel_size: 1
    weight_filler {
      type: "xavier"
      std: 0.1
    }
    bias_filler {
      type: "constant"
      value: 0.2
    }
  }
}
layer {
  name: "conv2/relu_3x3_reduce"
  type: "ReLU"
  bottom: "conv2/3x3_reduce"
  top: "conv2/3x3_reduce"
}
layer {
  name: "conv2/3x3"
  type: "Convolution"
  bottom: "conv2/3x3_reduce"
  top: "conv2/3x3"
  param {
    lr_mult: 1
    decay_mult: 1
  }
  param {
    lr_mult: 2
    decay_mult: 0
  }
  convolution_param {
    num_output: 192
    pad: 1
    kernel_size: 3
    weight_filler {
      type: "xavier"
      std: 0.03
    }
    bias_filler {
      type: "constant"
      value: 0.2
    }
  }
}
layer {
  name: "conv2/relu_3x3"
  type: "ReLU"
  bottom: "conv2/3x3"
  top: "conv2/3x3"
}
layer {
  name: "conv2/norm2"
  type: "LRN"
  bottom: "conv2/3x3"
  top: "conv2/norm2"
  lrn_param {
    local_size: 5
    alpha: 0.0001
    beta: 0.75
  }
}
layer {
  name: "pool2/3x3_s2"
  type: "Pooling"
  bottom: "conv2/norm2"
  top: "pool2/3x3_s2"
  pooling_param {
    pool: MAX
    kernel_size: 3
    stride: 2
  }
}
layer {
  name: "inception_3a/1x1"
  type: "Convolution"
  bottom: "pool2/3x3_s2"
  top: "inception_3a/1x1"
  param {
    lr_mult: 1
    decay_mult: 1
  }
  param {
    lr_mult: 2
    decay_mult: 0
  }
  convolution_param {
    num_output: 64
    kernel_size: 1
    weight_filler {
      type: "xavier"
      std: 0.03
    }
    bias_filler {
      type: "constant"
      value: 0.2
    }
  }
}
layer {
  name: "inception_3a/relu_1x1"
  type: "ReLU"
  bottom: "inception_3a/1x1"
  top: "inception_3a/1x1"
}
layer {
  name: "inception_3a/3x3_reduce"
  type: "Convolution"
  bottom: "pool2/3x3_s2"
  top: "inception_3a/3x3_reduce"
  param {
    lr_mult: 1
    decay_mult: 1
  }
  param {
    lr_mult: 2
    decay_mult: 0
  }
  convolution_param {
    num_output: 96
    kernel_size: 1
    weight_filler {
      type: "xavier"
      std: 0.09
    }
    bias_filler {
      type: "constant"
      value: 0.2
    }
  }
}
layer {
  name: "inception_3a/relu_3x3_reduce"
  type: "ReLU"
  bottom: "inception_3a/3x3_reduce"
  top: "inception_3a/3x3_reduce"
}
layer {
  name: "inception_3a/3x3"
  type: "Convolution"
  bottom: "inception_3a/3x3_reduce"
  top: "inception_3a/3x3"
  param {
    lr_mult: 1
    decay_mult: 1
  }
  param {
    lr_mult: 2
    decay_mult: 0
  }
  convolution_param {
    num_output: 128
    pad: 1
    kernel_size: 3
    weight_filler {
      type: "xavier"
      std: 0.03
    }
    bias_filler {
      type: "constant"
      value: 0.2
    }
  }
}
layer {
  name: "inception_3a/relu_3x3"
  type: "ReLU"
  bottom: "inception_3a/3x3"
  top: "inception_3a/3x3"
}
layer {
  name: "inception_3a/5x5_reduce"
  type: "Convolution"
  bottom: "pool2/3x3_s2"
  top: "inception_3a/5x5_reduce"
  param {
    lr_mult: 1
    decay_mult: 1
  }
  param {
    lr_mult: 2
    decay_mult: 0
  }
  convolution_param {
    num_output: 16
    kernel_size: 1
    weight_filler {
      type: "xavier"
      std: 0.2
    }
    bias_filler {
      type: "constant"
      value: 0.2
    }
  }
}
layer {
  name: "inception_3a/relu_5x5_reduce"
  type: "ReLU"
  bottom: "inception_3a/5x5_reduce"
  top: "inception_3a/5x5_reduce"
}
layer {
  name: "inception_3a/5x5"
  type: "Convolution"
  bottom: "inception_3a/5x5_reduce"
  top: "inception_3a/5x5"
  param {
    lr_mult: 1
    decay_mult: 1
  }
  param {
    lr_mult: 2
    decay_mult: 0
  }
  convolution_param {
    num_output: 32
    pad: 2
    kernel_size: 5
    weight_filler {
      type: "xavier"
      std: 0.03
    }
    bias_filler {
      type: "constant"
      value: 0.2
    }
  }
}
layer {
  name: "inception_3a/relu_5x5"
  type: "ReLU"
  bottom: "inception_3a/5x5"
  top: "inception_3a/5x5"
}
layer {
  name: "inception_3a/pool"
  type: "Pooling"
  bottom: "pool2/3x3_s2"
  top: "inception_3a/pool"
  pooling_param {
    pool: MAX
    kernel_size: 3
    stride: 1
    pad: 1
  }
}
layer {
  name: "inception_3a/pool_proj"
  type: "Convolution"
  bottom: "inception_3a/pool"
  top: "inception_3a/pool_proj"
  param {
    lr_mult: 1
    decay_mult: 1
  }
  param {
    lr_mult: 2
    decay_mult: 0
  }
  convolution_param {
    num_output: 32
    kernel_size: 1
    weight_filler {
      type: "xavier"
      std: 0.1
    }
    bias_filler {
      type: "constant"
      value: 0.2
    }
  }
}
layer {
  name: "inception_3a/relu_pool_proj"
  type: "ReLU"
  bottom: "inception_3a/pool_proj"
  top: "inception_3a/pool_proj"
}
layer {
  name: "inception_3a/output"
  type: "Concat"
  bottom: "inception_3a/1x1"
  bottom: "inception_3a/3x3"
  bottom: "inception_3a/5x5"
  bottom: "inception_3a/pool_proj"
  top: "inception_3a/output"
}
layer {
  name: "inception_3b/1x1"
  type: "Convolution"
  bottom: "inception_3a/output"
  top: "inception_3b/1x1"
  param {
    lr_mult: 1
    decay_mult: 1
  }
  param {
    lr_mult: 2
    decay_mult: 0
  }
  convolution_param {
    num_output: 128
    kernel_size: 1
    weight_filler {
      type: "xavier"
      std: 0.03
    }
    bias_filler {
      type: "constant"
      value: 0.2
    }
  }
}
layer {
  name: "inception_3b/relu_1x1"
  type: "ReLU"
  bottom: "inception_3b/1x1"
  top: "inception_3b/1x1"
}
layer {
  name: "inception_3b/3x3_reduce"
  type: "Convolution"
  bottom: "inception_3a/output"
  top: "inception_3b/3x3_reduce"
  param {
    lr_mult: 1
    decay_mult: 1
  }
  param {
    lr_mult: 2
    decay_mult: 0
  }
  convolution_param {
    num_output: 128
    kernel_size: 1
    weight_filler {
      type: "xavier"
      std: 0.09
    }
    bias_filler {
      type: "constant"
      value: 0.2
    }
  }
}
layer {
  name: "inception_3b/relu_3x3_reduce"
  type: "ReLU"
  bottom: "inception_3b/3x3_reduce"
  top: "inception_3b/3x3_reduce"
}
layer {
  name: "inception_3b/3x3"
  type: "Convolution"
  bottom: "inception_3b/3x3_reduce"
  top: "inception_3b/3x3"
  param {
    lr_mult: 1
    decay_mult: 1
  }
  param {
    lr_mult: 2
    decay_mult: 0
  }
  convolution_param {
    num_output: 192
    pad: 1
    kernel_size: 3
    weight_filler {
      type: "xavier"
      std: 0.03
    }
    bias_filler {
      type: "constant"
      value: 0.2
    }
  }
}
layer {
  name: "inception_3b/relu_3x3"
  type: "ReLU"
  bottom: "inception_3b/3x3"
  top: "inception_3b/3x3"
}
layer {
  name: "inception_3b/5x5_reduce"
  type: "Convolution"
  bottom: "inception_3a/output"
  top: "inception_3b/5x5_reduce"
  param {
    lr_mult: 1
    decay_mult: 1
  }
  param {
    lr_mult: 2
    decay_mult: 0
  }
  convolution_param {
    num_output: 32
    kernel_size: 1
    weight_filler {
      type: "xavier"
      std: 0.2
    }
    bias_filler {
      type: "constant"
      value: 0.2
    }
  }
}
layer {
  name: "inception_3b/relu_5x5_reduce"
  type: "ReLU"
  bottom: "inception_3b/5x5_reduce"
  top: "inception_3b/5x5_reduce"
}
layer {
  name: "inception_3b/5x5"
  type: "Convolution"
  bottom: "inception_3b/5x5_reduce"
  top: "inception_3b/5x5"
  param {
    lr_mult: 1
    decay_mult: 1
  }
  param {
    lr_mult: 2
    decay_mult: 0
  }
  convolution_param {
    num_output: 96
    pad: 2
    kernel_size: 5
    weight_filler {
      type: "xavier"
      std: 0.03
    }
    bias_filler {
      type: "constant"
      value: 0.2
    }
  }
}
layer {
  name: "inception_3b/relu_5x5"
  type: "ReLU"
  bottom: "inception_3b/5x5"
  top: "inception_3b/5x5"
}
layer {
  name: "inception_3b/pool"
  type: "Pooling"
  bottom: "inception_3a/output"
  top: "inception_3b/pool"
  pooling_param {
    pool: MAX
    kernel_size: 3
    stride: 1
    pad: 1
  }
}
layer {
  name: "inception_3b/pool_proj"
  type: "Convolution"
  bottom: "inception_3b/pool"
  top: "inception_3b/pool_proj"
  param {
    lr_mult: 1
    decay_mult: 1
  }
  param {
    lr_mult: 2
    decay_mult: 0
  }
  convolution_param {
    num_output: 64
    kernel_size: 1
    weight_filler {
      type: "xavier"
      std: 0.1
    }
    bias_filler {
      type: "constant"
      value: 0.2
    }
  }
}
layer {
  name: "inception_3b/relu_pool_proj"
  type: "ReLU"
  bottom: "inception_3b/pool_proj"
  top: "inception_3b/pool_proj"
}
layer {
  name: "inception_3b/output"
  type: "Concat"
  bottom: "inception_3b/1x1"
  bottom: "inception_3b/3x3"
  bottom: "inception_3b/5x5"
  bottom: "inception_3b/pool_proj"
  top: "inception_3b/output"
}
layer {
  name: "pool3/3x3_s2"
  type: "Pooling"
  bottom: "inception_3b/output"
  top: "pool3/3x3_s2"
  pooling_param {
    pool: MAX
    kernel_size: 3
    stride: 2
  }
}
layer {
  name: "inception_4a/1x1"
  type: "Convolution"
  bottom: "pool3/3x3_s2"
  top: "inception_4a/1x1"
  param {
    lr_mult: 1
    decay_mult: 1
  }
  param {
    lr_mult: 2
    decay_mult: 0
  }
  convolution_param {
    num_output: 192
    kernel_size: 1
    weight_filler {
      type: "xavier"
      std: 0.03
    }
    bias_filler {
      type: "constant"
      value: 0.2
    }
  }
}
layer {
  name: "inception_4a/relu_1x1"
  type: "ReLU"
  bottom: "inception_4a/1x1"
  top: "inception_4a/1x1"
}
layer {
  name: "inception_4a/3x3_reduce"
  type: "Convolution"
  bottom: "pool3/3x3_s2"
  top: "inception_4a/3x3_reduce"
  param {
    lr_mult: 1
    decay_mult: 1
  }
  param {
    lr_mult: 2
    decay_mult: 0
  }
  convolution_param {
    num_output: 96
    kernel_size: 1
    weight_filler {
      type: "xavier"
      std: 0.09
    }
    bias_filler {
      type: "constant"
      value: 0.2
    }
  }
}
layer {
  name: "inception_4a/relu_3x3_reduce"
  type: "ReLU"
  bottom: "inception_4a/3x3_reduce"
  top: "inception_4a/3x3_reduce"
}
layer {
  name: "inception_4a/3x3"
  type: "Convolution"
  bottom: "inception_4a/3x3_reduce"
  top: "inception_4a/3x3"
  param {
    lr_mult: 1
    decay_mult: 1
  }
  param {
    lr_mult: 2
    decay_mult: 0
  }
  convolution_param {
    num_output: 208
    pad: 1
    kernel_size: 3
    weight_filler {
      type: "xavier"
      std: 0.03
    }
    bias_filler {
      type: "constant"
      value: 0.2
    }
  }
}
layer {
  name: "inception_4a/relu_3x3"
  type: "ReLU"
  bottom: "inception_4a/3x3"
  top: "inception_4a/3x3"
}
layer {
  name: "inception_4a/5x5_reduce"
  type: "Convolution"
  bottom: "pool3/3x3_s2"
  top: "inception_4a/5x5_reduce"
  param {
    lr_mult: 1
    decay_mult: 1
  }
  param {
    lr_mult: 2
    decay_mult: 0
  }
  convolution_param {
    num_output: 16
    kernel_size: 1
    weight_filler {
      type: "xavier"
      std: 0.2
    }
    bias_filler {
      type: "constant"
      value: 0.2
    }
  }
}
layer {
  name: "inception_4a/relu_5x5_reduce"
  type: "ReLU"
  bottom: "inception_4a/5x5_reduce"
  top: "inception_4a/5x5_reduce"
}
layer {
  name: "inception_4a/5x5"
  type: "Convolution"
  bottom: "inception_4a/5x5_reduce"
  top: "inception_4a/5x5"
  param {
    lr_mult: 1
    decay_mult: 1
  }
  param {
    lr_mult: 2
    decay_mult: 0
  }
  convolution_param {
    num_output: 48
    pad: 2
    kernel_size: 5
    weight_filler {
      type: "xavier"
      std: 0.03
    }
    bias_filler {
      type: "constant"
      value: 0.2
    }
  }
}
layer {
  name: "inception_4a/relu_5x5"
  type: "ReLU"
  bottom: "inception_4a/5x5"
  top: "inception_4a/5x5"
}
layer {
  name: "inception_4a/pool"
  type: "Pooling"
  bottom: "pool3/3x3_s2"
  top: "inception_4a/pool"
  pooling_param {
    pool: MAX
    kernel_size: 3
    stride: 1
    pad: 1
  }
}
layer {
  name: "inception_4a/pool_proj"
  type: "Convolution"
  bottom: "inception_4a/pool"
  top: "inception_4a/pool_proj"
  param {
    lr_mult: 1
    decay_mult: 1
  }
  param {
    lr_mult: 2
    decay_mult: 0
  }
  convolution_param {
    num_output: 64
    kernel_size: 1
    weight_filler {
      type: "xavier"
      std: 0.1
    }
    bias_filler {
      type: "constant"
      value: 0.2
    }
  }
}
layer {
  name: "inception_4a/relu_pool_proj"
  type: "ReLU"
  bottom: "inception_4a/pool_proj"
  top: "inception_4a/pool_proj"
}
layer {
  name: "inception_4a/output"
  type: "Concat"
  bottom: "inception_4a/1x1"
  bottom: "inception_4a/3x3"
  bottom: "inception_4a/5x5"
  bottom: "inception_4a/pool_proj"
  top: "inception_4a/output"
}
layer {
  name: "loss1/ave_pool"
  type: "Pooling"
  bottom: "inception_4a/output"
  top: "loss1/ave_pool"
  pooling_param {
    pool: AVE
    kernel_size: 5
    stride: 3
  }
}
layer {
  name: "loss1/conv"
  type: "Convolution"
  bottom: "loss1/ave_pool"
  top: "loss1/conv"
  param {
    lr_mult: 1
    decay_mult: 1
  }
  param {
    lr_mult: 2
    decay_mult: 0
  }
  convolution_param {
    num_output: 128
    kernel_size: 1
    weight_filler {
      type: "xavier"
      std: 0.08
    }
    bias_filler {
      type: "constant"
      value: 0.2
    }
  }
}
layer {
  name: "loss1/relu_conv"
  type: "ReLU"
…
I0616 20:11:26.862884 42879 net.cpp:106] Creating Layer inception_4c/pool
I0616 20:11:26.862905 42879 net.cpp:454] inception_4c/pool <- inception_4b/output_inception_4b/output_0_split_3
I0616 20:11:26.862925 42879 net.cpp:411] inception_4c/pool -> inception_4c/pool
I0616 20:11:26.863013 42879 net.cpp:150] Setting up inception_4c/pool
I0616 20:11:26.863042 42879 net.cpp:157] Top shape: 16 512 14 14 (1605632)
I0616 20:11:26.863059 42879 net.cpp:165] Memory required for data: 707316364
I0616 20:11:26.863075 42879 layer_factory.hpp:77] Creating layer inception_4c/pool_proj
I0616 20:11:26.863098 42879 net.cpp:106] Creating Layer inception_4c/pool_proj
I0616 20:11:26.863117 42879 net.cpp:454] inception_4c/pool_proj <- inception_4c/pool
I0616 20:11:26.863137 42879 net.cpp:411] inception_4c/pool_proj -> inception_4c/pool_proj
I0616 20:11:26.864954 42879 net.cpp:150] Setting up inception_4c/pool_proj
I0616 20:11:26.864998 42879 net.cpp:157] Top shape: 16 64 14 14 (200704)
I0616 20:11:26.865017 42879 net.cpp:165] Memory required for data: 708119180
I0616 20:11:26.865037 42879 layer_factory.hpp:77] Creating layer inception_4c/relu_pool_proj
I0616 20:11:26.865058 42879 net.cpp:106] Creating Layer inception_4c/relu_pool_proj
I0616 20:11:26.865077 42879 net.cpp:454] inception_4c/relu_pool_proj <- inception_4c/pool_proj
I0616 20:11:26.865098 42879 net.cpp:397] inception_4c/relu_pool_proj -> inception_4c/pool_proj (in-place)
I0616 20:11:26.865299 42879 net.cpp:150] Setting up inception_4c/relu_pool_proj
I0616 20:11:26.865332 42879 net.cpp:157] Top shape: 16 64 14 14 (200704)
I0616 20:11:26.865350 42879 net.cpp:165] Memory required for data: 708921996
I0616 20:11:26.865365 42879 layer_factory.hpp:77] Creating layer inception_4c/output
I0616 20:11:26.865386 42879 net.cpp:106] Creating Layer inception_4c/output
I0616 20:11:26.865406 42879 net.cpp:454] inception_4c/output <- inception_4c/1x1
I0616 20:11:26.865423 42879 net.cpp:454] inception_4c/output <- inception_4c/3x3
I0616 20:11:26.865440 42879 net.cpp:454] inception_4c/output <- inception_4c/5x5
I0616 20:11:26.865469 42879 net.cpp:454] inception_4c/output <- inception_4c/pool_proj
I0616 20:11:26.865504 42879 net.cpp:411] inception_4c/output -> inception_4c/output
I0616 20:11:26.865569 42879 net.cpp:150] Setting up inception_4c/output
I0616 20:11:26.865597 42879 net.cpp:157] Top shape: 16 512 14 14 (1605632)
I0616 20:11:26.865613 42879 net.cpp:165] Memory required for data: 715344524
I0616 20:11:26.865629 42879 layer_factory.hpp:77] Creating layer inception_4c/output_inception_4c/output_0_split
I0616 20:11:26.865648 42879 net.cpp:106] Creating Layer inception_4c/output_inception_4c/output_0_split
I0616 20:11:26.865666 42879 net.cpp:454] inception_4c/output_inception_4c/output_0_split <- inception_4c/output
I0616 20:11:26.865687 42879 net.cpp:411] inception_4c/output_inception_4c/output_0_split -> inception_4c/output_inception_4c/output_0_split_0
I0616 20:11:26.865711 42879 net.cpp:411] inception_4c/output_inception_4c/output_0_split -> inception_4c/output_inception_4c/output_0_split_1
I0616 20:11:26.865732 42879 net.cpp:411] inception_4c/output_inception_4c/output_0_split -> inception_4c/output_inception_4c/output_0_split_2
I0616 20:11:26.865753 42879 net.cpp:411] inception_4c/output_inception_4c/output_0_split -> inception_4c/output_inception_4c/output_0_split_3
I0616 20:11:26.865869 42879 net.cpp:150] Setting up inception_4c/output_inception_4c/output_0_split
I0616 20:11:26.865898 42879 net.cpp:157] Top shape: 16 512 14 14 (1605632)
I0616 20:11:26.865917 42879 net.cpp:157] Top shape: 16 512 14 14 (1605632)
I0616 20:11:26.865933 42879 net.cpp:157] Top shape: 16 512 14 14 (1605632)
I0616 20:11:26.865949 42879 net.cpp:157] Top shape: 16 512 14 14 (1605632)
I0616 20:11:26.865969 42879 net.cpp:165] Memory required for data: 741034636
I0616 20:11:26.865988 42879 layer_factory.hpp:77] Creating layer inception_4d/1x1
I0616 20:11:26.866011 42879 net.cpp:106] Creating Layer inception_4d/1x1
I0616 20:11:26.866031 42879 net.cpp:454] inception_4d/1x1 <- inception_4c/output_inception_4c/output_0_split_0
I0616 20:11:26.866051 42879 net.cpp:411] inception_4d/1x1 -> inception_4d/1x1
I0616 20:11:26.867483 42879 net.cpp:150] Setting up inception_4d/1x1
I0616 20:11:26.867522 42879 net.cpp:157] Top shape: 16 112 14 14 (351232)
I0616 20:11:26.867542 42879 net.cpp:165] Memory required for data: 742439564
I0616 20:11:26.867563 42879 layer_factory.hpp:77] Creating layer inception_4d/relu_1x1
I0616 20:11:26.867584 42879 net.cpp:106] Creating Layer inception_4d/relu_1x1
I0616 20:11:26.867614 42879 net.cpp:454] inception_4d/relu_1x1 <- inception_4d/1x1
I0616 20:11:26.867646 42879 net.cpp:397] inception_4d/relu_1x1 -> inception_4d/1x1 (in-place)
I0616 20:11:26.868005 42879 net.cpp:150] Setting up inception_4d/relu_1x1
I0616 20:11:26.868052 42879 net.cpp:157] Top shape: 16 112 14 14 (351232)
I0616 20:11:26.868072 42879 net.cpp:165] Memory required for data: 743844492
I0616 20:11:26.868090 42879 layer_factory.hpp:77] Creating layer inception_4d/3x3_reduce
I0616 20:11:26.868129 42879 net.cpp:106] Creating Layer inception_4d/3x3_reduce
I0616 20:11:26.868162 42879 net.cpp:454] inception_4d/3x3_reduce <- inception_4c/output_inception_4c/output_0_split_1
I0616 20:11:26.868208 42879 net.cpp:411] inception_4d/3x3_reduce -> inception_4d/3x3_reduce
I0616 20:11:26.869942 42879 net.cpp:150] Setting up inception_4d/3x3_reduce
I0616 20:11:26.869988 42879 net.cpp:157] Top shape: 16 144 14 14 (451584)
I0616 20:11:26.870018 42879 net.cpp:165] Memory required for data: 745650828
I0616 20:11:26.870038 42879 layer_factory.hpp:77] Creating layer inception_4d/relu_3x3_reduce
I0616 20:11:26.870062 42879 net.cpp:106] Creating Layer inception_4d/relu_3x3_reduce
I0616 20:11:26.870081 42879 net.cpp:454] inception_4d/relu_3x3_reduce <- inception_4d/3x3_reduce
I0616 20:11:26.870100 42879 net.cpp:397] inception_4d/relu_3x3_reduce -> inception_4d/3x3_reduce (in-place)
I0616 20:11:26.870497 42879 net.cpp:150] Setting up inception_4d/relu_3x3_reduce
I0616 20:11:26.870533 42879 net.cpp:157] Top shape: 16 144 14 14 (451584)
I0616 20:11:26.870550 42879 net.cpp:165] Memory required for data: 747457164
I0616 20:11:26.870592 42879 layer_factory.hpp:77] Creating layer inception_4d/3x3
I0616 20:11:26.870620 42879 net.cpp:106] Creating Layer inception_4d/3x3
I0616 20:11:26.870640 42879 net.cpp:454] inception_4d/3x3 <- inception_4d/3x3_reduce
I0616 20:11:26.870662 42879 net.cpp:411] inception_4d/3x3 -> inception_4d/3x3
I0616 20:11:26.874703 42879 net.cpp:150] Setting up inception_4d/3x3
I0616 20:11:26.874744 42879 net.cpp:157] Top shape: 16 288 14 14 (903168)
I0616 20:11:26.874763 42879 net.cpp:165] Memory required for data: 751069836
I0616 20:11:26.874783 42879 layer_factory.hpp:77] Creating layer inception_4d/relu_3x3
I0616 20:11:26.874805 42879 net.cpp:106] Creating Layer inception_4d/relu_3x3
I0616 20:11:26.874825 42879 net.cpp:454] inception_4d/relu_3x3 <- inception_4d/3x3
I0616 20:11:26.874845 42879 net.cpp:397] inception_4d/relu_3x3 -> inception_4d/3x3 (in-place)
I0616 20:11:26.875058 42879 net.cpp:150] Setting up inception_4d/relu_3x3
I0616 20:11:26.875090 42879 net.cpp:157] Top shape: 16 288 14 14 (903168)
I0616 20:11:26.875108 42879 net.cpp:165] Memory required for data: 754682508
I0616 20:11:26.875124 42879 layer_factory.hpp:77] Creating layer inception_4d/5x5_reduce
I0616 20:11:26.875149 42879 net.cpp:106] Creating Layer inception_4d/5x5_reduce
I0616 20:11:26.875169 42879 net.cpp:454] inception_4d/5x5_reduce <- inception_4c/output_inception_4c/output_0_split_2
I0616 20:11:26.875192 42879 net.cpp:411] inception_4d/5x5_reduce -> inception_4d/5x5_reduce
I0616 20:11:26.876471 42879 net.cpp:150] Setting up inception_4d/5x5_reduce
I0616 20:11:26.876513 42879 net.cpp:157] Top shape: 16 32 14 14 (100352)
I0616 20:11:26.876531 42879 net.cpp:165] Memory required for data: 755083916
I0616 20:11:26.876551 42879 layer_factory.hpp:77] Creating layer inception_4d/relu_5x5_reduce
I0616 20:11:26.876572 42879 net.cpp:106] Creating Layer inception_4d/relu_5x5_reduce
I0616 20:11:26.876591 42879 net.cpp:454] inception_4d/relu_5x5_reduce <- inception_4d/5x5_reduce
I0616 20:11:26.876612 42879 net.cpp:397] inception_4d/relu_5x5_reduce -> inception_4d/5x5_reduce (in-place)
I0616 20:11:26.876938 42879 net.cpp:150] Setting up inception_4d/relu_5x5_reduce
I0616 20:11:26.876979 42879 net.cpp:157] Top shape: 16 32 14 14 (100352)
I0616 20:11:26.876998 42879 net.cpp:165] Memory required for data: 755485324
I0616 20:11:26.877015 42879 layer_factory.hpp:77] Creating layer inception_4d/5x5
I0616 20:11:26.877040 42879 net.cpp:106] Creating Layer inception_4d/5x5
I0616 20:11:26.877060 42879 net.cpp:454] inception_4d/5x5 <- inception_4d/5x5_reduce
I0616 20:11:26.877084 42879 net.cpp:411] inception_4d/5x5 -> inception_4d/5x5
I0616 20:11:26.878379 42879 net.cpp:150] Setting up inception_4d/5x5
I0616 20:11:26.878419 42879 net.cpp:157] Top shape: 16 64 14 14 (200704)
I0616 20:11:26.878439 42879 net.cpp:165] Memory required for data: 756288140
I0616 20:11:26.878459 42879 layer_factory.hpp:77] Creating layer inception_4d/relu_5x5
I0616 20:11:26.878480 42879 net.cpp:106] Creating Layer inception_4d/relu_5x5
I0616 20:11:26.878499 42879 net.cpp:454] inception_4d/relu_5x5 <- inception_4d/5x5
I0616 20:11:26.878517 42879 net.cpp:397] inception_4d/relu_5x5 -> inception_4d/5x5 (in-place)
I0616 20:11:26.878847 42879 net.cpp:150] Setting up inception_4d/relu_5x5
I0616 20:11:26.878885 42879 net.cpp:157] Top shape: 16 64 14 14 (200704)
I0616 20:11:26.878903 42879 net.cpp:165] Memory required for data: 757090956
I0616 20:11:26.878919 42879 layer_factory.hpp:77] Creating layer inception_4d/pool
I0616 20:11:26.878939 42879 net.cpp:106] Creating Layer inception_4d/pool
I0616 20:11:26.878957 42879 net.cpp:454] inception_4d/pool <- inception_4c/output_inception_4c/output_0_split_3
I0616 20:11:26.878985 42879 net.cpp:411] inception_4d/pool -> inception_4d/pool
I0616 20:11:26.879073 42879 net.cpp:150] Setting up inception_4d/pool
I0616 20:11:26.879102 42879 net.cpp:157] Top shape: 16 512 14 14 (1605632)
I0616 20:11:26.879118 42879 net.cpp:165] Memory required for data: 763513484
I0616 20:11:26.879134 42879 layer_factory.hpp:77] Creating layer inception_4d/pool_proj
I0616 20:11:26.879170 42879 net.cpp:106] Creating Layer inception_4d/pool_proj
I0616 20:11:26.879204 42879 net.cpp:454] inception_4d/pool_proj <- inception_4d/pool
I0616 20:11:26.879227 42879 net.cpp:411] inception_4d/pool_proj -> inception_4d/pool_proj
I0616 20:11:26.880564 42879 net.cpp:150] Setting up inception_4d/pool_proj
I0616 20:11:26.880604 42879 net.cpp:157] Top shape: 16 64 14 14 (200704)
I0616 20:11:26.880621 42879 net.cpp:165] Memory required for data: 764316300
I0616 20:11:26.880641 42879 layer_factory.hpp:77] Creating layer inception_4d/relu_pool_proj
I0616 20:11:26.880662 42879 net.cpp:106] Creating Layer inception_4d/relu_pool_proj
I0616 20:11:26.880681 42879 net.cpp:454] inception_4d/relu_pool_proj <- inception_4d/pool_proj
I0616 20:11:26.880702 42879 net.cpp:397] inception_4d/relu_pool_proj -> inception_4d/pool_proj (in-place)
I0616 20:11:26.881034 42879 net.cpp:150] Setting up inception_4d/relu_pool_proj
I0616 20:11:26.881072 42879 net.cpp:157] Top shape: 16 64 14 14 (200704)
I0616 20:11:26.881088 42879 net.cpp:165] Memory required for data: 765119116
I0616 20:11:26.881104 42879 layer_factory.hpp:77] Creating layer inception_4d/output
I0616 20:11:26.881126 42879 net.cpp:106] Creating Layer inception_4d/output
I0616 20:11:26.881145 42879 net.cpp:454] inception_4d/output <- inception_4d/1x1
I0616 20:11:26.881163 42879 net.cpp:454] inception_4d/output <- inception_4d/3x3
I0616 20:11:26.881181 42879 net.cpp:454] inception_4d/output <- inception_4d/5x5
I0616 20:11:26.881198 42879 net.cpp:454] inception_4d/output <- inception_4d/pool_proj
I0616 20:11:26.881217 42879 net.cpp:411] inception_4d/output -> inception_4d/output
I0616 20:11:26.881278 42879 net.cpp:150] Setting up inception_4d/output
I0616 20:11:26.881309 42879 net.cpp:157] Top shape: 16 528 14 14 (1655808)
I0616 20:11:26.881325 42879 net.cpp:165] Memory required for data: 771742348
I0616 20:11:26.881341 42879 layer_factory.hpp:77] Creating layer inception_4d/output_inception_4d/output_0_split
I0616 20:11:26.881361 42879 net.cpp:106] Creating Layer inception_4d/output_inception_4d/output_0_split
I0616 20:11:26.881377 42879 net.cpp:454] inception_4d/output_inception_4d/output_0_split <- inception_4d/output
I0616 20:11:26.881398 42879 net.cpp:411] inception_4d/output_inception_4d/output_0_split -> inception_4d/output_inception_4d/output_0_split_0
I0616 20:11:26.881420 42879 net.cpp:411] inception_4d/output_inception_4d/output_0_split -> inception_4d/output_inception_4d/output_0_split_1
I0616 20:11:26.881443 42879 net.cpp:411] inception_4d/output_inception_4d/output_0_split -> inception_4d/output_inception_4d/output_0_split_2
I0616 20:11:26.881464 42879 net.cpp:411] inception_4d/output_inception_4d/output_0_split -> inception_4d/output_inception_4d/output_0_split_3
I0616 20:11:26.881485 42879 net.cpp:411] inception_4d/output_inception_4d/output_0_split -> inception_4d/output_inception_4d/output_0_split_4
I0616 20:11:26.881623 42879 net.cpp:150] Setting up inception_4d/output_inception_4d/output_0_split
I0616 20:11:26.881652 42879 net.cpp:157] Top shape: 16 528 14 14 (1655808)
I0616 20:11:26.881671 42879 net.cpp:157] Top shape: 16 528 14 14 (1655808)
I0616 20:11:26.881687 42879 net.cpp:157] Top shape: 16 528 14 14 (1655808)
I0616 20:11:26.881705 42879 net.cpp:157] Top shape: 16 528 14 14 (1655808)
I0616 20:11:26.881721 42879 net.cpp:157] Top shape: 16 528 14 14 (1655808)
I0616 20:11:26.881736 42879 net.cpp:165] Memory required for data: 804858508
I0616 20:11:26.881752 42879 layer_factory.hpp:77] Creating layer loss2/ave_pool
I0616 20:11:26.881770 42879 net.cpp:106] Creating Layer loss2/ave_pool
I0616 20:11:26.881788 42879 net.cpp:454] loss2/ave_pool <- inception_4d/output_inception_4d/output_0_split_0
I0616 20:11:26.881806 42879 net.cpp:411] loss2/ave_pool -> loss2/ave_pool
I0616 20:11:26.882266 42879 net.cpp:150] Setting up loss2/ave_pool
I0616 20:11:26.882315 42879 net.cpp:157] Top shape: 16 528 4 4 (135168)
I0616 20:11:26.882344 42879 net.cpp:165] Memory required for data: 805399180
I0616 20:11:26.882360 42879 layer_factory.hpp:77] Creating layer loss2/conv
I0616 20:11:26.882408 42879 net.cpp:106] Creating Layer loss2/conv
I0616 20:11:26.882441 42879 net.cpp:454] loss2/conv <- loss2/ave_pool
I0616 20:11:26.882465 42879 net.cpp:411] loss2/conv -> loss2/conv
I0616 20:11:26.884805 42879 net.cpp:150] Setting up loss2/conv
I0616 20:11:26.884846 42879 net.cpp:157] Top shape: 16 128 4 4 (32768)
I0616 20:11:26.884866 42879 net.cpp:165] Memory required for data: 805530252
I0616 20:11:26.884886 42879 layer_factory.hpp:77] Creating layer loss2/relu_conv
I0616 20:11:26.884910 42879 net.cpp:106] Creating Layer loss2/relu_conv
I0616 20:11:26.884929 42879 net.cpp:454] loss2/relu_conv <- loss2/conv
I0616 20:11:26.884948 42879 net.cpp:397] loss2/relu_conv -> loss2/conv (in-place)
I0616 20:11:26.885164 42879 net.cpp:150] Setting up loss2/relu_conv
I0616 20:11:26.885200 42879 net.cpp:157] Top shape: 16 128 4 4 (32768)
I0616 20:11:26.885217 42879 net.cpp:165] Memory required for data: 805661324
I0616 20:11:26.885233 42879 layer_factory.hpp:77] Creating layer loss2/fc
I0616 20:11:26.885254 42879 net.cpp:106] Creating Layer loss2/fc
I0616 20:11:26.885272 42879 net.cpp:454] loss2/fc <- loss2/conv
I0616 20:11:26.885294 42879 net.cpp:411] loss2/fc -> loss2/fc
I0616 20:11:26.898494 42879 net.cpp:150] Setting up loss2/fc
I0616 20:11:26.898532 42879 net.cpp:157] Top shape: 16 1024 (16384)
I0616 20:11:26.898550 42879 net.cpp:165] Memory required for data: 805726860
I0616 20:11:26.898569 42879 layer_factory.hpp:77] Creating layer loss2/relu_fc
I0616 20:11:26.898592 42879 net.cpp:106] Creating Layer loss2/relu_fc
I0616 20:11:26.898623 42879 net.cpp:454] loss2/relu_fc <- loss2/fc
I0616 20:11:26.898644 42879 net.cpp:397] loss2/relu_fc -> loss2/fc (in-place)
I0616 20:11:26.899178 42879 net.cpp:150] Setting up loss2/relu_fc
I0616 20:11:26.899233 42879 net.cpp:157] Top shape: 16 1024 (16384)
I0616 20:11:26.899261 42879 net.cpp:165] Memory required for data: 805792396
I0616 20:11:26.899279 42879 layer_factory.hpp:77] Creating layer loss2/drop_fc
I0616 20:11:26.899302 42879 net.cpp:106] Creating Layer loss2/drop_fc
I0616 20:11:26.899322 42879 net.cpp:454] loss2/drop_fc <- loss2/fc
I0616 20:11:26.899339 42879 net.cpp:397] loss2/drop_fc -> loss2/fc (in-place)
I0616 20:11:26.899405 42879 net.cpp:150] Setting up loss2/drop_fc
I0616 20:11:26.899435 42879 net.cpp:157] Top shape: 16 1024 (16384)
I0616 20:11:26.899451 42879 net.cpp:165] Memory required for data: 805857932
I0616 20:11:26.899467 42879 layer_factory.hpp:77] Creating layer loss2/classifier
I0616 20:11:26.899487 42879 net.cpp:106] Creating Layer loss2/classifier
I0616 20:11:26.899505 42879 net.cpp:454] loss2/classifier <- loss2/fc
I0616 20:11:26.899528 42879 net.cpp:411] loss2/classifier -> loss2/classifier
I0616 20:11:26.907107 42879 net.cpp:150] Setting up loss2/classifier
I0616 20:11:26.907146 42879 net.cpp:157] Top shape: 16 1000 (16000)
I0616 20:11:26.907165 42879 net.cpp:165] Memory required for data: 805921932
I0616 20:11:26.907186 42879 layer_factory.hpp:77] Creating layer loss2/classifier_loss2/classifier_0_split
I0616 20:11:26.907208 42879 net.cpp:106] Creating Layer loss2/classifier_loss2/classifier_0_split
I0616 20:11:26.907228 42879 net.cpp:454] loss2/classifier_loss2/classifier_0_split <- loss2/classifier
I0616 20:11:26.907248 42879 net.cpp:411] loss2/classifier_loss2/classifier_0_split -> loss2/classifier_loss2/classifier_0_split_0
I0616 20:11:26.907269 42879 net.cpp:411] loss2/classifier_loss2/classifier_0_split -> loss2/classifier_loss2/classifier_0_split_1
I0616 20:11:26.907291 42879 net.cpp:411] loss2/classifier_loss2/classifier_0_split -> loss2/classifier_loss2/classifier_0_split_2
I0616 20:11:26.907397 42879 net.cpp:150] Setting up loss2/classifier_loss2/classifier_0_split
I0616 20:11:26.907425 42879 net.cpp:157] Top shape: 16 1000 (16000)
I0616 20:11:26.907443 42879 net.cpp:157] Top shape: 16 1000 (16000)
I0616 20:11:26.907459 42879 net.cpp:157] Top shape: 16 1000 (16000)
I0616 20:11:26.907474 42879 net.cpp:165] Memory required for data: 806113932
I0616 20:11:26.907490 42879 layer_factory.hpp:77] Creating layer loss2/loss
I0616 20:11:26.907522 42879 net.cpp:106] Creating Layer loss2/loss
I0616 20:11:26.907557 42879 net.cpp:454] loss2/loss <- loss2/classifier_loss2/classifier_0_split_0
I0616 20:11:26.907575 42879 net.cpp:454] loss2/loss <- label_data_1_split_3
…
I0616 20:11:26.908342 42879 net.cpp:150] Setting up loss2/top-5
I0616 20:11:26.908362 42879 net.cpp:157] Top shape: (1)
I0616 20:11:26.908378 42879 net.cpp:165] Memory required for data: 806113944
I0616 20:11:26.908393 42879 layer_factory.hpp:77] Creating layer inception_4e/1x1
I0616 20:11:26.908419 42879 net.cpp:106] Creating Layer inception_4e/1x1
I0616 20:11:26.908439 42879 net.cpp:454] inception_4e/1x1 <- inception_4d/output_inception_4d/output_0_split_1
I0616 20:11:26.908462 42879 net.cpp:411] inception_4e/1x1 -> inception_4e/1x1
I0616 20:11:26.910336 42879 net.cpp:150] Setting up inception_4e/1x1
I0616 20:11:26.910377 42879 net.cpp:157] Top shape: 16 256 14 14 (802816)
I0616 20:11:26.910397 42879 net.cpp:165] Memory required for data: 809325208
I0616 20:11:26.910416 42879 layer_factory.hpp:77] Creating layer inception_4e/relu_1x1
I0616 20:11:26.910439 42879 net.cpp:106] Creating Layer inception_4e/relu_1x1
I0616 20:11:26.910456 42879 net.cpp:454] inception_4e/relu_1x1 <- inception_4e/1x1
I0616 20:11:26.910475 42879 net.cpp:397] inception_4e/relu_1x1 -> inception_4e/1x1 (in-place)
I0616 20:11:26.910678 42879 net.cpp:150] Setting up inception_4e/relu_1x1
I0616 20:11:26.910712 42879 net.cpp:157] Top shape: 16 256 14 14 (802816)
I0616 20:11:26.910728 42879 net.cpp:165] Memory required for data: 812536472
I0616 20:11:26.910744 42879 layer_factory.hpp:77] Creating layer inception_4e/3x3_reduce
I0616 20:11:26.910783 42879 net.cpp:106] Creating Layer inception_4e/3x3_reduce
I0616 20:11:26.910804 42879 net.cpp:454] inception_4e/3x3_reduce <- inception_4d/output_inception_4d/output_0_split_2
I0616 20:11:26.910825 42879 net.cpp:411] inception_4e/3x3_reduce -> inception_4e/3x3_reduce
I0616 20:11:26.912976 42879 net.cpp:150] Setting up inception_4e/3x3_reduce
I0616 20:11:26.913017 42879 net.cpp:157] Top shape: 16 160 14 14 (501760)
I0616 20:11:26.913036 42879 net.cpp:165] Memory required for data: 814543512
I0616 20:11:26.913058 42879 layer_factory.hpp:77] Creating layer inception_4e/relu_3x3_reduce
I0616 20:11:26.913079 42879 net.cpp:106] Creating Layer inception_4e/relu_3x3_reduce
I0616 20:11:26.913097 42879 net.cpp:454] inception_4e/relu_3x3_reduce <- inception_4e/3x3_reduce
I0616 20:11:26.913117 42879 net.cpp:397] inception_4e/relu_3x3_reduce -> inception_4e/3x3_reduce (in-place)
I0616 20:11:26.913450 42879 net.cpp:150] Setting up inception_4e/relu_3x3_reduce
I0616 20:11:26.913487 42879 net.cpp:157] Top shape: 16 160 14 14 (501760)
I0616 20:11:26.913516 42879 net.cpp:165] Memory required for data: 816550552
I0616 20:11:26.913548 42879 layer_factory.hpp:77] Creating layer inception_4e/3x3
I0616 20:11:26.913575 42879 net.cpp:106] Creating Layer inception_4e/3x3
I0616 20:11:26.913595 42879 net.cpp:454] inception_4e/3x3 <- inception_4e/3x3_reduce
I0616 20:11:26.913619 42879 net.cpp:411] inception_4e/3x3 -> inception_4e/3x3
I0616 20:11:26.918586 42879 net.cpp:150] Setting up inception_4e/3x3
I0616 20:11:26.918628 42879 net.cpp:157] Top shape: 16 320 14 14 (1003520)
I0616 20:11:26.918648 42879 net.cpp:165] Memory required for data: 820564632
I0616 20:11:26.918679 42879 layer_factory.hpp:77] Creating layer inception_4e/relu_3x3
I0616 20:11:26.918706 42879 net.cpp:106] Creating Layer inception_4e/relu_3x3
I0616 20:11:26.918736 42879 net.cpp:454] inception_4e/relu_3x3 <- inception_4e/3x3
I0616 20:11:26.918756 42879 net.cpp:397] inception_4e/relu_3x3 -> inception_4e/3x3 (in-place)
I0616 20:11:26.918995 42879 net.cpp:150] Setting up inception_4e/relu_3x3
I0616 20:11:26.919030 42879 net.cpp:157] Top shape: 16 320 14 14 (1003520)
I0616 20:11:26.919059 42879 net.cpp:165] Memory required for data: 824578712
I0616 20:11:26.919075 42879 layer_factory.hpp:77] Creating layer inception_4e/5x5_reduce
I0616 20:11:26.919098 42879 net.cpp:106] Creating Layer inception_4e/5x5_reduce
I0616 20:11:26.919118 42879 net.cpp:454] inception_4e/5x5_reduce <- inception_4d/output_inception_4d/output_0_split_3
I0616 20:11:26.919142 42879 net.cpp:411] inception_4e/5x5_reduce -> inception_4e/5x5_reduce
I0616 20:11:26.920297 42879 net.cpp:150] Setting up inception_4e/5x5_reduce
I0616 20:11:26.920336 42879 net.cpp:157] Top shape: 16 32 14 14 (100352)
I0616 20:11:26.920356 42879 net.cpp:165] Memory required for data: 824980120
I0616 20:11:26.920377 42879 layer_factory.hpp:77] Creating layer inception_4e/relu_5x5_reduce
I0616 20:11:26.920397 42879 net.cpp:106] Creating Layer inception_4e/relu_5x5_reduce
I0616 20:11:26.920415 42879 net.cpp:454] inception_4e/relu_5x5_reduce <- inception_4e/5x5_reduce
I0616 20:11:26.920434 42879 net.cpp:397] inception_4e/relu_5x5_reduce -> inception_4e/5x5_reduce (in-place)
I0616 20:11:26.920639 42879 net.cpp:150] Setting up inception_4e/relu_5x5_reduce
I0616 20:11:26.920670 42879 net.cpp:157] Top shape: 16 32 14 14 (100352)
I0616 20:11:26.920687 42879 net.cpp:165] Memory required for data: 825381528
I0616 20:11:26.920703 42879 layer_factory.hpp:77] Creating layer inception_4e/5x5
I0616 20:11:26.920729 42879 net.cpp:106] Creating Layer inception_4e/5x5
I0616 20:11:26.920749 42879 net.cpp:454] inception_4e/5x5 <- inception_4e/5x5_reduce
I0616 20:11:26.920771 42879 net.cpp:411] inception_4e/5x5 -> inception_4e/5x5
I0616 20:11:26.922276 42879 net.cpp:150] Setting up inception_4e/5x5
I0616 20:11:26.922314 42879 net.cpp:157] Top shape: 16 128 14 14 (401408)
I0616 20:11:26.922333 42879 net.cpp:165] Memory required for data: 826987160
I0616 20:11:26.922353 42879 layer_factory.hpp:77] Creating layer inception_4e/relu_5x5
I0616 20:11:26.922374 42879 net.cpp:106] Creating Layer inception_4e/relu_5x5
I0616 20:11:26.922391 42879 net.cpp:454] inception_4e/relu_5x5 <- inception_4e/5x5
I0616 20:11:26.922412 42879 net.cpp:397] inception_4e/relu_5x5 -> inception_4e/5x5 (in-place)
I0616 20:11:26.922749 42879 net.cpp:150] Setting up inception_4e/relu_5x5
I0616 20:11:26.922785 42879 net.cpp:157] Top shape: 16 128 14 14 (401408)
I0616 20:11:26.922803 42879 net.cpp:165] Memory required for data: 828592792
I0616 20:11:26.922819 42879 layer_factory.hpp:77] Creating layer inception_4e/pool
I0616 20:11:26.922839 42879 net.cpp:106] Creating Layer inception_4e/pool
I0616 20:11:26.922857 42879 net.cpp:454] inception_4e/pool <- inception_4d/output_inception_4d/output_0_split_4
I0616 20:11:26.922881 42879 net.cpp:411] inception_4e/pool -> inception_4e/pool
I0616 20:11:26.922940 42879 net.cpp:150] Setting up inception_4e/pool
I0616 20:11:26.922971 42879 net.cpp:157] Top shape: 16 528 14 14 (1655808)
I0616 20:11:26.923001 42879 net.cpp:165] Memory required for data: 835216024
I0616 20:11:26.923029 42879 layer_factory.hpp:77] Creating layer inception_4e/pool_proj
I0616 20:11:26.923079 42879 net.cpp:106] Creating Layer inception_4e/pool_proj
I0616 20:11:26.923099 42879 net.cpp:454] inception_4e/pool_proj <- inception_4e/pool
I0616 20:11:26.923120 42879 net.cpp:411] inception_4e/pool_proj -> inception_4e/pool_proj
I0616 20:11:26.924499 42879 net.cpp:150] Setting up inception_4e/pool_proj
I0616 20:11:26.924538 42879 net.cpp:157] Top shape: 16 128 14 14 (401408)
I0616 20:11:26.924557 42879 net.cpp:165] Memory required for data: 836821656
I0616 20:11:26.924577 42879 layer_factory.hpp:77] Creating layer inception_4e/relu_pool_proj
I0616 20:11:26.924602 42879 net.cpp:106] Creating Layer inception_4e/relu_pool_proj
I0616 20:11:26.924620 42879 net.cpp:454] inception_4e/relu_pool_proj <- inception_4e/pool_proj
I0616 20:11:26.924639 42879 net.cpp:397] inception_4e/relu_pool_proj -> inception_4e/pool_proj (in-place)
I0616 20:11:26.924981 42879 net.cpp:150] Setting up inception_4e/relu_pool_proj
I0616 20:11:26.925043 42879 net.cpp:157] Top shape: 16 128 14 14 (401408)
I0616 20:11:26.925062 42879 net.cpp:165] Memory required for data: 838427288
I0616 20:11:26.925078 42879 layer_factory.hpp:77] Creating layer inception_4e/output
I0616 20:11:26.925098 42879 net.cpp:106] Creating Layer inception_4e/output
I0616 20:11:26.925117 42879 net.cpp:454] inception_4e/output <- inception_4e/1x1
I0616 20:11:26.925134 42879 net.cpp:454] inception_4e/output <- inception_4e/3x3
I0616 20:11:26.925153 42879 net.cpp:454] inception_4e/output <- inception_4e/5x5
I0616 20:11:26.925169 42879 net.cpp:454] inception_4e/output <- inception_4e/pool_proj
I0616 20:11:26.925187 42879 net.cpp:411] inception_4e/output -> inception_4e/output
I0616 20:11:26.925232 42879 net.cpp:150] Setting up inception_4e/output
I0616 20:11:26.925258 42879 net.cpp:157] Top shape: 16 832 14 14 (2609152)
I0616 20:11:26.925274 42879 net.cpp:165] Memory required for data: 848863896
I0616 20:11:26.925290 42879 layer_factory.hpp:77] Creating layer pool4/3x3_s2
I0616 20:11:26.925309 42879 net.cpp:106] Creating Layer pool4/3x3_s2
I0616 20:11:26.925326 42879 net.cpp:454] pool4/3x3_s2 <- inception_4e/output
I0616 20:11:26.925348 42879 net.cpp:411] pool4/3x3_s2 -> pool4/3x3_s2
I0616 20:11:26.925400 42879 net.cpp:150] Setting up pool4/3x3_s2
I0616 20:11:26.925426 42879 net.cpp:157] Top shape: 16 832 7 7 (652288)
I0616 20:11:26.925442 42879 net.cpp:165] Memory required for data: 851473048
I0616 20:11:26.925458 42879 layer_factory.hpp:77] Creating layer pool4/3x3_s2_pool4/3x3_s2_0_split
I0616 20:11:26.925477 42879 net.cpp:106] Creating Layer pool4/3x3_s2_pool4/3x3_s2_0_split
I0616 20:11:26.925494 42879 net.cpp:454] pool4/3x3_s2_pool4/3x3_s2_0_split <- pool4/3x3_s2
I0616 20:11:26.925516 42879 net.cpp:411] pool4/3x3_s2_pool4/3x3_s2_0_split -> pool4/3x3_s2_pool4/3x3_s2_0_split_0
I0616 20:11:26.925539 42879 net.cpp:411] pool4/3x3_s2_pool4/3x3_s2_0_split -> pool4/3x3_s2_pool4/3x3_s2_0_split_1
I0616 20:11:26.925559 42879 net.cpp:411] pool4/3x3_s2_pool4/3x3_s2_0_split -> pool4/3x3_s2_pool4/3x3_s2_0_split_2
I0616 20:11:26.925595 42879 net.cpp:411] pool4/3x3_s2_pool4/3x3_s2_0_split -> pool4/3x3_s2_pool4/3x3_s2_0_split_3
I0616 20:11:26.925664 42879 net.cpp:150] Setting up pool4/3x3_s2_pool4/3x3_s2_0_split
I0616 20:11:26.925689 42879 net.cpp:157] Top shape: 16 832 7 7 (652288)
I0616 20:11:26.925706 42879 net.cpp:157] Top shape: 16 832 7 7 (652288)
I0616 20:11:26.925725 42879 net.cpp:157] Top shape: 16 832 7 7 (652288)
I0616 20:11:26.925743 42879 net.cpp:157] Top shape: 16 832 7 7 (652288)
I0616 20:11:26.925758 42879 net.cpp:165] Memory required for data: 861909656
I0616 20:11:26.925773 42879 layer_factory.hpp:77] Creating layer inception_5a/1x1
I0616 20:11:26.925796 42879 net.cpp:106] Creating Layer inception_5a/1x1
I0616 20:11:26.925814 42879 net.cpp:454] inception_5a/1x1 <- pool4/3x3_s2_pool4/3x3_s2_0_split_0
I0616 20:11:26.925835 42879 net.cpp:411] inception_5a/1x1 -> inception_5a/1x1
I0616 20:11:26.928371 42879 net.cpp:150] Setting up inception_5a/1x1
I0616 20:11:26.928421 42879 net.cpp:157] Top shape: 16 256 7 7 (200704)
I0616 20:11:26.928454 42879 net.cpp:165] Memory required for data: 862712472
I0616 20:11:26.928475 42879 layer_factory.hpp:77] Creating layer inception_5a/relu_1x1
I0616 20:11:26.928499 42879 net.cpp:106] Creating Layer inception_5a/relu_1x1
I0616 20:11:26.928519 42879 net.cpp:454] inception_5a/relu_1x1 <- inception_5a/1x1
I0616 20:11:26.928537 42879 net.cpp:397] inception_5a/relu_1x1 -> inception_5a/1x1 (in-place)
I0616 20:11:26.928745 42879 net.cpp:150] Setting up inception_5a/relu_1x1
I0616 20:11:26.928777 42879 net.cpp:157] Top shape: 16 256 7 7 (200704)
I0616 20:11:26.928794 42879 net.cpp:165] Memory required for data: 863515288
I0616 20:11:26.928810 42879 layer_factory.hpp:77] Creating layer inception_5a/3x3_reduce
I0616 20:11:26.928834 42879 net.cpp:106] Creating Layer inception_5a/3x3_reduce
I0616 20:11:26.928853 42879 net.cpp:454] inception_5a/3x3_reduce <- pool4/3x3_s2_pool4/3x3_s2_0_split_1
I0616 20:11:26.928876 42879 net.cpp:411] inception_5a/3x3_reduce -> inception_5a/3x3_reduce
I0616 20:11:26.931053 42879 net.cpp:150] Setting up inception_5a/3x3_reduce
I0616 20:11:26.931095 42879 net.cpp:157] Top shape: 16 160 7 7 (125440)
I0616 20:11:26.931115 42879 net.cpp:165] Memory required for data: 864017048
I0616 20:11:26.931135 42879 layer_factory.hpp:77] Creating layer inception_5a/relu_3x3_reduce
I0616 20:11:26.931156 42879 net.cpp:106] Creating Layer inception_5a/relu_3x3_reduce
I0616 20:11:26.931175 42879 net.cpp:454] inception_5a/relu_3x3_reduce <- inception_5a/3x3_reduce
I0616 20:11:26.931193 42879 net.cpp:397] inception_5a/relu_3x3_reduce -> inception_5a/3x3_reduce (in-place)
I0616 20:11:26.931535 42879 net.cpp:150] Setting up inception_5a/relu_3x3_reduce
I0616 20:11:26.931571 42879 net.cpp:157] Top shape: 16 160 7 7 (125440)
I0616 20:11:26.931589 42879 net.cpp:165] Memory required for data: 864518808
I0616 20:11:26.931607 42879 layer_factory.hpp:77] Creating layer inception_5a/3x3
I0616 20:11:26.931633 42879 net.cpp:106] Creating Layer inception_5a/3x3
I0616 20:11:26.931654 42879 net.cpp:454] inception_5a/3x3 <- inception_5a/3x3_reduce
I0616 20:11:26.931677 42879 net.cpp:411] inception_5a/3x3 -> inception_5a/3x3
I0616 20:11:26.936879 42879 net.cpp:150] Setting up inception_5a/3x3
I0616 20:11:26.936923 42879 net.cpp:157] Top shape: 16 320 7 7 (250880)
I0616 20:11:26.936942 42879 net.cpp:165] Memory required for data: 865522328
I0616 20:11:26.936966 42879 layer_factory.hpp:77] Creating layer inception_5a/relu_3x3
I0616 20:11:26.937000 42879 net.cpp:106] Creating Layer inception_5a/relu_3x3
I0616 20:11:26.937031 42879 net.cpp:454] inception_5a/relu_3x3 <- inception_5a/3x3
I0616 20:11:26.937049 42879 net.cpp:397] inception_5a/relu_3x3 -> inception_5a/3x3 (in-place)
I0616 20:11:26.937265 42879 net.cpp:150] Setting up inception_5a/relu_3x3
I0616 20:11:26.937299 42879 net.cpp:157] Top shape: 16 320 7 7 (250880)
I0616 20:11:26.937316 42879 net.cpp:165] Memory required for data: 866525848
I0616 20:11:26.937332 42879 layer_factory.hpp:77] Creating layer inception_5a/5x5_reduce
I0616 20:11:26.937357 42879 net.cpp:106] Creating Layer inception_5a/5x5_reduce
I0616 20:11:26.937377 42879 net.cpp:454] inception_5a/5x5_reduce <- pool4/3x3_s2_pool4/3x3_s2_0_split_2
I0616 20:11:26.937402 42879 net.cpp:411] inception_5a/5x5_reduce -> inception_5a/5x5_reduce
I0616 20:11:26.938678 42879 net.cpp:150] Setting up inception_5a/5x5_reduce
I0616 20:11:26.938719 42879 net.cpp:157] Top shape: 16 32 7 7 (25088)
I0616 20:11:26.938738 42879 net.cpp:165] Memory required for data: 866626200
I0616 20:11:26.938758 42879 layer_factory.hpp:77] Creating layer inception_5a/relu_5x5_reduce
I0616 20:11:26.938781 42879 net.cpp:106] Creating Layer inception_5a/relu_5x5_reduce
I0616 20:11:26.938798 42879 net.cpp:454] inception_5a/relu_5x5_reduce <- inception_5a/5x5_reduce
I0616 20:11:26.938817 42879 net.cpp:397] inception_5a/relu_5x5_reduce -> inception_5a/5x5_reduce (in-place)
I0616 20:11:26.939071 42879 net.cpp:150] Setting up inception_5a/relu_5x5_reduce
I0616 20:11:26.939103 42879 net.cpp:157] Top shape: 16 32 7 7 (25088)
I0616 20:11:26.939133 42879 net.cpp:165] Memory required for data: 866726552
I0616 20:11:26.939164 42879 layer_factory.hpp:77] Creating layer inception_5a/5x5
I0616 20:11:26.939189 42879 net.cpp:106] Creating Layer inception_5a/5x5
I0616 20:11:26.939209 42879 net.cpp:454] inception_5a/5x5 <- inception_5a/5x5_reduce
I0616 20:11:26.939232 42879 net.cpp:411] inception_5a/5x5 -> inception_5a/5x5
I0616 20:11:26.940733 42879 net.cpp:150] Setting up inception_5a/5x5
I0616 20:11:26.940773 42879 net.cpp:157] Top shape: 16 128 7 7 (100352)
I0616 20:11:26.940791 42879 net.cpp:165] Memory required for data: 867127960
I0616 20:11:26.940811 42879 layer_factory.hpp:77] Creating layer inception_5a/relu_5x5
I0616 20:11:26.940835 42879 net.cpp:106] Creating Layer inception_5a/relu_5x5
I0616 20:11:26.940855 42879 net.cpp:454] inception_5a/relu_5x5 <- inception_5a/5x5
I0616 20:11:26.940874 42879 net.cpp:397] inception_5a/relu_5x5 -> inception_5a/5x5 (in-place)
I0616 20:11:26.941251 42879 net.cpp:150] Setting up inception_5a/relu_5x5
I0616 20:11:26.941287 42879 net.cpp:157] Top shape: 16 128 7 7 (100352)
I0616 20:11:26.941305 42879 net.cpp:165] Memory required for data: 867529368
I0616 20:11:26.941323 42879 layer_factory.hpp:77] Creating layer inception_5a/pool
I0616 20:11:26.941344 42879 net.cpp:106] Creating Layer inception_5a/pool
I0616 20:11:26.941364 42879 net.cpp:454] inception_5a/pool <- pool4/3x3_s2_pool4/3x3_s2_0_split_3
I0616 20:11:26.941382 42879 net.cpp:411] inception_5a/pool -> inception_5a/pool
I0616 20:11:26.941442 42879 net.cpp:150] Setting up inception_5a/pool
I0616 20:11:26.941468 42879 net.cpp:157] Top shape: 16 832 7 7 (652288)
I0616 20:11:26.941484 42879 net.cpp:165] Memory required for data: 870138520
I0616 20:11:26.941500 42879 layer_factory.hpp:77] Creating layer inception_5a/pool_proj
I0616 20:11:26.941524 42879 net.cpp:106] Creating Layer inception_5a/pool_proj
I0616 20:11:26.941543 42879 net.cpp:454] inception_5a/pool_proj <- inception_5a/pool
I0616 20:11:26.941563 42879 net.cpp:411] inception_5a/pool_proj -> inception_5a/pool_proj
I0616 20:11:26.943658 42879 net.cpp:150] Setting up inception_5a/pool_proj
I0616 20:11:26.943698 42879 net.cpp:157] Top shape: 16 128 7 7 (100352)
I0616 20:11:26.943717 42879 net.cpp:165] Memory required for data: 870539928
I0616 20:11:26.943737 42879 layer_factory.hpp:77] Creating layer inception_5a/relu_pool_proj
I0616 20:11:26.943760 42879 net.cpp:106] Creating Layer inception_5a/relu_pool_proj
I0616 20:11:26.943779 42879 net.cpp:454] inception_5a/relu_pool_proj <- inception_5a/pool_proj
I0616 20:11:26.943797 42879 net.cpp:397] inception_5a/relu_pool_proj -> inception_5a/pool_proj (in-place)
I0616 20:11:26.944041 42879 net.cpp:150] Setting up inception_5a/relu_pool_proj
I0616 20:11:26.944074 42879 net.cpp:157] Top shape: 16 128 7 7 (100352)
I0616 20:11:26.944092 42879 net.cpp:165] Memory required for data: 870941336
I0616 20:11:26.944108 42879 layer_factory.hpp:77] Creating layer inception_5a/output
I0616 20:11:26.944126 42879 net.cpp:106] Creating Layer inception_5a/output
I0616 20:11:26.944144 42879 net.cpp:454] inception_5a/output <- inception_5a/1x1
I0616 20:11:26.944162 42879 net.cpp:454] inception_5a/output <- inception_5a/3x3
I0616 20:11:26.944180 42879 net.cpp:454] inception_5a/output <- inception_5a/5x5
I0616 20:11:26.944197 42879 net.cpp:454] inception_5a/output <- inception_5a/pool_proj
I0616 20:11:26.944217 42879 net.cpp:411] inception_5a/output -> inception_5a/output
I0616 20:11:26.944262 42879 net.cpp:150] Setting up inception_5a/output
I0616 20:11:26.944286 42879 net.cpp:157] Top shape: 16 832 7 7 (652288)
I0616 20:11:26.944303 42879 net.cpp:165] Memory required for data: 873550488
I0616 20:11:26.944319 42879 layer_factory.hpp:77] Creating layer inception_5a/output_inception_5a/output_0_split
I0616 20:11:26.944340 42879 net.cpp:106] Creating Layer inception_5a/output_inception_5a/output_0_split
I0616 20:11:26.944360 42879 net.cpp:454] inception_5a/output_inception_5a/output_0_split <- inception_5a/output
I0616 20:11:26.944378 42879 net.cpp:411] inception_5a/output_inception_5a/output_0_split -> inception_5a/output_inception_5a/output_0_split_0
I0616 20:11:26.944425 42879 net.cpp:411] inception_5a/output_inception_5a/output_0_split -> inception_5a/output_inception_5a/output_0_split_1
I0616 20:11:26.944449 42879 net.cpp:411] inception_5a/output_inception_5a/output_0_split -> inception_5a/output_inception_5a/output_0_split_2
I0616 20:11:26.944473 42879 net.cpp:411] inception_5a/output_inception_5a/output_0_split -> inception_5a/output_inception_5a/output_0_split_3
I0616 20:11:26.944545 42879 net.cpp:150] Setting up inception_5a/output_inception_5a/output_0_split
I0616 20:11:26.944571 42879 net.cpp:157] Top shape: 16 832 7 7 (652288)
I0616 20:11:26.944587 42879 net.cpp:157] Top shape: 16 832 7 7 (652288)
I0616 20:11:26.944603 42879 net.cpp:157] Top shape: 16 832 7 7 (652288)
I0616 20:11:26.944620 42879 net.cpp:157] Top shape: 16 832 7 7 (652288)
I0616 20:11:26.944635 42879 net.cpp:165] Memory required for data: 883987096
I0616 20:11:26.944651 42879 layer_factory.hpp:77] Creating layer inception_5b/1x1
I0616 20:11:26.944674 42879 net.cpp:106] Creating Layer inception_5b/1x1
I0616 20:11:26.944694 42879 net.cpp:454] inception_5b/1x1 <- inception_5a/output_inception_5a/output_0_split_0
I0616 20:11:26.944716 42879 net.cpp:411] inception_5b/1x1 -> inception_5b/1x1
I0616 20:11:26.948204 42879 net.cpp:150] Setting up inception_5b/1x1
I0616 20:11:26.948245 42879 net.cpp:157] Top shape: 16 384 7 7 (301056)
I0616 20:11:26.948264 42879 net.cpp:165] Memory required for data: 885191320
I0616 20:11:26.948284 42879 layer_factory.hpp:77] Creating layer inception_5b/relu_1x1
I0616 20:11:26.948307 42879 net.cpp:106] Creating Layer inception_5b/relu_1x1
I0616 20:11:26.948325 42879 net.cpp:454] inception_5b/relu_1x1 <- inception_5b/1x1
I0616 20:11:26.948343 42879 net.cpp:397] inception_5b/relu_1x1 -> inception_5b/1x1 (in-place)
I0616 20:11:26.948556 42879 net.cpp:150] Setting up inception_5b/relu_1x1
I0616 20:11:26.948611 42879 net.cpp:157] Top shape: 16 384 7 7 (301056)
I0616 20:11:26.948640 42879 net.cpp:165] Memory required for data: 886395544
I0616 20:11:26.948669 42879 layer_factory.hpp:77] Creating layer inception_5b/3x3_reduce
I0616 20:11:26.948716 42879 net.cpp:106] Creating Layer inception_5b/3x3_reduce
I0616 20:11:26.948745 42879 net.cpp:454] inception_5b/3x3_reduce <- inception_5a/output_inception_5a/output_0_split_1
I0616 20:11:26.948766 42879 net.cpp:411] inception_5b/3x3_reduce -> inception_5b/3x3_reduce
I0616 20:11:26.951589 42879 net.cpp:150] Setting up inception_5b/3x3_reduce
I0616 20:11:26.951633 42879 net.cpp:157] Top shape: 16 192 7 7 (150528)
I0616 20:11:26.951654 42879 net.cpp:165] Memory required for data: 886997656
I0616 20:11:26.951675 42879 layer_factory.hpp:77] Creating layer inception_5b/relu_3x3_reduce
I0616 20:11:26.951697 42879 net.cpp:106] Creating Layer inception_5b/relu_3x3_reduce
I0616 20:11:26.951717 42879 net.cpp:454] inception_5b/relu_3x3_reduce <- inception_5b/3x3_reduce
I0616 20:11:26.951736 42879 net.cpp:397] inception_5b/relu_3x3_reduce -> inception_5b/3x3_reduce (in-place)
I0616 20:11:26.952220 42879 net.cpp:150] Setting up inception_5b/relu_3x3_reduce
I0616 20:11:26.952260 42879 net.cpp:157] Top shape: 16 192 7 7 (150528)
I0616 20:11:26.952278 42879 net.cpp:165] Memory required for data: 887599768
I0616 20:11:26.952296 42879 layer_factory.hpp:77] Creating layer inception_5b/3x3
I0616 20:11:26.952323 42879 net.cpp:106] Creating Layer inception_5b/3x3
I0616 20:11:26.952345 42879 net.cpp:454] inception_5b/3x3 <- inception_5b/3x3_reduce
I0616 20:11:26.952366 42879 net.cpp:411] inception_5b/3x3 -> inception_5b/3x3
I0616 20:11:26.957891 42879 net.cpp:150] Setting up inception_5b/3x3
I0616 20:11:26.957933 42879 net.cpp:157] Top shape: 16 384 7 7 (301056)
I0616 20:11:26.957953 42879 net.cpp:165] Memory required for data: 888803992
I0616 20:11:26.957978 42879 layer_factory.hpp:77] Creating layer inception_5b/relu_3x3
I0616 20:11:26.958030 42879 net.cpp:106] Creating Layer inception_5b/relu_3x3
I0616 20:11:26.958083 42879 net.cpp:454] inception_5b/relu_3x3 <- inception_5b/3x3
I0616 20:11:26.958113 42879 net.cpp:397] inception_5b/relu_3x3 -> inception_5b/3x3 (in-place)
I0616 20:11:26.958345 42879 net.cpp:150] Setting up inception_5b/relu_3x3
I0616 20:11:26.958379 42879 net.cpp:157] Top shape: 16 384 7 7 (301056)
I0616 20:11:26.958395 42879 net.cpp:165] Memory required for data: 890008216
I0616 20:11:26.958412 42879 layer_factory.hpp:77] Creating layer inception_5b/5x5_reduce
I0616 20:11:26.958437 42879 net.cpp:106] Creating Layer inception_5b/5x5_reduce
I0616 20:11:26.958458 42879 net.cpp:454] inception_5b/5x5_reduce <- inception_5a/output_inception_5a/output_0_split_2
I0616 20:11:26.958482 42879 net.cpp:411] inception_5b/5x5_reduce -> inception_5b/5x5_reduce
I0616 20:11:26.959817 42879 net.cpp:150] Setting up inception_5b/5x5_reduce
I0616 20:11:26.959857 42879 net.cpp:157] Top shape: 16 48 7 7 (37632)
I0616 20:11:26.959877 42879 net.cpp:165] Memory required for data: 890158744
I0616 20:11:26.959895 42879 layer_factory.hpp:77] Creating layer inception_5b/relu_5x5_reduce
I0616 20:11:26.959916 42879 net.cpp:106] Creating Layer inception_5b/relu_5x5_reduce
I0616 20:11:26.959935 42879 net.cpp:454] inception_5b/relu_5x5_reduce <- inception_5b/5x5_reduce
I0616 20:11:26.959956 42879 net.cpp:397] inception_5b/relu_5x5_reduce -> inception_5b/5x5_reduce (in-place)
I0616 20:11:26.960217 42879 net.cpp:150] Setting up inception_5b/relu_5x5_reduce
I0616 20:11:26.960253 42879 net.cpp:157] Top shape: 16 48 7 7 (37632)
I0616 20:11:26.960269 42879 net.cpp:165] Memory required for data: 890309272
I0616 20:11:26.960286 42879 layer_factory.hpp:77] Creating layer inception_5b/5x5
I0616 20:11:26.960309 42879 net.cpp:106] Creating Layer inception_5b/5x5
I0616 20:11:26.960327 42879 net.cpp:454] inception_5b/5x5 <- inception_5b/5x5_reduce
I0616 20:11:26.960350 42879 net.cpp:411] inception_5b/5x5 -> inception_5b/5x5
I0616 20:11:26.962395 42879 net.cpp:150] Setting up inception_5b/5x5
I0616 20:11:26.962448 42879 net.cpp:157] Top shape: 16 128 7 7 (100352)
I0616 20:11:26.962467 42879 net.cpp:165] Memory required for data: 890710680
I0616 20:11:26.962499 42879 layer_factory.hpp:77] Creating layer inception_5b/relu_5x5
I0616 20:11:26.962522 42879 net.cpp:106] Creating Layer inception_5b/relu_5x5
I0616 20:11:26.962551 42879 net.cpp:454] inception_5b/relu_5x5 <- inception_5b/5x5
I0616 20:11:26.962571 42879 net.cpp:397] inception_5b/relu_5x5 -> inception_5b/5x5 (in-place)
I0616 20:11:26.963100 42879 net.cpp:150] Setting up inception_5b/relu_5x5
I0616 20:11:26.963162 42879 net.cpp:157] Top shape: 16 128 7 7 (100352)
I0616 20:11:26.963192 42879 net.cpp:165] Memory required for data: 891112088
I0616 20:11:26.963238 42879 layer_factory.hpp:77] Creating layer inception_5b/pool
I0616 20:11:26.963273 42879 net.cpp:106] Creating Layer inception_5b/pool
I0616 20:11:26.963291 42879 net.cpp:454] inception_5b/pool <- inception_5a/output_inception_5a/output_0_split_3
I0616 20:11:26.963311 42879 net.cpp:411] inception_5b/pool -> inception_5b/pool
I0616 20:11:26.963373 42879 net.cpp:150] Setting up inception_5b/pool
I0616 20:11:26.963402 42879 net.cpp:157] Top shape: 16 832 7 7 (652288)
I0616 20:11:26.963418 42879 net.cpp:165] Memory required for data: 893721240
I0616 20:11:26.963434 42879 layer_factory.hpp:77] Creating layer inception_5b/pool_proj
I0616 20:11:26.963461 42879 net.cpp:106] Creating Layer inception_5b/pool_proj
I0616 20:11:26.963482 42879 net.cpp:454] inception_5b/pool_proj <- inception_5b/pool
I0616 20:11:26.963505 42879 net.cpp:411] inception_5b/pool_proj -> inception_5b/pool_proj
I0616 20:11:26.965966 42879 net.cpp:150] Setting up inception_5b/pool_proj
I0616 20:11:26.966074 42879 net.cpp:157] Top shape: 16 128 7 7 (100352)
I0616 20:11:26.966105 42879 net.cpp:165] Memory required for data: 894122648
I0616 20:11:26.966125 42879 layer_factory.hpp:77] Creating layer inception_5b/relu_pool_proj
I0616 20:11:26.966171 42879 net.cpp:106] Creating Layer inception_5b/relu_pool_proj
I0616 20:11:26.966192 42879 net.cpp:454] inception_5b/relu_pool_proj <- inception_5b/pool_proj
I0616 20:11:26.966212 42879 net.cpp:397] inception_5b/relu_pool_proj -> inception_5b/pool_proj (in-place)
I0616 20:11:26.966511 42879 net.cpp:150] Setting up inception_5b/relu_pool_proj
I0616 20:11:26.966548 42879 net.cpp:157] Top shape: 16 128 7 7 (100352)
I0616 20:11:26.966568 42879 net.cpp:165] Memory required for data: 894524056
I0616 20:11:26.966585 42879 layer_factory.hpp:77] Creating layer inception_5b/output
I0616 20:11:26.966606 42879 net.cpp:106] Creating Layer inception_5b/output
I0616 20:11:26.966624 42879 net.cpp:454] inception_5b/output <- inception_5b/1x1
I0616 20:11:26.966644 42879 net.cpp:454] inception_5b/output <- inception_5b/3x3
I0616 20:11:26.966662 42879 net.cpp:454] inception_5b/output <- inception_5b/5x5
I0616 20:11:26.966681 42879 net.cpp:454] inception_5b/output <- inception_5b/pool_proj
I0616 20:11:26.966699 42879 net.cpp:411] inception_5b/output -> inception_5b/output
I0616 20:11:26.966749 42879 net.cpp:150] Setting up inception_5b/output
I0616 20:11:26.966776 42879 net.cpp:157] Top shape: 16 1024 7 7 (802816)
I0616 20:11:26.966794 42879 net.cpp:165] Memory required for data: 897735320
I0616 20:11:26.966810 42879 layer_factory.hpp:77] Creating layer pool5/7x7_s1
I0616 20:11:26.966833 42879 net.cpp:106] Creating Layer pool5/7x7_s1
I0616 20:11:26.966853 42879 net.cpp:454] pool5/7x7_s1 <- inception_5b/output
I0616 20:11:26.966873 42879 net.cpp:411] pool5/7x7_s1 -> pool5/7x7_s1
I0616 20:11:26.967315 42879 net.cpp:150] Setting up pool5/7x7_s1
I0616 20:11:26.967356 42879 net.cpp:157] Top shape: 16 1024 1 1 (16384)
I0616 20:11:26.967376 42879 net.cpp:165] Memory required for data: 897800856
I0616 20:11:26.967393 42879 layer_factory.hpp:77] Creating layer pool5/drop_7x7_s1
I0616 20:11:26.967414 42879 net.cpp:106] Creating Layer pool5/drop_7x7_s1
I0616 20:11:26.967434 42879 net.cpp:454] pool5/drop_7x7_s1 <- pool5/7x7_s1
I0616 20:11:26.967454 42879 net.cpp:397] pool5/drop_7x7_s1 -> pool5/7x7_s1 (in-place)
I0616 20:11:26.967500 42879 net.cpp:150] Setting up pool5/drop_7x7_s1
I0616 20:11:26.967527 42879 net.cpp:157] Top shape: 16 1024 1 1 (16384)
I0616 20:11:26.967543 42879 net.cpp:165] Memory required for data: 897866392
I0616 20:11:26.967561 42879 layer_factory.hpp:77] Creating layer loss3/classifier_resized
I0616 20:11:26.967584 42879 net.cpp:106] Creating Layer loss3/classifier_resized
I0616 20:11:26.967603 42879 net.cpp:454] loss3/classifier_resized <- pool5/7x7_s1
I0616 20:11:26.967623 42879 net.cpp:411] loss3/classifier_resized -> loss3/classifier_resized
I0616 20:11:26.969317 42879 net.cpp:150] Setting up loss3/classifier_resized
I0616 20:11:26.969355 42879 net.cpp:157] Top shape: 16 216 (3456)
I0616 20:11:26.969374 42879 net.cpp:165] Memory required for data: 897880216
I0616 20:11:26.969394 42879 layer_factory.hpp:77] Creating layer loss3/classifier_resized_loss3/classifier_resized_0_split
I0616 20:11:26.969415 42879 net.cpp:106] Creating Layer loss3/classifier_resized_loss3/classifier_resized_0_split
I0616 20:11:26.969434 42879 net.cpp:454] loss3/classifier_resized_loss3/classifier_resized_0_split <- loss3/classifier_resized
I0616 20:11:26.969455 42879 net.cpp:411] loss3/classifier_resized_loss3/classifier_resized_0_split -> loss3/classifier_resized_loss3/classifier_resized_0_split_0
I0616 20:11:26.969478 42879 net.cpp:411] loss3/classifier_resized_loss3/classifier_resized_0_split -> loss3/classifier_resized_loss3/classifier_resized_0_split_1
I0616 20:11:26.969501 42879 net.cpp:411] loss3/classifier_resized_loss3/classifier_resized_0_split -> loss3/classifier_resized_loss3/classifier_resized_0_split_2
I0616 20:11:26.969569 42879 net.cpp:150] Setting up loss3/classifier_resized_loss3/classifier_resized_0_split
I0616 20:11:26.969597 42879 net.cpp:157] Top shape: 16 216 (3456)
I0616 20:11:26.969616 42879 net.cpp:157] Top shape: 16 216 (3456)
I0616 20:11:26.969633 42879 net.cpp:157] Top shape: 16 216 (3456)
I0616 20:11:26.969650 42879 net.cpp:165] Memory required for data: 897921688
I0616 20:11:26.969666 42879 layer_factory.hpp:77] Creating layer loss3/loss3
I0616 20:11:26.969686 42879 net.cpp:106] Creating Layer loss3/loss3
I0616 20:11:26.969715 42879 net.cpp:454] loss3/loss3 <- loss3/classifier_resized_loss3/classifier_resized_0_split_0
I0616 20:11:26.969749 42879 net.cpp:454] loss3/loss3 <- label_data_1_split_6
…
