…
I0506 16:30:47.921929  3124 caffe.cpp:241] GPU device name: GeForce GTX 980
I0506 16:30:48.068629  3124 net.cpp:49] Initializing net from parameters: 
name: "foodCAT_VGG_ILSVRC_19_layer"
state {
  phase: TEST
}
layer {
  name: "data"
  type: "ImageData"
  top: "data"
  top: "label"
  include {
    phase: TEST
  }
  transform_param {
    mirror: false
    crop_size: 224
    mean_value: 104
    mean_value: 117
    mean_value: 123
  }
  image_data_param {
    source: "foodCAT/test_just_foodCAT.txt"
    batch_size: 16
    shuffle: true
    new_height: 256
    new_width: 256
  }
}
layer {
  name: "conv1_1"
  type: "Convolution"
  bottom: "data"
  top: "conv1_1"
  convolution_param {
    num_output: 64
    pad: 1
    kernel_size: 3
  }
}
layer {
  name: "ReLU1_1"
  type: "ReLU"
  bottom: "conv1_1"
  top: "conv1_1"
}
layer {
  name: "conv1_2"
  type: "Convolution"
  bottom: "conv1_1"
  top: "conv1_2"
  convolution_param {
    num_output: 64
    pad: 1
    kernel_size: 3
  }
}
layer {
  name: "ReLU1_2"
  type: "ReLU"
  bottom: "conv1_2"
  top: "conv1_2"
}
layer {
  name: "pool1"
  type: "Pooling"
  bottom: "conv1_2"
  top: "pool1"
  pooling_param {
    pool: MAX
    kernel_size: 2
    stride: 2
  }
}
layer {
  name: "conv2_1"
  type: "Convolution"
  bottom: "pool1"
  top: "conv2_1"
  convolution_param {
    num_output: 128
    pad: 1
    kernel_size: 3
  }
}
layer {
  name: "ReLU2_1"
  type: "ReLU"
  bottom: "conv2_1"
  top: "conv2_1"
}
layer {
  name: "conv2_2"
  type: "Convolution"
  bottom: "conv2_1"
  top: "conv2_2"
  convolution_param {
    num_output: 128
    pad: 1
    kernel_size: 3
  }
}
layer {
  name: "ReLU2_2"
  type: "ReLU"
  bottom: "conv2_2"
  top: "conv2_2"
}
layer {
  name: "pool2"
  type: "Pooling"
  bottom: "conv2_2"
  top: "pool2"
  pooling_param {
    pool: MAX
    kernel_size: 2
    stride: 2
  }
}
layer {
  name: "conv3_1"
  type: "Convolution"
  bottom: "pool2"
  top: "conv3_1"
  convolution_param {
    num_output: 256
    pad: 1
    kernel_size: 3
  }
}
layer {
  name: "ReLU3_1"
  type: "ReLU"
  bottom: "conv3_1"
  top: "conv3_1"
}
layer {
  name: "conv3_2"
  type: "Convolution"
  bottom: "conv3_1"
  top: "conv3_2"
  convolution_param {
    num_output: 256
    pad: 1
    kernel_size: 3
  }
}
layer {
  name: "ReLU3_2"
  type: "ReLU"
  bottom: "conv3_2"
  top: "conv3_2"
}
layer {
  name: "conv3_3"
  type: "Convolution"
  bottom: "conv3_2"
  top: "conv3_3"
  convolution_param {
    num_output: 256
    pad: 1
    kernel_size: 3
  }
}
layer {
  name: "ReLU3_3"
  type: "ReLU"
  bottom: "conv3_3"
  top: "conv3_3"
}
layer {
  name: "conv3_4"
  type: "Convolution"
  bottom: "conv3_3"
  top: "conv3_4"
  convolution_param {
    num_output: 256
    pad: 1
    kernel_size: 3
  }
}
layer {
  name: "ReLU3_4"
  type: "ReLU"
  bottom: "conv3_4"
  top: "conv3_4"
}
layer {
  name: "pool3"
  type: "Pooling"
  bottom: "conv3_4"
  top: "pool3"
  pooling_param {
    pool: MAX
    kernel_size: 2
    stride: 2
  }
}
layer {
  name: "conv4_1"
  type: "Convolution"
  bottom: "pool3"
  top: "conv4_1"
  convolution_param {
    num_output: 512
    pad: 1
    kernel_size: 3
  }
}
layer {
  name: "ReLU4_1"
  type: "ReLU"
  bottom: "conv4_1"
  top: "conv4_1"
}
layer {
  name: "conv4_2"
  type: "Convolution"
  bottom: "conv4_1"
  top: "conv4_2"
  convolution_param {
    num_output: 512
    pad: 1
    kernel_size: 3
  }
}
layer {
  name: "ReLU4_2"
  type: "ReLU"
  bottom: "conv4_2"
  top: "conv4_2"
}
layer {
  name: "conv4_3"
  type: "Convolution"
  bottom: "conv4_2"
  top: "conv4_3"
  convolution_param {
    num_output: 512
    pad: 1
    kernel_size: 3
  }
}
layer {
  name: "ReLU4_3"
  type: "ReLU"
  bottom: "conv4_3"
  top: "conv4_3"
}
layer {
  name: "conv4_4"
  type: "Convolution"
  bottom: "conv4_3"
  top: "conv4_4"
  convolution_param {
    num_output: 512
    pad: 1
    kernel_size: 3
  }
}
layer {
  name: "ReLU4_4"
  type: "ReLU"
  bottom: "conv4_4"
  top: "conv4_4"
}
layer {
  name: "pool4"
  type: "Pooling"
  bottom: "conv4_4"
  top: "pool4"
  pooling_param {
    pool: MAX
    kernel_size: 2
    stride: 2
  }
}
layer {
  name: "conv5_1"
  type: "Convolution"
  bottom: "pool4"
  top: "conv5_1"
  convolution_param {
    num_output: 512
    pad: 1
    kernel_size: 3
  }
}
layer {
  name: "ReLU5_1"
  type: "ReLU"
  bottom: "conv5_1"
  top: "conv5_1"
}
layer {
  name: "conv5_2"
  type: "Convolution"
  bottom: "conv5_1"
  top: "conv5_2"
  convolution_param {
    num_output: 512
    pad: 1
    kernel_size: 3
  }
}
layer {
  name: "ReLU5_2"
  type: "ReLU"
  bottom: "conv5_2"
  top: "conv5_2"
}
layer {
  name: "conv5_3"
  type: "Convolution"
  bottom: "conv5_2"
  top: "conv5_3"
  convolution_param {
    num_output: 512
    pad: 1
    kernel_size: 3
  }
}
layer {
  name: "ReLU5_3"
  type: "ReLU"
  bottom: "conv5_3"
  top: "conv5_3"
}
layer {
  name: "conv5_4"
  type: "Convolution"
  bottom: "conv5_3"
  top: "conv5_4"
  convolution_param {
    num_output: 512
    pad: 1
    kernel_size: 3
  }
}
layer {
  name: "ReLU5_4"
  type: "ReLU"
  bottom: "conv5_4"
  top: "conv5_4"
}
layer {
  name: "pool5"
  type: "Pooling"
  bottom: "conv5_4"
  top: "pool5"
  pooling_param {
    pool: MAX
    kernel_size: 2
    stride: 2
  }
}
layer {
  name: "fc6"
  type: "InnerProduct"
  bottom: "pool5"
  top: "fc6"
  inner_product_param {
    num_output: 4096
  }
}
layer {
  name: "ReLU6"
  type: "ReLU"
  bottom: "fc6"
  top: "fc6"
}
layer {
  name: "drop6"
  type: "Dropout"
  bottom: "fc6"
  top: "fc6"
  dropout_param {
    dropout_ratio: 0.5
  }
}
layer {
  name: "fc7"
  type: "InnerProduct"
  bottom: "fc6"
  top: "fc7"
  inner_product_param {
    num_output: 4096
  }
}
layer {
  name: "ReLU7"
  type: "ReLU"
  bottom: "fc7"
  top: "fc7"
}
layer {
  name: "drop7"
  type: "Dropout"
  bottom: "fc7"
  top: "fc7"
  dropout_param {
    dropout_ratio: 0.5
  }
}
layer {
  name: "fc8_foodCAT"
  type: "InnerProduct"
  bottom: "fc7"
  top: "fc8_foodCAT"
  inner_product_param {
    num_output: 218
  }
}
layer {
  name: "loss"
  type: "SoftmaxWithLoss"
  bottom: "fc8_foodCAT"
  bottom: "label"
  top: "loss/loss"
}
layer {
  name: "accuracy/top1"
  type: "Accuracy"
  bottom: "fc8_foodCAT"
  bottom: "label"
  top: "accuracy@1"
  include {
    phase: TEST
  }
  accuracy_param {
    top_k: 1
  }
}
layer {
  name: "accuracy/top5"
  type: "Accuracy"
  bottom: "fc8_foodCAT"
  bottom: "label"
  top: "accuracy@5"
  include {
    phase: TEST
  }
  accuracy_param {
    top_k: 5
  }
}
I0506 16:30:48.068878  3124 layer_factory.hpp:77] Creating layer data
I0506 16:30:48.068910  3124 net.cpp:106] Creating Layer data
I0506 16:30:48.068917  3124 net.cpp:411] data -> data
I0506 16:30:48.068938  3124 net.cpp:411] data -> label
I0506 16:30:48.068964  3124 image_data_layer.cpp:38] Opening file foodCAT/test_just_foodCAT.txt
I0506 16:30:48.070525  3124 image_data_layer.cpp:48] Shuffling data
I0506 16:30:48.071066  3124 image_data_layer.cpp:53] A total of 4530 images.
I0506 16:30:48.080404  3124 image_data_layer.cpp:80] output data size: 16,3,224,224
I0506 16:30:48.092927  3124 net.cpp:150] Setting up data
I0506 16:30:48.092993  3124 net.cpp:157] Top shape: 16 3 224 224 (2408448)
I0506 16:30:48.093008  3124 net.cpp:157] Top shape: 16 (16)
I0506 16:30:48.093021  3124 net.cpp:165] Memory required for data: 9633856
I0506 16:30:48.093029  3124 layer_factory.hpp:77] Creating layer label_data_1_split
I0506 16:30:48.093046  3124 net.cpp:106] Creating Layer label_data_1_split
I0506 16:30:48.093051  3124 net.cpp:454] label_data_1_split <- label
I0506 16:30:48.093071  3124 net.cpp:411] label_data_1_split -> label_data_1_split_0
I0506 16:30:48.093080  3124 net.cpp:411] label_data_1_split -> label_data_1_split_1
I0506 16:30:48.093086  3124 net.cpp:411] label_data_1_split -> label_data_1_split_2
I0506 16:30:48.093122  3124 net.cpp:150] Setting up label_data_1_split
I0506 16:30:48.093127  3124 net.cpp:157] Top shape: 16 (16)
I0506 16:30:48.093132  3124 net.cpp:157] Top shape: 16 (16)
I0506 16:30:48.093135  3124 net.cpp:157] Top shape: 16 (16)
I0506 16:30:48.093138  3124 net.cpp:165] Memory required for data: 9634048
I0506 16:30:48.093142  3124 layer_factory.hpp:77] Creating layer conv1_1
I0506 16:30:48.093160  3124 net.cpp:106] Creating Layer conv1_1
I0506 16:30:48.093171  3124 net.cpp:454] conv1_1 <- data
I0506 16:30:48.093176  3124 net.cpp:411] conv1_1 -> conv1_1
I0506 16:30:48.209964  3124 net.cpp:150] Setting up conv1_1
I0506 16:30:48.209998  3124 net.cpp:157] Top shape: 16 64 224 224 (51380224)
I0506 16:30:48.210019  3124 net.cpp:165] Memory required for data: 215154944
I0506 16:30:48.210036  3124 layer_factory.hpp:77] Creating layer ReLU1_1
I0506 16:30:48.210052  3124 net.cpp:106] Creating Layer ReLU1_1
I0506 16:30:48.210057  3124 net.cpp:454] ReLU1_1 <- conv1_1
I0506 16:30:48.210063  3124 net.cpp:397] ReLU1_1 -> conv1_1 (in-place)
I0506 16:30:48.210188  3124 net.cpp:150] Setting up ReLU1_1
I0506 16:30:48.210196  3124 net.cpp:157] Top shape: 16 64 224 224 (51380224)
I0506 16:30:48.210199  3124 net.cpp:165] Memory required for data: 420675840
I0506 16:30:48.210202  3124 layer_factory.hpp:77] Creating layer conv1_2
I0506 16:30:48.210211  3124 net.cpp:106] Creating Layer conv1_2
I0506 16:30:48.210216  3124 net.cpp:454] conv1_2 <- conv1_1
I0506 16:30:48.210222  3124 net.cpp:411] conv1_2 -> conv1_2
I0506 16:30:48.211002  3124 net.cpp:150] Setting up conv1_2
I0506 16:30:48.211014  3124 net.cpp:157] Top shape: 16 64 224 224 (51380224)
I0506 16:30:48.211017  3124 net.cpp:165] Memory required for data: 626196736
I0506 16:30:48.211035  3124 layer_factory.hpp:77] Creating layer ReLU1_2
I0506 16:30:48.211041  3124 net.cpp:106] Creating Layer ReLU1_2
I0506 16:30:48.211045  3124 net.cpp:454] ReLU1_2 <- conv1_2
I0506 16:30:48.211050  3124 net.cpp:397] ReLU1_2 -> conv1_2 (in-place)
I0506 16:30:48.211239  3124 net.cpp:150] Setting up ReLU1_2
I0506 16:30:48.211249  3124 net.cpp:157] Top shape: 16 64 224 224 (51380224)
I0506 16:30:48.211252  3124 net.cpp:165] Memory required for data: 831717632
I0506 16:30:48.211256  3124 layer_factory.hpp:77] Creating layer pool1
I0506 16:30:48.211263  3124 net.cpp:106] Creating Layer pool1
I0506 16:30:48.211267  3124 net.cpp:454] pool1 <- conv1_2
I0506 16:30:48.211272  3124 net.cpp:411] pool1 -> pool1
I0506 16:30:48.211308  3124 net.cpp:150] Setting up pool1
I0506 16:30:48.211313  3124 net.cpp:157] Top shape: 16 64 112 112 (12845056)
I0506 16:30:48.211316  3124 net.cpp:165] Memory required for data: 883097856
I0506 16:30:48.211319  3124 layer_factory.hpp:77] Creating layer conv2_1
I0506 16:30:48.211325  3124 net.cpp:106] Creating Layer conv2_1
I0506 16:30:48.211329  3124 net.cpp:454] conv2_1 <- pool1
I0506 16:30:48.211333  3124 net.cpp:411] conv2_1 -> conv2_1
I0506 16:30:48.212476  3124 net.cpp:150] Setting up conv2_1
I0506 16:30:48.212489  3124 net.cpp:157] Top shape: 16 128 112 112 (25690112)
I0506 16:30:48.212493  3124 net.cpp:165] Memory required for data: 985858304
I0506 16:30:48.212502  3124 layer_factory.hpp:77] Creating layer ReLU2_1
I0506 16:30:48.212507  3124 net.cpp:106] Creating Layer ReLU2_1
I0506 16:30:48.212512  3124 net.cpp:454] ReLU2_1 <- conv2_1
I0506 16:30:48.212530  3124 net.cpp:397] ReLU2_1 -> conv2_1 (in-place)
I0506 16:30:48.212720  3124 net.cpp:150] Setting up ReLU2_1
I0506 16:30:48.212729  3124 net.cpp:157] Top shape: 16 128 112 112 (25690112)
I0506 16:30:48.212733  3124 net.cpp:165] Memory required for data: 1088618752
I0506 16:30:48.212736  3124 layer_factory.hpp:77] Creating layer conv2_2
I0506 16:30:48.212743  3124 net.cpp:106] Creating Layer conv2_2
I0506 16:30:48.212745  3124 net.cpp:454] conv2_2 <- conv2_1
I0506 16:30:48.212750  3124 net.cpp:411] conv2_2 -> conv2_2
I0506 16:30:48.213521  3124 net.cpp:150] Setting up conv2_2
I0506 16:30:48.213533  3124 net.cpp:157] Top shape: 16 128 112 112 (25690112)
I0506 16:30:48.213537  3124 net.cpp:165] Memory required for data: 1191379200
I0506 16:30:48.213542  3124 layer_factory.hpp:77] Creating layer ReLU2_2
I0506 16:30:48.213548  3124 net.cpp:106] Creating Layer ReLU2_2
I0506 16:30:48.213551  3124 net.cpp:454] ReLU2_2 <- conv2_2
I0506 16:30:48.213557  3124 net.cpp:397] ReLU2_2 -> conv2_2 (in-place)
I0506 16:30:48.213683  3124 net.cpp:150] Setting up ReLU2_2
I0506 16:30:48.213690  3124 net.cpp:157] Top shape: 16 128 112 112 (25690112)
I0506 16:30:48.213698  3124 net.cpp:165] Memory required for data: 1294139648
I0506 16:30:48.213707  3124 layer_factory.hpp:77] Creating layer pool2
I0506 16:30:48.213712  3124 net.cpp:106] Creating Layer pool2
I0506 16:30:48.213716  3124 net.cpp:454] pool2 <- conv2_2
I0506 16:30:48.213721  3124 net.cpp:411] pool2 -> pool2
I0506 16:30:48.213747  3124 net.cpp:150] Setting up pool2
I0506 16:30:48.213752  3124 net.cpp:157] Top shape: 16 128 56 56 (6422528)
I0506 16:30:48.213754  3124 net.cpp:165] Memory required for data: 1319829760
I0506 16:30:48.213757  3124 layer_factory.hpp:77] Creating layer conv3_1
I0506 16:30:48.213763  3124 net.cpp:106] Creating Layer conv3_1
I0506 16:30:48.213767  3124 net.cpp:454] conv3_1 <- pool2
I0506 16:30:48.213770  3124 net.cpp:411] conv3_1 -> conv3_1
I0506 16:30:48.214824  3124 net.cpp:150] Setting up conv3_1
I0506 16:30:48.214835  3124 net.cpp:157] Top shape: 16 256 56 56 (12845056)
I0506 16:30:48.214839  3124 net.cpp:165] Memory required for data: 1371209984
I0506 16:30:48.214848  3124 layer_factory.hpp:77] Creating layer ReLU3_1
I0506 16:30:48.214853  3124 net.cpp:106] Creating Layer ReLU3_1
I0506 16:30:48.214856  3124 net.cpp:454] ReLU3_1 <- conv3_1
I0506 16:30:48.214871  3124 net.cpp:397] ReLU3_1 -> conv3_1 (in-place)
I0506 16:30:48.215066  3124 net.cpp:150] Setting up ReLU3_1
I0506 16:30:48.215075  3124 net.cpp:157] Top shape: 16 256 56 56 (12845056)
I0506 16:30:48.215080  3124 net.cpp:165] Memory required for data: 1422590208
I0506 16:30:48.215082  3124 layer_factory.hpp:77] Creating layer conv3_2
I0506 16:30:48.215088  3124 net.cpp:106] Creating Layer conv3_2
I0506 16:30:48.215092  3124 net.cpp:454] conv3_2 <- conv3_1
I0506 16:30:48.215097  3124 net.cpp:411] conv3_2 -> conv3_2
I0506 16:30:48.216373  3124 net.cpp:150] Setting up conv3_2
I0506 16:30:48.216387  3124 net.cpp:157] Top shape: 16 256 56 56 (12845056)
I0506 16:30:48.216390  3124 net.cpp:165] Memory required for data: 1473970432
I0506 16:30:48.216397  3124 layer_factory.hpp:77] Creating layer ReLU3_2
I0506 16:30:48.216403  3124 net.cpp:106] Creating Layer ReLU3_2
I0506 16:30:48.216405  3124 net.cpp:454] ReLU3_2 <- conv3_2
I0506 16:30:48.216410  3124 net.cpp:397] ReLU3_2 -> conv3_2 (in-place)
I0506 16:30:48.216615  3124 net.cpp:150] Setting up ReLU3_2
I0506 16:30:48.216624  3124 net.cpp:157] Top shape: 16 256 56 56 (12845056)
I0506 16:30:48.216629  3124 net.cpp:165] Memory required for data: 1525350656
I0506 16:30:48.216631  3124 layer_factory.hpp:77] Creating layer conv3_3
I0506 16:30:48.216639  3124 net.cpp:106] Creating Layer conv3_3
I0506 16:30:48.216644  3124 net.cpp:454] conv3_3 <- conv3_2
I0506 16:30:48.216648  3124 net.cpp:411] conv3_3 -> conv3_3
I0506 16:30:48.218094  3124 net.cpp:150] Setting up conv3_3
I0506 16:30:48.218106  3124 net.cpp:157] Top shape: 16 256 56 56 (12845056)
I0506 16:30:48.218111  3124 net.cpp:165] Memory required for data: 1576730880
I0506 16:30:48.218116  3124 layer_factory.hpp:77] Creating layer ReLU3_3
I0506 16:30:48.218122  3124 net.cpp:106] Creating Layer ReLU3_3
I0506 16:30:48.218127  3124 net.cpp:454] ReLU3_3 <- conv3_3
I0506 16:30:48.218130  3124 net.cpp:397] ReLU3_3 -> conv3_3 (in-place)
I0506 16:30:48.218267  3124 net.cpp:150] Setting up ReLU3_3
I0506 16:30:48.218274  3124 net.cpp:157] Top shape: 16 256 56 56 (12845056)
I0506 16:30:48.218277  3124 net.cpp:165] Memory required for data: 1628111104
I0506 16:30:48.218281  3124 layer_factory.hpp:77] Creating layer conv3_4
I0506 16:30:48.218287  3124 net.cpp:106] Creating Layer conv3_4
I0506 16:30:48.218291  3124 net.cpp:454] conv3_4 <- conv3_3
I0506 16:30:48.218296  3124 net.cpp:411] conv3_4 -> conv3_4
I0506 16:30:48.219717  3124 net.cpp:150] Setting up conv3_4
I0506 16:30:48.219729  3124 net.cpp:157] Top shape: 16 256 56 56 (12845056)
I0506 16:30:48.219733  3124 net.cpp:165] Memory required for data: 1679491328
I0506 16:30:48.219739  3124 layer_factory.hpp:77] Creating layer ReLU3_4
I0506 16:30:48.219745  3124 net.cpp:106] Creating Layer ReLU3_4
I0506 16:30:48.219748  3124 net.cpp:454] ReLU3_4 <- conv3_4
I0506 16:30:48.219769  3124 net.cpp:397] ReLU3_4 -> conv3_4 (in-place)
I0506 16:30:48.219996  3124 net.cpp:150] Setting up ReLU3_4
I0506 16:30:48.220006  3124 net.cpp:157] Top shape: 16 256 56 56 (12845056)
I0506 16:30:48.220010  3124 net.cpp:165] Memory required for data: 1730871552
I0506 16:30:48.220013  3124 layer_factory.hpp:77] Creating layer pool3
I0506 16:30:48.220019  3124 net.cpp:106] Creating Layer pool3
I0506 16:30:48.220023  3124 net.cpp:454] pool3 <- conv3_4
I0506 16:30:48.220028  3124 net.cpp:411] pool3 -> pool3
I0506 16:30:48.220068  3124 net.cpp:150] Setting up pool3
I0506 16:30:48.220074  3124 net.cpp:157] Top shape: 16 256 28 28 (3211264)
I0506 16:30:48.220077  3124 net.cpp:165] Memory required for data: 1743716608
I0506 16:30:48.220080  3124 layer_factory.hpp:77] Creating layer conv4_1
I0506 16:30:48.220087  3124 net.cpp:106] Creating Layer conv4_1
I0506 16:30:48.220099  3124 net.cpp:454] conv4_1 <- pool3
I0506 16:30:48.220103  3124 net.cpp:411] conv4_1 -> conv4_1
I0506 16:30:48.222453  3124 net.cpp:150] Setting up conv4_1
I0506 16:30:48.222482  3124 net.cpp:157] Top shape: 16 512 28 28 (6422528)
I0506 16:30:48.222503  3124 net.cpp:165] Memory required for data: 1769406720
I0506 16:30:48.222517  3124 layer_factory.hpp:77] Creating layer ReLU4_1
I0506 16:30:48.222528  3124 net.cpp:106] Creating Layer ReLU4_1
I0506 16:30:48.222534  3124 net.cpp:454] ReLU4_1 <- conv4_1
I0506 16:30:48.222549  3124 net.cpp:397] ReLU4_1 -> conv4_1 (in-place)
I0506 16:30:48.222739  3124 net.cpp:150] Setting up ReLU4_1
I0506 16:30:48.222748  3124 net.cpp:157] Top shape: 16 512 28 28 (6422528)
I0506 16:30:48.222753  3124 net.cpp:165] Memory required for data: 1795096832
I0506 16:30:48.222755  3124 layer_factory.hpp:77] Creating layer conv4_2
I0506 16:30:48.222764  3124 net.cpp:106] Creating Layer conv4_2
I0506 16:30:48.222767  3124 net.cpp:454] conv4_2 <- conv4_1
I0506 16:30:48.222772  3124 net.cpp:411] conv4_2 -> conv4_2
I0506 16:30:48.227632  3124 net.cpp:150] Setting up conv4_2
I0506 16:30:48.227675  3124 net.cpp:157] Top shape: 16 512 28 28 (6422528)
I0506 16:30:48.227679  3124 net.cpp:165] Memory required for data: 1820786944
I0506 16:30:48.227689  3124 layer_factory.hpp:77] Creating layer ReLU4_2
I0506 16:30:48.227700  3124 net.cpp:106] Creating Layer ReLU4_2
I0506 16:30:48.227705  3124 net.cpp:454] ReLU4_2 <- conv4_2
I0506 16:30:48.227712  3124 net.cpp:397] ReLU4_2 -> conv4_2 (in-place)
I0506 16:30:48.227850  3124 net.cpp:150] Setting up ReLU4_2
I0506 16:30:48.227857  3124 net.cpp:157] Top shape: 16 512 28 28 (6422528)
I0506 16:30:48.227860  3124 net.cpp:165] Memory required for data: 1846477056
I0506 16:30:48.227864  3124 layer_factory.hpp:77] Creating layer conv4_3
I0506 16:30:48.227872  3124 net.cpp:106] Creating Layer conv4_3
I0506 16:30:48.227876  3124 net.cpp:454] conv4_3 <- conv4_2
I0506 16:30:48.227881  3124 net.cpp:411] conv4_3 -> conv4_3
I0506 16:30:48.232904  3124 net.cpp:150] Setting up conv4_3
I0506 16:30:48.232939  3124 net.cpp:157] Top shape: 16 512 28 28 (6422528)
I0506 16:30:48.232960  3124 net.cpp:165] Memory required for data: 1872167168
I0506 16:30:48.232969  3124 layer_factory.hpp:77] Creating layer ReLU4_3
I0506 16:30:48.232983  3124 net.cpp:106] Creating Layer ReLU4_3
I0506 16:30:48.232990  3124 net.cpp:454] ReLU4_3 <- conv4_3
I0506 16:30:48.232995  3124 net.cpp:397] ReLU4_3 -> conv4_3 (in-place)
I0506 16:30:48.233220  3124 net.cpp:150] Setting up ReLU4_3
I0506 16:30:48.233229  3124 net.cpp:157] Top shape: 16 512 28 28 (6422528)
I0506 16:30:48.233232  3124 net.cpp:165] Memory required for data: 1897857280
I0506 16:30:48.233237  3124 layer_factory.hpp:77] Creating layer conv4_4
I0506 16:30:48.233245  3124 net.cpp:106] Creating Layer conv4_4
I0506 16:30:48.233249  3124 net.cpp:454] conv4_4 <- conv4_3
I0506 16:30:48.233254  3124 net.cpp:411] conv4_4 -> conv4_4
I0506 16:30:48.238098  3124 net.cpp:150] Setting up conv4_4
I0506 16:30:48.238132  3124 net.cpp:157] Top shape: 16 512 28 28 (6422528)
I0506 16:30:48.238137  3124 net.cpp:165] Memory required for data: 1923547392
I0506 16:30:48.238147  3124 layer_factory.hpp:77] Creating layer ReLU4_4
I0506 16:30:48.238165  3124 net.cpp:106] Creating Layer ReLU4_4
I0506 16:30:48.238178  3124 net.cpp:454] ReLU4_4 <- conv4_4
I0506 16:30:48.238195  3124 net.cpp:397] ReLU4_4 -> conv4_4 (in-place)
I0506 16:30:48.238409  3124 net.cpp:150] Setting up ReLU4_4
I0506 16:30:48.238418  3124 net.cpp:157] Top shape: 16 512 28 28 (6422528)
I0506 16:30:48.238421  3124 net.cpp:165] Memory required for data: 1949237504
I0506 16:30:48.238425  3124 layer_factory.hpp:77] Creating layer pool4
I0506 16:30:48.238431  3124 net.cpp:106] Creating Layer pool4
I0506 16:30:48.238435  3124 net.cpp:454] pool4 <- conv4_4
I0506 16:30:48.238440  3124 net.cpp:411] pool4 -> pool4
I0506 16:30:48.238473  3124 net.cpp:150] Setting up pool4
I0506 16:30:48.238478  3124 net.cpp:157] Top shape: 16 512 14 14 (1605632)
I0506 16:30:48.238481  3124 net.cpp:165] Memory required for data: 1955660032
I0506 16:30:48.238484  3124 layer_factory.hpp:77] Creating layer conv5_1
I0506 16:30:48.238492  3124 net.cpp:106] Creating Layer conv5_1
I0506 16:30:48.238497  3124 net.cpp:454] conv5_1 <- pool4
I0506 16:30:48.238500  3124 net.cpp:411] conv5_1 -> conv5_1
I0506 16:30:48.243479  3124 net.cpp:150] Setting up conv5_1
I0506 16:30:48.243512  3124 net.cpp:157] Top shape: 16 512 14 14 (1605632)
I0506 16:30:48.243533  3124 net.cpp:165] Memory required for data: 1962082560
I0506 16:30:48.243542  3124 layer_factory.hpp:77] Creating layer ReLU5_1
I0506 16:30:48.243556  3124 net.cpp:106] Creating Layer ReLU5_1
I0506 16:30:48.243561  3124 net.cpp:454] ReLU5_1 <- conv5_1
I0506 16:30:48.243568  3124 net.cpp:397] ReLU5_1 -> conv5_1 (in-place)
I0506 16:30:48.243816  3124 net.cpp:150] Setting up ReLU5_1
I0506 16:30:48.243826  3124 net.cpp:157] Top shape: 16 512 14 14 (1605632)
I0506 16:30:48.243829  3124 net.cpp:165] Memory required for data: 1968505088
I0506 16:30:48.243832  3124 layer_factory.hpp:77] Creating layer conv5_2
I0506 16:30:48.243847  3124 net.cpp:106] Creating Layer conv5_2
I0506 16:30:48.243850  3124 net.cpp:454] conv5_2 <- conv5_1
I0506 16:30:48.243856  3124 net.cpp:411] conv5_2 -> conv5_2
I0506 16:30:48.248726  3124 net.cpp:150] Setting up conv5_2
I0506 16:30:48.248761  3124 net.cpp:157] Top shape: 16 512 14 14 (1605632)
I0506 16:30:48.248766  3124 net.cpp:165] Memory required for data: 1974927616
I0506 16:30:48.248775  3124 layer_factory.hpp:77] Creating layer ReLU5_2
I0506 16:30:48.248787  3124 net.cpp:106] Creating Layer ReLU5_2
I0506 16:30:48.248793  3124 net.cpp:454] ReLU5_2 <- conv5_2
I0506 16:30:48.248800  3124 net.cpp:397] ReLU5_2 -> conv5_2 (in-place)
I0506 16:30:48.249032  3124 net.cpp:150] Setting up ReLU5_2
I0506 16:30:48.249042  3124 net.cpp:157] Top shape: 16 512 14 14 (1605632)
I0506 16:30:48.249044  3124 net.cpp:165] Memory required for data: 1981350144
I0506 16:30:48.249048  3124 layer_factory.hpp:77] Creating layer conv5_3
I0506 16:30:48.249056  3124 net.cpp:106] Creating Layer conv5_3
I0506 16:30:48.249060  3124 net.cpp:454] conv5_3 <- conv5_2
I0506 16:30:48.249066  3124 net.cpp:411] conv5_3 -> conv5_3
I0506 16:30:48.253947  3124 net.cpp:150] Setting up conv5_3
I0506 16:30:48.253980  3124 net.cpp:157] Top shape: 16 512 14 14 (1605632)
I0506 16:30:48.254001  3124 net.cpp:165] Memory required for data: 1987772672
I0506 16:30:48.254011  3124 layer_factory.hpp:77] Creating layer ReLU5_3
I0506 16:30:48.254024  3124 net.cpp:106] Creating Layer ReLU5_3
I0506 16:30:48.254029  3124 net.cpp:454] ReLU5_3 <- conv5_3
I0506 16:30:48.254036  3124 net.cpp:397] ReLU5_3 -> conv5_3 (in-place)
I0506 16:30:48.254246  3124 net.cpp:150] Setting up ReLU5_3
I0506 16:30:48.254256  3124 net.cpp:157] Top shape: 16 512 14 14 (1605632)
I0506 16:30:48.254259  3124 net.cpp:165] Memory required for data: 1994195200
I0506 16:30:48.254262  3124 layer_factory.hpp:77] Creating layer conv5_4
I0506 16:30:48.254271  3124 net.cpp:106] Creating Layer conv5_4
I0506 16:30:48.254276  3124 net.cpp:454] conv5_4 <- conv5_3
I0506 16:30:48.254282  3124 net.cpp:411] conv5_4 -> conv5_4
I0506 16:30:48.259127  3124 net.cpp:150] Setting up conv5_4
I0506 16:30:48.259171  3124 net.cpp:157] Top shape: 16 512 14 14 (1605632)
I0506 16:30:48.259184  3124 net.cpp:165] Memory required for data: 2000617728
I0506 16:30:48.259193  3124 layer_factory.hpp:77] Creating layer ReLU5_4
I0506 16:30:48.259208  3124 net.cpp:106] Creating Layer ReLU5_4
I0506 16:30:48.259213  3124 net.cpp:454] ReLU5_4 <- conv5_4
I0506 16:30:48.259220  3124 net.cpp:397] ReLU5_4 -> conv5_4 (in-place)
I0506 16:30:48.259363  3124 net.cpp:150] Setting up ReLU5_4
I0506 16:30:48.259371  3124 net.cpp:157] Top shape: 16 512 14 14 (1605632)
I0506 16:30:48.259374  3124 net.cpp:165] Memory required for data: 2007040256
I0506 16:30:48.259377  3124 layer_factory.hpp:77] Creating layer pool5
I0506 16:30:48.259384  3124 net.cpp:106] Creating Layer pool5
I0506 16:30:48.259388  3124 net.cpp:454] pool5 <- conv5_4
I0506 16:30:48.259395  3124 net.cpp:411] pool5 -> pool5
I0506 16:30:48.259433  3124 net.cpp:150] Setting up pool5
I0506 16:30:48.259438  3124 net.cpp:157] Top shape: 16 512 7 7 (401408)
I0506 16:30:48.259440  3124 net.cpp:165] Memory required for data: 2008645888
I0506 16:30:48.259443  3124 layer_factory.hpp:77] Creating layer fc6
I0506 16:30:48.259450  3124 net.cpp:106] Creating Layer fc6
I0506 16:30:48.259454  3124 net.cpp:454] fc6 <- pool5
I0506 16:30:48.259459  3124 net.cpp:411] fc6 -> fc6
I0506 16:30:48.463604  3124 net.cpp:150] Setting up fc6
I0506 16:30:48.463646  3124 net.cpp:157] Top shape: 16 4096 (65536)
I0506 16:30:48.463668  3124 net.cpp:165] Memory required for data: 2008908032
I0506 16:30:48.463695  3124 layer_factory.hpp:77] Creating layer ReLU6
I0506 16:30:48.463711  3124 net.cpp:106] Creating Layer ReLU6
I0506 16:30:48.463717  3124 net.cpp:454] ReLU6 <- fc6
I0506 16:30:48.463724  3124 net.cpp:397] ReLU6 -> fc6 (in-place)
I0506 16:30:48.464135  3124 net.cpp:150] Setting up ReLU6
I0506 16:30:48.464145  3124 net.cpp:157] Top shape: 16 4096 (65536)
I0506 16:30:48.464149  3124 net.cpp:165] Memory required for data: 2009170176
I0506 16:30:48.464153  3124 layer_factory.hpp:77] Creating layer drop6
I0506 16:30:48.464159  3124 net.cpp:106] Creating Layer drop6
I0506 16:30:48.464162  3124 net.cpp:454] drop6 <- fc6
I0506 16:30:48.464166  3124 net.cpp:397] drop6 -> fc6 (in-place)
I0506 16:30:48.464195  3124 net.cpp:150] Setting up drop6
I0506 16:30:48.464200  3124 net.cpp:157] Top shape: 16 4096 (65536)
I0506 16:30:48.464203  3124 net.cpp:165] Memory required for data: 2009432320
I0506 16:30:48.464206  3124 layer_factory.hpp:77] Creating layer fc7
I0506 16:30:48.464211  3124 net.cpp:106] Creating Layer fc7
I0506 16:30:48.464215  3124 net.cpp:454] fc7 <- fc6
I0506 16:30:48.464221  3124 net.cpp:411] fc7 -> fc7
I0506 16:30:48.497824  3124 net.cpp:150] Setting up fc7
I0506 16:30:48.497864  3124 net.cpp:157] Top shape: 16 4096 (65536)
I0506 16:30:48.497884  3124 net.cpp:165] Memory required for data: 2009694464
I0506 16:30:48.497897  3124 layer_factory.hpp:77] Creating layer ReLU7
I0506 16:30:48.497915  3124 net.cpp:106] Creating Layer ReLU7
I0506 16:30:48.497922  3124 net.cpp:454] ReLU7 <- fc7
I0506 16:30:48.497931  3124 net.cpp:397] ReLU7 -> fc7 (in-place)
I0506 16:30:48.498152  3124 net.cpp:150] Setting up ReLU7
I0506 16:30:48.498162  3124 net.cpp:157] Top shape: 16 4096 (65536)
I0506 16:30:48.498175  3124 net.cpp:165] Memory required for data: 2009956608
I0506 16:30:48.498178  3124 layer_factory.hpp:77] Creating layer drop7
I0506 16:30:48.498185  3124 net.cpp:106] Creating Layer drop7
I0506 16:30:48.498188  3124 net.cpp:454] drop7 <- fc7
I0506 16:30:48.498193  3124 net.cpp:397] drop7 -> fc7 (in-place)
I0506 16:30:48.498224  3124 net.cpp:150] Setting up drop7
I0506 16:30:48.498229  3124 net.cpp:157] Top shape: 16 4096 (65536)
I0506 16:30:48.498231  3124 net.cpp:165] Memory required for data: 2010218752
I0506 16:30:48.498234  3124 layer_factory.hpp:77] Creating layer fc8_foodCAT
I0506 16:30:48.498240  3124 net.cpp:106] Creating Layer fc8_foodCAT
I0506 16:30:48.498245  3124 net.cpp:454] fc8_foodCAT <- fc7
I0506 16:30:48.498248  3124 net.cpp:411] fc8_foodCAT -> fc8_foodCAT
I0506 16:30:48.499467  3124 net.cpp:150] Setting up fc8_foodCAT
I0506 16:30:48.499483  3124 net.cpp:157] Top shape: 16 218 (3488)
I0506 16:30:48.499492  3124 net.cpp:165] Memory required for data: 2010232704
I0506 16:30:48.499497  3124 layer_factory.hpp:77] Creating layer fc8_foodCAT_fc8_foodCAT_0_split
I0506 16:30:48.499503  3124 net.cpp:106] Creating Layer fc8_foodCAT_fc8_foodCAT_0_split
I0506 16:30:48.499507  3124 net.cpp:454] fc8_foodCAT_fc8_foodCAT_0_split <- fc8_foodCAT
I0506 16:30:48.499523  3124 net.cpp:411] fc8_foodCAT_fc8_foodCAT_0_split -> fc8_foodCAT_fc8_foodCAT_0_split_0
I0506 16:30:48.499529  3124 net.cpp:411] fc8_foodCAT_fc8_foodCAT_0_split -> fc8_foodCAT_fc8_foodCAT_0_split_1
I0506 16:30:48.499534  3124 net.cpp:411] fc8_foodCAT_fc8_foodCAT_0_split -> fc8_foodCAT_fc8_foodCAT_0_split_2
I0506 16:30:48.499572  3124 net.cpp:150] Setting up fc8_foodCAT_fc8_foodCAT_0_split
I0506 16:30:48.499586  3124 net.cpp:157] Top shape: 16 218 (3488)
I0506 16:30:48.499591  3124 net.cpp:157] Top shape: 16 218 (3488)
I0506 16:30:48.499594  3124 net.cpp:157] Top shape: 16 218 (3488)
I0506 16:30:48.499598  3124 net.cpp:165] Memory required for data: 2010274560
I0506 16:30:48.499600  3124 layer_factory.hpp:77] Creating layer loss
I0506 16:30:48.499615  3124 net.cpp:106] Creating Layer loss
I0506 16:30:48.499619  3124 net.cpp:454] loss <- fc8_foodCAT_fc8_foodCAT_0_split_0
I0506 16:30:48.499622  3124 net.cpp:454] loss <- label_data_1_split_0
I0506 16:30:48.499629  3124 net.cpp:411] loss -> loss/loss
…
