…
I0526 18:24:05.152369 11150 net.cpp:322] The NetState phase (0) differed from the phase (1) specified by a rule in layer accuracy/top5
I0526 18:24:05.152600 11150 net.cpp:49] Initializing net from parameters: 
name: "foodCAT_VGG_ILSVRC_19_layer"
state {
  phase: TRAIN
}
layer {
  name: "data"
  type: "ImageData"
  top: "data"
  top: "label"
  include {
    phase: TRAIN
  }
  transform_param {
    mirror: true
    crop_size: 224
    mean_value: 104
    mean_value: 117
    mean_value: 123
  }
  image_data_param {
    source: "foodCAT_500/train.txt"
    batch_size: 16
    shuffle: true
    new_height: 256
    new_width: 256
  }
}
layer {
  name: "conv1_1"
  type: "Convolution"
  bottom: "data"
  top: "conv1_1"
  convolution_param {
    num_output: 64
    pad: 1
    kernel_size: 3
  }
}
layer {
  name: "ReLU1_1"
  type: "ReLU"
  bottom: "conv1_1"
  top: "conv1_1"
}
layer {
  name: "conv1_2"
  type: "Convolution"
  bottom: "conv1_1"
  top: "conv1_2"
  convolution_param {
    num_output: 64
    pad: 1
    kernel_size: 3
  }
}
layer {
  name: "ReLU1_2"
  type: "ReLU"
  bottom: "conv1_2"
  top: "conv1_2"
}
layer {
  name: "pool1"
  type: "Pooling"
  bottom: "conv1_2"
  top: "pool1"
  pooling_param {
    pool: MAX
    kernel_size: 2
    stride: 2
  }
}
layer {
  name: "conv2_1"
  type: "Convolution"
  bottom: "pool1"
  top: "conv2_1"
  convolution_param {
    num_output: 128
    pad: 1
    kernel_size: 3
  }
}
layer {
  name: "ReLU2_1"
  type: "ReLU"
  bottom: "conv2_1"
  top: "conv2_1"
}
layer {
  name: "conv2_2"
  type: "Convolution"
  bottom: "conv2_1"
  top: "conv2_2"
  convolution_param {
    num_output: 128
    pad: 1
    kernel_size: 3
  }
}
layer {
  name: "ReLU2_2"
  type: "ReLU"
  bottom: "conv2_2"
  top: "conv2_2"
}
layer {
  name: "pool2"
  type: "Pooling"
  bottom: "conv2_2"
  top: "pool2"
  pooling_param {
    pool: MAX
    kernel_size: 2
    stride: 2
  }
}
layer {
  name: "conv3_1"
  type: "Convolution"
  bottom: "pool2"
  top: "conv3_1"
  convolution_param {
    num_output: 256
    pad: 1
    kernel_size: 3
  }
}
layer {
  name: "ReLU3_1"
  type: "ReLU"
  bottom: "conv3_1"
  top: "conv3_1"
}
layer {
  name: "conv3_2"
  type: "Convolution"
  bottom: "conv3_1"
  top: "conv3_2"
  convolution_param {
    num_output: 256
    pad: 1
    kernel_size: 3
  }
}
layer {
  name: "ReLU3_2"
  type: "ReLU"
  bottom: "conv3_2"
  top: "conv3_2"
}
layer {
  name: "conv3_3"
  type: "Convolution"
  bottom: "conv3_2"
  top: "conv3_3"
  convolution_param {
    num_output: 256
    pad: 1
    kernel_size: 3
  }
}
layer {
  name: "ReLU3_3"
  type: "ReLU"
  bottom: "conv3_3"
  top: "conv3_3"
}
layer {
  name: "conv3_4"
  type: "Convolution"
  bottom: "conv3_3"
  top: "conv3_4"
  convolution_param {
    num_output: 256
    pad: 1
    kernel_size: 3
  }
}
layer {
  name: "ReLU3_4"
  type: "ReLU"
  bottom: "conv3_4"
  top: "conv3_4"
}
layer {
  name: "pool3"
  type: "Pooling"
  bottom: "conv3_4"
  top: "pool3"
  pooling_param {
    pool: MAX
    kernel_size: 2
    stride: 2
  }
}
layer {
  name: "conv4_1"
  type: "Convolution"
  bottom: "pool3"
  top: "conv4_1"
  convolution_param {
    num_output: 512
    pad: 1
    kernel_size: 3
  }
}
layer {
  name: "ReLU4_1"
  type: "ReLU"
  bottom: "conv4_1"
  top: "conv4_1"
}
layer {
  name: "conv4_2"
  type: "Convolution"
  bottom: "conv4_1"
  top: "conv4_2"
  convolution_param {
    num_output: 512
    pad: 1
    kernel_size: 3
  }
}
layer {
  name: "ReLU4_2"
  type: "ReLU"
  bottom: "conv4_2"
  top: "conv4_2"
}
layer {
  name: "conv4_3"
  type: "Convolution"
  bottom: "conv4_2"
  top: "conv4_3"
  convolution_param {
    num_output: 512
    pad: 1
    kernel_size: 3
  }
}
layer {
  name: "ReLU4_3"
  type: "ReLU"
  bottom: "conv4_3"
  top: "conv4_3"
}
layer {
  name: "conv4_4"
  type: "Convolution"
  bottom: "conv4_3"
  top: "conv4_4"
  convolution_param {
    num_output: 512
    pad: 1
    kernel_size: 3
  }
}
layer {
  name: "ReLU4_4"
  type: "ReLU"
  bottom: "conv4_4"
  top: "conv4_4"
}
layer {
  name: "pool4"
  type: "Pooling"
  bottom: "conv4_4"
  top: "pool4"
  pooling_param {
    pool: MAX
    kernel_size: 2
    stride: 2
  }
}
layer {
  name: "conv5_1"
  type: "Convolution"
  bottom: "pool4"
  top: "conv5_1"
  convolution_param {
    num_output: 512
    pad: 1
    kernel_size: 3
  }
}
layer {
  name: "ReLU5_1"
  type: "ReLU"
  bottom: "conv5_1"
  top: "conv5_1"
}
layer {
  name: "conv5_2"
  type: "Convolution"
  bottom: "conv5_1"
  top: "conv5_2"
  convolution_param {
    num_output: 512
    pad: 1
    kernel_size: 3
  }
}
layer {
  name: "ReLU5_2"
  type: "ReLU"
  bottom: "conv5_2"
  top: "conv5_2"
}
layer {
  name: "conv5_3"
  type: "Convolution"
  bottom: "conv5_2"
  top: "conv5_3"
  convolution_param {
    num_output: 512
    pad: 1
    kernel_size: 3
  }
}
layer {
  name: "ReLU5_3"
  type: "ReLU"
  bottom: "conv5_3"
  top: "conv5_3"
}
layer {
  name: "conv5_4"
  type: "Convolution"
  bottom: "conv5_3"
  top: "conv5_4"
  convolution_param {
    num_output: 512
    pad: 1
    kernel_size: 3
  }
}
layer {
  name: "ReLU5_4"
  type: "ReLU"
  bottom: "conv5_4"
  top: "conv5_4"
}
layer {
  name: "pool5"
  type: "Pooling"
  bottom: "conv5_4"
  top: "pool5"
  pooling_param {
    pool: MAX
    kernel_size: 2
    stride: 2
  }
}
layer {
  name: "fc6"
  type: "InnerProduct"
  bottom: "pool5"
  top: "fc6"
  inner_product_param {
    num_output: 4096
  }
}
layer {
  name: "ReLU6"
  type: "ReLU"
  bottom: "fc6"
  top: "fc6"
}
layer {
  name: "drop6"
  type: "Dropout"
  bottom: "fc6"
  top: "fc6"
  dropout_param {
    dropout_ratio: 0.5
  }
}
layer {
  name: "fc7"
  type: "InnerProduct"
  bottom: "fc6"
  top: "fc7"
  inner_product_param {
    num_output: 4096
  }
}
layer {
  name: "ReLU7"
  type: "ReLU"
  bottom: "fc7"
  top: "fc7"
}
layer {
  name: "drop7"
  type: "Dropout"
  bottom: "fc7"
  top: "fc7"
  dropout_param {
    dropout_ratio: 0.5
  }
}
layer {
  name: "fc8_foodCAT_500"
  type: "InnerProduct"
  bottom: "fc7"
  top: "fc8_foodCAT_500"
  inner_product_param {
    num_output: 216
  }
}
layer {
  name: "loss"
  type: "SoftmaxWithLoss"
  bottom: "fc8_foodCAT_500"
  bottom: "label"
  top: "loss/loss"
}
I0526 18:24:05.152811 11150 layer_factory.hpp:77] Creating layer data
I0526 18:24:05.152889 11150 net.cpp:106] Creating Layer data
I0526 18:24:05.152915 11150 net.cpp:411] data -> data
I0526 18:24:05.152971 11150 net.cpp:411] data -> label
I0526 18:24:05.153425 11150 image_data_layer.cpp:38] Opening file foodCAT_500/train.txt
I0526 18:24:05.185071 11150 image_data_layer.cpp:48] Shuffling data
I0526 18:24:05.189831 11150 image_data_layer.cpp:53] A total of 73085 images.
I0526 18:24:05.373178 11150 image_data_layer.cpp:80] output data size: 16,3,224,224
I0526 18:24:05.389991 11150 net.cpp:150] Setting up data
I0526 18:24:05.390070 11150 net.cpp:157] Top shape: 16 3 224 224 (2408448)
I0526 18:24:05.390105 11150 net.cpp:157] Top shape: 16 (16)
I0526 18:24:05.390122 11150 net.cpp:165] Memory required for data: 9633856
I0526 18:24:05.390144 11150 layer_factory.hpp:77] Creating layer conv1_1
I0526 18:24:05.390179 11150 net.cpp:106] Creating Layer conv1_1
I0526 18:24:05.390200 11150 net.cpp:454] conv1_1 <- data
I0526 18:24:05.390239 11150 net.cpp:411] conv1_1 -> conv1_1
I0526 18:24:05.514472 11150 net.cpp:150] Setting up conv1_1
I0526 18:24:05.514549 11150 net.cpp:157] Top shape: 16 64 224 224 (51380224)
I0526 18:24:05.514593 11150 net.cpp:165] Memory required for data: 215154752
I0526 18:24:05.514629 11150 layer_factory.hpp:77] Creating layer ReLU1_1
I0526 18:24:05.514659 11150 net.cpp:106] Creating Layer ReLU1_1
I0526 18:24:05.514678 11150 net.cpp:454] ReLU1_1 <- conv1_1
I0526 18:24:05.514698 11150 net.cpp:397] ReLU1_1 -> conv1_1 (in-place)
I0526 18:24:05.514853 11150 net.cpp:150] Setting up ReLU1_1
I0526 18:24:05.514883 11150 net.cpp:157] Top shape: 16 64 224 224 (51380224)
I0526 18:24:05.514899 11150 net.cpp:165] Memory required for data: 420675648
I0526 18:24:05.514914 11150 layer_factory.hpp:77] Creating layer conv1_2
I0526 18:24:05.514936 11150 net.cpp:106] Creating Layer conv1_2
I0526 18:24:05.514953 11150 net.cpp:454] conv1_2 <- conv1_1
I0526 18:24:05.514993 11150 net.cpp:411] conv1_2 -> conv1_2
I0526 18:24:05.515769 11150 net.cpp:150] Setting up conv1_2
I0526 18:24:05.515805 11150 net.cpp:157] Top shape: 16 64 224 224 (51380224)
I0526 18:24:05.515823 11150 net.cpp:165] Memory required for data: 626196544
I0526 18:24:05.515844 11150 layer_factory.hpp:77] Creating layer ReLU1_2
I0526 18:24:05.515869 11150 net.cpp:106] Creating Layer ReLU1_2
I0526 18:24:05.515895 11150 net.cpp:454] ReLU1_2 <- conv1_2
I0526 18:24:05.515913 11150 net.cpp:397] ReLU1_2 -> conv1_2 (in-place)
I0526 18:24:05.516230 11150 net.cpp:150] Setting up ReLU1_2
I0526 18:24:05.516263 11150 net.cpp:157] Top shape: 16 64 224 224 (51380224)
I0526 18:24:05.516291 11150 net.cpp:165] Memory required for data: 831717440
I0526 18:24:05.516309 11150 layer_factory.hpp:77] Creating layer pool1
I0526 18:24:05.516340 11150 net.cpp:106] Creating Layer pool1
I0526 18:24:05.516367 11150 net.cpp:454] pool1 <- conv1_2
I0526 18:24:05.516388 11150 net.cpp:411] pool1 -> pool1
I0526 18:24:05.516463 11150 net.cpp:150] Setting up pool1
I0526 18:24:05.516501 11150 net.cpp:157] Top shape: 16 64 112 112 (12845056)
I0526 18:24:05.516518 11150 net.cpp:165] Memory required for data: 883097664
I0526 18:24:05.516544 11150 layer_factory.hpp:77] Creating layer conv2_1
I0526 18:24:05.516563 11150 net.cpp:106] Creating Layer conv2_1
I0526 18:24:05.516580 11150 net.cpp:454] conv2_1 <- pool1
I0526 18:24:05.516598 11150 net.cpp:411] conv2_1 -> conv2_1
I0526 18:24:05.518507 11150 net.cpp:150] Setting up conv2_1
I0526 18:24:05.518545 11150 net.cpp:157] Top shape: 16 128 112 112 (25690112)
I0526 18:24:05.518564 11150 net.cpp:165] Memory required for data: 985858112
I0526 18:24:05.518597 11150 layer_factory.hpp:77] Creating layer ReLU2_1
I0526 18:24:05.518618 11150 net.cpp:106] Creating Layer ReLU2_1
I0526 18:24:05.518637 11150 net.cpp:454] ReLU2_1 <- conv2_1
I0526 18:24:05.518656 11150 net.cpp:397] ReLU2_1 -> conv2_1 (in-place)
I0526 18:24:05.518842 11150 net.cpp:150] Setting up ReLU2_1
I0526 18:24:05.518885 11150 net.cpp:157] Top shape: 16 128 112 112 (25690112)
I0526 18:24:05.518904 11150 net.cpp:165] Memory required for data: 1088618560
I0526 18:24:05.518921 11150 layer_factory.hpp:77] Creating layer conv2_2
I0526 18:24:05.518942 11150 net.cpp:106] Creating Layer conv2_2
I0526 18:24:05.519003 11150 net.cpp:454] conv2_2 <- conv2_1
I0526 18:24:05.519024 11150 net.cpp:411] conv2_2 -> conv2_2
I0526 18:24:05.520021 11150 net.cpp:150] Setting up conv2_2
I0526 18:24:05.520071 11150 net.cpp:157] Top shape: 16 128 112 112 (25690112)
I0526 18:24:05.520090 11150 net.cpp:165] Memory required for data: 1191379008
I0526 18:24:05.520112 11150 layer_factory.hpp:77] Creating layer ReLU2_2
I0526 18:24:05.520133 11150 net.cpp:106] Creating Layer ReLU2_2
I0526 18:24:05.520150 11150 net.cpp:454] ReLU2_2 <- conv2_2
I0526 18:24:05.520169 11150 net.cpp:397] ReLU2_2 -> conv2_2 (in-place)
I0526 18:24:05.520336 11150 net.cpp:150] Setting up ReLU2_2
I0526 18:24:05.520365 11150 net.cpp:157] Top shape: 16 128 112 112 (25690112)
I0526 18:24:05.520382 11150 net.cpp:165] Memory required for data: 1294139456
I0526 18:24:05.520398 11150 layer_factory.hpp:77] Creating layer pool2
I0526 18:24:05.520417 11150 net.cpp:106] Creating Layer pool2
I0526 18:24:05.520447 11150 net.cpp:454] pool2 <- conv2_2
I0526 18:24:05.520481 11150 net.cpp:411] pool2 -> pool2
I0526 18:24:05.520539 11150 net.cpp:150] Setting up pool2
I0526 18:24:05.520563 11150 net.cpp:157] Top shape: 16 128 56 56 (6422528)
I0526 18:24:05.520579 11150 net.cpp:165] Memory required for data: 1319829568
I0526 18:24:05.520596 11150 layer_factory.hpp:77] Creating layer conv3_1
I0526 18:24:05.520619 11150 net.cpp:106] Creating Layer conv3_1
I0526 18:24:05.520637 11150 net.cpp:454] conv3_1 <- pool2
I0526 18:24:05.520655 11150 net.cpp:411] conv3_1 -> conv3_1
I0526 18:24:05.522361 11150 net.cpp:150] Setting up conv3_1
I0526 18:24:05.522399 11150 net.cpp:157] Top shape: 16 256 56 56 (12845056)
I0526 18:24:05.522418 11150 net.cpp:165] Memory required for data: 1371209792
I0526 18:24:05.522440 11150 layer_factory.hpp:77] Creating layer ReLU3_1
I0526 18:24:05.522460 11150 net.cpp:106] Creating Layer ReLU3_1
I0526 18:24:05.522477 11150 net.cpp:454] ReLU3_1 <- conv3_1
I0526 18:24:05.522496 11150 net.cpp:397] ReLU3_1 -> conv3_1 (in-place)
I0526 18:24:05.522759 11150 net.cpp:150] Setting up ReLU3_1
I0526 18:24:05.522790 11150 net.cpp:157] Top shape: 16 256 56 56 (12845056)
I0526 18:24:05.522807 11150 net.cpp:165] Memory required for data: 1422590016
I0526 18:24:05.522824 11150 layer_factory.hpp:77] Creating layer conv3_2
I0526 18:24:05.522845 11150 net.cpp:106] Creating Layer conv3_2
I0526 18:24:05.522862 11150 net.cpp:454] conv3_2 <- conv3_1
I0526 18:24:05.522882 11150 net.cpp:411] conv3_2 -> conv3_2
I0526 18:24:05.525174 11150 net.cpp:150] Setting up conv3_2
I0526 18:24:05.525213 11150 net.cpp:157] Top shape: 16 256 56 56 (12845056)
I0526 18:24:05.525230 11150 net.cpp:165] Memory required for data: 1473970240
I0526 18:24:05.525250 11150 layer_factory.hpp:77] Creating layer ReLU3_2
I0526 18:24:05.525270 11150 net.cpp:106] Creating Layer ReLU3_2
I0526 18:24:05.525287 11150 net.cpp:454] ReLU3_2 <- conv3_2
I0526 18:24:05.525305 11150 net.cpp:397] ReLU3_2 -> conv3_2 (in-place)
I0526 18:24:05.525467 11150 net.cpp:150] Setting up ReLU3_2
I0526 18:24:05.525496 11150 net.cpp:157] Top shape: 16 256 56 56 (12845056)
I0526 18:24:05.525511 11150 net.cpp:165] Memory required for data: 1525350464
I0526 18:24:05.525527 11150 layer_factory.hpp:77] Creating layer conv3_3
I0526 18:24:05.525547 11150 net.cpp:106] Creating Layer conv3_3
I0526 18:24:05.525566 11150 net.cpp:454] conv3_3 <- conv3_2
I0526 18:24:05.525584 11150 net.cpp:411] conv3_3 -> conv3_3
I0526 18:24:05.527844 11150 net.cpp:150] Setting up conv3_3
I0526 18:24:05.527880 11150 net.cpp:157] Top shape: 16 256 56 56 (12845056)
I0526 18:24:05.527899 11150 net.cpp:165] Memory required for data: 1576730688
I0526 18:24:05.527917 11150 layer_factory.hpp:77] Creating layer ReLU3_3
I0526 18:24:05.527941 11150 net.cpp:106] Creating Layer ReLU3_3
I0526 18:24:05.527959 11150 net.cpp:454] ReLU3_3 <- conv3_3
I0526 18:24:05.527994 11150 net.cpp:397] ReLU3_3 -> conv3_3 (in-place)
I0526 18:24:05.528167 11150 net.cpp:150] Setting up ReLU3_3
I0526 18:24:05.528195 11150 net.cpp:157] Top shape: 16 256 56 56 (12845056)
I0526 18:24:05.528213 11150 net.cpp:165] Memory required for data: 1628110912
I0526 18:24:05.528228 11150 layer_factory.hpp:77] Creating layer conv3_4
I0526 18:24:05.528246 11150 net.cpp:106] Creating Layer conv3_4
I0526 18:24:05.528267 11150 net.cpp:454] conv3_4 <- conv3_3
I0526 18:24:05.528285 11150 net.cpp:411] conv3_4 -> conv3_4
I0526 18:24:05.530822 11150 net.cpp:150] Setting up conv3_4
I0526 18:24:05.530858 11150 net.cpp:157] Top shape: 16 256 56 56 (12845056)
I0526 18:24:05.530877 11150 net.cpp:165] Memory required for data: 1679491136
I0526 18:24:05.530896 11150 layer_factory.hpp:77] Creating layer ReLU3_4
I0526 18:24:05.530918 11150 net.cpp:106] Creating Layer ReLU3_4
I0526 18:24:05.530941 11150 net.cpp:454] ReLU3_4 <- conv3_4
I0526 18:24:05.530959 11150 net.cpp:397] ReLU3_4 -> conv3_4 (in-place)
I0526 18:24:05.531288 11150 net.cpp:150] Setting up ReLU3_4
I0526 18:24:05.531321 11150 net.cpp:157] Top shape: 16 256 56 56 (12845056)
I0526 18:24:05.531337 11150 net.cpp:165] Memory required for data: 1730871360
I0526 18:24:05.531374 11150 layer_factory.hpp:77] Creating layer pool3
I0526 18:24:05.531405 11150 net.cpp:106] Creating Layer pool3
I0526 18:24:05.531424 11150 net.cpp:454] pool3 <- conv3_4
I0526 18:24:05.531440 11150 net.cpp:411] pool3 -> pool3
I0526 18:24:05.531497 11150 net.cpp:150] Setting up pool3
I0526 18:24:05.531522 11150 net.cpp:157] Top shape: 16 256 28 28 (3211264)
I0526 18:24:05.531536 11150 net.cpp:165] Memory required for data: 1743716416
I0526 18:24:05.531551 11150 layer_factory.hpp:77] Creating layer conv4_1
I0526 18:24:05.531572 11150 net.cpp:106] Creating Layer conv4_1
I0526 18:24:05.531590 11150 net.cpp:454] conv4_1 <- pool3
I0526 18:24:05.531607 11150 net.cpp:411] conv4_1 -> conv4_1
I0526 18:24:05.535730 11150 net.cpp:150] Setting up conv4_1
I0526 18:24:05.535768 11150 net.cpp:157] Top shape: 16 512 28 28 (6422528)
I0526 18:24:05.535786 11150 net.cpp:165] Memory required for data: 1769406528
I0526 18:24:05.535809 11150 layer_factory.hpp:77] Creating layer ReLU4_1
I0526 18:24:05.535831 11150 net.cpp:106] Creating Layer ReLU4_1
I0526 18:24:05.535850 11150 net.cpp:454] ReLU4_1 <- conv4_1
I0526 18:24:05.535867 11150 net.cpp:397] ReLU4_1 -> conv4_1 (in-place)
I0526 18:24:05.536036 11150 net.cpp:150] Setting up ReLU4_1
I0526 18:24:05.536064 11150 net.cpp:157] Top shape: 16 512 28 28 (6422528)
I0526 18:24:05.536082 11150 net.cpp:165] Memory required for data: 1795096640
I0526 18:24:05.536097 11150 layer_factory.hpp:77] Creating layer conv4_2
I0526 18:24:05.536118 11150 net.cpp:106] Creating Layer conv4_2
I0526 18:24:05.536136 11150 net.cpp:454] conv4_2 <- conv4_1
I0526 18:24:05.536154 11150 net.cpp:411] conv4_2 -> conv4_2
I0526 18:24:05.542227 11150 net.cpp:150] Setting up conv4_2
I0526 18:24:05.542274 11150 net.cpp:157] Top shape: 16 512 28 28 (6422528)
I0526 18:24:05.542292 11150 net.cpp:165] Memory required for data: 1820786752
I0526 18:24:05.542311 11150 layer_factory.hpp:77] Creating layer ReLU4_2
I0526 18:24:05.542331 11150 net.cpp:106] Creating Layer ReLU4_2
I0526 18:24:05.542348 11150 net.cpp:454] ReLU4_2 <- conv4_2
I0526 18:24:05.542368 11150 net.cpp:397] ReLU4_2 -> conv4_2 (in-place)
I0526 18:24:05.542559 11150 net.cpp:150] Setting up ReLU4_2
I0526 18:24:05.542587 11150 net.cpp:157] Top shape: 16 512 28 28 (6422528)
I0526 18:24:05.542603 11150 net.cpp:165] Memory required for data: 1846476864
I0526 18:24:05.542619 11150 layer_factory.hpp:77] Creating layer conv4_3
I0526 18:24:05.542640 11150 net.cpp:106] Creating Layer conv4_3
I0526 18:24:05.542659 11150 net.cpp:454] conv4_3 <- conv4_2
I0526 18:24:05.542690 11150 net.cpp:411] conv4_3 -> conv4_3
I0526 18:24:05.549335 11150 net.cpp:150] Setting up conv4_3
I0526 18:24:05.549376 11150 net.cpp:157] Top shape: 16 512 28 28 (6422528)
I0526 18:24:05.549396 11150 net.cpp:165] Memory required for data: 1872166976
I0526 18:24:05.549415 11150 layer_factory.hpp:77] Creating layer ReLU4_3
I0526 18:24:05.549439 11150 net.cpp:106] Creating Layer ReLU4_3
I0526 18:24:05.549458 11150 net.cpp:454] ReLU4_3 <- conv4_3
I0526 18:24:05.549477 11150 net.cpp:397] ReLU4_3 -> conv4_3 (in-place)
I0526 18:24:05.549757 11150 net.cpp:150] Setting up ReLU4_3
I0526 18:24:05.549788 11150 net.cpp:157] Top shape: 16 512 28 28 (6422528)
I0526 18:24:05.549808 11150 net.cpp:165] Memory required for data: 1897857088
I0526 18:24:05.549824 11150 layer_factory.hpp:77] Creating layer conv4_4
I0526 18:24:05.549849 11150 net.cpp:106] Creating Layer conv4_4
I0526 18:24:05.549868 11150 net.cpp:454] conv4_4 <- conv4_3
I0526 18:24:05.549890 11150 net.cpp:411] conv4_4 -> conv4_4
I0526 18:24:05.556223 11150 net.cpp:150] Setting up conv4_4
I0526 18:24:05.556260 11150 net.cpp:157] Top shape: 16 512 28 28 (6422528)
I0526 18:24:05.556279 11150 net.cpp:165] Memory required for data: 1923547200
I0526 18:24:05.556298 11150 layer_factory.hpp:77] Creating layer ReLU4_4
I0526 18:24:05.556318 11150 net.cpp:106] Creating Layer ReLU4_4
I0526 18:24:05.556336 11150 net.cpp:454] ReLU4_4 <- conv4_4
I0526 18:24:05.556356 11150 net.cpp:397] ReLU4_4 -> conv4_4 (in-place)
I0526 18:24:05.556534 11150 net.cpp:150] Setting up ReLU4_4
I0526 18:24:05.556583 11150 net.cpp:157] Top shape: 16 512 28 28 (6422528)
I0526 18:24:05.556602 11150 net.cpp:165] Memory required for data: 1949237312
I0526 18:24:05.556617 11150 layer_factory.hpp:77] Creating layer pool4
I0526 18:24:05.556637 11150 net.cpp:106] Creating Layer pool4
I0526 18:24:05.556653 11150 net.cpp:454] pool4 <- conv4_4
I0526 18:24:05.556670 11150 net.cpp:411] pool4 -> pool4
I0526 18:24:05.556728 11150 net.cpp:150] Setting up pool4
I0526 18:24:05.556752 11150 net.cpp:157] Top shape: 16 512 14 14 (1605632)
I0526 18:24:05.556768 11150 net.cpp:165] Memory required for data: 1955659840
I0526 18:24:05.556783 11150 layer_factory.hpp:77] Creating layer conv5_1
I0526 18:24:05.556803 11150 net.cpp:106] Creating Layer conv5_1
I0526 18:24:05.556821 11150 net.cpp:454] conv5_1 <- pool4
I0526 18:24:05.556838 11150 net.cpp:411] conv5_1 -> conv5_1
I0526 18:24:05.562880 11150 net.cpp:150] Setting up conv5_1
I0526 18:24:05.562917 11150 net.cpp:157] Top shape: 16 512 14 14 (1605632)
I0526 18:24:05.562937 11150 net.cpp:165] Memory required for data: 1962082368
I0526 18:24:05.562955 11150 layer_factory.hpp:77] Creating layer ReLU5_1
I0526 18:24:05.562983 11150 net.cpp:106] Creating Layer ReLU5_1
I0526 18:24:05.563002 11150 net.cpp:454] ReLU5_1 <- conv5_1
I0526 18:24:05.563019 11150 net.cpp:397] ReLU5_1 -> conv5_1 (in-place)
I0526 18:24:05.563295 11150 net.cpp:150] Setting up ReLU5_1
I0526 18:24:05.563328 11150 net.cpp:157] Top shape: 16 512 14 14 (1605632)
I0526 18:24:05.563345 11150 net.cpp:165] Memory required for data: 1968504896
I0526 18:24:05.563361 11150 layer_factory.hpp:77] Creating layer conv5_2
I0526 18:24:05.563381 11150 net.cpp:106] Creating Layer conv5_2
I0526 18:24:05.563400 11150 net.cpp:454] conv5_2 <- conv5_1
I0526 18:24:05.563419 11150 net.cpp:411] conv5_2 -> conv5_2
I0526 18:24:05.569696 11150 net.cpp:150] Setting up conv5_2
I0526 18:24:05.569733 11150 net.cpp:157] Top shape: 16 512 14 14 (1605632)
I0526 18:24:05.569751 11150 net.cpp:165] Memory required for data: 1974927424
I0526 18:24:05.569771 11150 layer_factory.hpp:77] Creating layer ReLU5_2
I0526 18:24:05.569797 11150 net.cpp:106] Creating Layer ReLU5_2
I0526 18:24:05.569815 11150 net.cpp:454] ReLU5_2 <- conv5_2
I0526 18:24:05.569833 11150 net.cpp:397] ReLU5_2 -> conv5_2 (in-place)
I0526 18:24:05.571177 11150 net.cpp:150] Setting up ReLU5_2
I0526 18:24:05.571219 11150 net.cpp:157] Top shape: 16 512 14 14 (1605632)
I0526 18:24:05.571238 11150 net.cpp:165] Memory required for data: 1981349952
I0526 18:24:05.571267 11150 layer_factory.hpp:77] Creating layer conv5_3
I0526 18:24:05.571300 11150 net.cpp:106] Creating Layer conv5_3
I0526 18:24:05.571331 11150 net.cpp:454] conv5_3 <- conv5_2
I0526 18:24:05.571353 11150 net.cpp:411] conv5_3 -> conv5_3
I0526 18:24:05.577951 11150 net.cpp:150] Setting up conv5_3
I0526 18:24:05.578006 11150 net.cpp:157] Top shape: 16 512 14 14 (1605632)
I0526 18:24:05.578035 11150 net.cpp:165] Memory required for data: 1987772480
I0526 18:24:05.578057 11150 layer_factory.hpp:77] Creating layer ReLU5_3
I0526 18:24:05.578079 11150 net.cpp:106] Creating Layer ReLU5_3
I0526 18:24:05.578099 11150 net.cpp:454] ReLU5_3 <- conv5_3
I0526 18:24:05.578117 11150 net.cpp:397] ReLU5_3 -> conv5_3 (in-place)
I0526 18:24:05.578292 11150 net.cpp:150] Setting up ReLU5_3
I0526 18:24:05.578333 11150 net.cpp:157] Top shape: 16 512 14 14 (1605632)
I0526 18:24:05.578351 11150 net.cpp:165] Memory required for data: 1994195008
I0526 18:24:05.578368 11150 layer_factory.hpp:77] Creating layer conv5_4
I0526 18:24:05.578392 11150 net.cpp:106] Creating Layer conv5_4
I0526 18:24:05.578410 11150 net.cpp:454] conv5_4 <- conv5_3
I0526 18:24:05.578428 11150 net.cpp:411] conv5_4 -> conv5_4
I0526 18:24:05.584686 11150 net.cpp:150] Setting up conv5_4
I0526 18:24:05.584725 11150 net.cpp:157] Top shape: 16 512 14 14 (1605632)
I0526 18:24:05.584744 11150 net.cpp:165] Memory required for data: 2000617536
I0526 18:24:05.584764 11150 layer_factory.hpp:77] Creating layer ReLU5_4
I0526 18:24:05.584784 11150 net.cpp:106] Creating Layer ReLU5_4
I0526 18:24:05.584841 11150 net.cpp:454] ReLU5_4 <- conv5_4
I0526 18:24:05.584861 11150 net.cpp:397] ReLU5_4 -> conv5_4 (in-place)
I0526 18:24:05.585032 11150 net.cpp:150] Setting up ReLU5_4
I0526 18:24:05.585062 11150 net.cpp:157] Top shape: 16 512 14 14 (1605632)
I0526 18:24:05.585078 11150 net.cpp:165] Memory required for data: 2007040064
I0526 18:24:05.585093 11150 layer_factory.hpp:77] Creating layer pool5
I0526 18:24:05.585113 11150 net.cpp:106] Creating Layer pool5
I0526 18:24:05.585129 11150 net.cpp:454] pool5 <- conv5_4
I0526 18:24:05.585147 11150 net.cpp:411] pool5 -> pool5
I0526 18:24:05.585206 11150 net.cpp:150] Setting up pool5
I0526 18:24:05.585232 11150 net.cpp:157] Top shape: 16 512 7 7 (401408)
I0526 18:24:05.585247 11150 net.cpp:165] Memory required for data: 2008645696
I0526 18:24:05.585263 11150 layer_factory.hpp:77] Creating layer fc6
I0526 18:24:05.585283 11150 net.cpp:106] Creating Layer fc6
I0526 18:24:05.585300 11150 net.cpp:454] fc6 <- pool5
I0526 18:24:05.585319 11150 net.cpp:411] fc6 -> fc6
I0526 18:24:05.804602 11150 net.cpp:150] Setting up fc6
I0526 18:24:05.804688 11150 net.cpp:157] Top shape: 16 4096 (65536)
I0526 18:24:05.804708 11150 net.cpp:165] Memory required for data: 2008907840
I0526 18:24:05.804741 11150 layer_factory.hpp:77] Creating layer ReLU6
I0526 18:24:05.804769 11150 net.cpp:106] Creating Layer ReLU6
I0526 18:24:05.804787 11150 net.cpp:454] ReLU6 <- fc6
I0526 18:24:05.804806 11150 net.cpp:397] ReLU6 -> fc6 (in-place)
I0526 18:24:05.805245 11150 net.cpp:150] Setting up ReLU6
I0526 18:24:05.805279 11150 net.cpp:157] Top shape: 16 4096 (65536)
I0526 18:24:05.805295 11150 net.cpp:165] Memory required for data: 2009169984
I0526 18:24:05.805311 11150 layer_factory.hpp:77] Creating layer drop6
I0526 18:24:05.805333 11150 net.cpp:106] Creating Layer drop6
I0526 18:24:05.805351 11150 net.cpp:454] drop6 <- fc6
I0526 18:24:05.805371 11150 net.cpp:397] drop6 -> fc6 (in-place)
I0526 18:24:05.805424 11150 net.cpp:150] Setting up drop6
I0526 18:24:05.805449 11150 net.cpp:157] Top shape: 16 4096 (65536)
I0526 18:24:05.805467 11150 net.cpp:165] Memory required for data: 2009432128
I0526 18:24:05.805482 11150 layer_factory.hpp:77] Creating layer fc7
I0526 18:24:05.805501 11150 net.cpp:106] Creating Layer fc7
I0526 18:24:05.805518 11150 net.cpp:454] fc7 <- fc6
I0526 18:24:05.805536 11150 net.cpp:411] fc7 -> fc7
I0526 18:24:05.843421 11150 net.cpp:150] Setting up fc7
I0526 18:24:05.843511 11150 net.cpp:157] Top shape: 16 4096 (65536)
I0526 18:24:05.843529 11150 net.cpp:165] Memory required for data: 2009694272
I0526 18:24:05.843552 11150 layer_factory.hpp:77] Creating layer ReLU7
I0526 18:24:05.843580 11150 net.cpp:106] Creating Layer ReLU7
I0526 18:24:05.843598 11150 net.cpp:454] ReLU7 <- fc7
I0526 18:24:05.843618 11150 net.cpp:397] ReLU7 -> fc7 (in-place)
I0526 18:24:05.844058 11150 net.cpp:150] Setting up ReLU7
I0526 18:24:05.844091 11150 net.cpp:157] Top shape: 16 4096 (65536)
I0526 18:24:05.844110 11150 net.cpp:165] Memory required for data: 2009956416
I0526 18:24:05.844125 11150 layer_factory.hpp:77] Creating layer drop7
I0526 18:24:05.844147 11150 net.cpp:106] Creating Layer drop7
I0526 18:24:05.844166 11150 net.cpp:454] drop7 <- fc7
I0526 18:24:05.844182 11150 net.cpp:397] drop7 -> fc7 (in-place)
I0526 18:24:05.844228 11150 net.cpp:150] Setting up drop7
I0526 18:24:05.844252 11150 net.cpp:157] Top shape: 16 4096 (65536)
I0526 18:24:05.844269 11150 net.cpp:165] Memory required for data: 2010218560
I0526 18:24:05.844283 11150 layer_factory.hpp:77] Creating layer fc8_foodCAT_500
I0526 18:24:05.844302 11150 net.cpp:106] Creating Layer fc8_foodCAT_500
I0526 18:24:05.844318 11150 net.cpp:454] fc8_foodCAT_500 <- fc7
I0526 18:24:05.844339 11150 net.cpp:411] fc8_foodCAT_500 -> fc8_foodCAT_500
I0526 18:24:05.846541 11150 net.cpp:150] Setting up fc8_foodCAT_500
I0526 18:24:05.846575 11150 net.cpp:157] Top shape: 16 216 (3456)
I0526 18:24:05.846591 11150 net.cpp:165] Memory required for data: 2010232384
I0526 18:24:05.846611 11150 layer_factory.hpp:77] Creating layer loss
I0526 18:24:05.846657 11150 net.cpp:106] Creating Layer loss
I0526 18:24:05.846698 11150 net.cpp:454] loss <- fc8_foodCAT_500
I0526 18:24:05.846714 11150 net.cpp:454] loss <- label
I0526 18:24:05.846735 11150 net.cpp:411] loss -> loss/loss
…
I0526 18:24:05.848942 11150 net.cpp:322] The NetState phase (1) differed from the phase (0) specified by a rule in layer data
I0526 18:24:05.849201 11150 net.cpp:49] Initializing net from parameters: 
name: "foodCAT_VGG_ILSVRC_19_layer"
state {
  phase: TEST
}
layer {
  name: "data"
  type: "ImageData"
  top: "data"
  top: "label"
  include {
    phase: TEST
  }
  transform_param {
    mirror: false
    crop_size: 224
    mean_value: 104
    mean_value: 117
    mean_value: 123
  }
  image_data_param {
    source: "foodCAT_500/val.txt"
    batch_size: 16
    shuffle: true
    new_height: 256
    new_width: 256
  }
}
layer {
  name: "conv1_1"
  type: "Convolution"
  bottom: "data"
  top: "conv1_1"
  convolution_param {
    num_output: 64
    pad: 1
    kernel_size: 3
  }
}
layer {
  name: "ReLU1_1"
  type: "ReLU"
  bottom: "conv1_1"
  top: "conv1_1"
}
layer {
  name: "conv1_2"
  type: "Convolution"
  bottom: "conv1_1"
  top: "conv1_2"
  convolution_param {
    num_output: 64
    pad: 1
    kernel_size: 3
  }
}
layer {
  name: "ReLU1_2"
  type: "ReLU"
  bottom: "conv1_2"
  top: "conv1_2"
}
layer {
  name: "pool1"
  type: "Pooling"
  bottom: "conv1_2"
  top: "pool1"
  pooling_param {
    pool: MAX
    kernel_size: 2
    stride: 2
  }
}
layer {
  name: "conv2_1"
  type: "Convolution"
  bottom: "pool1"
  top: "conv2_1"
  convolution_param {
    num_output: 128
    pad: 1
    kernel_size: 3
  }
}
layer {
  name: "ReLU2_1"
  type: "ReLU"
  bottom: "conv2_1"
  top: "conv2_1"
}
layer {
  name: "conv2_2"
  type: "Convolution"
  bottom: "conv2_1"
  top: "conv2_2"
  convolution_param {
    num_output: 128
    pad: 1
    kernel_size: 3
  }
}
layer {
  name: "ReLU2_2"
  type: "ReLU"
  bottom: "conv2_2"
  top: "conv2_2"
}
layer {
  name: "pool2"
  type: "Pooling"
  bottom: "conv2_2"
  top: "pool2"
  pooling_param {
    pool: MAX
    kernel_size: 2
    stride: 2
  }
}
layer {
  name: "conv3_1"
  type: "Convolution"
  bottom: "pool2"
  top: "conv3_1"
  convolution_param {
    num_output: 256
    pad: 1
    kernel_size: 3
  }
}
layer {
  name: "ReLU3_1"
  type: "ReLU"
  bottom: "conv3_1"
  top: "conv3_1"
}
layer {
  name: "conv3_2"
  type: "Convolution"
  bottom: "conv3_1"
  top: "conv3_2"
  convolution_param {
    num_output: 256
    pad: 1
    kernel_size: 3
  }
}
layer {
  name: "ReLU3_2"
  type: "ReLU"
  bottom: "conv3_2"
  top: "conv3_2"
}
layer {
  name: "conv3_3"
  type: "Convolution"
  bottom: "conv3_2"
  top: "conv3_3"
  convolution_param {
    num_output: 256
    pad: 1
    kernel_size: 3
  }
}
layer {
  name: "ReLU3_3"
  type: "ReLU"
  bottom: "conv3_3"
  top: "conv3_3"
}
layer {
  name: "conv3_4"
  type: "Convolution"
  bottom: "conv3_3"
  top: "conv3_4"
  convolution_param {
    num_output: 256
    pad: 1
    kernel_size: 3
  }
}
layer {
  name: "ReLU3_4"
  type: "ReLU"
  bottom: "conv3_4"
  top: "conv3_4"
}
layer {
  name: "pool3"
  type: "Pooling"
  bottom: "conv3_4"
  top: "pool3"
  pooling_param {
    pool: MAX
    kernel_size: 2
    stride: 2
  }
}
layer {
  name: "conv4_1"
  type: "Convolution"
  bottom: "pool3"
  top: "conv4_1"
  convolution_param {
    num_output: 512
    pad: 1
    kernel_size: 3
  }
}
layer {
  name: "ReLU4_1"
  type: "ReLU"
  bottom: "conv4_1"
  top: "conv4_1"
}
layer {
  name: "conv4_2"
  type: "Convolution"
  bottom: "conv4_1"
  top: "conv4_2"
  convolution_param {
    num_output: 512
    pad: 1
    kernel_size: 3
  }
}
layer {
  name: "ReLU4_2"
  type: "ReLU"
  bottom: "conv4_2"
  top: "conv4_2"
}
layer {
  name: "conv4_3"
  type: "Convolution"
  bottom: "conv4_2"
  top: "conv4_3"
  convolution_param {
    num_output: 512
    pad: 1
    kernel_size: 3
  }
}
layer {
  name: "ReLU4_3"
  type: "ReLU"
  bottom: "conv4_3"
  top: "conv4_3"
}
layer {
  name: "conv4_4"
  type: "Convolution"
  bottom: "conv4_3"
  top: "conv4_4"
  convolution_param {
    num_output: 512
    pad: 1
    kernel_size: 3
  }
}
layer {
  name: "ReLU4_4"
  type: "ReLU"
  bottom: "conv4_4"
  top: "conv4_4"
}
layer {
  name: "pool4"
  type: "Pooling"
  bottom: "conv4_4"
  top: "pool4"
  pooling_param {
    pool: MAX
    kernel_size: 2
    stride: 2
  }
}
layer {
  name: "conv5_1"
  type: "Convolution"
  bottom: "pool4"
  top: "conv5_1"
  convolution_param {
    num_output: 512
    pad: 1
    kernel_size: 3
  }
}
layer {
  name: "ReLU5_1"
  type: "ReLU"
  bottom: "conv5_1"
  top: "conv5_1"
}
layer {
  name: "conv5_2"
  type: "Convolution"
  bottom: "conv5_1"
  top: "conv5_2"
  convolution_param {
    num_output: 512
    pad: 1
    kernel_size: 3
  }
}
layer {
  name: "ReLU5_2"
  type: "ReLU"
  bottom: "conv5_2"
  top: "conv5_2"
}
layer {
  name: "conv5_3"
  type: "Convolution"
  bottom: "conv5_2"
  top: "conv5_3"
  convolution_param {
    num_output: 512
    pad: 1
    kernel_size: 3
  }
}
layer {
  name: "ReLU5_3"
  type: "ReLU"
  bottom: "conv5_3"
  top: "conv5_3"
}
layer {
  name: "conv5_4"
  type: "Convolution"
  bottom: "conv5_3"
  top: "conv5_4"
  convolution_param {
    num_output: 512
    pad: 1
    kernel_size: 3
  }
}
layer {
  name: "ReLU5_4"
  type: "ReLU"
  bottom: "conv5_4"
  top: "conv5_4"
}
layer {
  name: "pool5"
  type: "Pooling"
  bottom: "conv5_4"
  top: "pool5"
  pooling_param {
    pool: MAX
    kernel_size: 2
    stride: 2
  }
}
layer {
  name: "fc6"
  type: "InnerProduct"
  bottom: "pool5"
  top: "fc6"
  inner_product_param {
    num_output: 4096
  }
}
layer {
  name: "ReLU6"
  type: "ReLU"
  bottom: "fc6"
  top: "fc6"
}
layer {
  name: "drop6"
  type: "Dropout"
  bottom: "fc6"
  top: "fc6"
  dropout_param {
    dropout_ratio: 0.5
  }
}
layer {
  name: "fc7"
  type: "InnerProduct"
  bottom: "fc6"
  top: "fc7"
  inner_product_param {
    num_output: 4096
  }
}
layer {
  name: "ReLU7"
  type: "ReLU"
  bottom: "fc7"
  top: "fc7"
}
layer {
  name: "drop7"
  type: "Dropout"
  bottom: "fc7"
  top: "fc7"
  dropout_param {
    dropout_ratio: 0.5
  }
}
layer {
  name: "fc8_foodCAT_500"
  type: "InnerProduct"
  bottom: "fc7"
  top: "fc8_foodCAT_500"
  inner_product_param {
    num_output: 216
  }
}
layer {
  name: "loss"
  type: "SoftmaxWithLoss"
  bottom: "fc8_foodCAT_500"
  bottom: "label"
  top: "loss/loss"
}
layer {
  name: "accuracy/top1"
  type: "Accuracy"
  bottom: "fc8_foodCAT_500"
  bottom: "label"
  top: "accuracy@1"
  include {
    phase: TEST
  }
  accuracy_param {
    top_k: 1
  }
}
layer {
  name: "accuracy/top5"
  type: "Accuracy"
  bottom: "fc8_foodCAT_500"
  bottom: "label"
  top: "accuracy@5"
  include {
    phase: TEST
  }
  accuracy_param {
    top_k: 5
  }
}
I0526 18:24:05.849385 11150 layer_factory.hpp:77] Creating layer data
I0526 18:24:05.849424 11150 net.cpp:106] Creating Layer data
I0526 18:24:05.849445 11150 net.cpp:411] data -> data
I0526 18:24:05.849468 11150 net.cpp:411] data -> label
I0526 18:24:05.849493 11150 image_data_layer.cpp:38] Opening file foodCAT_500/val.txt
I0526 18:24:05.853760 11150 image_data_layer.cpp:48] Shuffling data
I0526 18:24:05.854301 11150 image_data_layer.cpp:53] A total of 9143 images.
I0526 18:24:05.856528 11150 image_data_layer.cpp:80] output data size: 16,3,224,224
I0526 18:24:05.873409 11150 net.cpp:150] Setting up data
I0526 18:24:05.873467 11150 net.cpp:157] Top shape: 16 3 224 224 (2408448)
I0526 18:24:05.873492 11150 net.cpp:157] Top shape: 16 (16)
I0526 18:24:05.873509 11150 net.cpp:165] Memory required for data: 9633856
I0526 18:24:05.873527 11150 layer_factory.hpp:77] Creating layer label_data_1_split
I0526 18:24:05.873549 11150 net.cpp:106] Creating Layer label_data_1_split
I0526 18:24:05.873569 11150 net.cpp:454] label_data_1_split <- label
I0526 18:24:05.873587 11150 net.cpp:411] label_data_1_split -> label_data_1_split_0
I0526 18:24:05.873610 11150 net.cpp:411] label_data_1_split -> label_data_1_split_1
I0526 18:24:05.873631 11150 net.cpp:411] label_data_1_split -> label_data_1_split_2
I0526 18:24:05.873700 11150 net.cpp:150] Setting up label_data_1_split
I0526 18:24:05.873736 11150 net.cpp:157] Top shape: 16 (16)
I0526 18:24:05.873769 11150 net.cpp:157] Top shape: 16 (16)
I0526 18:24:05.873786 11150 net.cpp:157] Top shape: 16 (16)
I0526 18:24:05.873803 11150 net.cpp:165] Memory required for data: 9634048
I0526 18:24:05.873819 11150 layer_factory.hpp:77] Creating layer conv1_1
I0526 18:24:05.873842 11150 net.cpp:106] Creating Layer conv1_1
I0526 18:24:05.873859 11150 net.cpp:454] conv1_1 <- data
I0526 18:24:05.873878 11150 net.cpp:411] conv1_1 -> conv1_1
I0526 18:24:05.875113 11150 net.cpp:150] Setting up conv1_1
I0526 18:24:05.875175 11150 net.cpp:157] Top shape: 16 64 224 224 (51380224)
I0526 18:24:05.875196 11150 net.cpp:165] Memory required for data: 215154944
I0526 18:24:05.875223 11150 layer_factory.hpp:77] Creating layer ReLU1_1
I0526 18:24:05.875264 11150 net.cpp:106] Creating Layer ReLU1_1
I0526 18:24:05.875296 11150 net.cpp:454] ReLU1_1 <- conv1_1
I0526 18:24:05.875339 11150 net.cpp:397] ReLU1_1 -> conv1_1 (in-place)
I0526 18:24:05.875526 11150 net.cpp:150] Setting up ReLU1_1
I0526 18:24:05.875556 11150 net.cpp:157] Top shape: 16 64 224 224 (51380224)
I0526 18:24:05.875573 11150 net.cpp:165] Memory required for data: 420675840
I0526 18:24:05.875591 11150 layer_factory.hpp:77] Creating layer conv1_2
I0526 18:24:05.875612 11150 net.cpp:106] Creating Layer conv1_2
I0526 18:24:05.875629 11150 net.cpp:454] conv1_2 <- conv1_1
I0526 18:24:05.875648 11150 net.cpp:411] conv1_2 -> conv1_2
I0526 18:24:05.878278 11150 net.cpp:150] Setting up conv1_2
I0526 18:24:05.878330 11150 net.cpp:157] Top shape: 16 64 224 224 (51380224)
I0526 18:24:05.878350 11150 net.cpp:165] Memory required for data: 626196736
I0526 18:24:05.878386 11150 layer_factory.hpp:77] Creating layer ReLU1_2
I0526 18:24:05.878417 11150 net.cpp:106] Creating Layer ReLU1_2
I0526 18:24:05.878435 11150 net.cpp:454] ReLU1_2 <- conv1_2
I0526 18:24:05.878456 11150 net.cpp:397] ReLU1_2 -> conv1_2 (in-place)
I0526 18:24:05.878756 11150 net.cpp:150] Setting up ReLU1_2
I0526 18:24:05.878803 11150 net.cpp:157] Top shape: 16 64 224 224 (51380224)
I0526 18:24:05.878823 11150 net.cpp:165] Memory required for data: 831717632
I0526 18:24:05.878841 11150 layer_factory.hpp:77] Creating layer pool1
I0526 18:24:05.878875 11150 net.cpp:106] Creating Layer pool1
I0526 18:24:05.878895 11150 net.cpp:454] pool1 <- conv1_2
I0526 18:24:05.878927 11150 net.cpp:411] pool1 -> pool1
I0526 18:24:05.879019 11150 net.cpp:150] Setting up pool1
I0526 18:24:05.879055 11150 net.cpp:157] Top shape: 16 64 112 112 (12845056)
I0526 18:24:05.879071 11150 net.cpp:165] Memory required for data: 883097856
I0526 18:24:05.879087 11150 layer_factory.hpp:77] Creating layer conv2_1
I0526 18:24:05.879111 11150 net.cpp:106] Creating Layer conv2_1
I0526 18:24:05.879128 11150 net.cpp:454] conv2_1 <- pool1
I0526 18:24:05.879147 11150 net.cpp:411] conv2_1 -> conv2_1
I0526 18:24:05.880915 11150 net.cpp:150] Setting up conv2_1
I0526 18:24:05.880990 11150 net.cpp:157] Top shape: 16 128 112 112 (25690112)
I0526 18:24:05.881033 11150 net.cpp:165] Memory required for data: 985858304
I0526 18:24:05.881057 11150 layer_factory.hpp:77] Creating layer ReLU2_1
I0526 18:24:05.881106 11150 net.cpp:106] Creating Layer ReLU2_1
I0526 18:24:05.881129 11150 net.cpp:454] ReLU2_1 <- conv2_1
I0526 18:24:05.881148 11150 net.cpp:397] ReLU2_1 -> conv2_1 (in-place)
I0526 18:24:05.881363 11150 net.cpp:150] Setting up ReLU2_1
I0526 18:24:05.881395 11150 net.cpp:157] Top shape: 16 128 112 112 (25690112)
I0526 18:24:05.881428 11150 net.cpp:165] Memory required for data: 1088618752
I0526 18:24:05.881445 11150 layer_factory.hpp:77] Creating layer conv2_2
I0526 18:24:05.881469 11150 net.cpp:106] Creating Layer conv2_2
I0526 18:24:05.881489 11150 net.cpp:454] conv2_2 <- conv2_1
I0526 18:24:05.881511 11150 net.cpp:411] conv2_2 -> conv2_2
I0526 18:24:05.882570 11150 net.cpp:150] Setting up conv2_2
I0526 18:24:05.882607 11150 net.cpp:157] Top shape: 16 128 112 112 (25690112)
I0526 18:24:05.882627 11150 net.cpp:165] Memory required for data: 1191379200
I0526 18:24:05.882647 11150 layer_factory.hpp:77] Creating layer ReLU2_2
I0526 18:24:05.882680 11150 net.cpp:106] Creating Layer ReLU2_2
I0526 18:24:05.882714 11150 net.cpp:454] ReLU2_2 <- conv2_2
I0526 18:24:05.882736 11150 net.cpp:397] ReLU2_2 -> conv2_2 (in-place)
I0526 18:24:05.882923 11150 net.cpp:150] Setting up ReLU2_2
I0526 18:24:05.882956 11150 net.cpp:157] Top shape: 16 128 112 112 (25690112)
I0526 18:24:05.882992 11150 net.cpp:165] Memory required for data: 1294139648
I0526 18:24:05.883009 11150 layer_factory.hpp:77] Creating layer pool2
I0526 18:24:05.883051 11150 net.cpp:106] Creating Layer pool2
I0526 18:24:05.883069 11150 net.cpp:454] pool2 <- conv2_2
I0526 18:24:05.883087 11150 net.cpp:411] pool2 -> pool2
I0526 18:24:05.883152 11150 net.cpp:150] Setting up pool2
I0526 18:24:05.883177 11150 net.cpp:157] Top shape: 16 128 56 56 (6422528)
I0526 18:24:05.883193 11150 net.cpp:165] Memory required for data: 1319829760
I0526 18:24:05.883208 11150 layer_factory.hpp:77] Creating layer conv3_1
I0526 18:24:05.883231 11150 net.cpp:106] Creating Layer conv3_1
I0526 18:24:05.883250 11150 net.cpp:454] conv3_1 <- pool2
I0526 18:24:05.883270 11150 net.cpp:411] conv3_1 -> conv3_1
I0526 18:24:05.884977 11150 net.cpp:150] Setting up conv3_1
I0526 18:24:05.885040 11150 net.cpp:157] Top shape: 16 256 56 56 (12845056)
I0526 18:24:05.885062 11150 net.cpp:165] Memory required for data: 1371209984
I0526 18:24:05.885097 11150 layer_factory.hpp:77] Creating layer ReLU3_1
I0526 18:24:05.885118 11150 net.cpp:106] Creating Layer ReLU3_1
I0526 18:24:05.885136 11150 net.cpp:454] ReLU3_1 <- conv3_1
I0526 18:24:05.885155 11150 net.cpp:397] ReLU3_1 -> conv3_1 (in-place)
I0526 18:24:05.885435 11150 net.cpp:150] Setting up ReLU3_1
I0526 18:24:05.885471 11150 net.cpp:157] Top shape: 16 256 56 56 (12845056)
I0526 18:24:05.885489 11150 net.cpp:165] Memory required for data: 1422590208
I0526 18:24:05.885506 11150 layer_factory.hpp:77] Creating layer conv3_2
I0526 18:24:05.885527 11150 net.cpp:106] Creating Layer conv3_2
I0526 18:24:05.885545 11150 net.cpp:454] conv3_2 <- conv3_1
I0526 18:24:05.885568 11150 net.cpp:411] conv3_2 -> conv3_2
I0526 18:24:05.888121 11150 net.cpp:150] Setting up conv3_2
I0526 18:24:05.888159 11150 net.cpp:157] Top shape: 16 256 56 56 (12845056)
I0526 18:24:05.888178 11150 net.cpp:165] Memory required for data: 1473970432
I0526 18:24:05.888200 11150 layer_factory.hpp:77] Creating layer ReLU3_2
I0526 18:24:05.888219 11150 net.cpp:106] Creating Layer ReLU3_2
I0526 18:24:05.888237 11150 net.cpp:454] ReLU3_2 <- conv3_2
I0526 18:24:05.888258 11150 net.cpp:397] ReLU3_2 -> conv3_2 (in-place)
I0526 18:24:05.888434 11150 net.cpp:150] Setting up ReLU3_2
I0526 18:24:05.888466 11150 net.cpp:157] Top shape: 16 256 56 56 (12845056)
I0526 18:24:05.888484 11150 net.cpp:165] Memory required for data: 1525350656
I0526 18:24:05.888501 11150 layer_factory.hpp:77] Creating layer conv3_3
I0526 18:24:05.888522 11150 net.cpp:106] Creating Layer conv3_3
I0526 18:24:05.888541 11150 net.cpp:454] conv3_3 <- conv3_2
I0526 18:24:05.888564 11150 net.cpp:411] conv3_3 -> conv3_3
I0526 18:24:05.891187 11150 net.cpp:150] Setting up conv3_3
I0526 18:24:05.891225 11150 net.cpp:157] Top shape: 16 256 56 56 (12845056)
I0526 18:24:05.891244 11150 net.cpp:165] Memory required for data: 1576730880
I0526 18:24:05.891264 11150 layer_factory.hpp:77] Creating layer ReLU3_3
I0526 18:24:05.891286 11150 net.cpp:106] Creating Layer ReLU3_3
I0526 18:24:05.891305 11150 net.cpp:454] ReLU3_3 <- conv3_3
I0526 18:24:05.891324 11150 net.cpp:397] ReLU3_3 -> conv3_3 (in-place)
I0526 18:24:05.891505 11150 net.cpp:150] Setting up ReLU3_3
I0526 18:24:05.891535 11150 net.cpp:157] Top shape: 16 256 56 56 (12845056)
I0526 18:24:05.891551 11150 net.cpp:165] Memory required for data: 1628111104
I0526 18:24:05.891568 11150 layer_factory.hpp:77] Creating layer conv3_4
I0526 18:24:05.891589 11150 net.cpp:106] Creating Layer conv3_4
I0526 18:24:05.891608 11150 net.cpp:454] conv3_4 <- conv3_3
I0526 18:24:05.891628 11150 net.cpp:411] conv3_4 -> conv3_4
I0526 18:24:05.894199 11150 net.cpp:150] Setting up conv3_4
I0526 18:24:05.894249 11150 net.cpp:157] Top shape: 16 256 56 56 (12845056)
I0526 18:24:05.894281 11150 net.cpp:165] Memory required for data: 1679491328
I0526 18:24:05.894302 11150 layer_factory.hpp:77] Creating layer ReLU3_4
I0526 18:24:05.894323 11150 net.cpp:106] Creating Layer ReLU3_4
I0526 18:24:05.894341 11150 net.cpp:454] ReLU3_4 <- conv3_4
I0526 18:24:05.894362 11150 net.cpp:397] ReLU3_4 -> conv3_4 (in-place)
I0526 18:24:05.894688 11150 net.cpp:150] Setting up ReLU3_4
I0526 18:24:05.894744 11150 net.cpp:157] Top shape: 16 256 56 56 (12845056)
I0526 18:24:05.894763 11150 net.cpp:165] Memory required for data: 1730871552
I0526 18:24:05.894781 11150 layer_factory.hpp:77] Creating layer pool3
I0526 18:24:05.894810 11150 net.cpp:106] Creating Layer pool3
I0526 18:24:05.894840 11150 net.cpp:454] pool3 <- conv3_4
I0526 18:24:05.894863 11150 net.cpp:411] pool3 -> pool3
I0526 18:24:05.894956 11150 net.cpp:150] Setting up pool3
I0526 18:24:05.895011 11150 net.cpp:157] Top shape: 16 256 28 28 (3211264)
I0526 18:24:05.895042 11150 net.cpp:165] Memory required for data: 1743716608
I0526 18:24:05.895069 11150 layer_factory.hpp:77] Creating layer conv4_1
I0526 18:24:05.895089 11150 net.cpp:106] Creating Layer conv4_1
I0526 18:24:05.895118 11150 net.cpp:454] conv4_1 <- pool3
I0526 18:24:05.895141 11150 net.cpp:411] conv4_1 -> conv4_1
I0526 18:24:05.899126 11150 net.cpp:150] Setting up conv4_1
I0526 18:24:05.899164 11150 net.cpp:157] Top shape: 16 512 28 28 (6422528)
I0526 18:24:05.899184 11150 net.cpp:165] Memory required for data: 1769406720
I0526 18:24:05.899207 11150 layer_factory.hpp:77] Creating layer ReLU4_1
I0526 18:24:05.899232 11150 net.cpp:106] Creating Layer ReLU4_1
I0526 18:24:05.899251 11150 net.cpp:454] ReLU4_1 <- conv4_1
I0526 18:24:05.899269 11150 net.cpp:397] ReLU4_1 -> conv4_1 (in-place)
I0526 18:24:05.899452 11150 net.cpp:150] Setting up ReLU4_1
I0526 18:24:05.899482 11150 net.cpp:157] Top shape: 16 512 28 28 (6422528)
I0526 18:24:05.899499 11150 net.cpp:165] Memory required for data: 1795096832
I0526 18:24:05.899515 11150 layer_factory.hpp:77] Creating layer conv4_2
I0526 18:24:05.899535 11150 net.cpp:106] Creating Layer conv4_2
I0526 18:24:05.899554 11150 net.cpp:454] conv4_2 <- conv4_1
I0526 18:24:05.899575 11150 net.cpp:411] conv4_2 -> conv4_2
I0526 18:24:05.906496 11150 net.cpp:150] Setting up conv4_2
I0526 18:24:05.906536 11150 net.cpp:157] Top shape: 16 512 28 28 (6422528)
I0526 18:24:05.906556 11150 net.cpp:165] Memory required for data: 1820786944
I0526 18:24:05.906576 11150 layer_factory.hpp:77] Creating layer ReLU4_2
I0526 18:24:05.906597 11150 net.cpp:106] Creating Layer ReLU4_2
I0526 18:24:05.906616 11150 net.cpp:454] ReLU4_2 <- conv4_2
I0526 18:24:05.906635 11150 net.cpp:397] ReLU4_2 -> conv4_2 (in-place)
I0526 18:24:05.906815 11150 net.cpp:150] Setting up ReLU4_2
I0526 18:24:05.906844 11150 net.cpp:157] Top shape: 16 512 28 28 (6422528)
I0526 18:24:05.906862 11150 net.cpp:165] Memory required for data: 1846477056
I0526 18:24:05.906878 11150 layer_factory.hpp:77] Creating layer conv4_3
I0526 18:24:05.906903 11150 net.cpp:106] Creating Layer conv4_3
I0526 18:24:05.906921 11150 net.cpp:454] conv4_3 <- conv4_2
I0526 18:24:05.906940 11150 net.cpp:411] conv4_3 -> conv4_3
I0526 18:24:05.913866 11150 net.cpp:150] Setting up conv4_3
I0526 18:24:05.913904 11150 net.cpp:157] Top shape: 16 512 28 28 (6422528)
I0526 18:24:05.913924 11150 net.cpp:165] Memory required for data: 1872167168
I0526 18:24:05.913945 11150 layer_factory.hpp:77] Creating layer ReLU4_3
I0526 18:24:05.913985 11150 net.cpp:106] Creating Layer ReLU4_3
I0526 18:24:05.914007 11150 net.cpp:454] ReLU4_3 <- conv4_3
I0526 18:24:05.914038 11150 net.cpp:397] ReLU4_3 -> conv4_3 (in-place)
I0526 18:24:05.914346 11150 net.cpp:150] Setting up ReLU4_3
I0526 18:24:05.914394 11150 net.cpp:157] Top shape: 16 512 28 28 (6422528)
I0526 18:24:05.914414 11150 net.cpp:165] Memory required for data: 1897857280
I0526 18:24:05.914433 11150 layer_factory.hpp:77] Creating layer conv4_4
I0526 18:24:05.914468 11150 net.cpp:106] Creating Layer conv4_4
I0526 18:24:05.914487 11150 net.cpp:454] conv4_4 <- conv4_3
I0526 18:24:05.914536 11150 net.cpp:411] conv4_4 -> conv4_4
I0526 18:24:05.921440 11150 net.cpp:150] Setting up conv4_4
I0526 18:24:05.921480 11150 net.cpp:157] Top shape: 16 512 28 28 (6422528)
I0526 18:24:05.921500 11150 net.cpp:165] Memory required for data: 1923547392
I0526 18:24:05.921521 11150 layer_factory.hpp:77] Creating layer ReLU4_4
I0526 18:24:05.921545 11150 net.cpp:106] Creating Layer ReLU4_4
I0526 18:24:05.921564 11150 net.cpp:454] ReLU4_4 <- conv4_4
I0526 18:24:05.921584 11150 net.cpp:397] ReLU4_4 -> conv4_4 (in-place)
I0526 18:24:05.921787 11150 net.cpp:150] Setting up ReLU4_4
I0526 18:24:05.921820 11150 net.cpp:157] Top shape: 16 512 28 28 (6422528)
I0526 18:24:05.921838 11150 net.cpp:165] Memory required for data: 1949237504
I0526 18:24:05.921869 11150 layer_factory.hpp:77] Creating layer pool4
I0526 18:24:05.921890 11150 net.cpp:106] Creating Layer pool4
I0526 18:24:05.921907 11150 net.cpp:454] pool4 <- conv4_4
I0526 18:24:05.921933 11150 net.cpp:411] pool4 -> pool4
I0526 18:24:05.922037 11150 net.cpp:150] Setting up pool4
I0526 18:24:05.922075 11150 net.cpp:157] Top shape: 16 512 14 14 (1605632)
I0526 18:24:05.922106 11150 net.cpp:165] Memory required for data: 1955660032
I0526 18:24:05.922124 11150 layer_factory.hpp:77] Creating layer conv5_1
I0526 18:24:05.922150 11150 net.cpp:106] Creating Layer conv5_1
I0526 18:24:05.922171 11150 net.cpp:454] conv5_1 <- pool4
I0526 18:24:05.922206 11150 net.cpp:411] conv5_1 -> conv5_1
I0526 18:24:05.929383 11150 net.cpp:150] Setting up conv5_1
I0526 18:24:05.929435 11150 net.cpp:157] Top shape: 16 512 14 14 (1605632)
I0526 18:24:05.929466 11150 net.cpp:165] Memory required for data: 1962082560
I0526 18:24:05.929489 11150 layer_factory.hpp:77] Creating layer ReLU5_1
I0526 18:24:05.929512 11150 net.cpp:106] Creating Layer ReLU5_1
I0526 18:24:05.929536 11150 net.cpp:454] ReLU5_1 <- conv5_1
I0526 18:24:05.929579 11150 net.cpp:397] ReLU5_1 -> conv5_1 (in-place)
I0526 18:24:05.929798 11150 net.cpp:150] Setting up ReLU5_1
I0526 18:24:05.929831 11150 net.cpp:157] Top shape: 16 512 14 14 (1605632)
I0526 18:24:05.929848 11150 net.cpp:165] Memory required for data: 1968505088
I0526 18:24:05.929865 11150 layer_factory.hpp:77] Creating layer conv5_2
I0526 18:24:05.929893 11150 net.cpp:106] Creating Layer conv5_2
I0526 18:24:05.929913 11150 net.cpp:454] conv5_2 <- conv5_1
I0526 18:24:05.929934 11150 net.cpp:411] conv5_2 -> conv5_2
I0526 18:24:05.937657 11150 net.cpp:150] Setting up conv5_2
I0526 18:24:05.937697 11150 net.cpp:157] Top shape: 16 512 14 14 (1605632)
I0526 18:24:05.937717 11150 net.cpp:165] Memory required for data: 1974927616
I0526 18:24:05.937738 11150 layer_factory.hpp:77] Creating layer ReLU5_2
I0526 18:24:05.937760 11150 net.cpp:106] Creating Layer ReLU5_2
I0526 18:24:05.937779 11150 net.cpp:454] ReLU5_2 <- conv5_2
I0526 18:24:05.937798 11150 net.cpp:397] ReLU5_2 -> conv5_2 (in-place)
I0526 18:24:05.938130 11150 net.cpp:150] Setting up ReLU5_2
I0526 18:24:05.938165 11150 net.cpp:157] Top shape: 16 512 14 14 (1605632)
I0526 18:24:05.938184 11150 net.cpp:165] Memory required for data: 1981350144
I0526 18:24:05.938201 11150 layer_factory.hpp:77] Creating layer conv5_3
I0526 18:24:05.938227 11150 net.cpp:106] Creating Layer conv5_3
I0526 18:24:05.938247 11150 net.cpp:454] conv5_3 <- conv5_2
I0526 18:24:05.938267 11150 net.cpp:411] conv5_3 -> conv5_3
I0526 18:24:05.945413 11150 net.cpp:150] Setting up conv5_3
I0526 18:24:05.945453 11150 net.cpp:157] Top shape: 16 512 14 14 (1605632)
I0526 18:24:05.945473 11150 net.cpp:165] Memory required for data: 1987772672
I0526 18:24:05.945494 11150 layer_factory.hpp:77] Creating layer ReLU5_3
I0526 18:24:05.945515 11150 net.cpp:106] Creating Layer ReLU5_3
I0526 18:24:05.945533 11150 net.cpp:454] ReLU5_3 <- conv5_3
I0526 18:24:05.945554 11150 net.cpp:397] ReLU5_3 -> conv5_3 (in-place)
I0526 18:24:05.945750 11150 net.cpp:150] Setting up ReLU5_3
I0526 18:24:05.945780 11150 net.cpp:157] Top shape: 16 512 14 14 (1605632)
I0526 18:24:05.945797 11150 net.cpp:165] Memory required for data: 1994195200
I0526 18:24:05.945830 11150 layer_factory.hpp:77] Creating layer conv5_4
I0526 18:24:05.945879 11150 net.cpp:106] Creating Layer conv5_4
I0526 18:24:05.945900 11150 net.cpp:454] conv5_4 <- conv5_3
I0526 18:24:05.945919 11150 net.cpp:411] conv5_4 -> conv5_4
I0526 18:24:05.952625 11150 net.cpp:150] Setting up conv5_4
I0526 18:24:05.952664 11150 net.cpp:157] Top shape: 16 512 14 14 (1605632)
I0526 18:24:05.952684 11150 net.cpp:165] Memory required for data: 2000617728
I0526 18:24:05.952704 11150 layer_factory.hpp:77] Creating layer ReLU5_4
I0526 18:24:05.952725 11150 net.cpp:106] Creating Layer ReLU5_4
I0526 18:24:05.952744 11150 net.cpp:454] ReLU5_4 <- conv5_4
I0526 18:24:05.952762 11150 net.cpp:397] ReLU5_4 -> conv5_4 (in-place)
I0526 18:24:05.952944 11150 net.cpp:150] Setting up ReLU5_4
I0526 18:24:05.952992 11150 net.cpp:157] Top shape: 16 512 14 14 (1605632)
I0526 18:24:05.953011 11150 net.cpp:165] Memory required for data: 2007040256
I0526 18:24:05.953043 11150 layer_factory.hpp:77] Creating layer pool5
I0526 18:24:05.953070 11150 net.cpp:106] Creating Layer pool5
I0526 18:24:05.953090 11150 net.cpp:454] pool5 <- conv5_4
I0526 18:24:05.953109 11150 net.cpp:411] pool5 -> pool5
I0526 18:24:05.953181 11150 net.cpp:150] Setting up pool5
I0526 18:24:05.953207 11150 net.cpp:157] Top shape: 16 512 7 7 (401408)
I0526 18:24:05.953224 11150 net.cpp:165] Memory required for data: 2008645888
I0526 18:24:05.953240 11150 layer_factory.hpp:77] Creating layer fc6
I0526 18:24:05.953260 11150 net.cpp:106] Creating Layer fc6
I0526 18:24:05.953277 11150 net.cpp:454] fc6 <- pool5
I0526 18:24:05.953299 11150 net.cpp:411] fc6 -> fc6
I0526 18:24:06.180348 11150 net.cpp:150] Setting up fc6
I0526 18:24:06.180413 11150 net.cpp:157] Top shape: 16 4096 (65536)
I0526 18:24:06.180434 11150 net.cpp:165] Memory required for data: 2008908032
I0526 18:24:06.180470 11150 layer_factory.hpp:77] Creating layer ReLU6
I0526 18:24:06.180500 11150 net.cpp:106] Creating Layer ReLU6
I0526 18:24:06.180519 11150 net.cpp:454] ReLU6 <- fc6
I0526 18:24:06.180543 11150 net.cpp:397] ReLU6 -> fc6 (in-place)
I0526 18:24:06.181015 11150 net.cpp:150] Setting up ReLU6
I0526 18:24:06.181051 11150 net.cpp:157] Top shape: 16 4096 (65536)
I0526 18:24:06.181071 11150 net.cpp:165] Memory required for data: 2009170176
I0526 18:24:06.181088 11150 layer_factory.hpp:77] Creating layer drop6
I0526 18:24:06.181110 11150 net.cpp:106] Creating Layer drop6
I0526 18:24:06.181130 11150 net.cpp:454] drop6 <- fc6
I0526 18:24:06.181152 11150 net.cpp:397] drop6 -> fc6 (in-place)
I0526 18:24:06.181211 11150 net.cpp:150] Setting up drop6
I0526 18:24:06.181237 11150 net.cpp:157] Top shape: 16 4096 (65536)
I0526 18:24:06.181254 11150 net.cpp:165] Memory required for data: 2009432320
I0526 18:24:06.181272 11150 layer_factory.hpp:77] Creating layer fc7
I0526 18:24:06.181293 11150 net.cpp:106] Creating Layer fc7
I0526 18:24:06.181311 11150 net.cpp:454] fc7 <- fc6
I0526 18:24:06.181331 11150 net.cpp:411] fc7 -> fc7
I0526 18:24:06.221231 11150 net.cpp:150] Setting up fc7
I0526 18:24:06.221295 11150 net.cpp:157] Top shape: 16 4096 (65536)
I0526 18:24:06.221314 11150 net.cpp:165] Memory required for data: 2009694464
I0526 18:24:06.221338 11150 layer_factory.hpp:77] Creating layer ReLU7
I0526 18:24:06.221369 11150 net.cpp:106] Creating Layer ReLU7
I0526 18:24:06.221393 11150 net.cpp:454] ReLU7 <- fc7
I0526 18:24:06.221426 11150 net.cpp:397] ReLU7 -> fc7 (in-place)
I0526 18:24:06.222007 11150 net.cpp:150] Setting up ReLU7
I0526 18:24:06.222054 11150 net.cpp:157] Top shape: 16 4096 (65536)
I0526 18:24:06.222071 11150 net.cpp:165] Memory required for data: 2009956608
I0526 18:24:06.222089 11150 layer_factory.hpp:77] Creating layer drop7
I0526 18:24:06.222110 11150 net.cpp:106] Creating Layer drop7
I0526 18:24:06.222127 11150 net.cpp:454] drop7 <- fc7
I0526 18:24:06.222148 11150 net.cpp:397] drop7 -> fc7 (in-place)
I0526 18:24:06.222203 11150 net.cpp:150] Setting up drop7
I0526 18:24:06.222226 11150 net.cpp:157] Top shape: 16 4096 (65536)
I0526 18:24:06.222244 11150 net.cpp:165] Memory required for data: 2010218752
I0526 18:24:06.222280 11150 layer_factory.hpp:77] Creating layer fc8_foodCAT_500
I0526 18:24:06.222332 11150 net.cpp:106] Creating Layer fc8_foodCAT_500
I0526 18:24:06.222352 11150 net.cpp:454] fc8_foodCAT_500 <- fc7
I0526 18:24:06.222371 11150 net.cpp:411] fc8_foodCAT_500 -> fc8_foodCAT_500
I0526 18:24:06.225086 11150 net.cpp:150] Setting up fc8_foodCAT_500
I0526 18:24:06.225145 11150 net.cpp:157] Top shape: 16 216 (3456)
I0526 18:24:06.225188 11150 net.cpp:165] Memory required for data: 2010232576
I0526 18:24:06.225208 11150 layer_factory.hpp:77] Creating layer fc8_foodCAT_500_fc8_foodCAT_500_0_split
I0526 18:24:06.225230 11150 net.cpp:106] Creating Layer fc8_foodCAT_500_fc8_foodCAT_500_0_split
I0526 18:24:06.225247 11150 net.cpp:454] fc8_foodCAT_500_fc8_foodCAT_500_0_split <- fc8_foodCAT_500
I0526 18:24:06.225266 11150 net.cpp:411] fc8_foodCAT_500_fc8_foodCAT_500_0_split -> fc8_foodCAT_500_fc8_foodCAT_500_0_split_0
I0526 18:24:06.225288 11150 net.cpp:411] fc8_foodCAT_500_fc8_foodCAT_500_0_split -> fc8_foodCAT_500_fc8_foodCAT_500_0_split_1
I0526 18:24:06.225311 11150 net.cpp:411] fc8_foodCAT_500_fc8_foodCAT_500_0_split -> fc8_foodCAT_500_fc8_foodCAT_500_0_split_2
I0526 18:24:06.225386 11150 net.cpp:150] Setting up fc8_foodCAT_500_fc8_foodCAT_500_0_split
I0526 18:24:06.225414 11150 net.cpp:157] Top shape: 16 216 (3456)
I0526 18:24:06.225435 11150 net.cpp:157] Top shape: 16 216 (3456)
I0526 18:24:06.225457 11150 net.cpp:157] Top shape: 16 216 (3456)
I0526 18:24:06.225478 11150 net.cpp:165] Memory required for data: 2010274048
I0526 18:24:06.225500 11150 layer_factory.hpp:77] Creating layer loss
I0526 18:24:06.225522 11150 net.cpp:106] Creating Layer loss
I0526 18:24:06.225538 11150 net.cpp:454] loss <- fc8_foodCAT_500_fc8_foodCAT_500_0_split_0
I0526 18:24:06.225556 11150 net.cpp:454] loss <- label_data_1_split_0
I0526 18:24:06.225575 11150 net.cpp:411] loss -> loss/loss
…
