…
I0430 16:31:12.922300 35900 net.cpp:322] The NetState phase (0) differed from the phase (1) specified by a rule in layer accuracy/top5
I0430 16:31:12.922543 35900 net.cpp:49] Initializing net from parameters: 
name: "foodCAT_VGG_ILSVRC_19_layer"
state {
  phase: TRAIN
}
layer {
  name: "data"
  type: "ImageData"
  top: "data"
  top: "label"
  include {
    phase: TRAIN
  }
  transform_param {
    mirror: true
    crop_size: 224
    mean_value: 104
    mean_value: 117
    mean_value: 123
  }
  image_data_param {
    source: "foodCAT_CLUSTER/train.txt"
    batch_size: 16
    shuffle: true
    new_height: 256
    new_width: 256
  }
}
layer {
  name: "conv1_1"
  type: "Convolution"
  bottom: "data"
  top: "conv1_1"
  convolution_param {
    num_output: 64
    pad: 1
    kernel_size: 3
  }
}
layer {
  name: "ReLU1_1"
  type: "ReLU"
  bottom: "conv1_1"
  top: "conv1_1"
}
layer {
  name: "conv1_2"
  type: "Convolution"
  bottom: "conv1_1"
  top: "conv1_2"
  convolution_param {
    num_output: 64
    pad: 1
    kernel_size: 3
  }
}
layer {
  name: "ReLU1_2"
  type: "ReLU"
  bottom: "conv1_2"
  top: "conv1_2"
}
layer {
  name: "pool1"
  type: "Pooling"
  bottom: "conv1_2"
  top: "pool1"
  pooling_param {
    pool: MAX
    kernel_size: 2
    stride: 2
  }
}
layer {
  name: "conv2_1"
  type: "Convolution"
  bottom: "pool1"
  top: "conv2_1"
  convolution_param {
    num_output: 128
    pad: 1
    kernel_size: 3
  }
}
layer {
  name: "ReLU2_1"
  type: "ReLU"
  bottom: "conv2_1"
  top: "conv2_1"
}
layer {
  name: "conv2_2"
  type: "Convolution"
  bottom: "conv2_1"
  top: "conv2_2"
  convolution_param {
    num_output: 128
    pad: 1
    kernel_size: 3
  }
}
layer {
  name: "ReLU2_2"
  type: "ReLU"
  bottom: "conv2_2"
  top: "conv2_2"
}
layer {
  name: "pool2"
  type: "Pooling"
  bottom: "conv2_2"
  top: "pool2"
  pooling_param {
    pool: MAX
    kernel_size: 2
    stride: 2
  }
}
layer {
  name: "conv3_1"
  type: "Convolution"
  bottom: "pool2"
  top: "conv3_1"
  convolution_param {
    num_output: 256
    pad: 1
    kernel_size: 3
  }
}
layer {
  name: "ReLU3_1"
  type: "ReLU"
  bottom: "conv3_1"
  top: "conv3_1"
}
layer {
  name: "conv3_2"
  type: "Convolution"
  bottom: "conv3_1"
  top: "conv3_2"
  convolution_param {
    num_output: 256
    pad: 1
    kernel_size: 3
  }
}
layer {
  name: "ReLU3_2"
  type: "ReLU"
  bottom: "conv3_2"
  top: "conv3_2"
}
layer {
  name: "conv3_3"
  type: "Convolution"
  bottom: "conv3_2"
  top: "conv3_3"
  convolution_param {
    num_output: 256
    pad: 1
    kernel_size: 3
  }
}
layer {
  name: "ReLU3_3"
  type: "ReLU"
  bottom: "conv3_3"
  top: "conv3_3"
}
layer {
  name: "conv3_4"
  type: "Convolution"
  bottom: "conv3_3"
  top: "conv3_4"
  convolution_param {
    num_output: 256
    pad: 1
    kernel_size: 3
  }
}
layer {
  name: "ReLU3_4"
  type: "ReLU"
  bottom: "conv3_4"
  top: "conv3_4"
}
layer {
  name: "pool3"
  type: "Pooling"
  bottom: "conv3_4"
  top: "pool3"
  pooling_param {
    pool: MAX
    kernel_size: 2
    stride: 2
  }
}
layer {
  name: "conv4_1"
  type: "Convolution"
  bottom: "pool3"
  top: "conv4_1"
  convolution_param {
    num_output: 512
    pad: 1
    kernel_size: 3
  }
}
layer {
  name: "ReLU4_1"
  type: "ReLU"
  bottom: "conv4_1"
  top: "conv4_1"
}
layer {
  name: "conv4_2"
  type: "Convolution"
  bottom: "conv4_1"
  top: "conv4_2"
  convolution_param {
    num_output: 512
    pad: 1
    kernel_size: 3
  }
}
layer {
  name: "ReLU4_2"
  type: "ReLU"
  bottom: "conv4_2"
  top: "conv4_2"
}
layer {
  name: "conv4_3"
  type: "Convolution"
  bottom: "conv4_2"
  top: "conv4_3"
  convolution_param {
    num_output: 512
    pad: 1
    kernel_size: 3
  }
}
layer {
  name: "ReLU4_3"
  type: "ReLU"
  bottom: "conv4_3"
  top: "conv4_3"
}
layer {
  name: "conv4_4"
  type: "Convolution"
  bottom: "conv4_3"
  top: "conv4_4"
  convolution_param {
    num_output: 512
    pad: 1
    kernel_size: 3
  }
}
layer {
  name: "ReLU4_4"
  type: "ReLU"
  bottom: "conv4_4"
  top: "conv4_4"
}
layer {
  name: "pool4"
  type: "Pooling"
  bottom: "conv4_4"
  top: "pool4"
  pooling_param {
    pool: MAX
    kernel_size: 2
    stride: 2
  }
}
layer {
  name: "conv5_1"
  type: "Convolution"
  bottom: "pool4"
  top: "conv5_1"
  convolution_param {
    num_output: 512
    pad: 1
    kernel_size: 3
  }
}
layer {
  name: "ReLU5_1"
  type: "ReLU"
  bottom: "conv5_1"
  top: "conv5_1"
}
layer {
  name: "conv5_2"
  type: "Convolution"
  bottom: "conv5_1"
  top: "conv5_2"
  convolution_param {
    num_output: 512
    pad: 1
    kernel_size: 3
  }
}
layer {
  name: "ReLU5_2"
  type: "ReLU"
  bottom: "conv5_2"
  top: "conv5_2"
}
layer {
  name: "conv5_3"
  type: "Convolution"
  bottom: "conv5_2"
  top: "conv5_3"
  convolution_param {
    num_output: 512
    pad: 1
    kernel_size: 3
  }
}
layer {
  name: "ReLU5_3"
  type: "ReLU"
  bottom: "conv5_3"
  top: "conv5_3"
}
layer {
  name: "conv5_4"
  type: "Convolution"
  bottom: "conv5_3"
  top: "conv5_4"
  convolution_param {
    num_output: 512
    pad: 1
    kernel_size: 3
  }
}
layer {
  name: "ReLU5_4"
  type: "ReLU"
  bottom: "conv5_4"
  top: "conv5_4"
}
layer {
  name: "pool5"
  type: "Pooling"
  bottom: "conv5_4"
  top: "pool5"
  pooling_param {
    pool: MAX
    kernel_size: 2
    stride: 2
  }
}
layer {
  name: "fc6"
  type: "InnerProduct"
  bottom: "pool5"
  top: "fc6"
  inner_product_param {
    num_output: 4096
  }
}
layer {
  name: "ReLU6"
  type: "ReLU"
  bottom: "fc6"
  top: "fc6"
}
layer {
  name: "drop6"
  type: "Dropout"
  bottom: "fc6"
  top: "fc6"
  dropout_param {
    dropout_ratio: 0.5
  }
}
layer {
  name: "fc7"
  type: "InnerProduct"
  bottom: "fc6"
  top: "fc7"
  inner_product_param {
    num_output: 4096
  }
}
layer {
  name: "ReLU7"
  type: "ReLU"
  bottom: "fc7"
  top: "fc7"
}
layer {
  name: "drop7"
  type: "Dropout"
  bottom: "fc7"
  top: "fc7"
  dropout_param {
    dropout_ratio: 0.5
  }
}
layer {
  name: "fc8_foodCAT"
  type: "InnerProduct"
  bottom: "fc7"
  top: "fc8_foodCAT"
  inner_product_param {
    num_output: 218
  }
}
layer {
  name: "loss"
  type: "SoftmaxWithLoss"
  bottom: "fc8_foodCAT"
  bottom: "label"
  top: "loss/loss"
}
I0430 16:31:12.922757 35900 layer_factory.hpp:77] Creating layer data
I0430 16:31:12.923840 35900 net.cpp:106] Creating Layer data
I0430 16:31:12.923871 35900 net.cpp:411] data -> data
I0430 16:31:12.923931 35900 net.cpp:411] data -> label
I0430 16:31:12.925040 35900 image_data_layer.cpp:38] Opening file foodCAT_CLUSTER/train.txt
I0430 16:31:12.989833 35900 image_data_layer.cpp:48] Shuffling data
I0430 16:31:12.998245 35900 image_data_layer.cpp:53] A total of 117113 images.
I0430 16:31:13.385617 35900 image_data_layer.cpp:80] output data size: 16,3,224,224
I0430 16:31:13.402031 35900 net.cpp:150] Setting up data
I0430 16:31:13.402122 35900 net.cpp:157] Top shape: 16 3 224 224 (2408448)
I0430 16:31:13.402148 35900 net.cpp:157] Top shape: 16 (16)
I0430 16:31:13.402165 35900 net.cpp:165] Memory required for data: 9633856
I0430 16:31:13.402185 35900 layer_factory.hpp:77] Creating layer conv1_1
I0430 16:31:13.402218 35900 net.cpp:106] Creating Layer conv1_1
I0430 16:31:13.402240 35900 net.cpp:454] conv1_1 <- data
I0430 16:31:13.402276 35900 net.cpp:411] conv1_1 -> conv1_1
I0430 16:31:14.334106 35900 net.cpp:150] Setting up conv1_1
I0430 16:31:14.334183 35900 net.cpp:157] Top shape: 16 64 224 224 (51380224)
I0430 16:31:14.334229 35900 net.cpp:165] Memory required for data: 215154752
I0430 16:31:14.334275 35900 layer_factory.hpp:77] Creating layer ReLU1_1
I0430 16:31:14.334316 35900 net.cpp:106] Creating Layer ReLU1_1
I0430 16:31:14.334344 35900 net.cpp:454] ReLU1_1 <- conv1_1
I0430 16:31:14.334374 35900 net.cpp:397] ReLU1_1 -> conv1_1 (in-place)
I0430 16:31:14.334566 35900 net.cpp:150] Setting up ReLU1_1
I0430 16:31:14.334596 35900 net.cpp:157] Top shape: 16 64 224 224 (51380224)
I0430 16:31:14.334614 35900 net.cpp:165] Memory required for data: 420675648
I0430 16:31:14.334630 35900 layer_factory.hpp:77] Creating layer conv1_2
I0430 16:31:14.334651 35900 net.cpp:106] Creating Layer conv1_2
I0430 16:31:14.334669 35900 net.cpp:454] conv1_2 <- conv1_1
I0430 16:31:14.334687 35900 net.cpp:411] conv1_2 -> conv1_2
I0430 16:31:14.335595 35900 net.cpp:150] Setting up conv1_2
I0430 16:31:14.335633 35900 net.cpp:157] Top shape: 16 64 224 224 (51380224)
I0430 16:31:14.335651 35900 net.cpp:165] Memory required for data: 626196544
I0430 16:31:14.335672 35900 layer_factory.hpp:77] Creating layer ReLU1_2
I0430 16:31:14.335692 35900 net.cpp:106] Creating Layer ReLU1_2
I0430 16:31:14.335711 35900 net.cpp:454] ReLU1_2 <- conv1_2
I0430 16:31:14.335727 35900 net.cpp:397] ReLU1_2 -> conv1_2 (in-place)
I0430 16:31:14.336025 35900 net.cpp:150] Setting up ReLU1_2
I0430 16:31:14.336060 35900 net.cpp:157] Top shape: 16 64 224 224 (51380224)
I0430 16:31:14.336076 35900 net.cpp:165] Memory required for data: 831717440
I0430 16:31:14.336091 35900 layer_factory.hpp:77] Creating layer pool1
I0430 16:31:14.336112 35900 net.cpp:106] Creating Layer pool1
I0430 16:31:14.336130 35900 net.cpp:454] pool1 <- conv1_2
I0430 16:31:14.336148 35900 net.cpp:411] pool1 -> pool1
I0430 16:31:14.336220 35900 net.cpp:150] Setting up pool1
I0430 16:31:14.336244 35900 net.cpp:157] Top shape: 16 64 112 112 (12845056)
I0430 16:31:14.336261 35900 net.cpp:165] Memory required for data: 883097664
I0430 16:31:14.336275 35900 layer_factory.hpp:77] Creating layer conv2_1
I0430 16:31:14.336294 35900 net.cpp:106] Creating Layer conv2_1
I0430 16:31:14.336310 35900 net.cpp:454] conv2_1 <- pool1
I0430 16:31:14.336328 35900 net.cpp:411] conv2_1 -> conv2_1
I0430 16:31:14.338315 35900 net.cpp:150] Setting up conv2_1
I0430 16:31:14.338352 35900 net.cpp:157] Top shape: 16 128 112 112 (25690112)
I0430 16:31:14.338371 35900 net.cpp:165] Memory required for data: 985858112
I0430 16:31:14.338393 35900 layer_factory.hpp:77] Creating layer ReLU2_1
I0430 16:31:14.338413 35900 net.cpp:106] Creating Layer ReLU2_1
I0430 16:31:14.338430 35900 net.cpp:454] ReLU2_1 <- conv2_1
I0430 16:31:14.338451 35900 net.cpp:397] ReLU2_1 -> conv2_1 (in-place)
I0430 16:31:14.338624 35900 net.cpp:150] Setting up ReLU2_1
I0430 16:31:14.338654 35900 net.cpp:157] Top shape: 16 128 112 112 (25690112)
I0430 16:31:14.338671 35900 net.cpp:165] Memory required for data: 1088618560
I0430 16:31:14.338687 35900 layer_factory.hpp:77] Creating layer conv2_2
I0430 16:31:14.338707 35900 net.cpp:106] Creating Layer conv2_2
I0430 16:31:14.338724 35900 net.cpp:454] conv2_2 <- conv2_1
I0430 16:31:14.338745 35900 net.cpp:411] conv2_2 -> conv2_2
I0430 16:31:14.339715 35900 net.cpp:150] Setting up conv2_2
I0430 16:31:14.339751 35900 net.cpp:157] Top shape: 16 128 112 112 (25690112)
I0430 16:31:14.339769 35900 net.cpp:165] Memory required for data: 1191379008
I0430 16:31:14.339788 35900 layer_factory.hpp:77] Creating layer ReLU2_2
I0430 16:31:14.339810 35900 net.cpp:106] Creating Layer ReLU2_2
I0430 16:31:14.339828 35900 net.cpp:454] ReLU2_2 <- conv2_2
I0430 16:31:14.339845 35900 net.cpp:397] ReLU2_2 -> conv2_2 (in-place)
I0430 16:31:14.340032 35900 net.cpp:150] Setting up ReLU2_2
I0430 16:31:14.340064 35900 net.cpp:157] Top shape: 16 128 112 112 (25690112)
I0430 16:31:14.340080 35900 net.cpp:165] Memory required for data: 1294139456
I0430 16:31:14.340095 35900 layer_factory.hpp:77] Creating layer pool2
I0430 16:31:14.340113 35900 net.cpp:106] Creating Layer pool2
I0430 16:31:14.340142 35900 net.cpp:454] pool2 <- conv2_2
I0430 16:31:14.340174 35900 net.cpp:411] pool2 -> pool2
I0430 16:31:14.340229 35900 net.cpp:150] Setting up pool2
I0430 16:31:14.340253 35900 net.cpp:157] Top shape: 16 128 56 56 (6422528)
I0430 16:31:14.340270 35900 net.cpp:165] Memory required for data: 1319829568
I0430 16:31:14.340286 35900 layer_factory.hpp:77] Creating layer conv3_1
I0430 16:31:14.340304 35900 net.cpp:106] Creating Layer conv3_1
I0430 16:31:14.340320 35900 net.cpp:454] conv3_1 <- pool2
I0430 16:31:14.340340 35900 net.cpp:411] conv3_1 -> conv3_1
I0430 16:31:14.341871 35900 net.cpp:150] Setting up conv3_1
I0430 16:31:14.341922 35900 net.cpp:157] Top shape: 16 256 56 56 (12845056)
I0430 16:31:14.341943 35900 net.cpp:165] Memory required for data: 1371209792
I0430 16:31:14.341974 35900 layer_factory.hpp:77] Creating layer ReLU3_1
I0430 16:31:14.341995 35900 net.cpp:106] Creating Layer ReLU3_1
I0430 16:31:14.342011 35900 net.cpp:454] ReLU3_1 <- conv3_1
I0430 16:31:14.342031 35900 net.cpp:397] ReLU3_1 -> conv3_1 (in-place)
I0430 16:31:14.342296 35900 net.cpp:150] Setting up ReLU3_1
I0430 16:31:14.342329 35900 net.cpp:157] Top shape: 16 256 56 56 (12845056)
I0430 16:31:14.342346 35900 net.cpp:165] Memory required for data: 1422590016
I0430 16:31:14.342362 35900 layer_factory.hpp:77] Creating layer conv3_2
I0430 16:31:14.342383 35900 net.cpp:106] Creating Layer conv3_2
I0430 16:31:14.342401 35900 net.cpp:454] conv3_2 <- conv3_1
I0430 16:31:14.342419 35900 net.cpp:411] conv3_2 -> conv3_2
I0430 16:31:14.344733 35900 net.cpp:150] Setting up conv3_2
I0430 16:31:14.344771 35900 net.cpp:157] Top shape: 16 256 56 56 (12845056)
I0430 16:31:14.344792 35900 net.cpp:165] Memory required for data: 1473970240
I0430 16:31:14.344812 35900 layer_factory.hpp:77] Creating layer ReLU3_2
I0430 16:31:14.344832 35900 net.cpp:106] Creating Layer ReLU3_2
I0430 16:31:14.344849 35900 net.cpp:454] ReLU3_2 <- conv3_2
I0430 16:31:14.344871 35900 net.cpp:397] ReLU3_2 -> conv3_2 (in-place)
I0430 16:31:14.345041 35900 net.cpp:150] Setting up ReLU3_2
I0430 16:31:14.345068 35900 net.cpp:157] Top shape: 16 256 56 56 (12845056)
I0430 16:31:14.345085 35900 net.cpp:165] Memory required for data: 1525350464
I0430 16:31:14.345100 35900 layer_factory.hpp:77] Creating layer conv3_3
I0430 16:31:14.345124 35900 net.cpp:106] Creating Layer conv3_3
I0430 16:31:14.345141 35900 net.cpp:454] conv3_3 <- conv3_2
I0430 16:31:14.345160 35900 net.cpp:411] conv3_3 -> conv3_3
I0430 16:31:14.347429 35900 net.cpp:150] Setting up conv3_3
I0430 16:31:14.347470 35900 net.cpp:157] Top shape: 16 256 56 56 (12845056)
I0430 16:31:14.347488 35900 net.cpp:165] Memory required for data: 1576730688
I0430 16:31:14.347507 35900 layer_factory.hpp:77] Creating layer ReLU3_3
I0430 16:31:14.347528 35900 net.cpp:106] Creating Layer ReLU3_3
I0430 16:31:14.347545 35900 net.cpp:454] ReLU3_3 <- conv3_3
I0430 16:31:14.347565 35900 net.cpp:397] ReLU3_3 -> conv3_3 (in-place)
I0430 16:31:14.347729 35900 net.cpp:150] Setting up ReLU3_3
I0430 16:31:14.347757 35900 net.cpp:157] Top shape: 16 256 56 56 (12845056)
I0430 16:31:14.347774 35900 net.cpp:165] Memory required for data: 1628110912
I0430 16:31:14.347789 35900 layer_factory.hpp:77] Creating layer conv3_4
I0430 16:31:14.347810 35900 net.cpp:106] Creating Layer conv3_4
I0430 16:31:14.347827 35900 net.cpp:454] conv3_4 <- conv3_3
I0430 16:31:14.347846 35900 net.cpp:411] conv3_4 -> conv3_4
I0430 16:31:14.350219 35900 net.cpp:150] Setting up conv3_4
I0430 16:31:14.350257 35900 net.cpp:157] Top shape: 16 256 56 56 (12845056)
I0430 16:31:14.350276 35900 net.cpp:165] Memory required for data: 1679491136
I0430 16:31:14.350296 35900 layer_factory.hpp:77] Creating layer ReLU3_4
I0430 16:31:14.350317 35900 net.cpp:106] Creating Layer ReLU3_4
I0430 16:31:14.350334 35900 net.cpp:454] ReLU3_4 <- conv3_4
I0430 16:31:14.350352 35900 net.cpp:397] ReLU3_4 -> conv3_4 (in-place)
I0430 16:31:14.350616 35900 net.cpp:150] Setting up ReLU3_4
I0430 16:31:14.350649 35900 net.cpp:157] Top shape: 16 256 56 56 (12845056)
I0430 16:31:14.350677 35900 net.cpp:165] Memory required for data: 1730871360
I0430 16:31:14.350706 35900 layer_factory.hpp:77] Creating layer pool3
I0430 16:31:14.350728 35900 net.cpp:106] Creating Layer pool3
I0430 16:31:14.350746 35900 net.cpp:454] pool3 <- conv3_4
I0430 16:31:14.350764 35900 net.cpp:411] pool3 -> pool3
I0430 16:31:14.350821 35900 net.cpp:150] Setting up pool3
I0430 16:31:14.350844 35900 net.cpp:157] Top shape: 16 256 28 28 (3211264)
I0430 16:31:14.350860 35900 net.cpp:165] Memory required for data: 1743716416
I0430 16:31:14.350880 35900 layer_factory.hpp:77] Creating layer conv4_1
I0430 16:31:14.350901 35900 net.cpp:106] Creating Layer conv4_1
I0430 16:31:14.350919 35900 net.cpp:454] conv4_1 <- pool3
I0430 16:31:14.350936 35900 net.cpp:411] conv4_1 -> conv4_1
I0430 16:31:14.355320 35900 net.cpp:150] Setting up conv4_1
I0430 16:31:14.355362 35900 net.cpp:157] Top shape: 16 512 28 28 (6422528)
I0430 16:31:14.355382 35900 net.cpp:165] Memory required for data: 1769406528
I0430 16:31:14.355406 35900 layer_factory.hpp:77] Creating layer ReLU4_1
I0430 16:31:14.355428 35900 net.cpp:106] Creating Layer ReLU4_1
I0430 16:31:14.355446 35900 net.cpp:454] ReLU4_1 <- conv4_1
I0430 16:31:14.355464 35900 net.cpp:397] ReLU4_1 -> conv4_1 (in-place)
I0430 16:31:14.355635 35900 net.cpp:150] Setting up ReLU4_1
I0430 16:31:14.355664 35900 net.cpp:157] Top shape: 16 512 28 28 (6422528)
I0430 16:31:14.355681 35900 net.cpp:165] Memory required for data: 1795096640
I0430 16:31:14.355697 35900 layer_factory.hpp:77] Creating layer conv4_2
I0430 16:31:14.355720 35900 net.cpp:106] Creating Layer conv4_2
I0430 16:31:14.355737 35900 net.cpp:454] conv4_2 <- conv4_1
I0430 16:31:14.355758 35900 net.cpp:411] conv4_2 -> conv4_2
I0430 16:31:14.362161 35900 net.cpp:150] Setting up conv4_2
I0430 16:31:14.362202 35900 net.cpp:157] Top shape: 16 512 28 28 (6422528)
I0430 16:31:14.362221 35900 net.cpp:165] Memory required for data: 1820786752
I0430 16:31:14.362241 35900 layer_factory.hpp:77] Creating layer ReLU4_2
I0430 16:31:14.362260 35900 net.cpp:106] Creating Layer ReLU4_2
I0430 16:31:14.362277 35900 net.cpp:454] ReLU4_2 <- conv4_2
I0430 16:31:14.362295 35900 net.cpp:397] ReLU4_2 -> conv4_2 (in-place)
I0430 16:31:14.362459 35900 net.cpp:150] Setting up ReLU4_2
I0430 16:31:14.362488 35900 net.cpp:157] Top shape: 16 512 28 28 (6422528)
I0430 16:31:14.362504 35900 net.cpp:165] Memory required for data: 1846476864
I0430 16:31:14.362519 35900 layer_factory.hpp:77] Creating layer conv4_3
I0430 16:31:14.362540 35900 net.cpp:106] Creating Layer conv4_3
I0430 16:31:14.362558 35900 net.cpp:454] conv4_3 <- conv4_2
I0430 16:31:14.362576 35900 net.cpp:411] conv4_3 -> conv4_3
I0430 16:31:14.368746 35900 net.cpp:150] Setting up conv4_3
I0430 16:31:14.368788 35900 net.cpp:157] Top shape: 16 512 28 28 (6422528)
I0430 16:31:14.368805 35900 net.cpp:165] Memory required for data: 1872166976
I0430 16:31:14.368824 35900 layer_factory.hpp:77] Creating layer ReLU4_3
I0430 16:31:14.368844 35900 net.cpp:106] Creating Layer ReLU4_3
I0430 16:31:14.368861 35900 net.cpp:454] ReLU4_3 <- conv4_3
I0430 16:31:14.368888 35900 net.cpp:397] ReLU4_3 -> conv4_3 (in-place)
I0430 16:31:14.369153 35900 net.cpp:150] Setting up ReLU4_3
I0430 16:31:14.369186 35900 net.cpp:157] Top shape: 16 512 28 28 (6422528)
I0430 16:31:14.369204 35900 net.cpp:165] Memory required for data: 1897857088
I0430 16:31:14.369218 35900 layer_factory.hpp:77] Creating layer conv4_4
I0430 16:31:14.369241 35900 net.cpp:106] Creating Layer conv4_4
I0430 16:31:14.369259 35900 net.cpp:454] conv4_4 <- conv4_3
I0430 16:31:14.369277 35900 net.cpp:411] conv4_4 -> conv4_4
I0430 16:31:14.375730 35900 net.cpp:150] Setting up conv4_4
I0430 16:31:14.375774 35900 net.cpp:157] Top shape: 16 512 28 28 (6422528)
I0430 16:31:14.375795 35900 net.cpp:165] Memory required for data: 1923547200
I0430 16:31:14.375816 35900 layer_factory.hpp:77] Creating layer ReLU4_4
I0430 16:31:14.375838 35900 net.cpp:106] Creating Layer ReLU4_4
I0430 16:31:14.375855 35900 net.cpp:454] ReLU4_4 <- conv4_4
I0430 16:31:14.375890 35900 net.cpp:397] ReLU4_4 -> conv4_4 (in-place)
I0430 16:31:14.376086 35900 net.cpp:150] Setting up ReLU4_4
I0430 16:31:14.376135 35900 net.cpp:157] Top shape: 16 512 28 28 (6422528)
I0430 16:31:14.376152 35900 net.cpp:165] Memory required for data: 1949237312
I0430 16:31:14.376169 35900 layer_factory.hpp:77] Creating layer pool4
I0430 16:31:14.376188 35900 net.cpp:106] Creating Layer pool4
I0430 16:31:14.376205 35900 net.cpp:454] pool4 <- conv4_4
I0430 16:31:14.376227 35900 net.cpp:411] pool4 -> pool4
I0430 16:31:14.376286 35900 net.cpp:150] Setting up pool4
I0430 16:31:14.376310 35900 net.cpp:157] Top shape: 16 512 14 14 (1605632)
I0430 16:31:14.376327 35900 net.cpp:165] Memory required for data: 1955659840
I0430 16:31:14.376343 35900 layer_factory.hpp:77] Creating layer conv5_1
I0430 16:31:14.376364 35900 net.cpp:106] Creating Layer conv5_1
I0430 16:31:14.376382 35900 net.cpp:454] conv5_1 <- pool4
I0430 16:31:14.376400 35900 net.cpp:411] conv5_1 -> conv5_1
I0430 16:31:14.383185 35900 net.cpp:150] Setting up conv5_1
I0430 16:31:14.383227 35900 net.cpp:157] Top shape: 16 512 14 14 (1605632)
I0430 16:31:14.383245 35900 net.cpp:165] Memory required for data: 1962082368
I0430 16:31:14.383265 35900 layer_factory.hpp:77] Creating layer ReLU5_1
I0430 16:31:14.383285 35900 net.cpp:106] Creating Layer ReLU5_1
I0430 16:31:14.383302 35900 net.cpp:454] ReLU5_1 <- conv5_1
I0430 16:31:14.383321 35900 net.cpp:397] ReLU5_1 -> conv5_1 (in-place)
I0430 16:31:14.383601 35900 net.cpp:150] Setting up ReLU5_1
I0430 16:31:14.383635 35900 net.cpp:157] Top shape: 16 512 14 14 (1605632)
I0430 16:31:14.383653 35900 net.cpp:165] Memory required for data: 1968504896
I0430 16:31:14.383680 35900 layer_factory.hpp:77] Creating layer conv5_2
I0430 16:31:14.383716 35900 net.cpp:106] Creating Layer conv5_2
I0430 16:31:14.383735 35900 net.cpp:454] conv5_2 <- conv5_1
I0430 16:31:14.383766 35900 net.cpp:411] conv5_2 -> conv5_2
I0430 16:31:14.390317 35900 net.cpp:150] Setting up conv5_2
I0430 16:31:14.390382 35900 net.cpp:157] Top shape: 16 512 14 14 (1605632)
I0430 16:31:14.390424 35900 net.cpp:165] Memory required for data: 1974927424
I0430 16:31:14.390446 35900 layer_factory.hpp:77] Creating layer ReLU5_2
I0430 16:31:14.390496 35900 net.cpp:106] Creating Layer ReLU5_2
I0430 16:31:14.390514 35900 net.cpp:454] ReLU5_2 <- conv5_2
I0430 16:31:14.390542 35900 net.cpp:397] ReLU5_2 -> conv5_2 (in-place)
I0430 16:31:14.390880 35900 net.cpp:150] Setting up ReLU5_2
I0430 16:31:14.390926 35900 net.cpp:157] Top shape: 16 512 14 14 (1605632)
I0430 16:31:14.390945 35900 net.cpp:165] Memory required for data: 1981349952
I0430 16:31:14.390974 35900 layer_factory.hpp:77] Creating layer conv5_3
I0430 16:31:14.391012 35900 net.cpp:106] Creating Layer conv5_3
I0430 16:31:14.391032 35900 net.cpp:454] conv5_3 <- conv5_2
I0430 16:31:14.391052 35900 net.cpp:411] conv5_3 -> conv5_3
I0430 16:31:14.397528 35900 net.cpp:150] Setting up conv5_3
I0430 16:31:14.397567 35900 net.cpp:157] Top shape: 16 512 14 14 (1605632)
I0430 16:31:14.397584 35900 net.cpp:165] Memory required for data: 1987772480
I0430 16:31:14.397603 35900 layer_factory.hpp:77] Creating layer ReLU5_3
I0430 16:31:14.397621 35900 net.cpp:106] Creating Layer ReLU5_3
I0430 16:31:14.397639 35900 net.cpp:454] ReLU5_3 <- conv5_3
I0430 16:31:14.397657 35900 net.cpp:397] ReLU5_3 -> conv5_3 (in-place)
I0430 16:31:14.397817 35900 net.cpp:150] Setting up ReLU5_3
I0430 16:31:14.397857 35900 net.cpp:157] Top shape: 16 512 14 14 (1605632)
I0430 16:31:14.397877 35900 net.cpp:165] Memory required for data: 1994195008
I0430 16:31:14.397912 35900 layer_factory.hpp:77] Creating layer conv5_4
I0430 16:31:14.397933 35900 net.cpp:106] Creating Layer conv5_4
I0430 16:31:14.397961 35900 net.cpp:454] conv5_4 <- conv5_3
I0430 16:31:14.397990 35900 net.cpp:411] conv5_4 -> conv5_4
I0430 16:31:14.404882 35900 net.cpp:150] Setting up conv5_4
I0430 16:31:14.404943 35900 net.cpp:157] Top shape: 16 512 14 14 (1605632)
I0430 16:31:14.404973 35900 net.cpp:165] Memory required for data: 2000617536
I0430 16:31:14.404992 35900 layer_factory.hpp:77] Creating layer ReLU5_4
I0430 16:31:14.405035 35900 net.cpp:106] Creating Layer ReLU5_4
I0430 16:31:14.405076 35900 net.cpp:454] ReLU5_4 <- conv5_4
I0430 16:31:14.405094 35900 net.cpp:397] ReLU5_4 -> conv5_4 (in-place)
I0430 16:31:14.405261 35900 net.cpp:150] Setting up ReLU5_4
I0430 16:31:14.405292 35900 net.cpp:157] Top shape: 16 512 14 14 (1605632)
I0430 16:31:14.405310 35900 net.cpp:165] Memory required for data: 2007040064
I0430 16:31:14.405326 35900 layer_factory.hpp:77] Creating layer pool5
I0430 16:31:14.405345 35900 net.cpp:106] Creating Layer pool5
I0430 16:31:14.405372 35900 net.cpp:454] pool5 <- conv5_4
I0430 16:31:14.405403 35900 net.cpp:411] pool5 -> pool5
I0430 16:31:14.405488 35900 net.cpp:150] Setting up pool5
I0430 16:31:14.405513 35900 net.cpp:157] Top shape: 16 512 7 7 (401408)
I0430 16:31:14.405529 35900 net.cpp:165] Memory required for data: 2008645696
I0430 16:31:14.405544 35900 layer_factory.hpp:77] Creating layer fc6
I0430 16:31:14.405567 35900 net.cpp:106] Creating Layer fc6
I0430 16:31:14.405585 35900 net.cpp:454] fc6 <- pool5
I0430 16:31:14.405601 35900 net.cpp:411] fc6 -> fc6
I0430 16:31:14.622997 35900 net.cpp:150] Setting up fc6
I0430 16:31:14.623105 35900 net.cpp:157] Top shape: 16 4096 (65536)
I0430 16:31:14.623123 35900 net.cpp:165] Memory required for data: 2008907840
I0430 16:31:14.623152 35900 layer_factory.hpp:77] Creating layer ReLU6
I0430 16:31:14.623181 35900 net.cpp:106] Creating Layer ReLU6
I0430 16:31:14.623199 35900 net.cpp:454] ReLU6 <- fc6
I0430 16:31:14.623217 35900 net.cpp:397] ReLU6 -> fc6 (in-place)
I0430 16:31:14.623595 35900 net.cpp:150] Setting up ReLU6
I0430 16:31:14.623636 35900 net.cpp:157] Top shape: 16 4096 (65536)
I0430 16:31:14.623652 35900 net.cpp:165] Memory required for data: 2009169984
I0430 16:31:14.623667 35900 layer_factory.hpp:77] Creating layer drop6
I0430 16:31:14.623689 35900 net.cpp:106] Creating Layer drop6
I0430 16:31:14.623705 35900 net.cpp:454] drop6 <- fc6
I0430 16:31:14.623723 35900 net.cpp:397] drop6 -> fc6 (in-place)
I0430 16:31:14.623775 35900 net.cpp:150] Setting up drop6
I0430 16:31:14.623798 35900 net.cpp:157] Top shape: 16 4096 (65536)
I0430 16:31:14.623812 35900 net.cpp:165] Memory required for data: 2009432128
I0430 16:31:14.623827 35900 layer_factory.hpp:77] Creating layer fc7
I0430 16:31:14.623845 35900 net.cpp:106] Creating Layer fc7
I0430 16:31:14.623877 35900 net.cpp:454] fc7 <- fc6
I0430 16:31:14.623898 35900 net.cpp:411] fc7 -> fc7
I0430 16:31:14.660069 35900 net.cpp:150] Setting up fc7
I0430 16:31:14.660172 35900 net.cpp:157] Top shape: 16 4096 (65536)
I0430 16:31:14.660189 35900 net.cpp:165] Memory required for data: 2009694272
I0430 16:31:14.660210 35900 layer_factory.hpp:77] Creating layer ReLU7
I0430 16:31:14.660233 35900 net.cpp:106] Creating Layer ReLU7
I0430 16:31:14.660250 35900 net.cpp:454] ReLU7 <- fc7
I0430 16:31:14.660271 35900 net.cpp:397] ReLU7 -> fc7 (in-place)
I0430 16:31:14.660655 35900 net.cpp:150] Setting up ReLU7
I0430 16:31:14.660686 35900 net.cpp:157] Top shape: 16 4096 (65536)
I0430 16:31:14.660703 35900 net.cpp:165] Memory required for data: 2009956416
I0430 16:31:14.660718 35900 layer_factory.hpp:77] Creating layer drop7
I0430 16:31:14.660737 35900 net.cpp:106] Creating Layer drop7
I0430 16:31:14.660755 35900 net.cpp:454] drop7 <- fc7
I0430 16:31:14.660773 35900 net.cpp:397] drop7 -> fc7 (in-place)
I0430 16:31:14.660814 35900 net.cpp:150] Setting up drop7
I0430 16:31:14.660836 35900 net.cpp:157] Top shape: 16 4096 (65536)
I0430 16:31:14.660853 35900 net.cpp:165] Memory required for data: 2010218560
I0430 16:31:14.660872 35900 layer_factory.hpp:77] Creating layer fc8_foodCAT
I0430 16:31:14.660892 35900 net.cpp:106] Creating Layer fc8_foodCAT
I0430 16:31:14.660907 35900 net.cpp:454] fc8_foodCAT <- fc7
I0430 16:31:14.660923 35900 net.cpp:411] fc8_foodCAT -> fc8_foodCAT
I0430 16:31:14.663108 35900 net.cpp:150] Setting up fc8_foodCAT
I0430 16:31:14.663141 35900 net.cpp:157] Top shape: 16 218 (3488)
I0430 16:31:14.663158 35900 net.cpp:165] Memory required for data: 2010232512
I0430 16:31:14.663177 35900 layer_factory.hpp:77] Creating layer loss
I0430 16:31:14.663221 35900 net.cpp:106] Creating Layer loss
I0430 16:31:14.663261 35900 net.cpp:454] loss <- fc8_foodCAT
I0430 16:31:14.663278 35900 net.cpp:454] loss <- label
I0430 16:31:14.663300 35900 net.cpp:411] loss -> loss/loss
I0430 16:31:14.663326 35900 layer_factory.hpp:77] Creating layer loss
…
I0430 16:31:14.665854 35900 net.cpp:322] The NetState phase (1) differed from the phase (0) specified by a rule in layer data
I0430 16:31:14.666121 35900 net.cpp:49] Initializing net from parameters: 
name: "foodCAT_VGG_ILSVRC_19_layer"
state {
  phase: TEST
}
layer {
  name: "data"
  type: "ImageData"
  top: "data"
  top: "label"
  include {
    phase: TEST
  }
  transform_param {
    mirror: false
    crop_size: 224
    mean_value: 104
    mean_value: 117
    mean_value: 123
  }
  image_data_param {
    source: "foodCAT_CLUSTER/val.txt"
    batch_size: 16
    shuffle: true
    new_height: 256
    new_width: 256
  }
}
layer {
  name: "conv1_1"
  type: "Convolution"
  bottom: "data"
  top: "conv1_1"
  convolution_param {
    num_output: 64
    pad: 1
    kernel_size: 3
  }
}
layer {
  name: "ReLU1_1"
  type: "ReLU"
  bottom: "conv1_1"
  top: "conv1_1"
}
layer {
  name: "conv1_2"
  type: "Convolution"
  bottom: "conv1_1"
  top: "conv1_2"
  convolution_param {
    num_output: 64
    pad: 1
    kernel_size: 3
  }
}
layer {
  name: "ReLU1_2"
  type: "ReLU"
  bottom: "conv1_2"
  top: "conv1_2"
}
layer {
  name: "pool1"
  type: "Pooling"
  bottom: "conv1_2"
  top: "pool1"
  pooling_param {
    pool: MAX
    kernel_size: 2
    stride: 2
  }
}
layer {
  name: "conv2_1"
  type: "Convolution"
  bottom: "pool1"
  top: "conv2_1"
  convolution_param {
    num_output: 128
    pad: 1
    kernel_size: 3
  }
}
layer {
  name: "ReLU2_1"
  type: "ReLU"
  bottom: "conv2_1"
  top: "conv2_1"
}
layer {
  name: "conv2_2"
  type: "Convolution"
  bottom: "conv2_1"
  top: "conv2_2"
  convolution_param {
    num_output: 128
    pad: 1
    kernel_size: 3
  }
}
layer {
  name: "ReLU2_2"
  type: "ReLU"
  bottom: "conv2_2"
  top: "conv2_2"
}
layer {
  name: "pool2"
  type: "Pooling"
  bottom: "conv2_2"
  top: "pool2"
  pooling_param {
    pool: MAX
    kernel_size: 2
    stride: 2
  }
}
layer {
  name: "conv3_1"
  type: "Convolution"
  bottom: "pool2"
  top: "conv3_1"
  convolution_param {
    num_output: 256
    pad: 1
    kernel_size: 3
  }
}
layer {
  name: "ReLU3_1"
  type: "ReLU"
  bottom: "conv3_1"
  top: "conv3_1"
}
layer {
  name: "conv3_2"
  type: "Convolution"
  bottom: "conv3_1"
  top: "conv3_2"
  convolution_param {
    num_output: 256
    pad: 1
    kernel_size: 3
  }
}
layer {
  name: "ReLU3_2"
  type: "ReLU"
  bottom: "conv3_2"
  top: "conv3_2"
}
layer {
  name: "conv3_3"
  type: "Convolution"
  bottom: "conv3_2"
  top: "conv3_3"
  convolution_param {
    num_output: 256
    pad: 1
    kernel_size: 3
  }
}
layer {
  name: "ReLU3_3"
  type: "ReLU"
  bottom: "conv3_3"
  top: "conv3_3"
}
layer {
  name: "conv3_4"
  type: "Convolution"
  bottom: "conv3_3"
  top: "conv3_4"
  convolution_param {
    num_output: 256
    pad: 1
    kernel_size: 3
  }
}
layer {
  name: "ReLU3_4"
  type: "ReLU"
  bottom: "conv3_4"
  top: "conv3_4"
}
layer {
  name: "pool3"
  type: "Pooling"
  bottom: "conv3_4"
  top: "pool3"
  pooling_param {
    pool: MAX
    kernel_size: 2
    stride: 2
  }
}
layer {
  name: "conv4_1"
  type: "Convolution"
  bottom: "pool3"
  top: "conv4_1"
  convolution_param {
    num_output: 512
    pad: 1
    kernel_size: 3
  }
}
layer {
  name: "ReLU4_1"
  type: "ReLU"
  bottom: "conv4_1"
  top: "conv4_1"
}
layer {
  name: "conv4_2"
  type: "Convolution"
  bottom: "conv4_1"
  top: "conv4_2"
  convolution_param {
    num_output: 512
    pad: 1
    kernel_size: 3
  }
}
layer {
  name: "ReLU4_2"
  type: "ReLU"
  bottom: "conv4_2"
  top: "conv4_2"
}
layer {
  name: "conv4_3"
  type: "Convolution"
  bottom: "conv4_2"
  top: "conv4_3"
  convolution_param {
    num_output: 512
    pad: 1
    kernel_size: 3
  }
}
layer {
  name: "ReLU4_3"
  type: "ReLU"
  bottom: "conv4_3"
  top: "conv4_3"
}
layer {
  name: "conv4_4"
  type: "Convolution"
  bottom: "conv4_3"
  top: "conv4_4"
  convolution_param {
    num_output: 512
    pad: 1
    kernel_size: 3
  }
}
layer {
  name: "ReLU4_4"
  type: "ReLU"
  bottom: "conv4_4"
  top: "conv4_4"
}
layer {
  name: "pool4"
  type: "Pooling"
  bottom: "conv4_4"
  top: "pool4"
  pooling_param {
    pool: MAX
    kernel_size: 2
    stride: 2
  }
}
layer {
  name: "conv5_1"
  type: "Convolution"
  bottom: "pool4"
  top: "conv5_1"
  convolution_param {
    num_output: 512
    pad: 1
    kernel_size: 3
  }
}
layer {
  name: "ReLU5_1"
  type: "ReLU"
  bottom: "conv5_1"
  top: "conv5_1"
}
layer {
  name: "conv5_2"
  type: "Convolution"
  bottom: "conv5_1"
  top: "conv5_2"
  convolution_param {
    num_output: 512
    pad: 1
    kernel_size: 3
  }
}
layer {
  name: "ReLU5_2"
  type: "ReLU"
  bottom: "conv5_2"
  top: "conv5_2"
}
layer {
  name: "conv5_3"
  type: "Convolution"
  bottom: "conv5_2"
  top: "conv5_3"
  convolution_param {
    num_output: 512
    pad: 1
    kernel_size: 3
  }
}
layer {
  name: "ReLU5_3"
  type: "ReLU"
  bottom: "conv5_3"
  top: "conv5_3"
}
layer {
  name: "conv5_4"
  type: "Convolution"
  bottom: "conv5_3"
  top: "conv5_4"
  convolution_param {
    num_output: 512
    pad: 1
    kernel_size: 3
  }
}
layer {
  name: "ReLU5_4"
  type: "ReLU"
  bottom: "conv5_4"
  top: "conv5_4"
}
layer {
  name: "pool5"
  type: "Pooling"
  bottom: "conv5_4"
  top: "pool5"
  pooling_param {
    pool: MAX
    kernel_size: 2
    stride: 2
  }
}
layer {
  name: "fc6"
  type: "InnerProduct"
  bottom: "pool5"
  top: "fc6"
  inner_product_param {
    num_output: 4096
  }
}
layer {
  name: "ReLU6"
  type: "ReLU"
  bottom: "fc6"
  top: "fc6"
}
layer {
  name: "drop6"
  type: "Dropout"
  bottom: "fc6"
  top: "fc6"
  dropout_param {
    dropout_ratio: 0.5
  }
}
layer {
  name: "fc7"
  type: "InnerProduct"
  bottom: "fc6"
  top: "fc7"
  inner_product_param {
    num_output: 4096
  }
}
layer {
  name: "ReLU7"
  type: "ReLU"
  bottom: "fc7"
  top: "fc7"
}
layer {
  name: "drop7"
  type: "Dropout"
  bottom: "fc7"
  top: "fc7"
  dropout_param {
    dropout_ratio: 0.5
  }
}
layer {
  name: "fc8_foodCAT"
  type: "InnerProduct"
  bottom: "fc7"
  top: "fc8_foodCAT"
  inner_product_param {
    num_output: 218
  }
}
layer {
  name: "loss"
  type: "SoftmaxWithLoss"
  bottom: "fc8_foodCAT"
  bottom: "label"
  top: "loss/loss"
}
layer {
  name: "accuracy/top1"
  type: "Accuracy"
  bottom: "fc8_foodCAT"
  bottom: "label"
  top: "accuracy@1"
  include {
    phase: TEST
  }
  accuracy_param {
    top_k: 1
  }
}
layer {
  name: "accuracy/top5"
  type: "Accuracy"
  bottom: "fc8_foodCAT"
  bottom: "label"
  top: "accuracy@5"
  include {
    phase: TEST
  }
  accuracy_param {
    top_k: 5
  }
}
I0430 16:31:14.666298 35900 layer_factory.hpp:77] Creating layer data
I0430 16:31:14.666333 35900 net.cpp:106] Creating Layer data
I0430 16:31:14.666354 35900 net.cpp:411] data -> data
I0430 16:31:14.666375 35900 net.cpp:411] data -> label
I0430 16:31:14.666398 35900 image_data_layer.cpp:38] Opening file foodCAT_CLUSTER/val.txt
I0430 16:31:14.674432 35900 image_data_layer.cpp:48] Shuffling data
I0430 16:31:14.675288 35900 image_data_layer.cpp:53] A total of 14649 images.
I0430 16:31:14.687618 35900 image_data_layer.cpp:80] output data size: 16,3,224,224
I0430 16:31:14.704035 35900 net.cpp:150] Setting up data
I0430 16:31:14.704097 35900 net.cpp:157] Top shape: 16 3 224 224 (2408448)
I0430 16:31:14.704118 35900 net.cpp:157] Top shape: 16 (16)
I0430 16:31:14.704133 35900 net.cpp:165] Memory required for data: 9633856
I0430 16:31:14.704149 35900 layer_factory.hpp:77] Creating layer label_data_1_split
I0430 16:31:14.704172 35900 net.cpp:106] Creating Layer label_data_1_split
I0430 16:31:14.704190 35900 net.cpp:454] label_data_1_split <- label
I0430 16:31:14.704207 35900 net.cpp:411] label_data_1_split -> label_data_1_split_0
I0430 16:31:14.704227 35900 net.cpp:411] label_data_1_split -> label_data_1_split_1
I0430 16:31:14.704247 35900 net.cpp:411] label_data_1_split -> label_data_1_split_2
I0430 16:31:14.704313 35900 net.cpp:150] Setting up label_data_1_split
I0430 16:31:14.704337 35900 net.cpp:157] Top shape: 16 (16)
I0430 16:31:14.704375 35900 net.cpp:157] Top shape: 16 (16)
I0430 16:31:14.704394 35900 net.cpp:157] Top shape: 16 (16)
I0430 16:31:14.704409 35900 net.cpp:165] Memory required for data: 9634048
I0430 16:31:14.704424 35900 layer_factory.hpp:77] Creating layer conv1_1
I0430 16:31:14.704444 35900 net.cpp:106] Creating Layer conv1_1
I0430 16:31:14.704463 35900 net.cpp:454] conv1_1 <- data
I0430 16:31:14.704479 35900 net.cpp:411] conv1_1 -> conv1_1
I0430 16:31:14.705646 35900 net.cpp:150] Setting up conv1_1
I0430 16:31:14.705725 35900 net.cpp:157] Top shape: 16 64 224 224 (51380224)
I0430 16:31:14.705755 35900 net.cpp:165] Memory required for data: 215154944
I0430 16:31:14.705780 35900 layer_factory.hpp:77] Creating layer ReLU1_1
I0430 16:31:14.705803 35900 net.cpp:106] Creating Layer ReLU1_1
I0430 16:31:14.705821 35900 net.cpp:454] ReLU1_1 <- conv1_1
I0430 16:31:14.705842 35900 net.cpp:397] ReLU1_1 -> conv1_1 (in-place)
I0430 16:31:14.706040 35900 net.cpp:150] Setting up ReLU1_1
I0430 16:31:14.706070 35900 net.cpp:157] Top shape: 16 64 224 224 (51380224)
I0430 16:31:14.706087 35900 net.cpp:165] Memory required for data: 420675840
I0430 16:31:14.706102 35900 layer_factory.hpp:77] Creating layer conv1_2
I0430 16:31:14.706122 35900 net.cpp:106] Creating Layer conv1_2
I0430 16:31:14.706140 35900 net.cpp:454] conv1_2 <- conv1_1
I0430 16:31:14.706157 35900 net.cpp:411] conv1_2 -> conv1_2
I0430 16:31:14.707572 35900 net.cpp:150] Setting up conv1_2
I0430 16:31:14.707612 35900 net.cpp:157] Top shape: 16 64 224 224 (51380224)
I0430 16:31:14.707631 35900 net.cpp:165] Memory required for data: 626196736
I0430 16:31:14.707653 35900 layer_factory.hpp:77] Creating layer ReLU1_2
I0430 16:31:14.707672 35900 net.cpp:106] Creating Layer ReLU1_2
I0430 16:31:14.707690 35900 net.cpp:454] ReLU1_2 <- conv1_2
I0430 16:31:14.707707 35900 net.cpp:397] ReLU1_2 -> conv1_2 (in-place)
I0430 16:31:14.708019 35900 net.cpp:150] Setting up ReLU1_2
I0430 16:31:14.708053 35900 net.cpp:157] Top shape: 16 64 224 224 (51380224)
I0430 16:31:14.708070 35900 net.cpp:165] Memory required for data: 831717632
I0430 16:31:14.708086 35900 layer_factory.hpp:77] Creating layer pool1
I0430 16:31:14.708106 35900 net.cpp:106] Creating Layer pool1
I0430 16:31:14.708133 35900 net.cpp:454] pool1 <- conv1_2
I0430 16:31:14.708163 35900 net.cpp:411] pool1 -> pool1
I0430 16:31:14.708241 35900 net.cpp:150] Setting up pool1
I0430 16:31:14.708276 35900 net.cpp:157] Top shape: 16 64 112 112 (12845056)
I0430 16:31:14.708303 35900 net.cpp:165] Memory required for data: 883097856
I0430 16:31:14.708338 35900 layer_factory.hpp:77] Creating layer conv2_1
I0430 16:31:14.708379 35900 net.cpp:106] Creating Layer conv2_1
I0430 16:31:14.708396 35900 net.cpp:454] conv2_1 <- pool1
I0430 16:31:14.708415 35900 net.cpp:411] conv2_1 -> conv2_1
I0430 16:31:14.711204 35900 net.cpp:150] Setting up conv2_1
I0430 16:31:14.711246 35900 net.cpp:157] Top shape: 16 128 112 112 (25690112)
I0430 16:31:14.711263 35900 net.cpp:165] Memory required for data: 985858304
I0430 16:31:14.711285 35900 layer_factory.hpp:77] Creating layer ReLU2_1
I0430 16:31:14.711307 35900 net.cpp:106] Creating Layer ReLU2_1
I0430 16:31:14.711324 35900 net.cpp:454] ReLU2_1 <- conv2_1
I0430 16:31:14.711343 35900 net.cpp:397] ReLU2_1 -> conv2_1 (in-place)
I0430 16:31:14.711503 35900 net.cpp:150] Setting up ReLU2_1
I0430 16:31:14.711530 35900 net.cpp:157] Top shape: 16 128 112 112 (25690112)
I0430 16:31:14.711546 35900 net.cpp:165] Memory required for data: 1088618752
I0430 16:31:14.711561 35900 layer_factory.hpp:77] Creating layer conv2_2
I0430 16:31:14.711580 35900 net.cpp:106] Creating Layer conv2_2
I0430 16:31:14.711597 35900 net.cpp:454] conv2_2 <- conv2_1
I0430 16:31:14.711616 35900 net.cpp:411] conv2_2 -> conv2_2
I0430 16:31:14.712610 35900 net.cpp:150] Setting up conv2_2
I0430 16:31:14.712648 35900 net.cpp:157] Top shape: 16 128 112 112 (25690112)
I0430 16:31:14.712666 35900 net.cpp:165] Memory required for data: 1191379200
I0430 16:31:14.712685 35900 layer_factory.hpp:77] Creating layer ReLU2_2
I0430 16:31:14.712716 35900 net.cpp:106] Creating Layer ReLU2_2
I0430 16:31:14.712748 35900 net.cpp:454] ReLU2_2 <- conv2_2
I0430 16:31:14.712766 35900 net.cpp:397] ReLU2_2 -> conv2_2 (in-place)
I0430 16:31:14.712999 35900 net.cpp:150] Setting up ReLU2_2
I0430 16:31:14.713029 35900 net.cpp:157] Top shape: 16 128 112 112 (25690112)
I0430 16:31:14.713045 35900 net.cpp:165] Memory required for data: 1294139648
I0430 16:31:14.713060 35900 layer_factory.hpp:77] Creating layer pool2
I0430 16:31:14.713078 35900 net.cpp:106] Creating Layer pool2
I0430 16:31:14.713094 35900 net.cpp:454] pool2 <- conv2_2
I0430 16:31:14.713111 35900 net.cpp:411] pool2 -> pool2
I0430 16:31:14.713167 35900 net.cpp:150] Setting up pool2
I0430 16:31:14.713191 35900 net.cpp:157] Top shape: 16 128 56 56 (6422528)
I0430 16:31:14.713207 35900 net.cpp:165] Memory required for data: 1319829760
I0430 16:31:14.713222 35900 layer_factory.hpp:77] Creating layer conv3_1
I0430 16:31:14.713241 35900 net.cpp:106] Creating Layer conv3_1
I0430 16:31:14.713258 35900 net.cpp:454] conv3_1 <- pool2
I0430 16:31:14.713276 35900 net.cpp:411] conv3_1 -> conv3_1
I0430 16:31:14.715131 35900 net.cpp:150] Setting up conv3_1
I0430 16:31:14.715168 35900 net.cpp:157] Top shape: 16 256 56 56 (12845056)
I0430 16:31:14.715185 35900 net.cpp:165] Memory required for data: 1371209984
I0430 16:31:14.715206 35900 layer_factory.hpp:77] Creating layer ReLU3_1
I0430 16:31:14.715225 35900 net.cpp:106] Creating Layer ReLU3_1
I0430 16:31:14.715241 35900 net.cpp:454] ReLU3_1 <- conv3_1
I0430 16:31:14.715257 35900 net.cpp:397] ReLU3_1 -> conv3_1 (in-place)
I0430 16:31:14.715519 35900 net.cpp:150] Setting up ReLU3_1
I0430 16:31:14.715551 35900 net.cpp:157] Top shape: 16 256 56 56 (12845056)
I0430 16:31:14.715567 35900 net.cpp:165] Memory required for data: 1422590208
I0430 16:31:14.715582 35900 layer_factory.hpp:77] Creating layer conv3_2
I0430 16:31:14.715601 35900 net.cpp:106] Creating Layer conv3_2
I0430 16:31:14.715617 35900 net.cpp:454] conv3_2 <- conv3_1
I0430 16:31:14.715637 35900 net.cpp:411] conv3_2 -> conv3_2
I0430 16:31:14.718385 35900 net.cpp:150] Setting up conv3_2
I0430 16:31:14.718423 35900 net.cpp:157] Top shape: 16 256 56 56 (12845056)
I0430 16:31:14.718441 35900 net.cpp:165] Memory required for data: 1473970432
I0430 16:31:14.718461 35900 layer_factory.hpp:77] Creating layer ReLU3_2
I0430 16:31:14.718482 35900 net.cpp:106] Creating Layer ReLU3_2
I0430 16:31:14.718498 35900 net.cpp:454] ReLU3_2 <- conv3_2
I0430 16:31:14.718516 35900 net.cpp:397] ReLU3_2 -> conv3_2 (in-place)
I0430 16:31:14.718684 35900 net.cpp:150] Setting up ReLU3_2
I0430 16:31:14.718716 35900 net.cpp:157] Top shape: 16 256 56 56 (12845056)
I0430 16:31:14.718734 35900 net.cpp:165] Memory required for data: 1525350656
I0430 16:31:14.718749 35900 layer_factory.hpp:77] Creating layer conv3_3
I0430 16:31:14.718770 35900 net.cpp:106] Creating Layer conv3_3
I0430 16:31:14.718788 35900 net.cpp:454] conv3_3 <- conv3_2
I0430 16:31:14.718806 35900 net.cpp:411] conv3_3 -> conv3_3
I0430 16:31:14.721426 35900 net.cpp:150] Setting up conv3_3
I0430 16:31:14.721477 35900 net.cpp:157] Top shape: 16 256 56 56 (12845056)
I0430 16:31:14.721495 35900 net.cpp:165] Memory required for data: 1576730880
I0430 16:31:14.721515 35900 layer_factory.hpp:77] Creating layer ReLU3_3
I0430 16:31:14.721534 35900 net.cpp:106] Creating Layer ReLU3_3
I0430 16:31:14.721551 35900 net.cpp:454] ReLU3_3 <- conv3_3
I0430 16:31:14.721570 35900 net.cpp:397] ReLU3_3 -> conv3_3 (in-place)
I0430 16:31:14.721736 35900 net.cpp:150] Setting up ReLU3_3
I0430 16:31:14.721765 35900 net.cpp:157] Top shape: 16 256 56 56 (12845056)
I0430 16:31:14.721792 35900 net.cpp:165] Memory required for data: 1628111104
I0430 16:31:14.721819 35900 layer_factory.hpp:77] Creating layer conv3_4
I0430 16:31:14.721843 35900 net.cpp:106] Creating Layer conv3_4
I0430 16:31:14.721861 35900 net.cpp:454] conv3_4 <- conv3_3
I0430 16:31:14.721885 35900 net.cpp:411] conv3_4 -> conv3_4
I0430 16:31:14.724567 35900 net.cpp:150] Setting up conv3_4
I0430 16:31:14.724606 35900 net.cpp:157] Top shape: 16 256 56 56 (12845056)
I0430 16:31:14.724635 35900 net.cpp:165] Memory required for data: 1679491328
I0430 16:31:14.724669 35900 layer_factory.hpp:77] Creating layer ReLU3_4
I0430 16:31:14.724690 35900 net.cpp:106] Creating Layer ReLU3_4
I0430 16:31:14.724709 35900 net.cpp:454] ReLU3_4 <- conv3_4
I0430 16:31:14.724728 35900 net.cpp:397] ReLU3_4 -> conv3_4 (in-place)
I0430 16:31:14.725047 35900 net.cpp:150] Setting up ReLU3_4
I0430 16:31:14.725081 35900 net.cpp:157] Top shape: 16 256 56 56 (12845056)
I0430 16:31:14.725100 35900 net.cpp:165] Memory required for data: 1730871552
I0430 16:31:14.725116 35900 layer_factory.hpp:77] Creating layer pool3
I0430 16:31:14.725136 35900 net.cpp:106] Creating Layer pool3
I0430 16:31:14.725152 35900 net.cpp:454] pool3 <- conv3_4
I0430 16:31:14.725172 35900 net.cpp:411] pool3 -> pool3
I0430 16:31:14.725239 35900 net.cpp:150] Setting up pool3
I0430 16:31:14.725263 35900 net.cpp:157] Top shape: 16 256 28 28 (3211264)
I0430 16:31:14.725280 35900 net.cpp:165] Memory required for data: 1743716608
I0430 16:31:14.725296 35900 layer_factory.hpp:77] Creating layer conv4_1
I0430 16:31:14.725314 35900 net.cpp:106] Creating Layer conv4_1
I0430 16:31:14.725332 35900 net.cpp:454] conv4_1 <- pool3
I0430 16:31:14.725352 35900 net.cpp:411] conv4_1 -> conv4_1
I0430 16:31:14.729163 35900 net.cpp:150] Setting up conv4_1
I0430 16:31:14.729202 35900 net.cpp:157] Top shape: 16 512 28 28 (6422528)
I0430 16:31:14.729221 35900 net.cpp:165] Memory required for data: 1769406720
I0430 16:31:14.729245 35900 layer_factory.hpp:77] Creating layer ReLU4_1
I0430 16:31:14.729266 35900 net.cpp:106] Creating Layer ReLU4_1
I0430 16:31:14.729284 35900 net.cpp:454] ReLU4_1 <- conv4_1
I0430 16:31:14.729301 35900 net.cpp:397] ReLU4_1 -> conv4_1 (in-place)
I0430 16:31:14.729476 35900 net.cpp:150] Setting up ReLU4_1
I0430 16:31:14.729506 35900 net.cpp:157] Top shape: 16 512 28 28 (6422528)
I0430 16:31:14.729521 35900 net.cpp:165] Memory required for data: 1795096832
I0430 16:31:14.729537 35900 layer_factory.hpp:77] Creating layer conv4_2
I0430 16:31:14.729557 35900 net.cpp:106] Creating Layer conv4_2
I0430 16:31:14.729575 35900 net.cpp:454] conv4_2 <- conv4_1
I0430 16:31:14.729594 35900 net.cpp:411] conv4_2 -> conv4_2
I0430 16:31:14.736490 35900 net.cpp:150] Setting up conv4_2
I0430 16:31:14.736555 35900 net.cpp:157] Top shape: 16 512 28 28 (6422528)
I0430 16:31:14.736575 35900 net.cpp:165] Memory required for data: 1820786944
I0430 16:31:14.736618 35900 layer_factory.hpp:77] Creating layer ReLU4_2
I0430 16:31:14.736639 35900 net.cpp:106] Creating Layer ReLU4_2
I0430 16:31:14.736668 35900 net.cpp:454] ReLU4_2 <- conv4_2
I0430 16:31:14.736696 35900 net.cpp:397] ReLU4_2 -> conv4_2 (in-place)
I0430 16:31:14.736886 35900 net.cpp:150] Setting up ReLU4_2
I0430 16:31:14.736935 35900 net.cpp:157] Top shape: 16 512 28 28 (6422528)
I0430 16:31:14.736951 35900 net.cpp:165] Memory required for data: 1846477056
I0430 16:31:14.736966 35900 layer_factory.hpp:77] Creating layer conv4_3
I0430 16:31:14.736987 35900 net.cpp:106] Creating Layer conv4_3
I0430 16:31:14.737004 35900 net.cpp:454] conv4_3 <- conv4_2
I0430 16:31:14.737021 35900 net.cpp:411] conv4_3 -> conv4_3
I0430 16:31:14.743783 35900 net.cpp:150] Setting up conv4_3
I0430 16:31:14.743824 35900 net.cpp:157] Top shape: 16 512 28 28 (6422528)
I0430 16:31:14.743844 35900 net.cpp:165] Memory required for data: 1872167168
I0430 16:31:14.743880 35900 layer_factory.hpp:77] Creating layer ReLU4_3
I0430 16:31:14.743911 35900 net.cpp:106] Creating Layer ReLU4_3
I0430 16:31:14.743928 35900 net.cpp:454] ReLU4_3 <- conv4_3
I0430 16:31:14.743947 35900 net.cpp:397] ReLU4_3 -> conv4_3 (in-place)
I0430 16:31:14.744228 35900 net.cpp:150] Setting up ReLU4_3
I0430 16:31:14.744266 35900 net.cpp:157] Top shape: 16 512 28 28 (6422528)
I0430 16:31:14.744284 35900 net.cpp:165] Memory required for data: 1897857280
I0430 16:31:14.744300 35900 layer_factory.hpp:77] Creating layer conv4_4
I0430 16:31:14.744320 35900 net.cpp:106] Creating Layer conv4_4
I0430 16:31:14.744338 35900 net.cpp:454] conv4_4 <- conv4_3
I0430 16:31:14.744372 35900 net.cpp:411] conv4_4 -> conv4_4
I0430 16:31:14.751302 35900 net.cpp:150] Setting up conv4_4
I0430 16:31:14.751343 35900 net.cpp:157] Top shape: 16 512 28 28 (6422528)
I0430 16:31:14.751360 35900 net.cpp:165] Memory required for data: 1923547392
I0430 16:31:14.751380 35900 layer_factory.hpp:77] Creating layer ReLU4_4
I0430 16:31:14.751401 35900 net.cpp:106] Creating Layer ReLU4_4
I0430 16:31:14.751420 35900 net.cpp:454] ReLU4_4 <- conv4_4
I0430 16:31:14.751437 35900 net.cpp:397] ReLU4_4 -> conv4_4 (in-place)
I0430 16:31:14.751610 35900 net.cpp:150] Setting up ReLU4_4
I0430 16:31:14.751637 35900 net.cpp:157] Top shape: 16 512 28 28 (6422528)
I0430 16:31:14.751653 35900 net.cpp:165] Memory required for data: 1949237504
I0430 16:31:14.751669 35900 layer_factory.hpp:77] Creating layer pool4
I0430 16:31:14.751688 35900 net.cpp:106] Creating Layer pool4
I0430 16:31:14.751704 35900 net.cpp:454] pool4 <- conv4_4
I0430 16:31:14.751724 35900 net.cpp:411] pool4 -> pool4
I0430 16:31:14.751787 35900 net.cpp:150] Setting up pool4
I0430 16:31:14.751811 35900 net.cpp:157] Top shape: 16 512 14 14 (1605632)
I0430 16:31:14.751827 35900 net.cpp:165] Memory required for data: 1955660032
I0430 16:31:14.751842 35900 layer_factory.hpp:77] Creating layer conv5_1
I0430 16:31:14.751879 35900 net.cpp:106] Creating Layer conv5_1
I0430 16:31:14.751899 35900 net.cpp:454] conv5_1 <- pool4
I0430 16:31:14.751943 35900 net.cpp:411] conv5_1 -> conv5_1
I0430 16:31:14.758501 35900 net.cpp:150] Setting up conv5_1
I0430 16:31:14.758540 35900 net.cpp:157] Top shape: 16 512 14 14 (1605632)
I0430 16:31:14.758558 35900 net.cpp:165] Memory required for data: 1962082560
I0430 16:31:14.758576 35900 layer_factory.hpp:77] Creating layer ReLU5_1
I0430 16:31:14.758594 35900 net.cpp:106] Creating Layer ReLU5_1
I0430 16:31:14.758610 35900 net.cpp:454] ReLU5_1 <- conv5_1
I0430 16:31:14.758627 35900 net.cpp:397] ReLU5_1 -> conv5_1 (in-place)
I0430 16:31:14.758791 35900 net.cpp:150] Setting up ReLU5_1
I0430 16:31:14.758819 35900 net.cpp:157] Top shape: 16 512 14 14 (1605632)
I0430 16:31:14.758836 35900 net.cpp:165] Memory required for data: 1968505088
I0430 16:31:14.758849 35900 layer_factory.hpp:77] Creating layer conv5_2
I0430 16:31:14.758913 35900 net.cpp:106] Creating Layer conv5_2
I0430 16:31:14.758961 35900 net.cpp:454] conv5_2 <- conv5_1
I0430 16:31:14.758991 35900 net.cpp:411] conv5_2 -> conv5_2
I0430 16:31:14.765105 35900 net.cpp:150] Setting up conv5_2
I0430 16:31:14.765141 35900 net.cpp:157] Top shape: 16 512 14 14 (1605632)
I0430 16:31:14.765159 35900 net.cpp:165] Memory required for data: 1974927616
I0430 16:31:14.765177 35900 layer_factory.hpp:77] Creating layer ReLU5_2
I0430 16:31:14.765197 35900 net.cpp:106] Creating Layer ReLU5_2
I0430 16:31:14.765213 35900 net.cpp:454] ReLU5_2 <- conv5_2
I0430 16:31:14.765231 35900 net.cpp:397] ReLU5_2 -> conv5_2 (in-place)
I0430 16:31:14.765506 35900 net.cpp:150] Setting up ReLU5_2
I0430 16:31:14.765537 35900 net.cpp:157] Top shape: 16 512 14 14 (1605632)
I0430 16:31:14.765553 35900 net.cpp:165] Memory required for data: 1981350144
I0430 16:31:14.765568 35900 layer_factory.hpp:77] Creating layer conv5_3
I0430 16:31:14.765590 35900 net.cpp:106] Creating Layer conv5_3
I0430 16:31:14.765609 35900 net.cpp:454] conv5_3 <- conv5_2
I0430 16:31:14.765625 35900 net.cpp:411] conv5_3 -> conv5_3
I0430 16:31:14.772559 35900 net.cpp:150] Setting up conv5_3
I0430 16:31:14.772600 35900 net.cpp:157] Top shape: 16 512 14 14 (1605632)
I0430 16:31:14.772619 35900 net.cpp:165] Memory required for data: 1987772672
I0430 16:31:14.772639 35900 layer_factory.hpp:77] Creating layer ReLU5_3
I0430 16:31:14.772660 35900 net.cpp:106] Creating Layer ReLU5_3
I0430 16:31:14.772676 35900 net.cpp:454] ReLU5_3 <- conv5_3
I0430 16:31:14.772694 35900 net.cpp:397] ReLU5_3 -> conv5_3 (in-place)
I0430 16:31:14.772883 35900 net.cpp:150] Setting up ReLU5_3
I0430 16:31:14.772912 35900 net.cpp:157] Top shape: 16 512 14 14 (1605632)
I0430 16:31:14.772928 35900 net.cpp:165] Memory required for data: 1994195200
I0430 16:31:14.772944 35900 layer_factory.hpp:77] Creating layer conv5_4
I0430 16:31:14.772986 35900 net.cpp:106] Creating Layer conv5_4
I0430 16:31:14.773027 35900 net.cpp:454] conv5_4 <- conv5_3
I0430 16:31:14.773046 35900 net.cpp:411] conv5_4 -> conv5_4
I0430 16:31:14.779477 35900 net.cpp:150] Setting up conv5_4
I0430 16:31:14.779515 35900 net.cpp:157] Top shape: 16 512 14 14 (1605632)
I0430 16:31:14.779532 35900 net.cpp:165] Memory required for data: 2000617728
I0430 16:31:14.779551 35900 layer_factory.hpp:77] Creating layer ReLU5_4
I0430 16:31:14.779570 35900 net.cpp:106] Creating Layer ReLU5_4
I0430 16:31:14.779587 35900 net.cpp:454] ReLU5_4 <- conv5_4
I0430 16:31:14.779605 35900 net.cpp:397] ReLU5_4 -> conv5_4 (in-place)
I0430 16:31:14.779772 35900 net.cpp:150] Setting up ReLU5_4
I0430 16:31:14.779803 35900 net.cpp:157] Top shape: 16 512 14 14 (1605632)
I0430 16:31:14.779819 35900 net.cpp:165] Memory required for data: 2007040256
I0430 16:31:14.779834 35900 layer_factory.hpp:77] Creating layer pool5
I0430 16:31:14.779851 35900 net.cpp:106] Creating Layer pool5
I0430 16:31:14.779884 35900 net.cpp:454] pool5 <- conv5_4
I0430 16:31:14.779902 35900 net.cpp:411] pool5 -> pool5
I0430 16:31:14.779979 35900 net.cpp:150] Setting up pool5
I0430 16:31:14.780004 35900 net.cpp:157] Top shape: 16 512 7 7 (401408)
I0430 16:31:14.780017 35900 net.cpp:165] Memory required for data: 2008645888
I0430 16:31:14.780032 35900 layer_factory.hpp:77] Creating layer fc6
I0430 16:31:14.780050 35900 net.cpp:106] Creating Layer fc6
I0430 16:31:14.780066 35900 net.cpp:454] fc6 <- pool5
I0430 16:31:14.780083 35900 net.cpp:411] fc6 -> fc6
I0430 16:31:14.993726 35900 net.cpp:150] Setting up fc6
I0430 16:31:14.993830 35900 net.cpp:157] Top shape: 16 4096 (65536)
I0430 16:31:14.993847 35900 net.cpp:165] Memory required for data: 2008908032
I0430 16:31:14.993880 35900 layer_factory.hpp:77] Creating layer ReLU6
I0430 16:31:14.993908 35900 net.cpp:106] Creating Layer ReLU6
I0430 16:31:14.993927 35900 net.cpp:454] ReLU6 <- fc6
I0430 16:31:14.993944 35900 net.cpp:397] ReLU6 -> fc6 (in-place)
I0430 16:31:14.994355 35900 net.cpp:150] Setting up ReLU6
I0430 16:31:14.994388 35900 net.cpp:157] Top shape: 16 4096 (65536)
I0430 16:31:14.994405 35900 net.cpp:165] Memory required for data: 2009170176
I0430 16:31:14.994421 35900 layer_factory.hpp:77] Creating layer drop6
I0430 16:31:14.994441 35900 net.cpp:106] Creating Layer drop6
I0430 16:31:14.994457 35900 net.cpp:454] drop6 <- fc6
I0430 16:31:14.994474 35900 net.cpp:397] drop6 -> fc6 (in-place)
I0430 16:31:14.994524 35900 net.cpp:150] Setting up drop6
I0430 16:31:14.994546 35900 net.cpp:157] Top shape: 16 4096 (65536)
I0430 16:31:14.994561 35900 net.cpp:165] Memory required for data: 2009432320
I0430 16:31:14.994575 35900 layer_factory.hpp:77] Creating layer fc7
I0430 16:31:14.994593 35900 net.cpp:106] Creating Layer fc7
I0430 16:31:14.994609 35900 net.cpp:454] fc7 <- fc6
I0430 16:31:14.994627 35900 net.cpp:411] fc7 -> fc7
I0430 16:31:15.033004 35900 net.cpp:150] Setting up fc7
I0430 16:31:15.033109 35900 net.cpp:157] Top shape: 16 4096 (65536)
I0430 16:31:15.033128 35900 net.cpp:165] Memory required for data: 2009694464
I0430 16:31:15.033148 35900 layer_factory.hpp:77] Creating layer ReLU7
I0430 16:31:15.033170 35900 net.cpp:106] Creating Layer ReLU7
I0430 16:31:15.033188 35900 net.cpp:454] ReLU7 <- fc7
I0430 16:31:15.033208 35900 net.cpp:397] ReLU7 -> fc7 (in-place)
I0430 16:31:15.033625 35900 net.cpp:150] Setting up ReLU7
I0430 16:31:15.033659 35900 net.cpp:157] Top shape: 16 4096 (65536)
I0430 16:31:15.033675 35900 net.cpp:165] Memory required for data: 2009956608
I0430 16:31:15.033690 35900 layer_factory.hpp:77] Creating layer drop7
I0430 16:31:15.033710 35900 net.cpp:106] Creating Layer drop7
I0430 16:31:15.033725 35900 net.cpp:454] drop7 <- fc7
I0430 16:31:15.033746 35900 net.cpp:397] drop7 -> fc7 (in-place)
I0430 16:31:15.033793 35900 net.cpp:150] Setting up drop7
I0430 16:31:15.033818 35900 net.cpp:157] Top shape: 16 4096 (65536)
I0430 16:31:15.033833 35900 net.cpp:165] Memory required for data: 2010218752
I0430 16:31:15.033848 35900 layer_factory.hpp:77] Creating layer fc8_foodCAT
I0430 16:31:15.033915 35900 net.cpp:106] Creating Layer fc8_foodCAT
I0430 16:31:15.033933 35900 net.cpp:454] fc8_foodCAT <- fc7
I0430 16:31:15.033951 35900 net.cpp:411] fc8_foodCAT -> fc8_foodCAT
I0430 16:31:15.036167 35900 net.cpp:150] Setting up fc8_foodCAT
I0430 16:31:15.036201 35900 net.cpp:157] Top shape: 16 218 (3488)
I0430 16:31:15.036217 35900 net.cpp:165] Memory required for data: 2010232704
I0430 16:31:15.036236 35900 layer_factory.hpp:77] Creating layer fc8_foodCAT_fc8_foodCAT_0_split
I0430 16:31:15.036254 35900 net.cpp:106] Creating Layer fc8_foodCAT_fc8_foodCAT_0_split
I0430 16:31:15.036270 35900 net.cpp:454] fc8_foodCAT_fc8_foodCAT_0_split <- fc8_foodCAT
I0430 16:31:15.036288 35900 net.cpp:411] fc8_foodCAT_fc8_foodCAT_0_split -> fc8_foodCAT_fc8_foodCAT_0_split_0
I0430 16:31:15.036309 35900 net.cpp:411] fc8_foodCAT_fc8_foodCAT_0_split -> fc8_foodCAT_fc8_foodCAT_0_split_1
I0430 16:31:15.036329 35900 net.cpp:411] fc8_foodCAT_fc8_foodCAT_0_split -> fc8_foodCAT_fc8_foodCAT_0_split_2
I0430 16:31:15.036398 35900 net.cpp:150] Setting up fc8_foodCAT_fc8_foodCAT_0_split
I0430 16:31:15.036420 35900 net.cpp:157] Top shape: 16 218 (3488)
I0430 16:31:15.036437 35900 net.cpp:157] Top shape: 16 218 (3488)
I0430 16:31:15.036451 35900 net.cpp:157] Top shape: 16 218 (3488)
I0430 16:31:15.036465 35900 net.cpp:165] Memory required for data: 2010274560
I0430 16:31:15.036479 35900 layer_factory.hpp:77] Creating layer loss
I0430 16:31:15.036497 35900 net.cpp:106] Creating Layer loss
I0430 16:31:15.036512 35900 net.cpp:454] loss <- fc8_foodCAT_fc8_foodCAT_0_split_0
I0430 16:31:15.036528 35900 net.cpp:454] loss <- label_data_1_split_0
I0430 16:31:15.036545 35900 net.cpp:411] loss -> loss/loss
…
