…
I0429 19:37:54.173759  2468 net.cpp:322] The NetState phase (0) differed from the phase (1) specified by a rule in layer accuracy/top5
I0429 19:37:54.173893  2468 net.cpp:49] Initializing net from parameters: 
name: "foodCAT_VGG_ILSVRC_19_layer"
state {
  phase: TRAIN
}
layer {
  name: "data"
  type: "ImageData"
  top: "data"
  top: "label"
  include {
    phase: TRAIN
  }
  transform_param {
    mirror: true
    crop_size: 224
    mean_value: 104
    mean_value: 117
    mean_value: 123
  }
  image_data_param {
    source: "foodCAT_CLUSTER/train.txt"
    batch_size: 8
    shuffle: true
    new_height: 256
    new_width: 256
  }
}
layer {
  name: "conv1_1"
  type: "Convolution"
  bottom: "data"
  top: "conv1_1"
  convolution_param {
    num_output: 64
    pad: 1
    kernel_size: 3
  }
}
layer {
  name: "ReLU1_1"
  type: "ReLU"
  bottom: "conv1_1"
  top: "conv1_1"
}
layer {
  name: "conv1_2"
  type: "Convolution"
  bottom: "conv1_1"
  top: "conv1_2"
  convolution_param {
    num_output: 64
    pad: 1
    kernel_size: 3
  }
}
layer {
  name: "ReLU1_2"
  type: "ReLU"
  bottom: "conv1_2"
  top: "conv1_2"
}
layer {
  name: "pool1"
  type: "Pooling"
  bottom: "conv1_2"
  top: "pool1"
  pooling_param {
    pool: MAX
    kernel_size: 2
    stride: 2
  }
}
layer {
  name: "conv2_1"
  type: "Convolution"
  bottom: "pool1"
  top: "conv2_1"
  convolution_param {
    num_output: 128
    pad: 1
    kernel_size: 3
  }
}
layer {
  name: "ReLU2_1"
  type: "ReLU"
  bottom: "conv2_1"
  top: "conv2_1"
}
layer {
  name: "conv2_2"
  type: "Convolution"
  bottom: "conv2_1"
  top: "conv2_2"
  convolution_param {
    num_output: 128
    pad: 1
    kernel_size: 3
  }
}
layer {
  name: "ReLU2_2"
  type: "ReLU"
  bottom: "conv2_2"
  top: "conv2_2"
}
layer {
  name: "pool2"
  type: "Pooling"
  bottom: "conv2_2"
  top: "pool2"
  pooling_param {
    pool: MAX
    kernel_size: 2
    stride: 2
  }
}
layer {
  name: "conv3_1"
  type: "Convolution"
  bottom: "pool2"
  top: "conv3_1"
  convolution_param {
    num_output: 256
    pad: 1
    kernel_size: 3
  }
}
layer {
  name: "ReLU3_1"
  type: "ReLU"
  bottom: "conv3_1"
  top: "conv3_1"
}
layer {
  name: "conv3_2"
  type: "Convolution"
  bottom: "conv3_1"
  top: "conv3_2"
  convolution_param {
    num_output: 256
    pad: 1
    kernel_size: 3
  }
}
layer {
  name: "ReLU3_2"
  type: "ReLU"
  bottom: "conv3_2"
  top: "conv3_2"
}
layer {
  name: "conv3_3"
  type: "Convolution"
  bottom: "conv3_2"
  top: "conv3_3"
  convolution_param {
    num_output: 256
    pad: 1
    kernel_size: 3
  }
}
layer {
  name: "ReLU3_3"
  type: "ReLU"
  bottom: "conv3_3"
  top: "conv3_3"
}
layer {
  name: "conv3_4"
  type: "Convolution"
  bottom: "conv3_3"
  top: "conv3_4"
  convolution_param {
    num_output: 256
    pad: 1
    kernel_size: 3
  }
}
layer {
  name: "ReLU3_4"
  type: "ReLU"
  bottom: "conv3_4"
  top: "conv3_4"
}
layer {
  name: "pool3"
  type: "Pooling"
  bottom: "conv3_4"
  top: "pool3"
  pooling_param {
    pool: MAX
    kernel_size: 2
    stride: 2
  }
}
layer {
  name: "conv4_1"
  type: "Convolution"
  bottom: "pool3"
  top: "conv4_1"
  convolution_param {
    num_output: 512
    pad: 1
    kernel_size: 3
  }
}
layer {
  name: "ReLU4_1"
  type: "ReLU"
  bottom: "conv4_1"
  top: "conv4_1"
}
layer {
  name: "conv4_2"
  type: "Convolution"
  bottom: "conv4_1"
  top: "conv4_2"
  convolution_param {
    num_output: 512
    pad: 1
    kernel_size: 3
  }
}
layer {
  name: "ReLU4_2"
  type: "ReLU"
  bottom: "conv4_2"
  top: "conv4_2"
}
layer {
  name: "conv4_3"
  type: "Convolution"
  bottom: "conv4_2"
  top: "conv4_3"
  convolution_param {
    num_output: 512
    pad: 1
    kernel_size: 3
  }
}
layer {
  name: "ReLU4_3"
  type: "ReLU"
  bottom: "conv4_3"
  top: "conv4_3"
}
layer {
  name: "conv4_4"
  type: "Convolution"
  bottom: "conv4_3"
  top: "conv4_4"
  convolution_param {
    num_output: 512
    pad: 1
    kernel_size: 3
  }
}
layer {
  name: "ReLU4_4"
  type: "ReLU"
  bottom: "conv4_4"
  top: "conv4_4"
}
layer {
  name: "pool4"
  type: "Pooling"
  bottom: "conv4_4"
  top: "pool4"
  pooling_param {
    pool: MAX
    kernel_size: 2
    stride: 2
  }
}
layer {
  name: "conv5_1"
  type: "Convolution"
  bottom: "pool4"
  top: "conv5_1"
  convolution_param {
    num_output: 512
    pad: 1
    kernel_size: 3
  }
}
layer {
  name: "ReLU5_1"
  type: "ReLU"
  bottom: "conv5_1"
  top: "conv5_1"
}
layer {
  name: "conv5_2"
  type: "Convolution"
  bottom: "conv5_1"
  top: "conv5_2"
  convolution_param {
    num_output: 512
    pad: 1
    kernel_size: 3
  }
}
layer {
  name: "ReLU5_2"
  type: "ReLU"
  bottom: "conv5_2"
  top: "conv5_2"
}
layer {
  name: "conv5_3"
  type: "Convolution"
  bottom: "conv5_2"
  top: "conv5_3"
  convolution_param {
    num_output: 512
    pad: 1
    kernel_size: 3
  }
}
layer {
  name: "ReLU5_3"
  type: "ReLU"
  bottom: "conv5_3"
  top: "conv5_3"
}
layer {
  name: "conv5_4"
  type: "Convolution"
  bottom: "conv5_3"
  top: "conv5_4"
  convolution_param {
    num_output: 512
    pad: 1
    kernel_size: 3
  }
}
layer {
  name: "ReLU5_4"
  type: "ReLU"
  bottom: "conv5_4"
  top: "conv5_4"
}
layer {
  name: "pool5"
  type: "Pooling"
  bottom: "conv5_4"
  top: "pool5"
  pooling_param {
    pool: MAX
    kernel_size: 2
    stride: 2
  }
}
layer {
  name: "fc6"
  type: "InnerProduct"
  bottom: "pool5"
  top: "fc6"
  inner_product_param {
    num_output: 4096
  }
}
layer {
  name: "ReLU6"
  type: "ReLU"
  bottom: "fc6"
  top: "fc6"
}
layer {
  name: "drop6"
  type: "Dropout"
  bottom: "fc6"
  top: "fc6"
  dropout_param {
    dropout_ratio: 0.5
  }
}
layer {
  name: "fc7"
  type: "InnerProduct"
  bottom: "fc6"
  top: "fc7"
  inner_product_param {
    num_output: 4096
  }
}
layer {
  name: "ReLU7"
  type: "ReLU"
  bottom: "fc7"
  top: "fc7"
}
layer {
  name: "drop7"
  type: "Dropout"
  bottom: "fc7"
  top: "fc7"
  dropout_param {
    dropout_ratio: 0.5
  }
}
layer {
  name: "fc8_foodCAT"
  type: "InnerProduct"
  bottom: "fc7"
  top: "fc8_foodCAT"
  inner_product_param {
    num_output: 218
  }
}
layer {
  name: "loss"
  type: "SoftmaxWithLoss"
  bottom: "fc8_foodCAT"
  bottom: "label"
  top: "loss/loss"
}
I0429 19:37:54.174335  2468 layer_factory.hpp:77] Creating layer data
I0429 19:37:54.175092  2468 net.cpp:106] Creating Layer data
I0429 19:37:54.175101  2468 net.cpp:411] data -> data
I0429 19:37:54.175334  2468 net.cpp:411] data -> label
I0429 19:37:54.175637  2468 image_data_layer.cpp:38] Opening file foodCAT_CLUSTER/train.txt
I0429 19:37:54.212002  2468 image_data_layer.cpp:48] Shuffling data
I0429 19:37:54.222218  2468 image_data_layer.cpp:53] A total of 117113 images.
I0429 19:37:54.252084  2468 image_data_layer.cpp:80] output data size: 8,3,224,224
I0429 19:37:54.257517  2468 net.cpp:150] Setting up data
I0429 19:37:54.257549  2468 net.cpp:157] Top shape: 8 3 224 224 (1204224)
I0429 19:37:54.257553  2468 net.cpp:157] Top shape: 8 (8)
I0429 19:37:54.257556  2468 net.cpp:165] Memory required for data: 4816928
I0429 19:37:54.257563  2468 layer_factory.hpp:77] Creating layer conv1_1
I0429 19:37:54.257578  2468 net.cpp:106] Creating Layer conv1_1
I0429 19:37:54.257583  2468 net.cpp:454] conv1_1 <- data
I0429 19:37:54.257592  2468 net.cpp:411] conv1_1 -> conv1_1
I0429 19:37:54.518295  2468 net.cpp:150] Setting up conv1_1
I0429 19:37:54.518334  2468 net.cpp:157] Top shape: 8 64 224 224 (25690112)
I0429 19:37:54.518338  2468 net.cpp:165] Memory required for data: 107577376
I0429 19:37:54.518352  2468 layer_factory.hpp:77] Creating layer ReLU1_1
I0429 19:37:54.518364  2468 net.cpp:106] Creating Layer ReLU1_1
I0429 19:37:54.518368  2468 net.cpp:454] ReLU1_1 <- conv1_1
I0429 19:37:54.518374  2468 net.cpp:397] ReLU1_1 -> conv1_1 (in-place)
I0429 19:37:54.518800  2468 net.cpp:150] Setting up ReLU1_1
I0429 19:37:54.518810  2468 net.cpp:157] Top shape: 8 64 224 224 (25690112)
I0429 19:37:54.518812  2468 net.cpp:165] Memory required for data: 210337824
I0429 19:37:54.518815  2468 layer_factory.hpp:77] Creating layer conv1_2
I0429 19:37:54.518823  2468 net.cpp:106] Creating Layer conv1_2
I0429 19:37:54.518826  2468 net.cpp:454] conv1_2 <- conv1_1
I0429 19:37:54.518831  2468 net.cpp:411] conv1_2 -> conv1_2
I0429 19:37:54.519580  2468 net.cpp:150] Setting up conv1_2
I0429 19:37:54.519598  2468 net.cpp:157] Top shape: 8 64 224 224 (25690112)
I0429 19:37:54.519603  2468 net.cpp:165] Memory required for data: 313098272
I0429 19:37:54.519609  2468 layer_factory.hpp:77] Creating layer ReLU1_2
I0429 19:37:54.519616  2468 net.cpp:106] Creating Layer ReLU1_2
I0429 19:37:54.519620  2468 net.cpp:454] ReLU1_2 <- conv1_2
I0429 19:37:54.519624  2468 net.cpp:397] ReLU1_2 -> conv1_2 (in-place)
I0429 19:37:54.519827  2468 net.cpp:150] Setting up ReLU1_2
I0429 19:37:54.519836  2468 net.cpp:157] Top shape: 8 64 224 224 (25690112)
I0429 19:37:54.519840  2468 net.cpp:165] Memory required for data: 415858720
I0429 19:37:54.519842  2468 layer_factory.hpp:77] Creating layer pool1
I0429 19:37:54.519858  2468 net.cpp:106] Creating Layer pool1
I0429 19:37:54.519863  2468 net.cpp:454] pool1 <- conv1_2
I0429 19:37:54.519867  2468 net.cpp:411] pool1 -> pool1
I0429 19:37:54.519906  2468 net.cpp:150] Setting up pool1
I0429 19:37:54.519912  2468 net.cpp:157] Top shape: 8 64 112 112 (6422528)
I0429 19:37:54.519915  2468 net.cpp:165] Memory required for data: 441548832
I0429 19:37:54.519918  2468 layer_factory.hpp:77] Creating layer conv2_1
I0429 19:37:54.519924  2468 net.cpp:106] Creating Layer conv2_1
I0429 19:37:54.519927  2468 net.cpp:454] conv2_1 <- pool1
I0429 19:37:54.519932  2468 net.cpp:411] conv2_1 -> conv2_1
I0429 19:37:54.521105  2468 net.cpp:150] Setting up conv2_1
I0429 19:37:54.521116  2468 net.cpp:157] Top shape: 8 128 112 112 (12845056)
I0429 19:37:54.521121  2468 net.cpp:165] Memory required for data: 492929056
I0429 19:37:54.521129  2468 layer_factory.hpp:77] Creating layer ReLU2_1
I0429 19:37:54.521134  2468 net.cpp:106] Creating Layer ReLU2_1
I0429 19:37:54.521137  2468 net.cpp:454] ReLU2_1 <- conv2_1
I0429 19:37:54.521142  2468 net.cpp:397] ReLU2_1 -> conv2_1 (in-place)
I0429 19:37:54.521327  2468 net.cpp:150] Setting up ReLU2_1
I0429 19:37:54.521337  2468 net.cpp:157] Top shape: 8 128 112 112 (12845056)
I0429 19:37:54.521339  2468 net.cpp:165] Memory required for data: 544309280
I0429 19:37:54.521342  2468 layer_factory.hpp:77] Creating layer conv2_2
I0429 19:37:54.521348  2468 net.cpp:106] Creating Layer conv2_2
I0429 19:37:54.521352  2468 net.cpp:454] conv2_2 <- conv2_1
I0429 19:37:54.521356  2468 net.cpp:411] conv2_2 -> conv2_2
I0429 19:37:54.522074  2468 net.cpp:150] Setting up conv2_2
I0429 19:37:54.522083  2468 net.cpp:157] Top shape: 8 128 112 112 (12845056)
I0429 19:37:54.522088  2468 net.cpp:165] Memory required for data: 595689504
I0429 19:37:54.522092  2468 layer_factory.hpp:77] Creating layer ReLU2_2
I0429 19:37:54.522097  2468 net.cpp:106] Creating Layer ReLU2_2
I0429 19:37:54.522101  2468 net.cpp:454] ReLU2_2 <- conv2_2
I0429 19:37:54.522105  2468 net.cpp:397] ReLU2_2 -> conv2_2 (in-place)
I0429 19:37:54.522217  2468 net.cpp:150] Setting up ReLU2_2
I0429 19:37:54.522224  2468 net.cpp:157] Top shape: 8 128 112 112 (12845056)
I0429 19:37:54.522228  2468 net.cpp:165] Memory required for data: 647069728
I0429 19:37:54.522230  2468 layer_factory.hpp:77] Creating layer pool2
I0429 19:37:54.522238  2468 net.cpp:106] Creating Layer pool2
I0429 19:37:54.522245  2468 net.cpp:454] pool2 <- conv2_2
I0429 19:37:54.522250  2468 net.cpp:411] pool2 -> pool2
I0429 19:37:54.522279  2468 net.cpp:150] Setting up pool2
I0429 19:37:54.522284  2468 net.cpp:157] Top shape: 8 128 56 56 (3211264)
I0429 19:37:54.522286  2468 net.cpp:165] Memory required for data: 659914784
I0429 19:37:54.522289  2468 layer_factory.hpp:77] Creating layer conv3_1
I0429 19:37:54.522294  2468 net.cpp:106] Creating Layer conv3_1
I0429 19:37:54.522297  2468 net.cpp:454] conv3_1 <- pool2
I0429 19:37:54.522302  2468 net.cpp:411] conv3_1 -> conv3_1
I0429 19:37:54.523358  2468 net.cpp:150] Setting up conv3_1
I0429 19:37:54.523368  2468 net.cpp:157] Top shape: 8 256 56 56 (6422528)
I0429 19:37:54.523372  2468 net.cpp:165] Memory required for data: 685604896
I0429 19:37:54.523380  2468 layer_factory.hpp:77] Creating layer ReLU3_1
I0429 19:37:54.523386  2468 net.cpp:106] Creating Layer ReLU3_1
I0429 19:37:54.523388  2468 net.cpp:454] ReLU3_1 <- conv3_1
I0429 19:37:54.523393  2468 net.cpp:397] ReLU3_1 -> conv3_1 (in-place)
I0429 19:37:54.523584  2468 net.cpp:150] Setting up ReLU3_1
I0429 19:37:54.523598  2468 net.cpp:157] Top shape: 8 256 56 56 (6422528)
I0429 19:37:54.523602  2468 net.cpp:165] Memory required for data: 711295008
I0429 19:37:54.523604  2468 layer_factory.hpp:77] Creating layer conv3_2
I0429 19:37:54.523612  2468 net.cpp:106] Creating Layer conv3_2
I0429 19:37:54.523614  2468 net.cpp:454] conv3_2 <- conv3_1
I0429 19:37:54.523618  2468 net.cpp:411] conv3_2 -> conv3_2
I0429 19:37:54.524875  2468 net.cpp:150] Setting up conv3_2
I0429 19:37:54.524885  2468 net.cpp:157] Top shape: 8 256 56 56 (6422528)
I0429 19:37:54.524888  2468 net.cpp:165] Memory required for data: 736985120
I0429 19:37:54.524893  2468 layer_factory.hpp:77] Creating layer ReLU3_2
I0429 19:37:54.524899  2468 net.cpp:106] Creating Layer ReLU3_2
I0429 19:37:54.524901  2468 net.cpp:454] ReLU3_2 <- conv3_2
I0429 19:37:54.524906  2468 net.cpp:397] ReLU3_2 -> conv3_2 (in-place)
I0429 19:37:54.525095  2468 net.cpp:150] Setting up ReLU3_2
I0429 19:37:54.525104  2468 net.cpp:157] Top shape: 8 256 56 56 (6422528)
I0429 19:37:54.525106  2468 net.cpp:165] Memory required for data: 762675232
I0429 19:37:54.525110  2468 layer_factory.hpp:77] Creating layer conv3_3
I0429 19:37:54.525116  2468 net.cpp:106] Creating Layer conv3_3
I0429 19:37:54.525120  2468 net.cpp:454] conv3_3 <- conv3_2
I0429 19:37:54.525125  2468 net.cpp:411] conv3_3 -> conv3_3
I0429 19:37:54.526551  2468 net.cpp:150] Setting up conv3_3
I0429 19:37:54.526561  2468 net.cpp:157] Top shape: 8 256 56 56 (6422528)
I0429 19:37:54.526564  2468 net.cpp:165] Memory required for data: 788365344
I0429 19:37:54.526569  2468 layer_factory.hpp:77] Creating layer ReLU3_3
I0429 19:37:54.526576  2468 net.cpp:106] Creating Layer ReLU3_3
I0429 19:37:54.526581  2468 net.cpp:454] ReLU3_3 <- conv3_3
I0429 19:37:54.526584  2468 net.cpp:397] ReLU3_3 -> conv3_3 (in-place)
I0429 19:37:54.526710  2468 net.cpp:150] Setting up ReLU3_3
I0429 19:37:54.526716  2468 net.cpp:157] Top shape: 8 256 56 56 (6422528)
I0429 19:37:54.526720  2468 net.cpp:165] Memory required for data: 814055456
I0429 19:37:54.526722  2468 layer_factory.hpp:77] Creating layer conv3_4
I0429 19:37:54.526728  2468 net.cpp:106] Creating Layer conv3_4
I0429 19:37:54.526731  2468 net.cpp:454] conv3_4 <- conv3_3
I0429 19:37:54.526736  2468 net.cpp:411] conv3_4 -> conv3_4
I0429 19:37:54.528079  2468 net.cpp:150] Setting up conv3_4
I0429 19:37:54.528090  2468 net.cpp:157] Top shape: 8 256 56 56 (6422528)
I0429 19:37:54.528093  2468 net.cpp:165] Memory required for data: 839745568
I0429 19:37:54.528098  2468 layer_factory.hpp:77] Creating layer ReLU3_4
I0429 19:37:54.528103  2468 net.cpp:106] Creating Layer ReLU3_4
I0429 19:37:54.528106  2468 net.cpp:454] ReLU3_4 <- conv3_4
I0429 19:37:54.528110  2468 net.cpp:397] ReLU3_4 -> conv3_4 (in-place)
I0429 19:37:54.528302  2468 net.cpp:150] Setting up ReLU3_4
I0429 19:37:54.528311  2468 net.cpp:157] Top shape: 8 256 56 56 (6422528)
I0429 19:37:54.528318  2468 net.cpp:165] Memory required for data: 865435680
I0429 19:37:54.528327  2468 layer_factory.hpp:77] Creating layer pool3
I0429 19:37:54.528333  2468 net.cpp:106] Creating Layer pool3
I0429 19:37:54.528337  2468 net.cpp:454] pool3 <- conv3_4
I0429 19:37:54.528342  2468 net.cpp:411] pool3 -> pool3
I0429 19:37:54.528373  2468 net.cpp:150] Setting up pool3
I0429 19:37:54.528378  2468 net.cpp:157] Top shape: 8 256 28 28 (1605632)
I0429 19:37:54.528380  2468 net.cpp:165] Memory required for data: 871858208
I0429 19:37:54.528383  2468 layer_factory.hpp:77] Creating layer conv4_1
I0429 19:37:54.528390  2468 net.cpp:106] Creating Layer conv4_1
I0429 19:37:54.528393  2468 net.cpp:454] conv4_1 <- pool3
I0429 19:37:54.528398  2468 net.cpp:411] conv4_1 -> conv4_1
I0429 19:37:54.530648  2468 net.cpp:150] Setting up conv4_1
I0429 19:37:54.530668  2468 net.cpp:157] Top shape: 8 512 28 28 (3211264)
I0429 19:37:54.530671  2468 net.cpp:165] Memory required for data: 884703264
I0429 19:37:54.530683  2468 layer_factory.hpp:77] Creating layer ReLU4_1
I0429 19:37:54.530691  2468 net.cpp:106] Creating Layer ReLU4_1
I0429 19:37:54.530695  2468 net.cpp:454] ReLU4_1 <- conv4_1
I0429 19:37:54.530700  2468 net.cpp:397] ReLU4_1 -> conv4_1 (in-place)
I0429 19:37:54.530897  2468 net.cpp:150] Setting up ReLU4_1
I0429 19:37:54.530906  2468 net.cpp:157] Top shape: 8 512 28 28 (3211264)
I0429 19:37:54.530910  2468 net.cpp:165] Memory required for data: 897548320
I0429 19:37:54.530913  2468 layer_factory.hpp:77] Creating layer conv4_2
I0429 19:37:54.530920  2468 net.cpp:106] Creating Layer conv4_2
I0429 19:37:54.530923  2468 net.cpp:454] conv4_2 <- conv4_1
I0429 19:37:54.530928  2468 net.cpp:411] conv4_2 -> conv4_2
I0429 19:37:54.535784  2468 net.cpp:150] Setting up conv4_2
I0429 19:37:54.535816  2468 net.cpp:157] Top shape: 8 512 28 28 (3211264)
I0429 19:37:54.535820  2468 net.cpp:165] Memory required for data: 910393376
I0429 19:37:54.535827  2468 layer_factory.hpp:77] Creating layer ReLU4_2
I0429 19:37:54.535837  2468 net.cpp:106] Creating Layer ReLU4_2
I0429 19:37:54.535841  2468 net.cpp:454] ReLU4_2 <- conv4_2
I0429 19:37:54.535847  2468 net.cpp:397] ReLU4_2 -> conv4_2 (in-place)
I0429 19:37:54.535969  2468 net.cpp:150] Setting up ReLU4_2
I0429 19:37:54.535975  2468 net.cpp:157] Top shape: 8 512 28 28 (3211264)
I0429 19:37:54.535979  2468 net.cpp:165] Memory required for data: 923238432
I0429 19:37:54.535981  2468 layer_factory.hpp:77] Creating layer conv4_3
I0429 19:37:54.535989  2468 net.cpp:106] Creating Layer conv4_3
I0429 19:37:54.535992  2468 net.cpp:454] conv4_3 <- conv4_2
I0429 19:37:54.535997  2468 net.cpp:411] conv4_3 -> conv4_3
I0429 19:37:54.540810  2468 net.cpp:150] Setting up conv4_3
I0429 19:37:54.540841  2468 net.cpp:157] Top shape: 8 512 28 28 (3211264)
I0429 19:37:54.540844  2468 net.cpp:165] Memory required for data: 936083488
I0429 19:37:54.540853  2468 layer_factory.hpp:77] Creating layer ReLU4_3
I0429 19:37:54.540861  2468 net.cpp:106] Creating Layer ReLU4_3
I0429 19:37:54.540866  2468 net.cpp:454] ReLU4_3 <- conv4_3
I0429 19:37:54.540873  2468 net.cpp:397] ReLU4_3 -> conv4_3 (in-place)
I0429 19:37:54.541075  2468 net.cpp:150] Setting up ReLU4_3
I0429 19:37:54.541085  2468 net.cpp:157] Top shape: 8 512 28 28 (3211264)
I0429 19:37:54.541087  2468 net.cpp:165] Memory required for data: 948928544
I0429 19:37:54.541090  2468 layer_factory.hpp:77] Creating layer conv4_4
I0429 19:37:54.541098  2468 net.cpp:106] Creating Layer conv4_4
I0429 19:37:54.541101  2468 net.cpp:454] conv4_4 <- conv4_3
I0429 19:37:54.541107  2468 net.cpp:411] conv4_4 -> conv4_4
I0429 19:37:54.546053  2468 net.cpp:150] Setting up conv4_4
I0429 19:37:54.546085  2468 net.cpp:157] Top shape: 8 512 28 28 (3211264)
I0429 19:37:54.546089  2468 net.cpp:165] Memory required for data: 961773600
I0429 19:37:54.546097  2468 layer_factory.hpp:77] Creating layer ReLU4_4
I0429 19:37:54.546104  2468 net.cpp:106] Creating Layer ReLU4_4
I0429 19:37:54.546109  2468 net.cpp:454] ReLU4_4 <- conv4_4
I0429 19:37:54.546114  2468 net.cpp:397] ReLU4_4 -> conv4_4 (in-place)
I0429 19:37:54.546321  2468 net.cpp:150] Setting up ReLU4_4
I0429 19:37:54.546336  2468 net.cpp:157] Top shape: 8 512 28 28 (3211264)
I0429 19:37:54.546339  2468 net.cpp:165] Memory required for data: 974618656
I0429 19:37:54.546344  2468 layer_factory.hpp:77] Creating layer pool4
I0429 19:37:54.546349  2468 net.cpp:106] Creating Layer pool4
I0429 19:37:54.546351  2468 net.cpp:454] pool4 <- conv4_4
I0429 19:37:54.546357  2468 net.cpp:411] pool4 -> pool4
I0429 19:37:54.546391  2468 net.cpp:150] Setting up pool4
I0429 19:37:54.546394  2468 net.cpp:157] Top shape: 8 512 14 14 (802816)
I0429 19:37:54.546397  2468 net.cpp:165] Memory required for data: 977829920
I0429 19:37:54.546401  2468 layer_factory.hpp:77] Creating layer conv5_1
I0429 19:37:54.546407  2468 net.cpp:106] Creating Layer conv5_1
I0429 19:37:54.546411  2468 net.cpp:454] conv5_1 <- pool4
I0429 19:37:54.546416  2468 net.cpp:411] conv5_1 -> conv5_1
I0429 19:37:54.551290  2468 net.cpp:150] Setting up conv5_1
I0429 19:37:54.551321  2468 net.cpp:157] Top shape: 8 512 14 14 (802816)
I0429 19:37:54.551324  2468 net.cpp:165] Memory required for data: 981041184
I0429 19:37:54.551332  2468 layer_factory.hpp:77] Creating layer ReLU5_1
I0429 19:37:54.551342  2468 net.cpp:106] Creating Layer ReLU5_1
I0429 19:37:54.551347  2468 net.cpp:454] ReLU5_1 <- conv5_1
I0429 19:37:54.551352  2468 net.cpp:397] ReLU5_1 -> conv5_1 (in-place)
I0429 19:37:54.551553  2468 net.cpp:150] Setting up ReLU5_1
I0429 19:37:54.551561  2468 net.cpp:157] Top shape: 8 512 14 14 (802816)
I0429 19:37:54.551564  2468 net.cpp:165] Memory required for data: 984252448
I0429 19:37:54.551568  2468 layer_factory.hpp:77] Creating layer conv5_2
I0429 19:37:54.551576  2468 net.cpp:106] Creating Layer conv5_2
I0429 19:37:54.551579  2468 net.cpp:454] conv5_2 <- conv5_1
I0429 19:37:54.551584  2468 net.cpp:411] conv5_2 -> conv5_2
I0429 19:37:54.556404  2468 net.cpp:150] Setting up conv5_2
I0429 19:37:54.556435  2468 net.cpp:157] Top shape: 8 512 14 14 (802816)
I0429 19:37:54.556438  2468 net.cpp:165] Memory required for data: 987463712
I0429 19:37:54.556445  2468 layer_factory.hpp:77] Creating layer ReLU5_2
I0429 19:37:54.556458  2468 net.cpp:106] Creating Layer ReLU5_2
I0429 19:37:54.556463  2468 net.cpp:454] ReLU5_2 <- conv5_2
I0429 19:37:54.556468  2468 net.cpp:397] ReLU5_2 -> conv5_2 (in-place)
I0429 19:37:54.556668  2468 net.cpp:150] Setting up ReLU5_2
I0429 19:37:54.556675  2468 net.cpp:157] Top shape: 8 512 14 14 (802816)
I0429 19:37:54.556679  2468 net.cpp:165] Memory required for data: 990674976
I0429 19:37:54.556681  2468 layer_factory.hpp:77] Creating layer conv5_3
I0429 19:37:54.556689  2468 net.cpp:106] Creating Layer conv5_3
I0429 19:37:54.556694  2468 net.cpp:454] conv5_3 <- conv5_2
I0429 19:37:54.556697  2468 net.cpp:411] conv5_3 -> conv5_3
I0429 19:37:54.561667  2468 net.cpp:150] Setting up conv5_3
I0429 19:37:54.561697  2468 net.cpp:157] Top shape: 8 512 14 14 (802816)
I0429 19:37:54.561702  2468 net.cpp:165] Memory required for data: 993886240
I0429 19:37:54.561708  2468 layer_factory.hpp:77] Creating layer ReLU5_3
I0429 19:37:54.561717  2468 net.cpp:106] Creating Layer ReLU5_3
I0429 19:37:54.561722  2468 net.cpp:454] ReLU5_3 <- conv5_3
I0429 19:37:54.561728  2468 net.cpp:397] ReLU5_3 -> conv5_3 (in-place)
I0429 19:37:54.561926  2468 net.cpp:150] Setting up ReLU5_3
I0429 19:37:54.561935  2468 net.cpp:157] Top shape: 8 512 14 14 (802816)
I0429 19:37:54.561939  2468 net.cpp:165] Memory required for data: 997097504
I0429 19:37:54.561941  2468 layer_factory.hpp:77] Creating layer conv5_4
I0429 19:37:54.561949  2468 net.cpp:106] Creating Layer conv5_4
I0429 19:37:54.561952  2468 net.cpp:454] conv5_4 <- conv5_3
I0429 19:37:54.561959  2468 net.cpp:411] conv5_4 -> conv5_4
I0429 19:37:54.566799  2468 net.cpp:150] Setting up conv5_4
I0429 19:37:54.566829  2468 net.cpp:157] Top shape: 8 512 14 14 (802816)
I0429 19:37:54.566833  2468 net.cpp:165] Memory required for data: 1000308768
I0429 19:37:54.566839  2468 layer_factory.hpp:77] Creating layer ReLU5_4
I0429 19:37:54.566849  2468 net.cpp:106] Creating Layer ReLU5_4
I0429 19:37:54.566861  2468 net.cpp:454] ReLU5_4 <- conv5_4
I0429 19:37:54.566874  2468 net.cpp:397] ReLU5_4 -> conv5_4 (in-place)
I0429 19:37:54.566998  2468 net.cpp:150] Setting up ReLU5_4
I0429 19:37:54.567004  2468 net.cpp:157] Top shape: 8 512 14 14 (802816)
I0429 19:37:54.567006  2468 net.cpp:165] Memory required for data: 1003520032
I0429 19:37:54.567009  2468 layer_factory.hpp:77] Creating layer pool5
I0429 19:37:54.567015  2468 net.cpp:106] Creating Layer pool5
I0429 19:37:54.567018  2468 net.cpp:454] pool5 <- conv5_4
I0429 19:37:54.567023  2468 net.cpp:411] pool5 -> pool5
I0429 19:37:54.567060  2468 net.cpp:150] Setting up pool5
I0429 19:37:54.567066  2468 net.cpp:157] Top shape: 8 512 7 7 (200704)
I0429 19:37:54.567070  2468 net.cpp:165] Memory required for data: 1004322848
I0429 19:37:54.567071  2468 layer_factory.hpp:77] Creating layer fc6
I0429 19:37:54.567076  2468 net.cpp:106] Creating Layer fc6
I0429 19:37:54.567080  2468 net.cpp:454] fc6 <- pool5
I0429 19:37:54.567083  2468 net.cpp:411] fc6 -> fc6
I0429 19:37:54.771610  2468 net.cpp:150] Setting up fc6
I0429 19:37:54.771641  2468 net.cpp:157] Top shape: 8 4096 (32768)
I0429 19:37:54.771646  2468 net.cpp:165] Memory required for data: 1004453920
I0429 19:37:54.771661  2468 layer_factory.hpp:77] Creating layer ReLU6
I0429 19:37:54.771670  2468 net.cpp:106] Creating Layer ReLU6
I0429 19:37:54.771675  2468 net.cpp:454] ReLU6 <- fc6
I0429 19:37:54.771680  2468 net.cpp:397] ReLU6 -> fc6 (in-place)
I0429 19:37:54.772002  2468 net.cpp:150] Setting up ReLU6
I0429 19:37:54.772011  2468 net.cpp:157] Top shape: 8 4096 (32768)
I0429 19:37:54.772014  2468 net.cpp:165] Memory required for data: 1004584992
I0429 19:37:54.772017  2468 layer_factory.hpp:77] Creating layer drop6
I0429 19:37:54.772028  2468 net.cpp:106] Creating Layer drop6
I0429 19:37:54.772032  2468 net.cpp:454] drop6 <- fc6
I0429 19:37:54.772037  2468 net.cpp:397] drop6 -> fc6 (in-place)
I0429 19:37:54.772063  2468 net.cpp:150] Setting up drop6
I0429 19:37:54.772068  2468 net.cpp:157] Top shape: 8 4096 (32768)
I0429 19:37:54.772071  2468 net.cpp:165] Memory required for data: 1004716064
I0429 19:37:54.772074  2468 layer_factory.hpp:77] Creating layer fc7
I0429 19:37:54.772080  2468 net.cpp:106] Creating Layer fc7
I0429 19:37:54.772083  2468 net.cpp:454] fc7 <- fc6
I0429 19:37:54.772088  2468 net.cpp:411] fc7 -> fc7
I0429 19:37:54.805883  2468 net.cpp:150] Setting up fc7
I0429 19:37:54.805914  2468 net.cpp:157] Top shape: 8 4096 (32768)
I0429 19:37:54.805918  2468 net.cpp:165] Memory required for data: 1004847136
I0429 19:37:54.805925  2468 layer_factory.hpp:77] Creating layer ReLU7
I0429 19:37:54.805934  2468 net.cpp:106] Creating Layer ReLU7
I0429 19:37:54.805938  2468 net.cpp:454] ReLU7 <- fc7
I0429 19:37:54.805945  2468 net.cpp:397] ReLU7 -> fc7 (in-place)
I0429 19:37:54.806114  2468 net.cpp:150] Setting up ReLU7
I0429 19:37:54.806121  2468 net.cpp:157] Top shape: 8 4096 (32768)
I0429 19:37:54.806124  2468 net.cpp:165] Memory required for data: 1004978208
I0429 19:37:54.806128  2468 layer_factory.hpp:77] Creating layer drop7
I0429 19:37:54.806133  2468 net.cpp:106] Creating Layer drop7
I0429 19:37:54.806135  2468 net.cpp:454] drop7 <- fc7
I0429 19:37:54.806139  2468 net.cpp:397] drop7 -> fc7 (in-place)
I0429 19:37:54.806161  2468 net.cpp:150] Setting up drop7
I0429 19:37:54.806166  2468 net.cpp:157] Top shape: 8 4096 (32768)
I0429 19:37:54.806169  2468 net.cpp:165] Memory required for data: 1005109280
I0429 19:37:54.806171  2468 layer_factory.hpp:77] Creating layer fc8_foodCAT
I0429 19:37:54.806177  2468 net.cpp:106] Creating Layer fc8_foodCAT
I0429 19:37:54.806180  2468 net.cpp:454] fc8_foodCAT <- fc7
I0429 19:37:54.806185  2468 net.cpp:411] fc8_foodCAT -> fc8_foodCAT
I0429 19:37:54.807342  2468 net.cpp:150] Setting up fc8_foodCAT
I0429 19:37:54.807350  2468 net.cpp:157] Top shape: 8 218 (1744)
I0429 19:37:54.807353  2468 net.cpp:165] Memory required for data: 1005116256
I0429 19:37:54.807358  2468 layer_factory.hpp:77] Creating layer loss
I0429 19:37:54.807366  2468 net.cpp:106] Creating Layer loss
I0429 19:37:54.807376  2468 net.cpp:454] loss <- fc8_foodCAT
I0429 19:37:54.807385  2468 net.cpp:454] loss <- label
I0429 19:37:54.807390  2468 net.cpp:411] loss -> loss/loss
I0429 19:37:54.809432  2468 layer_factory.hpp:77] Creating layer loss
…
I0429 19:37:54.810659  2468 net.cpp:322] The NetState phase (1) differed from the phase (0) specified by a rule in layer data
I0429 19:37:54.810816  2468 net.cpp:49] Initializing net from parameters: 
name: "foodCAT_VGG_ILSVRC_19_layer"
state {
  phase: TEST
}
layer {
  name: "data"
  type: "ImageData"
  top: "data"
  top: "label"
  include {
    phase: TEST
  }
  transform_param {
    mirror: false
    crop_size: 224
    mean_value: 104
    mean_value: 117
    mean_value: 123
  }
  image_data_param {
    source: "foodCAT_CLUSTER/val.txt"
    batch_size: 8
    shuffle: true
    new_height: 256
    new_width: 256
  }
}
layer {
  name: "conv1_1"
  type: "Convolution"
  bottom: "data"
  top: "conv1_1"
  convolution_param {
    num_output: 64
    pad: 1
    kernel_size: 3
  }
}
layer {
  name: "ReLU1_1"
  type: "ReLU"
  bottom: "conv1_1"
  top: "conv1_1"
}
layer {
  name: "conv1_2"
  type: "Convolution"
  bottom: "conv1_1"
  top: "conv1_2"
  convolution_param {
    num_output: 64
    pad: 1
    kernel_size: 3
  }
}
layer {
  name: "ReLU1_2"
  type: "ReLU"
  bottom: "conv1_2"
  top: "conv1_2"
}
layer {
  name: "pool1"
  type: "Pooling"
  bottom: "conv1_2"
  top: "pool1"
  pooling_param {
    pool: MAX
    kernel_size: 2
    stride: 2
  }
}
layer {
  name: "conv2_1"
  type: "Convolution"
  bottom: "pool1"
  top: "conv2_1"
  convolution_param {
    num_output: 128
    pad: 1
    kernel_size: 3
  }
}
layer {
  name: "ReLU2_1"
  type: "ReLU"
  bottom: "conv2_1"
  top: "conv2_1"
}
layer {
  name: "conv2_2"
  type: "Convolution"
  bottom: "conv2_1"
  top: "conv2_2"
  convolution_param {
    num_output: 128
    pad: 1
    kernel_size: 3
  }
}
layer {
  name: "ReLU2_2"
  type: "ReLU"
  bottom: "conv2_2"
  top: "conv2_2"
}
layer {
  name: "pool2"
  type: "Pooling"
  bottom: "conv2_2"
  top: "pool2"
  pooling_param {
    pool: MAX
    kernel_size: 2
    stride: 2
  }
}
layer {
  name: "conv3_1"
  type: "Convolution"
  bottom: "pool2"
  top: "conv3_1"
  convolution_param {
    num_output: 256
    pad: 1
    kernel_size: 3
  }
}
layer {
  name: "ReLU3_1"
  type: "ReLU"
  bottom: "conv3_1"
  top: "conv3_1"
}
layer {
  name: "conv3_2"
  type: "Convolution"
  bottom: "conv3_1"
  top: "conv3_2"
  convolution_param {
    num_output: 256
    pad: 1
    kernel_size: 3
  }
}
layer {
  name: "ReLU3_2"
  type: "ReLU"
  bottom: "conv3_2"
  top: "conv3_2"
}
layer {
  name: "conv3_3"
  type: "Convolution"
  bottom: "conv3_2"
  top: "conv3_3"
  convolution_param {
    num_output: 256
    pad: 1
    kernel_size: 3
  }
}
layer {
  name: "ReLU3_3"
  type: "ReLU"
  bottom: "conv3_3"
  top: "conv3_3"
}
layer {
  name: "conv3_4"
  type: "Convolution"
  bottom: "conv3_3"
  top: "conv3_4"
  convolution_param {
    num_output: 256
    pad: 1
    kernel_size: 3
  }
}
layer {
  name: "ReLU3_4"
  type: "ReLU"
  bottom: "conv3_4"
  top: "conv3_4"
}
layer {
  name: "pool3"
  type: "Pooling"
  bottom: "conv3_4"
  top: "pool3"
  pooling_param {
    pool: MAX
    kernel_size: 2
    stride: 2
  }
}
layer {
  name: "conv4_1"
  type: "Convolution"
  bottom: "pool3"
  top: "conv4_1"
  convolution_param {
    num_output: 512
    pad: 1
    kernel_size: 3
  }
}
layer {
  name: "ReLU4_1"
  type: "ReLU"
  bottom: "conv4_1"
  top: "conv4_1"
}
layer {
  name: "conv4_2"
  type: "Convolution"
  bottom: "conv4_1"
  top: "conv4_2"
  convolution_param {
    num_output: 512
    pad: 1
    kernel_size: 3
  }
}
layer {
  name: "ReLU4_2"
  type: "ReLU"
  bottom: "conv4_2"
  top: "conv4_2"
}
layer {
  name: "conv4_3"
  type: "Convolution"
  bottom: "conv4_2"
  top: "conv4_3"
  convolution_param {
    num_output: 512
    pad: 1
    kernel_size: 3
  }
}
layer {
  name: "ReLU4_3"
  type: "ReLU"
  bottom: "conv4_3"
  top: "conv4_3"
}
layer {
  name: "conv4_4"
  type: "Convolution"
  bottom: "conv4_3"
  top: "conv4_4"
  convolution_param {
    num_output: 512
    pad: 1
    kernel_size: 3
  }
}
layer {
  name: "ReLU4_4"
  type: "ReLU"
  bottom: "conv4_4"
  top: "conv4_4"
}
layer {
  name: "pool4"
  type: "Pooling"
  bottom: "conv4_4"
  top: "pool4"
  pooling_param {
    pool: MAX
    kernel_size: 2
    stride: 2
  }
}
layer {
  name: "conv5_1"
  type: "Convolution"
  bottom: "pool4"
  top: "conv5_1"
  convolution_param {
    num_output: 512
    pad: 1
    kernel_size: 3
  }
}
layer {
  name: "ReLU5_1"
  type: "ReLU"
  bottom: "conv5_1"
  top: "conv5_1"
}
layer {
  name: "conv5_2"
  type: "Convolution"
  bottom: "conv5_1"
  top: "conv5_2"
  convolution_param {
    num_output: 512
    pad: 1
    kernel_size: 3
  }
}
layer {
  name: "ReLU5_2"
  type: "ReLU"
  bottom: "conv5_2"
  top: "conv5_2"
}
layer {
  name: "conv5_3"
  type: "Convolution"
  bottom: "conv5_2"
  top: "conv5_3"
  convolution_param {
    num_output: 512
    pad: 1
    kernel_size: 3
  }
}
layer {
  name: "ReLU5_3"
  type: "ReLU"
  bottom: "conv5_3"
  top: "conv5_3"
}
layer {
  name: "conv5_4"
  type: "Convolution"
  bottom: "conv5_3"
  top: "conv5_4"
  convolution_param {
    num_output: 512
    pad: 1
    kernel_size: 3
  }
}
layer {
  name: "ReLU5_4"
  type: "ReLU"
  bottom: "conv5_4"
  top: "conv5_4"
}
layer {
  name: "pool5"
  type: "Pooling"
  bottom: "conv5_4"
  top: "pool5"
  pooling_param {
    pool: MAX
    kernel_size: 2
    stride: 2
  }
}
layer {
  name: "fc6"
  type: "InnerProduct"
  bottom: "pool5"
  top: "fc6"
  inner_product_param {
    num_output: 4096
  }
}
layer {
  name: "ReLU6"
  type: "ReLU"
  bottom: "fc6"
  top: "fc6"
}
layer {
  name: "drop6"
  type: "Dropout"
  bottom: "fc6"
  top: "fc6"
  dropout_param {
    dropout_ratio: 0.5
  }
}
layer {
  name: "fc7"
  type: "InnerProduct"
  bottom: "fc6"
  top: "fc7"
  inner_product_param {
    num_output: 4096
  }
}
layer {
  name: "ReLU7"
  type: "ReLU"
  bottom: "fc7"
  top: "fc7"
}
layer {
  name: "drop7"
  type: "Dropout"
  bottom: "fc7"
  top: "fc7"
  dropout_param {
    dropout_ratio: 0.5
  }
}
layer {
  name: "fc8_foodCAT"
  type: "InnerProduct"
  bottom: "fc7"
  top: "fc8_foodCAT"
  inner_product_param {
    num_output: 218
  }
}
layer {
  name: "loss"
  type: "SoftmaxWithLoss"
  bottom: "fc8_foodCAT"
  bottom: "label"
  top: "loss/loss"
}
layer {
  name: "accuracy/top1"
  type: "Accuracy"
  bottom: "fc8_foodCAT"
  bottom: "label"
  top: "accuracy@1"
  include {
    phase: TEST
  }
  accuracy_param {
    top_k: 1
  }
}
layer {
  name: "accuracy/top5"
  type: "Accuracy"
  bottom: "fc8_foodCAT"
  bottom: "label"
  top: "accuracy@5"
  include {
    phase: TEST
  }
  accuracy_param {
    top_k: 5
  }
}
I0429 19:37:54.810951  2468 layer_factory.hpp:77] Creating layer data
I0429 19:37:54.810971  2468 net.cpp:106] Creating Layer data
I0429 19:37:54.810976  2468 net.cpp:411] data -> data
I0429 19:37:54.810982  2468 net.cpp:411] data -> label
I0429 19:37:54.810989  2468 image_data_layer.cpp:38] Opening file foodCAT_CLUSTER/val.txt
I0429 19:37:54.815817  2468 image_data_layer.cpp:48] Shuffling data
I0429 19:37:54.816481  2468 image_data_layer.cpp:53] A total of 14649 images.
I0429 19:37:54.820122  2468 image_data_layer.cpp:80] output data size: 8,3,224,224
I0429 19:37:54.825664  2468 net.cpp:150] Setting up data
I0429 19:37:54.825692  2468 net.cpp:157] Top shape: 8 3 224 224 (1204224)
I0429 19:37:54.825697  2468 net.cpp:157] Top shape: 8 (8)
I0429 19:37:54.825700  2468 net.cpp:165] Memory required for data: 4816928
I0429 19:37:54.825706  2468 layer_factory.hpp:77] Creating layer label_data_1_split
I0429 19:37:54.825716  2468 net.cpp:106] Creating Layer label_data_1_split
I0429 19:37:54.825719  2468 net.cpp:454] label_data_1_split <- label
I0429 19:37:54.825724  2468 net.cpp:411] label_data_1_split -> label_data_1_split_0
I0429 19:37:54.825732  2468 net.cpp:411] label_data_1_split -> label_data_1_split_1
I0429 19:37:54.825737  2468 net.cpp:411] label_data_1_split -> label_data_1_split_2
I0429 19:37:54.825821  2468 net.cpp:150] Setting up label_data_1_split
I0429 19:37:54.825827  2468 net.cpp:157] Top shape: 8 (8)
I0429 19:37:54.825847  2468 net.cpp:157] Top shape: 8 (8)
I0429 19:37:54.825857  2468 net.cpp:157] Top shape: 8 (8)
I0429 19:37:54.825870  2468 net.cpp:165] Memory required for data: 4817024
I0429 19:37:54.825873  2468 layer_factory.hpp:77] Creating layer conv1_1
I0429 19:37:54.825882  2468 net.cpp:106] Creating Layer conv1_1
I0429 19:37:54.825886  2468 net.cpp:454] conv1_1 <- data
I0429 19:37:54.825891  2468 net.cpp:411] conv1_1 -> conv1_1
I0429 19:37:54.826833  2468 net.cpp:150] Setting up conv1_1
I0429 19:37:54.826843  2468 net.cpp:157] Top shape: 8 64 224 224 (25690112)
I0429 19:37:54.826846  2468 net.cpp:165] Memory required for data: 107577472
I0429 19:37:54.826854  2468 layer_factory.hpp:77] Creating layer ReLU1_1
I0429 19:37:54.826859  2468 net.cpp:106] Creating Layer ReLU1_1
I0429 19:37:54.826864  2468 net.cpp:454] ReLU1_1 <- conv1_1
I0429 19:37:54.826867  2468 net.cpp:397] ReLU1_1 -> conv1_1 (in-place)
I0429 19:37:54.826989  2468 net.cpp:150] Setting up ReLU1_1
I0429 19:37:54.826995  2468 net.cpp:157] Top shape: 8 64 224 224 (25690112)
I0429 19:37:54.826998  2468 net.cpp:165] Memory required for data: 210337920
I0429 19:37:54.827002  2468 layer_factory.hpp:77] Creating layer conv1_2
I0429 19:37:54.827008  2468 net.cpp:106] Creating Layer conv1_2
I0429 19:37:54.827010  2468 net.cpp:454] conv1_2 <- conv1_1
I0429 19:37:54.827014  2468 net.cpp:411] conv1_2 -> conv1_2
I0429 19:37:54.828111  2468 net.cpp:150] Setting up conv1_2
I0429 19:37:54.828132  2468 net.cpp:157] Top shape: 8 64 224 224 (25690112)
I0429 19:37:54.828135  2468 net.cpp:165] Memory required for data: 313098368
I0429 19:37:54.828143  2468 layer_factory.hpp:77] Creating layer ReLU1_2
I0429 19:37:54.828148  2468 net.cpp:106] Creating Layer ReLU1_2
I0429 19:37:54.828161  2468 net.cpp:454] ReLU1_2 <- conv1_2
I0429 19:37:54.828166  2468 net.cpp:397] ReLU1_2 -> conv1_2 (in-place)
I0429 19:37:54.828369  2468 net.cpp:150] Setting up ReLU1_2
I0429 19:37:54.828378  2468 net.cpp:157] Top shape: 8 64 224 224 (25690112)
I0429 19:37:54.828382  2468 net.cpp:165] Memory required for data: 415858816
I0429 19:37:54.828384  2468 layer_factory.hpp:77] Creating layer pool1
I0429 19:37:54.828390  2468 net.cpp:106] Creating Layer pool1
I0429 19:37:54.828393  2468 net.cpp:454] pool1 <- conv1_2
I0429 19:37:54.828397  2468 net.cpp:411] pool1 -> pool1
I0429 19:37:54.828431  2468 net.cpp:150] Setting up pool1
I0429 19:37:54.828436  2468 net.cpp:157] Top shape: 8 64 112 112 (6422528)
I0429 19:37:54.828438  2468 net.cpp:165] Memory required for data: 441548928
I0429 19:37:54.828441  2468 layer_factory.hpp:77] Creating layer conv2_1
I0429 19:37:54.828447  2468 net.cpp:106] Creating Layer conv2_1
I0429 19:37:54.828449  2468 net.cpp:454] conv2_1 <- pool1
I0429 19:37:54.828454  2468 net.cpp:411] conv2_1 -> conv2_1
I0429 19:37:54.829790  2468 net.cpp:150] Setting up conv2_1
I0429 19:37:54.829802  2468 net.cpp:157] Top shape: 8 128 112 112 (12845056)
I0429 19:37:54.829804  2468 net.cpp:165] Memory required for data: 492929152
I0429 19:37:54.829813  2468 layer_factory.hpp:77] Creating layer ReLU2_1
I0429 19:37:54.829818  2468 net.cpp:106] Creating Layer ReLU2_1
I0429 19:37:54.829821  2468 net.cpp:454] ReLU2_1 <- conv2_1
I0429 19:37:54.829826  2468 net.cpp:397] ReLU2_1 -> conv2_1 (in-place)
I0429 19:37:54.830016  2468 net.cpp:150] Setting up ReLU2_1
I0429 19:37:54.830025  2468 net.cpp:157] Top shape: 8 128 112 112 (12845056)
I0429 19:37:54.830029  2468 net.cpp:165] Memory required for data: 544309376
I0429 19:37:54.830031  2468 layer_factory.hpp:77] Creating layer conv2_2
I0429 19:37:54.830037  2468 net.cpp:106] Creating Layer conv2_2
I0429 19:37:54.830040  2468 net.cpp:454] conv2_2 <- conv2_1
I0429 19:37:54.830044  2468 net.cpp:411] conv2_2 -> conv2_2
I0429 19:37:54.830785  2468 net.cpp:150] Setting up conv2_2
I0429 19:37:54.830795  2468 net.cpp:157] Top shape: 8 128 112 112 (12845056)
I0429 19:37:54.830797  2468 net.cpp:165] Memory required for data: 595689600
I0429 19:37:54.830802  2468 layer_factory.hpp:77] Creating layer ReLU2_2
I0429 19:37:54.830806  2468 net.cpp:106] Creating Layer ReLU2_2
I0429 19:37:54.830814  2468 net.cpp:454] ReLU2_2 <- conv2_2
I0429 19:37:54.830826  2468 net.cpp:397] ReLU2_2 -> conv2_2 (in-place)
I0429 19:37:54.831019  2468 net.cpp:150] Setting up ReLU2_2
I0429 19:37:54.831028  2468 net.cpp:157] Top shape: 8 128 112 112 (12845056)
I0429 19:37:54.831032  2468 net.cpp:165] Memory required for data: 647069824
I0429 19:37:54.831034  2468 layer_factory.hpp:77] Creating layer pool2
I0429 19:37:54.831039  2468 net.cpp:106] Creating Layer pool2
I0429 19:37:54.831043  2468 net.cpp:454] pool2 <- conv2_2
I0429 19:37:54.831046  2468 net.cpp:411] pool2 -> pool2
I0429 19:37:54.831082  2468 net.cpp:150] Setting up pool2
I0429 19:37:54.831087  2468 net.cpp:157] Top shape: 8 128 56 56 (3211264)
I0429 19:37:54.831089  2468 net.cpp:165] Memory required for data: 659914880
I0429 19:37:54.831092  2468 layer_factory.hpp:77] Creating layer conv3_1
I0429 19:37:54.831097  2468 net.cpp:106] Creating Layer conv3_1
I0429 19:37:54.831100  2468 net.cpp:454] conv3_1 <- pool2
I0429 19:37:54.831105  2468 net.cpp:411] conv3_1 -> conv3_1
I0429 19:37:54.832361  2468 net.cpp:150] Setting up conv3_1
I0429 19:37:54.832372  2468 net.cpp:157] Top shape: 8 256 56 56 (6422528)
I0429 19:37:54.832376  2468 net.cpp:165] Memory required for data: 685604992
I0429 19:37:54.832384  2468 layer_factory.hpp:77] Creating layer ReLU3_1
I0429 19:37:54.832389  2468 net.cpp:106] Creating Layer ReLU3_1
I0429 19:37:54.832392  2468 net.cpp:454] ReLU3_1 <- conv3_1
I0429 19:37:54.832397  2468 net.cpp:397] ReLU3_1 -> conv3_1 (in-place)
I0429 19:37:54.832653  2468 net.cpp:150] Setting up ReLU3_1
I0429 19:37:54.832666  2468 net.cpp:157] Top shape: 8 256 56 56 (6422528)
I0429 19:37:54.832671  2468 net.cpp:165] Memory required for data: 711295104
I0429 19:37:54.832675  2468 layer_factory.hpp:77] Creating layer conv3_2
I0429 19:37:54.832685  2468 net.cpp:106] Creating Layer conv3_2
I0429 19:37:54.832690  2468 net.cpp:454] conv3_2 <- conv3_1
I0429 19:37:54.832697  2468 net.cpp:411] conv3_2 -> conv3_2
I0429 19:37:54.834522  2468 net.cpp:150] Setting up conv3_2
I0429 19:37:54.834537  2468 net.cpp:157] Top shape: 8 256 56 56 (6422528)
I0429 19:37:54.834542  2468 net.cpp:165] Memory required for data: 736985216
I0429 19:37:54.834552  2468 layer_factory.hpp:77] Creating layer ReLU3_2
I0429 19:37:54.834559  2468 net.cpp:106] Creating Layer ReLU3_2
I0429 19:37:54.834563  2468 net.cpp:454] ReLU3_2 <- conv3_2
I0429 19:37:54.834568  2468 net.cpp:397] ReLU3_2 -> conv3_2 (in-place)
I0429 19:37:54.834800  2468 net.cpp:150] Setting up ReLU3_2
I0429 19:37:54.834810  2468 net.cpp:157] Top shape: 8 256 56 56 (6422528)
I0429 19:37:54.834815  2468 net.cpp:165] Memory required for data: 762675328
I0429 19:37:54.834820  2468 layer_factory.hpp:77] Creating layer conv3_3
I0429 19:37:54.834831  2468 net.cpp:106] Creating Layer conv3_3
I0429 19:37:54.834836  2468 net.cpp:454] conv3_3 <- conv3_2
I0429 19:37:54.834842  2468 net.cpp:411] conv3_3 -> conv3_3
I0429 19:37:54.836696  2468 net.cpp:150] Setting up conv3_3
I0429 19:37:54.836712  2468 net.cpp:157] Top shape: 8 256 56 56 (6422528)
I0429 19:37:54.836717  2468 net.cpp:165] Memory required for data: 788365440
I0429 19:37:54.836726  2468 layer_factory.hpp:77] Creating layer ReLU3_3
I0429 19:37:54.836735  2468 net.cpp:106] Creating Layer ReLU3_3
I0429 19:37:54.836740  2468 net.cpp:454] ReLU3_3 <- conv3_3
I0429 19:37:54.836747  2468 net.cpp:397] ReLU3_3 -> conv3_3 (in-place)
I0429 19:37:54.836930  2468 net.cpp:150] Setting up ReLU3_3
I0429 19:37:54.836940  2468 net.cpp:157] Top shape: 8 256 56 56 (6422528)
I0429 19:37:54.836944  2468 net.cpp:165] Memory required for data: 814055552
I0429 19:37:54.836949  2468 layer_factory.hpp:77] Creating layer conv3_4
I0429 19:37:54.836959  2468 net.cpp:106] Creating Layer conv3_4
I0429 19:37:54.836966  2468 net.cpp:454] conv3_4 <- conv3_3
I0429 19:37:54.836972  2468 net.cpp:411] conv3_4 -> conv3_4
I0429 19:37:54.839057  2468 net.cpp:150] Setting up conv3_4
I0429 19:37:54.839072  2468 net.cpp:157] Top shape: 8 256 56 56 (6422528)
I0429 19:37:54.839076  2468 net.cpp:165] Memory required for data: 839745664
I0429 19:37:54.839088  2468 layer_factory.hpp:77] Creating layer ReLU3_4
I0429 19:37:54.839104  2468 net.cpp:106] Creating Layer ReLU3_4
I0429 19:37:54.839109  2468 net.cpp:454] ReLU3_4 <- conv3_4
I0429 19:37:54.839117  2468 net.cpp:397] ReLU3_4 -> conv3_4 (in-place)
I0429 19:37:54.839342  2468 net.cpp:150] Setting up ReLU3_4
I0429 19:37:54.839351  2468 net.cpp:157] Top shape: 8 256 56 56 (6422528)
I0429 19:37:54.839354  2468 net.cpp:165] Memory required for data: 865435776
I0429 19:37:54.839357  2468 layer_factory.hpp:77] Creating layer pool3
I0429 19:37:54.839365  2468 net.cpp:106] Creating Layer pool3
I0429 19:37:54.839367  2468 net.cpp:454] pool3 <- conv3_4
I0429 19:37:54.839372  2468 net.cpp:411] pool3 -> pool3
I0429 19:37:54.839409  2468 net.cpp:150] Setting up pool3
I0429 19:37:54.839414  2468 net.cpp:157] Top shape: 8 256 28 28 (1605632)
I0429 19:37:54.839417  2468 net.cpp:165] Memory required for data: 871858304
I0429 19:37:54.839421  2468 layer_factory.hpp:77] Creating layer conv4_1
I0429 19:37:54.839426  2468 net.cpp:106] Creating Layer conv4_1
I0429 19:37:54.839429  2468 net.cpp:454] conv4_1 <- pool3
I0429 19:37:54.839434  2468 net.cpp:411] conv4_1 -> conv4_1
I0429 19:37:54.842018  2468 net.cpp:150] Setting up conv4_1
I0429 19:37:54.842041  2468 net.cpp:157] Top shape: 8 512 28 28 (3211264)
I0429 19:37:54.842047  2468 net.cpp:165] Memory required for data: 884703360
I0429 19:37:54.842062  2468 layer_factory.hpp:77] Creating layer ReLU4_1
I0429 19:37:54.842073  2468 net.cpp:106] Creating Layer ReLU4_1
I0429 19:37:54.842079  2468 net.cpp:454] ReLU4_1 <- conv4_1
I0429 19:37:54.842087  2468 net.cpp:397] ReLU4_1 -> conv4_1 (in-place)
I0429 19:37:54.842370  2468 net.cpp:150] Setting up ReLU4_1
I0429 19:37:54.842381  2468 net.cpp:157] Top shape: 8 512 28 28 (3211264)
I0429 19:37:54.842386  2468 net.cpp:165] Memory required for data: 897548416
I0429 19:37:54.842391  2468 layer_factory.hpp:77] Creating layer conv4_2
I0429 19:37:54.842402  2468 net.cpp:106] Creating Layer conv4_2
I0429 19:37:54.842408  2468 net.cpp:454] conv4_2 <- conv4_1
I0429 19:37:54.842417  2468 net.cpp:411] conv4_2 -> conv4_2
I0429 19:37:54.848798  2468 net.cpp:150] Setting up conv4_2
I0429 19:37:54.848832  2468 net.cpp:157] Top shape: 8 512 28 28 (3211264)
I0429 19:37:54.848839  2468 net.cpp:165] Memory required for data: 910393472
I0429 19:37:54.848850  2468 layer_factory.hpp:77] Creating layer ReLU4_2
I0429 19:37:54.848861  2468 net.cpp:106] Creating Layer ReLU4_2
I0429 19:37:54.848868  2468 net.cpp:454] ReLU4_2 <- conv4_2
I0429 19:37:54.848877  2468 net.cpp:397] ReLU4_2 -> conv4_2 (in-place)
I0429 19:37:54.849066  2468 net.cpp:150] Setting up ReLU4_2
I0429 19:37:54.849076  2468 net.cpp:157] Top shape: 8 512 28 28 (3211264)
I0429 19:37:54.849081  2468 net.cpp:165] Memory required for data: 923238528
I0429 19:37:54.849086  2468 layer_factory.hpp:77] Creating layer conv4_3
I0429 19:37:54.849097  2468 net.cpp:106] Creating Layer conv4_3
I0429 19:37:54.849102  2468 net.cpp:454] conv4_3 <- conv4_2
I0429 19:37:54.849110  2468 net.cpp:411] conv4_3 -> conv4_3
I0429 19:37:54.855321  2468 net.cpp:150] Setting up conv4_3
I0429 19:37:54.855355  2468 net.cpp:157] Top shape: 8 512 28 28 (3211264)
I0429 19:37:54.855360  2468 net.cpp:165] Memory required for data: 936083584
I0429 19:37:54.855371  2468 layer_factory.hpp:77] Creating layer ReLU4_3
I0429 19:37:54.855382  2468 net.cpp:106] Creating Layer ReLU4_3
I0429 19:37:54.855389  2468 net.cpp:454] ReLU4_3 <- conv4_3
I0429 19:37:54.855399  2468 net.cpp:397] ReLU4_3 -> conv4_3 (in-place)
I0429 19:37:54.855705  2468 net.cpp:150] Setting up ReLU4_3
I0429 19:37:54.855717  2468 net.cpp:157] Top shape: 8 512 28 28 (3211264)
I0429 19:37:54.855722  2468 net.cpp:165] Memory required for data: 948928640
I0429 19:37:54.855727  2468 layer_factory.hpp:77] Creating layer conv4_4
I0429 19:37:54.855739  2468 net.cpp:106] Creating Layer conv4_4
I0429 19:37:54.855744  2468 net.cpp:454] conv4_4 <- conv4_3
I0429 19:37:54.855752  2468 net.cpp:411] conv4_4 -> conv4_4
I0429 19:37:54.862010  2468 net.cpp:150] Setting up conv4_4
I0429 19:37:54.862053  2468 net.cpp:157] Top shape: 8 512 28 28 (3211264)
I0429 19:37:54.862066  2468 net.cpp:165] Memory required for data: 961773696
I0429 19:37:54.862077  2468 layer_factory.hpp:77] Creating layer ReLU4_4
I0429 19:37:54.862092  2468 net.cpp:106] Creating Layer ReLU4_4
I0429 19:37:54.862098  2468 net.cpp:454] ReLU4_4 <- conv4_4
I0429 19:37:54.862107  2468 net.cpp:397] ReLU4_4 -> conv4_4 (in-place)
I0429 19:37:54.862397  2468 net.cpp:150] Setting up ReLU4_4
I0429 19:37:54.862409  2468 net.cpp:157] Top shape: 8 512 28 28 (3211264)
I0429 19:37:54.862413  2468 net.cpp:165] Memory required for data: 974618752
I0429 19:37:54.862418  2468 layer_factory.hpp:77] Creating layer pool4
I0429 19:37:54.862428  2468 net.cpp:106] Creating Layer pool4
I0429 19:37:54.862434  2468 net.cpp:454] pool4 <- conv4_4
I0429 19:37:54.862442  2468 net.cpp:411] pool4 -> pool4
I0429 19:37:54.862493  2468 net.cpp:150] Setting up pool4
I0429 19:37:54.862501  2468 net.cpp:157] Top shape: 8 512 14 14 (802816)
I0429 19:37:54.862506  2468 net.cpp:165] Memory required for data: 977830016
I0429 19:37:54.862510  2468 layer_factory.hpp:77] Creating layer conv5_1
I0429 19:37:54.862521  2468 net.cpp:106] Creating Layer conv5_1
I0429 19:37:54.862526  2468 net.cpp:454] conv5_1 <- pool4
I0429 19:37:54.862534  2468 net.cpp:411] conv5_1 -> conv5_1
I0429 19:37:54.869441  2468 net.cpp:150] Setting up conv5_1
I0429 19:37:54.869472  2468 net.cpp:157] Top shape: 8 512 14 14 (802816)
I0429 19:37:54.869477  2468 net.cpp:165] Memory required for data: 981041280
I0429 19:37:54.869488  2468 layer_factory.hpp:77] Creating layer ReLU5_1
I0429 19:37:54.869500  2468 net.cpp:106] Creating Layer ReLU5_1
I0429 19:37:54.869508  2468 net.cpp:454] ReLU5_1 <- conv5_1
I0429 19:37:54.869516  2468 net.cpp:397] ReLU5_1 -> conv5_1 (in-place)
I0429 19:37:54.869693  2468 net.cpp:150] Setting up ReLU5_1
I0429 19:37:54.869701  2468 net.cpp:157] Top shape: 8 512 14 14 (802816)
I0429 19:37:54.869706  2468 net.cpp:165] Memory required for data: 984252544
I0429 19:37:54.869711  2468 layer_factory.hpp:77] Creating layer conv5_2
I0429 19:37:54.869729  2468 net.cpp:106] Creating Layer conv5_2
I0429 19:37:54.869734  2468 net.cpp:454] conv5_2 <- conv5_1
I0429 19:37:54.869743  2468 net.cpp:411] conv5_2 -> conv5_2
I0429 19:37:54.875877  2468 net.cpp:150] Setting up conv5_2
I0429 19:37:54.875905  2468 net.cpp:157] Top shape: 8 512 14 14 (802816)
I0429 19:37:54.875910  2468 net.cpp:165] Memory required for data: 987463808
I0429 19:37:54.875921  2468 layer_factory.hpp:77] Creating layer ReLU5_2
I0429 19:37:54.875933  2468 net.cpp:106] Creating Layer ReLU5_2
I0429 19:37:54.875941  2468 net.cpp:454] ReLU5_2 <- conv5_2
I0429 19:37:54.875949  2468 net.cpp:397] ReLU5_2 -> conv5_2 (in-place)
I0429 19:37:54.876214  2468 net.cpp:150] Setting up ReLU5_2
I0429 19:37:54.876227  2468 net.cpp:157] Top shape: 8 512 14 14 (802816)
I0429 19:37:54.876232  2468 net.cpp:165] Memory required for data: 990675072
I0429 19:37:54.876237  2468 layer_factory.hpp:77] Creating layer conv5_3
I0429 19:37:54.876260  2468 net.cpp:106] Creating Layer conv5_3
I0429 19:37:54.876266  2468 net.cpp:454] conv5_3 <- conv5_2
I0429 19:37:54.876274  2468 net.cpp:411] conv5_3 -> conv5_3
I0429 19:37:54.882833  2468 net.cpp:150] Setting up conv5_3
I0429 19:37:54.882865  2468 net.cpp:157] Top shape: 8 512 14 14 (802816)
I0429 19:37:54.882871  2468 net.cpp:165] Memory required for data: 993886336
I0429 19:37:54.882882  2468 layer_factory.hpp:77] Creating layer ReLU5_3
I0429 19:37:54.882894  2468 net.cpp:106] Creating Layer ReLU5_3
I0429 19:37:54.882901  2468 net.cpp:454] ReLU5_3 <- conv5_3
I0429 19:37:54.882910  2468 net.cpp:397] ReLU5_3 -> conv5_3 (in-place)
I0429 19:37:54.883194  2468 net.cpp:150] Setting up ReLU5_3
I0429 19:37:54.883205  2468 net.cpp:157] Top shape: 8 512 14 14 (802816)
I0429 19:37:54.883210  2468 net.cpp:165] Memory required for data: 997097600
I0429 19:37:54.883215  2468 layer_factory.hpp:77] Creating layer conv5_4
I0429 19:37:54.883226  2468 net.cpp:106] Creating Layer conv5_4
I0429 19:37:54.883231  2468 net.cpp:454] conv5_4 <- conv5_3
I0429 19:37:54.883245  2468 net.cpp:411] conv5_4 -> conv5_4
I0429 19:37:54.889341  2468 net.cpp:150] Setting up conv5_4
I0429 19:37:54.889372  2468 net.cpp:157] Top shape: 8 512 14 14 (802816)
I0429 19:37:54.889379  2468 net.cpp:165] Memory required for data: 1000308864
I0429 19:37:54.889389  2468 layer_factory.hpp:77] Creating layer ReLU5_4
I0429 19:37:54.889401  2468 net.cpp:106] Creating Layer ReLU5_4
I0429 19:37:54.889408  2468 net.cpp:454] ReLU5_4 <- conv5_4
I0429 19:37:54.889418  2468 net.cpp:397] ReLU5_4 -> conv5_4 (in-place)
I0429 19:37:54.889602  2468 net.cpp:150] Setting up ReLU5_4
I0429 19:37:54.889613  2468 net.cpp:157] Top shape: 8 512 14 14 (802816)
I0429 19:37:54.889618  2468 net.cpp:165] Memory required for data: 1003520128
I0429 19:37:54.889623  2468 layer_factory.hpp:77] Creating layer pool5
I0429 19:37:54.889633  2468 net.cpp:106] Creating Layer pool5
I0429 19:37:54.889639  2468 net.cpp:454] pool5 <- conv5_4
I0429 19:37:54.889647  2468 net.cpp:411] pool5 -> pool5
I0429 19:37:54.889706  2468 net.cpp:150] Setting up pool5
I0429 19:37:54.889714  2468 net.cpp:157] Top shape: 8 512 7 7 (200704)
I0429 19:37:54.889719  2468 net.cpp:165] Memory required for data: 1004322944
I0429 19:37:54.889724  2468 layer_factory.hpp:77] Creating layer fc6
I0429 19:37:54.889731  2468 net.cpp:106] Creating Layer fc6
I0429 19:37:54.889736  2468 net.cpp:454] fc6 <- pool5
I0429 19:37:54.889744  2468 net.cpp:411] fc6 -> fc6
I0429 19:37:55.106309  2468 net.cpp:150] Setting up fc6
I0429 19:37:55.106343  2468 net.cpp:157] Top shape: 8 4096 (32768)
I0429 19:37:55.106348  2468 net.cpp:165] Memory required for data: 1004454016
I0429 19:37:55.106362  2468 layer_factory.hpp:77] Creating layer ReLU6
I0429 19:37:55.106372  2468 net.cpp:106] Creating Layer ReLU6
I0429 19:37:55.106376  2468 net.cpp:454] ReLU6 <- fc6
I0429 19:37:55.106382  2468 net.cpp:397] ReLU6 -> fc6 (in-place)
I0429 19:37:55.106719  2468 net.cpp:150] Setting up ReLU6
I0429 19:37:55.106727  2468 net.cpp:157] Top shape: 8 4096 (32768)
I0429 19:37:55.106730  2468 net.cpp:165] Memory required for data: 1004585088
I0429 19:37:55.106734  2468 layer_factory.hpp:77] Creating layer drop6
I0429 19:37:55.106741  2468 net.cpp:106] Creating Layer drop6
I0429 19:37:55.106745  2468 net.cpp:454] drop6 <- fc6
I0429 19:37:55.106750  2468 net.cpp:397] drop6 -> fc6 (in-place)
I0429 19:37:55.106776  2468 net.cpp:150] Setting up drop6
I0429 19:37:55.106781  2468 net.cpp:157] Top shape: 8 4096 (32768)
I0429 19:37:55.106783  2468 net.cpp:165] Memory required for data: 1004716160
I0429 19:37:55.106786  2468 layer_factory.hpp:77] Creating layer fc7
I0429 19:37:55.106792  2468 net.cpp:106] Creating Layer fc7
I0429 19:37:55.106796  2468 net.cpp:454] fc7 <- fc6
I0429 19:37:55.106801  2468 net.cpp:411] fc7 -> fc7
I0429 19:37:55.140605  2468 net.cpp:150] Setting up fc7
I0429 19:37:55.140638  2468 net.cpp:157] Top shape: 8 4096 (32768)
I0429 19:37:55.140641  2468 net.cpp:165] Memory required for data: 1004847232
I0429 19:37:55.140650  2468 layer_factory.hpp:77] Creating layer ReLU7
I0429 19:37:55.140660  2468 net.cpp:106] Creating Layer ReLU7
I0429 19:37:55.140663  2468 net.cpp:454] ReLU7 <- fc7
I0429 19:37:55.140668  2468 net.cpp:397] ReLU7 -> fc7 (in-place)
I0429 19:37:55.140848  2468 net.cpp:150] Setting up ReLU7
I0429 19:37:55.140856  2468 net.cpp:157] Top shape: 8 4096 (32768)
I0429 19:37:55.140858  2468 net.cpp:165] Memory required for data: 1004978304
I0429 19:37:55.140861  2468 layer_factory.hpp:77] Creating layer drop7
I0429 19:37:55.140867  2468 net.cpp:106] Creating Layer drop7
I0429 19:37:55.140872  2468 net.cpp:454] drop7 <- fc7
I0429 19:37:55.140875  2468 net.cpp:397] drop7 -> fc7 (in-place)
I0429 19:37:55.140902  2468 net.cpp:150] Setting up drop7
I0429 19:37:55.140907  2468 net.cpp:157] Top shape: 8 4096 (32768)
I0429 19:37:55.140908  2468 net.cpp:165] Memory required for data: 1005109376
I0429 19:37:55.140911  2468 layer_factory.hpp:77] Creating layer fc8_foodCAT
I0429 19:37:55.140918  2468 net.cpp:106] Creating Layer fc8_foodCAT
I0429 19:37:55.140920  2468 net.cpp:454] fc8_foodCAT <- fc7
I0429 19:37:55.140930  2468 net.cpp:411] fc8_foodCAT -> fc8_foodCAT
I0429 19:37:55.142123  2468 net.cpp:150] Setting up fc8_foodCAT
I0429 19:37:55.142132  2468 net.cpp:157] Top shape: 8 218 (1744)
I0429 19:37:55.142135  2468 net.cpp:165] Memory required for data: 1005116352
I0429 19:37:55.142140  2468 layer_factory.hpp:77] Creating layer fc8_foodCAT_fc8_foodCAT_0_split
I0429 19:37:55.142146  2468 net.cpp:106] Creating Layer fc8_foodCAT_fc8_foodCAT_0_split
I0429 19:37:55.142149  2468 net.cpp:454] fc8_foodCAT_fc8_foodCAT_0_split <- fc8_foodCAT
I0429 19:37:55.142154  2468 net.cpp:411] fc8_foodCAT_fc8_foodCAT_0_split -> fc8_foodCAT_fc8_foodCAT_0_split_0
I0429 19:37:55.142160  2468 net.cpp:411] fc8_foodCAT_fc8_foodCAT_0_split -> fc8_foodCAT_fc8_foodCAT_0_split_1
I0429 19:37:55.142165  2468 net.cpp:411] fc8_foodCAT_fc8_foodCAT_0_split -> fc8_foodCAT_fc8_foodCAT_0_split_2
I0429 19:37:55.142207  2468 net.cpp:150] Setting up fc8_foodCAT_fc8_foodCAT_0_split
I0429 19:37:55.142213  2468 net.cpp:157] Top shape: 8 218 (1744)
I0429 19:37:55.142217  2468 net.cpp:157] Top shape: 8 218 (1744)
I0429 19:37:55.142220  2468 net.cpp:157] Top shape: 8 218 (1744)
I0429 19:37:55.142223  2468 net.cpp:165] Memory required for data: 1005137280
I0429 19:37:55.142226  2468 layer_factory.hpp:77] Creating layer loss
I0429 19:37:55.142231  2468 net.cpp:106] Creating Layer loss
I0429 19:37:55.142235  2468 net.cpp:454] loss <- fc8_foodCAT_fc8_foodCAT_0_split_0
I0429 19:37:55.142238  2468 net.cpp:454] loss <- label_data_1_split_0
I0429 19:37:55.142242  2468 net.cpp:411] loss -> loss/loss
…
