…
I0506 16:26:40.222213  3054 caffe.cpp:241] GPU device name: GeForce GTX 980
I0506 16:26:40.370365  3054 net.cpp:49] Initializing net from parameters: 
name: "foodCAT_VGG_ILSVRC_19_layer"
state {
  phase: TEST
}
layer {
  name: "data"
  type: "ImageData"
  top: "data"
  top: "label"
  include {
    phase: TEST
  }
  transform_param {
    mirror: false
    crop_size: 224
    mean_value: 104
    mean_value: 117
    mean_value: 123
  }
  image_data_param {
    source: "foodCAT/test.txt"
    batch_size: 16
    shuffle: true
    new_height: 256
    new_width: 256
  }
}
layer {
  name: "conv1_1"
  type: "Convolution"
  bottom: "data"
  top: "conv1_1"
  convolution_param {
    num_output: 64
    pad: 1
    kernel_size: 3
  }
}
layer {
  name: "ReLU1_1"
  type: "ReLU"
  bottom: "conv1_1"
  top: "conv1_1"
}
layer {
  name: "conv1_2"
  type: "Convolution"
  bottom: "conv1_1"
  top: "conv1_2"
  convolution_param {
    num_output: 64
    pad: 1
    kernel_size: 3
  }
}
layer {
  name: "ReLU1_2"
  type: "ReLU"
  bottom: "conv1_2"
  top: "conv1_2"
}
layer {
  name: "pool1"
  type: "Pooling"
  bottom: "conv1_2"
  top: "pool1"
  pooling_param {
    pool: MAX
    kernel_size: 2
    stride: 2
  }
}
layer {
  name: "conv2_1"
  type: "Convolution"
  bottom: "pool1"
  top: "conv2_1"
  convolution_param {
    num_output: 128
    pad: 1
    kernel_size: 3
  }
}
layer {
  name: "ReLU2_1"
  type: "ReLU"
  bottom: "conv2_1"
  top: "conv2_1"
}
layer {
  name: "conv2_2"
  type: "Convolution"
  bottom: "conv2_1"
  top: "conv2_2"
  convolution_param {
    num_output: 128
    pad: 1
    kernel_size: 3
  }
}
layer {
  name: "ReLU2_2"
  type: "ReLU"
  bottom: "conv2_2"
  top: "conv2_2"
}
layer {
  name: "pool2"
  type: "Pooling"
  bottom: "conv2_2"
  top: "pool2"
  pooling_param {
    pool: MAX
    kernel_size: 2
    stride: 2
  }
}
layer {
  name: "conv3_1"
  type: "Convolution"
  bottom: "pool2"
  top: "conv3_1"
  convolution_param {
    num_output: 256
    pad: 1
    kernel_size: 3
  }
}
layer {
  name: "ReLU3_1"
  type: "ReLU"
  bottom: "conv3_1"
  top: "conv3_1"
}
layer {
  name: "conv3_2"
  type: "Convolution"
  bottom: "conv3_1"
  top: "conv3_2"
  convolution_param {
    num_output: 256
    pad: 1
    kernel_size: 3
  }
}
layer {
  name: "ReLU3_2"
  type: "ReLU"
  bottom: "conv3_2"
  top: "conv3_2"
}
layer {
  name: "conv3_3"
  type: "Convolution"
  bottom: "conv3_2"
  top: "conv3_3"
  convolution_param {
    num_output: 256
    pad: 1
    kernel_size: 3
  }
}
layer {
  name: "ReLU3_3"
  type: "ReLU"
  bottom: "conv3_3"
  top: "conv3_3"
}
layer {
  name: "conv3_4"
  type: "Convolution"
  bottom: "conv3_3"
  top: "conv3_4"
  convolution_param {
    num_output: 256
    pad: 1
    kernel_size: 3
  }
}
layer {
  name: "ReLU3_4"
  type: "ReLU"
  bottom: "conv3_4"
  top: "conv3_4"
}
layer {
  name: "pool3"
  type: "Pooling"
  bottom: "conv3_4"
  top: "pool3"
  pooling_param {
    pool: MAX
    kernel_size: 2
    stride: 2
  }
}
layer {
  name: "conv4_1"
  type: "Convolution"
  bottom: "pool3"
  top: "conv4_1"
  convolution_param {
    num_output: 512
    pad: 1
    kernel_size: 3
  }
}
layer {
  name: "ReLU4_1"
  type: "ReLU"
  bottom: "conv4_1"
  top: "conv4_1"
}
layer {
  name: "conv4_2"
  type: "Convolution"
  bottom: "conv4_1"
  top: "conv4_2"
  convolution_param {
    num_output: 512
    pad: 1
    kernel_size: 3
  }
}
layer {
  name: "ReLU4_2"
  type: "ReLU"
  bottom: "conv4_2"
  top: "conv4_2"
}
layer {
  name: "conv4_3"
  type: "Convolution"
  bottom: "conv4_2"
  top: "conv4_3"
  convolution_param {
    num_output: 512
    pad: 1
    kernel_size: 3
  }
}
layer {
  name: "ReLU4_3"
  type: "ReLU"
  bottom: "conv4_3"
  top: "conv4_3"
}
layer {
  name: "conv4_4"
  type: "Convolution"
  bottom: "conv4_3"
  top: "conv4_4"
  convolution_param {
    num_output: 512
    pad: 1
    kernel_size: 3
  }
}
layer {
  name: "ReLU4_4"
  type: "ReLU"
  bottom: "conv4_4"
  top: "conv4_4"
}
layer {
  name: "pool4"
  type: "Pooling"
  bottom: "conv4_4"
  top: "pool4"
  pooling_param {
    pool: MAX
    kernel_size: 2
    stride: 2
  }
}
layer {
  name: "conv5_1"
  type: "Convolution"
  bottom: "pool4"
  top: "conv5_1"
  convolution_param {
    num_output: 512
    pad: 1
    kernel_size: 3
  }
}
layer {
  name: "ReLU5_1"
  type: "ReLU"
  bottom: "conv5_1"
  top: "conv5_1"
}
layer {
  name: "conv5_2"
  type: "Convolution"
  bottom: "conv5_1"
  top: "conv5_2"
  convolution_param {
    num_output: 512
    pad: 1
    kernel_size: 3
  }
}
layer {
  name: "ReLU5_2"
  type: "ReLU"
  bottom: "conv5_2"
  top: "conv5_2"
}
layer {
  name: "conv5_3"
  type: "Convolution"
  bottom: "conv5_2"
  top: "conv5_3"
  convolution_param {
    num_output: 512
    pad: 1
    kernel_size: 3
  }
}
layer {
  name: "ReLU5_3"
  type: "ReLU"
  bottom: "conv5_3"
  top: "conv5_3"
}
layer {
  name: "conv5_4"
  type: "Convolution"
  bottom: "conv5_3"
  top: "conv5_4"
  convolution_param {
    num_output: 512
    pad: 1
    kernel_size: 3
  }
}
layer {
  name: "ReLU5_4"
  type: "ReLU"
  bottom: "conv5_4"
  top: "conv5_4"
}
layer {
  name: "pool5"
  type: "Pooling"
  bottom: "conv5_4"
  top: "pool5"
  pooling_param {
    pool: MAX
    kernel_size: 2
    stride: 2
  }
}
layer {
  name: "fc6"
  type: "InnerProduct"
  bottom: "pool5"
  top: "fc6"
  inner_product_param {
    num_output: 4096
  }
}
layer {
  name: "ReLU6"
  type: "ReLU"
  bottom: "fc6"
  top: "fc6"
}
layer {
  name: "drop6"
  type: "Dropout"
  bottom: "fc6"
  top: "fc6"
  dropout_param {
    dropout_ratio: 0.5
  }
}
layer {
  name: "fc7"
  type: "InnerProduct"
  bottom: "fc6"
  top: "fc7"
  inner_product_param {
    num_output: 4096
  }
}
layer {
  name: "ReLU7"
  type: "ReLU"
  bottom: "fc7"
  top: "fc7"
}
layer {
  name: "drop7"
  type: "Dropout"
  bottom: "fc7"
  top: "fc7"
  dropout_param {
    dropout_ratio: 0.5
  }
}
layer {
  name: "fc8_foodCAT"
  type: "InnerProduct"
  bottom: "fc7"
  top: "fc8_foodCAT"
  inner_product_param {
    num_output: 218
  }
}
layer {
  name: "loss"
  type: "SoftmaxWithLoss"
  bottom: "fc8_foodCAT"
  bottom: "label"
  top: "loss/loss"
}
layer {
  name: "accuracy/top1"
  type: "Accuracy"
  bottom: "fc8_foodCAT"
  bottom: "label"
  top: "accuracy@1"
  include {
    phase: TEST
  }
  accuracy_param {
    top_k: 1
  }
}
layer {
  name: "accuracy/top5"
  type: "Accuracy"
  bottom: "fc8_foodCAT"
  bottom: "label"
  top: "accuracy@5"
  include {
    phase: TEST
  }
  accuracy_param {
    top_k: 5
  }
}
I0506 16:26:40.370600  3054 layer_factory.hpp:77] Creating layer data
I0506 16:26:40.370635  3054 net.cpp:106] Creating Layer data
I0506 16:26:40.370640  3054 net.cpp:411] data -> data
I0506 16:26:40.370661  3054 net.cpp:411] data -> label
I0506 16:26:40.370677  3054 image_data_layer.cpp:38] Opening file foodCAT/test.txt
I0506 16:26:40.375222  3054 image_data_layer.cpp:48] Shuffling data
I0506 16:26:40.376214  3054 image_data_layer.cpp:53] A total of 14630 images.
I0506 16:26:40.386884  3054 image_data_layer.cpp:80] output data size: 16,3,224,224
I0506 16:26:40.399693  3054 net.cpp:150] Setting up data
I0506 16:26:40.399739  3054 net.cpp:157] Top shape: 16 3 224 224 (2408448)
I0506 16:26:40.399755  3054 net.cpp:157] Top shape: 16 (16)
I0506 16:26:40.399760  3054 net.cpp:165] Memory required for data: 9633856
I0506 16:26:40.399782  3054 layer_factory.hpp:77] Creating layer label_data_1_split
I0506 16:26:40.399809  3054 net.cpp:106] Creating Layer label_data_1_split
I0506 16:26:40.399816  3054 net.cpp:454] label_data_1_split <- label
I0506 16:26:40.399824  3054 net.cpp:411] label_data_1_split -> label_data_1_split_0
I0506 16:26:40.399832  3054 net.cpp:411] label_data_1_split -> label_data_1_split_1
I0506 16:26:40.399837  3054 net.cpp:411] label_data_1_split -> label_data_1_split_2
I0506 16:26:40.399875  3054 net.cpp:150] Setting up label_data_1_split
I0506 16:26:40.399880  3054 net.cpp:157] Top shape: 16 (16)
I0506 16:26:40.399884  3054 net.cpp:157] Top shape: 16 (16)
I0506 16:26:40.399888  3054 net.cpp:157] Top shape: 16 (16)
I0506 16:26:40.399890  3054 net.cpp:165] Memory required for data: 9634048
I0506 16:26:40.399893  3054 layer_factory.hpp:77] Creating layer conv1_1
I0506 16:26:40.399912  3054 net.cpp:106] Creating Layer conv1_1
I0506 16:26:40.399921  3054 net.cpp:454] conv1_1 <- data
I0506 16:26:40.399926  3054 net.cpp:411] conv1_1 -> conv1_1
I0506 16:26:40.519256  3054 net.cpp:150] Setting up conv1_1
I0506 16:26:40.519292  3054 net.cpp:157] Top shape: 16 64 224 224 (51380224)
I0506 16:26:40.519297  3054 net.cpp:165] Memory required for data: 215154944
I0506 16:26:40.519315  3054 layer_factory.hpp:77] Creating layer ReLU1_1
I0506 16:26:40.519332  3054 net.cpp:106] Creating Layer ReLU1_1
I0506 16:26:40.519340  3054 net.cpp:454] ReLU1_1 <- conv1_1
I0506 16:26:40.519347  3054 net.cpp:397] ReLU1_1 -> conv1_1 (in-place)
I0506 16:26:40.519469  3054 net.cpp:150] Setting up ReLU1_1
I0506 16:26:40.519477  3054 net.cpp:157] Top shape: 16 64 224 224 (51380224)
I0506 16:26:40.519480  3054 net.cpp:165] Memory required for data: 420675840
I0506 16:26:40.519484  3054 layer_factory.hpp:77] Creating layer conv1_2
I0506 16:26:40.519495  3054 net.cpp:106] Creating Layer conv1_2
I0506 16:26:40.519498  3054 net.cpp:454] conv1_2 <- conv1_1
I0506 16:26:40.519502  3054 net.cpp:411] conv1_2 -> conv1_2
I0506 16:26:40.520326  3054 net.cpp:150] Setting up conv1_2
I0506 16:26:40.520339  3054 net.cpp:157] Top shape: 16 64 224 224 (51380224)
I0506 16:26:40.520344  3054 net.cpp:165] Memory required for data: 626196736
I0506 16:26:40.520350  3054 layer_factory.hpp:77] Creating layer ReLU1_2
I0506 16:26:40.520357  3054 net.cpp:106] Creating Layer ReLU1_2
I0506 16:26:40.520362  3054 net.cpp:454] ReLU1_2 <- conv1_2
I0506 16:26:40.520378  3054 net.cpp:397] ReLU1_2 -> conv1_2 (in-place)
I0506 16:26:40.520577  3054 net.cpp:150] Setting up ReLU1_2
I0506 16:26:40.520586  3054 net.cpp:157] Top shape: 16 64 224 224 (51380224)
I0506 16:26:40.520591  3054 net.cpp:165] Memory required for data: 831717632
I0506 16:26:40.520593  3054 layer_factory.hpp:77] Creating layer pool1
I0506 16:26:40.520601  3054 net.cpp:106] Creating Layer pool1
I0506 16:26:40.520603  3054 net.cpp:454] pool1 <- conv1_2
I0506 16:26:40.520608  3054 net.cpp:411] pool1 -> pool1
I0506 16:26:40.520642  3054 net.cpp:150] Setting up pool1
I0506 16:26:40.520648  3054 net.cpp:157] Top shape: 16 64 112 112 (12845056)
I0506 16:26:40.520651  3054 net.cpp:165] Memory required for data: 883097856
I0506 16:26:40.520654  3054 layer_factory.hpp:77] Creating layer conv2_1
I0506 16:26:40.520670  3054 net.cpp:106] Creating Layer conv2_1
I0506 16:26:40.520676  3054 net.cpp:454] conv2_1 <- pool1
I0506 16:26:40.520684  3054 net.cpp:411] conv2_1 -> conv2_1
I0506 16:26:40.521939  3054 net.cpp:150] Setting up conv2_1
I0506 16:26:40.521953  3054 net.cpp:157] Top shape: 16 128 112 112 (25690112)
I0506 16:26:40.521957  3054 net.cpp:165] Memory required for data: 985858304
I0506 16:26:40.521965  3054 layer_factory.hpp:77] Creating layer ReLU2_1
I0506 16:26:40.521973  3054 net.cpp:106] Creating Layer ReLU2_1
I0506 16:26:40.521980  3054 net.cpp:454] ReLU2_1 <- conv2_1
I0506 16:26:40.521996  3054 net.cpp:397] ReLU2_1 -> conv2_1 (in-place)
I0506 16:26:40.522192  3054 net.cpp:150] Setting up ReLU2_1
I0506 16:26:40.522200  3054 net.cpp:157] Top shape: 16 128 112 112 (25690112)
I0506 16:26:40.522204  3054 net.cpp:165] Memory required for data: 1088618752
I0506 16:26:40.522207  3054 layer_factory.hpp:77] Creating layer conv2_2
I0506 16:26:40.522213  3054 net.cpp:106] Creating Layer conv2_2
I0506 16:26:40.522217  3054 net.cpp:454] conv2_2 <- conv2_1
I0506 16:26:40.522222  3054 net.cpp:411] conv2_2 -> conv2_2
I0506 16:26:40.523016  3054 net.cpp:150] Setting up conv2_2
I0506 16:26:40.523028  3054 net.cpp:157] Top shape: 16 128 112 112 (25690112)
I0506 16:26:40.523032  3054 net.cpp:165] Memory required for data: 1191379200
I0506 16:26:40.523037  3054 layer_factory.hpp:77] Creating layer ReLU2_2
I0506 16:26:40.523043  3054 net.cpp:106] Creating Layer ReLU2_2
I0506 16:26:40.523049  3054 net.cpp:454] ReLU2_2 <- conv2_2
I0506 16:26:40.523066  3054 net.cpp:397] ReLU2_2 -> conv2_2 (in-place)
I0506 16:26:40.523188  3054 net.cpp:150] Setting up ReLU2_2
I0506 16:26:40.523195  3054 net.cpp:157] Top shape: 16 128 112 112 (25690112)
I0506 16:26:40.523203  3054 net.cpp:165] Memory required for data: 1294139648
I0506 16:26:40.523212  3054 layer_factory.hpp:77] Creating layer pool2
I0506 16:26:40.523218  3054 net.cpp:106] Creating Layer pool2
I0506 16:26:40.523221  3054 net.cpp:454] pool2 <- conv2_2
I0506 16:26:40.523236  3054 net.cpp:411] pool2 -> pool2
I0506 16:26:40.523264  3054 net.cpp:150] Setting up pool2
I0506 16:26:40.523269  3054 net.cpp:157] Top shape: 16 128 56 56 (6422528)
I0506 16:26:40.523272  3054 net.cpp:165] Memory required for data: 1319829760
I0506 16:26:40.523275  3054 layer_factory.hpp:77] Creating layer conv3_1
I0506 16:26:40.523282  3054 net.cpp:106] Creating Layer conv3_1
I0506 16:26:40.523285  3054 net.cpp:454] conv3_1 <- pool2
I0506 16:26:40.523289  3054 net.cpp:411] conv3_1 -> conv3_1
I0506 16:26:40.524389  3054 net.cpp:150] Setting up conv3_1
I0506 16:26:40.524401  3054 net.cpp:157] Top shape: 16 256 56 56 (12845056)
I0506 16:26:40.524405  3054 net.cpp:165] Memory required for data: 1371209984
I0506 16:26:40.524412  3054 layer_factory.hpp:77] Creating layer ReLU3_1
I0506 16:26:40.524420  3054 net.cpp:106] Creating Layer ReLU3_1
I0506 16:26:40.524426  3054 net.cpp:454] ReLU3_1 <- conv3_1
I0506 16:26:40.524442  3054 net.cpp:397] ReLU3_1 -> conv3_1 (in-place)
I0506 16:26:40.524644  3054 net.cpp:150] Setting up ReLU3_1
I0506 16:26:40.524653  3054 net.cpp:157] Top shape: 16 256 56 56 (12845056)
I0506 16:26:40.524657  3054 net.cpp:165] Memory required for data: 1422590208
I0506 16:26:40.524660  3054 layer_factory.hpp:77] Creating layer conv3_2
I0506 16:26:40.524667  3054 net.cpp:106] Creating Layer conv3_2
I0506 16:26:40.524669  3054 net.cpp:454] conv3_2 <- conv3_1
I0506 16:26:40.524674  3054 net.cpp:411] conv3_2 -> conv3_2
I0506 16:26:40.525997  3054 net.cpp:150] Setting up conv3_2
I0506 16:26:40.526010  3054 net.cpp:157] Top shape: 16 256 56 56 (12845056)
I0506 16:26:40.526015  3054 net.cpp:165] Memory required for data: 1473970432
I0506 16:26:40.526020  3054 layer_factory.hpp:77] Creating layer ReLU3_2
I0506 16:26:40.526027  3054 net.cpp:106] Creating Layer ReLU3_2
I0506 16:26:40.526033  3054 net.cpp:454] ReLU3_2 <- conv3_2
I0506 16:26:40.526038  3054 net.cpp:397] ReLU3_2 -> conv3_2 (in-place)
I0506 16:26:40.526248  3054 net.cpp:150] Setting up ReLU3_2
I0506 16:26:40.526257  3054 net.cpp:157] Top shape: 16 256 56 56 (12845056)
I0506 16:26:40.526260  3054 net.cpp:165] Memory required for data: 1525350656
I0506 16:26:40.526263  3054 layer_factory.hpp:77] Creating layer conv3_3
I0506 16:26:40.526273  3054 net.cpp:106] Creating Layer conv3_3
I0506 16:26:40.526276  3054 net.cpp:454] conv3_3 <- conv3_2
I0506 16:26:40.526283  3054 net.cpp:411] conv3_3 -> conv3_3
I0506 16:26:40.527812  3054 net.cpp:150] Setting up conv3_3
I0506 16:26:40.527827  3054 net.cpp:157] Top shape: 16 256 56 56 (12845056)
I0506 16:26:40.527830  3054 net.cpp:165] Memory required for data: 1576730880
I0506 16:26:40.527835  3054 layer_factory.hpp:77] Creating layer ReLU3_3
I0506 16:26:40.527843  3054 net.cpp:106] Creating Layer ReLU3_3
I0506 16:26:40.527849  3054 net.cpp:454] ReLU3_3 <- conv3_3
I0506 16:26:40.527856  3054 net.cpp:397] ReLU3_3 -> conv3_3 (in-place)
I0506 16:26:40.527983  3054 net.cpp:150] Setting up ReLU3_3
I0506 16:26:40.527992  3054 net.cpp:157] Top shape: 16 256 56 56 (12845056)
I0506 16:26:40.527994  3054 net.cpp:165] Memory required for data: 1628111104
I0506 16:26:40.527997  3054 layer_factory.hpp:77] Creating layer conv3_4
I0506 16:26:40.528004  3054 net.cpp:106] Creating Layer conv3_4
I0506 16:26:40.528007  3054 net.cpp:454] conv3_4 <- conv3_3
I0506 16:26:40.528012  3054 net.cpp:411] conv3_4 -> conv3_4
I0506 16:26:40.529464  3054 net.cpp:150] Setting up conv3_4
I0506 16:26:40.529476  3054 net.cpp:157] Top shape: 16 256 56 56 (12845056)
I0506 16:26:40.529480  3054 net.cpp:165] Memory required for data: 1679491328
I0506 16:26:40.529505  3054 layer_factory.hpp:77] Creating layer ReLU3_4
I0506 16:26:40.529525  3054 net.cpp:106] Creating Layer ReLU3_4
I0506 16:26:40.529531  3054 net.cpp:454] ReLU3_4 <- conv3_4
I0506 16:26:40.529544  3054 net.cpp:397] ReLU3_4 -> conv3_4 (in-place)
I0506 16:26:40.529781  3054 net.cpp:150] Setting up ReLU3_4
I0506 16:26:40.529798  3054 net.cpp:157] Top shape: 16 256 56 56 (12845056)
I0506 16:26:40.529801  3054 net.cpp:165] Memory required for data: 1730871552
I0506 16:26:40.529804  3054 layer_factory.hpp:77] Creating layer pool3
I0506 16:26:40.529810  3054 net.cpp:106] Creating Layer pool3
I0506 16:26:40.529814  3054 net.cpp:454] pool3 <- conv3_4
I0506 16:26:40.529831  3054 net.cpp:411] pool3 -> pool3
I0506 16:26:40.529878  3054 net.cpp:150] Setting up pool3
I0506 16:26:40.529886  3054 net.cpp:157] Top shape: 16 256 28 28 (3211264)
I0506 16:26:40.529888  3054 net.cpp:165] Memory required for data: 1743716608
I0506 16:26:40.529891  3054 layer_factory.hpp:77] Creating layer conv4_1
I0506 16:26:40.529898  3054 net.cpp:106] Creating Layer conv4_1
I0506 16:26:40.529901  3054 net.cpp:454] conv4_1 <- pool3
I0506 16:26:40.529906  3054 net.cpp:411] conv4_1 -> conv4_1
I0506 16:26:40.532330  3054 net.cpp:150] Setting up conv4_1
I0506 16:26:40.532356  3054 net.cpp:157] Top shape: 16 512 28 28 (6422528)
I0506 16:26:40.532359  3054 net.cpp:165] Memory required for data: 1769406720
I0506 16:26:40.532371  3054 layer_factory.hpp:77] Creating layer ReLU4_1
I0506 16:26:40.532383  3054 net.cpp:106] Creating Layer ReLU4_1
I0506 16:26:40.532390  3054 net.cpp:454] ReLU4_1 <- conv4_1
I0506 16:26:40.532397  3054 net.cpp:397] ReLU4_1 -> conv4_1 (in-place)
I0506 16:26:40.532601  3054 net.cpp:150] Setting up ReLU4_1
I0506 16:26:40.532611  3054 net.cpp:157] Top shape: 16 512 28 28 (6422528)
I0506 16:26:40.532614  3054 net.cpp:165] Memory required for data: 1795096832
I0506 16:26:40.532618  3054 layer_factory.hpp:77] Creating layer conv4_2
I0506 16:26:40.532626  3054 net.cpp:106] Creating Layer conv4_2
I0506 16:26:40.532630  3054 net.cpp:454] conv4_2 <- conv4_1
I0506 16:26:40.532635  3054 net.cpp:411] conv4_2 -> conv4_2
I0506 16:26:40.537518  3054 net.cpp:150] Setting up conv4_2
I0506 16:26:40.537554  3054 net.cpp:157] Top shape: 16 512 28 28 (6422528)
I0506 16:26:40.537559  3054 net.cpp:165] Memory required for data: 1820786944
I0506 16:26:40.537566  3054 layer_factory.hpp:77] Creating layer ReLU4_2
I0506 16:26:40.537578  3054 net.cpp:106] Creating Layer ReLU4_2
I0506 16:26:40.537585  3054 net.cpp:454] ReLU4_2 <- conv4_2
I0506 16:26:40.537595  3054 net.cpp:397] ReLU4_2 -> conv4_2 (in-place)
I0506 16:26:40.537725  3054 net.cpp:150] Setting up ReLU4_2
I0506 16:26:40.537734  3054 net.cpp:157] Top shape: 16 512 28 28 (6422528)
I0506 16:26:40.537736  3054 net.cpp:165] Memory required for data: 1846477056
I0506 16:26:40.537739  3054 layer_factory.hpp:77] Creating layer conv4_3
I0506 16:26:40.537749  3054 net.cpp:106] Creating Layer conv4_3
I0506 16:26:40.537751  3054 net.cpp:454] conv4_3 <- conv4_2
I0506 16:26:40.537757  3054 net.cpp:411] conv4_3 -> conv4_3
I0506 16:26:40.542836  3054 net.cpp:150] Setting up conv4_3
I0506 16:26:40.542889  3054 net.cpp:157] Top shape: 16 512 28 28 (6422528)
I0506 16:26:40.542893  3054 net.cpp:165] Memory required for data: 1872167168
I0506 16:26:40.542904  3054 layer_factory.hpp:77] Creating layer ReLU4_3
I0506 16:26:40.542930  3054 net.cpp:106] Creating Layer ReLU4_3
I0506 16:26:40.542937  3054 net.cpp:454] ReLU4_3 <- conv4_3
I0506 16:26:40.542958  3054 net.cpp:397] ReLU4_3 -> conv4_3 (in-place)
I0506 16:26:40.543176  3054 net.cpp:150] Setting up ReLU4_3
I0506 16:26:40.543185  3054 net.cpp:157] Top shape: 16 512 28 28 (6422528)
I0506 16:26:40.543189  3054 net.cpp:165] Memory required for data: 1897857280
I0506 16:26:40.543192  3054 layer_factory.hpp:77] Creating layer conv4_4
I0506 16:26:40.543200  3054 net.cpp:106] Creating Layer conv4_4
I0506 16:26:40.543205  3054 net.cpp:454] conv4_4 <- conv4_3
I0506 16:26:40.543210  3054 net.cpp:411] conv4_4 -> conv4_4
I0506 16:26:40.548090  3054 net.cpp:150] Setting up conv4_4
I0506 16:26:40.548123  3054 net.cpp:157] Top shape: 16 512 28 28 (6422528)
I0506 16:26:40.548127  3054 net.cpp:165] Memory required for data: 1923547392
I0506 16:26:40.548136  3054 layer_factory.hpp:77] Creating layer ReLU4_4
I0506 16:26:40.548156  3054 net.cpp:106] Creating Layer ReLU4_4
I0506 16:26:40.548171  3054 net.cpp:454] ReLU4_4 <- conv4_4
I0506 16:26:40.548179  3054 net.cpp:397] ReLU4_4 -> conv4_4 (in-place)
I0506 16:26:40.548418  3054 net.cpp:150] Setting up ReLU4_4
I0506 16:26:40.548436  3054 net.cpp:157] Top shape: 16 512 28 28 (6422528)
I0506 16:26:40.548449  3054 net.cpp:165] Memory required for data: 1949237504
I0506 16:26:40.548452  3054 layer_factory.hpp:77] Creating layer pool4
I0506 16:26:40.548460  3054 net.cpp:106] Creating Layer pool4
I0506 16:26:40.548463  3054 net.cpp:454] pool4 <- conv4_4
I0506 16:26:40.548468  3054 net.cpp:411] pool4 -> pool4
I0506 16:26:40.548501  3054 net.cpp:150] Setting up pool4
I0506 16:26:40.548507  3054 net.cpp:157] Top shape: 16 512 14 14 (1605632)
I0506 16:26:40.548511  3054 net.cpp:165] Memory required for data: 1955660032
I0506 16:26:40.548513  3054 layer_factory.hpp:77] Creating layer conv5_1
I0506 16:26:40.548521  3054 net.cpp:106] Creating Layer conv5_1
I0506 16:26:40.548524  3054 net.cpp:454] conv5_1 <- pool4
I0506 16:26:40.548528  3054 net.cpp:411] conv5_1 -> conv5_1
I0506 16:26:40.553582  3054 net.cpp:150] Setting up conv5_1
I0506 16:26:40.553617  3054 net.cpp:157] Top shape: 16 512 14 14 (1605632)
I0506 16:26:40.553638  3054 net.cpp:165] Memory required for data: 1962082560
I0506 16:26:40.553649  3054 layer_factory.hpp:77] Creating layer ReLU5_1
I0506 16:26:40.553673  3054 net.cpp:106] Creating Layer ReLU5_1
I0506 16:26:40.553689  3054 net.cpp:454] ReLU5_1 <- conv5_1
I0506 16:26:40.553697  3054 net.cpp:397] ReLU5_1 -> conv5_1 (in-place)
I0506 16:26:40.553920  3054 net.cpp:150] Setting up ReLU5_1
I0506 16:26:40.553930  3054 net.cpp:157] Top shape: 16 512 14 14 (1605632)
I0506 16:26:40.553933  3054 net.cpp:165] Memory required for data: 1968505088
I0506 16:26:40.553937  3054 layer_factory.hpp:77] Creating layer conv5_2
I0506 16:26:40.553951  3054 net.cpp:106] Creating Layer conv5_2
I0506 16:26:40.553953  3054 net.cpp:454] conv5_2 <- conv5_1
I0506 16:26:40.553958  3054 net.cpp:411] conv5_2 -> conv5_2
I0506 16:26:40.558979  3054 net.cpp:150] Setting up conv5_2
I0506 16:26:40.559016  3054 net.cpp:157] Top shape: 16 512 14 14 (1605632)
I0506 16:26:40.559020  3054 net.cpp:165] Memory required for data: 1974927616
I0506 16:26:40.559028  3054 layer_factory.hpp:77] Creating layer ReLU5_2
I0506 16:26:40.559042  3054 net.cpp:106] Creating Layer ReLU5_2
I0506 16:26:40.559049  3054 net.cpp:454] ReLU5_2 <- conv5_2
I0506 16:26:40.559058  3054 net.cpp:397] ReLU5_2 -> conv5_2 (in-place)
I0506 16:26:40.559280  3054 net.cpp:150] Setting up ReLU5_2
I0506 16:26:40.559289  3054 net.cpp:157] Top shape: 16 512 14 14 (1605632)
I0506 16:26:40.559293  3054 net.cpp:165] Memory required for data: 1981350144
I0506 16:26:40.559296  3054 layer_factory.hpp:77] Creating layer conv5_3
I0506 16:26:40.559308  3054 net.cpp:106] Creating Layer conv5_3
I0506 16:26:40.559310  3054 net.cpp:454] conv5_3 <- conv5_2
I0506 16:26:40.559315  3054 net.cpp:411] conv5_3 -> conv5_3
I0506 16:26:40.564342  3054 net.cpp:150] Setting up conv5_3
I0506 16:26:40.564375  3054 net.cpp:157] Top shape: 16 512 14 14 (1605632)
I0506 16:26:40.564396  3054 net.cpp:165] Memory required for data: 1987772672
I0506 16:26:40.564406  3054 layer_factory.hpp:77] Creating layer ReLU5_3
I0506 16:26:40.564429  3054 net.cpp:106] Creating Layer ReLU5_3
I0506 16:26:40.564435  3054 net.cpp:454] ReLU5_3 <- conv5_3
I0506 16:26:40.564455  3054 net.cpp:397] ReLU5_3 -> conv5_3 (in-place)
I0506 16:26:40.564669  3054 net.cpp:150] Setting up ReLU5_3
I0506 16:26:40.564678  3054 net.cpp:157] Top shape: 16 512 14 14 (1605632)
I0506 16:26:40.564682  3054 net.cpp:165] Memory required for data: 1994195200
I0506 16:26:40.564685  3054 layer_factory.hpp:77] Creating layer conv5_4
I0506 16:26:40.564694  3054 net.cpp:106] Creating Layer conv5_4
I0506 16:26:40.564697  3054 net.cpp:454] conv5_4 <- conv5_3
I0506 16:26:40.564702  3054 net.cpp:411] conv5_4 -> conv5_4
I0506 16:26:40.569833  3054 net.cpp:150] Setting up conv5_4
I0506 16:26:40.569869  3054 net.cpp:157] Top shape: 16 512 14 14 (1605632)
I0506 16:26:40.569882  3054 net.cpp:165] Memory required for data: 2000617728
I0506 16:26:40.569900  3054 layer_factory.hpp:77] Creating layer ReLU5_4
I0506 16:26:40.569912  3054 net.cpp:106] Creating Layer ReLU5_4
I0506 16:26:40.569919  3054 net.cpp:454] ReLU5_4 <- conv5_4
I0506 16:26:40.569928  3054 net.cpp:397] ReLU5_4 -> conv5_4 (in-place)
I0506 16:26:40.570056  3054 net.cpp:150] Setting up ReLU5_4
I0506 16:26:40.570065  3054 net.cpp:157] Top shape: 16 512 14 14 (1605632)
I0506 16:26:40.570068  3054 net.cpp:165] Memory required for data: 2007040256
I0506 16:26:40.570071  3054 layer_factory.hpp:77] Creating layer pool5
I0506 16:26:40.570078  3054 net.cpp:106] Creating Layer pool5
I0506 16:26:40.570081  3054 net.cpp:454] pool5 <- conv5_4
I0506 16:26:40.570086  3054 net.cpp:411] pool5 -> pool5
I0506 16:26:40.570127  3054 net.cpp:150] Setting up pool5
I0506 16:26:40.570132  3054 net.cpp:157] Top shape: 16 512 7 7 (401408)
I0506 16:26:40.570133  3054 net.cpp:165] Memory required for data: 2008645888
I0506 16:26:40.570137  3054 layer_factory.hpp:77] Creating layer fc6
I0506 16:26:40.570142  3054 net.cpp:106] Creating Layer fc6
I0506 16:26:40.570145  3054 net.cpp:454] fc6 <- pool5
I0506 16:26:40.570150  3054 net.cpp:411] fc6 -> fc6
I0506 16:26:40.775674  3054 net.cpp:150] Setting up fc6
I0506 16:26:40.775735  3054 net.cpp:157] Top shape: 16 4096 (65536)
I0506 16:26:40.775740  3054 net.cpp:165] Memory required for data: 2008908032
I0506 16:26:40.775765  3054 layer_factory.hpp:77] Creating layer ReLU6
I0506 16:26:40.775791  3054 net.cpp:106] Creating Layer ReLU6
I0506 16:26:40.775809  3054 net.cpp:454] ReLU6 <- fc6
I0506 16:26:40.775816  3054 net.cpp:397] ReLU6 -> fc6 (in-place)
I0506 16:26:40.776250  3054 net.cpp:150] Setting up ReLU6
I0506 16:26:40.776260  3054 net.cpp:157] Top shape: 16 4096 (65536)
I0506 16:26:40.776263  3054 net.cpp:165] Memory required for data: 2009170176
I0506 16:26:40.776267  3054 layer_factory.hpp:77] Creating layer drop6
I0506 16:26:40.776273  3054 net.cpp:106] Creating Layer drop6
I0506 16:26:40.776278  3054 net.cpp:454] drop6 <- fc6
I0506 16:26:40.776281  3054 net.cpp:397] drop6 -> fc6 (in-place)
I0506 16:26:40.776309  3054 net.cpp:150] Setting up drop6
I0506 16:26:40.776314  3054 net.cpp:157] Top shape: 16 4096 (65536)
I0506 16:26:40.776317  3054 net.cpp:165] Memory required for data: 2009432320
I0506 16:26:40.776320  3054 layer_factory.hpp:77] Creating layer fc7
I0506 16:26:40.776326  3054 net.cpp:106] Creating Layer fc7
I0506 16:26:40.776329  3054 net.cpp:454] fc7 <- fc6
I0506 16:26:40.776335  3054 net.cpp:411] fc7 -> fc7
I0506 16:26:40.810060  3054 net.cpp:150] Setting up fc7
I0506 16:26:40.810101  3054 net.cpp:157] Top shape: 16 4096 (65536)
I0506 16:26:40.810122  3054 net.cpp:165] Memory required for data: 2009694464
I0506 16:26:40.810133  3054 layer_factory.hpp:77] Creating layer ReLU7
I0506 16:26:40.810153  3054 net.cpp:106] Creating Layer ReLU7
I0506 16:26:40.810159  3054 net.cpp:454] ReLU7 <- fc7
I0506 16:26:40.810178  3054 net.cpp:397] ReLU7 -> fc7 (in-place)
I0506 16:26:40.810437  3054 net.cpp:150] Setting up ReLU7
I0506 16:26:40.810446  3054 net.cpp:157] Top shape: 16 4096 (65536)
I0506 16:26:40.810458  3054 net.cpp:165] Memory required for data: 2009956608
I0506 16:26:40.810461  3054 layer_factory.hpp:77] Creating layer drop7
I0506 16:26:40.810478  3054 net.cpp:106] Creating Layer drop7
I0506 16:26:40.810482  3054 net.cpp:454] drop7 <- fc7
I0506 16:26:40.810487  3054 net.cpp:397] drop7 -> fc7 (in-place)
I0506 16:26:40.810513  3054 net.cpp:150] Setting up drop7
I0506 16:26:40.810518  3054 net.cpp:157] Top shape: 16 4096 (65536)
I0506 16:26:40.810520  3054 net.cpp:165] Memory required for data: 2010218752
I0506 16:26:40.810523  3054 layer_factory.hpp:77] Creating layer fc8_foodCAT
I0506 16:26:40.810529  3054 net.cpp:106] Creating Layer fc8_foodCAT
I0506 16:26:40.810533  3054 net.cpp:454] fc8_foodCAT <- fc7
I0506 16:26:40.810537  3054 net.cpp:411] fc8_foodCAT -> fc8_foodCAT
I0506 16:26:40.811784  3054 net.cpp:150] Setting up fc8_foodCAT
I0506 16:26:40.811801  3054 net.cpp:157] Top shape: 16 218 (3488)
I0506 16:26:40.811805  3054 net.cpp:165] Memory required for data: 2010232704
I0506 16:26:40.811816  3054 layer_factory.hpp:77] Creating layer fc8_foodCAT_fc8_foodCAT_0_split
I0506 16:26:40.811826  3054 net.cpp:106] Creating Layer fc8_foodCAT_fc8_foodCAT_0_split
I0506 16:26:40.811841  3054 net.cpp:454] fc8_foodCAT_fc8_foodCAT_0_split <- fc8_foodCAT
I0506 16:26:40.811846  3054 net.cpp:411] fc8_foodCAT_fc8_foodCAT_0_split -> fc8_foodCAT_fc8_foodCAT_0_split_0
I0506 16:26:40.811861  3054 net.cpp:411] fc8_foodCAT_fc8_foodCAT_0_split -> fc8_foodCAT_fc8_foodCAT_0_split_1
I0506 16:26:40.811866  3054 net.cpp:411] fc8_foodCAT_fc8_foodCAT_0_split -> fc8_foodCAT_fc8_foodCAT_0_split_2
I0506 16:26:40.811907  3054 net.cpp:150] Setting up fc8_foodCAT_fc8_foodCAT_0_split
I0506 16:26:40.811911  3054 net.cpp:157] Top shape: 16 218 (3488)
I0506 16:26:40.811915  3054 net.cpp:157] Top shape: 16 218 (3488)
I0506 16:26:40.811918  3054 net.cpp:157] Top shape: 16 218 (3488)
I0506 16:26:40.811921  3054 net.cpp:165] Memory required for data: 2010274560
I0506 16:26:40.811924  3054 layer_factory.hpp:77] Creating layer loss
I0506 16:26:40.811929  3054 net.cpp:106] Creating Layer loss
I0506 16:26:40.811933  3054 net.cpp:454] loss <- fc8_foodCAT_fc8_foodCAT_0_split_0
I0506 16:26:40.811936  3054 net.cpp:454] loss <- label_data_1_split_0
I0506 16:26:40.811940  3054 net.cpp:411] loss -> loss/loss
…
