…
I0429 16:57:36.452913 14329 net.cpp:322] The NetState phase (0) differed from the phase (1) specified by a rule in layer accuracy/top5
I0429 16:57:36.453162 14329 net.cpp:49] Initializing net from parameters: 
name: "foodCAT_VGG_ILSVRC_19_layer"
state {
  phase: TRAIN
}
layer {
  name: "data"
  type: "ImageData"
  top: "data"
  top: "label"
  include {
    phase: TRAIN
  }
  transform_param {
    mirror: true
    crop_size: 224
    mean_value: 104
    mean_value: 117
    mean_value: 123
  }
  image_data_param {
    source: "foodCAT_CLUSTER/train.txt"
    batch_size: 16
    shuffle: true
    new_height: 256
    new_width: 256
  }
}
layer {
  name: "conv1_1"
  type: "Convolution"
  bottom: "data"
  top: "conv1_1"
  convolution_param {
    num_output: 64
    pad: 1
    kernel_size: 3
  }
}
layer {
  name: "ReLU1_1"
  type: "ReLU"
  bottom: "conv1_1"
  top: "conv1_1"
}
layer {
  name: "conv1_2"
  type: "Convolution"
  bottom: "conv1_1"
  top: "conv1_2"
  convolution_param {
    num_output: 64
    pad: 1
    kernel_size: 3
  }
}
layer {
  name: "ReLU1_2"
  type: "ReLU"
  bottom: "conv1_2"
  top: "conv1_2"
}
layer {
  name: "pool1"
  type: "Pooling"
  bottom: "conv1_2"
  top: "pool1"
  pooling_param {
    pool: MAX
    kernel_size: 2
    stride: 2
  }
}
layer {
  name: "conv2_1"
  type: "Convolution"
  bottom: "pool1"
  top: "conv2_1"
  convolution_param {
    num_output: 128
    pad: 1
    kernel_size: 3
  }
}
layer {
  name: "ReLU2_1"
  type: "ReLU"
  bottom: "conv2_1"
  top: "conv2_1"
}
layer {
  name: "conv2_2"
  type: "Convolution"
  bottom: "conv2_1"
  top: "conv2_2"
  convolution_param {
    num_output: 128
    pad: 1
    kernel_size: 3
  }
}
layer {
  name: "ReLU2_2"
  type: "ReLU"
  bottom: "conv2_2"
  top: "conv2_2"
}
layer {
  name: "pool2"
  type: "Pooling"
  bottom: "conv2_2"
  top: "pool2"
  pooling_param {
    pool: MAX
    kernel_size: 2
    stride: 2
  }
}
layer {
  name: "conv3_1"
  type: "Convolution"
  bottom: "pool2"
  top: "conv3_1"
  convolution_param {
    num_output: 256
    pad: 1
    kernel_size: 3
  }
}
layer {
  name: "ReLU3_1"
  type: "ReLU"
  bottom: "conv3_1"
  top: "conv3_1"
}
layer {
  name: "conv3_2"
  type: "Convolution"
  bottom: "conv3_1"
  top: "conv3_2"
  convolution_param {
    num_output: 256
    pad: 1
    kernel_size: 3
  }
}
layer {
  name: "ReLU3_2"
  type: "ReLU"
  bottom: "conv3_2"
  top: "conv3_2"
}
layer {
  name: "conv3_3"
  type: "Convolution"
  bottom: "conv3_2"
  top: "conv3_3"
  convolution_param {
    num_output: 256
    pad: 1
    kernel_size: 3
  }
}
layer {
  name: "ReLU3_3"
  type: "ReLU"
  bottom: "conv3_3"
  top: "conv3_3"
}
layer {
  name: "conv3_4"
  type: "Convolution"
  bottom: "conv3_3"
  top: "conv3_4"
  convolution_param {
    num_output: 256
    pad: 1
    kernel_size: 3
  }
}
layer {
  name: "ReLU3_4"
  type: "ReLU"
  bottom: "conv3_4"
  top: "conv3_4"
}
layer {
  name: "pool3"
  type: "Pooling"
  bottom: "conv3_4"
  top: "pool3"
  pooling_param {
    pool: MAX
    kernel_size: 2
    stride: 2
  }
}
layer {
  name: "conv4_1"
  type: "Convolution"
  bottom: "pool3"
  top: "conv4_1"
  convolution_param {
    num_output: 512
    pad: 1
    kernel_size: 3
  }
}
layer {
  name: "ReLU4_1"
  type: "ReLU"
  bottom: "conv4_1"
  top: "conv4_1"
}
layer {
  name: "conv4_2"
  type: "Convolution"
  bottom: "conv4_1"
  top: "conv4_2"
  convolution_param {
    num_output: 512
    pad: 1
    kernel_size: 3
  }
}
layer {
  name: "ReLU4_2"
  type: "ReLU"
  bottom: "conv4_2"
  top: "conv4_2"
}
layer {
  name: "conv4_3"
  type: "Convolution"
  bottom: "conv4_2"
  top: "conv4_3"
  convolution_param {
    num_output: 512
    pad: 1
    kernel_size: 3
  }
}
layer {
  name: "ReLU4_3"
  type: "ReLU"
  bottom: "conv4_3"
  top: "conv4_3"
}
layer {
  name: "conv4_4"
  type: "Convolution"
  bottom: "conv4_3"
  top: "conv4_4"
  convolution_param {
    num_output: 512
    pad: 1
    kernel_size: 3
  }
}
layer {
  name: "ReLU4_4"
  type: "ReLU"
  bottom: "conv4_4"
  top: "conv4_4"
}
layer {
  name: "pool4"
  type: "Pooling"
  bottom: "conv4_4"
  top: "pool4"
  pooling_param {
    pool: MAX
    kernel_size: 2
    stride: 2
  }
}
layer {
  name: "conv5_1"
  type: "Convolution"
  bottom: "pool4"
  top: "conv5_1"
  convolution_param {
    num_output: 512
    pad: 1
    kernel_size: 3
  }
}
layer {
  name: "ReLU5_1"
  type: "ReLU"
  bottom: "conv5_1"
  top: "conv5_1"
}
layer {
  name: "conv5_2"
  type: "Convolution"
  bottom: "conv5_1"
  top: "conv5_2"
  convolution_param {
    num_output: 512
    pad: 1
    kernel_size: 3
  }
}
layer {
  name: "ReLU5_2"
  type: "ReLU"
  bottom: "conv5_2"
  top: "conv5_2"
}
layer {
  name: "conv5_3"
  type: "Convolution"
  bottom: "conv5_2"
  top: "conv5_3"
  convolution_param {
    num_output: 512
    pad: 1
    kernel_size: 3
  }
}
layer {
  name: "ReLU5_3"
  type: "ReLU"
  bottom: "conv5_3"
  top: "conv5_3"
}
layer {
  name: "conv5_4"
  type: "Convolution"
  bottom: "conv5_3"
  top: "conv5_4"
  convolution_param {
    num_output: 512
    pad: 1
    kernel_size: 3
  }
}
layer {
  name: "ReLU5_4"
  type: "ReLU"
  bottom: "conv5_4"
  top: "conv5_4"
}
layer {
  name: "pool5"
  type: "Pooling"
  bottom: "conv5_4"
  top: "pool5"
  pooling_param {
    pool: MAX
    kernel_size: 2
    stride: 2
  }
}
layer {
  name: "fc6"
  type: "InnerProduct"
  bottom: "pool5"
  top: "fc6"
  inner_product_param {
    num_output: 4096
  }
}
layer {
  name: "ReLU6"
  type: "ReLU"
  bottom: "fc6"
  top: "fc6"
}
layer {
  name: "drop6"
  type: "Dropout"
  bottom: "fc6"
  top: "fc6"
  dropout_param {
    dropout_ratio: 0.5
  }
}
layer {
  name: "fc7"
  type: "InnerProduct"
  bottom: "fc6"
  top: "fc7"
  inner_product_param {
    num_output: 4096
  }
}
layer {
  name: "ReLU7"
  type: "ReLU"
  bottom: "fc7"
  top: "fc7"
}
layer {
  name: "drop7"
  type: "Dropout"
  bottom: "fc7"
  top: "fc7"
  dropout_param {
    dropout_ratio: 0.5
  }
}
layer {
  name: "fc8_foodCAT"
  type: "InnerProduct"
  bottom: "fc7"
  top: "fc8_foodCAT"
  inner_product_param {
    num_output: 218
  }
}
layer {
  name: "loss"
  type: "SoftmaxWithLoss"
  bottom: "fc8_foodCAT"
  bottom: "label"
  top: "loss/loss"
}
I0429 16:57:36.453383 14329 layer_factory.hpp:77] Creating layer data
I0429 16:57:36.453459 14329 net.cpp:106] Creating Layer data
I0429 16:57:36.453486 14329 net.cpp:411] data -> data
I0429 16:57:36.453534 14329 net.cpp:411] data -> label
I0429 16:57:36.454020 14329 image_data_layer.cpp:38] Opening file foodCAT_CLUSTER/train.txt
I0429 16:57:36.512372 14329 image_data_layer.cpp:48] Shuffling data
I0429 16:57:36.519994 14329 image_data_layer.cpp:53] A total of 117113 images.
I0429 16:57:36.775760 14329 image_data_layer.cpp:80] output data size: 16,3,224,224
I0429 16:57:36.792793 14329 net.cpp:150] Setting up data
I0429 16:57:36.792901 14329 net.cpp:157] Top shape: 16 3 224 224 (2408448)
I0429 16:57:36.792939 14329 net.cpp:157] Top shape: 16 (16)
I0429 16:57:36.792958 14329 net.cpp:165] Memory required for data: 9633856
I0429 16:57:36.792979 14329 layer_factory.hpp:77] Creating layer conv1_1
I0429 16:57:36.793014 14329 net.cpp:106] Creating Layer conv1_1
I0429 16:57:36.793035 14329 net.cpp:454] conv1_1 <- data
I0429 16:57:36.793073 14329 net.cpp:411] conv1_1 -> conv1_1
I0429 16:57:37.267550 14329 net.cpp:150] Setting up conv1_1
I0429 16:57:37.267627 14329 net.cpp:157] Top shape: 16 64 224 224 (51380224)
I0429 16:57:37.267683 14329 net.cpp:165] Memory required for data: 215154752
I0429 16:57:37.267729 14329 layer_factory.hpp:77] Creating layer ReLU1_1
I0429 16:57:37.267758 14329 net.cpp:106] Creating Layer ReLU1_1
I0429 16:57:37.267778 14329 net.cpp:454] ReLU1_1 <- conv1_1
I0429 16:57:37.267798 14329 net.cpp:397] ReLU1_1 -> conv1_1 (in-place)
I0429 16:57:37.267971 14329 net.cpp:150] Setting up ReLU1_1
I0429 16:57:37.268002 14329 net.cpp:157] Top shape: 16 64 224 224 (51380224)
I0429 16:57:37.268020 14329 net.cpp:165] Memory required for data: 420675648
I0429 16:57:37.268036 14329 layer_factory.hpp:77] Creating layer conv1_2
I0429 16:57:37.268059 14329 net.cpp:106] Creating Layer conv1_2
I0429 16:57:37.268077 14329 net.cpp:454] conv1_2 <- conv1_1
I0429 16:57:37.268096 14329 net.cpp:411] conv1_2 -> conv1_2
I0429 16:57:37.268954 14329 net.cpp:150] Setting up conv1_2
I0429 16:57:37.268991 14329 net.cpp:157] Top shape: 16 64 224 224 (51380224)
I0429 16:57:37.269011 14329 net.cpp:165] Memory required for data: 626196544
I0429 16:57:37.269032 14329 layer_factory.hpp:77] Creating layer ReLU1_2
I0429 16:57:37.269053 14329 net.cpp:106] Creating Layer ReLU1_2
I0429 16:57:37.269071 14329 net.cpp:454] ReLU1_2 <- conv1_2
I0429 16:57:37.269089 14329 net.cpp:397] ReLU1_2 -> conv1_2 (in-place)
I0429 16:57:37.269369 14329 net.cpp:150] Setting up ReLU1_2
I0429 16:57:37.269402 14329 net.cpp:157] Top shape: 16 64 224 224 (51380224)
I0429 16:57:37.269420 14329 net.cpp:165] Memory required for data: 831717440
I0429 16:57:37.269436 14329 layer_factory.hpp:77] Creating layer pool1
I0429 16:57:37.269459 14329 net.cpp:106] Creating Layer pool1
I0429 16:57:37.269476 14329 net.cpp:454] pool1 <- conv1_2
I0429 16:57:37.269495 14329 net.cpp:411] pool1 -> pool1
I0429 16:57:37.269569 14329 net.cpp:150] Setting up pool1
I0429 16:57:37.269596 14329 net.cpp:157] Top shape: 16 64 112 112 (12845056)
I0429 16:57:37.269613 14329 net.cpp:165] Memory required for data: 883097664
I0429 16:57:37.269629 14329 layer_factory.hpp:77] Creating layer conv2_1
I0429 16:57:37.269649 14329 net.cpp:106] Creating Layer conv2_1
I0429 16:57:37.269667 14329 net.cpp:454] conv2_1 <- pool1
I0429 16:57:37.269687 14329 net.cpp:411] conv2_1 -> conv2_1
I0429 16:57:37.271757 14329 net.cpp:150] Setting up conv2_1
I0429 16:57:37.271796 14329 net.cpp:157] Top shape: 16 128 112 112 (25690112)
I0429 16:57:37.271816 14329 net.cpp:165] Memory required for data: 985858112
I0429 16:57:37.271849 14329 layer_factory.hpp:77] Creating layer ReLU2_1
I0429 16:57:37.271870 14329 net.cpp:106] Creating Layer ReLU2_1
I0429 16:57:37.271904 14329 net.cpp:454] ReLU2_1 <- conv2_1
I0429 16:57:37.271926 14329 net.cpp:397] ReLU2_1 -> conv2_1 (in-place)
I0429 16:57:37.272099 14329 net.cpp:150] Setting up ReLU2_1
I0429 16:57:37.272130 14329 net.cpp:157] Top shape: 16 128 112 112 (25690112)
I0429 16:57:37.272148 14329 net.cpp:165] Memory required for data: 1088618560
I0429 16:57:37.272164 14329 layer_factory.hpp:77] Creating layer conv2_2
I0429 16:57:37.272186 14329 net.cpp:106] Creating Layer conv2_2
I0429 16:57:37.272203 14329 net.cpp:454] conv2_2 <- conv2_1
I0429 16:57:37.272223 14329 net.cpp:411] conv2_2 -> conv2_2
I0429 16:57:37.273183 14329 net.cpp:150] Setting up conv2_2
I0429 16:57:37.273223 14329 net.cpp:157] Top shape: 16 128 112 112 (25690112)
I0429 16:57:37.273242 14329 net.cpp:165] Memory required for data: 1191379008
I0429 16:57:37.273262 14329 layer_factory.hpp:77] Creating layer ReLU2_2
I0429 16:57:37.273283 14329 net.cpp:106] Creating Layer ReLU2_2
I0429 16:57:37.273299 14329 net.cpp:454] ReLU2_2 <- conv2_2
I0429 16:57:37.273318 14329 net.cpp:397] ReLU2_2 -> conv2_2 (in-place)
I0429 16:57:37.273488 14329 net.cpp:150] Setting up ReLU2_2
I0429 16:57:37.273516 14329 net.cpp:157] Top shape: 16 128 112 112 (25690112)
I0429 16:57:37.273533 14329 net.cpp:165] Memory required for data: 1294139456
I0429 16:57:37.273550 14329 layer_factory.hpp:77] Creating layer pool2
I0429 16:57:37.273568 14329 net.cpp:106] Creating Layer pool2
I0429 16:57:37.273597 14329 net.cpp:454] pool2 <- conv2_2
I0429 16:57:37.273630 14329 net.cpp:411] pool2 -> pool2
I0429 16:57:37.273685 14329 net.cpp:150] Setting up pool2
I0429 16:57:37.273712 14329 net.cpp:157] Top shape: 16 128 56 56 (6422528)
I0429 16:57:37.273728 14329 net.cpp:165] Memory required for data: 1319829568
I0429 16:57:37.273744 14329 layer_factory.hpp:77] Creating layer conv3_1
I0429 16:57:37.273763 14329 net.cpp:106] Creating Layer conv3_1
I0429 16:57:37.273780 14329 net.cpp:454] conv3_1 <- pool2
I0429 16:57:37.273800 14329 net.cpp:411] conv3_1 -> conv3_1
I0429 16:57:37.275974 14329 net.cpp:150] Setting up conv3_1
I0429 16:57:37.276041 14329 net.cpp:157] Top shape: 16 256 56 56 (12845056)
I0429 16:57:37.276060 14329 net.cpp:165] Memory required for data: 1371209792
I0429 16:57:37.276083 14329 layer_factory.hpp:77] Creating layer ReLU3_1
I0429 16:57:37.276104 14329 net.cpp:106] Creating Layer ReLU3_1
I0429 16:57:37.276123 14329 net.cpp:454] ReLU3_1 <- conv3_1
I0429 16:57:37.276142 14329 net.cpp:397] ReLU3_1 -> conv3_1 (in-place)
I0429 16:57:37.276413 14329 net.cpp:150] Setting up ReLU3_1
I0429 16:57:37.276448 14329 net.cpp:157] Top shape: 16 256 56 56 (12845056)
I0429 16:57:37.276465 14329 net.cpp:165] Memory required for data: 1422590016
I0429 16:57:37.276481 14329 layer_factory.hpp:77] Creating layer conv3_2
I0429 16:57:37.276504 14329 net.cpp:106] Creating Layer conv3_2
I0429 16:57:37.276522 14329 net.cpp:454] conv3_2 <- conv3_1
I0429 16:57:37.276541 14329 net.cpp:411] conv3_2 -> conv3_2
I0429 16:57:37.278897 14329 net.cpp:150] Setting up conv3_2
I0429 16:57:37.278939 14329 net.cpp:157] Top shape: 16 256 56 56 (12845056)
I0429 16:57:37.278957 14329 net.cpp:165] Memory required for data: 1473970240
I0429 16:57:37.278978 14329 layer_factory.hpp:77] Creating layer ReLU3_2
I0429 16:57:37.278998 14329 net.cpp:106] Creating Layer ReLU3_2
I0429 16:57:37.279016 14329 net.cpp:454] ReLU3_2 <- conv3_2
I0429 16:57:37.279033 14329 net.cpp:397] ReLU3_2 -> conv3_2 (in-place)
I0429 16:57:37.279217 14329 net.cpp:150] Setting up ReLU3_2
I0429 16:57:37.279247 14329 net.cpp:157] Top shape: 16 256 56 56 (12845056)
I0429 16:57:37.279263 14329 net.cpp:165] Memory required for data: 1525350464
I0429 16:57:37.279279 14329 layer_factory.hpp:77] Creating layer conv3_3
I0429 16:57:37.279301 14329 net.cpp:106] Creating Layer conv3_3
I0429 16:57:37.279320 14329 net.cpp:454] conv3_3 <- conv3_2
I0429 16:57:37.279338 14329 net.cpp:411] conv3_3 -> conv3_3
I0429 16:57:37.281641 14329 net.cpp:150] Setting up conv3_3
I0429 16:57:37.281679 14329 net.cpp:157] Top shape: 16 256 56 56 (12845056)
I0429 16:57:37.281698 14329 net.cpp:165] Memory required for data: 1576730688
I0429 16:57:37.281718 14329 layer_factory.hpp:77] Creating layer ReLU3_3
I0429 16:57:37.281739 14329 net.cpp:106] Creating Layer ReLU3_3
I0429 16:57:37.281757 14329 net.cpp:454] ReLU3_3 <- conv3_3
I0429 16:57:37.281777 14329 net.cpp:397] ReLU3_3 -> conv3_3 (in-place)
I0429 16:57:37.281949 14329 net.cpp:150] Setting up ReLU3_3
I0429 16:57:37.281980 14329 net.cpp:157] Top shape: 16 256 56 56 (12845056)
I0429 16:57:37.281998 14329 net.cpp:165] Memory required for data: 1628110912
I0429 16:57:37.282014 14329 layer_factory.hpp:77] Creating layer conv3_4
I0429 16:57:37.282034 14329 net.cpp:106] Creating Layer conv3_4
I0429 16:57:37.282052 14329 net.cpp:454] conv3_4 <- conv3_3
I0429 16:57:37.282071 14329 net.cpp:411] conv3_4 -> conv3_4
I0429 16:57:37.284523 14329 net.cpp:150] Setting up conv3_4
I0429 16:57:37.284564 14329 net.cpp:157] Top shape: 16 256 56 56 (12845056)
I0429 16:57:37.284582 14329 net.cpp:165] Memory required for data: 1679491136
I0429 16:57:37.284602 14329 layer_factory.hpp:77] Creating layer ReLU3_4
I0429 16:57:37.284626 14329 net.cpp:106] Creating Layer ReLU3_4
I0429 16:57:37.284643 14329 net.cpp:454] ReLU3_4 <- conv3_4
I0429 16:57:37.284662 14329 net.cpp:397] ReLU3_4 -> conv3_4 (in-place)
I0429 16:57:37.284941 14329 net.cpp:150] Setting up ReLU3_4
I0429 16:57:37.284975 14329 net.cpp:157] Top shape: 16 256 56 56 (12845056)
I0429 16:57:37.285003 14329 net.cpp:165] Memory required for data: 1730871360
I0429 16:57:37.285033 14329 layer_factory.hpp:77] Creating layer pool3
I0429 16:57:37.285054 14329 net.cpp:106] Creating Layer pool3
I0429 16:57:37.285073 14329 net.cpp:454] pool3 <- conv3_4
I0429 16:57:37.285091 14329 net.cpp:411] pool3 -> pool3
I0429 16:57:37.285150 14329 net.cpp:150] Setting up pool3
I0429 16:57:37.285173 14329 net.cpp:157] Top shape: 16 256 28 28 (3211264)
I0429 16:57:37.285190 14329 net.cpp:165] Memory required for data: 1743716416
I0429 16:57:37.285207 14329 layer_factory.hpp:77] Creating layer conv4_1
I0429 16:57:37.285228 14329 net.cpp:106] Creating Layer conv4_1
I0429 16:57:37.285245 14329 net.cpp:454] conv4_1 <- pool3
I0429 16:57:37.285264 14329 net.cpp:411] conv4_1 -> conv4_1
I0429 16:57:37.289386 14329 net.cpp:150] Setting up conv4_1
I0429 16:57:37.289428 14329 net.cpp:157] Top shape: 16 512 28 28 (6422528)
I0429 16:57:37.289448 14329 net.cpp:165] Memory required for data: 1769406528
I0429 16:57:37.289471 14329 layer_factory.hpp:77] Creating layer ReLU4_1
I0429 16:57:37.289494 14329 net.cpp:106] Creating Layer ReLU4_1
I0429 16:57:37.289513 14329 net.cpp:454] ReLU4_1 <- conv4_1
I0429 16:57:37.289531 14329 net.cpp:397] ReLU4_1 -> conv4_1 (in-place)
I0429 16:57:37.289700 14329 net.cpp:150] Setting up ReLU4_1
I0429 16:57:37.289731 14329 net.cpp:157] Top shape: 16 512 28 28 (6422528)
I0429 16:57:37.289747 14329 net.cpp:165] Memory required for data: 1795096640
I0429 16:57:37.289764 14329 layer_factory.hpp:77] Creating layer conv4_2
I0429 16:57:37.289785 14329 net.cpp:106] Creating Layer conv4_2
I0429 16:57:37.289803 14329 net.cpp:454] conv4_2 <- conv4_1
I0429 16:57:37.289824 14329 net.cpp:411] conv4_2 -> conv4_2
I0429 16:57:37.296083 14329 net.cpp:150] Setting up conv4_2
I0429 16:57:37.296123 14329 net.cpp:157] Top shape: 16 512 28 28 (6422528)
I0429 16:57:37.296142 14329 net.cpp:165] Memory required for data: 1820786752
I0429 16:57:37.296162 14329 layer_factory.hpp:77] Creating layer ReLU4_2
I0429 16:57:37.296183 14329 net.cpp:106] Creating Layer ReLU4_2
I0429 16:57:37.296200 14329 net.cpp:454] ReLU4_2 <- conv4_2
I0429 16:57:37.296218 14329 net.cpp:397] ReLU4_2 -> conv4_2 (in-place)
I0429 16:57:37.296388 14329 net.cpp:150] Setting up ReLU4_2
I0429 16:57:37.296417 14329 net.cpp:157] Top shape: 16 512 28 28 (6422528)
I0429 16:57:37.296433 14329 net.cpp:165] Memory required for data: 1846476864
I0429 16:57:37.296450 14329 layer_factory.hpp:77] Creating layer conv4_3
I0429 16:57:37.296471 14329 net.cpp:106] Creating Layer conv4_3
I0429 16:57:37.296490 14329 net.cpp:454] conv4_3 <- conv4_2
I0429 16:57:37.296509 14329 net.cpp:411] conv4_3 -> conv4_3
I0429 16:57:37.302881 14329 net.cpp:150] Setting up conv4_3
I0429 16:57:37.302925 14329 net.cpp:157] Top shape: 16 512 28 28 (6422528)
I0429 16:57:37.302944 14329 net.cpp:165] Memory required for data: 1872166976
I0429 16:57:37.302964 14329 layer_factory.hpp:77] Creating layer ReLU4_3
I0429 16:57:37.302985 14329 net.cpp:106] Creating Layer ReLU4_3
I0429 16:57:37.303004 14329 net.cpp:454] ReLU4_3 <- conv4_3
I0429 16:57:37.303023 14329 net.cpp:397] ReLU4_3 -> conv4_3 (in-place)
I0429 16:57:37.303297 14329 net.cpp:150] Setting up ReLU4_3
I0429 16:57:37.303331 14329 net.cpp:157] Top shape: 16 512 28 28 (6422528)
I0429 16:57:37.303349 14329 net.cpp:165] Memory required for data: 1897857088
I0429 16:57:37.303365 14329 layer_factory.hpp:77] Creating layer conv4_4
I0429 16:57:37.303390 14329 net.cpp:106] Creating Layer conv4_4
I0429 16:57:37.303408 14329 net.cpp:454] conv4_4 <- conv4_3
I0429 16:57:37.303427 14329 net.cpp:411] conv4_4 -> conv4_4
I0429 16:57:37.309706 14329 net.cpp:150] Setting up conv4_4
I0429 16:57:37.309758 14329 net.cpp:157] Top shape: 16 512 28 28 (6422528)
I0429 16:57:37.309778 14329 net.cpp:165] Memory required for data: 1923547200
I0429 16:57:37.309798 14329 layer_factory.hpp:77] Creating layer ReLU4_4
I0429 16:57:37.309819 14329 net.cpp:106] Creating Layer ReLU4_4
I0429 16:57:37.309837 14329 net.cpp:454] ReLU4_4 <- conv4_4
I0429 16:57:37.309857 14329 net.cpp:397] ReLU4_4 -> conv4_4 (in-place)
I0429 16:57:37.310048 14329 net.cpp:150] Setting up ReLU4_4
I0429 16:57:37.310094 14329 net.cpp:157] Top shape: 16 512 28 28 (6422528)
I0429 16:57:37.310112 14329 net.cpp:165] Memory required for data: 1949237312
I0429 16:57:37.310128 14329 layer_factory.hpp:77] Creating layer pool4
I0429 16:57:37.310150 14329 net.cpp:106] Creating Layer pool4
I0429 16:57:37.310168 14329 net.cpp:454] pool4 <- conv4_4
I0429 16:57:37.310186 14329 net.cpp:411] pool4 -> pool4
I0429 16:57:37.310245 14329 net.cpp:150] Setting up pool4
I0429 16:57:37.310271 14329 net.cpp:157] Top shape: 16 512 14 14 (1605632)
I0429 16:57:37.310286 14329 net.cpp:165] Memory required for data: 1955659840
I0429 16:57:37.310302 14329 layer_factory.hpp:77] Creating layer conv5_1
I0429 16:57:37.310326 14329 net.cpp:106] Creating Layer conv5_1
I0429 16:57:37.310344 14329 net.cpp:454] conv5_1 <- pool4
I0429 16:57:37.310362 14329 net.cpp:411] conv5_1 -> conv5_1
I0429 16:57:37.316658 14329 net.cpp:150] Setting up conv5_1
I0429 16:57:37.316699 14329 net.cpp:157] Top shape: 16 512 14 14 (1605632)
I0429 16:57:37.316717 14329 net.cpp:165] Memory required for data: 1962082368
I0429 16:57:37.316737 14329 layer_factory.hpp:77] Creating layer ReLU5_1
I0429 16:57:37.316758 14329 net.cpp:106] Creating Layer ReLU5_1
I0429 16:57:37.316776 14329 net.cpp:454] ReLU5_1 <- conv5_1
I0429 16:57:37.316795 14329 net.cpp:397] ReLU5_1 -> conv5_1 (in-place)
I0429 16:57:37.317095 14329 net.cpp:150] Setting up ReLU5_1
I0429 16:57:37.317129 14329 net.cpp:157] Top shape: 16 512 14 14 (1605632)
I0429 16:57:37.317147 14329 net.cpp:165] Memory required for data: 1968504896
I0429 16:57:37.317163 14329 layer_factory.hpp:77] Creating layer conv5_2
I0429 16:57:37.317186 14329 net.cpp:106] Creating Layer conv5_2
I0429 16:57:37.317205 14329 net.cpp:454] conv5_2 <- conv5_1
I0429 16:57:37.317225 14329 net.cpp:411] conv5_2 -> conv5_2
I0429 16:57:37.324076 14329 net.cpp:150] Setting up conv5_2
I0429 16:57:37.324120 14329 net.cpp:157] Top shape: 16 512 14 14 (1605632)
I0429 16:57:37.324139 14329 net.cpp:165] Memory required for data: 1974927424
I0429 16:57:37.324167 14329 layer_factory.hpp:77] Creating layer ReLU5_2
I0429 16:57:37.324193 14329 net.cpp:106] Creating Layer ReLU5_2
I0429 16:57:37.324213 14329 net.cpp:454] ReLU5_2 <- conv5_2
I0429 16:57:37.324230 14329 net.cpp:397] ReLU5_2 -> conv5_2 (in-place)
I0429 16:57:37.324548 14329 net.cpp:150] Setting up ReLU5_2
I0429 16:57:37.324604 14329 net.cpp:157] Top shape: 16 512 14 14 (1605632)
I0429 16:57:37.324623 14329 net.cpp:165] Memory required for data: 1981349952
I0429 16:57:37.324640 14329 layer_factory.hpp:77] Creating layer conv5_3
I0429 16:57:37.324684 14329 net.cpp:106] Creating Layer conv5_3
I0429 16:57:37.324725 14329 net.cpp:454] conv5_3 <- conv5_2
I0429 16:57:37.324745 14329 net.cpp:411] conv5_3 -> conv5_3
I0429 16:57:37.331365 14329 net.cpp:150] Setting up conv5_3
I0429 16:57:37.331406 14329 net.cpp:157] Top shape: 16 512 14 14 (1605632)
I0429 16:57:37.331424 14329 net.cpp:165] Memory required for data: 1987772480
I0429 16:57:37.331444 14329 layer_factory.hpp:77] Creating layer ReLU5_3
I0429 16:57:37.331464 14329 net.cpp:106] Creating Layer ReLU5_3
I0429 16:57:37.331480 14329 net.cpp:454] ReLU5_3 <- conv5_3
I0429 16:57:37.331499 14329 net.cpp:397] ReLU5_3 -> conv5_3 (in-place)
I0429 16:57:37.331663 14329 net.cpp:150] Setting up ReLU5_3
I0429 16:57:37.331693 14329 net.cpp:157] Top shape: 16 512 14 14 (1605632)
I0429 16:57:37.331710 14329 net.cpp:165] Memory required for data: 1994195008
I0429 16:57:37.331727 14329 layer_factory.hpp:77] Creating layer conv5_4
I0429 16:57:37.331745 14329 net.cpp:106] Creating Layer conv5_4
I0429 16:57:37.331761 14329 net.cpp:454] conv5_4 <- conv5_3
I0429 16:57:37.331781 14329 net.cpp:411] conv5_4 -> conv5_4
I0429 16:57:37.338084 14329 net.cpp:150] Setting up conv5_4
I0429 16:57:37.338124 14329 net.cpp:157] Top shape: 16 512 14 14 (1605632)
I0429 16:57:37.338147 14329 net.cpp:165] Memory required for data: 2000617536
I0429 16:57:37.338167 14329 layer_factory.hpp:77] Creating layer ReLU5_4
I0429 16:57:37.338208 14329 net.cpp:106] Creating Layer ReLU5_4
I0429 16:57:37.338246 14329 net.cpp:454] ReLU5_4 <- conv5_4
I0429 16:57:37.338264 14329 net.cpp:397] ReLU5_4 -> conv5_4 (in-place)
I0429 16:57:37.338426 14329 net.cpp:150] Setting up ReLU5_4
I0429 16:57:37.338454 14329 net.cpp:157] Top shape: 16 512 14 14 (1605632)
I0429 16:57:37.338470 14329 net.cpp:165] Memory required for data: 2007040064
I0429 16:57:37.338486 14329 layer_factory.hpp:77] Creating layer pool5
I0429 16:57:37.338505 14329 net.cpp:106] Creating Layer pool5
I0429 16:57:37.338521 14329 net.cpp:454] pool5 <- conv5_4
I0429 16:57:37.338539 14329 net.cpp:411] pool5 -> pool5
I0429 16:57:37.338598 14329 net.cpp:150] Setting up pool5
I0429 16:57:37.338620 14329 net.cpp:157] Top shape: 16 512 7 7 (401408)
I0429 16:57:37.338636 14329 net.cpp:165] Memory required for data: 2008645696
I0429 16:57:37.338651 14329 layer_factory.hpp:77] Creating layer fc6
I0429 16:57:37.338675 14329 net.cpp:106] Creating Layer fc6
I0429 16:57:37.338692 14329 net.cpp:454] fc6 <- pool5
I0429 16:57:37.338709 14329 net.cpp:411] fc6 -> fc6
I0429 16:57:37.556241 14329 net.cpp:150] Setting up fc6
I0429 16:57:37.556716 14329 net.cpp:157] Top shape: 16 4096 (65536)
I0429 16:57:37.556741 14329 net.cpp:165] Memory required for data: 2008907840
I0429 16:57:37.556777 14329 layer_factory.hpp:77] Creating layer ReLU6
I0429 16:57:37.556805 14329 net.cpp:106] Creating Layer ReLU6
I0429 16:57:37.556825 14329 net.cpp:454] ReLU6 <- fc6
I0429 16:57:37.556857 14329 net.cpp:397] ReLU6 -> fc6 (in-place)
I0429 16:57:37.557291 14329 net.cpp:150] Setting up ReLU6
I0429 16:57:37.557332 14329 net.cpp:157] Top shape: 16 4096 (65536)
I0429 16:57:37.557350 14329 net.cpp:165] Memory required for data: 2009169984
I0429 16:57:37.557368 14329 layer_factory.hpp:77] Creating layer drop6
I0429 16:57:37.557390 14329 net.cpp:106] Creating Layer drop6
I0429 16:57:37.557410 14329 net.cpp:454] drop6 <- fc6
I0429 16:57:37.557427 14329 net.cpp:397] drop6 -> fc6 (in-place)
I0429 16:57:37.557483 14329 net.cpp:150] Setting up drop6
I0429 16:57:37.557508 14329 net.cpp:157] Top shape: 16 4096 (65536)
I0429 16:57:37.557525 14329 net.cpp:165] Memory required for data: 2009432128
I0429 16:57:37.557541 14329 layer_factory.hpp:77] Creating layer fc7
I0429 16:57:37.557561 14329 net.cpp:106] Creating Layer fc7
I0429 16:57:37.557579 14329 net.cpp:454] fc7 <- fc6
I0429 16:57:37.557601 14329 net.cpp:411] fc7 -> fc7
I0429 16:57:37.595973 14329 net.cpp:150] Setting up fc7
I0429 16:57:37.596078 14329 net.cpp:157] Top shape: 16 4096 (65536)
I0429 16:57:37.596096 14329 net.cpp:165] Memory required for data: 2009694272
I0429 16:57:37.596118 14329 layer_factory.hpp:77] Creating layer ReLU7
I0429 16:57:37.596141 14329 net.cpp:106] Creating Layer ReLU7
I0429 16:57:37.596160 14329 net.cpp:454] ReLU7 <- fc7
I0429 16:57:37.596181 14329 net.cpp:397] ReLU7 -> fc7 (in-place)
I0429 16:57:37.596575 14329 net.cpp:150] Setting up ReLU7
I0429 16:57:37.596607 14329 net.cpp:157] Top shape: 16 4096 (65536)
I0429 16:57:37.596626 14329 net.cpp:165] Memory required for data: 2009956416
I0429 16:57:37.596642 14329 layer_factory.hpp:77] Creating layer drop7
I0429 16:57:37.596663 14329 net.cpp:106] Creating Layer drop7
I0429 16:57:37.596680 14329 net.cpp:454] drop7 <- fc7
I0429 16:57:37.596698 14329 net.cpp:397] drop7 -> fc7 (in-place)
I0429 16:57:37.596741 14329 net.cpp:150] Setting up drop7
I0429 16:57:37.596766 14329 net.cpp:157] Top shape: 16 4096 (65536)
I0429 16:57:37.596783 14329 net.cpp:165] Memory required for data: 2010218560
I0429 16:57:37.596798 14329 layer_factory.hpp:77] Creating layer fc8_foodCAT
I0429 16:57:37.596817 14329 net.cpp:106] Creating Layer fc8_foodCAT
I0429 16:57:37.596832 14329 net.cpp:454] fc8_foodCAT <- fc7
I0429 16:57:37.596851 14329 net.cpp:411] fc8_foodCAT -> fc8_foodCAT
I0429 16:57:37.599143 14329 net.cpp:150] Setting up fc8_foodCAT
I0429 16:57:37.599177 14329 net.cpp:157] Top shape: 16 218 (3488)
I0429 16:57:37.599195 14329 net.cpp:165] Memory required for data: 2010232512
I0429 16:57:37.599213 14329 layer_factory.hpp:77] Creating layer loss
I0429 16:57:37.599258 14329 net.cpp:106] Creating Layer loss
I0429 16:57:37.599299 14329 net.cpp:454] loss <- fc8_foodCAT
I0429 16:57:37.599318 14329 net.cpp:454] loss <- label
I0429 16:57:37.599339 14329 net.cpp:411] loss -> loss/loss
I0429 16:57:37.599366 14329 layer_factory.hpp:77] Creating layer loss
…
I0429 16:57:37.602761 14329 net.cpp:322] The NetState phase (1) differed from the phase (0) specified by a rule in layer data
I0429 16:57:37.603070 14329 net.cpp:49] Initializing net from parameters: 
name: "foodCAT_VGG_ILSVRC_19_layer"
state {
  phase: TEST
}
layer {
  name: "data"
  type: "ImageData"
  top: "data"
  top: "label"
  include {
    phase: TEST
  }
  transform_param {
    mirror: false
    crop_size: 224
    mean_value: 104
    mean_value: 117
    mean_value: 123
  }
  image_data_param {
    source: "foodCAT_CLUSTER/val.txt"
    batch_size: 16
    shuffle: true
    new_height: 256
    new_width: 256
  }
}
layer {
  name: "conv1_1"
  type: "Convolution"
  bottom: "data"
  top: "conv1_1"
  convolution_param {
    num_output: 64
    pad: 1
    kernel_size: 3
  }
}
layer {
  name: "ReLU1_1"
  type: "ReLU"
  bottom: "conv1_1"
  top: "conv1_1"
}
layer {
  name: "conv1_2"
  type: "Convolution"
  bottom: "conv1_1"
  top: "conv1_2"
  convolution_param {
    num_output: 64
    pad: 1
    kernel_size: 3
  }
}
layer {
  name: "ReLU1_2"
  type: "ReLU"
  bottom: "conv1_2"
  top: "conv1_2"
}
layer {
  name: "pool1"
  type: "Pooling"
  bottom: "conv1_2"
  top: "pool1"
  pooling_param {
    pool: MAX
    kernel_size: 2
    stride: 2
  }
}
layer {
  name: "conv2_1"
  type: "Convolution"
  bottom: "pool1"
  top: "conv2_1"
  convolution_param {
    num_output: 128
    pad: 1
    kernel_size: 3
  }
}
layer {
  name: "ReLU2_1"
  type: "ReLU"
  bottom: "conv2_1"
  top: "conv2_1"
}
layer {
  name: "conv2_2"
  type: "Convolution"
  bottom: "conv2_1"
  top: "conv2_2"
  convolution_param {
    num_output: 128
    pad: 1
    kernel_size: 3
  }
}
layer {
  name: "ReLU2_2"
  type: "ReLU"
  bottom: "conv2_2"
  top: "conv2_2"
}
layer {
  name: "pool2"
  type: "Pooling"
  bottom: "conv2_2"
  top: "pool2"
  pooling_param {
    pool: MAX
    kernel_size: 2
    stride: 2
  }
}
layer {
  name: "conv3_1"
  type: "Convolution"
  bottom: "pool2"
  top: "conv3_1"
  convolution_param {
    num_output: 256
    pad: 1
    kernel_size: 3
  }
}
layer {
  name: "ReLU3_1"
  type: "ReLU"
  bottom: "conv3_1"
  top: "conv3_1"
}
layer {
  name: "conv3_2"
  type: "Convolution"
  bottom: "conv3_1"
  top: "conv3_2"
  convolution_param {
    num_output: 256
    pad: 1
    kernel_size: 3
  }
}
layer {
  name: "ReLU3_2"
  type: "ReLU"
  bottom: "conv3_2"
  top: "conv3_2"
}
layer {
  name: "conv3_3"
  type: "Convolution"
  bottom: "conv3_2"
  top: "conv3_3"
  convolution_param {
    num_output: 256
    pad: 1
    kernel_size: 3
  }
}
layer {
  name: "ReLU3_3"
  type: "ReLU"
  bottom: "conv3_3"
  top: "conv3_3"
}
layer {
  name: "conv3_4"
  type: "Convolution"
  bottom: "conv3_3"
  top: "conv3_4"
  convolution_param {
    num_output: 256
    pad: 1
    kernel_size: 3
  }
}
layer {
  name: "ReLU3_4"
  type: "ReLU"
  bottom: "conv3_4"
  top: "conv3_4"
}
layer {
  name: "pool3"
  type: "Pooling"
  bottom: "conv3_4"
  top: "pool3"
  pooling_param {
    pool: MAX
    kernel_size: 2
    stride: 2
  }
}
layer {
  name: "conv4_1"
  type: "Convolution"
  bottom: "pool3"
  top: "conv4_1"
  convolution_param {
    num_output: 512
    pad: 1
    kernel_size: 3
  }
}
layer {
  name: "ReLU4_1"
  type: "ReLU"
  bottom: "conv4_1"
  top: "conv4_1"
}
layer {
  name: "conv4_2"
  type: "Convolution"
  bottom: "conv4_1"
  top: "conv4_2"
  convolution_param {
    num_output: 512
    pad: 1
    kernel_size: 3
  }
}
layer {
  name: "ReLU4_2"
  type: "ReLU"
  bottom: "conv4_2"
  top: "conv4_2"
}
layer {
  name: "conv4_3"
  type: "Convolution"
  bottom: "conv4_2"
  top: "conv4_3"
  convolution_param {
    num_output: 512
    pad: 1
    kernel_size: 3
  }
}
layer {
  name: "ReLU4_3"
  type: "ReLU"
  bottom: "conv4_3"
  top: "conv4_3"
}
layer {
  name: "conv4_4"
  type: "Convolution"
  bottom: "conv4_3"
  top: "conv4_4"
  convolution_param {
    num_output: 512
    pad: 1
    kernel_size: 3
  }
}
layer {
  name: "ReLU4_4"
  type: "ReLU"
  bottom: "conv4_4"
  top: "conv4_4"
}
layer {
  name: "pool4"
  type: "Pooling"
  bottom: "conv4_4"
  top: "pool4"
  pooling_param {
    pool: MAX
    kernel_size: 2
    stride: 2
  }
}
layer {
  name: "conv5_1"
  type: "Convolution"
  bottom: "pool4"
  top: "conv5_1"
  convolution_param {
    num_output: 512
    pad: 1
    kernel_size: 3
  }
}
layer {
  name: "ReLU5_1"
  type: "ReLU"
  bottom: "conv5_1"
  top: "conv5_1"
}
layer {
  name: "conv5_2"
  type: "Convolution"
  bottom: "conv5_1"
  top: "conv5_2"
  convolution_param {
    num_output: 512
    pad: 1
    kernel_size: 3
  }
}
layer {
  name: "ReLU5_2"
  type: "ReLU"
  bottom: "conv5_2"
  top: "conv5_2"
}
layer {
  name: "conv5_3"
  type: "Convolution"
  bottom: "conv5_2"
  top: "conv5_3"
  convolution_param {
    num_output: 512
    pad: 1
    kernel_size: 3
  }
}
layer {
  name: "ReLU5_3"
  type: "ReLU"
  bottom: "conv5_3"
  top: "conv5_3"
}
layer {
  name: "conv5_4"
  type: "Convolution"
  bottom: "conv5_3"
  top: "conv5_4"
  convolution_param {
    num_output: 512
    pad: 1
    kernel_size: 3
  }
}
layer {
  name: "ReLU5_4"
  type: "ReLU"
  bottom: "conv5_4"
  top: "conv5_4"
}
layer {
  name: "pool5"
  type: "Pooling"
  bottom: "conv5_4"
  top: "pool5"
  pooling_param {
    pool: MAX
    kernel_size: 2
    stride: 2
  }
}
layer {
  name: "fc6"
  type: "InnerProduct"
  bottom: "pool5"
  top: "fc6"
  inner_product_param {
    num_output: 4096
  }
}
layer {
  name: "ReLU6"
  type: "ReLU"
  bottom: "fc6"
  top: "fc6"
}
layer {
  name: "drop6"
  type: "Dropout"
  bottom: "fc6"
  top: "fc6"
  dropout_param {
    dropout_ratio: 0.5
  }
}
layer {
  name: "fc7"
  type: "InnerProduct"
  bottom: "fc6"
  top: "fc7"
  inner_product_param {
    num_output: 4096
  }
}
layer {
  name: "ReLU7"
  type: "ReLU"
  bottom: "fc7"
  top: "fc7"
}
layer {
  name: "drop7"
  type: "Dropout"
  bottom: "fc7"
  top: "fc7"
  dropout_param {
    dropout_ratio: 0.5
  }
}
layer {
  name: "fc8_foodCAT"
  type: "InnerProduct"
  bottom: "fc7"
  top: "fc8_foodCAT"
  inner_product_param {
    num_output: 218
  }
}
layer {
  name: "loss"
  type: "SoftmaxWithLoss"
  bottom: "fc8_foodCAT"
  bottom: "label"
  top: "loss/loss"
}
layer {
  name: "accuracy/top1"
  type: "Accuracy"
  bottom: "fc8_foodCAT"
  bottom: "label"
  top: "accuracy@1"
  include {
    phase: TEST
  }
  accuracy_param {
    top_k: 1
  }
}
layer {
  name: "accuracy/top5"
  type: "Accuracy"
  bottom: "fc8_foodCAT"
  bottom: "label"
  top: "accuracy@5"
  include {
    phase: TEST
  }
  accuracy_param {
    top_k: 5
  }
}
I0429 16:57:37.603332 14329 layer_factory.hpp:77] Creating layer data
I0429 16:57:37.603382 14329 net.cpp:106] Creating Layer data
I0429 16:57:37.603415 14329 net.cpp:411] data -> data
I0429 16:57:37.603440 14329 net.cpp:411] data -> label
I0429 16:57:37.603489 14329 image_data_layer.cpp:38] Opening file foodCAT_CLUSTER/val.txt
I0429 16:57:37.612200 14329 image_data_layer.cpp:48] Shuffling data
I0429 16:57:37.613142 14329 image_data_layer.cpp:53] A total of 14649 images.
I0429 16:57:37.632980 14329 image_data_layer.cpp:80] output data size: 16,3,224,224
I0429 16:57:37.651526 14329 net.cpp:150] Setting up data
I0429 16:57:37.651595 14329 net.cpp:157] Top shape: 16 3 224 224 (2408448)
I0429 16:57:37.651618 14329 net.cpp:157] Top shape: 16 (16)
I0429 16:57:37.651635 14329 net.cpp:165] Memory required for data: 9633856
I0429 16:57:37.651654 14329 layer_factory.hpp:77] Creating layer label_data_1_split
I0429 16:57:37.651677 14329 net.cpp:106] Creating Layer label_data_1_split
I0429 16:57:37.651697 14329 net.cpp:454] label_data_1_split <- label
I0429 16:57:37.651716 14329 net.cpp:411] label_data_1_split -> label_data_1_split_0
I0429 16:57:37.651738 14329 net.cpp:411] label_data_1_split -> label_data_1_split_1
I0429 16:57:37.651759 14329 net.cpp:411] label_data_1_split -> label_data_1_split_2
I0429 16:57:37.651844 14329 net.cpp:150] Setting up label_data_1_split
I0429 16:57:37.651885 14329 net.cpp:157] Top shape: 16 (16)
I0429 16:57:37.651935 14329 net.cpp:157] Top shape: 16 (16)
I0429 16:57:37.651954 14329 net.cpp:157] Top shape: 16 (16)
I0429 16:57:37.651971 14329 net.cpp:165] Memory required for data: 9634048
I0429 16:57:37.651988 14329 layer_factory.hpp:77] Creating layer conv1_1
I0429 16:57:37.652010 14329 net.cpp:106] Creating Layer conv1_1
I0429 16:57:37.652029 14329 net.cpp:454] conv1_1 <- data
I0429 16:57:37.652048 14329 net.cpp:411] conv1_1 -> conv1_1
I0429 16:57:37.653156 14329 net.cpp:150] Setting up conv1_1
I0429 16:57:37.653200 14329 net.cpp:157] Top shape: 16 64 224 224 (51380224)
I0429 16:57:37.653221 14329 net.cpp:165] Memory required for data: 215154944
I0429 16:57:37.653247 14329 layer_factory.hpp:77] Creating layer ReLU1_1
I0429 16:57:37.653270 14329 net.cpp:106] Creating Layer ReLU1_1
I0429 16:57:37.653290 14329 net.cpp:454] ReLU1_1 <- conv1_1
I0429 16:57:37.653309 14329 net.cpp:397] ReLU1_1 -> conv1_1 (in-place)
I0429 16:57:37.653496 14329 net.cpp:150] Setting up ReLU1_1
I0429 16:57:37.653527 14329 net.cpp:157] Top shape: 16 64 224 224 (51380224)
I0429 16:57:37.653544 14329 net.cpp:165] Memory required for data: 420675840
I0429 16:57:37.653561 14329 layer_factory.hpp:77] Creating layer conv1_2
I0429 16:57:37.653583 14329 net.cpp:106] Creating Layer conv1_2
I0429 16:57:37.653601 14329 net.cpp:454] conv1_2 <- conv1_1
I0429 16:57:37.653620 14329 net.cpp:411] conv1_2 -> conv1_2
I0429 16:57:37.655105 14329 net.cpp:150] Setting up conv1_2
I0429 16:57:37.655148 14329 net.cpp:157] Top shape: 16 64 224 224 (51380224)
I0429 16:57:37.655167 14329 net.cpp:165] Memory required for data: 626196736
I0429 16:57:37.655190 14329 layer_factory.hpp:77] Creating layer ReLU1_2
I0429 16:57:37.655211 14329 net.cpp:106] Creating Layer ReLU1_2
I0429 16:57:37.655230 14329 net.cpp:454] ReLU1_2 <- conv1_2
I0429 16:57:37.655248 14329 net.cpp:397] ReLU1_2 -> conv1_2 (in-place)
I0429 16:57:37.655525 14329 net.cpp:150] Setting up ReLU1_2
I0429 16:57:37.655560 14329 net.cpp:157] Top shape: 16 64 224 224 (51380224)
I0429 16:57:37.655578 14329 net.cpp:165] Memory required for data: 831717632
I0429 16:57:37.655596 14329 layer_factory.hpp:77] Creating layer pool1
I0429 16:57:37.655616 14329 net.cpp:106] Creating Layer pool1
I0429 16:57:37.655632 14329 net.cpp:454] pool1 <- conv1_2
I0429 16:57:37.655663 14329 net.cpp:411] pool1 -> pool1
I0429 16:57:37.655745 14329 net.cpp:150] Setting up pool1
I0429 16:57:37.655782 14329 net.cpp:157] Top shape: 16 64 112 112 (12845056)
I0429 16:57:37.655810 14329 net.cpp:165] Memory required for data: 883097856
I0429 16:57:37.655827 14329 layer_factory.hpp:77] Creating layer conv2_1
I0429 16:57:37.655859 14329 net.cpp:106] Creating Layer conv2_1
I0429 16:57:37.655877 14329 net.cpp:454] conv2_1 <- pool1
I0429 16:57:37.655901 14329 net.cpp:411] conv2_1 -> conv2_1
I0429 16:57:37.658624 14329 net.cpp:150] Setting up conv2_1
I0429 16:57:37.658666 14329 net.cpp:157] Top shape: 16 128 112 112 (25690112)
I0429 16:57:37.658686 14329 net.cpp:165] Memory required for data: 985858304
I0429 16:57:37.658710 14329 layer_factory.hpp:77] Creating layer ReLU2_1
I0429 16:57:37.658732 14329 net.cpp:106] Creating Layer ReLU2_1
I0429 16:57:37.658751 14329 net.cpp:454] ReLU2_1 <- conv2_1
I0429 16:57:37.658769 14329 net.cpp:397] ReLU2_1 -> conv2_1 (in-place)
I0429 16:57:37.658962 14329 net.cpp:150] Setting up ReLU2_1
I0429 16:57:37.658993 14329 net.cpp:157] Top shape: 16 128 112 112 (25690112)
I0429 16:57:37.659010 14329 net.cpp:165] Memory required for data: 1088618752
I0429 16:57:37.659027 14329 layer_factory.hpp:77] Creating layer conv2_2
I0429 16:57:37.659047 14329 net.cpp:106] Creating Layer conv2_2
I0429 16:57:37.659066 14329 net.cpp:454] conv2_2 <- conv2_1
I0429 16:57:37.659085 14329 net.cpp:411] conv2_2 -> conv2_2
I0429 16:57:37.660068 14329 net.cpp:150] Setting up conv2_2
I0429 16:57:37.660117 14329 net.cpp:157] Top shape: 16 128 112 112 (25690112)
I0429 16:57:37.660137 14329 net.cpp:165] Memory required for data: 1191379200
I0429 16:57:37.660158 14329 layer_factory.hpp:77] Creating layer ReLU2_2
I0429 16:57:37.660190 14329 net.cpp:106] Creating Layer ReLU2_2
I0429 16:57:37.660223 14329 net.cpp:454] ReLU2_2 <- conv2_2
I0429 16:57:37.660241 14329 net.cpp:397] ReLU2_2 -> conv2_2 (in-place)
I0429 16:57:37.660444 14329 net.cpp:150] Setting up ReLU2_2
I0429 16:57:37.660476 14329 net.cpp:157] Top shape: 16 128 112 112 (25690112)
I0429 16:57:37.660495 14329 net.cpp:165] Memory required for data: 1294139648
I0429 16:57:37.660522 14329 layer_factory.hpp:77] Creating layer pool2
I0429 16:57:37.660542 14329 net.cpp:106] Creating Layer pool2
I0429 16:57:37.660558 14329 net.cpp:454] pool2 <- conv2_2
I0429 16:57:37.660576 14329 net.cpp:411] pool2 -> pool2
I0429 16:57:37.660639 14329 net.cpp:150] Setting up pool2
I0429 16:57:37.660665 14329 net.cpp:157] Top shape: 16 128 56 56 (6422528)
I0429 16:57:37.660682 14329 net.cpp:165] Memory required for data: 1319829760
I0429 16:57:37.660698 14329 layer_factory.hpp:77] Creating layer conv3_1
I0429 16:57:37.660718 14329 net.cpp:106] Creating Layer conv3_1
I0429 16:57:37.660737 14329 net.cpp:454] conv3_1 <- pool2
I0429 16:57:37.660754 14329 net.cpp:411] conv3_1 -> conv3_1
I0429 16:57:37.662472 14329 net.cpp:150] Setting up conv3_1
I0429 16:57:37.662513 14329 net.cpp:157] Top shape: 16 256 56 56 (12845056)
I0429 16:57:37.662531 14329 net.cpp:165] Memory required for data: 1371209984
I0429 16:57:37.662554 14329 layer_factory.hpp:77] Creating layer ReLU3_1
I0429 16:57:37.662575 14329 net.cpp:106] Creating Layer ReLU3_1
I0429 16:57:37.662593 14329 net.cpp:454] ReLU3_1 <- conv3_1
I0429 16:57:37.662611 14329 net.cpp:397] ReLU3_1 -> conv3_1 (in-place)
I0429 16:57:37.662936 14329 net.cpp:150] Setting up ReLU3_1
I0429 16:57:37.662971 14329 net.cpp:157] Top shape: 16 256 56 56 (12845056)
I0429 16:57:37.662989 14329 net.cpp:165] Memory required for data: 1422590208
I0429 16:57:37.663005 14329 layer_factory.hpp:77] Creating layer conv3_2
I0429 16:57:37.663027 14329 net.cpp:106] Creating Layer conv3_2
I0429 16:57:37.663044 14329 net.cpp:454] conv3_2 <- conv3_1
I0429 16:57:37.663065 14329 net.cpp:411] conv3_2 -> conv3_2
I0429 16:57:37.665458 14329 net.cpp:150] Setting up conv3_2
I0429 16:57:37.665498 14329 net.cpp:157] Top shape: 16 256 56 56 (12845056)
I0429 16:57:37.665516 14329 net.cpp:165] Memory required for data: 1473970432
I0429 16:57:37.665535 14329 layer_factory.hpp:77] Creating layer ReLU3_2
I0429 16:57:37.665555 14329 net.cpp:106] Creating Layer ReLU3_2
I0429 16:57:37.665573 14329 net.cpp:454] ReLU3_2 <- conv3_2
I0429 16:57:37.665591 14329 net.cpp:397] ReLU3_2 -> conv3_2 (in-place)
I0429 16:57:37.665763 14329 net.cpp:150] Setting up ReLU3_2
I0429 16:57:37.665793 14329 net.cpp:157] Top shape: 16 256 56 56 (12845056)
I0429 16:57:37.665810 14329 net.cpp:165] Memory required for data: 1525350656
I0429 16:57:37.665838 14329 layer_factory.hpp:77] Creating layer conv3_3
I0429 16:57:37.665860 14329 net.cpp:106] Creating Layer conv3_3
I0429 16:57:37.665889 14329 net.cpp:454] conv3_3 <- conv3_2
I0429 16:57:37.665916 14329 net.cpp:411] conv3_3 -> conv3_3
I0429 16:57:37.668673 14329 net.cpp:150] Setting up conv3_3
I0429 16:57:37.668715 14329 net.cpp:157] Top shape: 16 256 56 56 (12845056)
I0429 16:57:37.668733 14329 net.cpp:165] Memory required for data: 1576730880
I0429 16:57:37.668754 14329 layer_factory.hpp:77] Creating layer ReLU3_3
I0429 16:57:37.668777 14329 net.cpp:106] Creating Layer ReLU3_3
I0429 16:57:37.668808 14329 net.cpp:454] ReLU3_3 <- conv3_3
I0429 16:57:37.668828 14329 net.cpp:397] ReLU3_3 -> conv3_3 (in-place)
I0429 16:57:37.669100 14329 net.cpp:150] Setting up ReLU3_3
I0429 16:57:37.669142 14329 net.cpp:157] Top shape: 16 256 56 56 (12845056)
I0429 16:57:37.669170 14329 net.cpp:165] Memory required for data: 1628111104
I0429 16:57:37.669200 14329 layer_factory.hpp:77] Creating layer conv3_4
I0429 16:57:37.669221 14329 net.cpp:106] Creating Layer conv3_4
I0429 16:57:37.669250 14329 net.cpp:454] conv3_4 <- conv3_3
I0429 16:57:37.669272 14329 net.cpp:411] conv3_4 -> conv3_4
I0429 16:57:37.671860 14329 net.cpp:150] Setting up conv3_4
I0429 16:57:37.671918 14329 net.cpp:157] Top shape: 16 256 56 56 (12845056)
I0429 16:57:37.671950 14329 net.cpp:165] Memory required for data: 1679491328
I0429 16:57:37.671984 14329 layer_factory.hpp:77] Creating layer ReLU3_4
I0429 16:57:37.672006 14329 net.cpp:106] Creating Layer ReLU3_4
I0429 16:57:37.672024 14329 net.cpp:454] ReLU3_4 <- conv3_4
I0429 16:57:37.672044 14329 net.cpp:397] ReLU3_4 -> conv3_4 (in-place)
I0429 16:57:37.672335 14329 net.cpp:150] Setting up ReLU3_4
I0429 16:57:37.672371 14329 net.cpp:157] Top shape: 16 256 56 56 (12845056)
I0429 16:57:37.672390 14329 net.cpp:165] Memory required for data: 1730871552
I0429 16:57:37.672407 14329 layer_factory.hpp:77] Creating layer pool3
I0429 16:57:37.672427 14329 net.cpp:106] Creating Layer pool3
I0429 16:57:37.672446 14329 net.cpp:454] pool3 <- conv3_4
I0429 16:57:37.672466 14329 net.cpp:411] pool3 -> pool3
I0429 16:57:37.672533 14329 net.cpp:150] Setting up pool3
I0429 16:57:37.672559 14329 net.cpp:157] Top shape: 16 256 28 28 (3211264)
I0429 16:57:37.672574 14329 net.cpp:165] Memory required for data: 1743716608
I0429 16:57:37.672590 14329 layer_factory.hpp:77] Creating layer conv4_1
I0429 16:57:37.672612 14329 net.cpp:106] Creating Layer conv4_1
I0429 16:57:37.672631 14329 net.cpp:454] conv4_1 <- pool3
I0429 16:57:37.672652 14329 net.cpp:411] conv4_1 -> conv4_1
I0429 16:57:37.676445 14329 net.cpp:150] Setting up conv4_1
I0429 16:57:37.676487 14329 net.cpp:157] Top shape: 16 512 28 28 (6422528)
I0429 16:57:37.676507 14329 net.cpp:165] Memory required for data: 1769406720
I0429 16:57:37.676530 14329 layer_factory.hpp:77] Creating layer ReLU4_1
I0429 16:57:37.676553 14329 net.cpp:106] Creating Layer ReLU4_1
I0429 16:57:37.676573 14329 net.cpp:454] ReLU4_1 <- conv4_1
I0429 16:57:37.676590 14329 net.cpp:397] ReLU4_1 -> conv4_1 (in-place)
I0429 16:57:37.676764 14329 net.cpp:150] Setting up ReLU4_1
I0429 16:57:37.676796 14329 net.cpp:157] Top shape: 16 512 28 28 (6422528)
I0429 16:57:37.676813 14329 net.cpp:165] Memory required for data: 1795096832
I0429 16:57:37.676841 14329 layer_factory.hpp:77] Creating layer conv4_2
I0429 16:57:37.676861 14329 net.cpp:106] Creating Layer conv4_2
I0429 16:57:37.676879 14329 net.cpp:454] conv4_2 <- conv4_1
I0429 16:57:37.676916 14329 net.cpp:411] conv4_2 -> conv4_2
I0429 16:57:37.683661 14329 net.cpp:150] Setting up conv4_2
I0429 16:57:37.683701 14329 net.cpp:157] Top shape: 16 512 28 28 (6422528)
I0429 16:57:37.683719 14329 net.cpp:165] Memory required for data: 1820786944
I0429 16:57:37.683738 14329 layer_factory.hpp:77] Creating layer ReLU4_2
I0429 16:57:37.683761 14329 net.cpp:106] Creating Layer ReLU4_2
I0429 16:57:37.683779 14329 net.cpp:454] ReLU4_2 <- conv4_2
I0429 16:57:37.683797 14329 net.cpp:397] ReLU4_2 -> conv4_2 (in-place)
I0429 16:57:37.684020 14329 net.cpp:150] Setting up ReLU4_2
I0429 16:57:37.684051 14329 net.cpp:157] Top shape: 16 512 28 28 (6422528)
I0429 16:57:37.684068 14329 net.cpp:165] Memory required for data: 1846477056
I0429 16:57:37.684085 14329 layer_factory.hpp:77] Creating layer conv4_3
I0429 16:57:37.684108 14329 net.cpp:106] Creating Layer conv4_3
I0429 16:57:37.684128 14329 net.cpp:454] conv4_3 <- conv4_2
I0429 16:57:37.684145 14329 net.cpp:411] conv4_3 -> conv4_3
I0429 16:57:37.690970 14329 net.cpp:150] Setting up conv4_3
I0429 16:57:37.691015 14329 net.cpp:157] Top shape: 16 512 28 28 (6422528)
I0429 16:57:37.691036 14329 net.cpp:165] Memory required for data: 1872167168
I0429 16:57:37.691058 14329 layer_factory.hpp:77] Creating layer ReLU4_3
I0429 16:57:37.691082 14329 net.cpp:106] Creating Layer ReLU4_3
I0429 16:57:37.691102 14329 net.cpp:454] ReLU4_3 <- conv4_3
I0429 16:57:37.691120 14329 net.cpp:397] ReLU4_3 -> conv4_3 (in-place)
I0429 16:57:37.691427 14329 net.cpp:150] Setting up ReLU4_3
I0429 16:57:37.691463 14329 net.cpp:157] Top shape: 16 512 28 28 (6422528)
I0429 16:57:37.691483 14329 net.cpp:165] Memory required for data: 1897857280
I0429 16:57:37.691499 14329 layer_factory.hpp:77] Creating layer conv4_4
I0429 16:57:37.691524 14329 net.cpp:106] Creating Layer conv4_4
I0429 16:57:37.691542 14329 net.cpp:454] conv4_4 <- conv4_3
I0429 16:57:37.691577 14329 net.cpp:411] conv4_4 -> conv4_4
I0429 16:57:37.698176 14329 net.cpp:150] Setting up conv4_4
I0429 16:57:37.698218 14329 net.cpp:157] Top shape: 16 512 28 28 (6422528)
I0429 16:57:37.698238 14329 net.cpp:165] Memory required for data: 1923547392
I0429 16:57:37.698258 14329 layer_factory.hpp:77] Creating layer ReLU4_4
I0429 16:57:37.698279 14329 net.cpp:106] Creating Layer ReLU4_4
I0429 16:57:37.698297 14329 net.cpp:454] ReLU4_4 <- conv4_4
I0429 16:57:37.698318 14329 net.cpp:397] ReLU4_4 -> conv4_4 (in-place)
I0429 16:57:37.698499 14329 net.cpp:150] Setting up ReLU4_4
I0429 16:57:37.698531 14329 net.cpp:157] Top shape: 16 512 28 28 (6422528)
I0429 16:57:37.698549 14329 net.cpp:165] Memory required for data: 1949237504
I0429 16:57:37.698565 14329 layer_factory.hpp:77] Creating layer pool4
I0429 16:57:37.698585 14329 net.cpp:106] Creating Layer pool4
I0429 16:57:37.698602 14329 net.cpp:454] pool4 <- conv4_4
I0429 16:57:37.698621 14329 net.cpp:411] pool4 -> pool4
I0429 16:57:37.698688 14329 net.cpp:150] Setting up pool4
I0429 16:57:37.698714 14329 net.cpp:157] Top shape: 16 512 14 14 (1605632)
I0429 16:57:37.698730 14329 net.cpp:165] Memory required for data: 1955660032
I0429 16:57:37.698746 14329 layer_factory.hpp:77] Creating layer conv5_1
I0429 16:57:37.698768 14329 net.cpp:106] Creating Layer conv5_1
I0429 16:57:37.698786 14329 net.cpp:454] conv5_1 <- pool4
I0429 16:57:37.698807 14329 net.cpp:411] conv5_1 -> conv5_1
I0429 16:57:37.705683 14329 net.cpp:150] Setting up conv5_1
I0429 16:57:37.705737 14329 net.cpp:157] Top shape: 16 512 14 14 (1605632)
I0429 16:57:37.705768 14329 net.cpp:165] Memory required for data: 1962082560
I0429 16:57:37.705801 14329 layer_factory.hpp:77] Creating layer ReLU5_1
I0429 16:57:37.705823 14329 net.cpp:106] Creating Layer ReLU5_1
I0429 16:57:37.705842 14329 net.cpp:454] ReLU5_1 <- conv5_1
I0429 16:57:37.705878 14329 net.cpp:397] ReLU5_1 -> conv5_1 (in-place)
I0429 16:57:37.706224 14329 net.cpp:150] Setting up ReLU5_1
I0429 16:57:37.706256 14329 net.cpp:157] Top shape: 16 512 14 14 (1605632)
I0429 16:57:37.706296 14329 net.cpp:165] Memory required for data: 1968505088
I0429 16:57:37.706324 14329 layer_factory.hpp:77] Creating layer conv5_2
I0429 16:57:37.706383 14329 net.cpp:106] Creating Layer conv5_2
I0429 16:57:37.706426 14329 net.cpp:454] conv5_2 <- conv5_1
I0429 16:57:37.706457 14329 net.cpp:411] conv5_2 -> conv5_2
I0429 16:57:37.713568 14329 net.cpp:150] Setting up conv5_2
I0429 16:57:37.713611 14329 net.cpp:157] Top shape: 16 512 14 14 (1605632)
I0429 16:57:37.713632 14329 net.cpp:165] Memory required for data: 1974927616
I0429 16:57:37.713652 14329 layer_factory.hpp:77] Creating layer ReLU5_2
I0429 16:57:37.713675 14329 net.cpp:106] Creating Layer ReLU5_2
I0429 16:57:37.713692 14329 net.cpp:454] ReLU5_2 <- conv5_2
I0429 16:57:37.713711 14329 net.cpp:397] ReLU5_2 -> conv5_2 (in-place)
I0429 16:57:37.714033 14329 net.cpp:150] Setting up ReLU5_2
I0429 16:57:37.714072 14329 net.cpp:157] Top shape: 16 512 14 14 (1605632)
I0429 16:57:37.714092 14329 net.cpp:165] Memory required for data: 1981350144
I0429 16:57:37.714109 14329 layer_factory.hpp:77] Creating layer conv5_3
I0429 16:57:37.714130 14329 net.cpp:106] Creating Layer conv5_3
I0429 16:57:37.714149 14329 net.cpp:454] conv5_3 <- conv5_2
I0429 16:57:37.714174 14329 net.cpp:411] conv5_3 -> conv5_3
I0429 16:57:37.720855 14329 net.cpp:150] Setting up conv5_3
I0429 16:57:37.720913 14329 net.cpp:157] Top shape: 16 512 14 14 (1605632)
I0429 16:57:37.720933 14329 net.cpp:165] Memory required for data: 1987772672
I0429 16:57:37.720957 14329 layer_factory.hpp:77] Creating layer ReLU5_3
I0429 16:57:37.720979 14329 net.cpp:106] Creating Layer ReLU5_3
I0429 16:57:37.720999 14329 net.cpp:454] ReLU5_3 <- conv5_3
I0429 16:57:37.721017 14329 net.cpp:397] ReLU5_3 -> conv5_3 (in-place)
I0429 16:57:37.721209 14329 net.cpp:150] Setting up ReLU5_3
I0429 16:57:37.721240 14329 net.cpp:157] Top shape: 16 512 14 14 (1605632)
I0429 16:57:37.721256 14329 net.cpp:165] Memory required for data: 1994195200
I0429 16:57:37.721273 14329 layer_factory.hpp:77] Creating layer conv5_4
I0429 16:57:37.721317 14329 net.cpp:106] Creating Layer conv5_4
I0429 16:57:37.721359 14329 net.cpp:454] conv5_4 <- conv5_3
I0429 16:57:37.721379 14329 net.cpp:411] conv5_4 -> conv5_4
I0429 16:57:37.728157 14329 net.cpp:150] Setting up conv5_4
I0429 16:57:37.728204 14329 net.cpp:157] Top shape: 16 512 14 14 (1605632)
I0429 16:57:37.728225 14329 net.cpp:165] Memory required for data: 2000617728
I0429 16:57:37.728246 14329 layer_factory.hpp:77] Creating layer ReLU5_4
I0429 16:57:37.728269 14329 net.cpp:106] Creating Layer ReLU5_4
I0429 16:57:37.728302 14329 net.cpp:454] ReLU5_4 <- conv5_4
I0429 16:57:37.728337 14329 net.cpp:397] ReLU5_4 -> conv5_4 (in-place)
I0429 16:57:37.728581 14329 net.cpp:150] Setting up ReLU5_4
I0429 16:57:37.728626 14329 net.cpp:157] Top shape: 16 512 14 14 (1605632)
I0429 16:57:37.728653 14329 net.cpp:165] Memory required for data: 2007040256
I0429 16:57:37.728680 14329 layer_factory.hpp:77] Creating layer pool5
I0429 16:57:37.728714 14329 net.cpp:106] Creating Layer pool5
I0429 16:57:37.728734 14329 net.cpp:454] pool5 <- conv5_4
I0429 16:57:37.728775 14329 net.cpp:411] pool5 -> pool5
I0429 16:57:37.728862 14329 net.cpp:150] Setting up pool5
I0429 16:57:37.728912 14329 net.cpp:157] Top shape: 16 512 7 7 (401408)
I0429 16:57:37.728930 14329 net.cpp:165] Memory required for data: 2008645888
I0429 16:57:37.728945 14329 layer_factory.hpp:77] Creating layer fc6
I0429 16:57:37.728987 14329 net.cpp:106] Creating Layer fc6
I0429 16:57:37.729006 14329 net.cpp:454] fc6 <- pool5
I0429 16:57:37.729024 14329 net.cpp:411] fc6 -> fc6
I0429 16:57:37.953429 14329 net.cpp:150] Setting up fc6
I0429 16:57:37.953536 14329 net.cpp:157] Top shape: 16 4096 (65536)
I0429 16:57:37.953554 14329 net.cpp:165] Memory required for data: 2008908032
I0429 16:57:37.953589 14329 layer_factory.hpp:77] Creating layer ReLU6
I0429 16:57:37.953615 14329 net.cpp:106] Creating Layer ReLU6
I0429 16:57:37.953634 14329 net.cpp:454] ReLU6 <- fc6
I0429 16:57:37.953656 14329 net.cpp:397] ReLU6 -> fc6 (in-place)
I0429 16:57:37.954098 14329 net.cpp:150] Setting up ReLU6
I0429 16:57:37.954134 14329 net.cpp:157] Top shape: 16 4096 (65536)
I0429 16:57:37.954151 14329 net.cpp:165] Memory required for data: 2009170176
I0429 16:57:37.954169 14329 layer_factory.hpp:77] Creating layer drop6
I0429 16:57:37.954188 14329 net.cpp:106] Creating Layer drop6
I0429 16:57:37.954206 14329 net.cpp:454] drop6 <- fc6
I0429 16:57:37.954226 14329 net.cpp:397] drop6 -> fc6 (in-place)
I0429 16:57:37.954279 14329 net.cpp:150] Setting up drop6
I0429 16:57:37.954305 14329 net.cpp:157] Top shape: 16 4096 (65536)
I0429 16:57:37.954322 14329 net.cpp:165] Memory required for data: 2009432320
I0429 16:57:37.954339 14329 layer_factory.hpp:77] Creating layer fc7
I0429 16:57:37.954358 14329 net.cpp:106] Creating Layer fc7
I0429 16:57:37.954375 14329 net.cpp:454] fc7 <- fc6
I0429 16:57:37.954392 14329 net.cpp:411] fc7 -> fc7
I0429 16:57:37.992470 14329 net.cpp:150] Setting up fc7
I0429 16:57:37.992573 14329 net.cpp:157] Top shape: 16 4096 (65536)
I0429 16:57:37.992591 14329 net.cpp:165] Memory required for data: 2009694464
I0429 16:57:37.992612 14329 layer_factory.hpp:77] Creating layer ReLU7
I0429 16:57:37.992638 14329 net.cpp:106] Creating Layer ReLU7
I0429 16:57:37.992657 14329 net.cpp:454] ReLU7 <- fc7
I0429 16:57:37.992676 14329 net.cpp:397] ReLU7 -> fc7 (in-place)
I0429 16:57:37.993100 14329 net.cpp:150] Setting up ReLU7
I0429 16:57:37.993136 14329 net.cpp:157] Top shape: 16 4096 (65536)
I0429 16:57:37.993155 14329 net.cpp:165] Memory required for data: 2009956608
I0429 16:57:37.993170 14329 layer_factory.hpp:77] Creating layer drop7
I0429 16:57:37.993190 14329 net.cpp:106] Creating Layer drop7
I0429 16:57:37.993206 14329 net.cpp:454] drop7 <- fc7
I0429 16:57:37.993223 14329 net.cpp:397] drop7 -> fc7 (in-place)
I0429 16:57:37.993274 14329 net.cpp:150] Setting up drop7
I0429 16:57:37.993299 14329 net.cpp:157] Top shape: 16 4096 (65536)
I0429 16:57:37.993314 14329 net.cpp:165] Memory required for data: 2010218752
I0429 16:57:37.993329 14329 layer_factory.hpp:77] Creating layer fc8_foodCAT
I0429 16:57:37.993391 14329 net.cpp:106] Creating Layer fc8_foodCAT
I0429 16:57:37.993409 14329 net.cpp:454] fc8_foodCAT <- fc7
I0429 16:57:37.993428 14329 net.cpp:411] fc8_foodCAT -> fc8_foodCAT
I0429 16:57:37.995946 14329 net.cpp:150] Setting up fc8_foodCAT
I0429 16:57:37.995985 14329 net.cpp:157] Top shape: 16 218 (3488)
I0429 16:57:37.996003 14329 net.cpp:165] Memory required for data: 2010232704
I0429 16:57:37.996034 14329 layer_factory.hpp:77] Creating layer fc8_foodCAT_fc8_foodCAT_0_split
I0429 16:57:37.996078 14329 net.cpp:106] Creating Layer fc8_foodCAT_fc8_foodCAT_0_split
I0429 16:57:37.996106 14329 net.cpp:454] fc8_foodCAT_fc8_foodCAT_0_split <- fc8_foodCAT
I0429 16:57:37.996134 14329 net.cpp:411] fc8_foodCAT_fc8_foodCAT_0_split -> fc8_foodCAT_fc8_foodCAT_0_split_0
I0429 16:57:37.996153 14329 net.cpp:411] fc8_foodCAT_fc8_foodCAT_0_split -> fc8_foodCAT_fc8_foodCAT_0_split_1
I0429 16:57:37.996184 14329 net.cpp:411] fc8_foodCAT_fc8_foodCAT_0_split -> fc8_foodCAT_fc8_foodCAT_0_split_2
I0429 16:57:37.996326 14329 net.cpp:150] Setting up fc8_foodCAT_fc8_foodCAT_0_split
I0429 16:57:37.996353 14329 net.cpp:157] Top shape: 16 218 (3488)
I0429 16:57:37.996373 14329 net.cpp:157] Top shape: 16 218 (3488)
I0429 16:57:37.996392 14329 net.cpp:157] Top shape: 16 218 (3488)
I0429 16:57:37.996424 14329 net.cpp:165] Memory required for data: 2010274560
I0429 16:57:37.996451 14329 layer_factory.hpp:77] Creating layer loss
I0429 16:57:37.996471 14329 net.cpp:106] Creating Layer loss
I0429 16:57:37.996490 14329 net.cpp:454] loss <- fc8_foodCAT_fc8_foodCAT_0_split_0
I0429 16:57:37.996508 14329 net.cpp:454] loss <- label_data_1_split_0
I0429 16:57:37.996528 14329 net.cpp:411] loss -> loss/loss
…
